results/short_race/third_iteration_training/model251.pt (torch, 276107 bytes, 13 tensors)

features_model.0.weight f4 [128, 4]
000000 84 ef 21 be cc 7e 03 be a6 64 4d 3e e7 46 70 bd
       -0.15814024 -0.12841338 0.20057926 -0.058661368
000010 30 8a b0 bd 80 fd f9 bc 78 9b 19 be 0f 76 60 3e
       -0.08620107 -0.030516386 -0.15000713 0.21920036
000020 a6 75 78 3d 2b 6a 2f 3d 17 ef 52 3d 8c 27 f7 3d
       0.060659073 0.04282586 0.051497545 0.1206809
000030 6b 15 c5 bd 0d 97 17 bd 5f 5d 7d 3c d4 9a a4 bd
       -0.09623226 -0.037009288 0.015464156 -0.080373436
000040 96 65 a8 bd fe 80 3d be 99 a1 97 bc 3c 54 a9 be
       -0.08222501 -0.18506238 -0.018509673 -0.33072078
000050 20 1a e8 bd 34 47 56 be fe fe 4d 3d 26 cc 7c bc
       -0.11333108 -0.209256 0.050292008 -0.015429532
000060 fa 62 bc 3c 77 6d 24 3e ed 38 9a 3c 83 7c 24 3c
       0.022996414 0.16057383 0.018825972 0.0100394515
000070 a1 e6 6b bb 7a ef 08 bc 44 64 53 3d d6 df aa 3e
       -0.003599562 -0.008357877 0.051609293 0.33373898
000080 72 d9 a2 3c 29 61 e5 3c 2f c0 da bd d2 dd 26 3d
       0.019879077 0.028000431 -0.10681187 0.040738888
000090 ed bd 89 3e c7 74 98 3c cf f4 67 3d 30 28 ad 3d
       0.26902714 0.018610371 0.056629952 0.08454931
0000a0 9f 9c 42 3e 61 4b f3 3c c0 33 ca bc b4 f3 6b 3e
       0.19005059 0.02969903 -0.02468288 0.23042184
0000b0 37 2d 30 bb 59 1f 43 bc 92 f9 3a 3e 10 19 8f 3d
       -0.002688242 -0.011909329 0.18259266 0.06987202
0000c0 17 b8 34 3e 6d 35 23 bd 2e 67 32 3e cf be 42 be
       0.1764835 -0.039845873 0.17422172 -0.190181
0000d0 1d 11 b1 3d aa 8e 70 bb 07 60 2d 3e e8 b8 08 3e
       0.08645842 -0.0036706128 0.16931163 0.13351786
0000e0 20 ee a5 3b f3 c6 be 3d d3 d6 83 bc bc f6 1d be
       0.005063787 0.0931529 -0.016093647 -0.15426153
0000f0 75 be 74 bd d1 3b 44 3e 0b 85 51 3e c5 83 1e 3e
       -0.059751946 0.19163443 0.20460908 0.15479954
000100 bd ff 2f 3e f2 57 96 3e cc aa 1a bd e5 3c 79 be
       0.171874 0.29363972 -0.03776054 -0.24339636
000110 47 c8 2b bd c0 3b e6 3d 8a 42 06 3e 24 5d 0a bd
       -0.041939046 0.11241865 0.1311132 -0.033780232
000120 db 03 8e 3c 53 4e 5a 3e 8c 0e 0b 3d 72 8b ba be
       0.017335823 0.21318941 0.03394942 -0.36434513
000130 e7 75 7d 3d e4 8e 2b 3d bd 37 53 be 5c 95 63 3e
       0.06188002 0.041884318 -0.20626731 0.22224945
000140 d5 48 4d bd b8 9f 85 3e b4 c5 80 3a 53 17 d3 bc
       -0.050118286 0.26098418 0.0009824545 -0.025767958
000150 b0 ef 9d 3e 5d 6f 96 3d a1 ad fd 3d e1 9b 0f 3c
       0.3084693 0.073454596 0.12386633 0.008765192
000160 f7 84 b5 3d fe 92 18 be b0 1c 09 3d 75 4a d0 bd
       0.08863252 -0.14899823 0.033474624 -0.101704516
000170 c7 c0 42 bb 74 f2 eb 3d 63 77 57 3e 75 8e ce 3c
       -0.0029716955 0.11520854 0.21041636 0.025214413
000180 f9 56 59 bc a0 bd e7 3d 7d 33 e8 bd 99 1c 02 3e
       -0.013265365 0.11315465 -0.113379456 0.12706222
000190 9c f9 13 3d 3b 3c 20 3c 9d 76 8e bc c4 5c 12 be
       0.036126718 0.009779985 -0.017390544 -0.142932
0001a0 09 86 21 be 93 64 1c 3e 57 61 3f bc 22 02 a5 bd
       -0.15773787 0.15272741 -0.0116809225 -0.080570474
0001b0 2e 6d 67 be d5 b5 bc 3d 23 cb 1f bc 96 ec cb 3d
       -0.22600242 0.09214369 -0.009753021 0.099572346
0001c0 d0 a9 2e bd a6 31 07 bc f6 d3 ef 3c ab 94 b3 3c
       -0.042642415 -0.008251583 0.029275876 0.021921476
0001d0 5f e3 6a bd 0b 5a ef bd 70 86 23 be 37 89 30 be
       -0.057345744 -0.11687096 -0.15969253 -0.17239843
0001e0 53 6b 1b 3d 88 99 13 be ca a1 58 bd 58 68 0a 3e
       0.03794415 -0.14414036 -0.05288867 0.13516366
0001f0 af 0d 29 3e cb 08 e4 3d 25 f1 dd 3d ce c4 b0 bc
       0.16509126 0.111344896 0.1083701 -0.021578219
000200 38 b3 0b be 86 9e 19 3e 42 99 41 3e ba e3 f1 3d
       -0.13642585 0.15001878 0.1890612 0.118110135
000210 6f 57 01 bb ca 3b b8 3d 11 56 ef ba e2 97 12 3e
       -0.0019735952 0.08995779 -0.0018259903 0.14315751
000220 83 84 87 be 6e d8 3c be 61 32 62 3d 70 39 1b be
       -0.26468286 -0.18441936 0.055223826 -0.1515863
000230 ed 86 a1 3d a5 ff 38 3d 83 ef 3b be 42 61 87 3e
       0.07887063 0.045165677 -0.18353085 0.2644139
000240 74 39 37 3e cb d1 03 bd f6 04 85 bd 34 71 d2 bd
       0.1789301 -0.032182496 -0.06495087 -0.10275498
000250 93 2f 40 3d 5e af be 3d 27 54 2e 3d 4e 4b 08 be
       0.04692037 0.093107924 0.042560723 -0.13309976
000260 93 6d cf 3d f0 ad 90 bc 70 e0 57 bd 33 20 66 3d
       0.101283215 -0.017661065 -0.052704275 0.05618305
000270 d1 0e 2d 3d ea c0 d8 bd bb b9 0d 3e b8 4b 30 be
       0.04225046 -0.105836704 0.13840382 -0.17216384
000280 cd 25 04 3e 16 87 df 3d 10 4c 93 3d 9b a9 73 3d
       0.12905045 0.109144375 0.07192242 0.05948792
000290 34 16 bb 3d 8d d5 a2 3e ea 3e 18 3c 47 c4 e6 3c
       0.09135094 0.3180355 0.009292344 0.028169764
0002a0 cd b0 a0 bd 0c 0e 33 3d 56 13 b0 be ca 74 23 3d
       -0.07846222 0.043714568 -0.34389752 0.0399063
0002b0 5b c8 b8 bd 35 00 64 3e 4c 0a e8 3d 0f fe 26 bc
       -0.0902259 0.22265704 0.11330089 -0.010192408
0002c0 57 b9 22 bd 74 cc 8e 3d 76 00 da bd 63 93 56 3d
       -0.039727535 0.0697259 -0.10644619 0.052386653
0002d0 48 af 0b 3e b9 25 b7 bd 3e bf d0 3c 1d 90 05 be
       0.13641083 -0.08942742 0.025481816 -0.13043256
0002e0 70 bb a0 bd 9c ce 01 be 35 01 52 3e 59 5e 54 bd
       -0.07848251 -0.12676471 0.20508273 -0.05184779
0002f0 87 30 fb 3d 8a dd 15 3d 55 f1 2d 3e 29 a9 35 bd
       0.12265115 0.03658823 0.16986592 -0.044350777
000300 38 7b 87 3e 36 54 48 be d4 db 74 bd 1b cd 3e be
       0.26461196 -0.19563374 -0.059779957 -0.18632929
000310 19 6d 62 3e 6c 97 d5 3d e0 12 c6 bc a9 b5 01 3e
       0.2211193 0.10429272 -0.024178922 0.12666954
000320 d2 de 09 be 6d b6 2f be 44 a5 89 3e 84 53 f6 bd
       -0.13463905 -0.17159434 0.268839 -0.12027648
000330 73 49 58 bd 52 4f 11 3d e3 4f 62 bd bb fc dd bc
       -0.05280442 0.035476036 -0.055251967 -0.02709805
000340 fb 97 ef bb 9a 43 65 3e a2 89 18 3d 07 c8 5d 3d
       -0.0073118187 0.22389069 0.037240632 0.05414584
000350 09 b5 4b 3e d7 7e c3 3d b5 16 17 be 8b f4 1b 3e
       0.19893278 0.09545677 -0.14754756 0.15230004
000360 6f 7a 25 3e 98 14 f2 3c e0 46 9d bc f7 3e cd 3d
       0.16159986 0.029550835 -0.019198835 0.10021775
000370 06 99 f9 bd 5e 97 dc 3d 5c bc f0 bd ed 09 ec 3d
       -0.1218739 0.107710585 -0.11754677 0.11525331
000380 bc 9b bb 3d 89 c1 a2 3a 38 2b f2 3b ad c8 4b 3c
       0.09160563 0.0012417297 0.007390406 0.012437982
000390 6c b0 b3 bd c8 04 31 be e6 99 6d bc 3d 4b 26 3e
       -0.08773884 -0.1728698 -0.014502024 0.16239639
0003a0 73 78 a8 3c b1 65 ae be 03 f7 48 3d b1 03 66 3c
       0.020565247 -0.3406196 0.049063694 0.014038966
0003b0 0f 19 a6 bc 69 35 5d bd 26 94 06 3d 29 d0 01 be
       -0.02027562 -0.054006014 0.03285613 -0.12677063
0003c0 f0 07 aa 3d 85 93 11 be 61 2b 94 be 18 b1 4c bd
       0.08302295 -0.1421643 -0.28939345 -0.049973577
0003d0 a0 72 ab bd bf be 1a be 62 22 d3 be bd 92 3f 3e
       -0.08371472 -0.15111826 -0.4123717 0.1870832
0003e0 e2 a6 6b 3e 3c c7 46 bd b5 08 b8 3d 31 48 20 3e
       0.2301288 -0.04852985 0.08986036 0.15652539
0003f0 df af d2 bd e1 2e 2d be 6c c9 85 bd fd 0d 2a bd
       -0.10287451 -0.16912414 -0.06532559 -0.041517247

features_model.0.bias f4 [128]
000000 d1 cd e5 3c ac 35 1a 3d 65 51 45 3d ee fb 60 3d
       0.028052242 0.03764884 0.048173327 0.05492776
000010 c4 74 a5 3c 73 21 38 3d 29 eb 31 3c e3 4e 17 3d
       0.02019728 0.044953775 0.010859289 0.036940467
000020 2d cf 5f 3c d5 2f d1 3c de 7f b4 3c 1f 8f b4 3d
       0.013660234 0.025535503 0.022033628 0.08816361
000030 af d1 87 3d 72 53 84 3d fe e9 0d 3d 06 3d 3b 3b
       0.06631791 0.064612284 0.03464698 0.0028570308
000040 c7 c1 19 bc 3d ad 46 bb ee 49 0e 3d 12 f3 29 bc
       -0.009384579 -0.003031566 0.034738474 -0.010372894
000050 59 f4 ba 3c fa 57 77 3d 83 12 c7 3c bc 38 38 3c
       0.022821592 0.060386635 0.02430082 0.011243995
000060 2c cf 7c bc b8 1f 62 3c 2e b9 48 3c a2 57 23 bc
       -0.015430253 0.013801508 0.0122511815 -0.009969624
000070 d7 2e 06 3d 5a ad 16 3d 36 a2 0f 3d c7 88 79 3c
       0.032759514 0.036786415 0.035066806 0.015230364
000080 ab 21 40 bc 97 b6 9b 3c 3b d9 5e 3d 80 18 6f 3c
       -0.011726777 0.019007964 0.054406386 0.014593244
000090 59 36 9d 3a fd 34 d7 bc 84 f1 5d bd c1 de 88 3d
       0.0011994346 -0.026270384 -0.054185405 0.06683112
0000a0 01 21 c8 3c d3 29 1b 3d 62 d6 a3 bc 40 a3 d6 3c
       0.0244298 0.037881684 -0.019999687 0.02620089
0000b0 50 af 0c bd ac 18 63 bb b1 45 61 3d 62 75 5b 3d
       -0.03434688 -0.0034652157 0.054998104 0.05357874
0000c0 2a e9 70 bc d1 39 b1 3c 24 b3 56 3d 16 95 80 bc
       -0.014704028 0.021634014 0.052416936 -0.01569609
0000d0 6c 2a da 3c ba 3a fc 3c a7 50 86 bc 6f ec b1 bc
       0.026631556 0.030789722 -0.01639588 -0.021719186
0000e0 60 ba a4 bc 75 09 3f 3c 34 43 3d bc f2 fb 42 3d
       -0.020108402 0.01165997 -0.011551667 0.047603555
0000f0 50 62 71 bd 88 f5 70 bc 8f b6 9c bd 01 24 34 3d
       -0.05893165 -0.014706977 -0.07652008 0.04397965
000100 cf 5d cf 3c 23 49 1d 3d 67 77 79 bb 40 ff b6 bd
       0.025313286 0.038399827 -0.0038065554 -0.08935404
000110 d9 c4 29 3d ef ce f4 3c 9c 12 b9 3c 53 52 02 3d
       0.041447494 0.02988383 0.022591881 0.03181679
000120 ad b8 6c 3c a9 be 5d 3d 72 fe 8d 3d c6 77 7b 3c
       0.014448327 0.054136906 0.06933297 0.01534838
000130 2c 7d 0b 3c 77 5b 55 3c 6e 96 8d 3a dd da df 3c
       0.00851373 0.013022295 0.0010802278 0.027326042
000140 39 eb 2c 3c 1a 32 0c 3d 83 c9 d2 3c 0c a8 1a 3d
       0.010554128 0.034227468 0.025730854 0.03775792
000150 d4 24 d0 bd 52 28 27 bd 7d e8 33 3d e8 e8 fb bc
       -0.101632744 -0.040809937 0.04392289 -0.030750707
000160 1e 13 d2 bb 0d 1c e7 3c 4f 3b 64 3d 50 fd 7f 3c
       -0.0064109704 0.028211618 0.055720624 0.015624359
000170 47 ec c7 ba 77 dc 9a bd 30 ee eb 3c 3a ec 7d bc
       -0.0015252911 -0.075615816 0.0288001 -0.015498215
000180 4d 67 eb bb 9d 8f 85 3d 22 3d 2b bd 15 57 a3 3b
       -0.0071839453 0.06521533 -0.041806348 0.004984746
000190 62 c2 87 3d 25 11 b8 3c e2 aa ce 3c 1d 98 c0 3c
       0.066288725 0.022469113 0.025227968 0.023510033
0001a0 e6 75 98 ba be 3b 17 3d 74 4b a8 bc 70 55 d8 3d
       -0.0011631816 0.03692221 -0.020543791 0.10563171
0001b0 66 0e dd 3c b3 1a 96 3c b0 4c 5f 3c e7 01 9f bd
       0.026984405 0.018323278 0.013629124 -0.07764035
0001c0 5d fb 21 3d fb f1 e4 bc 4e c8 a3 3d e1 77 95 3c
       0.03954636 -0.027947417 0.079971895 0.01824564
0001d0 5c c5 98 3d a2 dc 85 bb 4e 5a 4a bd c5 78 e4 3c
       0.07459518 -0.0040851394 -0.049402528 0.027889619
0001e0 e2 f8 bd 3c 4f 01 28 3d e8 06 1b bb 7d 03 23 ba
       0.023189966 0.041016873 -0.002365524 -0.00062184763
0001f0 5d 00 a5 3c 26 41 ad 3c 75 b2 8d bd 1b c9 8e bd
       0.020141775 0.02114923 -0.069188036 -0.069719516

features_model.2.weight f4 [128, 128]
000000 92 1d 3a 3e 20 e9 bd bb 81 da 70 bc 40 39 a1 3d
       0.18175343 -0.005795613 -0.014700533 0.07872248
000010 d1 ce be 3c 70 73 3b be 35 fa 6d 3e c8 09 95 3d
       0.023291977 -0.18305755 0.23239978 0.07277256
000020 ab 14 14 3e fa 6e 16 3e 6c 7f 69 bd 3d ef e6 3c
       0.14461009 0.14690772 -0.057006285 0.02819025
000030 b1 75 3d 3d 63 f5 84 be 0b b4 30 3e 21 ac 51 3d
       0.046254817 -0.25968465 0.17256181 0.051189546
000040 74 92 b9 bd 1a 52 2e 3c 2e 97 e2 3d 26 fb 30 bd
       -0.09061137 0.010639692 0.110639915 -0.043208264
000050 91 34 39 bd ef d9 69 3c fb 33 26 3c 96 b7 94 3c
       -0.045216147 0.014273151 0.010144229 0.018153947
000060 6d 51 9a 3d 3e 1b 48 3d 05 1f bb bd fe d1 2a 3e
       0.07535062 0.048854105 -0.09136776 0.16681668
000070 c7 68 a9 be 9b c5 35 3d fb 7d 76 3d 88 63 6e 3c
       -0.3308775 0.044377904 0.060178738 0.014550097
000080 7a 5b 52 3d 56 3a 47 be 9e 96 08 be a4 4c 8e 3d
       0.05135677 -0.19455847 -0.13338706 0.06948212
000090 85 7c 16 3e 53 4d 6b 3d 5d 15 51 be 76 d9 8d 3e
       0.14695938 0.05744679 -0.20418306 0.27704972
0000a0 e2 6b db bc 5b ab 4b 3e fa 13 97 be 2e 28 cf 3d
       -0.026784841 0.19889586 -0.29507428 0.101150855
0000b0 1a 98 db 3d 92 7e 49 bd d6 b4 5b 3d 45 50 2f 3e
       0.107223704 -0.049192972 0.053639255 0.17120464
0000c0 1a 72 bf 3d 5e f2 ae bd 31 ec 91 3e eb e7 86 bc
       0.09347935 -0.085423216 0.28500512 -0.016468009
0000d0 df b7 3d bd a9 6f 86 3e 97 e7 44 bd 9b 61 1e be
       -0.04631793 0.26257065 -0.048072424 -0.15466921
0000e0 27 7f 03 be 0d 83 18 bd bb c1 42 3d 71 2c 5b bd
       -0.12841474 -0.037234355 0.047548037 -0.05350918
0000f0 21 77 7a 3e ce 05 0c 3e cb c1 b3 3d 10 31 48 3e
       0.24459507 0.1367409 0.087771975 0.19549966
000100 82 17 4c 3e 79 ee 95 3d 83 bf 33 3e 8c b4 0d be
       0.19930843 0.07320876 0.17553525 -0.13838404
000110 9e 4c a2 3d be f4 a3 bd 27 fa aa 3d d8 ea 07 3e
       0.0792477 -0.08005665 0.08348494 0.1327318
000120 f8 2d f7 bc 2f 18 50 3e 7e 25 15 be 67 46 49 3e
       -0.030173287 0.20321725 -0.14565083 0.19655763
000130 2f 33 64 3d a6 3b 56 3b 18 48 0d 3e 20 d8 26 3e
       0.055712875 0.0032689362 0.13797033 0.16293383
000140 97 d1 5a bd 90 3d b4 3c b9 e8 13 3e 7a 95 29 bc
       -0.053422537 0.022002012 0.14444245 -0.010350579
000150 10 f4 13 be 3a e8 7e bd 84 03 d5 bc b6 50 17 3e
       -0.14448571 -0.062233187 -0.026002653 0.14776883
000160 45 48 37 bd 81 12 2f 3e 0b fe 42 3d b8 22 a5 3d
       -0.044746656 0.17096902 0.047605556 0.08063263
000170 77 10 cb 3d 06 6f 19 3e 20 20 46 3d 53 e5 b3 3d
       0.0991525 0.14983758 0.04837048 0.087839745
000180 bb 2e d9 bd 49 48 8e 3d ce a5 23 bd 66 62 22 bd
       -0.10604616 0.06947381 -0.039953046 -0.03964462
000190 a9 2f 17 bd d1 a2 b3 bc 64 57 f1 bc da fa b2 ba
       -0.036910687 -0.021928223 -0.029460616 -0.0013655082
0001a0 34 cf 65 3e de 48 7d 3d fd bd 07 bd 51 03 3f be
       0.22442323 0.06183707 -0.03314017 -0.18653609
0001b0 35 f3 a1 bd 81 88 9f 3d d4 96 df 3d 4c 51 22 3e
       -0.07907716 0.07789708 0.1091744 0.15851325
0001c0 cb 6e fb bd 4d fd 69 3d b9 66 61 be 45 07 71 bc
       -0.122769915 0.057126332 -0.22011842 -0.014711206
0001d0 c6 a9 b7 3d 95 7a ae 3e db 66 3e 3e e4 4d cf bc
       0.089679286 0.34077898 0.18593924 -0.025305696
0001e0 27 34 73 3d a6 59 64 bc c3 c2 af 3d 9a ed e8 3d
       0.05937591 -0.0139373895 0.0858207 0.11373444
0001f0 86 1f 83 3d e4 bb 17 3e f2 42 4e 3b 66 a7 45 3d
       0.06402497 0.14817768 0.0031473008 0.048255347
000200 88 33 92 3c e0 82 31 bd 93 1e 67 3e bc 4e d6 3d
       0.017846838 -0.043337703 0.22570257 0.10464236
000210 e0 e1 05 be 16 3c 89 3c 23 48 24 3e 1d 97 be bc
       -0.13074446 0.016752284 0.16043143 -0.023265416
000220 b4 f9 80 3d 03 ba 60 3d 9e 8b 07 bd 30 da 16 3d
       0.06297627 0.054864895 -0.033092134 0.036829174
000230 dc 73 9c 3d cc d7 23 be f0 58 38 3d 71 04 4b 3e
       0.07639286 -0.16000289 0.045006692 0.19825913
000240 39 35 87 3e dc e0 d6 bd 2f 0d 82 bd 02 be 0b 3e
       0.26407793 -0.10492107 -0.06350171 0.13646701
000250 48 44 6c 3d 5b 12 e8 bd 91 e4 1b 3d ab c0 01 be
       0.057682306 -0.11331626 0.038059775 -0.12671153
000260 67 f5 1c be f9 cb c6 3c 3d 93 17 3e 69 c0 25 3e
       -0.15327989 0.024267184 0.1480226 0.1618668
000270 28 e4 96 3e ae 44 d3 bc 58 a1 3e 3d 97 10 f5 bd
       0.29470944 -0.025789585 0.04654059 -0.11966055
000280 74 bf 3c 3b 36 5f 59 3d 8c 40 f9 3d 34 4b 56 be
       0.0028800638 0.053069316 0.121705145 -0.20927125
000290 32 ee 82 3c 0c de 47 3d 90 f4 cb bd ce c6 e3 3d
       0.015982721 0.048795745 -0.09958756 0.11121903
0002a0 62 a5 14 3d 81 92 b9 bc ac 81 6e bd 87 17 6e 3e
       0.036290534 -0.022652866 -0.058229133 0.23251162
0002b0 74 c0 8d 3d a1 6a f8 3d 2e 0b 5a 3e 0c b0 f6 bd
       0.06921473 0.12129713 0.21293327 -0.12045297
0002c0 9f 8a 32 be 97 3e 3b be e4 a1 3c 3e 06 01 4c be
       -0.17435692 -0.18285595 0.18421131 -0.19922265
0002d0 3e 53 55 3e 69 07 e5 bc 8b b9 30 be 51 86 c7 bc
       0.20832536 -0.027957635 -0.17258279 -0.02435604
0002e0 11 1b d0 3d aa 0c 3d 3d 92 48 85 3d 4f 88 70 bd
       0.101614125 0.046154656 0.06507982 -0.058723744
0002f0 3b 91 8f 3e de 02 31 be 4e 51 4e be 55 60 cb bd
       0.2804049 -0.1728625 -0.20148203 -0.09930483
000300 cb 16 7a 3d 60 19 08 3e 5d fe eb bd a2 2a f9 bc
       0.061056893 0.1329093 -0.11523125 -0.030415837
000310 45 6e c2 3a c8 c2 01 be 7b 06 25 be 43 f8 40 bd
       0.0014833888 -0.1267196 -0.16115753 -0.04711176
000320 50 54 4a 3e 61 31 00 3e 5f 82 ea bd 59 a5 53 3e
       0.19758725 0.12518837 -0.114506476 0.20668544
000330 6b 28 50 bd 44 e4 c9 bd 6b 92 ea 3d 7f e2 f4 bd
       -0.050819796 -0.09857991 0.11453708 -0.11957263
000340 1e 03 a3 3e 4b f4 47 be ad 2e 42 bd 3a 7c cc bc
       0.31838316 -0.19526784 -0.047407795 -0.02496158
000350 8d 43 ad bd b4 4e 0b 3d da 9b 10 bd 0f 55 4e be
       -0.0846015 0.034010604 -0.03530488 -0.20149635
000360 a0 ca 46 bd 11 2c a2 bd 96 02 d1 3d 09 aa 9f 3d
       -0.048533082 -0.07918561 0.10205571 0.077961035
000370 e9 b5 f6 bd 38 31 42 3d 33 b4 81 bd 87 48 79 bd
       -0.12046415 0.04741022 -0.063331984 -0.060860183
000380 7a 8b ce 3d 0e 1a 57 3d f5 54 2e 3e a6 dd 51 3d
       0.10085197 0.052515082 0.17024596 0.05123677
000390 15 c4 b8 bd 1b 18 2e bd 5b da 1e bc d7 e1 a2 3d
       -0.09021775 -0.042503458 -0.009695615 0.07953232
0003a0 28 9e 00 be 72 55 ae 3d 2b 2a e6 bd 44 8b 8a 3c
       -0.12560332 0.08512391 -0.11238512 0.01691211
0003b0 e3 f3 f1 bd 9c 9f 82 bd 75 3a 10 3e 0f 4b 21 ba
       -0.11814096 -0.06378099 0.140848 -0.0006152847
0003c0 02 0c 28 3e b7 cb 0f 3d 54 3a 6f 3e bc 2a 67 bd
       0.1641083 0.035106387 0.23362094 -0.05643724
0003d0 14 3c 84 3e 5c 5c 04 3e 01 2d 04 bd 0d 20 80 3e
       0.25827086 0.12925857 -0.03226948 0.25024453
0003e0 59 ac 0e 3d f4 b7 f2 bd e9 c0 03 3e e1 84 0d 3e
       0.034832332 -0.118514925 0.12866558 0.1382022
0003f0 08 7b 0c be 9b db e5 3d ef fa 5e 3e 99 97 ad bc
       -0.13718808 0.11223527 0.21775411 -0.021190451

features_model.2.bias f4 [128]
000000 d3 da 32 bc ab 61 4c 3d 9f 36 29 3d 0f 9d a6 3d
       -0.01091643 0.04989783 0.041311856 0.08135425
000010 63 1b 5d ba c3 11 00 bb 03 9c 8f 3d 78 79 7f 3d
       -0.0008434562 -0.0019541837 0.07012179 0.0623717
000020 ba 2f 89 3d 55 f9 0c bd dc 0a 24 3c d7 65 61 bd
       0.06698556 -0.03441747 0.010012355 -0.055028763
000030 95 a1 0f 3d ba 2b 80 bd d9 51 05 bc bc 48 b9 3c
       0.035066206 -0.0625834 -0.00813719 0.02261769
000040 9c fa 35 3d 2a 12 46 bd a2 22 bf 38 3c 23 2c 3b
       0.044428453 -0.048357166 9.1140406e-05 0.0026266119
000050 b8 88 e6 bc 18 cb 09 3c ee 19 5c bd 76 23 2c 3d
       -0.028141364 0.008410238 -0.053735666 0.042026006
000060 cc cd 39 3d e4 f1 7b 3c cd 32 35 3d a5 0e 9c 3d
       0.04536228 0.015377495 0.0442379 0.07619981
000070 5b 4d 8d 3c 45 ab 97 3c c0 d5 59 3b b1 e4 6a 3c
       0.0172488 0.018514285 0.0033238977 0.014336751
000080 71 a3 4b 3d d5 ed 86 3d c5 a5 85 3c c2 30 49 3d
       0.049716417 0.065883316 0.016314397 0.049118765
000090 5d e4 41 3d bc 61 ec bc d2 c3 5d 3d 2d 3f 65 bd
       0.047336925 -0.028855197 0.054141827 -0.055968452
0000a0 98 e4 9a 3d dc 20 57 bd 70 03 21 bc 37 2e 14 3d
       0.07563132 -0.05252157 -0.00982748 0.036176886
0000b0 02 a8 bd bb 00 00 00 00 7d 33 6f 3d bc f0 e7 bc
       -0.0057878504 0.0 0.058398712 -0.028313033
0000c0 81 54 10 3c 50 36 2e 3d 6b 4e 47 3d a7 c0 eb 3c
       0.00880921 0.042532265 0.04865877 0.028778387
0000d0 a9 f6 6c 3d eb 71 8d 3d 95 48 a7 3d 0d 2d 68 3d
       0.05785242 0.06906494 0.08168141 0.05668359
0000e0 00 00 00 00 88 98 64 3d 1b 21 c6 bd 79 0a 55 bb
       0.0 0.055809528 -0.09674283 -0.0032507463
0000f0 6b fa 81 3c 6b e7 50 3d b5 3a 3a 3c 0f 7d f2 3c
       0.015866479 0.051001947 0.011366536 0.029600648
000100 04 37 d4 3c b2 8f b3 3d 6e e8 32 3d 01 e5 2c 3d
       0.02590514 0.08767642 0.043678693 0.042210583
000110 07 1c 45 3c 43 15 4e 3d 0c 7d 73 3d cb 96 a0 bc
       0.012030608 0.050313246 0.059445426 -0.019603154
000120 b7 a7 b8 3d 40 3c e2 3c 66 a3 06 bc 34 e6 8c bc
       0.09016364 0.02761662 -0.008217668 -0.017199613
000130 e4 89 71 ba 76 74 92 3c 8c 47 a6 3c c5 df 38 bc
       -0.0009213968 0.017877799 0.020297788 -0.01128382
000140 dc 5f ea 3c 7e 1e bb 3b 03 03 7e 3d 64 ba e9 3c
       0.028610162 0.005710422 0.06201459 0.02853126
000150 00 f9 bf 3c ac 11 ad 3b d3 d9 a5 3c 57 02 aa 3d
       0.023434162 0.0052816477 0.020245468 0.083012275
000160 be eb 09 3d b0 b7 b8 3d 4e d8 85 bc 88 8b b6 3c
       0.033672087 0.090194106 -0.016338494 0.02228333
000170 a4 70 22 3d 6b 63 9d bc b6 e8 40 3d 34 32 c9 3c
       0.039658204 -0.019212445 0.04709693 0.024560072
000180 5e a1 0c bc 41 0a 98 3d ac 02 53 3c bd 98 8b 3d
       -0.008583395 0.07423831 0.012879055 0.06816242
000190 c9 fd a0 bb 73 78 82 bd a6 d4 c4 3c 1b b3 53 3c
       -0.004913066 -0.0637063 0.02402718 0.01292112
0001a0 e1 8d 83 3d 21 d3 87 bc 0f d1 83 bc a1 be ec bc
       0.06423546 -0.016580166 -0.016090898 -0.028899493
0001b0 00 00 00 00 00 00 00 00 f9 e0 43 3d b6 1e 74 b9
       0.0 0.0 0.047821973 -0.00023281094
0001c0 9b c0 9c 3c 64 30 1e bc 68 96 21 3d 05 0c d5 3c
       0.01913481 -0.009655092 0.03945008 0.026006708
0001d0 03 e5 d8 bb 46 4d a0 3d 2e 12 81 3d 83 eb 86 3d
       -0.006619097 0.07827239 0.063022956 0.06587889
0001e0 94 c5 f2 bc 2d 91 33 bd 5d 50 84 3d 93 4a b3 3c
       -0.029635228 -0.043839622 0.064606406 0.021886146
0001f0 f7 2f 07 bd ef f5 28 bc d2 d2 6c bc 00 00 00 00
       -0.033004727 -0.010312541 -0.01445456 0.0

features_model.4.weight f4 [128, 128]
000000 5d 9e b4 bd 38 8a 7d 3e 5c 5e 9f 3e b8 47 9a bd
       -0.08819268 0.24759758 0.31126678 -0.075332105
000010 27 77 5d 3b 38 6c 43 3c 54 ba 4f 3e 9b 5d 20 3e
       0.0033792944 0.011927657 0.20285922 0.15660708
000020 b0 55 31 3d 10 be 0f ba a8 0f 3a 3c b8 65 0e be
       0.04329461 -0.00054833386 0.011356272 -0.1390599
000030 3c 10 20 ba 55 43 b3 3d a4 17 50 3d 6c dd b3 3d
       -0.0006105935 0.08753077 0.050803795 0.08782467
000040 85 d4 a7 3d fe c3 51 be 9a 4f 23 be e2 a0 db bd
       0.08194832 -0.20484921 -0.15948334 -0.10724045
000050 cc 17 af bd e5 c7 3a 3e ab cd 1b be dc 92 a5 3c
       -0.08549461 0.18240316 -0.15215175 0.02021163
000060 24 78 06 be ca dc ba 3d 2a 57 cc bd 0d ee c5 bb
       -0.13131768 0.091241434 -0.09977563 -0.0060403408
000070 ff 1f b7 3d 1f ac 09 bc 63 40 ba bd 61 51 0c bc
       0.0894165 -0.008402853 -0.09094312 -0.008564324
000080 5a ff 34 3e 11 c5 fc bd 2e 2e 55 bd da a9 42 be
       0.17675534 -0.12342275 -0.052045994 -0.19010106
000090 b6 01 4e 3e 83 1b 07 3b cf 17 22 bd 85 cf 80 3e
       0.2011784 0.0020615763 -0.039573487 0.25158325
0000a0 73 03 31 3d 4e 71 6e bd 4a 3c 01 bd 29 68 87 3e
       0.04321618 -0.058213525 -0.031551637 0.26446655
0000b0 d3 85 32 3c f2 39 0a 3e e7 7e ec bd e0 56 04 be
       0.010896164 0.13498667 -0.11547642 -0.12923765
0000c0 ea 60 dd bd c4 fa 94 bb 91 5c 6b 3e 17 91 fe bd
       -0.108095005 -0.004546495 0.2298453 -0.124300174
0000d0 d7 41 6b 3e ec 64 41 3e 27 fc 41 be 31 b0 47 3e
       0.22974335 0.18886155 -0.18943845 0.19500805
0000e0 3f 10 5e 3d 6c e6 48 bc d1 d6 d5 bd 91 ee 85 bc
       0.054214712 -0.012261968 -0.104413636 -0.016349109
0000f0 3a ca 9d bd 2a dc 40 3c 47 4e 87 3d c9 9c 4a be
       -0.07704587 0.011771241 0.06606727 -0.19786371
000100 5a f9 a0 3d fa d9 f7 bd e0 06 f3 bd 30 23 d4 3d
       0.0786006 -0.121021226 -0.11866546 0.10358274
000110 13 da 16 3d c1 19 30 bd 4d 9f 24 3e ad 8e 69 3d
       0.036829066 -0.04299331 0.16076393 0.05702083
000120 26 df e3 bd 4e fc 07 bd a9 99 97 3e fe bf b6 3d
       -0.111265466 -0.0331996 0.2960942 0.08923338
000130 c8 31 2e bc e3 44 94 3e fb e7 d0 3d 92 ae 30 be
       -0.010631986 0.28958806 0.10200497 -0.17254093
000140 cd 16 7c 3c 3e df cb bd 44 1d 13 3e 4e 49 9e bd
       0.0153862955 -0.099546894 0.14366633 -0.077288255
000150 56 67 d1 bd 52 51 5c 3d e9 5e 1a be 86 86 44 bd
       -0.10224788 0.05378849 -0.15075268 -0.047979854
000160 06 28 5b bd 00 03 e9 bd 9a f1 08 bd 77 75 1e 3b
       -0.053504966 -0.11377525 -0.033433534 0.0024178901
000170 5b d3 dd bc 3d 68 39 3e 28 f6 55 3e a4 fe c3 3d
       -0.027078321 0.1810617 0.20894682 0.09570053
000180 5a 10 ed bc 0e 73 5b 3d f1 08 03 3d 46 1a 84 bd
       -0.028938461 0.05357652 0.03199095 -0.06450324
000190 04 de e2 3d 35 32 4d bd 2f 0d 52 be 9c ad a5 3d
       0.11077502 -0.05009671 -0.20512842 0.08089754
0001a0 51 db a2 3d bd 9f 1f 3d 2b b9 40 be 5a 5c b2 bd
       0.079519875 0.038970698 -0.18820636 -0.08709021
0001b0 de b6 c2 bd f7 af 36 3e 1c e6 b5 3d 1b 9a 44 be
       -0.095075354 0.17840563 0.088817805 -0.19199412
0001c0 eb 34 c8 bc 66 89 5e 3d 81 7e 52 3d 8e 16 25 be
       -0.024439296 0.054330252 0.051390175 -0.16121885
0001d0 7d 89 10 3e 43 5c 57 3e 39 d0 7d bc cf 31 24 3e
       0.14114948 0.21031289 -0.015491539 0.16034625
0001e0 96 fc 65 3e 17 5c 0a be b8 e0 4b 3b 48 c1 d4 3c
       0.22459635 -0.13511692 0.0031109285 0.02597107
0001f0 4b 0d f1 bd 74 ec 9a bd 93 82 2e 3d e5 eb 2b be
       -0.117701136 -0.07564631 0.042604994 -0.16789205
000200 8d 90 b2 bd bc 86 1e be 27 4a c3 3d 94 1c 4f 3e
       -0.08718977 -0.15481085 0.09535628 0.20225745
000210 0a b3 71 bd 2d 47 bf bd 88 e8 ae 3e e4 45 f5 3c
       -0.059008636 -0.093397476 0.34161782 0.029940553
000220 5d ed d7 bc 9f 42 aa bd 38 ea 58 3e 8a 34 5b 3d
       -0.0263583 -0.08313488 0.21183097 0.053516902
000230 da 0f 02 3e 0b 3c 5f b9 ad 2d fd bd bf 30 9d bd
       0.1270136 -0.00021289305 -0.123622276 -0.07675313
000240 0e 8c 5f bd 71 11 2a be 4a 5b f7 bb 9a dd 31 3e
       -0.054576926 -0.16608216 -0.0075487243 0.1736969
000250 45 7f fc bb 50 fb 84 bb cb 30 2b bd 79 b7 98 3d
       -0.0077056014 -0.004058279 -0.04179458 0.0745687
000260 bb c2 d5 3d 0a af a5 bd a1 aa a5 3d fe 7d 5c 3e
       0.104375325 -0.08090027 0.080891855 0.21532437
000270 07 97 69 3e fa 37 02 3e 1f 30 6c bd bf e1 2c be
       0.22811519 0.12716666 -0.05766308 -0.1688299
000280 e1 0d 69 ba 9c ac 04 bd 4b 81 46 3e a8 f6 cf bd
       -0.0008890313 -0.032391176 0.19385259 -0.10154468
000290 37 53 2e bc f8 30 9b 3e bd 57 39 be 4d a2 e0 bd
       -0.010639957 0.30310798 -0.18099876 -0.109684564
0002a0 18 a4 83 bd 70 47 05 3e 47 9b 06 3e 10 09 ce bc
       -0.06427783 0.13015532 0.13145171 -0.025150806
0002b0 de 47 7d bd 42 00 9a bc a1 38 24 3e 10 1b 34 bd
       -0.061836116 -0.018798951 0.16037227 -0.04397112
0002c0 a2 df 7a 3d c6 40 b8 3d f9 ba c7 bd 3d f8 22 3e
       0.06124843 0.089967296 -0.09752459 0.15915008
0002d0 42 bd 29 3d 59 2d 5d 3d ec 9d 92 be 02 45 02 3d
       0.041440256 0.053998325 -0.2863611 0.031804092
0002e0 5b c2 75 bd 07 24 9e bd d4 6f 3e 3d 95 5f e6 bc
       -0.059999805 -0.077217154 0.046493366 -0.028121749
0002f0 87 d7 3b bc 6c 02 dc 3d c1 80 a4 3b 10 fa e3 bd
       -0.01146496 0.107426494 0.0050202315 -0.1113168
000300 c4 0f 81 3d 96 e9 b0 bd 49 d3 c1 3d f3 2b 46 be
       0.06301835 -0.08638303 0.094641276 -0.19352703
000310 9c c0 96 bd 23 a7 94 3d af 6b cb 3d a3 44 61 3e
       -0.07360956 0.07258441 0.099326484 0.21998839
000320 15 cf 9a bd ee 5e 68 bd da 74 1a be a5 68 98 3d
       -0.07559029 -0.056731157 -0.15083638 0.07441834
000330 3f 3c bb bd 1e ba e0 bd 1f c9 3c be f7 fa 27 3e
       -0.091423504 -0.10972999 -0.18436097 0.16404329
000340 19 62 d0 bd 9a e0 80 3e e6 ed 5d be 30 31 80 3d
       -0.10174961 0.25171357 -0.21672782 0.06259382
000350 c6 c1 13 bc a9 3b 51 bd 98 33 4b be d9 bc c0 3d
       -0.009018367 -0.051082287 -0.198439 0.0941102
000360 f1 d6 35 bb c8 af 00 be d2 e6 ad 3c eb 83 9f 3b
       -0.0027746523 -0.12567055 0.021228228 0.004868021
000370 56 91 8b 3e de 95 99 3b 58 2c c8 3c 95 a5 bd bd
       0.2725932 0.004687055 0.024435207 -0.09260098
000380 1b 4b 85 3d fd 9d 84 bd a8 25 2b be 6c 56 24 bb
       0.06508466 -0.064754464 -0.16713583 -0.0025075926
000390 43 2e 87 3e 52 e8 b3 3d 80 a1 db bd 57 a1 2d 3d
       0.26402482 0.08784546 -0.10724163 0.042390194
0003a0 ce e3 22 3d 43 ad c5 3d 7d 57 96 bc 50 94 9a bd
       0.039768033 0.09652188 -0.018352265 -0.075478196
0003b0 10 a2 a7 bd 17 77 c2 bc ec ef d5 3c fc f2 5a be
       -0.08185208 -0.023738427 0.02611538 -0.21381754
0003c0 4e db 6b bd 23 f6 01 3d 21 9c 83 3e 97 aa eb 3d
       -0.057582192 0.031728875 0.25705054 0.11507147
0003d0 13 02 73 3d 9c 08 ca be 99 22 db 3d de 34 29 3e
       0.05932815 -0.39459693 0.10699958 0.16524073
0003e0 5b b3 e0 3d 0e 09 f7 bc 58 61 13 3e 2b 88 09 3e
       0.10971709 -0.030155685 0.14392602 0.1343085
0003f0 90 83 b5 3d fc fb 87 bc c3 f4 f1 bc 83 25 6b be
       0.08862984 -0.016599648 -0.029535657 -0.22963528

features_model.4.bias f4 [128]
000000 1e 3d b2 3d b3 d5 09 3d 21 f7 d4 3c 00 00 00 00
       0.087030634 0.033651065 0.025996746 0.0
000010 e1 26 98 3d 72 07 24 3c 51 96 1a 3d d8 dd a9 3d
       0.074292906 0.010011541 0.03774101 0.082942665
000020 19 1c 7a 3d 2c bb 7d 3d e0 c8 1b 3d ef 95 0c 3b
       0.061061952 0.06194608 0.038033366 0.0021451672
000030 86 d4 a6 3c 4b f5 6d 3d d3 99 3f 3d 22 6b 63 3d
       0.020365011 0.058095258 0.046777558 0.05552209
000040 d7 b3 74 bb 4a e0 76 3c 3c 99 98 3d 98 73 51 3d
       -0.0037338638 0.015068123 0.07451102 0.05113563
000050 00 a5 0f 3d 06 dc 15 3d e9 48 49 3b 1c f8 fa 3b
       0.035069466 0.036586784 0.0030713624 0.0076589715
000060 56 c1 d6 3c 7f 28 70 3d ea 7c dd 3c dc c1 9d 3d
       0.026215237 0.05863237 0.027037103 0.07702991
000070 b4 42 29 3d d0 a9 a3 3d ee 11 97 3c 5e 20 50 3d
       0.04132338 0.079913735 0.018441167 0.050812118
000080 bb 2f 60 3b fe a7 41 3b 33 59 44 3c 7f 69 c5 3c
       0.0034208137 0.0029549594 0.011984157 0.024098156
000090 83 d4 84 3d 35 c3 e4 3c 83 8a 20 3d ed d4 a7 3c
       0.06485846 0.027925113 0.039194595 0.020487273
0000a0 00 00 00 00 a2 21 a0 3c 97 48 b7 3c 00 00 00 00
       0.0 0.019547287 0.02237348 0.0
0000b0 70 7a 95 3c 82 2c d4 bc ca bd 78 3c ce 6f 35 3d
       0.01824686 -0.02590013 0.015181968 0.04429608
0000c0 b4 05 df 3c e8 31 34 3d e1 b4 9f 3d 92 4b 64 3c
       0.0272244 0.043992907 0.07798172 0.013934033
0000d0 dc 76 b1 3c 53 2f 9a 3c b0 6a b0 bc 21 ff 99 3c
       0.021663122 0.018821394 -0.021535248 0.018798413
0000e0 7c 28 2b 3c 3f 5f be bb fb e5 c3 3b ee 3d 4f 3c
       0.010446664 -0.005809694 0.0059783435 0.0126490425
0000f0 b8 08 7f b8 6c 8e 72 3c 04 49 b8 3d 9e 5c 38 3c
       -6.0804858e-05 0.014804464 0.089983016 0.01125255
000100 04 73 89 3d e2 bc dd 3c fd 86 d5 3c 9e 89 2d 3c
       0.067113906 0.027067605 0.026065344 0.0105918925
000110 b2 86 fb 3c 07 d1 a4 3a 61 ac 4d 3d 2d 30 b1 3c
       0.030703876 0.0012574502 0.05021322 0.021629417
000120 4b 60 40 3c 02 0c 77 bc e2 1d 66 3d 8e 55 77 bc
       0.011741708 -0.0150785465 0.056180842 -0.015096081
000130 ef 25 60 3d 6f f1 3d 3d c0 19 86 3c 28 dd c2 3c
       0.054723676 0.046372827 0.0163697 0.023787096
000140 74 5e 67 bc 60 7f 31 3c 26 a5 62 3b 6b 3a 23 3d
       -0.0141216405 0.010833591 0.00345833 0.039850634
000150 8f ea 41 39 9b d6 2f 3d f8 b4 ab 3d 13 0b b0 3c
       0.00018493294 0.042929273 0.083841264 0.021489656
000160 47 b3 b8 3b a7 7e 90 3d 54 91 72 3d 0e 74 b1 3d
       0.005636606 0.07055407 0.059220627 0.08664714
000170 b4 87 8a 3c d8 36 05 3d 45 91 37 3d bf 62 51 bc
       0.016910411 0.032523006 0.044816274 -0.012779891
000180 30 1a 59 3c 27 97 bc 3c 4f 35 b6 3b 60 ea ea 3c
       0.0132508725 0.023021294 0.005560554 0.028676212
000190 50 dc a7 3c ca 5e 83 3c 9b 69 e9 3c b1 37 b3 3c
       0.020490795 0.01603641 0.02849274 0.021877142
0001a0 2c 45 aa 3d e5 e0 cc 3d c2 17 85 3c 8d ce 5b 3c
       0.08313975 0.10003833 0.01624668 0.013415945
0001b0 89 5e 2e 3d 00 00 00 00 a5 7c b6 3d 9f d6 d1 ba
       0.042570625 0.0 0.08910493 -0.0016009397
0001c0 40 b3 11 bb ee 4a 9f 3d bc f8 60 3d ab 6a 19 bb
       -0.0022232085 0.077779636 0.05492471 -0.0023409526
0001d0 ef d0 4c 3d d0 31 44 3d 60 ed c9 3d 05 dd c2 3c
       0.050003942 0.047899067 0.09859729 0.023787031
0001e0 2b c9 15 3c 27 40 af 3d da 9e d8 3d 13 44 b7 3d
       0.0091422 0.08557158 0.105771735 0.08948531
0001f0 98 58 1d 3d 5a 90 5c 3b 85 8c 69 bb 00 00 00 00
       0.038414568 0.0033655376 -0.0035636735 0.0

policy_model.0.weight f4 [128, 128]
000000 84 5d 1c 3b 5a f1 12 bb f5 5f 09 bb 35 e7 3b ba
       0.002385945 -0.0022421689 -0.0020961736 -0.00071679364
000010 13 d0 43 bb a6 ba 22 3b 74 cd 9c ba 4b 15 47 39
       -0.002987866 0.002483049 -0.0011963085 0.00018986051
000020 b4 61 26 3b 69 19 46 bb 19 42 d9 ba f0 14 19 bb
       0.0025387825 -0.0030227548 -0.0016575485 -0.0023358427
000030 02 ee 11 bb f9 00 f7 ba 06 61 16 bb 90 7f be ba
       -0.0022267108 -0.0018844894 -0.0022946014 -0.0014533866
000040 26 60 a4 b9 4b d8 54 ba 7b 94 ee b8 bb 8a 7a 39
       -0.00031352154 -0.00081193884 -0.00011376381 0.00023893539
000050 52 09 d7 ba aa 41 c6 ba 87 4e f6 3a 0e 19 20 b9
       -0.0016405976 -0.0015125771 0.0018791714 -0.00015268123
000060 38 64 6d ba ca ad bd ba 6a 5a 00 bb f0 47 c2 ba
       -0.0009055766 -0.0014471349 -0.001958514 -0.0014822464
000070 07 e0 60 3a a4 db 12 3b ea 6d 18 bb 1b 7e 2d bb
       0.00085783046 0.0022408748 -0.0023258873 -0.002647287
000080 4b dc 57 bb 51 d6 2d bb 19 27 b7 ba 4f 97 36 bb
       -0.0032937701 -0.0026525448 -0.0013973444 -0.0027861183
000090 09 28 0b bb 32 7d e0 ba 34 9e a4 39 48 bc 40 bb
       -0.002123358 -0.0017127155 0.00031398388 -0.00294091
0000a0 22 1a ab b9 79 19 8a ba 78 25 b2 ba 59 57 95 39
       -0.00032635132 -0.0010536156 -0.0013591489 0.00028484574
0000b0 1f fa 28 3a d2 aa 90 ba 5b da 50 bb aa 2e 1d ba
       0.00064459624 -0.0011037237 -0.0031868431 -0.0005996028
0000c0 3d 5f 49 bb ab c0 3e ba f4 b4 ae ba f6 28 22 bb
       -0.0030726932 -0.00072766346 -0.0013329075 -0.0024743653
0000d0 9f da c4 b9 b0 fa 4e 3a 3b ad 0c b9 e0 eb d7 ba
       -0.0003754692 0.0007895632 -0.00013415974 -0.0016473494
0000e0 2f a1 0b bb a6 e1 b8 ba 6f e9 0d 3a 1b 41 a1 ba
       -0.002130579 -0.0014105334 0.00054135075 -0.0012302728
0000f0 15 c4 aa ba 90 30 ae b9 4d ff a0 ba 4e 67 be ba
       -0.0013028408 -0.00033224048 -0.0012283117 -0.0014526637
000100 74 70 00 ba 5e 18 29 ba e0 e6 f3 ba b9 8b 1b bb
       -0.00048995693 -0.00064504694 -0.0018608235 -0.0023734404
000110 21 34 79 ba 93 14 b2 ba 9c 8c bf ba df b7 49 ba
       -0.0009506364 -0.0013586454 -0.0014614048 -0.00076949404
000120 4d cf b3 38 07 2c 17 3a 56 5f 0c bb a0 28 07 bb
       8.573998e-05 0.00057667535 -0.002141913 -0.002062358
000130 e1 12 97 b9 90 d1 85 ba 94 a5 78 ba 8b 45 99 ba
       -0.0002881503 -0.0010209549 -0.0009485122 -0.0011693699
000140 7a 89 05 39 95 3f dd 39 f0 4f 60 ba ad d7 2f bb
       0.00012735082 0.00042199777 -0.00085568335 -0.0026831434
000150 57 7a 69 ba 4f b2 91 38 10 11 f9 ba 7e 2c 84 ba
       -0.00089064747 6.947351e-05 -0.0019002277 -0.001008406
000160 aa b9 bf ba 05 94 83 b9 45 ed 8c ba 1e c5 59 3a
       -0.0014627476 -0.0002509655 -0.0010751864 0.0008307266
000170 45 02 15 bb cd ed 40 39 ec 5d af 3a ad 11 c0 ba
       -0.0022736948 0.00018399135 0.0013379431 -0.0014653705
000180 f1 68 95 ba 0e fd 31 bb 23 ff 33 ba 98 e2 84 ba
       -0.0011399073 -0.002715889 -0.00068663264 -0.0010138331
000190 17 8a 25 ba 8b 50 79 ba 85 69 83 ba e1 a3 37 ba
       -0.00063148275 -0.0009510598 -0.0010025954 -0.0007005316
0001a0 09 2c 9e ba 05 a4 41 bb b2 9a 8c ba d4 a3 02 bb
       -0.0012067567 -0.0029547226 -0.0010727255 -0.0019934075
0001b0 b3 eb 2e bb 7d 93 53 3a 51 63 33 ba 2c 1b de ba
       -0.002669078 0.00080709887 -0.00068431074 -0.0016945354
0001c0 38 f7 15 bb 1a 74 ff 3a 82 4e f0 ba 17 75 83 3a
       -0.002288295 0.0019489557 -0.0018333944 0.0010029402
0001d0 02 5b 2c bb c1 18 2b bb 15 2e 3a 3b 0f 8b 44 bb
       -0.0026299362 -0.0026107284 0.0028408815 -0.0029990112
0001e0 f2 54 cb ba 56 8b e7 ba 37 5a 20 ba b5 8f 23 bb
       -0.0015512987 -0.0017665427 -0.00061169587 -0.0024957482
0001f0 3d ac 08 ba 4c e7 06 3b 3c 59 5a 39 35 0a 9c ba
       -0.0005213654 0.002058464 0.00020823342 -0.0011904897
000200 d4 7e b9 3c 94 df ad 3c 29 da 3d 3c e4 eb d3 3a
       0.022643484 0.021224774 0.011587658 0.0016168323
000210 18 1a 92 bc 9f 31 ab 3c 2e dd 23 3c 9b 29 53 bb
       -0.017834708 0.020897685 0.010001464 -0.0032220844
000220 0a 83 9b 3c 53 f2 df bb e7 8b 87 bb 1c 2e 05 3d
       0.018983383 -0.006834307 -0.0041365507 0.032514676
000230 75 37 9e 3b 1b df 89 bc 6b 6f 88 3b 3c 0b 6a bc
       0.0048283883 -0.016830018 0.0041636727 -0.014284905
000240 5b 26 ce bb fd 34 83 3c 0f 1a f7 3b 14 56 3f bc
       -0.0062911934 0.016016478 0.007540948 -0.0116782375
000250 c0 ce 9a 3b 25 57 53 3b c2 19 2e b8 ce c1 12 3c
       0.0047243536 0.0032247987 -4.150882e-05 0.008957339
000260 c8 6c 5a bc 24 61 28 3c ff 03 19 bb 29 74 e2 bb
       -0.0133315995 0.010277066 -0.002334833 -0.00691082
000270 44 6b a3 bb 4e 22 71 bc 26 b4 c5 3b 67 80 9c 3c
       -0.0049871523 -0.0147176515 0.0060334383 0.019104196
000280 41 88 98 3c 3e 21 1a 3d 22 ff ab 3c 49 0f 92 bb
       0.018619658 0.03762936 0.02099568 -0.0044573885
000290 54 8b 78 3c ef 4c 35 bc df 9d ef 3c 3a 1b e4 3c
       0.015169937 -0.011065706 0.029250083 0.027845014
0002a0 b6 66 18 ba e9 f3 a4 3c fd d1 2a 3c 33 58 a6 3a
       -0.0005813645 0.020135837 0.010426042 0.001269108
0002b0 9b b5 82 3c 5e df b9 3c 5d 1d fb 3c 1f 56 99 3c
       0.015955737 0.022689518 0.03065365 0.018717824
0002c0 53 0f 57 3c a1 f3 de 3c 32 99 2b bb ba 02 6d 3c
       0.013126212 0.02721578 -0.002618384 0.014465982
0002d0 81 d4 e4 3c b4 d6 71 3b c1 0b 9b bb 6f 2a 77 3c
       0.027933361 0.0036901655 -0.004731626 0.015085801
0002e0 85 d7 ea 3c 79 63 b3 3c bd 3f 5a bb 9c 62 b6 3c
       0.02866722 0.021898018 -0.003330215 0.022263817
0002f0 3c 90 fe b9 86 ba ad 3c 2b 9f 2f 3c 2f d3 ae 3c
       -0.00048554118 0.021207105 0.010719101 0.021340935
000300 07 72 e2 3c ac ce b0 3c 17 01 29 3c e6 64 d0 bb
       0.027642263 0.021582924 0.010315201 -0.0063596843
000310 8e 44 05 bc 04 26 bb 3c b9 e1 8c 3a df 05 04 3d
       -0.0081340205 0.022845276 0.0010748423 0.03223216
000320 43 80 a7 bb 43 37 37 bc e4 be c5 3c 8c 36 d6 3b
       -0.0051117255 -0.011182609 0.024138875 0.006537264
000330 7a 38 af 3c 2d 53 eb 3c 43 2c c2 3c 9a b3 03 3d
       0.021389235 0.028726185 0.023702746 0.032153703
000340 3b 06 a9 3c af b0 e9 bb b0 44 8c 3c 75 c2 d4 3c
       0.020632854 -0.007131658 0.017122597 0.02597163
000350 78 c0 f3 3a e7 03 62 bc 8b ed 2a bc 66 06 a4 3c
       0.0018596789 -0.013794876 -0.010432611 0.020022582
000360 54 c6 a4 3c 23 15 8f 3c a9 c4 6e bc ea dd ba 3b
       0.020114101 0.017466133 -0.014573255 0.0057027237
000370 4c 15 7e 3c 23 3d e1 3a 11 33 41 bc 3f 82 1e 3b
       0.015508007 0.0017184358 -0.01179196 0.002418652
000380 35 66 a5 3c 4b ae 1e 3c 40 a9 a2 3c c0 62 13 3c
       0.020190338 0.009685109 0.019856095 0.008995712
000390 d8 7c 16 3b 0d de 07 3c 02 59 ce 3c 86 32 a8 3c
       0.0022962596 0.008292687 0.025188927 0.020531904
0003a0 59 c0 72 bc c5 80 c6 ba a2 46 27 3c c4 84 5d 3c
       -0.014816367 -0.0015144577 0.010209711 0.013520423
0003b0 89 3d e9 3a 04 a0 a2 b9 2f 34 45 bc 20 9e da 3c
       0.0017794828 -0.0003101827 -0.012036367 0.026686728
0003c0 f6 8b 9b 39 fa a0 21 3c 87 e5 6d 3c 13 0b 56 3c
       0.00029668183 0.00986504 0.014520056 0.013064164
0003d0 e8 c7 54 bc 8a 34 4f bc bf 52 2f bc 70 a1 53 3c
       -0.0129871145 -0.012646804 -0.010700881 0.012916908
0003e0 f8 34 dc 3c 91 94 2b 3c 8d 3c 58 bb 8b 21 c6 3a
       0.026880726 0.010472433 -0.0032995075 0.0015116198
0003f0 b5 bd 84 3b ee 6e 15 3c cc 66 f3 3a 92 a7 b6 b9
       0.004050935 0.009120686 0.0018570065 -0.00034838595

policy_model.0.bias f4 [128]
000000 ee ab c4 ba ad 00 72 3c 3f 85 46 3c de 63 47 3c
       -0.0015004852 0.014770669 0.012116729 0.012169806
000010 16 6a bb bb 06 39 bf bb b0 bb c4 ba b6 f1 00 bb
       -0.0057194335 -0.005835655 -0.0015009549 -0.001967532
000020 ff bc 59 3c 58 f0 73 bb b3 5c d6 ba fd 45 ae bb
       0.013289689 -0.0037222113 -0.0016354531 -0.005318402
000030 b1 88 7d 3b 5d bd c4 ba 1a 48 a0 3b 42 e7 54 bb
       0.003868621 -0.0015010048 0.0048914077 -0.0032486473
000040 71 fe 7e bb 31 99 c4 ba 26 26 fc bb 00 00 00 00
       -0.0038908983 -0.0014999268 -0.0076949773 0.0
000050 13 04 03 3a 51 f4 e7 3b 73 94 b2 3c fa b1 c4 ba
       0.00049978605 0.0070786853 0.021799302 -0.0015006654
000060 6d ba 8f bb 9d 36 8b ba e3 f5 93 3a 6d 5c 95 b9
       -0.0043862374 -0.0010621134 0.001128849 -0.00028488357
000070 00 00 00 00 3d 41 f2 ba 5e 7d 39 3c e6 d8 88 bb
       0.0 -0.0018482577 0.011321394 -0.004176247
000080 d7 bf c4 ba ab 50 ce 3b 37 17 14 bb cb 71 3f 3c
       -0.0015010786 0.0062962375 -0.0022596845 0.011684845
000090 a6 91 10 3c 3e b5 bc bb 07 a5 c1 ba 43 11 b5 bb
       0.008823788 -0.0057589104 -0.0014773913 -0.0055257394
0000a0 32 e8 c3 ba db 90 c4 ba 5f e8 02 bb d1 8a b6 ba
       -0.0014946519 -0.0014996784 -0.001997493 -0.0013926869
0000b0 c2 4e b3 bb fa aa c3 ba 13 14 05 bb 4a e0 09 3c
       -0.005472035 -0.0014928274 -0.0020306155 0.008415291
0000c0 56 3b 79 bb 6c 52 af 3b 64 bf c4 ba 48 17 ca 3a
       -0.0038029752 0.0053504016 -0.0015010652 0.0015418315
0000d0 8f 78 02 3c a5 a4 75 bb 2a 6d 48 39 cb 10 3e bb
       0.007963314 -0.003748217 0.00019114153 -0.0029001709
0000e0 04 7d 88 bb 54 4a aa b8 17 ad c4 ba cf 64 a3 3a
       -0.0041652936 -8.1200764e-05 -0.0015005198 0.0012465956
0000f0 24 c5 22 3c 00 00 00 00 e3 75 e4 b9 55 c0 c5 3b
       0.009934697 0.0 -0.0004357538 0.0060348907
000100 9d 97 0b bb 2c 07 f5 ba 7b 04 da ba 3e 84 f2 ba
       -0.0021300085 -0.0018694154 -0.0016633415 -0.0018502546
000110 ec 49 90 bb 40 b3 af ba 7d 94 5b 3b 58 21 bc 3b
       -0.0044033434 -0.0013404861 0.0033505254 0.0057412796
000120 19 40 2a ba 8b a8 ee 3c bc 06 a5 3c ce a1 c4 ba
       -0.00064945366 0.029133102 0.020144813 -0.0015001835
000130 8e 15 9f 3a ef c0 c4 ba c8 f6 ee ba 72 57 f8 ba
       0.0012137161 -0.0015011112 -0.0018231506 -0.0018946959
000140 e7 b8 c4 ba 6a 4c f0 3b 2c 84 44 3c 2a b5 09 ba
       -0.0015008718 0.007333328 0.011994403 -0.0005253131
000150 94 5e 07 bb 75 10 ab 39 e7 a5 c4 ba 1e b0 ba 3b
       -0.0020655738 0.00032627923 -0.0015003056 0.0056972643
000160 91 35 a4 bb 66 97 73 bb fe ce 5e 3b 66 09 7d bb
       -0.0050112684 -0.0037169098 0.0033997889 -0.0038610338
000170 94 07 5f bb 50 09 c6 ba 00 00 00 00 1f 29 c2 ba
       -0.0034031617 -0.0015108977 0.0 -0.001481328
000180 d3 a8 c4 ba ed 3e 13 3c 51 b4 c4 ba 57 a7 c4 ba
       -0.0015003927 0.008987171 -0.0015007352 -0.0015003484
000190 b1 be 9c bb 83 92 19 3c 00 00 00 00 9d 53 c4 ba
       -0.0047834744 0.00937331 0.0 -0.0014978532
0001a0 80 c3 48 bb aa 38 3d 39 03 b9 c4 ba 9a 4d ba ba
       -0.0030634105 0.00018045554 -0.0015008751 -0.0014213801
0001b0 a2 8a c3 ba bb 84 8b bb 53 14 17 3c 28 af c4 ba
       -0.0014918635 -0.004257766 0.009221154 -0.0015005814
0001c0 5d 39 91 bb fd b1 b1 bb 89 99 58 ba 0d f2 71 ba
       -0.004431887 -0.005422829 -0.00082626246 -0.0009229489
0001d0 5d 12 d0 b7 9b 8d c4 ba 10 ab c4 ba 9e 7a 4d 3b
       -2.4804083e-05 -0.0014995815 -0.0015004594 0.0031353603
0001e0 cc ae 6e bb 21 82 f1 ba e2 a9 c4 ba 83 6d a8 bb
       -0.0036420105 -0.0018425622 -0.0015004242 -0.005140008
0001f0 ac 70 2f 3a 08 fb 6d 39 9e 0f e3 ba f5 48 c3 ba
       0.00066925096 0.00022695598 -0.001732338 -0.0014899062

policy_model.2.weight f4 [8, 128]
000000 4d 88 c7 ba f2 bf 26 bc 25 6c 49 bc 4a 17 52 bc
       -0.0015223116 -0.010177599 -0.01229385 -0.012822935
000010 24 5e 0c bc e2 2a 14 3a 5a d8 c3 39 fc c1 d2 ba
       -0.008567367 0.0005652142 0.00037354493 -0.001607954
000020 64 d4 30 bc f2 a9 53 bc 51 1d c6 ba 2b 86 1a bc
       -0.010792825 -0.012918936 -0.0015114938 -0.009431402
000030 76 ef 45 bc 76 41 8b ba 42 91 31 bc e5 9f 1c bc
       -0.012081018 -0.0010624367 -0.010837855 -0.009559606
000040 6f 6e ba 39 be e2 eb ba e5 7b 26 bc 65 36 66 ba
       0.00035558964 -0.0017996652 -0.010161375 -0.0008781909
000050 da b0 12 bb 33 f4 53 bc f7 38 71 bc d0 58 6d ba
       -0.0022383244 -0.01293664 -0.014723054 -0.00090540666
000060 33 01 43 bc 07 ed 2e 3a 39 9a 2a bc eb db 2d bc
       -0.011902141 0.0006672893 -0.010412746 -0.010611515
000070 5c f0 2e 3a b6 2b 3f bc c8 49 60 bc bb e6 39 bc
       0.00066733896 -0.011668136 -0.013689466 -0.011346514
000080 4a 0c e4 ba 1e 31 52 bc 77 9e e1 b9 3c a3 34 bc
       -0.0017398682 -0.012829093 -0.0004303341 -0.011025246
000090 3d f1 2d bc b8 ca 87 bb 3b 57 87 b7 52 0d 38 bc
       -0.010616598 -0.004144039 -1.6133874e-05 -0.011233645
0000a0 c9 7c af b9 6b ff ac ba 2f aa 15 3b d0 09 12 ba
       -0.00033471573 -0.0013198679 0.0022837033 -0.000557092
0000b0 bb 0f 33 bc 43 6f 9d ba 24 63 b9 ba de 4f 3f bc
       -0.010929043 -0.0012011308 -0.0014143926 -0.011676757
0000c0 83 b3 28 bc de 0a 4d bc ed 5e 46 b9 11 96 18 bc
       -0.010296705 -0.012514798 -0.00018918114 -0.009313122
0000d0 f8 06 33 bc 4a c0 3b bc b1 2e 63 bc 7b a3 6d 3a
       -0.010926954 -0.0114594195 -0.013866113 0.0009065193
0000e0 a6 4f 3c bc dd 59 18 bc d3 7a 44 ba a8 92 2a bc
       -0.011493599 -0.009298769 -0.0007495109 -0.010410942
0000f0 57 de 38 bc ef 93 4e 3a fe e2 c4 ba 6c 31 e8 bb
       -0.011283479 0.000788032 -0.0015021262 -0.0070859697
000100 20 34 e3 ba 67 23 e1 ba fe db 8d 3a fc 06 c6 39
       -0.001733426 -0.0017176688 0.0010823009 0.00037770707
000110 ee 2e 0b bc fb b5 ea 3a 1f b2 44 bc 84 1f 1b bc
       -0.008495076 0.0017907018 -0.012005358 -0.009467963
000120 9e 40 48 39 1a 12 46 bd ae 9f 51 bc 0f 47 a6 ba
       0.00019097558 -0.048357107 -0.012794418 -0.0012685972
000130 6b d9 45 bc 03 8f 2d ba 20 6c b1 ba 81 03 11 bb
       -0.012075762 -0.00066207367 -0.0013536252 -0.0022127333
000140 01 70 b8 ba 26 a8 40 bc 55 eb 58 bc 42 8f 04 ba
       -0.0014071466 -0.01175884 -0.013239701 -0.00050567475
000150 2c 21 38 b9 d8 6d cb ba 66 36 fe ba e2 05 80 bc
       -0.00017559965 -0.0015520407 -0.0019394874 -0.015627805
000160 b9 16 3b bc 79 e5 32 bc 2a 3c 45 bc a6 ce 3a bc
       -0.011418992 -0.010918968 -0.01203827 -0.011401808
000170 8b 3a 1d bc a9 1a 19 b9 43 df 94 3a 6f fd 98 ba
       -0.009596477 -0.00014601149 0.0011358041 -0.0011672209
000180 e2 02 00 bb eb 41 4a bc 68 b7 bd ba f6 40 83 ba
       -0.0019532968 -0.012344818 -0.0014474215 -0.0010013867
000190 3d db 38 3a 1c 1d 48 bc cc 10 7b 39 4d f9 af 3a
       0.0007051712 -0.0122139715 0.00023943483 0.0013425738
0001a0 7a 06 29 bc 7f 9f 23 3b 7e 7a 67 ba 64 06 95 ba
       -0.010316486 0.0024966893 -0.00088302034 -0.0011369702
0001b0 9a 98 41 3b dd a6 1f bc eb 6d 22 bc b4 f1 2f bb
       0.002954042 -0.009744373 -0.009913902 -0.0026846947
0001c0 f6 84 2a bc 28 11 0e bc 71 62 13 bb b4 f7 08 bb
       -0.010407677 -0.008671083 -0.0022489096 -0.0020899596
0001d0 52 44 56 ba 73 40 b2 3a 7d fa a1 3a 07 29 50 bc
       -0.00081736327 0.001359953 0.0012357977 -0.012705094
0001e0 c5 7e 59 bc 4f 8b 0f 3a b1 00 bd ba 00 73 2c bc
       -0.013274853 0.00054757757 -0.0014419762 -0.010525465
0001f0 ad 6b 97 ba 63 c2 eb bb f5 a7 0e bc 3f 75 9e ba
       -0.0011552476 -0.0071948036 -0.008707036 -0.0012089385
000200 7d 9d 1a bb 32 c4 54 ba e3 e2 3b 3a f2 63 bb ba
       -0.0023592405 -0.00081163936 0.00071672926 -0.0014296754
000210 12 e2 1b bc 32 ad 88 ba 19 30 c0 39 08 86 ae ba
       -0.009514349 -0.0010427593 0.0003665693 -0.0013315091
000220 60 2e cd ba 22 fb 26 bc 5f 8c b8 ba d5 0c 22 bc
       -0.001565408 -0.010191711 -0.001407992 -0.009890755
000230 15 48 e6 bb 0a 00 17 3a 49 41 8d bb 1e a7 00 bc
       -0.007027636 0.00057601987 -0.004310761 -0.007852344
000240 bd 8e d9 39 5a 0c 98 ba 14 fc 06 bc c6 d8 4e 3a
       0.00041495814 -0.0011600361 -0.008238811 0.0007890578
000250 23 e1 b1 ba 8d d6 6f bb a4 e0 8f 3b 78 1f c1 ba
       -0.0013571124 -0.0036596388 0.004390793 -0.001473411
000260 4b fe 13 bc 42 2e 6f bb e4 7b e2 bb 29 84 c2 bb
       -0.009032796 -0.0036496078 -0.0069117416 -0.005936165
000270 a1 d3 ac b7 f1 ab 0a bc b2 c8 a2 bb e3 22 ef bb
       -2.0602545e-05 -0.008463846 -0.0049677724 -0.00729786
000280 9b a8 cd b9 b4 84 81 bb 6f 7f 8d b9 3e 97 3c 3a
       -0.00039226268 -0.003952587 -0.0002698856 0.00071941677
000290 5f 7e 96 bb 8c aa a6 bb 5b 53 9e 3a c1 ef dc bb
       -0.0045927013 -0.0050862487 0.0012079285 -0.006742448
0002a0 e3 5a a7 3a ef 30 20 bb 1b e8 21 3b c0 a0 dd ba
       0.0012768175 -0.002444323 0.0024704996 -0.0016908869
0002b0 db 83 00 bc a8 44 05 bb de 3c 2d 3a 4d 79 8c bb
       -0.007843937 -0.0020335112 0.0006608496 -0.004286921
0002c0 30 e1 0b bc 5c 83 46 bb 55 ce 14 bb f5 e5 db bb
       -0.008537576 -0.0030290699 -0.0022705991 -0.0067107626
0002d0 37 82 89 bb 56 88 f9 bb 7a 08 ef bb 41 0e e2 3a
       -0.004196431 -0.0076151295 -0.0072947117 0.001724668
0002e0 de 2e 1e bc 91 ef c7 bb fb d7 11 bb c8 d6 ec bb
       -0.009654729 -0.0061015566 -0.0022253979 -0.0072277524
0002f0 2c 0b f6 b9 4e 4e 43 b9 8c 08 ce ba c1 01 f7 b8
       -0.000469291 -0.0001862582 -0.00157191 -0.000117782045
000300 50 7e 31 ba a2 4f d1 ba 20 00 47 ba 40 34 25 3a
       -0.0006770836 -0.0015969167 -0.0007591266 0.00063020363
000310 3c e5 26 bc df 19 34 bb ab 4b c3 bb d8 57 b1 bb
       -0.01018649 -0.002748124 -0.005959948 -0.005412083
000320 6f 7b 30 bb 85 e5 bc 3c f7 50 6f 3b 2b df da ba
       -0.002692904 0.023058662 0.0036516765 -0.0016698589
000330 7e 48 e5 bb a2 54 8c b9 7a 1e 17 bb b0 ce 39 ba
       -0.006997167 -0.00026765937 -0.0023058937 -0.0007087989
000340 4e 2f 24 bb a4 95 17 bb b5 bb 01 3a 53 fe 28 bb
       -0.002505261 -0.0023129964 0.000494893 -0.0025786355
000350 c0 a6 ef ba 5e 21 c8 bb 59 09 35 ba 12 cf 12 bc
       -0.0018283948 -0.0061074933 -0.0006905995 -0.008960502
000360 c1 bb 11 bc 17 9d 0b bc 1d b9 bd bb c0 bc 15 bc
       -0.008894862 -0.00852134 -0.0057898895 -0.00913924
000370 c4 6f e7 bb 1d 74 f6 ba 30 be 83 ba e0 ef 1d bb
       -0.007062884 -0.0018802915 -0.0010051187 -0.0024099275
000380 e1 48 e0 b9 c1 43 0d bb 71 27 7c b9 d3 5b 56 38
       -0.00042778908 -0.0021555277 -0.00024047286 5.1107094e-05
000390 fd f8 64 3a 70 22 4d bb 76 09 2a 39 e6 a9 26 3a
       0.0008734612 -0.0031301044 0.00016215988 0.00063577143
0003a0 05 f3 fa bb e4 73 c7 bb 21 7d 7b ba 41 a1 51 ba
       -0.0076583647 -0.0060868133 -0.0009593536 -0.0007996746
0003b0 46 f8 c7 ba 7e d0 0e bc 87 47 88 38 24 c8 d5 ba
       -0.0015256486 -0.008716701 6.498308e-05 -0.0016310257
0003c0 eb 4f f9 bb 3c e3 eb bb c0 bc 6a 3a c7 2b 1f bb
       -0.007608404 -0.0071987193 0.00089545175 -0.0024287568
0003d0 f5 e3 00 bb 1c 80 81 ba 16 f7 0f ba 28 6e e1 bb
       -0.0019667123 -0.0009880099 -0.0005491836 -0.0068795867
0003e0 df ee 0c bc e5 cd 40 3a 24 ed ff b9 32 85 f4 bb
       -0.008601873 0.00073548994 -0.00048814074 -0.007462167
0003f0 32 01 a9 bb 83 04 06 bc 8a 28 72 bb 67 44 0d 3a
       -0.005157613 -0.008179787 -0.0036950433 0.0005388916
