results/short_race/second_iteration_training/model824.pt (torch, 276107 bytes, 13 tensors)

features_model.0.weight f4 [128, 4]
00000000: 41ef c13b 541c 5b3e 4477 9d3d fe81 a1be
00000010: 7ba7 083d 8baf 9cbd 3ea5 71b7 7e08 eb3c
00000020: 7b51 1c3e 4207 d83c 2db7 09bd c133 973e
00000030: 295e 403e a29c cfbd 72e8 67bd 5b33 d2bd
00000040: 4c56 1d3d cfde 0f3c 4459 493d 01c9 f4bc
00000050: bd15 253d 4ea2 803d c486 753e 91f2 48be
00000060: 119c f1bb 4372 c5bc 9213 da3d bdfc a63e
00000070: 9586 4b3b 2a3a 05bc d965 953d 7ea7 a33e
00000080: 150c 3ebe 2b04 243e 709c fd3d 2e9e 9c3b
00000090: 1985 a43b 0fe8 693e db27 653d 835f babe
000000a0: 4a4f 653d d70b 843e fa27 3e3e 893a 2a3e
000000b0: 5b18 243e ab7f f4bd 21a7 303e 125a 5e3d
000000c0: dcba 023e f4f7 af3e 46fc 0e3d c5dc a8bd
000000d0: e192 25be 56e0 22bd 0c4c 18be 9cea 873c
000000e0: bfd1 66bd 6773 ae3e d22a 0cbd 2b4c 0d3e
000000f0: dfbc 53be dd71 8abc 2523 98be f2b2 813d
00000100: 02eb f63d 2c0d 8dbc 457d d33c aad3 ffbd
00000110: 9007 4cbd 9e10 7abe bf4d fdbd b652 5fbd
00000120: 5440 07be 50f5 683d a142 a7bd 7a4f e5bd
00000130: b1e9 93bd 8be1 0ebe 8f32 84be b870 4bbe
00000140: 145c a93d 8b90 a2bd b7ea fbbd bf3b 4e3d
00000150: 86ff 71be 47d9 31be eb70 403e 65d4 81bd
00000160: f5bb 4a3d e863 693e 1a56 a3bd 44a9 d6bc
00000170: 5c9e 67be 92d0 b5bd 9237 dcbd 7c05 953d
00000180: 70ba e73c 7360 2f3e c7f1 103e b8c6 a0be
00000190: 447d c0be aa8a 58be 8127 9b3d 2416 b3bd
000001a0: ff43 6f3e 8088 be3e 0e3c cbbc c96d 403e
000001b0: 5000 b0bd 9eff a2bd 4c62 d7bd b2f8 c0bc
000001c0: b5c9 a93b e485 81bc cead 92bd b2de d13e
000001d0: 5554 bd3d 8f65 d23d 65f8 e9bd e151 82bd
000001e0: 9cca 293e e4ab 053e 0953 323e c33c f73d
000001f0: 319a cc3d 8352 953d bc4f ea3d 61fe 6f3e
00000200: d76f 513e b85f 93be 63ba 743d c6f9 d93d
00000210: 7f0d 3b3e b85f 45bc 5f6d 073e b706 80bc
00000220: d431 4e3c 5938 1a3d 4a23 743e 71a1 983e
00000230: 3e6b be3d 6800 11be 576c 4f3b 00d4 3dbe
00000240: e624 a1bd d5c3 ddbd 54bf cd3d a174 6ebc
00000250: b9d7 90bd e754 c4bd a38e 0abb fb38 b43d
00000260: 3e3b 17be 39f2 1e3d c5df 973d 6ac3 673e
00000270: dc28 013d c3b2 803c 677d 0b3e f63b c93e
00000280: 9d01 a6b9 bf7c 5ebc b1a9 92bd 6f66 b13e
00000290: 09c0 0fbd 3382 94bd 4fa6 ce3c 536a 72be
000002a0: 1f64 943d fcd6 54bd 2c75 dcbc b6e8 f2bd
000002b0: 467c fabd 9fa6 303e 51da 083e c377 683c
000002c0: 66dc e23c c9a7 993e 4e8d 423d 4ed5 e8bc
000002d0: eb57 1fbd 7839 aabd 858a 91bd b1e4 133e
000002e0: aa84 c33d 5f17 2a3c 1885 c93e e6ec cbbd
000002f0: 68e2 f5bb a00c d33c 5362 fd3d 8ce5 fc3c
00000300: c80c 55be 9b24 98b9 e766 16be a2a6 3a3c
00000310: 1e94 713e 95a0 01be 4d5b 5e3d 54c0 053e
00000320: 3370 51be 8b75 a5bd 4706 d23c 57ac b33d
00000330: f310 99be 5aeb 443e 529f 3f3e da8c b73c
00000340: c432 453e f6be b83e 1ad2 7bbd c893 22bd
00000350: 7ddb 603e 6bda 7abd fff9 0bbd 1039 03bd
00000360: cbe1 353d 34ae 223c 1111 e13d 96f7 513d
00000370: 7249 f63d ed16 d4bb 414f 4e3e 4c39 d73e
00000380: 9fa8 093e 6069 423d d4b3 f93b 12d7 c2bd
00000390: 7586 dabb ebe0 4d3e a928 093e b845 013c
000003a0: ab51 94bd 623f a43c 8e79 6fbd 115a f73c
000003b0: b663 f43d b068 a23d a203 163e 3cf3 9b3e
000003c0: 6113 bbbc d11d 2f3d 7226 9d3c 7204 7b3e
000003d0: 3181 323c cd55 92bc bfe3 0ebe 990b 993e
000003e0: 7a1b 05bc 50da 0b3e 1a7d 813d b55a aabe
000003f0: cf28 50be 91d5 7f3e 7aa4 febc f67e 21be
0.005918414 0.21397525 0.07688764 -0.3154449 0.033362847 -0.0765067 -1.4403193e-05 0.028690573
0.15265457 0.026370648 -0.033621956 0.29531673 0.18785919 -0.10137297 -0.05661816 -0.102637015
0.038412377 0.008781149 0.049157396 -0.029881002 0.040303934 0.06280957 0.2397719 -0.19623782
-0.007373341 -0.024102336 0.10648264 0.326147 0.003105556 -0.008131543 0.072948165 0.31963724
-0.18559296 0.16017215 0.12383354 0.0047795987 0.0050207493 0.2284243 0.055946212 -0.36400995
0.05598382 0.25790283 0.18569937 0.16623892 0.16024916 -0.11938413 0.17251255 0.054285116
0.12766594 0.3436886 0.034908555 -0.082452334 -0.16169311 -0.039764725 -0.1487276 0.016591363
-0.056352373 0.3407242 -0.034220524 0.13798587 -0.20677517 -0.016899997 -0.29714313 0.06332959
0.12056543 -0.017218195 0.02581657 -0.124915436 -0.0498119 -0.24420401 -0.123683445 -0.05452224
-0.13208133 0.056874573 -0.08167005 -0.111967996 -0.072223075 -0.13953225 -0.25819823 -0.19867218
0.08269516 -0.07937726 -0.12300628 0.050349947 -0.2363263 -0.17368041 0.18793075 -0.06339339
0.049495656 0.22792017 -0.07975407 -0.026203759 -0.22619003 -0.08877672 -0.10752787 0.07276437
0.028287143 0.17126636 0.1415473 -0.3140161 -0.3759557 -0.21146646 0.07575894 -0.08744457
0.23365782 0.37213516 -0.02480891 0.1879188 -0.085938096 -0.07958911 -0.105167955 -0.023556087
0.005181516 -0.015810914 -0.07162057 0.40990216 0.09244601 0.10273277 -0.114243306 -0.063632734
0.16581196 0.13053852 0.17414488 0.12072136 0.09990347 0.072911285 0.114409894 0.23436882
0.2045282 -0.28783965 0.059748065 0.106433436 0.18266867 -0.012046747 0.13225316 -0.015628202
0.012585122 0.037651394 0.23841587 0.2981067 0.092977986 -0.14160311 0.003165027 -0.18537903
-0.07868366 -0.108283676 0.100462586 -0.014554174 -0.07072396 -0.09586506 -0.0021142147 0.08799931
-0.14768693 0.03880522 0.074157275 0.22633138 0.031533107 0.01571024 0.13622056 0.3930356
-0.0003166319 -0.0135795465 -0.07161272 0.34648463 -0.03509525 -0.07251396 0.025225786 -0.23673372
0.07245659 -0.051962838 -0.02691134 -0.11860792 -0.122307345 0.17251061 0.13364531 0.01418871
0.027692985 0.30010822 0.04749804 -0.028422024 -0.038902204 -0.083117425 -0.07106499 0.14442708
0.09546788 0.010381549 0.39359355 -0.09957294 -0.0075037964 0.025762856 0.123722695 0.030871175
-0.20805657 -0.00029018972 -0.14687692 0.011392267 0.23591658 -0.12658913 0.05428629 0.13061649
-0.20452957 -0.0807906 0.025637759 0.087731056 -0.29895744 0.19230404 0.1871312 0.02240603
0.19257647 0.36083192 -0.061479665 -0.039691716 0.21958728 -0.061243456 -0.03417396 -0.03203684
0.044404786 0.009929229 0.10989583 0.051261507 0.12025727 -0.0064724595 0.2014742 0.42035902
0.1344323 0.047463775 0.007620314 -0.09513678 -0.0066688606 0.2010533 0.13394417 0.007890157
-0.072421394 0.020049755 -0.058465533 0.030194314 0.11933081 0.07930124 0.14649823 0.3045901
-0.022836389 0.042753045 0.019183371 0.24513415 0.010895059 -0.017863179 -0.13954066 0.2989166
-0.008124227 0.13657498 0.06322689 -0.3327233 -0.20328067 0.24983813 -0.031084288 -0.15771088

features_model.0.bias f4 [128]
00000000: 8ee7 2f3e 8c11 ff3b 4098 003e 5a1f 09bd
00000010: 7b6d 4b3e 6a2b e83d 6cf3 1f3e 032b 303e
00000020: b631 033e 3a2a 383e b983 623e e83b cfbb
00000030: d881 0d3e 46d7 31bd 8c3c fa3d 55d0 053e
00000040: a962 bf3d fbed bebc 2f0f 78bd 40c7 75bb
00000050: 6210 193d 67ee e4bd c3ab 203e 573a 65bc
00000060: 571d 4d3e d0e9 27bd 9192 9a3d 8be2 663c
00000070: cc73 433e 613b 253e 1cfd 1a3e 2743 443e
00000080: 940e 953a b03f ba3d 6fb5 453e 125e 243d
00000090: 65a2 863d f987 e9bc 4693 393e 0473 313e
000000a0: ac5f 583e fcb3 053d 5e5e dc3d add7 e33d
000000b0: 5de5 223e e772 a5bc 3ecb 9d3d d377 193e
000000c0: 502b f0bc 8789 713d 079f 6fbd 57f7 033e
000000d0: ecd3 fc3d fb37 a73d 37fa 423e 0a63 c83d
000000e0: 99bb 023e b6e3 053e 6d8c 6fbc 5c19 493e
000000f0: 4de4 3b3e 20ea 29bd e615 3e3e 4cc3 273e
00000100: 1172 153e 3a8f 6c3e d678 153e 7f40 443e
00000110: 2447 283e 5072 053e 70c5 8ebd f694 9abd
00000120: a364 79bc 34fe ba3d 1488 283e de5b 4fbd
00000130: 6b9d 58bc 2fe3 b33d cb2b 3e3e 9065 273d
00000140: 92be f33d 0277 86bc 115b 1f3e 2fa4 ed3d
00000150: ae85 a8bc c66a ee3c 9561 753e 8dce eb3d
00000160: b5f8 fb3d ffea 8cbc c466 7abc 8500 703d
00000170: 3ca2 49bc f1bc 8c3c 8cfb 373d 99e6 1a3e
00000180: a648 3abd d18e 9ebc 3505 613d 1571 143e
00000190: 5b00 d9bc e95e 4b3e f9e8 793e 4ce9 253e
000001a0: 850b 1f3e 8cec 4e3e 4888 3f3e 63f7 373e
000001b0: cb24 69bc 164c d9bc dc92 283e ac85 2b3e
000001c0: 699d 2ebd 261d b23d 293c ee3d 0859 4e3e
000001d0: ee16 5a3e dc1b 4bbb aa42 2a3e 5d5c e9bc
000001e0: 3dbe 6abd cbfa 843e 46fd c73d 252f 933d
000001f0: 3327 463e 8c86 1a3e d13f 4b3e f221 faba
0.17178175 0.007784074 0.12558079 -0.033477165 0.19865982 0.113364056 0.15620202 0.17203908
0.12811932 0.17984858 0.2212056 -0.00632428 0.13819063 -0.04341819 0.1221858 0.13067754
0.0934499 -0.023306837 -0.060561355 -0.0037502795 0.03736914 -0.11178284 0.15690522 -0.01399096
0.20030724 -0.040994465 0.075474866 0.014092098 0.19087142 0.16135933 0.15135616 0.19166242
0.0011372142 0.09094179 0.19307493 0.040128775 0.06573943 -0.02850722 0.18122587 0.17329031
0.21130246 0.03264235 0.107601866 0.11125121 0.15907808 -0.020196391 0.07704781 0.14987116
-0.029317528 0.058969047 -0.05850127 0.12887321 0.123451084 0.08164974 0.19040762 0.09784515
0.12766875 0.13075146 -0.014620882 0.1963858 0.18348809 -0.041483045 0.18563041 0.16383094
0.14594294 0.23101512 0.14596877 0.19165228 0.16433388 0.13031888 -0.06971252 -0.07547943
-0.015221748 0.09130517 0.1645816 -0.05062472 -0.013221125 0.08783566 0.18571393 0.040868342
0.11901583 -0.01641417 0.15562083 0.11603581 -0.020571556 0.029103648 0.23963006 0.11514006
0.123032965 -0.017201899 -0.01528329 0.058594245 -0.012306746 0.017179938 0.04491763 0.15127029
-0.04547944 -0.01935521 0.054936606 0.14496262 -0.026489427 0.19860424 0.24405278 0.16202277
0.15531738 0.20207423 0.18704331 0.17965464 -0.0142299635 -0.026525538 0.16462272 0.1675021
-0.042630587 0.08696966 0.116325684 0.2015115 0.2129781 -0.0030991947 0.16626993 -0.028486425
-0.05731033 0.2597259 0.09765105 0.071867265 0.19350891 0.15090388 0.19848563 -0.0019083603

features_model.2.weight f4 [128, 128]
00000000: 0e6b be3e 7b11 89bd 8b18 67bc 7245 b23d
00000010: da54 633e f383 003e ea33 d73d f7d7 6f3d
00000020: 9796 383e 6dbd 543e 05e2 2c3e 73ce 71bc
00000030: af3b 453d 94f4 f33c da28 7b3d 42cb 0f3e
00000040: cb81 10be 322b 913d 3717 60bd cb77 ffbd
00000050: b876 c13d 3917 0f3d 89dd 103e 67aa 58bd
00000060: 69b1 533e b82c 0dbe 7153 23bb 680c 863e
00000070: 088a 443e 5bcb 04bd 65e9 693d 0dc8 163e
00000080: 61d4 3e3e d47e 86bc c7b8 143e 9225 86bc
00000090: ee28 d6bd b974 5fbe 32ec 3c3d 1079 1f3e
000000a0: 5673 b73e ff6d 14bd 308f 343e 1536 8b3e
000000b0: 7704 913e eb54 243e 6ed3 26bd 23c8 af3d
000000c0: 82e5 2b3e 1e86 953e f5e2 243e a6e8 be3e
000000d0: cf5d 5abd ffc7 40bd 26f8 32bb 25da 27be
000000e0: 2f94 28bd 597b 903d 0eb2 70bd 39d2 353e
000000f0: 0583 a63e 7d53 ab3e 6fcc 7c3e 9d25 94bc
00000100: 2624 ce3e 60c5 8a3e 931c e53d dc9d 193e
00000110: 3446 543d 8a79 843e fda3 d43d 01bf 70be
00000120: 44c7 5fbe 5a96 073d fd14 6e3c dea4 56bd
00000130: 1235 febc 9cb2 553d bb53 f93d ab8e a3be
00000140: f184 ee3d f1a8 423d 67a3 11bd 4c29 213e
00000150: 152d 763e 635e 463e e984 9dbc 7d1b 8abd
00000160: e460 813d 3700 623d f868 73be 7f7a c1bd
00000170: c527 303e 910c 61bd 90d4 2dbd e06a 8cbd
00000180: 4e47 c5bc 326b d73d 5175 5a3e feec 5f3b
00000190: cc33 c83d 003b 303e c114 393e ba73 ee3e
000001a0: c9a7 b43e 04df f83d c49a 89ba da55 8e3d
000001b0: 1029 f9bd da01 253e 2f5d 0b3e 7c81 9d3e
000001c0: 279b d2bd 3277 34be 84eb 43bd d0ae 493e
000001d0: b9a8 573e f361 09be 27d1 153e 957d 25be
000001e0: 8d2b 9ebd 957f 873e a9dd a3bd 704b 693d
000001f0: 806b 1b3e 3729 663e 63b0 903e 1cab b1bd
00000200: 7d27 ef3c fa87 9d3d 70a2 a73d 5ab4 38bb
00000210: 65b1 4bbd c06c a93d 94db 333e f568 a5bd
00000220: a8d5 653e d2ed 37be bad9 a6bd 9086 cc3d
00000230: f4d6 7d3c 7623 ea3c 9b4b 933e be97 78bc
00000240: 6c9f 0ebd 3c86 1a3d e512 633d 7d58 bbbd
00000250: 251d e8bc fed1 1ebe 5941 b6bd 9426 ca3d
00000260: 5b5a 47bd 1f58 c3bd f3ea 25be ed46 c8bc
00000270: ec30 b43e 6f81 2abe 259a b2be e8d3 90bd
00000280: d1c1 5d3d f280 fa3b 3170 87bd 3cb1 83bd
00000290: 176e 953d f1c0 153c 95f8 8f3e c6eb 2a3d
000002a0: 9efe 4d3e e99d 4abe 43b4 2a3c 8310 713e
000002b0: 1100 233e c067 21bd 0abe 193d 209e 993e
000002c0: 5142 0ebe 2b32 f63c c180 2f3d 8397 733d
000002d0: 940a 0a3d 96f5 a23d 8829 0d3d 69c2 c93d
000002e0: 371b 773c 9623 603e 826f bbbd 5921 873d
000002f0: c354 b53e 1918 82bc 4869 44be d29e eb3e
00000300: 02fe 573e 2549 353e b75c d83d ddc2 5e3d
00000310: da67 853d f76f c73e 9995 84be 700e 15bd
00000320: c956 a13d 3d9f 653e a80b 11be f8fb 073e
00000330: 46db f93a 818f bbbc 49cd 123d 045f dc3d
00000340: 8023 413d 36d4 013e 5630 783d ff64 b13e
00000350: cc41 973d 767e 2d3b 1fc6 04be 4c3f 3e3d
00000360: 715f 703e 8ddb 1abb e71c 03bd 9f25 cd3a
00000370: de51 143d d0da f53c d3fe 0d3e e543 09be
00000380: a6fe 8f3c b5d6 c6bd 5d3f 313e ccdf b9bb
00000390: 24d1 333d 9e4e 9abc 1708 a6be 9067 203e
000003a0: ac53 433d c074 e83c 758f f5bd 4a17 b23e
000003b0: fa77 d2bd 46aa c0bc d27b de3d 65a4 593e
000003c0: 343d 7bbd 9e73 56be e97e 6d3d fa90 a83c
000003d0: bc41 7d3e 8a6f e93d e6e7 943e a502 c7bd
000003e0: c4a0 a4bc 3978 813e 7dbf 4a3e 19eb 7e3b
000003f0: 6afc 5dbc df34 1bbe e163 863d b5ef a23d
0.3719105 -0.06692787 -0.014104973 0.08704652 0.22200337 0.12550335 0.10507949 0.05855557
0.18026195 0.20775385 0.16883095 -0.014758694 0.04815262 0.02977971 0.061318256 0.1404238
-0.14112012 0.07088317 -0.05470964 -0.124740206 0.09446472 0.034934256 0.14147009 -0.052896883
0.20673145 -0.1378659 -0.002492156 0.2618134 0.1919328 -0.032420497 0.057107348 0.14724751
0.18635704 -0.016417898 0.14523612 -0.016375337 -0.104570255 -0.2182187 0.04612369 0.15573525
0.35830182 -0.036237713 0.17632747 0.271897 0.2832372 0.16048019 -0.04072898 0.08583095
0.16786769 0.29203886 0.16102202 0.37286872 -0.05331212 -0.04706573 -0.0027308553 -0.1639181
-0.041156944 0.07054777 -0.058763556 0.17755975 0.32521835 0.33462134 0.2468736 -0.018084342
0.40261954 0.2710371 0.11187091 0.15001625 0.051824763 0.25873977 0.10382841 -0.23510362
-0.21853358 0.03310237 0.014531371 -0.052403323 -0.031031165 0.05217229 0.121741734 -0.31944785
0.1164645 0.047524396 -0.035556223 0.1573841 0.24040635 0.19371943 -0.019228416 -0.06743524
0.063173085 0.055175986 -0.23770511 -0.094471924 0.17202671 -0.054943625 -0.042439044 -0.06856322
-0.024081852 0.10518493 0.21333815 0.0034168358 0.097755045 0.17210007 0.18074323 0.46572667
0.3528426 0.12151912 -0.0010498394 0.06949969 -0.12166035 0.16113988 0.13609765 0.3076285
-0.10283499 -0.17623594 -0.047832027 0.19695592 0.21060456 -0.13416271 0.14630567 -0.16161187
-0.077231504 0.26464525 -0.08001263 0.05695671 0.15177727 0.2247666 0.28259572 -0.08675215
0.029193634 0.07691951 0.08185279 -0.002818367 -0.049729723 0.082726955 0.17564231 -0.080766596
0.22444785 -0.17961815 -0.08146997 0.09986603 0.015493143 0.028581362 0.2876862 -0.015172897
-0.034820005 0.037725672 0.05543794 -0.09147737 -0.02833421 -0.15509793 -0.08899183 0.098706394
-0.048670154 -0.09538292 -0.16202907 -0.024447883 0.35193574 -0.16650937 -0.34883228 -0.07071668
0.054139916 0.007644766 -0.06613196 -0.06430289 0.072963886 0.009140239 0.2811934 0.041728757
0.2011666 -0.197868 0.010418954 0.23541455 0.15917994 -0.039405584 0.03753475 0.30003452
-0.13892485 0.030053219 0.0428474 0.059470665 0.033701494 0.07956998 0.034463435 0.09851534
0.015082172 0.21888575 -0.09152128 0.065981574 0.3541623 -0.015880631 -0.19180787 0.46019608
0.2109299 0.17703684 0.10564559 0.054385055 0.06513949 0.3895261 -0.25895384 -0.03639072
0.07877881 0.22424026 -0.14164603 0.13279712 0.0019062541 -0.022895576 0.035840306 0.1076031
0.047152996 0.12678608 0.06059297 0.34647366 0.07385597 0.0026473082 -0.12966202 0.046447083
0.23473908 -0.0023629398 -0.032009985 0.0015651471 0.036210887 0.030011564 0.13866739 -0.13404806
0.01757748 -0.09708921 0.17309327 -0.0056724306 0.043900624 -0.018836316 -0.32428047 0.15664506
0.047687218 0.028375983 -0.11990253 0.34783393 -0.1027679 -0.023518693 0.108634606 0.21254118
-0.061337665 -0.20942542 0.05798236 0.020576943 0.24732107 0.113982275 0.29083174 -0.09717301
-0.02009619 0.25287035 0.1979961 0.0038897453 -0.01354895 -0.15156887 0.06562019 0.07955877

features_model.2.bias f4 [128]
00000000: 4e92 093e 78db 953d 0e0c ba3b 7102 79bd
00000010: db38 af3d 650f 2f3e 9f2b 98bc 0000 0000
00000020: 622d 003e 89fc 223e 3138 e9bc 7f49 043e
00000030: dc3a 7ebc 69f6 babc 214a d7bb 51dd 4e3e
00000040: 0654 a4bb 3cc5 713d e112 ccbc 6a86 123e
00000050: 778e c3bb f5af 263e 756e 97bc 1813 3bbd
00000060: f008 473e d1a4 0e3e 08c7 35bb 068e 39bc
00000070: 90c6 e4bb 74be e6ba 2242 eabc b4eb 193e
00000080: 940e e13d 5e91 0a3e 3577 453e 8ba1 df3d
00000090: 906b 09bd 77c2 c13d e1e3 143e 5120 48bb
000000a0: 9407 333e 896a cd3d 0ed7 12bd b32e ddbb
000000b0: ff11 bd3d dcc2 c5bc b772 723c 2950 4dbc
000000c0: b254 dabc 96d7 cc3d f882 64bc a8ca 59bc
000000d0: 4aef 9dbc 7422 cb3d 296a 3abc 9038 213e
000000e0: 778b d73d 735a 98bc c65e a73d f0f2 ccbc
000000f0: 87fc c7bc d477 053d 1290 56bb 4716 d838
00000100: 0576 26bc 06bd 1bbd 102f d9bb 49e9 2d3e
00000110: cd8a 1e3e f6e5 ea3d 40c6 b33c 455b a7bb
00000120: 9bc0 debc c084 d2bc ca5b 043e e3d6 033e
00000130: 7593 0b3e 6485 4c3b 9cab 0e3e 4c22 9dbc
00000140: 0000 0000 9fc3 523c 39ea c8bc 7df8 003e
00000150: 61b3 6dbc 8c68 fb3d d1b4 38bc bd10 5a3e
00000160: 7f46 de3d 82ed 3abb 574d 72bc afed e53c
00000170: adc5 0a3e 8d9e 08bd 3c94 9fbc f467 ff3d
00000180: 33b8 2ebc a93a 9bbc e721 2a3d 9382 4e3e
00000190: a34c 3bbd 1715 19bd 0000 0000 8f10 9ebc
000001a0: 7b0d 013e a75a febb 698e 1f3e 4713 56bd
000001b0: 7975 11ba e245 dfbc b469 f23d 5872 41bd
000001c0: 21f8 d3bc 74bc 42bc 66b0 dd3d b552 683e
000001d0: 6001 1a3e e53b 1b3e f083 58bc bd2c 3dbd
000001e0: e8bd f33b 62b1 8bbc 88ee 72bc bad6 8a3d
000001f0: 2d5a 53bc a0f6 403d 0000 0000 8137 42bc
0.13434717 0.07317251 0.0056777066 -0.060793344 0.08555766 0.17095716 -0.018575488 0.0
0.12517312 0.15916647 -0.028469177 0.12918662 -0.015516963 -0.022822576 -0.006570116 0.20201613
-0.005014899 0.059025988 -0.024911346 0.14309087 -0.005967911 0.1627806 -0.018485287 -0.045672506
0.19437003 0.1393006 -0.002773704 -0.011325365 -0.0069816783 -0.0017604367 -0.028595988 0.1503132
0.10989109 0.13532016 0.19283755 0.10919484 -0.033549845 0.09460919 0.14540054 -0.003053684
0.1748336 0.100300856 -0.035849623 -0.0067499517 0.09231948 -0.024140768 0.014797858 -0.012531319
-0.026651714 0.10002057 -0.013947241 -0.013292946 -0.019279141 0.09918681 -0.01137785 0.15744233
0.10524648 -0.018597817 0.081723735 -0.025018185 -0.024412407 0.03258498 -0.0032739681 0.00010303832
-0.010159974 -0.038022064 -0.0066279247 0.16983522 0.15482636 0.11469643 0.021945119 -0.0051073157
-0.02719145 -0.025698066 0.1292564 0.12874942 0.13630469 0.0031207437 0.13932651 -0.019181393
0.0 0.0128640225 -0.024525749 0.12594791 -0.014508099 0.122758 -0.011273579 0.21295448
0.1085329 -0.0028522913 -0.014788947 0.028067438 0.1355197 -0.03335433 -0.019479863 0.12470999
-0.010664034 -0.01894887 0.041536238 0.20166998 -0.045727383 -0.03737363 0.0 -0.019295005
0.12602799 -0.0077622714 0.15581669 -0.052264478 -0.0005548816 -0.027255002 0.118365675 -0.047228187
-0.025875153 -0.011885751 0.10824661 0.226878 0.15039587 0.15159567 -0.01321505 -0.046185244
0.00743841 -0.017052356 -0.014827378 0.06779237 -0.012899918 0.0471102 0.0 -0.0118540535

features_model.4.weight f4 [128, 128]
00000000: defa 023e 3b03 44b9 a490 6f3d 7bad 72bd
00000010: a7a1 98bc cb99 62be c963 83be 63d7 923b
00000020: 41ff 9bbd 15f1 713c 5a68 76bd da07 2dbe
00000030: 9f26 54bd 05c9 4fbd 9233 2abc 140f 28bd
00000040: 7a0d 0f3e 8571 c53d 17f0 64be 5e44 7f3d
00000050: 21cd 653d a014 93be b4a5 19be bc9b b33d
00000060: 6c3a cfbd e8fb 963d 3158 bd3e 4efa 95bc
00000070: 5d75 e43d f46c e83d 7ce5 efbc ab06 21bd
00000080: df02 003d 00ff 5abe 8d43 383e ce76 493e
00000090: bbd6 3fbe cdba 7abd dab3 f7bc 652d 113d
000000a0: be23 10bd 6e23 ac3c ea6f ab3e a26a 09be
000000b0: 68d3 8e3d 6c8f 343e f31c 07bd a7cf 253e
000000c0: dd89 60be 6b8a ad3c d177 553d b03e 5a3d
000000d0: 3707 0dbd 5f6d 19be 6be5 94bd 0b45 dd3d
000000e0: dfea 7ebd 6681 a1be 6d91 323e 3471 4c3d
000000f0: f1c5 18be d9ef 5cbd f36f 1b3d 0fd9 13bd
00000100: 66fc 14be a64a b6bd 164f 1b3d f3aa 8bbd
00000110: 141b 983d 9984 393d c21d c53d 2d25 213e
00000120: 792c 08be 6e95 afbd 8ac3 09bd 2ae2 763d
00000130: da4f a4be 9312 ec3c 901d bdbd 14bb 0fbe
00000140: ffde 593e eabc 403e 8407 22bc 7a62 41bc
00000150: 0334 b53c 8e62 fcbd 64e3 993c 8170 763d
00000160: f283 2e3a c8ab 05be 8a1f 5e3d 1df7 133d
00000170: 48fd 18be ceb3 dabd c242 4cbd 3836 ce3d
00000180: de3d 143d 0ac2 ad3d df0c 13bc 4167 e23b
00000190: c8a9 33bd 03e4 4abd 278c e3bd 38a6 a63d
000001a0: afe7 06bd e02d 47be cdb2 51be af8a 05bd
000001b0: 1a55 04be d09f 05be bec6 693e f341 173e
000001c0: e47c 993b 523e 983d ea73 12bd 2741 383d
000001d0: bed9 02be 0930 d23d 2ef5 153e 3abf b9bd
000001e0: c6c9 dc3d 6de3 f4bd 98d2 113e 1b6c 66be
000001f0: 02ec 24be db93 0ebe 246a 0fbe 8b82 24bd
00000200: 2f80 19bd 6942 d7bd 0671 f63d 6752 b5bd
00000210: 33fd 01be f65a 0abd ff01 2e3e 4a11 18be
00000220: 915e 5bbe 4db1 bbbd b68d 1b3d ccf8 33be
00000230: 2a78 32bd 88ad 0c3e 7ec7 093d cc1d 993c
00000240: ca27 1ebe f731 48bd 1178 943e 0272 9abd
00000250: 9a48 003e bca3 b73d 848d 96bd c055 603e
00000260: 39e4 cc3d 2b8c 333d da6f f2bd e0bb 0abd
00000270: ec81 3cbe 24d4 2c3e 7845 4f3d 4283 a0bd
00000280: db5a 2cbd efba 02be c759 783d 55e6 89bc
00000290: c417 863e 569d 09bd 8ca9 483d 9149 90be
000002a0: 15a1 0bbc f861 0dbc c77a a53d 94ed 423e
000002b0: ed27 d73e ff93 363d 31e9 dcbc 6e2d 95bd
000002c0: ca35 fc3d d5fd 5dbe 4861 18be 80c1 b8be
000002d0: 2c85 853d 0812 26be 59b9 033d ee74 663e
000002e0: c8aa 243e e823 fabb b73b 6ebd 9f33 babd
000002f0: 592f 6f3e c42f 883e 11d8 a03d 8594 cfbd
00000300: 78c5 8b3d e1c7 a5bc 9b39 2cbb 6058 c13d
00000310: 9aa0 483e 230d 2cbe b1f7 153e 7950 953d
00000320: c7c8 13bd ff80 b93d a53e 40bd 437a cb3d
00000330: 6e3c cbbd ef8a b5bd c237 c03d 85bb 08be
00000340: 9431 bf3d cc85 313b 62ca a2bb 2911 0cbd
00000350: e694 7f3c 35a8 10be 080d 29bc e49f 6fbe
00000360: 1d41 123e f276 573e 7890 1f3d c2b3 233e
00000370: 99ab b53d dbee 633c a0d7 81bd 80f2 d33b
00000380: c103 0abc 41e9 0d3e febe 44bc a8b9 22bd
00000390: 4a97 5d3e 10ac 0e3d ff87 4cbe 5f0a 5ebc
000003a0: 91d8 053e 7d5e 12bd fc16 3bbd 6402 23be
000003b0: 2c9b e5bd a282 3f3d 4eb8 e7bc a895 023d
000003c0: e8ee c13d 541a edbd d40c c93d 7dce d73d
000003d0: b49e 99b8 b9c4 46bd e725 233e ccf6 e2bd
000003e0: c677 3d3e 48d1 4e3d 1cdc 46bc 219a 85bd
000003f0: fdde 01be 91ee cebd 20e7 0cbd d09a 563e
0.1279101 -0.0001869322 0.05848755 -0.059247475 -0.01863177 -0.2212898 -0.25662068 0.0044812425
-0.07617045 0.014766951 -0.06015811 -0.16897526 -0.051794644 -0.050728817 -0.010388272 -0.041030005
0.13969985 0.09640793 -0.22357212 0.06232106 0.05610383 -0.28726673 -0.15004617 0.08769938
-0.10118565 0.07372266 0.36981347 -0.018307831 0.11155198 0.11348906 -0.029284231 -0.039313
0.031252738 -0.21386337 0.17994519 0.19674227 -0.18734257 -0.061213303 -0.030237127 0.035443682
-0.035190336 0.021012988 0.3348382 -0.13419583 0.06973916 0.17632836 -0.032986593 0.16192494
-0.2192759 0.021184167 0.05211622 0.05328244 -0.03443071 -0.14983128 -0.072703205 0.108041845
-0.06223571 -0.31544036 0.17438288 0.049912646 -0.14919259 -0.053939674 0.03794856 -0.036095675
-0.14549407 -0.08900957 0.03791722 -0.06819715 0.0742704 0.04529247 0.096248165 0.15736838
-0.13298215 -0.08573423 -0.033633746 0.06027428 -0.32092172 0.02881745 -0.09234154 -0.14036208
0.21276473 0.18822065 -0.009889487 -0.011803264 0.022119528 -0.12323485 0.018785186 0.060165886
0.00066572346 -0.1305381 0.054229297 0.036124337 -0.14940369 -0.10678826 -0.049868353 0.10068935
0.036191814 0.08484276 -0.008975237 0.0069092815 -0.043863088 -0.049533855 -0.11110716 0.081371725
-0.032935794 -0.19451094 -0.20478363 -0.032602962 -0.12923089 -0.13049245 0.2282972 0.14771251
0.0046840776 0.07433762 -0.035755076 0.04498401 -0.12778375 0.10263068 0.1464431 -0.09069677
0.10780673 -0.119574405 0.14240491 -0.22502176 -0.16105655 -0.1392359 -0.14005333 -0.040163558
-0.03747576 -0.105107136 0.12033276 -0.088536076 -0.12694244 -0.033778153 0.16992949 -0.14850345
-0.21422793 -0.09164677 0.037976943 -0.17575377 -0.04357163 0.13738072 0.033637516 0.018690966
-0.15444866 -0.048875775 0.28997853 -0.075412765 0.12527695 0.08966777 -0.07351211 0.21907711
0.100044675 0.043834846 -0.1183774 -0.033870578 -0.18408936 0.168778 0.05060336 -0.078375354
-0.042078834 -0.12766622 0.060632493 -0.016833464 0.26190007 -0.033597313 0.048989818 -0.28181127
-0.008522292 -0.008629315 0.080800585 0.19035941 0.42022648 0.044574734 -0.026966663 -0.07284056
0.12314947 -0.2167886 -0.1488086 -0.3608513 0.06519541 -0.16217816 0.032159183 0.22505543
0.16080773 -0.007633675 -0.058162417 -0.09091877 0.23357905 0.26598942 0.078537114 -0.1013575
0.068247736 -0.020236911 -0.0026279453 0.09440684 0.19592515 -0.16801886 0.14645268 0.072907396
-0.036080148 0.09057807 -0.046934742 0.09935429 -0.099236354 -0.0886439 0.09385635 -0.13352783
0.09335628 0.0027087806 -0.0049679736 -0.034196053 0.015599465 -0.14126666 -0.010318048 -0.23400837
0.14282651 0.21041468 0.038956136 0.15986541 0.0887062 0.013911928 -0.06339955 0.0064681172
-0.008423747 0.1385851 -0.012008427 -0.039727837 0.21639743 0.03483206 -0.19973753 -0.013552277
0.13070895 -0.035734642 -0.045676216 -0.1591888 -0.11211237 0.04675544 -0.028286126 0.031881005
0.09469396 -0.11577287 0.098169 0.105374314 -7.325169e-05 -0.048527453 0.15932427 -0.11082229
0.18502721 0.050492555 -0.012137439 -0.065235384 -0.1268272 -0.10104097 -0.034400105 0.20957494

features_model.4.bias f4 [128]
00000000: 632c f8bc d96b 8abc d091 b0bc 8654 e5bc
00000010: efe4 183e 8166 bcbc d5d0 ebbc 3bbb a1bc
00000020: f44e 94bc a2e9 81bc 5278 8fbc bfc7 c73d
00000030: f7e5 3dbc 02ef 9b3d 5476 a03c e221 f4bc
00000040: 7a5f 42bc fd49 49ba 4e99 f6bb d506 f63d
00000050: 906c 50bb 3e1c 9a3d b08c 74bc ea88 0dbc
00000060: 24cd a93d 18e9 d53c 6faf c5bc d503 093d
00000070: cbf9 95bc a2dd 023e 6613 8e3d d018 fdba
00000080: 8aac 36bc 329e 9e3d c671 febb 353b bc3d
00000090: cc52 3f3b 0000 0000 32f1 f13d b753 a4bc
000000a0: d113 94bc 4c7b 31bc a905 733d b826 43ba
000000b0: 0c06 8ebc 4f04 38bc 67a0 46bc cca7 b33d
000000c0: a12b f83d 501b 5a3e 58de 243d 3f98 00bd
000000d0: b2d2 aabc 93cc cb3b 1c32 b1bc f9b3 54bc
000000e0: 0000 0000 5967 873b 9e42 9dbc 0a64 1e3d
000000f0: 6eca 6aba 893b bd3c baaa 263e a888 c3bc
00000100: 6648 363e d205 533c 0319 e03d b2c2 363c
00000110: 5fb6 35bb ee4c 753d 8fdb 933d 8319 91bc
00000120: 5aaf 8abc 2a62 abbc 022d 99bc f604 a63d
00000130: b6bb 9f3a 61ff 233d c99f c93d 196c c5bc
00000140: 6ee4 593c d498 8c3c ed46 0e3e 7e63 c3bc
00000150: bdc8 08bd 3b18 72bc 1102 f53d 2c00 093e
00000160: fd5c 28bd 7a6b d5bc f6b0 9abc 683e 093c
00000170: a83e 2c3e ec7f d2bc f4ab 173e b832 09bd
00000180: e635 263e f790 c53d 0ac4 1e3e 226f 383e
00000190: 8f03 27bd 299b c8bc fc08 62bb 8655 1f3d
000001a0: e4ab 283e 52b6 183e 8fd5 38bb 21e5 9fbc
000001b0: 78dd 3d3e 4a11 a0bc c1b7 c0bc 4cf3 593d
000001c0: 1283 1a3c f588 4bbc 613c 2b3e ec9f 083d
000001d0: 159c e6bc d8f4 cc3d 3181 acbc 3850 193e
000001e0: 2b85 2bbb 8983 973d 6e2e 98bc 0000 0000
000001f0: 28ff 343e 4e8f fb3d ceb3 1d3c 2bf8 9e3d
-0.030294603 -0.016897129 -0.021553904 -0.027994405 0.14931081 -0.022998096 -0.028786102 -0.019742599
-0.018104054 -0.015858475 -0.017513428 0.097548954 -0.011590472 0.076139465 0.019587673 -0.029801313
-0.011863584 -0.00076785666 -0.0075255996 0.12013022 -0.003180299 0.07524918 -0.014926121 -0.0086386
0.082910806 0.026112124 -0.024131505 0.03345092 -0.018307587 0.12779859 0.06937294 -0.0019309763
-0.011149535 0.07745017 -0.0077650277 0.0919098 0.0029193638 0.0 0.118135825 -0.02005945
-0.018075855 -0.010832619 0.05933157 -0.0007444429 -0.017336868 -0.011231496 -0.012123204 0.08772239
0.121176966 0.21299481 0.040251106 -0.031395193 -0.02085242 0.0062194555 -0.02163034 -0.012982362
0.0 0.004132193 -0.019196805 0.038669623 -0.0008956556 0.023099678 0.16276065 -0.023868874
0.17801055 0.012879806 0.109422706 0.011154817 -0.002772711 0.05988782 0.07219612 -0.01771236
-0.016929317 -0.020920832 -0.01869822 0.08106415 0.001218668 0.04003847 0.0984493 -0.024099397
0.013299091 0.017162718 0.13894244 -0.023851153 -0.033394564 -0.014776285 0.11963285 0.13378972
-0.041104306 -0.026052225 -0.01888321 0.008376695 0.16820776 -0.025695764 0.14811689 -0.033495635
0.16231498 0.096467905 0.1550447 0.18011144 -0.040774878 -0.024488049 -0.0034490218 0.03889992
0.16471821 0.149133 -0.0028203463 -0.019518437 0.18541515 -0.019539494 -0.02352512 0.05321054
0.009430664 -0.01242279 0.16722251 0.03335564 -0.028150598 0.10007638 -0.021057697 0.14972007
-0.0026171904 0.07398135 -0.018576827 0.0 0.1767546 0.122831926 0.009625388 0.07762178

policy_model.0.weight f4 [128, 128]
00000000: 5095 f93a 4691 223b de44 e9ba d9a7 c2ba
00000010: 2c66 0fba 290a 0cbb 964e 29bb 7190 a8ba
00000020: ec6a e7ba f07b d83a 02c1 97ba b450 f2ba
00000030: 1859 0fbb 8802 8b39 7091 28bb e239 d6ba
00000040: 7570 3fbb b963 e039 764f 9cba 4a5e 65bb
00000050: 6f8f 413b 4401 96bb 953f 19bb aef4 e338
00000060: b8a6 1e38 b1dc a7ba 95f6 9eba 8ba7 bcba
00000070: ece0 f1ba 2520 af3a a658 aebb 8961 dbb8
00000080: 70e4 d2b8 b300 71bb d5f3 de39 4f02 8dbb
00000090: 38be b9b8 9c86 70ba cfb9 a6bb 59f2 3ebb
000000a0: d340 56b9 c343 82ba d400 40ba d2b9 1d3b
000000b0: fd5b 3d39 144c 9c39 a937 d63a ec06 68ba
000000c0: c9f1 30ba 0546 96ba f137 f8ba 24ee 08bb
000000d0: 32d7 9fba 6641 963a ce8f f5ba 7e2f 373a
000000e0: c4f8 30ba fb8e 60bb 11bf faba 307a 1cbb
000000f0: 4811 eaba f206 d8ba 670c 40ba 3af1 4aba
00000100: 95c9 8c3a 4a68 ef3a 7079 3a3b 8515 1ebb
00000110: f0e7 8738 5982 eabb 5821 b6bb 5bf5 bdba
00000120: 7b71 f93a 47da 763a 2f40 28bb 54a9 a33a
00000130: 4143 a7b8 d37c fab9 e7e8 be3a aa29 e6ba
00000140: 2408 703a eaf4 5d39 92df eeb9 7f56 85ba
00000150: 43a4 0ebb e789 0c3b 78fe 08bc de37 d0bb
00000160: da49 e4ba 5682 433b 9288 ddba 4371 39bb
00000170: 9cfc c73a ae1f 38bb e1e0 80ba ceb4 5a3a
00000180: 2224 83ba dcad b9bb 7d6f f53a 3744 3b39
00000190: 9920 5f39 6a03 eaba 6ef8 24ba 57ed 2039
000001a0: 464a b0ba 5f16 e7ba 1cf7 b93a 4e8c 1bbb
000001b0: 93da 023a c53a cdb9 1f09 a33a 6a95 34bb
000001c0: d2ab 90b9 a159 56bb ddad a839 21ec 29bb
000001d0: 58e8 f6ba 419c e5bb 8a8a c4ba 8b64 97bb
000001e0: 0663 0cbb d377 e1bb 937b 8237 a571 2739
000001f0: 089e c6bb 6488 91bb 7677 35b9 d0c8 ecba
00000200: 9c6b 5bbd 10fa a13b 6d00 5f3c 4542 4f3c
00000210: e0cb 1a3d aeee 803c 4f33 b43c 56fa 10bc
00000220: 80ba 913c 8c48 84bc 89f9 32b9 0819 6f3d
00000230: 7579 453d 207a 2b3d c24b 8d3d e63a 843c
00000240: b566 113d db73 633c e3cc 173a c9ef 873d
00000250: be84 063c 2780 a83d f6df 453c ad56 c63b
00000260: 5d25 9f3d be20 f33c e91f 173d e28c 443d
00000270: dc2f da3b 12da 0f3d dbc7 963d 2dca e53c
00000280: 15c6 c53b 8b7b 033d d765 b83b f474 9e3d
00000290: c4a4 9cbc 5497 0cba 16f3 553d 845a 273b
000002a0: f853 1fbc 986c 813c 1b7c b03d 8906 0cbc
000002b0: d33f 243b 1bc2 923c 055d b8bc 17e3 953d
000002c0: 14f0 ed3c 3075 723b bc1f 623c 46b4 153d
000002d0: 998a 8e3c 8207 b53c 755d 723c 757e ce37
000002e0: 8a44 1239 7fce d93a f477 a93c 4904 6f3d
000002f0: f5fd 3f3a 9e95 393c 4409 ae3b 386e 603c
00000300: 888b 18bd 84fe ed3c 28da 8b3d 81af 21bc
00000310: c1b8 003c 312d 863d caa2 8f3d 2be6 643d
00000320: 058d b03c 2ae8 9abc e1a4 633c ce6d 663d
00000330: f135 9e3a 000f b03d 5b10 f3bb f613 b53b
00000340: dac7 8e3c 4f66 e2bc d3d7 9bbc 259a 303a
00000350: 714a c73c ae61 8c3c c3fe 6d3d ef23 593d
00000360: 2863 203c b6d7 6d3c 9987 043d 4388 ef3c
00000370: b3a4 00bb 9e22 87b9 9dac c23b 3405 c6bc
00000380: b251 2f3d 4c89 8e3d a119 b0bc f6d9 fc39
00000390: 0a28 913b 1d14 013d 890c 743d 0ed4 8e3d
000003a0: 6d6a 50bc c48d 7d3d 529a 183d f8a5 473d
000003b0: 59e0 0abd 0898 d43b eee7 483c 1e8a 953b
000003c0: 0582 8d3d 8da2 273c 95ba 023d 272a 003d
000003d0: 046a 933b c7fa 8c3d ead1 453c feb2 6e3d
000003e0: 9933 dbba 75e0 913d 0c82 053d 7225 3fba
000003f0: 64f4 343d 64ac 8b3d eb2c ef3b dcf8 a73d
0.0019041691 0.0024805828 -0.0017797013 -0.0014851048 -0.0005470242 -0.002136836 -0.0025834194 -0.001286043
-0.0017655767 0.0016516428 -0.0011577907 -0.0018487186 -0.0021873172 0.00026514032 -0.0025721453 -0.0016344155
-0.0029211317 0.00042798909 -0.0011925537 -0.0034998828 0.0029534956 -0.0045777876 -0.0023383845 0.000108697786
3.7825404e-05 -0.001280686 -0.001212793 -0.0014393193 -0.0018453873 0.001336102 -0.0053206263 -0.00010460901
-0.0001005613 -0.0036774098 0.0004252481 -0.0043032537 -8.8569184e-05 -0.0009175332 -0.005088068 -0.002913615
-0.0002043278 -0.0009938407 -0.0007324342 0.0024067056 0.00018058713 0.0002981132 0.0016343492 -0.0008851129
-0.0006749896 -0.0011464959 -0.001893757 -0.0020893896 -0.001219487 0.0011463582 -0.0018734874 0.0006987973
-0.0006750936 -0.003426491 -0.0019130429 -0.002387654 -0.0017857933 -0.0016481562 -0.0007326067 -0.0007741634
0.0010741228 0.0018265333 0.002845373 -0.0024121713 6.480503e-05 -0.007156652 -0.005558174 -0.0014492677
0.0019031012 0.0009416681 -0.0025673022 0.0012486377 -7.9757076e-05 -0.00047776717 0.001456526 -0.0017560024
0.00091564865 0.0002116744 -0.0004556147 -0.0010172873 -0.0021765388 0.00214445 -0.008361451 -0.006354316
-0.0017417029 0.0029832325 -0.0016901663 -0.002829627 0.0015257779 -0.0028095054 -0.0009832644 0.0008342982
-0.0010005275 -0.0056664776 0.0018725243 0.00017859122 0.00021279081 -0.0017853801 -0.00062931224 0.00015347205
-0.001344987 -0.0017630568 0.0014188024 -0.002373475 0.00049916765 -0.00039144434 0.0012438631 -0.0027554878
-0.00027593836 -0.0032707232 0.00032172995 -0.0025928097 -0.0018837554 -0.0070071523 -0.0014994901 -0.00462014
-0.0021421327 -0.0068807392 1.5554751e-05 0.00015968697 -0.0060613193 -0.004441308 -0.00017306008 -0.0018065218
-0.05356942 0.00494314 0.013610941 0.012650077 0.037792087 0.015738811 0.021997122 -0.008848747
0.017789125 -0.016147874 -0.00017068362 0.05837348 0.048211534 0.041864514 0.06899215 0.016141366
0.03549834 0.013882603 0.00057907234 0.06637532 0.008210359 0.08227568 0.012077322 0.006052813
0.07770798 0.029678699 0.036895666 0.04798592 0.0066585373 0.035120077 0.07362338 0.028050506
0.006035576 0.03210024 0.0056273746 0.07737151 -0.019121535 -0.0005363126 0.052233778 0.002553613
-0.00972461 0.015798852 0.08617421 -0.00854648 0.0025062456 0.017914822 -0.022505293 0.073187046
0.029045142 0.0036996119 0.013801511 0.036548875 0.017400073 0.022098307 0.01479279 2.4616e-05
0.00013949178 0.0016617327 0.02068708 0.058353696 0.00073239143 0.011327175 0.005311163 0.013698153
-0.037242442 0.029052027 0.068287194 -0.009868504 0.007856549 0.06551588 0.070134714 0.055883568
0.021551618 -0.018909533 0.013894291 0.05625706 0.0012070519 0.08596611 -0.007417721 0.005526061
0.017429281 -0.027636675 -0.019023811 0.00067368365 0.024327489 0.017136421 0.058104288 0.053012785
0.009789266 0.0145167615 0.03235588 0.02923978 -0.0019629418 -0.00025774998 0.0059409873 -0.024172403
0.04280252 0.06959781 -0.021496596 0.0004822758 0.004429822 0.031513322 0.059582267 0.0697404
-0.012720686 0.061902776 0.037256546 0.048742265 -0.03390536 0.00648785 0.012262328 0.004563584
0.06909565 0.010231626 0.03191622 0.0312902 0.004498722 0.068837695 0.012073973 0.05827617
-0.0016723751 0.0712289 0.032594725 -0.00072916516 0.04417838 0.0681999 0.007299056 0.08201763

policy_model.0.bias f4 [128]
00000000: c7a6 95ba 3a36 8f3d 7361 c4ba de70 3d39
00000010: 38ad b537 c461 1cb9 9c8c b6bb f4bb 27bc
00000020: 542a ca3a 568b c4ba c5bc c4ba b7c7 6abc
00000030: f2c9 8abc d730 663c ac2f 8839 a860 b439
00000040: aeea e23b f988 8dbc f320 c4ba 3b16 bfba
00000050: 3635 3dbc 4f4a 06bc 2923 f93b e2d1 c7b9
00000060: a8d3 79bc eeb8 c4ba a4bc 42bc 261a 62bc
00000070: 19df 00bc 1567 c4ba 58a4 0ebc 0938 d0bb
00000080: 7742 60bc 5b5f ddbb 15b0 c4ba fb1c d5bb
00000090: 46e1 5eba e12d 9dba 8d73 90bc 7aa4 63bc
000000a0: b7cf 883d 1837 6fbc 880b cc3b 9f86 c4ba
000000b0: 921f a8ba 4475 0b3d 01e3 84bc 380b 25bc
000000c0: 1ed6 18bc 757e 1e3b 8901 2abc ebc0 b3ba
000000d0: 1d50 76bb 51ec 833b 13c1 53bc 0000 0000
000000e0: 0000 0000 fc61 09bb 0a50 8cbc 1836 a7ba
000000f0: fe56 87bc d62d c3ba 2838 c4ba 21b0 783b
00000100: 64b4 7ebb 69b4 c4ba bbf0 e5ba 9d3b 7ebc
00000110: 4afd 0abc fd31 8cbb df95 00bc afe2 febb
00000120: fd62 83ba 76ae a9bb e95e 823a 5275 76bb
00000130: 0c4a c4ba 3787 82bc dc5d 77bc 1d9e c4ba
00000140: 8e75 d73c daff 86bc 44ae 65bc 14b0 0bba
00000150: a1c9 ab3b 1274 98ba 7c9c 5bba b38b d33d
00000160: 2981 26bc 920e 92bc 8456 c4ba e106 6bbb
00000170: 72ef a1b9 64d5 e9bb 58cf fbba 968e 14bc
00000180: 0625 8dbc 648c c4ba b693 7fbc e5fd 80bc
00000190: d70b 1e3b 0895 25bc f66c 42bb ab4e a7bb
000001a0: e90f d1bb 2424 be3b 3541 333c d129 30bc
000001b0: b980 a7ba cf94 c4ba 635c dabb 940b 2ebc
000001c0: da86 2fbc 8659 e7b8 3d57 34ba 58f6 d8ba
000001d0: abae 05bc 61df 76bc 6681 a0ba c198 c2ba
000001e0: e8a4 54bc ec52 2b3d ced0 a8ba 8c96 4b3b
000001f0: e2ef 6abb 4368 6bbb 709c c83b e6bc 48bb
-0.0011417501 0.06992765 -0.0014982655 0.00018066491 2.1657543e-05 -0.0001491374 -0.005570961 -0.010237683
0.0015423992 -0.0014995139 -0.0015009871 -0.014329842 -0.016941998 0.01404973 0.0002597546 0.0003440429
0.0069249487 -0.017277228 -0.0014963433 -0.0014578769 -0.011548331 -0.0081964275 0.0076030684 -0.00038112613
-0.015248217 -0.0015008727 -0.011885796 -0.01380018 -0.007865691 -0.0014984334 -0.008706175 -0.006354336
-0.013687721 -0.006755752 -0.001500609 -0.006503699 -0.0008502196 -0.0011991822 -0.017633224 -0.013894195
0.066802435 -0.014600538 0.0062269606 -0.0014993733 -0.0012826791 0.03404738 -0.016221525 -0.010073476
-0.009328393 0.002418426 -0.010376343 -0.001371411 -0.0037584372 0.004025974 -0.01292445 0.0
0.0 -0.0020962944 -0.01712801 -0.001275721 -0.016520973 -0.001489098 -0.0014970349 0.0037946778
-0.0038864845 -0.001500738 -0.0017543057 -0.015517143 -0.00848324 -0.00427842 -0.007848232 -0.0077784876
-0.0010024008 -0.005178268 0.0009946498 -0.003760655 -0.0014975681 -0.015933616 -0.015098061 -0.0015000735
0.026301172 -0.016479421 -0.014018599 -0.0005328667 0.005242542 -0.0011631271 -0.0008377505 0.1032938
-0.01016263 -0.017829213 -0.0014979397 -0.0035862254 -0.00030886714 -0.007136034 -0.0019211574 -0.009067198
-0.017229568 -0.0014995453 -0.015599182 -0.015746066 0.0024115944 -0.010106333 -0.0029666997 -0.0051058135
-0.0063800705 0.005802648 0.01094084 -0.010752157 -0.0012779451 -0.0014997962 -0.0066638454 -0.010622878
-0.010713303 -0.000110316134 -0.00068794546 -0.0016552908 -0.00815932 -0.015067906 -0.0012245595 -0.001484655
-0.01297877 0.041827127 -0.0012879611 0.0031065075 -0.0035848548 -0.00359203 0.0061221644 -0.003063017

policy_model.2.weight f4 [8, 128]
00000000: daf4 ecba bb7a 2bbd 1218 e23a baf7 513a
00000010: b3fd 00bb f7a8 4e3a b385 7cbc 5a8c d0bb
00000020: 7808 b63b d176 2ab9 e80b eeba cee0 b8bb
00000030: c7d1 afbb 6805 713b 489c 203b bd5b 9f3a
00000040: e50b 723b 4e92 e2bb d230 833a 73d5 29bb
00000050: 7733 b9bb b5bb efbb ea06 7f3c 1b31 393a
00000060: b614 f8bb 3444 d73a d2e5 2abb d05e dbbb
00000070: 758e 81bc 0a85 5aba 5b2a 05bc 3aeb ee39
00000080: a680 11bc 1dbc 1ebc 0e06 e63a de67 f7bb
00000090: 05f3 97ba 6e14 8f3a 2f64 e5bb 7005 09bc
000000a0: 1df3 76bd ed7a dbbb 7157 633b 04f9 c9ba
000000b0: 8bd7 a73a f26c 99bd 79f6 f9bb d9b3 3bbb
000000c0: 183d f1bb 086f 993b a89b f3bb f235 b5bb
000000d0: 3c32 913b 57cd 943b 0ec2 acbb 4779 6cb9
000000e0: b87e e23a 8e05 a63a a7f5 dabb 02a1 cdb7
000000f0: 75b3 d5bb ff1e f3b9 af07 2cba 6f25 883b
00000100: 1215 ffbb a1c0 863a 3bc9 7f3a 713a bdbb
00000110: 5ab8 d4bb e3c4 99bb 8d9e f2bb 0bbb 07bc
00000120: 689d 83b8 737f 493b 9966 f33a c5d4 47ba
00000130: 64fa 163b 6f1d 07bc 7ae5 a4bb 7bda 5e38
00000140: 8e40 d13c 3319 b7bb e169 e0ba 31b6 a03a
00000150: 6c64 8a3b 9965 923a 030f e4b8 e45e a9bd
00000160: 0af3 b7bb 2783 d2bb 89de cd3a 40b5 f5bb
00000170: 53c4 1f3b df86 d7bb 0b95 9b3a a11f 75bc
00000180: 413a c5bb 51cb 613b 303b 95bb a18f e8bb
00000190: d8c6 743b 137c dbbb c539 373b fa35 9039
000001a0: 04f5 8238 2fad 6a3b ab7d ecbc df73 ecbb
000001b0: 6df7 c1b8 4eff 133b c1e1 d3bb e058 85bb
000001c0: 6f3b 26bb be2c cdb8 3882 7e3b 50bf 463a
000001d0: 2013 cbba 0714 ccbb c119 7c3a c232 a6b9
000001e0: b3b1 eebb ba76 97bd 0042 c6b9 a87d 37bb
000001f0: 4ac7 fdb8 88ce 0bbb 1a41 963b 9fc1 5e3a
00000200: 8aeb 8a3a fcbb 113d 1045 2bba b222 39ba
00000210: fa44 d839 1d47 71ba e961 e13c 38dd 30bc
00000220: 618d 08bc 649f 38b9 46b7 553b 71ed 15bc
00000230: 1b21 0ebc 2813 e2bb 0ada 28bb a26b aabb
00000240: ef76 1fbb 60d0 09bc d7f9 f23a d004 64ba
00000250: f036 44bc 7199 28bc c114 11bc 67a5 02ba
00000260: 0cfe 0cbc 1a7c 543a 6b00 60bb 9a15 febb
00000270: 9903 443b 18b8 c6ba 2a0b 29bc 1a58 363b
00000280: dc60 fabb 5b9f 8dbb d1cb 0f3a 9324 14bc
00000290: 1480 863a 0d9e afba 7e64 09bc 2c72 3dbc
000002a0: 4754 743d cf91 27bc f8b1 b5bb f5fc 2b3b
000002b0: 421a 2e39 d199 83bc 465e 0cbc 4394 10bb
000002c0: e67d 11bc 0840 ebbb fe10 53bc df88 8fba
000002d0: 4963 8abb 062e e7bb 30b0 23bc bc9b c63a
000002e0: a12c fc3a 9664 c63a fbf2 ecbb c918 27ba
000002f0: 5e4a 13bc 6348 7c39 2af0 b1ba d359 0abc
00000300: b917 cbbb cf88 3cba 9262 e6b9 cdfc 07bc
00000310: 1c4e 0abc 093f a2bb 0055 e9bb 0649 17bc
00000320: 635d f4ba 0cbd d83a 07d8 89bb 48ab 7fba
00000330: 64e8 6b3b f179 0dbc 3ee4 28bc a834 b4ba
00000340: 5731 e9ba 611e 0abc 686e 3bbb 34a4 a0ba
00000350: eaa5 e3bb 5f15 8eba 77ca bb3a a37f d03c
00000360: f799 22bc 9f77 21bc 9d1d d23a 3986 2ebb
00000370: b40e f1b8 9b64 30bc 5ca3 b4b9 f2b9 0b3b
00000380: 2b13 01bc fd37 e139 3bcf 05bc 6a3e 11bc
00000390: d2bf d9bb 27c6 2bbc f8a8 813b 007c aab8
000003a0: 26c3 e43b cfee cebb 2bd0 27bc 904f ffbb
000003b0: db59 3cba e767 5bba 7013 fdbb 6dc5 81bb
000003c0: 1b6c 15bb a982 2739 960f 083b b557 78bb
000003d0: 10a1 d9b8 99e8 12bc 4ec3 79ba 9b93 eeb8
000003e0: bd17 07bc 1d1c 1cbc 02ab 2039 c13c 183b
000003f0: 0b33 a4ba 733b 44bb f97c 02bc b85f e5ba
-0.0018078343 -0.04186509 0.0017249605 0.00080096314 -0.0019682467 0.0007883454 -0.015412736 -0.0063643875
0.005555209 -0.00016256726 -0.0018161507 -0.005642033 -0.0053655836 0.0036776904 0.0024507213 0.0012158077
0.003693336 -0.0069144135 0.0010009056 -0.002591458 -0.005651887 -0.0073160776 0.015565613 0.0007064507
-0.0075708283 0.0016423524 -0.0026076925 -0.006694652 -0.015815 -0.00083358644 -0.008127774 0.00045570155
-0.00888077 -0.009688404 0.0017549412 -0.0075502237 -0.0011592811 0.0010916123 -0.007000468 -0.008363113
-0.060290445 -0.0066980035 0.003468957 -0.0015409295 0.0012805326 -0.07491483 -0.007628259 -0.0028641133
-0.0073620193 0.0046824254 -0.007434327 -0.0055301124 0.004431037 0.00454108 -0.0052721566 -0.00022551893
0.0017280197 0.001266645 -0.006682116 -2.451288e-05 -0.006521637 -0.00046371666 -0.0006562424 0.004154853
-0.007784494 0.0010280797 0.00097574637 -0.005774789 -0.006491703 -0.00469266 -0.0074041546 -0.008284341
-6.275886e-05 0.0030746132 0.0018570005 -0.00076229527 0.0023037428 -0.008246764 -0.0050322386 5.31324e-05
0.025543477 -0.005587721 -0.0017121398 0.0012261329 0.004223397 0.0011169194 -0.00010874683 -0.08270052
-0.0056136893 -0.006424326 0.001570658 -0.0074984133 0.0024378493 -0.006577357 0.001186998 -0.014961154
-0.0060189073 0.0034453461 -0.004554175 -0.0070972 0.0037349965 -0.0066981404 0.0027958017 0.00027506036
6.244521e-05 0.0035808792 -0.028868517 -0.0072159613 -9.249044e-05 0.0022582593 -0.006466121 -0.0040694326
-0.0025365015 -9.7834956e-05 0.003883494 0.00075816084 -0.0015493371 -0.0062279734 0.0009616875 -0.00031699805
-0.007284367 -0.07395692 -0.00037814677 -0.002799848 -0.000121011006 -0.002133282 0.0045853974 0.000849748
0.001059876 0.035579666 -0.00065334234 -0.000706236 0.00041250122 -0.0009204017 0.027512508 -0.01079493
-0.008334489 -0.00017606985 0.003261046 -0.009150849 -0.008674885 -0.0068992563 -0.0025764727 -0.005200819
-0.0024332365 -0.008411497 0.0018537593 -0.0008698227 -0.011975989 -0.0102904895 -0.008855046 -0.00049837533
-0.008605491 0.0008105651 -0.0034179937 -0.00775404 0.002990937 -0.0015161065 -0.010317603 0.0027823509
-0.007640941 -0.004321975 0.0005485388 -0.009041923 0.0010261559 -0.0013398543 -0.008385776 -0.011562865
0.059650686 -0.010227635 -0.005544897 0.0026243303 0.00016603715 -0.016064556 -0.008567398 -0.0022061027
-0.008880114 -0.007179264 -0.012882469 -0.0010950825 -0.0042232615 -0.007055047 -0.009990737 0.0015152614
0.0019239375 0.0015136178 -0.007231114 -0.0006374238 -0.0089898985 0.00024059559 -0.0013575603 -0.008444267
-0.0061978963 -0.0007192017 -0.0004394246 -0.0083000185 -0.008441474 -0.004951362 -0.0071207285 -0.009233719
-0.0018643554 0.0016535833 -0.0042066607 -0.0009753001 0.003599667 -0.00863503 -0.010308323 -0.0013748603
-0.0017791194 -0.008430094 -0.0028599743 -0.0012255968 -0.0069472687 -0.0010840109 0.0014327307 0.025451487
-0.009924403 -0.00985518 0.0016030554 -0.0026630296 -0.00011494514 -0.010766174 -0.00034453988 0.002132055
-0.007878105 0.0004295706 -0.008167083 -0.008864978 -0.006645181 -0.010484255 0.00395691 -8.1293285e-05
0.0069812713 -0.0063150893 -0.010242502 -0.007791467 -0.00071850204 -0.00083696697 -0.0077232644 -0.0039603026
-0.0022800032 0.00015975036 0.0020761243 -0.0037894074 -0.000103773666 -0.008966588 -0.0009527699 -0.00011376218
-0.008245406 -0.009528187 0.00015322494 0.0023229572 -0.0012527419 -0.002994266 -0.007964366 -0.001749984

policy_model.2.bias f4 [8]
00000000: 2aac b3bc 3eed 123c 9fea 193d 5e20 333c
00000010: 0c6b 49bc 19be 2fbb 971a d73c 14cf 60bd
-0.02193268 0.008967696 0.037577268 0.01093301 -0.012293588 -0.0026816188 0.026257796 -0.054884985
