results/short_race/second_iteration_training/model800.pt (torch, 276107 bytes, 13 tensors)

features_model.0.weight f4 [128, 4]
00000000: 4d9a 1c3c 7993 143e 4477 9d3d 25c3 9ebe
00000010: a2d5 013d 8346 92bd ef99 71b7 0a50 ff3c
00000020: 3add 253e 40ea a53c 2db7 09bd 9918 953e
00000030: 1c62 3a3e 2c87 c6bd 72e8 67bd 8375 d0bd
00000040: 3fb3 4b3d 0c40 9b3a 4459 493d e4a8 09bd
00000050: 33f2 4c3d 3116 693d c486 753e f1ab 4abe
00000060: a422 acb8 b1d6 03bd 9213 da3d 321f a53e
00000070: 6992 993c ee17 88bc d965 953d ba74 a13e
00000080: 150c 3ebe bfd1 923d 709c fd3d 2e9e 9c3b
00000090: c23b f73b 59c8 233e db27 653d ca83 b7be
000000a0: 452d 683d 64ad 4f3e fa27 3e3e e0c5 103e
000000b0: 378b 1a3e c34f ebbd 21a7 303e bc6a 693d
000000c0: df02 123e dc9f 983e 46fc 0e3d 6f37 cdbd
000000d0: 1796 25be 73de 12bd 0c4c 18be 52c9 923c
000000e0: e0fd e2bd 54d4 803e d22a 0cbd 2b4c 0d3e
000000f0: 92e7 53be a781 cabc 2523 98be f9c1 793d
00000100: 2291 f93d 1799 9fbc 457d d33c f4c4 00be
00000110: 389e 62bd d516 78be bf4d fdbd 1f02 5cbd
00000120: 5440 07be 50f5 683d a142 a7bd 7a4f e5bd
00000130: f20f 97bd b755 0cbe 8f32 84be 485b 4cbe
00000140: 94bf b13d 968e a3bd b7ea fbbd 52cc 463d
00000150: 60ca 72be 8115 2ebe eb70 403e a96d 84bd
00000160: e434 5b3d 1001 353e 1a56 a3bd 6c26 0cbd
00000170: 838b 67be da97 b8bd 9237 dcbd 84b5 913d
00000180: 7d9d 2d3d 9da0 0a3e c7f1 103e bcb8 a2be
00000190: 4daa c0be 9aee 57be 8127 9b3d 1123 b4bd
000001a0: d628 783e 3f70 b03e 0e3c cbbc c958 373e
000001b0: fb30 b0bd 1f36 a4bd 4c62 d7bd 6aa0 c5bc
000001c0: 9843 703c 4a38 bdbc cead 92bd 2232 d03e
000001d0: 6e2a d03d 272c b13d 65f8 e9bd 9ae7 88bd
000001e0: 76f5 323e 64ec f23d 0953 323e dac7 de3d
000001f0: a30e e93d 758e 743d bc4f ea3d c2d2 5e3e
00000200: 99d7 493e 2f02 92be 63ba 743d e70a dd3d
00000210: b550 3d3e 5b47 80bc 5f6d 073e e24d 88bc
00000220: 7371 ab3c 34ec f73c 4a23 743e 4cbb 963e
00000230: 721f b23d 97f5 0ebe 576c 4f3b f30c 3ebe
00000240: 3691 9fbd 2991 e8bd 54bf cd3d a1a8 87bc
00000250: 7522 91bd d19c c3bd a38e 0abb 1dff b33d
00000260: 5342 2dbe 9f62 eb3c c5df 973d 4e9c 633e
00000270: ac1f 343d 4153 0a3c 677d 0b3e acee c63e
00000280: 2585 8bbb aee8 a1bc b1a9 92bd a147 b03e
00000290: ad0c 32bd 89e0 8fbd 4fa6 ce3c 99ae 72be
000002a0: b29a 9c3d 4e04 6abd 2c75 dcbc 2ca4 f7bd
000002b0: 467c fabd a180 d33d 51da 083e c377 683c
000002c0: ab77 d63c f3d9 593e 4e8d 423d 4849 42bd
000002d0: 67fd 1fbd 6d46 a5bd 858a 91bd 26da 133e
000002e0: 8831 cc3d bee9 073c 1885 c93e 8329 cebd
000002f0: 4749 de3b 1ebf 6e3c 5362 fd3d 72d6 d33c
00000300: c80c 55be 9b24 98b9 e766 16be a2a6 3a3c
00000310: 4a39 6f3e e0fe 03be 4d5b 5e3d 3ef1 053e
00000320: c2b3 51be 018b a7bd 4706 d23c 7f2e b43d
00000330: f310 99be c56b 003e 529f 3f3e da8c b73c
00000340: 593d 4f3e 1d72 a83e 1ad2 7bbd fe67 48bd
00000350: d54c 613e 64a5 83bd fff9 0bbd 1939 08bd
00000360: 25dd 6a3d 7a0a 293b 1111 e13d 231f 413d
00000370: e185 033e 6eac 2cbc 414f 4e3e 0c06 d63e
00000380: 9a83 123e f148 273d d4b3 f93b 46ba c6bd
00000390: bab3 f6bc adb4 f53d a928 093e b845 013c
000003a0: ab51 94bd 623f a43c 8e79 6fbd 115a f73c
000003b0: 1a29 093e 1a28 7e3d a203 163e 099e 923e
000003c0: cfc3 27bd 9b9c 053d 7226 9d3c 76d7 763e
000003d0: 1b1e 2f3c 3207 a5bc bfe3 0ebe 38dc 973e
000003e0: d892 7f3b 59b1 c03d 1a7d 813d 65ec abbe
000003f0: cf28 50be 69a3 2a3e 7aa4 febc 5669 08be
0.009558273 0.14509381 0.07688764 -0.31008258 0.031697877 -0.07142355 -1.440056e-05 0.031166095
0.16197672 0.0202533 -0.033621956 0.2912033 0.18201488 -0.09693751 -0.05661816 -0.101786636
0.04973149 0.0011844649 0.049157396 -0.033608332 0.050035667 0.05690593 0.2397719 -0.19792153
-8.2080514e-05 -0.032187168 0.10648264 0.32250363 0.018746572 -0.016612973 0.072948165 0.31534368
-0.18559296 0.07168912 0.12383354 0.0047795987 0.0075449655 0.15994395 0.055946212 -0.35842735
0.056683797 0.20280987 0.18569937 0.14137983 0.15092169 -0.11489823 0.17251255 0.056986555
0.14258908 0.29809463 0.034908555 -0.10020339 -0.16170536 -0.035856675 -0.1487276 0.017918263
-0.11083579 0.25161994 -0.034220524 0.13798587 -0.20693806 -0.024720026 -0.29714313 0.060976002
0.12185885 -0.019482179 0.02581657 -0.12575132 -0.05532667 -0.2422746 -0.123683445 -0.05371296
-0.13208133 0.056874573 -0.08167005 -0.111967996 -0.07376088 -0.13704573 -0.25819823 -0.19956696
0.08679119 -0.079861805 -0.12300628 0.0485347 -0.23710012 -0.1700039 0.18793075 -0.064662285
0.053517237 0.17676187 -0.07975407 -0.03421633 -0.22611813 -0.090133384 -0.10752787 0.071146995
0.04238652 0.13537832 0.1415473 -0.31781566 -0.3762993 -0.21087113 0.07575894 -0.08795751
0.24234328 0.34460637 -0.02480891 0.17904963 -0.08603092 -0.08018135 -0.105167955 -0.024124343
0.014664553 -0.02309813 -0.07162057 0.40663248 0.10164343 0.086509995 -0.114243306 -0.066847995
0.17476448 0.11861494 0.17414488 0.108779624 0.11379745 0.05970617 0.114409894 0.21760085
0.1971115 -0.2851729 0.059748065 0.10793095 0.18487819 -0.015659025 0.13225316 -0.0166387
0.02092812 0.030263998 0.23841587 0.2943977 0.08697404 -0.13960873 0.003165027 -0.18559627
-0.07791369 -0.11355812 0.100462586 -0.0165599 -0.0708665 -0.09551395 -0.0021142147 0.08788893
-0.16919832 0.02873355 0.074157275 0.22227594 0.043975517 0.008442701 0.13622056 0.38853967
-0.0042578154 -0.01976427 -0.07161272 0.3442965 -0.04346912 -0.070252486 0.025225786 -0.23699416
0.07646693 -0.05713301 -0.02691134 -0.1209186 -0.122307345 0.103272684 0.13364531 0.01418871
0.026180109 0.21274547 0.04749804 -0.047433168 -0.039060023 -0.08070073 -0.07106499 0.14438686
0.09970385 0.008295475 0.39359355 -0.100665115 0.0067836377 0.014571933 0.123722695 0.025859091
-0.20805657 -0.00029018972 -0.14687692 0.011392267 0.23361698 -0.12890196 0.05428629 0.13080308
-0.20478728 -0.0818081 0.025637759 0.08797931 -0.29895744 0.12541111 0.1871312 0.02240603
0.20238246 0.32899562 -0.061479665 -0.0489273 0.22001965 -0.0642803 -0.03417396 -0.033257578
0.057339806 0.0025793598 0.10989583 0.047148835 0.1284404 -0.010539157 0.2014742 0.41801488
0.14308015 0.040841047 0.007620314 -0.097034976 -0.030114997 0.11997352 0.13394417 0.007890157
-0.072421394 0.020049755 -0.058465533 0.030194314 0.13394585 0.062049963 0.14649823 0.28636196
-0.040958222 0.032620054 0.019183371 0.2410563 0.01068833 -0.020145033 -0.13954066 0.296602
0.0038997438 0.094088264 0.06322689 -0.33578792 -0.20328067 0.16663899 -0.031084288 -0.13321432

features_model.0.bias f4 [128]
00000000: 5cfd e43d 481e f73b bf7d ce3d 059a 11bd
00000010: b410 323e 561d b93d f9a4 023e a3e1 113e
00000020: 3009 343d 0d08 f73d 9d8f 273e cd8d bebb
00000030: 3f22 bb3d f4b2 35bd c204 233d e3f4 be3d
00000040: ce3c be3d 8c48 c3bc 2f0f 78bd fee0 a4bb
00000050: 93fb 033d d18c e5bd c755 df3d 5323 77bc
00000060: 93d6 213e 61aa 26bd e8b6 3c3d 2604 453c
00000070: d3f1 283e 07e1 053e 4302 f73d 9019 173e
00000080: 59fd 993b 9afc b33d 6e5e 203e 9b0e 2e3d
00000090: ed60 6e3d 555a edbc 0e14 043e b606 133e
000000a0: 463c 3c3e 48b4 083d 4867 ca3d 5862 2a3d
000000b0: b560 b73d 59b0 bebc 7a7f 8e3d 221e cc3d
000000c0: 502b f0bc 9462 7f3d 7af0 68bd e8e6 7f3d
000000d0: d5c4 bd3d 07a9 a93d 536e 263e 7f41 a03d
000000e0: faab d53d 20bd 683d 6d8c 6fbc 6cc2 1c3e
000000f0: 78a1 063e d1f1 33bd 7dea 0a3e a01e af3d
00000100: 7a77 9c3d e648 2a3e a1a1 cc3d 8b92 083e
00000110: d484 dc3d 4120 4c3d b4a0 91bd 635c 9fbd
00000120: eb23 81bc 697e 883b f0e9 013e 9f23 55bd
00000130: 6b9d 58bc 4b93 aa3d 9953 fe3d 6c31 3d3d
00000140: 05da ac3d bc0f a3bc 8d39 f33d da7a 7f3d
00000150: acd2 b9bc 87be d13c 8b2f 4e3e 58b8 cc3d
00000160: e647 d23d 6fb0 94bc b51b 75bc b89e 5b3d
00000170: 318a 4cbc 043b 253c 96e2 223d d791 fb3d
00000180: 2fd1 3abd 3bc5 9abc 7278 543d 9601 b93d
00000190: ca33 e1bc 38c6 293e 34e7 503e aee7 9f3d
000001a0: 7a03 cb3d 87e1 2e3e 5b1f 213e 3433 e03d
000001b0: cb24 69bc 12bb dabc 533c d13d d2ae 0c3e
000001c0: 6662 33bd 6298 b33d 8307 dc3d 40e1 193e
000001d0: a285 353e 13ef 6cbb e10f b13d 2d63 f1bc
000001e0: 9a04 72bd 6f60 4f3e e39e c03d b04e 673d
000001f0: a368 063e 61d9 f03d 0705 093e faba 633a
0.11181137 0.0075414516 0.10082578 -0.035547275 0.17389184 0.090387985 0.12758245 0.1424623
0.043954074 0.120620824 0.16363378 -0.005815244 0.09137391 -0.044360116 0.03979946 0.09324052
0.09288941 -0.023838304 -0.060561355 -0.005031704 0.03222234 -0.11208499 0.109050326 -0.015084106
0.1580451 -0.04068983 0.04607287 0.012024915 0.16498499 0.13074122 0.12060978 0.14755845
0.004699391 0.08788414 0.15661022 0.042494398 0.058197904 -0.028973738 0.12898275 0.14358029
0.18382367 0.033375055 0.098829806 0.041597694 0.08953992 -0.023277448 0.06957908 0.09966685
-0.029317528 0.06234987 -0.05686996 0.06247607 0.09266058 0.082841925 0.16253023 0.078249924
0.104331926 0.05682099 -0.014620882 0.15308541 0.13147533 -0.043931786 0.13566013 0.08550763
0.07639976 0.16629371 0.09991766 0.13337152 0.107675225 0.049835447 -0.0711073 -0.07781293
-0.015764197 0.00416546 0.12686896 -0.052035924 -0.013221125 0.08328875 0.12418289 0.04618971
0.084400214 -0.019904964 0.11876211 0.06237302 -0.022683464 0.025603546 0.20135324 0.09996098
0.1026762 -0.018150536 -0.014960219 0.053618163 -0.012484119 0.010084871 0.03976687 0.12283676
-0.04560965 -0.018892875 0.051872678 0.090335056 -0.027490515 0.1657952 0.20400697 0.07807861
0.099127725 0.1707822 0.15734617 0.10947266 -0.0142299635 -0.02670053 0.10216584 0.13738564
-0.043795012 0.08769299 0.1074362 0.15027332 0.17726758 -0.0036153242 0.08645607 -0.029466236
-0.05908642 0.2025163 0.09405305 0.056471527 0.13125853 0.11760212 0.13380824 0.00086872245

features_model.2.weight f4 [128, 128]
00000000: bbdd 9c3e 0274 82bd b8a3 8ebc e4cf c23d
00000010: 0686 513e 1cda d53d 48eb c63d b25a 453d
00000020: 7f14 aa3d d60b 103e 862b e73d 8ac8 16bc
00000030: 92a9 963c e872 003d 9486 b2bc 6692 043e
00000040: 2747 0ebe 2fa5 953d 3717 60bd 1dbc fbbd
00000050: 9806 ca3d fa27 173d 58e8 ba3d d0f9 52bd
00000060: 635d 293e bb78 0bbe 4fe2 8dbc 3bb9 863e
00000070: be13 3b3e 5636 52bd 432f 3c3d ce9d 013e
00000080: 6d7b 433e 8f4e 53bc 2b01 fe3d d24f 36bc
00000090: 97b6 d4bd 4107 5ebe b502 973a d97c 133e
000000a0: 2975 b13e 819b 10bd ce18 363e 2a10 3c3e
000000b0: 4ee4 513e 5260 253e 5151 27bd 4f9a 303d
000000c0: 82e5 2b3e ff53 983e a78c 263e 7be7 963e
000000d0: 63a7 98bd 69c5 28bd 4c31 94bc d373 29be
000000e0: f1be 36bd dc4c 63bc 0eb2 70bd bbf9 223e
000000f0: 63c5 8e3e c914 ab3e b409 423e fb67 d6bd
00000100: 29f6 a33e 86af 513e 4fad 973d 3f0a b43d
00000110: 2bb6 943b a0b2 343e c6f8 d33d c153 6dbe
00000120: e562 5ebe 52b6 2abd 8777 033b 5097 4abd
00000130: 1235 febc 9118 503d 56c3 4d3d 8e5d a0be
00000140: 9b0b d73d 2239 683d 3a28 7ebd 4a77 dc3d
00000150: 5622 763e ff60 473e edac 1bbd b133 89bd
00000160: 284e 553d 74b0 6b3d ec04 72be 6479 bfbd
00000170: d7b5 313e d472 55bd 581d 22bd 4fb9 9bbd
00000180: 3f4e c5bc 75e2 da3d 8003 5e3e 3883 83bd
00000190: 5f6b cb3d f44c 203e 054c 223e 0747 c53e
000001a0: f9ea 933e 3151 e13d fd53 37bc 33e2 1ebc
000001b0: 1029 f9bd 5e99 263e 1b63 8e3d 60ca 983e
000001c0: b540 ccbd 02cd 30be 65a9 3dbd edfa 1d3e
000001d0: daff 373e 5fae 09be 9b45 853d 969d 20be
000001e0: 7255 93bd afbf 523e 28e3 9fbd b426 673d
000001f0: e9e2 a73d a463 5a3e a926 583e 3f5d aebd
00000200: bc75 26bd c1c8 aa3d 8d87 a33d 607e d43b
00000210: 627d 66bd 3235 963d 8317 2f3e aa2c b5bd
00000220: da64 013e ba61 7abe c2ce 1dbe 7c51 dc3d
00000230: f0e9 1fbc 080f 0e3d 3b69 463e 6cf7 93bc
00000240: ad10 f9bc a95f 383d e512 633d 7762 abbd
00000250: e785 b2bc a1b5 16be 6fb1 13be 28df d73d
00000260: 34d1 9bbd 3916 b4bd 5052 32be 99f7 8cbc
00000270: 06db b03e f5ee 37be 2ea7 b6be 70a1 b1bd
00000280: ce6a 7e3d 1bfa 363c f35c a7bd dbde 63bd
00000290: a8ae a23d b9fc 813c a4be 713e 6890 083d
000002a0: aa54 453e 97dc 42be f4f8 823c 0f95 123e
000002b0: ceea 913d 18d7 0bbd 46fd 1c3d c8b1 8e3e
000002c0: 5142 0ebe 52a4 183d d270 4f3d 4b79 e5bc
000002d0: 500a 723c 7da7 b03d 6013 d93c 70a6 c73d
000002e0: 0f8f 5e3c e6cb 023e 826f bbbd c8dd 543d
000002f0: faab 9d3e 5421 82bc 4533 6fbe 855d bd3e
00000300: 068d f73d 41d1 d93d 5305 943d 1ef3 cfbc
00000310: 2a75 d73b 36e6 973e 47b2 84be f7cb e7bc
00000320: 7673 ae3d 446b 053e bb67 1bbe b6f4 0f3e
00000330: 46db f93a fe6c b7bc 6578 2fbd 3116 ec3d
00000340: 0391 203d 6a8e 103e fe58 333d 7ec0 933e
00000350: c8d3 9a3d 820d 0e3c 77e5 13be 2333 423d
00000360: 32bf 6e3e fb54 673b 9fd6 d0bc 0187 083c
00000370: dc73 303d 63a1 0a3d 7587 153e 2ab5 0dbe
00000380: 7103 9f3c da49 b7bd 9f24 383e a20a babd
00000390: be59 553d 8ac7 01bd 988d aebe 9785 873d
000003a0: 1ab9 1bbd 0f84 a53c 998a 02be dbec 853e
000003b0: fa77 d2bd 62f7 86bc 4d05 b83c a781 523e
000003c0: 9087 5bbd 582e 54be 16bf 823d d3cc b9bc
000003d0: 85aa 663e 126e e93d 53a9 4d3e 0c65 b6bd
000003e0: f4d7 21bc 9109 433e 2eb2 4f3e 0bd6 133c
000003f0: efb4 c9bd 3b12 24be b44a 86bc c704 b33d
0.30637917 -0.06369783 -0.017412052 0.09512308 0.20461282 0.10441992 0.09712845 0.048182197
0.083046906 0.14067015 0.11287598 -0.009203086 0.018391404 0.031359583 -0.021792687 0.12946472
-0.1389433 0.07306897 -0.05470964 -0.12291739 0.09864539 0.03690336 0.09126347 -0.05150777
0.1653953 -0.13620274 -0.017319826 0.26313195 0.1826925 -0.05132135 0.04594351 0.12657854
0.19090052 -0.012897148 0.124025665 -0.011127429 -0.10386389 -0.21682455 0.0011521193 0.14403094
0.346597 -0.03530455 0.177829 0.18365541 0.20497248 0.16150025 -0.040849034 0.04311591
0.16786769 0.29751584 0.16264592 0.2947348 -0.074538015 -0.04120389 -0.018089913 -0.1654809
-0.04461569 -0.013873305 -0.058763556 0.15915577 0.2788497 0.33414295 0.18949014 -0.104690515
0.32023743 0.20477113 0.07406103 0.08791017 0.0045383177 0.17646265 0.10350184 -0.23176481
-0.21717413 -0.04167778 0.0020060258 -0.04946071 -0.031031165 0.05080468 0.050235115 -0.31321377
0.105002604 0.05669511 -0.06205008 0.1076494 0.24036536 0.19470595 -0.03800671 -0.066993125
0.05207649 0.057541326 -0.2363469 -0.09349325 0.17354523 -0.05211146 -0.039578766 -0.07603704
-0.024085162 0.106877245 0.21681023 -0.06421512 0.09932589 0.15654355 0.15849312 0.38530752
0.28890207 0.11001814 -0.011189458 -0.009697485 -0.12166035 0.16269442 0.069524966 0.298419
-0.099732794 -0.17265704 -0.046304125 0.15427752 0.17968693 -0.13445424 0.06507417 -0.15685114
-0.07194032 0.20580934 -0.078069985 0.056433395 0.081975766 0.21327072 0.21108498 -0.08513879
-0.040639624 0.08339072 0.07984839 0.0064847916 -0.056271918 0.07334365 0.17098813 -0.088464096
0.12636128 -0.24451342 -0.15410903 0.107577294 -0.009760365 0.034682304 0.1937608 -0.018062316
-0.03040346 0.045013104 0.05543794 -0.0836839 -0.021792365 -0.14717723 -0.14423154 0.105406106
-0.07608262 -0.08793301 -0.17414212 -0.017207908 0.34542102 -0.17962249 -0.35674423 -0.0867337
0.062113576 0.011168028 -0.081720255 -0.055632453 0.07943469 0.015867578 0.2360788 0.03334084
0.19270578 -0.19029461 0.01598785 0.14314674 0.071248636 -0.034140676 0.038327478 0.2787001
-0.13892485 0.037266083 0.050644703 -0.028011939 0.0147729665 0.08625696 0.026498497 0.09748542
0.0135839125 0.12773094 -0.09152128 0.05196932 0.3079527 -0.015885033 -0.23359402 0.36985412
0.12087445 0.10635615 0.07227578 -0.025384482 0.0065752463 0.29667825 -0.25917265 -0.0282955
0.08518116 0.130292 -0.15176289 0.14058194 0.0019062541 -0.022390839 -0.042839427 0.1152767
0.039200794 0.14116827 0.04378604 0.28857797 0.07559925 0.008670213 -0.14443003 0.04741205
0.23315123 0.0035298455 -0.025492964 0.008332969 0.043079242 0.033845317 0.14602454 -0.1383864
0.01941082 -0.08949633 0.1798272 -0.09084059 0.052087538 -0.031684436 -0.34092402 0.06617277
-0.038018323 0.020204572 -0.12748183 0.2615727 -0.1027679 -0.016475383 0.022463465 0.20557271
-0.05359608 -0.20720804 0.06384103 -0.022680676 0.22525986 0.11397947 0.20084123 -0.08905992
-0.009878147 0.19046618 0.20282814 0.0090232 -0.098489635 -0.1602258 -0.016393043 0.087411456

features_model.2.bias f4 [128]
00000000: 9d6e e43d c351 813d 4814 a73b a5c4 76bd
00000010: 0979 8c3d 9c45 093e 41f9 9cbc 0000 0000
00000020: f952 e13d f64c 0c3e 2afb 00bd 4315 f33d
00000030: ddc4 88bc 69f6 babc 214a d7bb be05 3b3e
00000040: 0654 a4bb 8c06 6d3d f9bf d9bc f61e 0c3e
00000050: a310 fbbb fa0e 0e3e 756e 97bc c246 40bd
00000060: bf95 233e f244 f53d f566 93bb 068e 39bc
00000070: 58ed dfbb ac83 45bb ccd8 ecbc 39df fa3d
00000080: 16dc bd3d 15fc 053e ed4c 293e ac73 d73d
00000090: 7364 02bd 499e 2f3d 815d ea3d 951e 40bc
000000a0: 6d4d 1c3e bd7e 2f3d 0ed7 12bd 6a2e ddbb
000000b0: 82fa ad3d 5eea ccbc c18d 753c 2950 4dbc
000000c0: d9e0 efbc de32 c03d b5a1 74bc a8ca 59bc
000000d0: 4aef 9dbc 282a c23d 296a 3abc c049 fd3d
000000e0: 14a5 cd3d 68ea b4bc ed80 a13d 6179 dabc
000000f0: bdce d2bc 8c5b 053d 5825 56bb 4716 d838
00000100: 0576 26bc e7ed 13bd 4789 b5bb 067d 1f3e
00000110: 541f 0d3e 7b2d de3d 1b59 9d3c 444a a0bb
00000120: 1fe7 edbc 913d d8bc add4 d53d b76b b83d
00000130: 23c2 f33d df13 743a 1ea5 053e 4c22 9dbc
00000140: 0000 0000 f3ab aa3b e4b8 d3bc e410 d43d
00000150: 3c9b 6cbc faa3 ac3d bac9 50bc 4bcb 3f3e
00000160: 84a3 cd3d 82ed 3abb 219e e8bc 05ec df3c
00000170: 5d0a 023e bf35 0dbd 09df aabc bdcb c63d
00000180: 33b8 2ebc a93a 9bbc d590 b43c 579d 2d3e
00000190: 3a41 3abd 666d 21bd 0000 0000 e80a 0fbd
000001a0: f64d d73d a75a febb b07a 0d3e e056 61bd
000001b0: 7975 11ba 3d84 f5bc 3e0e e93d f567 40bd
000001c0: 05b8 dbbc cff5 7fbc c18f 8e3d c58d 473e
000001d0: ae2c e83d 96cb 063e f083 58bc d23f 43bd
000001e0: 7aba f33b e5dd 97bc 6386 74bc ad86 6c3d
000001f0: 274b 4dbc ec12 4d3d 0000 0000 8137 42bc
0.1115391 0.06314423 0.0050988533 -0.06024613 0.06859023 0.1340546 -0.019161822 0.0
0.11002154 0.13701233 -0.03148953 0.1186929 -0.016695434 -0.022822576 -0.006570116 0.18263909
-0.005014899 0.05786757 -0.026580798 0.13683686 -0.0076618954 0.138729 -0.018485287 -0.04694248
0.15975092 0.11976041 -0.0044983574 -0.011325365 -0.0068337135 -0.0030138297 -0.02891197 0.122496076
0.09270494 0.13084443 0.16533251 0.105201095 -0.031834077 0.042875562 0.11443616 -0.011726041
0.1526391 0.042845476 -0.035849623 -0.0067499178 0.08495046 -0.025014099 0.01498741 -0.012531319
-0.02928202 0.09384702 -0.014931132 -0.013292946 -0.019279141 0.09480697 -0.01137785 0.12367582
0.10041252 -0.02208443 0.07885919 -0.026669206 -0.025733346 0.03255801 -0.0032676067 0.00010303832
-0.010159974 -0.036115553 -0.0055400464 0.15575036 0.13781482 0.108485185 0.019207528 -0.0048916657
-0.029040871 -0.026396545 0.10440955 0.0900492 0.11902263 0.00093108224 0.13051268 -0.019181393
0.0 0.005208486 -0.025844999 0.10354784 -0.014441308 0.084297135 -0.012743408 0.18729894
0.10040954 -0.0028522913 -0.028395714 0.027334223 0.12699266 -0.034475084 -0.020858305 0.09706829
-0.010664034 -0.01894887 0.022041718 0.16954552 -0.04547236 -0.03941097 0.0 -0.03492251
0.10512917 -0.0077622714 0.13816333 -0.05501449 -0.0005548816 -0.029970283 0.113796696 -0.04697414
-0.026821146 -0.01562257 0.06961013 0.19487675 0.11336647 0.131636 -0.01321505 -0.047668286
0.007438001 -0.018538425 -0.014924618 0.057745624 -0.012530125 0.050066873 0.0 -0.0118540535

features_model.4.weight f4 [128, 128]
00000000: defa 023e 3b03 44b9 a490 6f3d 7bad 72bd
00000010: a7a1 98bc cb99 62be c963 83be 63d7 923b
00000020: 41ff 9bbd 15f1 713c 5a68 76bd da07 2dbe
00000030: 9f26 54bd 05c9 4fbd 9233 2abc 140f 28bd
00000040: 7a0d 0f3e 8571 c53d 17f0 64be 5e44 7f3d
00000050: 21cd 653d a014 93be b4a5 19be bc9b b33d
00000060: 6c3a cfbd e8fb 963d 3158 bd3e 4efa 95bc
00000070: 5d75 e43d f46c e83d 7ce5 efbc ab06 21bd
00000080: df02 003d 00ff 5abe 8d43 383e ce76 493e
00000090: bbd6 3fbe cdba 7abd dab3 f7bc 652d 113d
000000a0: be23 10bd 6e23 ac3c ea6f ab3e a26a 09be
000000b0: 68d3 8e3d 6c8f 343e f31c 07bd a7cf 253e
000000c0: dd89 60be 6b8a ad3c d177 553d b03e 5a3d
000000d0: 3707 0dbd 5f6d 19be 6be5 94bd 0b45 dd3d
000000e0: dfea 7ebd 6681 a1be 6d91 323e 3471 4c3d
000000f0: f1c5 18be d9ef 5cbd f36f 1b3d 0fd9 13bd
00000100: 66fc 14be a64a b6bd 164f 1b3d f3aa 8bbd
00000110: 141b 983d 9984 393d c21d c53d 2d25 213e
00000120: 792c 08be 6e95 afbd 8ac3 09bd 2ae2 763d
00000130: da4f a4be 9312 ec3c 901d bdbd 14bb 0fbe
00000140: ffde 593e eabc 403e 8407 22bc 7a62 41bc
00000150: 0334 b53c 8e62 fcbd 64e3 993c 8170 763d
00000160: f283 2e3a c8ab 05be 8a1f 5e3d 1df7 133d
00000170: 48fd 18be ceb3 dabd c242 4cbd 3836 ce3d
00000180: de3d 143d 0ac2 ad3d df0c 13bc 4167 e23b
00000190: c8a9 33bd 03e4 4abd 278c e3bd 38a6 a63d
000001a0: afe7 06bd e02d 47be cdb2 51be af8a 05bd
000001b0: 1a55 04be d09f 05be bec6 693e f341 173e
000001c0: e47c 993b 523e 983d ea73 12bd 2741 383d
000001d0: bed9 02be 0930 d23d 2ef5 153e 3abf b9bd
000001e0: c6c9 dc3d 6de3 f4bd 98d2 113e 1b6c 66be
000001f0: 02ec 24be db93 0ebe 246a 0fbe 8b82 24bd
00000200: 5587 1ebd 78a0 dcbd fd95 ef3d f7a3 bcbd
00000210: c181 02be c2a0 1abd 8449 2a3e 4a11 18be
00000220: e5d9 5bbe 3eba c0bd bf91 083d fbca 34be
00000230: 84ba 45bd 88ad 0c3e 7ec7 093d c42a 903c
00000240: ca27 1ebe 9c3a 57bd 9c89 923e c8a3 a0bd
00000250: a6c8 f93d 4ada b03d 848d 96bd 5f9a 5a3e
00000260: 0b65 c53d 4347 2d3d 6d1d f8bd e0bb 0abd
00000270: 0150 40be 0271 293e 88ad 413d 1992 a3bd
00000280: 6c84 2ebd d6ac 05be a28c 723d 76aa a5bc
00000290: d285 843e 48c3 11bd ca7b 413d f426 91be
000002a0: b9b2 23bc e7db 49bc c77a a53d 94ed 423e
000002b0: 9166 d53e 3537 263d f7bf fabc 6e2d 95bd
000002c0: 4ea5 f23d 9860 60be d2ba 1cbe 80c1 b8be
000002d0: 2c85 853d ae7d 29be 59b9 033d b67f 623e
000002e0: a499 213e e823 fabb f28d 7fbd 5f3c c3bd
000002f0: b187 6b3e 48f3 853e 11d8 a03d 8594 cfbd
00000300: 78c5 8b3d a894 cebc 9b39 2cbb 05a4 bf3d
00000310: 7d0e 483e b544 2fbe 26af 113e 7950 953d
00000320: 0511 21bd 7f4f ad3d b4bb 46bd 8a6b c33d
00000330: d70b cdbd 70f4 bcbd 76c4 b93d 85bb 08be
00000340: 9431 bf3d ab24 84b9 cfb0 24bc e4eb 11bd
00000350: e694 7f3c 95b5 11be dc57 76bc 2a3e 73be
00000360: 9175 0f3e f276 573e 4b94 1a3d 0a68 203e
00000370: 6807 b23d c771 2d3c ab71 89bd 2685 ffba
00000380: c103 0abc 41e9 0d3e 21df 6fbc 0319 30bd
00000390: b696 5d3e 2b6d 083d ff87 4cbe 7092 60bc
000003a0: f04a 023e 7d5e 12bd 684e 47bd 7c38 26be
000003b0: 2c9b e5bd 0096 2e3d 9328 fbbc 57af e63c
000003c0: 1b00 bb3d f3ad 03be b063 c53d a0d6 d33d
000003d0: f9c4 b9bb 9525 4abd e725 233e 1316 e9bd
000003e0: c677 3d3e 13af 3c3d a277 79bc 393f 8bbd
000003f0: fdde 01be 4b57 d7bd 20e7 0cbd d09a 563e
0.1279101 -0.0001869322 0.05848755 -0.059247475 -0.01863177 -0.2212898 -0.25662068 0.0044812425
-0.07617045 0.014766951 -0.06015811 -0.16897526 -0.051794644 -0.050728817 -0.010388272 -0.041030005
0.13969985 0.09640793 -0.22357212 0.06232106 0.05610383 -0.28726673 -0.15004617 0.08769938
-0.10118565 0.07372266 0.36981347 -0.018307831 0.11155198 0.11348906 -0.029284231 -0.039313
0.031252738 -0.21386337 0.17994519 0.19674227 -0.18734257 -0.061213303 -0.030237127 0.035443682
-0.035190336 0.021012988 0.3348382 -0.13419583 0.06973916 0.17632836 -0.032986593 0.16192494
-0.2192759 0.021184167 0.05211622 0.05328244 -0.03443071 -0.14983128 -0.072703205 0.108041845
-0.06223571 -0.31544036 0.17438288 0.049912646 -0.14919259 -0.053939674 0.03794856 -0.036095675
-0.14549407 -0.08900957 0.03791722 -0.06819715 0.0742704 0.04529247 0.096248165 0.15736838
-0.13298215 -0.08573423 -0.033633746 0.06027428 -0.32092172 0.02881745 -0.09234154 -0.14036208
0.21276473 0.18822065 -0.009889487 -0.011803264 0.022119528 -0.12323485 0.018785186 0.060165886
0.00066572346 -0.1305381 0.054229297 0.036124337 -0.14940369 -0.10678826 -0.049868353 0.10068935
0.036191814 0.08484276 -0.008975237 0.0069092815 -0.043863088 -0.049533855 -0.11110716 0.081371725
-0.032935794 -0.19451094 -0.20478363 -0.032602962 -0.12923089 -0.13049245 0.2282972 0.14771251
0.0046840776 0.07433762 -0.035755076 0.04498401 -0.12778375 0.10263068 0.1464431 -0.09069677
0.10780673 -0.119574405 0.14240491 -0.22502176 -0.16105655 -0.1392359 -0.14005333 -0.040163558
-0.03870328 -0.107727945 0.1169853 -0.09210961 -0.1274481 -0.037750967 0.16629606 -0.14850345
-0.21469839 -0.09410523 0.03334212 -0.17655556 -0.04827358 0.13738072 0.033637516 0.017598517
-0.15444866 -0.05254613 0.28620613 -0.07843739 0.12196474 0.08635385 -0.07351211 0.2134795
0.09638413 0.04230429 -0.121149875 -0.033870578 -0.18780519 0.16547015 0.047284633 -0.0798685
-0.042606756 -0.13054213 0.05921615 -0.020222884 0.25883347 -0.035586625 0.047237195 -0.2835003
-0.009991341 -0.012320495 0.080800585 0.19035941 0.41679814 0.040579993 -0.030609114 -0.07284056
0.118479356 -0.21911848 -0.15305641 -0.3608513 0.06519541 -0.16551849 0.032159183 0.2211903
0.15781265 -0.007633675 -0.06239123 -0.09532999 0.23000981 0.2616217 0.078537114 -0.1013575
0.068247736 -0.02521737 -0.0026279453 0.09357456 0.19536777 -0.17116053 0.1422697 0.072907396
-0.03932287 0.08462428 -0.04851885 0.09541996 -0.10012024 -0.0922631 0.09070675 -0.13352783
0.09335628 -0.00025204322 -0.01005192 -0.035625353 0.015599465 -0.14229424 -0.015035596 -0.23754182
0.14009692 0.21041468 0.03773908 0.15664688 0.08692819 0.010586209 -0.067111336 -0.0019494637
-0.008423747 0.1385851 -0.0146406 -0.042992603 0.21639523 0.033307236 -0.19973753 -0.013706788
0.12723899 -0.035734642 -0.04865876 -0.16232485 -0.11211237 0.04262352 -0.030658996 0.02815978
0.091308795 -0.12859325 0.096381545 0.10343671 -0.005669233 -0.049352247 0.15932427 -0.113811634
0.18502721 0.0460654 -0.015226277 -0.06799168 -0.1268272 -0.10514697 -0.034400105 0.20957494

features_model.4.bias f4 [128]
00000000: 632c f8bc 739d 97bc 39a6 c1bc 6d9b f1bc
00000010: f737 113e 4600 c5bc 51d4 f4bc 3f52 99bc
00000020: 92b7 9fbc 0a68 71bc fb56 62bc 1b66 c33d
00000030: a3cf 5cbc 7d17 973d 3b3a 983c 098f febc
00000040: c3e5 65bc fd49 49ba 4e99 f6bb aae4 ee3d
00000050: 055a ccbb 8da4 993d 97f7 84bc ea88 0dbc
00000060: e47d a53d d972 b33c dfa5 ccbc 0036 f93c
00000070: 6387 a1bc f554 ff3d b86a 883d b3bf 11bb
00000080: aedc 4bbc d679 9a3d dd10 1cbc 7a36 b63d
00000090: cc52 3f3b 0000 0000 1caf e43d 5a53 aabc
000000a0: 8320 95bc 4c7b 31bc 2288 323c b826 43ba
000000b0: 9b07 8ebc 4f04 38bc 67a0 46bc bc50 ae3d
000000c0: 34c6 d13d 9845 503e 49f8 933c 0659 06bd
000000d0: 187d b8bc 93cc cb3b ebc8 bdbc d2f4 5ebc
000000e0: 0000 0000 12f2 e5ba aec6 aabc 087a 153d
000000f0: 6eca 6aba 6d5c 123b 7776 0d3e 701d d0bc
00000100: 337f 2b3e d205 533c 49da db3d b2c2 363c
00000110: 5fb6 35bb e0f3 6c3d 24c1 8e3d fb2a 9fbc
00000120: 3190 94bc 2a62 abbc af0e a4bc 7eec 7a3d
00000130: b6bb 9f3a 1fbd 203d 5528 8b3d 4b99 b2bc
00000140: ecf0 4a3c 8a43 9c3a 2a4a ff3d 6f14 cbbc
00000150: a6ec 0dbd 34d4 88bc c067 ed3d 7f90 053e
00000160: 6d5d 2dbd a5ef e1bc 27b4 9abc 0ea3 e83b
00000170: eb63 243e 980c dcbc 247b 0e3e b832 09bd
00000180: de6a 143e 9188 be3d fdae 153e 9df1 303e
00000190: 5829 29bd 63a8 d8bc 76d1 97bb fdb3 143d
000001a0: b742 183e 6f2c 043e 8fd5 38bb 9729 b2bc
000001b0: fcc3 2e3e 509c aebc 79d9 cbbc 5709 393d
000001c0: f053 063c f588 4bbc 179f 0e3e 72fb fe3c
000001d0: b50a e6bc 5f75 c63d bc46 aabc 7670 153e
000001e0: 2b85 2bbb 18bf 923d ee82 a4bc 0000 0000
000001f0: 5198 2e3e 33a3 f53d c6a1 c43b cdb3 993d
-0.030294603 -0.018507695 -0.023638831 -0.029493058 0.14181505 -0.024047982 -0.029886397 -0.018715976
-0.019496713 -0.0147342775 -0.013814683 0.095409594 -0.013477239 0.07377527 0.018582454 -0.031074064
-0.01403183 -0.00076785666 -0.0075255996 0.11664708 -0.006236317 0.07502089 -0.016231341 -0.0086386
0.08080652 0.02190535 -0.024981437 0.030421257 -0.019717878 0.12467376 0.0666098 -0.0022239506
-0.012442751 0.075427696 -0.009525505 0.08897109 0.0029193638 0.0 0.11166212 -0.020791698
-0.01820398 -0.010832619 0.010896714 -0.0007444429 -0.017337611 -0.011231496 -0.012123204 0.085114926
0.10242882 0.20339048 0.018062728 -0.032799743 -0.022520587 0.0062194555 -0.023167094 -0.013608174
0.0 -0.0017543456 -0.020846691 0.03649333 -0.0008956556 0.0022332922 0.13814722 -0.025404662
0.16747741 0.012879806 0.10734994 0.011154817 -0.002772711 0.057849765 0.069704324 -0.019429674
-0.018135162 -0.020920832 -0.020026533 0.061260693 0.001218668 0.03924286 0.06794802 -0.021801611
0.012386542 0.0011921984 0.124653175 -0.024790017 -0.034649514 -0.016702749 0.11592054 0.13043402
-0.042325426 -0.027580092 -0.018884731 0.0070995158 0.1605374 -0.026861474 0.13914162 -0.033495635
0.14493892 0.09303392 0.14617534 0.17279668 -0.041299194 -0.02644748 -0.004633124 0.036304463
0.148692 0.12907575 -0.0028203463 -0.021748347 0.1706695 -0.02131477 -0.024883972 0.045174923
0.008198723 -0.01242279 0.13927875 0.031125758 -0.028081277 0.096903555 -0.020785682 0.14593682
-0.0026171904 0.071653545 -0.020081963 0.0 0.17050292 0.119940184 0.00600073 0.075049974

policy_model.0.weight f4 [128, 128]
00000000: 5095 f93a 4691 223b de44 e9ba d9a7 c2ba
00000010: 2c66 0fba 290a 0cbb 964e 29bb 7190 a8ba
00000020: ec6a e7ba f07b d83a 02c1 97ba b450 f2ba
00000030: 1859 0fbb 8802 8b39 7091 28bb e239 d6ba
00000040: 7570 3fbb b963 e039 764f 9cba 4a5e 65bb
00000050: 6f8f 413b 4401 96bb 953f 19bb aef4 e338
00000060: b8a6 1e38 b1dc a7ba 95f6 9eba 8ba7 bcba
00000070: ece0 f1ba 2520 af3a a658 aebb 8961 dbb8
00000080: 70e4 d2b8 b300 71bb d5f3 de39 4f02 8dbb
00000090: 38be b9b8 9c86 70ba cfb9 a6bb 59f2 3ebb
000000a0: d340 56b9 c343 82ba d400 40ba d2b9 1d3b
000000b0: fd5b 3d39 144c 9c39 a937 d63a ec06 68ba
000000c0: c9f1 30ba 0546 96ba f137 f8ba 24ee 08bb
000000d0: 32d7 9fba 6641 963a ce8f f5ba 7e2f 373a
000000e0: c4f8 30ba fb8e 60bb 11bf faba 307a 1cbb
000000f0: 4811 eaba f206 d8ba 670c 40ba 3af1 4aba
00000100: 95c9 8c3a 4a68 ef3a 7079 3a3b 8515 1ebb
00000110: f0e7 8738 5982 eabb 5821 b6bb 5bf5 bdba
00000120: 7b71 f93a 47da 763a 2f40 28bb 54a9 a33a
00000130: 4143 a7b8 d37c fab9 e7e8 be3a aa29 e6ba
00000140: 2408 703a eaf4 5d39 92df eeb9 7f56 85ba
00000150: 43a4 0ebb e789 0c3b 78fe 08bc de37 d0bb
00000160: da49 e4ba 5682 433b 9288 ddba 4371 39bb
00000170: 9cfc c73a ae1f 38bb e1e0 80ba ceb4 5a3a
00000180: 2224 83ba dcad b9bb 7d6f f53a 3744 3b39
00000190: 9920 5f39 6a03 eaba 6ef8 24ba 57ed 2039
000001a0: 464a b0ba 5f16 e7ba 1cf7 b93a 4e8c 1bbb
000001b0: 93da 023a c53a cdb9 1f09 a33a 6a95 34bb
000001c0: d2ab 90b9 a159 56bb ddad a839 21ec 29bb
000001d0: 58e8 f6ba 419c e5bb 8a8a c4ba 8b64 97bb
000001e0: 0663 0cbb d377 e1bb 937b 8237 a571 2739
000001f0: 089e c6bb 6488 91bb 7677 35b9 d0c8 ecba
00000200: 9c6b 5bbd a870 913b e3aa 573c 2d4a 4a3c
00000210: b9dd 163d e886 7a3c 89a4 b03c c71b 12bc
00000220: a031 8b3c f71a 86bc a703 cbba 2cfa 6c3d
00000230: 67a5 433d f375 283d 0f8d 8c3d 6aeb 813c
00000240: b1bd 0d3d db73 633c e3cc 173a db6f 863d
00000250: ddea ec3b edfd a73d b99b 403c ad56 c63b
00000260: d611 9e3d ce53 e93c bbb2 153d 6f60 413d
00000270: 6b7f d03b 4b64 093d 948f 953d 7f78 e53c
00000280: 68bc b93b c472 013d 80e5 a83b 3b4f 9d3d
00000290: c4a4 9cbc 5497 0cba 9c58 523d e6af 0d3b
000002a0: b0ee 1fbc 986c 813c 9fec 143d 8906 0cbc
000002b0: 533f 243b 1bc2 923c 055d b8bc 9ded 943d
000002c0: 1de2 c83c 75e1 4f3a d8a6 183c 2502 143d
000002d0: 5211 8b3c 8207 b53c 6c88 6d3c 993e d9b9
000002e0: 8a44 1239 fae4 7e39 06f8 a33c a9ae 6c3d
000002f0: f5fd 3f3a 2c4f 053c 93d6 28b9 b1d7 583c
00000300: 132a 1ebd 84fe ed3c 37c8 8a3d 81af 21bc
00000310: c1b8 003c a922 853d ceb1 8e3d a5d5 623d
00000320: 86ee ad3c 2ae8 9abc eb1e 5e3c 5a58 433d
00000330: f135 9e3a b45a af3d e5f6 9bbc 8a1b af3b
00000340: 820c 8b3c c42f 10bd 8d79 c0bc 0f52 eb39
00000350: 8084 c33c 7fd9 873c 689e 6a3d e663 563d
00000360: e749 1a3c 1f46 653c b087 043d 502d ec3c
00000370: 6e6e b7bb dbd1 16ba ed2c 933b 3405 c6bc
00000380: d87a 1e3d 2e4f 8d3d e4c1 c8bc 727b 36ba
00000390: 045d 873b 7b4b fe3c 1e33 723d bc5d 8d3d
000003a0: 5892 88bc 226d 693d 529a 183d f4cd 453d
000003b0: d4f9 18bd 6f81 c53b b319 433c c00b f63a
000003c0: a7dc 8c3d 8da2 273c 7e9a d53c a546 fa3c
000003d0: 8135 863b fdd7 8b3d 79d1 453c db1f 6c3d
000003e0: 9933 dbba 6702 913d 7c27 033d 7225 3fba
000003f0: f0dd 313d 19c0 8a3d 2735 d63b c8e2 a63d
0.0019041691 0.0024805828 -0.0017797013 -0.0014851048 -0.0005470242 -0.002136836 -0.0025834194 -0.001286043
-0.0017655767 0.0016516428 -0.0011577907 -0.0018487186 -0.0021873172 0.00026514032 -0.0025721453 -0.0016344155
-0.0029211317 0.00042798909 -0.0011925537 -0.0034998828 0.0029534956 -0.0045777876 -0.0023383845 0.000108697786
3.7825404e-05 -0.001280686 -0.001212793 -0.0014393193 -0.0018453873 0.001336102 -0.0053206263 -0.00010460901
-0.0001005613 -0.0036774098 0.0004252481 -0.0043032537 -8.8569184e-05 -0.0009175332 -0.005088068 -0.002913615
-0.0002043278 -0.0009938407 -0.0007324342 0.0024067056 0.00018058713 0.0002981132 0.0016343492 -0.0008851129
-0.0006749896 -0.0011464959 -0.001893757 -0.0020893896 -0.001219487 0.0011463582 -0.0018734874 0.0006987973
-0.0006750936 -0.003426491 -0.0019130429 -0.002387654 -0.0017857933 -0.0016481562 -0.0007326067 -0.0007741634
0.0010741228 0.0018265333 0.002845373 -0.0024121713 6.480503e-05 -0.007156652 -0.005558174 -0.0014492677
0.0019031012 0.0009416681 -0.0025673022 0.0012486377 -7.9757076e-05 -0.00047776717 0.001456526 -0.0017560024
0.00091564865 0.0002116744 -0.0004556147 -0.0010172873 -0.0021765388 0.00214445 -0.008361451 -0.006354316
-0.0017417029 0.0029832325 -0.0016901663 -0.002829627 0.0015257779 -0.0028095054 -0.0009832644 0.0008342982
-0.0010005275 -0.0056664776 0.0018725243 0.00017859122 0.00021279081 -0.0017853801 -0.00062931224 0.00015347205
-0.001344987 -0.0017630568 0.0014188024 -0.002373475 0.00049916765 -0.00039144434 0.0012438631 -0.0027554878
-0.00027593836 -0.0032707232 0.00032172995 -0.0025928097 -0.0018837554 -0.0070071523 -0.0014994901 -0.00462014
-0.0021421327 -0.0068807392 1.5554751e-05 0.00015968697 -0.0060613193 -0.004441308 -0.00017306008 -0.0018065218
-0.05356942 0.0044384785 0.013163301 0.012346786 0.036832545 0.015290953 0.021562831 -0.008917755
0.016991436 -0.01637028 -0.0015488759 0.05785577 0.04776516 0.04112811 0.06862842 0.015859324
0.034604732 0.013882603 0.00057907234 0.065643035 0.0072301463 0.082027294 0.011755877 0.006052813
0.07718246 0.028482344 0.036547404 0.047211107 0.0063628457 0.033542912 0.07302776 0.028011559
0.0056682117 0.03160359 0.0051543117 0.07681128 -0.019121535 -0.0005363126 0.051354036 0.0021619736
-0.009761497 0.015798852 0.036358472 -0.00854648 0.0025062158 0.017914822 -0.022505293 0.07271884
0.024521882 0.0007930019 0.009317122 0.036134858 0.016976032 0.022098307 0.014497858 -0.00041436104
0.00013949178 0.00024308628 0.020015728 0.057783756 0.00073239143 0.008136552 -0.00016101664 0.013235019
-0.038614344 0.029052027 0.06776469 -0.009868504 0.007856549 0.065007515 0.06967507 0.05537953
0.0212319 -0.018909533 0.013557176 0.04769168 0.0012070519 0.08562222 -0.019038627 0.005343859
0.016973738 -0.035201803 -0.02349546 0.0004488383 0.023866892 0.016583202 0.057279974 0.052341364
0.009417034 0.013993769 0.032355964 0.0288302 -0.005597881 -0.0005753317 0.0044914396 -0.024172403
0.03869137 0.06899868 -0.024506517 -0.0006961144 0.0041309614 0.031041851 0.05913078 0.06902644
-0.016671345 0.056988843 0.037256546 0.048292115 -0.03734763 0.0060273926 0.011907983 0.0018771812
0.068780236 0.010231626 0.026074644 0.030551264 0.0040957336 0.06828306 0.012073868 0.057647567
-0.0016723751 0.07080536 0.032020077 -0.00072916516 0.043424547 0.06774921 0.006537098 0.08148724

policy_model.0.bias f4 [128]
00000000: c7a6 95ba d569 8e3d 7361 c4ba de70 3d39
00000010: 38ad b537 c461 1cb9 9c8c b6bb f4bb 27bc
00000020: 74db d23a 568b c4ba c5bc c4ba b7c7 6abc
00000030: f2c9 8abc d730 663c ac2f 8839 a860 b439
00000040: aeea e23b f988 8dbc f320 c4ba 3b16 bfba
00000050: 3635 3dbc 4f4a 06bc 2923 f93b e2d1 c7b9
00000060: a8d3 79bc eeb8 c4ba a4bc 42bc 261a 62bc
00000070: 19df 00bc 1567 c4ba 58a4 0ebc 0938 d0bb
00000080: 7742 60bc 5b5f ddbb 15b0 c4ba fb1c d5bb
00000090: 46e1 5eba e12d 9dba 8d73 90bc 7aa4 63bc
000000a0: b8c8 873d 1837 6fbc 880b cc3b 9f86 c4ba
000000b0: 921f a8ba d9b4 0b3d 01e3 84bc 380b 25bc
000000c0: 1ed6 18bc a14f 253b 8901 2abc ebc0 b3ba
000000d0: 1d50 76bb 51ec 833b 13c1 53bc 0000 0000
000000e0: 0000 0000 fc61 09bb 0a50 8cbc 1836 a7ba
000000f0: fe56 87bc d62d c3ba 2838 c4ba 21b0 783b
00000100: 64b4 7ebb 69b4 c4ba bbf0 e5ba 9d3b 7ebc
00000110: 4afd 0abc fd31 8cbb df95 00bc afe2 febb
00000120: fd62 83ba 76ae a9bb e95e 823a 5275 76bb
00000130: 0c4a c4ba 3787 82bc dc5d 77bc 1d9e c4ba
00000140: 34e5 ec3c daff 86bc 44ae 65bc 14b0 0bba
00000150: a1c9 ab3b 1274 98ba 7c9c 5bba ad3e d23d
00000160: 2981 26bc 920e 92bc 8456 c4ba e106 6bbb
00000170: 72ef a1b9 64d5 e9bb 58cf fbba 968e 14bc
00000180: 0625 8dbc 648c c4ba b693 7fbc e5fd 80bc
00000190: ee0e 1e3b 0895 25bc f66c 42bb ab4e a7bb
000001a0: e90f d1bb 2424 be3b b1ef 3a3c d129 30bc
000001b0: b980 a7ba cf94 c4ba 635c dabb 940b 2ebc
000001c0: da86 2fbc 8659 e7b8 3d57 34ba 58f6 d8ba
000001d0: abae 05bc 61df 76bc 6681 a0ba c198 c2ba
000001e0: e8a4 54bc f05a 2b3d ced0 a8ba 8c96 4b3b
000001f0: e2ef 6abb 4368 6bbb 709c c83b e6bc 48bb
-0.0011417501 0.069537796 -0.0014982655 0.00018066491 2.1657543e-05 -0.0001491374 -0.005570961 -0.010237683
0.0016087131 -0.0014995139 -0.0015009871 -0.014329842 -0.016941998 0.01404973 0.0002597546 0.0003440429
0.0069249487 -0.017277228 -0.0014963433 -0.0014578769 -0.011548331 -0.0081964275 0.0076030684 -0.00038112613
-0.015248217 -0.0015008727 -0.011885796 -0.01380018 -0.007865691 -0.0014984334 -0.008706175 -0.006354336
-0.013687721 -0.006755752 -0.001500609 -0.006503699 -0.0008502196 -0.0011991822 -0.017633224 -0.013894195
0.06630081 -0.014600538 0.0062269606 -0.0014993733 -0.0012826791 0.034108017 -0.016221525 -0.010073476
-0.009328393 0.0025224464 -0.010376343 -0.001371411 -0.0037584372 0.004025974 -0.01292445 0.0
0.0 -0.0020962944 -0.01712801 -0.001275721 -0.016520973 -0.001489098 -0.0014970349 0.0037946778
-0.0038864845 -0.001500738 -0.0017543057 -0.015517143 -0.00848324 -0.00427842 -0.007848232 -0.0077784876
-0.0010024008 -0.005178268 0.0009946498 -0.003760655 -0.0014975681 -0.015933616 -0.015098061 -0.0015000735
0.028917886 -0.016479421 -0.014018599 -0.0005328667 0.005242542 -0.0011631271 -0.0008377505 0.10265861
-0.01016263 -0.017829213 -0.0014979397 -0.0035862254 -0.00030886714 -0.007136034 -0.0019211574 -0.009067198
-0.017229568 -0.0014995453 -0.015599182 -0.015746066 0.0024117786 -0.010106333 -0.0029666997 -0.0051058135
-0.0063800705 0.005802648 0.011409686 -0.010752157 -0.0012779451 -0.0014997962 -0.0066638454 -0.010622878
-0.010713303 -0.000110316134 -0.00068794546 -0.0016552908 -0.00815932 -0.015067906 -0.0012245595 -0.001484655
-0.01297877 0.04183477 -0.0012879611 0.0031065075 -0.0035848548 -0.00359203 0.0061221644 -0.003063017

policy_model.2.weight f4 [8, 128]
00000000: daf4 ecba 4160 2bbd 1218 e23a baf7 513a
00000010: b3fd 00bb f7a8 4e3a b385 7cbc 5a8c d0bb
00000020: 7a05 b63b d176 2ab9 e80b eeba cee0 b8bb
00000030: c7d1 afbb 6805 713b 489c 203b bd5b 9f3a
00000040: e50b 723b 4e92 e2bb d230 833a 73d5 29bb
00000050: 7733 b9bb b5bb efbb ea06 7f3c 1b31 393a
00000060: b614 f8bb 3444 d73a d2e5 2abb d05e dbbb
00000070: 758e 81bc 0a85 5aba 5b2a 05bc 3aeb ee39
00000080: a680 11bc 1dbc 1ebc 0e06 e63a de67 f7bb
00000090: 05f3 97ba 6e14 8f3a 2f64 e5bb 7005 09bc
000000a0: c6d8 76bd ed7a dbbb 7157 633b 04f9 c9ba
000000b0: 8bd7 a73a a05b 99bd 79f6 f9bb d9b3 3bbb
000000c0: 183d f1bb 555a 993b a89b f3bb f235 b5bb
000000d0: 3c32 913b 57cd 943b 0ec2 acbb 4779 6cb9
000000e0: b87e e23a 8e05 a63a a7f5 dabb 02a1 cdb7
000000f0: 75b3 d5bb ff1e f3b9 af07 2cba 6f25 883b
00000100: 1215 ffbb a1c0 863a 3bc9 7f3a 713a bdbb
00000110: 5ab8 d4bb e3c4 99bb 8d9e f2bb 0bbb 07bc
00000120: 689d 83b8 737f 493b 9966 f33a c5d4 47ba
00000130: 64fa 163b 6f1d 07bc 7ae5 a4bb 7bda 5e38
00000140: 4bb5 d23c 3319 b7bb e169 e0ba 31b6 a03a
00000150: 6c64 8a3b 9965 923a 030f e4b8 9051 a9bd
00000160: 0af3 b7bb 2783 d2bb 89de cd3a 40b5 f5bb
00000170: 53c4 1f3b df86 d7bb 0b95 9b3a a11f 75bc
00000180: 413a c5bb 51cb 613b 303b 95bb a18f e8bb
00000190: d8c6 743b 137c dbbb c539 373b fa35 9039
000001a0: 04f5 8238 2fad 6a3b e624 ecbc df73 ecbb
000001b0: 6df7 c1b8 4eff 133b c1e1 d3bb e058 85bb
000001c0: 6f3b 26bb be2c cdb8 3882 7e3b 50bf 463a
000001d0: 2013 cbba 0714 ccbb c119 7c3a c232 a6b9
000001e0: b3b1 eebb 1865 97bd 0042 c6b9 a87d 37bb
000001f0: 4ac7 fdb8 88ce 0bbb 1a41 963b 9fc1 5e3a
00000200: 8aeb 8a3a 190b 113d 1045 2bba b222 39ba
00000210: fa44 d839 1d47 71ba e961 e13c 38dd 30bc
00000220: b428 0abc 649f 38b9 46b7 553b 71ed 15bc
00000230: 1b21 0ebc 2813 e2bb 0ada 28bb a26b aabb
00000240: ef76 1fbb 60d0 09bc d7f9 f23a d004 64ba
00000250: f036 44bc 7199 28bc c114 11bc 67a5 02ba
00000260: 0cfe 0cbc 1a7c 543a 6b00 60bb 9a15 febb
00000270: 9903 443b 18b8 c6ba 2a0b 29bc 1a58 363b
00000280: dc60 fabb 5b9f 8dbb d1cb 0f3a 9324 14bc
00000290: 1480 863a 0d9e afba 7e64 09bc 2c72 3dbc
000002a0: 30d5 733d cf91 27bc f8b1 b5bb f5fc 2b3b
000002b0: 421a 2e39 9d13 86bc 465e 0cbc 4394 10bb
000002c0: e67d 11bc d45e 00bc fe10 53bc df88 8fba
000002d0: 4963 8abb 062e e7bb 30b0 23bc bc9b c63a
000002e0: a12c fc3a 9664 c63a fbf2 ecbb c918 27ba
000002f0: 5e4a 13bc 6348 7c39 2af0 b1ba d359 0abc
00000300: b917 cbbb cf88 3cba 9262 e6b9 cdfc 07bc
00000310: 1c4e 0abc 093f a2bb 0055 e9bb 0649 17bc
00000320: 635d f4ba 0cbd d83a 07d8 89bb 48ab 7fba
00000330: 64e8 6b3b f179 0dbc 3ee4 28bc a834 b4ba
00000340: d51f 47bb 611e 0abc 686e 3bbb 34a4 a0ba
00000350: eaa5 e3bb 5f15 8eba 77ca bb3a 59e5 ce3c
00000360: f799 22bc 9f77 21bc 9d1d d23a 3986 2ebb
00000370: b40e f1b8 9b64 30bc 5ca3 b4b9 f2b9 0b3b
00000380: 2b13 01bc fd37 e139 3bcf 05bc 6a3e 11bc
00000390: d2bf d9bb 27c6 2bbc f8a8 813b 007c aab8
000003a0: 26c3 e43b cfee cebb ad7b 33bc 904f ffbb
000003b0: db59 3cba e767 5bba 7013 fdbb 6dc5 81bb
000003c0: 1b6c 15bb a982 2739 960f 083b b557 78bb
000003d0: 10a1 d9b8 99e8 12bc 4ec3 79ba 9b93 eeb8
000003e0: bd17 07bc 3b00 21bc 02ab 2039 c13c 183b
000003f0: 0b33 a4ba 733b 44bb f97c 02bc b85f e5ba
-0.0018078343 -0.04183984 0.0017249605 0.00080096314 -0.0019682467 0.0007883454 -0.015412736 -0.0063643875
0.005554852 -0.00016256726 -0.0018161507 -0.005642033 -0.0053655836 0.0036776904 0.0024507213 0.0012158077
0.003693336 -0.0069144135 0.0010009056 -0.002591458 -0.005651887 -0.0073160776 0.015565613 0.0007064507
-0.0075708283 0.0016423524 -0.0026076925 -0.006694652 -0.015815 -0.00083358644 -0.008127774 0.00045570155
-0.00888077 -0.009688404 0.0017549412 -0.0075502237 -0.0011592811 0.0010916123 -0.007000468 -0.008363113
-0.060265325 -0.0066980035 0.003468957 -0.0015409295 0.0012805326 -0.07488179 -0.007628259 -0.0028641133
-0.0073620193 0.004679958 -0.007434327 -0.0055301124 0.004431037 0.00454108 -0.0052721566 -0.00022551893
0.0017280197 0.001266645 -0.006682116 -2.451288e-05 -0.006521637 -0.00046371666 -0.0006562424 0.004154853
-0.007784494 0.0010280797 0.00097574637 -0.005774789 -0.006491703 -0.00469266 -0.0074041546 -0.008284341
-6.275886e-05 0.0030746132 0.0018570005 -0.00076229527 0.0023037428 -0.008246764 -0.0050322386 5.31324e-05
0.025721213 -0.005587721 -0.0017121398 0.0012261329 0.004223397 0.0011169194 -0.00010874683 -0.0826751
-0.0056136893 -0.006424326 0.001570658 -0.0074984133 0.0024378493 -0.006577357 0.001186998 -0.014961154
-0.0060189073 0.0034453461 -0.004554175 -0.0070972 0.0037349965 -0.0066981404 0.0027958017 0.00027506036
6.244521e-05 0.0035808792 -0.028826188 -0.0072159613 -9.249044e-05 0.0022582593 -0.006466121 -0.0040694326
-0.0025365015 -9.7834956e-05 0.003883494 0.00075816084 -0.0015493371 -0.0062279734 0.0009616875 -0.00031699805
-0.007284367 -0.07392329 -0.00037814677 -0.002799848 -0.000121011006 -0.002133282 0.0045853974 0.000849748
0.001059876 0.035410974 -0.00065334234 -0.000706236 0.00041250122 -0.0009204017 0.027512508 -0.01079493
-0.008432556 -0.00017606985 0.003261046 -0.009150849 -0.008674885 -0.0068992563 -0.0025764727 -0.005200819
-0.0024332365 -0.008411497 0.0018537593 -0.0008698227 -0.011975989 -0.0102904895 -0.008855046 -0.00049837533
-0.008605491 0.0008105651 -0.0034179937 -0.00775404 0.002990937 -0.0015161065 -0.010317603 0.0027823509
-0.007640941 -0.004321975 0.0005485388 -0.009041923 0.0010261559 -0.0013398543 -0.008385776 -0.011562865
0.059529483 -0.010227635 -0.005544897 0.0026243303 0.00016603715 -0.016366774 -0.008567398 -0.0022061027
-0.008880114 -0.007835109 -0.012882469 -0.0010950825 -0.0042232615 -0.007055047 -0.009990737 0.0015152614
0.0019239375 0.0015136178 -0.007231114 -0.0006374238 -0.0089898985 0.00024059559 -0.0013575603 -0.008444267
-0.0061978963 -0.0007192017 -0.0004394246 -0.0083000185 -0.008441474 -0.004951362 -0.0071207285 -0.009233719
-0.0018643554 0.0016535833 -0.0042066607 -0.0009753001 0.003599667 -0.00863503 -0.010308323 -0.0013748603
-0.0030383964 -0.008430094 -0.0028599743 -0.0012255968 -0.0069472687 -0.0010840109 0.0014327307 0.025255846
-0.009924403 -0.00985518 0.0016030554 -0.0026630296 -0.00011494514 -0.010766174 -0.00034453988 0.002132055
-0.007878105 0.0004295706 -0.008167083 -0.008864978 -0.006645181 -0.010484255 0.00395691 -8.1293285e-05
0.0069812713 -0.0063150893 -0.01095478 -0.007791467 -0.00071850204 -0.00083696697 -0.0077232644 -0.0039603026
-0.0022800032 0.00015975036 0.0020761243 -0.0037894074 -0.000103773666 -0.008966588 -0.0009527699 -0.00011376218
-0.008245406 -0.009826715 0.00015322494 0.0023229572 -0.0012527419 -0.002994266 -0.007964366 -0.001749984

policy_model.2.bias f4 [8]
00000000: ed98 b3bc bada 113c fa0b 173d 5706 3a3c
00000010: e280 48bc 7d02 2ebb 9802 db3c 2c56 61bd
-0.021923507 0.008902246 0.036876656 0.011354051 -0.012237759 -0.0026551776 0.026734635 -0.05501382
