results/short_race/second_iteration_training/model829.pt (torch, 276107 bytes, 13 tensors)

features_model.0.weight f4 [128, 4]
0.0066290307 0.21451816 0.07688764 -0.31542143 0.033345442 -0.07644536 -1.4403193e-05 0.028681528
0.15272145 0.026398584 -0.033621956 0.29532275 0.18781403 -0.10137954 -0.05661816 -0.10264429
0.038494207 0.008820061 0.049157396 -0.029874014 0.040366486 0.06284243 0.2397719 -0.19623074
-0.0070926747 -0.024070026 0.10648264 0.32615048 0.0032972936 -0.008100112 0.072948165 0.31963906
-0.18559296 0.1606793 0.12383354 0.0047795987 0.006050509 0.22899385 0.055946212 -0.3639869
0.05642969 0.25847992 0.18569937 0.16624498 0.1601749 -0.11912006 0.17251255 0.054278266
0.12779136 0.34391236 0.034908555 -0.08239725 -0.16169311 -0.039769452 -0.1487276 0.016588401
-0.05504339 0.34131992 -0.034220524 0.13798587 -0.20677517 -0.016859524 -0.29714313 0.06332915
0.12056308 -0.017219663 0.02581657 -0.124913506 -0.049798246 -0.24413648 -0.123683445 -0.05452633
-0.13208133 0.056874573 -0.08167005 -0.111967996 -0.07222111 -0.1394206 -0.25819823 -0.19867483
0.08271691 -0.07951255 -0.12300628 0.050350163 -0.23632576 -0.17368317 0.18793075 -0.063395
0.04974417 0.22830129 -0.07975407 -0.026176918 -0.22618969 -0.088850394 -0.10752787 0.07276188
0.02840594 0.17152575 0.1415473 -0.3139918 -0.37595552 -0.2113965 0.07575894 -0.08744619
0.23372386 0.37416467 -0.02480891 0.18794435 -0.08593793 -0.079623215 -0.105167955 -0.023558479
0.005342457 -0.015784841 -0.07162057 0.40990326 0.092513904 0.10283878 -0.114243306 -0.063619085
0.16587989 0.13057104 0.17414488 0.12073611 0.10000891 0.07300517 0.114409894 0.23438585
0.20448533 -0.2876715 0.059748065 0.10642689 0.18267103 -0.012041493 0.13225316 -0.01562505
0.012760716 0.037692185 0.23841587 0.2981076 0.09294281 -0.14146243 0.003165027 -0.18538295
-0.07868697 -0.10837068 0.100462586 -0.014550216 -0.070723735 -0.09586742 -0.0021142147 0.0879977
-0.14768587 0.038858823 0.074157275 0.22633171 0.031623 0.01574901 0.13622056 0.3930409
0.00020160995 -0.013549962 -0.07161272 0.34648597 -0.03507069 -0.07244321 0.025225786 -0.23673768
0.07248241 -0.051947683 -0.02691134 -0.11860491 -0.122307345 0.1729788 0.13364531 0.01418871
0.028939646 0.30073133 0.04749804 -0.028393118 -0.038901962 -0.083124556 -0.07106499 0.14442293
0.0954845 0.01039113 0.39359355 -0.099568814 -0.0072602513 0.025818957 0.123722695 0.030876722
-0.20805657 -0.00029018972 -0.14687692 0.011392267 0.23588425 -0.12650691 0.05428629 0.1306171
-0.20452875 -0.08079193 0.025637759 0.08772989 -0.29895744 0.19286035 0.1871312 0.02240603
0.19264957 0.36103567 -0.061479665 -0.039664235 0.21957768 -0.061234087 -0.03417396 -0.03203418
0.044502724 0.009969926 0.10989583 0.051270008 0.12031099 -0.006454009 0.2014742 0.4203622
0.1344804 0.047506843 0.007620314 -0.09512898 -0.002649948 0.20153151 0.13394417 0.007890157
-0.072421394 0.020049755 -0.058465533 0.030194314 0.1194342 0.07944343 0.14649823 0.3046091
-0.02055454 0.042813085 0.019183371 0.24513447 0.010966064 -0.017863179 -0.13954066 0.2989167
-0.007875353 0.13686268 0.06322689 -0.3327048 -0.20328067 0.2504817 -0.031084288 -0.15772043
00000000: 5738 d93b a6aa 5b3e 4477 9d3d eb7e a1be
00000010: 3b95 083d 638f 9cbd 3ea5 71b7 86f5 ea3c
00000020: 0363 1c3e d841 d83c 2db7 09bd 8b34 973e
00000030: 5252 403e 14a0 cfbd 72e8 67bd 2b37 d2bd
00000040: 1aac 1d3d 0482 103c 4459 493d 59ba f4bc
00000050: 5457 253d 88b3 803d c486 753e b6f0 48be
00000060: ab69 e8bb 812e c5bc 9213 da3d 32fd a63e
00000070: 6817 583b 55b6 04bc d965 953d bba7 a33e
00000080: 150c 3ebe 1d89 243e 709c fd3d 2e9e 9c3b
00000090: 5943 c63b 5d7d 6a3e db27 653d 7e5c babe
000000a0: d222 673d 7b57 843e fa27 3e3e 203c 2a3e
000000b0: e404 243e 38f5 f3bd 21a7 303e e352 5e3d
000000c0: bddb 023e 4815 b03e 46fc 0e3d e4bf a8bd
000000d0: e192 25be 4be5 22bd 0c4c 18be 66e4 873c
000000e0: 2d75 61bd 7cc1 ae3e d22a 0cbd 2b4c 0d3e
000000f0: dfbc 53be fc1c 8abc 2523 98be b7b2 813d
00000100: c7e9 f63d 4010 8dbc 457d d33c a7d2 ffbd
00000110: 3ff9 4bbd eafe 79be bf4d fdbd 0057 5fbd
00000120: 5440 07be 50f5 683d a142 a7bd 7a4f e5bd
00000130: a9e8 93bd 46c4 0ebe 8f32 84be 6a71 4bbe
00000140: 7c67 a93d 7ad7 a2bd b7ea fbbd f93b 4e3d
00000150: 61ff 71be 00da 31be eb70 403e 3dd5 81bd
00000160: 8bc0 4b3d d0c7 693e 1a56 a3bd fa70 d6bc
00000170: 459e 67be 32f7 b5bd 9237 dcbd 2e04 953d
00000180: 93b3 e83c 72a4 2f3e c7f1 103e 89c3 a0be
00000190: 3e7d c0be 5378 58be 8127 9b3d fd16 b3bd
000001a0: 4f55 6f3e 8392 bf3e 0e3c cbbc 7c74 403e
000001b0: 3a00 b0bd 7f11 a3bd 4c62 d7bd b6fd c0bc
000001c0: c70f af3b 364f 81bc cead 92bd d7de d13e
000001d0: ee77 bd3d 239d d23d 65f8 e9bd b94a 82bd
000001e0: 6bdc 293e 6ab4 053e 0953 323e 7e44 f73d
000001f0: 79d1 cc3d bc83 953d bc4f ea3d d802 703e
00000200: 9a64 513e ae49 93be 63ba 743d 57f6 d93d
00000210: 1d0e 3b3e af49 45bc 5f6d 073e 1b00 80bc
00000220: 5212 513c 1f63 1a3d 4a23 743e 8fa1 983e
00000230: cd58 be3d 87db 10be 576c 4f3b 07d5 3dbe
00000240: a226 a1bd 72f1 ddbd 54bf cd3d 0764 6ebc
00000250: 9bd7 90bd 2356 c4bd a38e 0abb 2338 b43d
00000260: f73a 17be 6e2a 1f3d c5df 973d 80c3 673e
00000270: 1e87 013d 1104 813c 677d 0b3e a83c c93e
00000280: 4267 5339 a900 5ebc b1a9 92bd 9c66 b13e
00000290: 49a6 0fbd 1b5d 94bd 4fa6 ce3c 5d6b 72be
000002a0: a871 943d 18c7 54bd 2c75 dcbc 22e7 f2bd
000002b0: 467c fabd 5b21 313e 51da 083e c377 683c
000002c0: d612 ed3c 75f9 993e 4e8d 423d af98 e8bc
000002d0: aa57 1fbd 353d aabd 858a 91bd 9be3 133e
000002e0: 618d c33d 8f3f 2a3c 1885 c93e bcea cbbd
000002f0: 67e7 edbb 4782 d33c 5362 fd3d 2ef1 fc3c
00000300: c80c 55be 9b24 98b9 e766 16be a2a6 3a3c
00000310: a48b 713e 078b 01be 4d5b 5e3d 7dc0 053e
00000320: fc6f 51be 3d76 a5bd 4706 d23c bbab b33d
00000330: f310 99be 2f7d 453e 529f 3f3e da8c b73c
00000340: ee45 453e abd9 b83e 1ad2 7bbd f776 22bd
00000350: f9d8 603e 98d0 7abd fff9 0bbd 4636 03bd
00000360: 7d48 363d e758 233c 1111 e13d 8000 523d
00000370: 9c65 f63d 277c d3bb 414f 4e3e b739 d73e
00000380: 3bb5 093e 8996 423d d4b3 f93b fcd2 c2bd
00000390: c0aa 2dbb 475e 4e3e a928 093e b845 013c
000003a0: ab51 94bd 623f a43c 8e79 6fbd 115a f73c
000003b0: eb99 f43d 3db3 a23d a203 163e b9f5 9b3e
000003c0: ff61 a8bc c65c 2f3d 7226 9d3c 8804 7b3e
000003d0: 02ab 333c cd55 92bc bfe3 0ebe 9c0b 993e
000003e0: a007 01bc bb25 0c3e 1a7d 813d 4958 aabe
000003f0: cf28 50be 233f 803e 7aa4 febc 7781 21be

features_model.0.bias f4 [128]
0.1897772 0.0056297844 0.13407424 -0.03351793 0.20747098 0.122826055 0.16580872 0.18209273
0.14990692 0.19732437 0.2380474 -0.0110157 0.15486617 -0.043415237 0.14360459 0.14265378
0.09363764 -0.02502833 -0.060561355 -0.0070407735 0.040738314 -0.11178127 0.1729227 -0.0120083
0.2146035 -0.04317083 0.081329405 0.015162463 0.19968444 0.17277984 0.1629076 0.20569305
-0.0036451041 0.09177246 0.20509773 0.03599365 0.07007623 -0.028505566 0.1968968 0.18321548
0.22021814 0.029819882 0.110654935 0.13161524 0.17853656 -0.020191606 0.08006822 0.16595136
-0.029317528 0.055835124 -0.058500268 0.14883713 0.13532008 0.080993675 0.19994383 0.10463822
0.13610734 0.15183769 -0.014620882 0.20973709 0.19871739 -0.04146174 0.20159288 0.18387213
0.16533308 0.24792437 0.1601291 0.20893705 0.18233664 0.15153511 -0.06971241 -0.07546997
-0.01284525 0.11396174 0.1765259 -0.053035624 -0.013221125 0.08993344 0.20362939 0.038265105
0.13016495 -0.016512247 0.16947706 0.13350366 -0.02057167 0.03219841 0.25217187 0.120793685
0.13152109 -0.017230937 -0.018549323 0.06267626 -0.011088396 0.020542918 0.04724977 0.16108511
-0.04547983 -0.022160951 0.05746497 0.16190849 -0.02648583 0.20952983 0.25830755 0.18350925
0.17247005 0.21221837 0.19685042 0.19840808 -0.0142299635 -0.028040841 0.18309474 0.17737049
-0.044624332 0.08651827 0.119404405 0.21657115 0.22479741 -0.0030991558 0.18725386 -0.03155402
-0.0573731 0.27578595 0.09887698 0.07665755 0.21153754 0.16174246 0.21633355 -0.006400954
00000000: f454 423e 0e7a b83b c24a 093e 194a 09bd
00000010: 4673 543e 3a8c fb3d c3c9 293e 8476 3a3e
00000020: 3381 193e 660f 4a3e b3c2 733e 327b 34bc
00000030: 3d95 1e3e 2dd4 31bd 150d 133e d513 123e
00000040: 17c5 bf3d 3608 cdbc 2f0f 78bd 4ab6 e6bb
00000050: 38dd 263d 94ed e4bd a612 313e 76be 44bc
00000060: 05c1 5b3e e5d3 30bd 0890 a63d fb6b 783c
00000070: 147a 4c3e 33ed 303e 40d1 263e 33a1 523e
00000080: b3e2 6ebb 33f3 bb3d 2405 523e 146e 133d
00000090: 2084 8f3d 8184 e9bc 519f 493e d79c 3b3e
000000a0: dd80 613e d348 f43c 0e9f e23d 25c6 063e
000000b0: 4ad2 363e de68 a5bc cffa a33d 27ef 293e
000000c0: 502b f0bc 5fb3 643d fa9d 6fbd c368 183e
000000d0: 5991 0a3e 03e0 a53d 13be 4c3e 904c d63d
000000e0: b95f 0b3e 577b 1b3e 6d8c 6fbc 52c5 563e
000000f0: 927c 4b3e c9d3 29bd 5d6e 4e3e fa48 3c3e
00000100: 134d 293e e3df 7d3e e2f8 233e 98f3 553e
00000110: 75b6 3a3e 052c 1b3e 61c5 8ebd 0090 9abd
00000120: e274 52bc c664 e93d 35c3 343e e23b 59bd
00000130: 6b9d 58bc 062f b83d 3984 503e dfbb 1c3d
00000140: f649 053e b144 87bc 658b 2d3e 2fb5 083e
00000150: eb85 a8bc 7be2 033d ac1c 813e ae62 f73d
00000160: 77ad 063e e527 8dbc c0f4 97bc 695c 803d
00000170: 1bac 35bc 9f49 a83c fa88 413d 7ff3 243e
00000180: 0f49 3abd e28a b5bc 6360 6b3d 57cb 253e
00000190: d0f8 d8bc fd8e 563e e340 843e d9e9 3b3e
000001a0: fd9b 303e c64f 593e 2893 493e 7d2b 4b3e
000001b0: cb24 69bc e8b5 e5bc 307d 3b3e 9ca0 353e
000001c0: 01c8 36bd 7e30 b13d 4c8a f43d d4c4 5d3e
000001d0: 4b31 663e 351b 4bbb 7abf 3f3e ca3e 01bd
000001e0: 0e00 6bbd d133 8d3e 0480 ca3d a2fe 9c3d
000001f0: 4c9d 583e d19f 253e 8b86 5d3e 18bf d1bb

features_model.2.weight f4 [128, 128]
0.3850262 -0.06667131 -0.011416559 0.08707009 0.22937171 0.13337089 0.10815476 0.062322102
0.19781075 0.22074473 0.18039711 -0.014633066 0.05410508 0.029779654 0.07284715 0.14537536
-0.13843215 0.07098986 -0.05470964 -0.124554045 0.09502465 0.034934256 0.15201278 -0.0528371
0.21720375 -0.13783838 0.00018645139 0.26223564 0.1951501 -0.024992839 0.06209083 0.15449387
0.18653437 -0.014644275 0.15137896 -0.015837973 -0.103689134 -0.2182187 0.058588002 0.15955466
0.36233115 -0.0353177 0.17854753 0.2877182 0.29585794 0.16048019 -0.03768533 0.09919542
0.16786769 0.29255784 0.16102202 0.38763416 -0.04895736 -0.045977447 0.0038870932 -0.16227274
-0.037049226 0.08573359 -0.058763556 0.18397492 0.33760524 0.33462134 0.2602855 -0.003541287
0.41604233 0.2868834 0.12137309 0.16326413 0.060289647 0.27059075 0.10382842 -0.23510784
-0.21842764 0.0428499 0.019090086 -0.05238217 -0.031031165 0.055560786 0.13689138 -0.31868634
0.120243 0.04754006 -0.026389394 0.16524868 0.24040635 0.19417208 -0.012825212 -0.06423065
0.0691201 0.055177886 -0.23760007 -0.093789 0.17213996 -0.054423913 -0.041573595 -0.06413046
-0.024081802 0.105265625 0.21385013 0.015149103 0.0977551 0.17742081 0.1885895 0.47772446
0.3626208 0.12560034 0.0024888932 0.08396046 -0.12166035 0.1612399 0.14650469 0.31069532
-0.102747396 -0.17449236 -0.046278384 0.20931016 0.21971728 -0.13416259 0.1584275 -0.16157308
-0.07723159 0.27926704 -0.07766713 0.058244295 0.16301377 0.22909744 0.29593357 -0.08657138
0.043665282 0.07705517 0.08366377 -0.0028161418 -0.04590211 0.08696873 0.17825857 -0.077566504
0.24266356 -0.1658751 -0.06744993 0.09992885 0.02104534 0.028570145 0.3000536 -0.011922352
-0.03354351 0.037771758 0.05543794 -0.09139976 -0.028024847 -0.15511268 -0.07709386 0.098730594
-0.040455688 -0.095381975 -0.15955932 -0.024225697 0.35460746 -0.16064003 -0.34486005 -0.064488344
0.05423208 0.00861762 -0.061291926 -0.06404523 0.07344356 0.009127775 0.2939766 0.044637796
0.20453484 -0.19750845 0.011459532 0.2519735 0.17299557 -0.039415404 0.038999856 0.3081886
-0.13892485 0.03035206 0.04283375 0.07528509 0.03796303 0.0801594 0.038504086 0.09969549
0.017522577 0.2350129 -0.09152128 0.07139115 0.36691266 -0.01588071 -0.1798505 0.47548628
0.22528826 0.19382949 0.11468669 0.06991184 0.07555017 0.40223953 -0.25895384 -0.03640667
0.07883182 0.23505935 -0.13762456 0.13279541 0.0019062541 -0.021271205 0.052356582 0.10801461
0.049918886 0.12677151 0.06728733 0.35571232 0.07385496 0.002902122 -0.12415535 0.04821654
0.23717389 -0.0023710604 -0.031961504 0.0019272798 0.036266457 0.030322997 0.13914683 -0.13118666
0.017576417 -0.09706071 0.17340928 0.007903251 0.043884255 -0.014167686 -0.31763458 0.16957751
0.059408437 0.03175008 -0.1169028 0.36334515 -0.1027679 -0.023473606 0.12088119 0.2149627
-0.061301988 -0.20840515 0.058806956 0.033506688 0.25449148 0.113982275 0.3037999 -0.097162366
-0.020111833 0.2685368 0.19911975 0.004639484 -0.0007405486 -0.14780998 0.08039321 0.07964411
00000000: 2722 c53e f88a 88bd 850c 3bbc ce51 b23d
00000010: 6be0 6a3e 6192 083e 3e80 dd3d 7645 7f3d
00000020: e78e 4a3e e80a 623e 05ba 383e 87bf 6fbc
00000030: 4a9d 5d3d 76f4 f33c e330 953d 47dd 143e
00000040: 28c1 0dbe 2263 913d 3717 60bd 3116 ffbd
00000050: 499c c23d 3917 0f3d 3da9 1b3e b76b 58bd
00000060: a96a 5e3e 8125 0dbe 2a82 4339 c043 863e
00000070: 6ed5 473e c8bd ccbc f452 7e3d a433 1e3e
00000080: de02 3f3e 8bee 6fbc 1603 1b3e a3be 81bc
00000090: f85a d4bd b974 5fbe f9f9 6f3d 4c62 233e
000000a0: 7883 b93e 4ba9 10bd 2ad5 363e cd4f 933e
000000b0: b17a 973e eb54 243e ef5b 1abd f826 cb3d
000000c0: 82e5 2b3e 24ca 953e f5e2 243e fc77 c63e
000000d0: 8387 48bd d952 3cbd 9abe 7e3b d32a 26be
000000e0: eec0 17bd 1895 af3d 0eb2 70bd ec63 3c3e
000000f0: 98da ac3e 7d53 ab3e 2444 853e f014 68bb
00000100: 8003 d53e 62e2 923e 7492 f83d b62e 273e
00000110: 47f2 763d df8a 8a3e ffa3 d43d 1cc0 70be
00000120: 7fab 5fbe 6083 2f3d d062 9c3c b08e 56bd
00000130: 1235 febc b593 633d 412d 0c3e db2a a3be
00000140: f641 f63d 5eb9 423d 922e d8bc f336 293e
00000150: 152d 763e 0cd5 463e d720 52bc 5c8b 83bd
00000160: d78e 8d3d 3502 623d 6f4d 73be 7214 c0bd
00000170: 7545 303e 9ceb 5ebd 1349 2abd d556 83bd
00000180: 3347 c5bc 8195 d73d 87fb 5a3e f133 783c
00000190: d333 c83d cdad 353e 9b1d 413e 4d98 f43e
000001a0: 6fa9 b93e 609d 003e b31c 233b 76f3 ab3d
000001b0: 1029 f9bd 131c 253e 5305 163e 7513 9f3e
000001c0: 3a6d d2bd 20ae 32be 678e 3dbd 6755 563e
000001d0: 91fd 603e eb61 09be d23a 223e 6a73 25be
000001e0: 992b 9ebd 17fc 8e3e f20f 9fbd 9291 6e3d
000001f0: 15ed 263e 8598 6a3e 9b84 973e 564c b1bd
00000200: 5eda 323d 1acf 9d3d e957 ab3d 058f 38bb
00000210: da03 3cbd a91c b23d 6a89 363e 30db 9ebd
00000220: cc7c 783e 2adb 29be 3023 8abd 7fa7 cc3d
00000230: 4767 ac3c f00b ea3c a0a0 993e f855 43bc
00000240: eb64 09bd 8fb6 1a3d e512 633d cc2f bbbd
00000250: 5d94 e5bc dcd5 1ebe 63e3 9dbd 4433 ca3d
00000260: ddb4 25bd a057 c3bd 8563 23be f874 c6bc
00000270: 1c8f b53e d27e 24be 7f91 b0be 7712 84bd
00000280: 7522 5e3d eb30 0d3c 3e0d 7bbd 252a 83bd
00000290: 9469 963d aa8c 153c 1a84 963e 1fd6 363d
000002a0: 9571 513e a83f 4abe c3c0 3b3c ac02 813e
000002b0: c025 313e 0c72 21bd 50be 1f3d e5ca 9d3e
000002c0: 5142 0ebe e2a4 f83c 7172 2f3d 122f 9a3d
000002d0: 1f7f 1b3d 9d2a a43d 76b6 1d3d 262d cc3d
000002e0: 828b 8f3c 39a7 703e 826f bbbd 8635 923d
000002f0: fadb bb3e 4318 82bc bb2a 38be f072 f33e
00000300: f7b1 663e 3d7b 463e dbe0 ea3d f02d 8f3d
00000310: 0cba 9a3d 57f2 cd3e 9995 84be 291f 15bd
00000320: 9472 a13d 66b3 703e 74ed 0cbe 85fb 073e
00000330: 46db f93a f340 aebc db73 563d c436 dd3d
00000340: bf77 4c3d 64d0 013e f1cd 893d ed1f b63e
00000350: 4541 973d 8731 3e3b 2945 febd b57e 453d
00000360: b6dd 723e cb63 1bbb 11ea 02bd c79c fc3a
00000370: 238c 143d ef67 f83c 827c 0e3e cc55 06be
00000380: 6bfc 8f3c c4c7 c6bd 3492 313e a37c 013c
00000390: fabf 333d 951f 68bc 00a1 a2be baa5 2d3e
000003a0: 4356 733d 5f0c 023d bc6a efbd 6008 ba3e
000003b0: fa77 d2bd b84b c0bc 8f90 f73d 2f1f 5c3e
000003c0: cb17 7bbd 2968 55be 90df 703d 4f3e 093d
000003d0: b54c 823e 8a6f e93d a98b 9b3e 10fd c6bd
000003e0: 92c1 a4bc a87d 893e 0ce6 4b3e d006 983b
000003f0: 6021 42ba 805b 17be 32a5 a43d 731c a33d

features_model.2.bias f4 [128]
0.14162362 0.07744588 0.006061256 -0.060796224 0.091311954 0.18238564 -0.01860186 0.0
0.1302288 0.16647598 -0.028463688 0.1325811 -0.0155288195 -0.022822576 -0.006570116 0.20806213
-0.005014899 0.05942992 -0.024908142 0.14526285 -0.005961718 0.17082295 -0.018485287 -0.045672704
0.20507409 0.14549394 -0.0010117535 -0.011325365 -0.0069876336 -0.0014328894 -0.028594855 0.15902953
0.11541934 0.13704184 0.2015166 0.11059785 -0.03355422 0.1105469 0.15489542 -0.0031121348
0.18180217 0.11660522 -0.035849623 -0.0067499517 0.09474698 -0.02414056 0.013988207 -0.012531319
-0.026644526 0.10210879 -0.013946625 -0.013292946 -0.019279141 0.10076057 -0.01137785 0.16767883
0.10685308 -0.007361385 0.08294683 -0.025013637 -0.024408033 0.032577924 -0.0032739681 0.00010303832
-0.010159974 -0.038024418 -0.006630872 0.17430829 0.16019174 0.11676213 0.023297291 -0.0051073236
-0.02718816 -0.025696391 0.13759525 0.14055705 0.14185077 0.0031262368 0.14260198 -0.019181393
0.0 0.015620157 -0.024522249 0.13311002 -0.014562189 0.13544458 -0.011268809 0.22072537
0.1116023 -0.0028522913 -0.009133882 0.02782736 0.13874364 -0.033350818 -0.019474778 0.1343089
-0.010664034 -0.01894887 0.04867887 0.21134394 -0.04572743 -0.037367392 0.0 -0.013110494
0.13299657 -0.0077622714 0.16183367 -0.052258205 -0.0005548816 -0.027247166 0.12001891 -0.04722888
-0.025871184 -0.011876772 0.120420955 0.23656084 0.16180792 0.15805323 -0.01321505 -0.04618189
0.00743841 -0.017050581 -0.014825689 0.071253814 -0.012900297 0.04637948 0.0 -0.0118540535
00000000: c805 113e f29b 9e3d 809d c63b 7605 79bd
00000010: c301 bb3d 4dc3 3a3e ee62 98bc 0000 0000
00000020: b35a 053e ae78 2a3e ae2c e9bc 57c3 073e
00000030: 976c 7ebc 69f6 babc 214a d7bb 3d0e 553e
00000040: 0654 a4bb ca6c 733d 290c ccbc c9bf 143e
00000050: 845a c3bb 36ec 2e3e 756e 97bc 4d13 3bbd
00000060: f1fe 513e 5dfc 143e d09c 84ba 068e 39bc
00000070: 85f8 e4bb cacf bbba c23f eabc a3d8 223e
00000080: fa60 ec3d b254 0c3e 5e5a 4e3e 2081 e23d
00000090: 2670 09bd 6a66 e23d e89c 1e3e f5f4 4bbb
000000a0: 592a 3a3e b8ce ee3d 0ed7 12bd b32e ddbb
000000b0: b40a c23d 6cc2 c5bc cb2e 653c 2950 4dbc
000000c0: 9f45 dabc 6a1e d13d 6380 64bc a8ca 59bc
000000d0: 4aef 9dbc 8f5b ce3d 296a 3abc 00b4 2b3e
000000e0: cad5 da3d c637 f1bb 07e0 a93d 66e9 ccbc
000000f0: 5bf3 c7bc 6e70 053d 1290 56bb 4716 d838
00000100: 0576 26bc 7ebf 1bbd c947 d9bb df7d 323e
00000110: 4e09 243e fc20 ef3d f6d9 be3c 565b a7bb
00000120: b4b9 debc 3d81 d2bc c5e5 0c3e 30ee 0f3e
00000130: 5441 113e 8de1 4c3b 4106 123e 4c22 9dbc
00000140: 0000 0000 b0eb 7f3c e2e2 c8bc fe4d 083e
00000150: 3f96 6ebc fcb1 0a3e d0a0 38bc d505 623e
00000160: bf8f e43d 82ed 3abb 47a6 15bc 34f6 e33c
00000170: d012 0e3e de9a 08bd 9289 9fbc 4688 093e
00000180: 33b8 2ebc a93a 9bbc 7f63 473d 8c6a 583e
00000190: b04c 3bbd 8d0e 19bd 0000 0000 66cd 56bc
000001a0: 4130 083e a75a febb bab7 253e b30c 56bd
000001b0: 7975 11ba 7335 dfbc 79cc f53d 1273 41bd
000001c0: ceef d3bc cb96 42bc 439f f63d 013d 723e
000001d0: fab0 253e b5d8 213e f083 58bc 3929 3dbd
000001e0: e8bd f33b a9ad 8bbc 72e7 72bc 85ed 913d
000001f0: c45b 53bc 69f8 3d3d 0000 0000 8137 42bc

features_model.4.weight f4 [128, 128]
0.1279101 -0.0001869322 0.05848755 -0.059247475 -0.01863177 -0.2212898 -0.25662068 0.0044812425
-0.07617045 0.014766951 -0.06015811 -0.16897526 -0.051794644 -0.050728817 -0.010388272 -0.041030005
0.13969985 0.09640793 -0.22357212 0.06232106 0.05610383 -0.28726673 -0.15004617 0.08769938
-0.10118565 0.07372266 0.36981347 -0.018307831 0.11155198 0.11348906 -0.029284231 -0.039313
0.031252738 -0.21386337 0.17994519 0.19674227 -0.18734257 -0.061213303 -0.030237127 0.035443682
-0.035190336 0.021012988 0.3348382 -0.13419583 0.06973916 0.17632836 -0.032986593 0.16192494
-0.2192759 0.021184167 0.05211622 0.05328244 -0.03443071 -0.14983128 -0.072703205 0.108041845
-0.06223571 -0.31544036 0.17438288 0.049912646 -0.14919259 -0.053939674 0.03794856 -0.036095675
-0.14549407 -0.08900957 0.03791722 -0.06819715 0.0742704 0.04529247 0.096248165 0.15736838
-0.13298215 -0.08573423 -0.033633746 0.06027428 -0.32092172 0.02881745 -0.09234154 -0.14036208
0.21276473 0.18822065 -0.009889487 -0.011803264 0.022119528 -0.12323485 0.018785186 0.060165886
0.00066572346 -0.1305381 0.054229297 0.036124337 -0.14940369 -0.10678826 -0.049868353 0.10068935
0.036191814 0.08484276 -0.008975237 0.0069092815 -0.043863088 -0.049533855 -0.11110716 0.081371725
-0.032935794 -0.19451094 -0.20478363 -0.032602962 -0.12923089 -0.13049245 0.2282972 0.14771251
0.0046840776 0.07433762 -0.035755076 0.04498401 -0.12778375 0.10263068 0.1464431 -0.09069677
0.10780673 -0.119574405 0.14240491 -0.22502176 -0.16105655 -0.1392359 -0.14005333 -0.040163558
-0.037475217 -0.10510359 0.120340645 -0.088527866 -0.12694214 -0.03376587 0.16993909 -0.14850345
-0.21422753 -0.091646284 0.03798859 -0.17575294 -0.04355975 0.13738072 0.033637516 0.018691914
-0.15444866 -0.048866637 0.28998795 -0.07540666 0.12528606 0.08967315 -0.07351211 0.21909092
0.10004932 0.043835342 -0.11837179 -0.033870578 -0.18408047 0.16878581 0.05061115 -0.0783734
-0.042078007 -0.12766026 0.06063384 -0.01682573 0.26190582 -0.033595376 0.04899097 -0.28180254
-0.008521579 -0.008627262 0.080800585 0.19035941 0.42023408 0.044584565 -0.026957493 -0.07284056
0.1231617 -0.2167834 -0.14879823 -0.3608513 0.06519541 -0.16217081 0.032159183 0.2250585
0.16081443 -0.007633675 -0.058152035 -0.09090737 0.23358807 0.26599973 0.078537114 -0.1013575
0.068247736 -0.020225255 -0.0026279453 0.094407655 0.19592574 -0.16801186 0.1464616 0.072907396
-0.036072027 0.09059264 -0.046933983 0.09935882 -0.09923565 -0.08863438 0.09386345 -0.13352783
0.09335628 0.0027152868 -0.004955215 -0.034195296 0.015599465 -0.14126389 -0.0103056915 -0.2340006
0.14283153 0.21041468 0.038957894 0.15987341 0.08870839 0.013920167 -0.06339036 0.0064784302
-0.008423747 0.1385851 -0.0120051345 -0.039723564 0.21639743 0.034835707 -0.19973753 -0.013552274
0.1307112 -0.035734642 -0.045675185 -0.15918066 -0.11211237 0.04676637 -0.028281666 0.031890374
0.09470273 -0.11564257 0.09817093 0.105376884 -7.0638416e-05 -0.04852702 0.15932427 -0.1108146
0.18502721 0.05050398 -0.012130388 -0.065229714 -0.1268272 -0.10103084 -0.034400105 0.20957494
00000000: defa 023e 3b03 44b9 a490 6f3d 7bad 72bd
00000010: a7a1 98bc cb99 62be c963 83be 63d7 923b
00000020: 41ff 9bbd 15f1 713c 5a68 76bd da07 2dbe
00000030: 9f26 54bd 05c9 4fbd 9233 2abc 140f 28bd
00000040: 7a0d 0f3e 8571 c53d 17f0 64be 5e44 7f3d
00000050: 21cd 653d a014 93be b4a5 19be bc9b b33d
00000060: 6c3a cfbd e8fb 963d 3158 bd3e 4efa 95bc
00000070: 5d75 e43d f46c e83d 7ce5 efbc ab06 21bd
00000080: df02 003d 00ff 5abe 8d43 383e ce76 493e
00000090: bbd6 3fbe cdba 7abd dab3 f7bc 652d 113d
000000a0: be23 10bd 6e23 ac3c ea6f ab3e a26a 09be
000000b0: 68d3 8e3d 6c8f 343e f31c 07bd a7cf 253e
000000c0: dd89 60be 6b8a ad3c d177 553d b03e 5a3d
000000d0: 3707 0dbd 5f6d 19be 6be5 94bd 0b45 dd3d
000000e0: dfea 7ebd 6681 a1be 6d91 323e 3471 4c3d
000000f0: f1c5 18be d9ef 5cbd f36f 1b3d 0fd9 13bd
00000100: 66fc 14be a64a b6bd 164f 1b3d f3aa 8bbd
00000110: 141b 983d 9984 393d c21d c53d 2d25 213e
00000120: 792c 08be 6e95 afbd 8ac3 09bd 2ae2 763d
00000130: da4f a4be 9312 ec3c 901d bdbd 14bb 0fbe
00000140: ffde 593e eabc 403e 8407 22bc 7a62 41bc
00000150: 0334 b53c 8e62 fcbd 64e3 993c 8170 763d
00000160: f283 2e3a c8ab 05be 8a1f 5e3d 1df7 133d
00000170: 48fd 18be ceb3 dabd c242 4cbd 3836 ce3d
00000180: de3d 143d 0ac2 ad3d df0c 13bc 4167 e23b
00000190: c8a9 33bd 03e4 4abd 278c e3bd 38a6 a63d
000001a0: afe7 06bd e02d 47be cdb2 51be af8a 05bd
000001b0: 1a55 04be d09f 05be bec6 693e f341 173e
000001c0: e47c 993b 523e 983d ea73 12bd 2741 383d
000001d0: bed9 02be 0930 d23d 2ef5 153e 3abf b9bd
000001e0: c6c9 dc3d 6de3 f4bd 98d2 113e 1b6c 66be
000001f0: 02ec 24be db93 0ebe 246a 0fbe 8b82 24bd
00000200: 9d7f 19bd 8d40 d7bd 2875 f63d 194e b5bd
00000210: 1ffd 01be 154e 0abd 8304 2e3e 4a11 18be
00000220: 765e 5bbe 0cb1 bbbd ec99 1b3d 94f8 33be
00000230: b56b 32bd 88ad 0c3e 7ec7 093d c91f 993c
00000240: ca27 1ebe 6228 48bd 4d79 943e cf6e 9abd
00000250: fd4a 003e 8ea6 b73d 848d 96bd 5f59 603e
00000260: a8e6 cc3d b08c 333d e96c f2bd e0bb 0abd
00000270: 977f 3cbe 30d6 2c3e a34d 4f3d 3c82 a0bd
00000280: fd59 2cbd 5fb9 02be 305b 783d 1dd6 89bc
00000290: 8518 863e 4e9b 09bd c1aa 483d 6c48 90be
000002a0: 189e 0bbc 5c59 0dbc c77a a53d 94ed 423e
000002b0: ec28 d73e 4e9e 363d f6d5 dcbc 6e2d 95bd
000002c0: 343c fc3d 78fc 5dbe 905e 18be 80c1 b8be
000002d0: 2c85 853d 1b10 26be 59b9 033d bc75 663e
000002e0: 8aac 243e e823 fabb d430 6ebd a52d babd
000002f0: b631 6f3e 1e31 883e 11d8 a03d 8594 cfbd
00000300: 78c5 8b3d 6faf a5bc 9b39 2cbb cd58 c13d
00000310: c2a0 483e 4d0b 2cbe 08fa 153e 7950 953d
00000320: 43c0 13bd a288 b93d d93d 40bd a37c cb3d
00000330: 0f3c cbbd f185 b5bd 7b3b c03d 85bb 08be
00000340: 9431 bf3d f4f2 313b 5b5f a2bb 5e10 0cbd
00000350: e694 7f3c 7ba7 10be 34d9 28bc da9d 6fbe
00000360: 6e42 123e f276 573e 5092 1f3d dbb5 233e
00000370: bfac b53d 6a11 643c ced2 81bd 0349 d43b
00000380: c103 0abc 41e9 0d3e 2fb1 44bc 2db5 22bd
00000390: 4a97 5d3e e3af 0e3d ff87 4cbe 5b0a 5ebc
000003a0: 28d9 053e 7d5e 12bd e715 3bbd 4100 23be
000003b0: 2c9b e5bd 188e 3f3d f4ae e7bc 7b9f 023d
000003c0: 81f3 c13d 03d6 ecbd d70d c93d d6cf d73d
000003d0: b623 94b8 45c4 46bd e725 233e c4f2 e2bd
000003e0: c677 3d3e 43dd 4e3d 89be 46bc 2897 85bd
000003f0: fdde 01be 42e9 cebd 20e7 0cbd d09a 563e

features_model.4.bias f4 [128]
-0.030294603 -0.016892103 -0.021547629 -0.027989516 0.15139692 -0.022995036 -0.028795613 -0.019745994
-0.018140754 -0.015861975 -0.017525034 0.09816235 -0.011584249 0.07686825 0.019591395 -0.029796869
-0.011236957 -0.00076785666 -0.0075255996 0.12144882 -0.0012062404 0.07525029 -0.014921961 -0.0086386
0.083465815 0.027793784 -0.024185248 0.0343837 -0.018303234 0.12937425 0.070221215 -0.0019308188
-0.011157602 0.07800715 -0.0077599785 0.09284472 0.0029193638 0.0 0.12000514 -0.02006545
-0.018075163 -0.010832619 0.07934669 -0.0007444429 -0.017336868 -0.011231496 -0.012123204 0.0885022
0.12663165 0.216332 0.04887232 -0.031390484 -0.020847732 0.0062194555 -0.021626217 -0.012979334
0.0 0.006563201 -0.01919157 0.03925844 -0.0008956556 0.03091908 0.16957872 -0.0238691
0.18097967 0.012879806 0.11012221 0.011154817 -0.002772711 0.06042145 0.0729172 -0.017719813
-0.016925843 -0.020920832 -0.01869452 0.08757439 0.001218668 0.040040825 0.10731512 -0.0241051
0.013501797 0.023083571 0.14309828 -0.023847796 -0.03339333 -0.014770963 0.12115104 0.1351321
-0.041100174 -0.02604724 -0.01888321 0.008552468 0.1711497 -0.025732534 0.15067373 -0.033495635
0.16708016 0.09767121 0.15827782 0.18217862 -0.040794495 -0.024481805 -0.0034450565 0.039619863
0.16927199 0.15459242 -0.0028203463 -0.019511625 0.18953593 -0.019534638 -0.023520587 0.056519207
0.009433933 -0.01242279 0.17487484 0.034007784 -0.028285854 0.10118621 -0.021057975 0.15123604
-0.0026171904 0.07470953 -0.018573143 0.0 0.17853232 0.12382584 0.011030869 0.07838048
00000000: 632c f8bc 4f61 8abc a784 b0bc 454a e5bc
00000010: cb07 1b3e 1660 bcbc c7e4 ebbc 5ac2 a1bc
00000020: eb9b 94bc f9f0 81bc a990 8fbc 5809 c93d
00000030: ddcb 3dbc 1a6d 9d3d 227e a03c 9018 f4bc
00000040: 371b 38bc fd49 49ba 4e99 f6bb 29ba f83d
00000050: b61a 9eba d31c 9a3d 3e7b 74bc ea88 0dbc
00000060: 20f0 aa3d caaf e33c 2420 c6bc ecd5 0c3d
00000070: aaf0 95bc af7a 043e 24d0 8f3d 8713 fdba
00000080: 60ce 36bc 36c2 9f3d 6b47 febb 5f25 be3d
00000090: cc52 3f3b 0000 0000 41c5 f53d 4c60 a4bc
000000a0: 5d12 94bc 4c7b 31bc 8480 a23d b826 43ba
000000b0: 0c06 8ebc 4f04 38bc 67a0 46bc a440 b53d
000000c0: baab 013e 2386 5d3e 582e 483d 4f93 00bd
000000d0: ddc8 aabc 93cc cb3b 7729 b1bc 46a7 54bc
000000e0: 0000 0000 1f10 d73b a437 9dbc 75cd 203d
000000f0: 6eca 6aba 034a fd3c 0ba6 2d3e 2189 c3bc
00000100: bc52 393e d205 533c c187 e13d b2c2 363c
00000110: 5fb6 35bb 7b7c 773d 9d55 953d 2429 91bc
00000120: 11a8 8abc 2a62 abbc 4025 99bc 345a b33d
00000130: b6bb 9f3a d901 243d 08c8 db3d 0f78 c5bc
00000140: a436 5d3c c219 bd3c 5b88 123e 745c c3bc
00000150: 72c7 08bd e901 72bc 091e f83d 1260 0a3e
00000160: a858 28bd 0561 d5bc f6b0 9abc a71f 0c3c
00000170: de41 2f3e 09cd d2bc 374a 1a3e b832 09bd
00000180: 1017 2b3e d807 c83d 9513 223e 088d 3a3e
00000190: 2118 27bd 118e c8bc 75c6 61bb 7048 223d
000001a0: a355 2d3e 7a4d 1e3e 8fd5 38bb d8d6 9fbc
000001b0: b515 423e 1b07 a0bc 3fae c0bc af80 673d
000001c0: c890 1a3c f588 4bbc 6412 333e bf4b 0b3d
000001d0: bcb7 e7bc b73a cf3d c681 acbc 9fdd 1a3e
000001e0: 2b85 2bbb 4f01 993d b426 98bc 0000 0000
000001f0: 2dd1 363e 6798 fd3d d1ba 343c f285 a03d

policy_model.0.weight f4 [128, 128]
0.0019041691 0.0024805828 -0.0017797013 -0.0014851048 -0.0005470242 -0.002136836 -0.0025834194 -0.001286043
-0.0017655767 0.0016516428 -0.0011577907 -0.0018487186 -0.0021873172 0.00026514032 -0.0025721453 -0.0016344155
-0.0029211317 0.00042798909 -0.0011925537 -0.0034998828 0.0029534956 -0.0045777876 -0.0023383845 0.000108697786
3.7825404e-05 -0.001280686 -0.001212793 -0.0014393193 -0.0018453873 0.001336102 -0.0053206263 -0.00010460901
-0.0001005613 -0.0036774098 0.0004252481 -0.0043032537 -8.8569184e-05 -0.0009175332 -0.005088068 -0.002913615
-0.0002043278 -0.0009938407 -0.0007324342 0.0024067056 0.00018058713 0.0002981132 0.0016343492 -0.0008851129
-0.0006749896 -0.0011464959 -0.001893757 -0.0020893896 -0.001219487 0.0011463582 -0.0018734874 0.0006987973
-0.0006750936 -0.003426491 -0.0019130429 -0.002387654 -0.0017857933 -0.0016481562 -0.0007326067 -0.0007741634
0.0010741228 0.0018265333 0.002845373 -0.0024121713 6.480503e-05 -0.007156652 -0.005558174 -0.0014492677
0.0019031012 0.0009416681 -0.0025673022 0.0012486377 -7.9757076e-05 -0.00047776717 0.001456526 -0.0017560024
0.00091564865 0.0002116744 -0.0004556147 -0.0010172873 -0.0021765388 0.00214445 -0.008361451 -0.006354316
-0.0017417029 0.0029832325 -0.0016901663 -0.002829627 0.0015257779 -0.0028095054 -0.0009832644 0.0008342982
-0.0010005275 -0.0056664776 0.0018725243 0.00017859122 0.00021279081 -0.0017853801 -0.00062931224 0.00015347205
-0.001344987 -0.0017630568 0.0014188024 -0.002373475 0.00049916765 -0.00039144434 0.0012438631 -0.0027554878
-0.00027593836 -0.0032707232 0.00032172995 -0.0025928097 -0.0018837554 -0.0070071523 -0.0014994901 -0.00462014
-0.0021421327 -0.0068807392 1.5554751e-05 0.00015968697 -0.0060613193 -0.004441308 -0.00017306008 -0.0018065218
-0.05356942 0.004944682 0.0136121735 0.012650982 0.037795957 0.015740108 0.021998428 -0.008848563
0.017791532 -0.016147183 -0.00016661195 0.05837523 0.048212815 0.04186709 0.068993345 0.01614229
0.035501264 0.013882603 0.00057907234 0.06637792 0.008213866 0.082276314 0.012078337 0.006052813
0.07770996 0.029683018 0.036896728 0.0479886 0.006659479 0.035125617 0.07362545 0.028050525
0.0060367086 0.032101948 0.0056288713 0.07737341 -0.019121535 -0.0005363126 0.052237283 0.0025548746
-0.009724382 0.015798852 0.086244136 -0.00854648 0.0025062456 0.017914822 -0.022505293 0.07318854
0.029062744 0.0037105766 0.013818347 0.036550038 0.01740118 0.022098307 0.01479371 2.6035977e-05
0.00013949178 0.0016668522 0.020689225 0.058355626 0.00073239143 0.011339922 0.0053322017 0.013699731
-0.037237145 0.029052027 0.06828905 -0.009868504 0.007856549 0.065517634 0.070136346 0.05588509
0.021552598 -0.018909533 0.01389532 0.05628868 0.0012070519 0.08596732 -0.0073761563 0.0055265394
0.017431138 -0.027610049 -0.019007398 0.00067445985 0.024328874 0.017137922 0.058107413 0.05301518
0.009790357 0.014518317 0.03235588 0.029241143 -0.0019497891 -0.000256742 0.005946767 -0.024172403
0.042818166 0.06960002 -0.021485252 0.0004869254 0.0044308035 0.031514615 0.05958351 0.06974299
-0.012705153 0.061921183 0.037256546 0.048743498 -0.033892203 0.0064892187 0.012263446 0.0045730937
0.0690964 0.010231626 0.03193741 0.031292733 0.0045003495 0.06883961 0.012073973 0.058278427
-0.0016723751 0.07123052 0.03259647 -0.00072916516 0.044181455 0.06820153 0.007301817 0.082019575
00000000: 5095 f93a 4691 223b de44 e9ba d9a7 c2ba
00000010: 2c66 0fba 290a 0cbb 964e 29bb 7190 a8ba
00000020: ec6a e7ba f07b d83a 02c1 97ba b450 f2ba
00000030: 1859 0fbb 8802 8b39 7091 28bb e239 d6ba
00000040: 7570 3fbb b963 e039 764f 9cba 4a5e 65bb
00000050: 6f8f 413b 4401 96bb 953f 19bb aef4 e338
00000060: b8a6 1e38 b1dc a7ba 95f6 9eba 8ba7 bcba
00000070: ece0 f1ba 2520 af3a a658 aebb 8961 dbb8
00000080: 70e4 d2b8 b300 71bb d5f3 de39 4f02 8dbb
00000090: 38be b9b8 9c86 70ba cfb9 a6bb 59f2 3ebb
000000a0: d340 56b9 c343 82ba d400 40ba d2b9 1d3b
000000b0: fd5b 3d39 144c 9c39 a937 d63a ec06 68ba
000000c0: c9f1 30ba 0546 96ba f137 f8ba 24ee 08bb
000000d0: 32d7 9fba 6641 963a ce8f f5ba 7e2f 373a
000000e0: c4f8 30ba fb8e 60bb 11bf faba 307a 1cbb
000000f0: 4811 eaba f206 d8ba 670c 40ba 3af1 4aba
00000100: 95c9 8c3a 4a68 ef3a 7079 3a3b 8515 1ebb
00000110: f0e7 8738 5982 eabb 5821 b6bb 5bf5 bdba
00000120: 7b71 f93a 47da 763a 2f40 28bb 54a9 a33a
00000130: 4143 a7b8 d37c fab9 e7e8 be3a aa29 e6ba
00000140: 2408 703a eaf4 5d39 92df eeb9 7f56 85ba
00000150: 43a4 0ebb e789 0c3b 78fe 08bc de37 d0bb
00000160: da49 e4ba 5682 433b 9288 ddba 4371 39bb
00000170: 9cfc c73a ae1f 38bb e1e0 80ba ceb4 5a3a
00000180: 2224 83ba dcad b9bb 7d6f f53a 3744 3b39
00000190: 9920 5f39 6a03 eaba 6ef8 24ba 57ed 2039
000001a0: 464a b0ba 5f16 e7ba 1cf7 b93a 4e8c 1bbb
000001b0: 93da 023a c53a cdb9 1f09 a33a 6a95 34bb
000001c0: d2ab 90b9 a159 56bb ddad a839 21ec 29bb
000001d0: 58e8 f6ba 419c e5bb 8a8a c4ba 8b64 97bb
000001e0: 0663 0cbb d377 e1bb 937b 8237 a571 2739
000001f0: 089e c6bb 6488 91bb 7677 35b9 d0c8 ecba
00000200: 9c6b 5bbd 0007 a23b 9805 5f3c 1046 4f3c
00000210: efcf 1a3d 66f1 803c 0c36 b43c 90f9 10bc
00000220: 8cbf 913c 1947 84bc 8eb4 2eb9 dd1a 6f3d
00000230: cd7a 453d d37c 2b3d 624c 8d3d d63c 843c
00000240: c669 113d db73 633c e3cc 173a 26f1 873d
00000250: 7393 063c 7c80 a83d 38e4 453c ad56 c63b
00000260: 6626 9f3d cd29 f33c 0621 173d b28f 443d
00000270: c237 da3b e1df 0f3d f1c8 963d 37ca e53c
00000280: 95cf c53b 557d 033d 6572 b83b f375 9e3d
00000290: c4a4 9cbc 5497 0cba c3f6 553d af6f 273b
000002a0: 0453 1fbc 986c 813c c4a0 b03d 8906 0cbc
000002b0: d33f 243b 1bc2 923c 055d b8bc e0e3 953d
000002c0: fe14 ee3c 252d 733b 5966 623c 7eb5 153d
000002d0: eb8c 8e3c 8207 b53c 5161 723c d667 da37
000002e0: 8a44 1239 477a da3a 737c a93c 4f06 6f3d
000002f0: f5fd 3f3a 15cb 393c c0b9 ae3b d674 603c
00000300: fa85 18bd 84fe ed3c 21db 8b3d 81af 21bc
00000310: c1b8 003c 1c2e 863d a5a3 8f3d c4e7 643d
00000320: 138f b03c 2ae8 9abc 32a9 633c f58e 663d
00000330: f135 9e3a a20f b03d afb3 f1bb f917 b53b
00000340: bfcb 8e3c 782e e2bc 67b5 9bbc 3cce 303a
00000350: 594d c73c d464 8c3c 0a02 6e3d 7226 593d
00000360: bc67 203c 3cde 6d3c 9987 043d 1f8b ef3c
00000370: 1190 ffba 549b 86b9 19dd c23b 3405 c6bc
00000380: 1a62 2f3d 758a 8e3d d701 b0bc 054a ff39
00000390: 4630 913b 7815 013d d70d 743d 6ad5 8e3d
000003a0: 4629 50bc 11a1 7d3d 529a 183d 43a7 473d
000003b0: 8dd2 0abd 83a3 d43b 9fec 483c e4d9 953b
000003c0: 6a82 8d3d 8da2 273c cdd0 023d cf2c 003d
000003d0: ab77 933b c8fb 8c3d ead1 453c 5cb5 6e3d
000003e0: 9933 dbba 4fe1 913d e083 053d 7225 3fba
000003f0: 9df7 343d 3ead 8b3d 1544 ef3b e1f9 a73d

policy_model.0.bias f4 [128]
-0.0011417501 0.06992844 -0.0014982655 0.00018066491 2.1657543e-05 -0.0001491374 -0.005570961 -0.010237683
0.0015422624 -0.0014995139 -0.0015009871 -0.014329842 -0.016941998 0.01404973 0.0002597546 0.0003440429
0.0069249487 -0.017277228 -0.0014963433 -0.0014578769 -0.011548331 -0.0081964275 0.0076030684 -0.00038112613
-0.015248217 -0.0015008727 -0.011885796 -0.01380018 -0.007865691 -0.0014984334 -0.008706175 -0.006354336
-0.013687721 -0.006755752 -0.001500609 -0.006503699 -0.0008502196 -0.0011991822 -0.017633224 -0.013894195
0.06680397 -0.014600538 0.0062269606 -0.0014993733 -0.0012826791 0.034046452 -0.016221525 -0.010073476
-0.009328393 0.002414612 -0.010376343 -0.001371411 -0.0037584372 0.004025974 -0.01292445 0.0
0.0 -0.0020962944 -0.01712801 -0.001275721 -0.016520973 -0.001489098 -0.0014970349 0.0037946778
-0.0038864845 -0.001500738 -0.0017543057 -0.015517143 -0.00848324 -0.00427842 -0.007848232 -0.0077784876
-0.0010024008 -0.005178268 0.0009946498 -0.003760655 -0.0014975681 -0.015933616 -0.015098061 -0.0015000735
0.02629909 -0.016479421 -0.014018599 -0.0005328667 0.005242542 -0.0011631271 -0.0008377505 0.10329478
-0.01016263 -0.017829213 -0.0014979397 -0.0035862254 -0.00030886714 -0.007136034 -0.0019211574 -0.009067198
-0.017229568 -0.0014995453 -0.015599182 -0.015746066 0.0024115385 -0.010106333 -0.0029666997 -0.0051058135
-0.0063800705 0.005802648 0.010939079 -0.010752157 -0.0012779451 -0.0014997962 -0.0066638454 -0.010622878
-0.010713303 -0.000110316134 -0.00068794546 -0.0016552908 -0.00815932 -0.015067906 -0.0012245595 -0.001484655
-0.01297877 0.04182646 -0.0012879611 0.0031065075 -0.0035848548 -0.00359203 0.0061221654 -0.003063017
00000000: c7a6 95ba a436 8f3d 7361 c4ba de70 3d39
00000010: 38ad b537 c461 1cb9 9c8c b6bb f4bb 27bc
00000020: bd25 ca3a 568b c4ba c5bc c4ba b7c7 6abc
00000030: f2c9 8abc d730 663c ac2f 8839 a860 b439
00000040: aeea e23b f988 8dbc f320 c4ba 3b16 bfba
00000050: 3635 3dbc 4f4a 06bc 2923 f93b e2d1 c7b9
00000060: a8d3 79bc eeb8 c4ba a4bc 42bc 261a 62bc
00000070: 19df 00bc 1567 c4ba 58a4 0ebc 0938 d0bb
00000080: 7742 60bc 5b5f ddbb 15b0 c4ba fb1c d5bb
00000090: 46e1 5eba e12d 9dba 8d73 90bc 7aa4 63bc
000000a0: 85d0 883d 1837 6fbc 880b cc3b 9f86 c4ba
000000b0: 921f a8ba 4b74 0b3d 01e3 84bc 380b 25bc
000000c0: 1ed6 18bc 783e 1e3b 8901 2abc ebc0 b3ba
000000d0: 1d50 76bb 51ec 833b 13c1 53bc 0000 0000
000000e0: 0000 0000 fc61 09bb 0a50 8cbc 1836 a7ba
000000f0: fe56 87bc d62d c3ba 2838 c4ba 21b0 783b
00000100: 64b4 7ebb 69b4 c4ba bbf0 e5ba 9d3b 7ebc
00000110: 4afd 0abc fd31 8cbb df95 00bc afe2 febb
00000120: fd62 83ba 76ae a9bb e95e 823a 5275 76bb
00000130: 0c4a c4ba 3787 82bc dc5d 77bc 1d9e c4ba
00000140: 3071 d73c daff 86bc 44ae 65bc 14b0 0bba
00000150: a1c9 ab3b 1274 98ba 7c9c 5bba 378c d33d
00000160: 2981 26bc 920e 92bc 8456 c4ba e106 6bbb
00000170: 72ef a1b9 64d5 e9bb 58cf fbba 968e 14bc
00000180: 0625 8dbc 648c c4ba b693 7fbc e5fd 80bc
00000190: e70a 1e3b 0895 25bc f66c 42bb ab4e a7bb
000001a0: e90f d1bb 2424 be3b d339 333c d129 30bc
000001b0: b980 a7ba cf94 c4ba 635c dabb 940b 2ebc
000001c0: da86 2fbc 8659 e7b8 3d57 34ba 58f6 d8ba
000001d0: abae 05bc 61df 76bc 6681 a0ba c198 c2ba
000001e0: e8a4 54bc 3952 2b3d ced0 a8ba 8c96 4b3b
000001f0: e2ef 6abb 4368 6bbb 729c c83b e6bc 48bb

policy_model.2.weight f4 [8, 128]
-0.0018078343 -0.041865073 0.0017249605 0.00080096314 -0.0019682467 0.0007883454 -0.015412736 -0.0063643875
0.005555209 -0.00016256726 -0.0018161507 -0.005642033 -0.0053655836 0.0036776904 0.0024507213 0.0012158077
0.003693336 -0.0069144135 0.0010009056 -0.002591458 -0.005651887 -0.0073160776 0.015565613 0.0007064507
-0.0075708283 0.0016423524 -0.0026076925 -0.006694652 -0.015815 -0.00083358644 -0.008127774 0.00045570155
-0.00888077 -0.009688404 0.0017549412 -0.0075502237 -0.0011592811 0.0010916123 -0.007000468 -0.008363113
-0.060290422 -0.0066980035 0.003468957 -0.0015409295 0.0012805326 -0.07491483 -0.007628259 -0.0028641133
-0.0073620193 0.0046824487 -0.007434327 -0.0055301124 0.004431037 0.00454108 -0.0052721566 -0.00022551893
0.0017280197 0.001266645 -0.006682116 -2.451288e-05 -0.006521637 -0.00046371666 -0.0006562424 0.004154853
-0.007784494 0.0010280797 0.00097574637 -0.005774789 -0.006491703 -0.00469266 -0.0074041546 -0.008284341
-6.275886e-05 0.0030746132 0.0018570005 -0.00076229527 0.0023037428 -0.008246764 -0.0050322386 5.31324e-05
0.025543598 -0.005587721 -0.0017121398 0.0012261329 0.004223397 0.0011169194 -0.00010874683 -0.08270052
-0.0056136893 -0.006424326 0.001570658 -0.0074984133 0.0024378493 -0.006577357 0.001186998 -0.014961154
-0.0060189073 0.0034453461 -0.004554175 -0.0070972 0.0037349965 -0.0066981404 0.0027958017 0.00027506036
6.244521e-05 0.0035808792 -0.028868502 -0.0072159613 -9.249044e-05 0.0022582593 -0.006466121 -0.0040694326
-0.0025365015 -9.7834956e-05 0.003883494 0.00075816084 -0.0015493371 -0.0062279734 0.0009616875 -0.00031699805
-0.007284367 -0.07395692 -0.00037814677 -0.002799848 -0.000121011006 -0.002133282 0.0045853974 0.000849748
0.001059876 0.035591442 -0.00065334234 -0.000706236 0.00041250122 -0.0009204017 0.027512508 -0.01079493
-0.008334304 -0.00017606985 0.003261046 -0.009150849 -0.008674885 -0.0068992563 -0.0025764727 -0.005200819
-0.0024332365 -0.008411497 0.0018537593 -0.0008698227 -0.011975989 -0.0102904895 -0.008855046 -0.00049837533
-0.008605491 0.0008105651 -0.0034179937 -0.00775404 0.002990937 -0.0015161065 -0.010317603 0.0027823509
-0.007640941 -0.004321975 0.0005485388 -0.009041923 0.0010261559 -0.0013398543 -0.008385776 -0.011562865
0.059662357 -0.010227635 -0.005544897 0.0026243303 0.00016603715 -0.01604936 -0.008567398 -0.0022061027
-0.008880114 -0.0071275085 -0.012882469 -0.0010950825 -0.0042232615 -0.007055047 -0.009990737 0.0015152614
0.0019239375 0.0015136178 -0.007231114 -0.0006374238 -0.0089898985 0.00024059559 -0.0013575603 -0.008444267
-0.0061978963 -0.0007192017 -0.0004394246 -0.0083000185 -0.008441474 -0.004951362 -0.0071207285 -0.009233719
-0.0018643554 0.0016535833 -0.0042066607 -0.0009753001 0.003599667 -0.00863503 -0.010308323 -0.0013748603
-0.0017352354 -0.008430094 -0.0028599743 -0.0012255968 -0.0069472687 -0.0010840109 0.0014327307 0.025463719
-0.009924403 -0.00985518 0.0016030554 -0.0026630296 -0.00011494514 -0.010766174 -0.00034453988 0.002132055
-0.007878105 0.0004295706 -0.008167083 -0.008864978 -0.006645181 -0.010484255 0.00395691 -8.1293285e-05
0.0069812713 -0.0063150893 -0.0102264825 -0.007791467 -0.00071850204 -0.00083696697 -0.0077232644 -0.0039603026
-0.0022800032 0.00015975036 0.0020761243 -0.0037894074 -0.000103773666 -0.008966588 -0.0009527699 -0.00011376218
-0.008245406 -0.009512827 0.00015322494 0.0023229572 -0.0012527419 -0.002994266 -0.007964366 -0.001749984
00000000: daf4 ecba b67a 2bbd 1218 e23a baf7 513a
00000010: b3fd 00bb f7a8 4e3a b385 7cbc 5a8c d0bb
00000020: 7808 b63b d176 2ab9 e80b eeba cee0 b8bb
00000030: c7d1 afbb 6805 713b 489c 203b bd5b 9f3a
00000040: e50b 723b 4e92 e2bb d230 833a 73d5 29bb
00000050: 7733 b9bb b5bb efbb ea06 7f3c 1b31 393a
00000060: b614 f8bb 3444 d73a d2e5 2abb d05e dbbb
00000070: 758e 81bc 0a85 5aba 5b2a 05bc 3aeb ee39
00000080: a680 11bc 1dbc 1ebc 0e06 e63a de67 f7bb
00000090: 05f3 97ba 6e14 8f3a 2f64 e5bb 7005 09bc
000000a0: 17f3 76bd ed7a dbbb 7157 633b 04f9 c9ba
000000b0: 8bd7 a73a f26c 99bd 79f6 f9bb d9b3 3bbb
000000c0: 183d f1bb 3a6f 993b a89b f3bb f235 b5bb
000000d0: 3c32 913b 57cd 943b 0ec2 acbb 4779 6cb9
000000e0: b87e e23a 8e05 a63a a7f5 dabb 02a1 cdb7
000000f0: 75b3 d5bb ff1e f3b9 af07 2cba 6f25 883b
00000100: 1215 ffbb a1c0 863a 3bc9 7f3a 713a bdbb
00000110: 5ab8 d4bb e3c4 99bb 8d9e f2bb 0bbb 07bc
00000120: 689d 83b8 737f 493b 9966 f33a c5d4 47ba
00000130: 64fa 163b 6f1d 07bc 7ae5 a4bb 7bda 5e38
00000140: cf40 d13c 3319 b7bb e169 e0ba 31b6 a03a
00000150: 6c64 8a3b 9965 923a 030f e4b8 e45e a9bd
00000160: 0af3 b7bb 2783 d2bb 89de cd3a 40b5 f5bb
00000170: 53c4 1f3b df86 d7bb 0b95 9b3a a11f 75bc
00000180: 413a c5bb 51cb 613b 303b 95bb a18f e8bb
00000190: d8c6 743b 137c dbbb c539 373b fa35 9039
000001a0: 04f5 8238 2fad 6a3b a37d ecbc df73 ecbb
000001b0: 6df7 c1b8 4eff 133b c1e1 d3bb e058 85bb
000001c0: 6f3b 26bb be2c cdb8 3882 7e3b 50bf 463a
000001d0: 2013 cbba 0714 ccbb c119 7c3a c232 a6b9
000001e0: b3b1 eebb ba76 97bd 0042 c6b9 a87d 37bb
000001f0: 4ac7 fdb8 88ce 0bbb 1a41 963b 9fc1 5e3a
00000200: 8aeb 8a3a 55c8 113d 1045 2bba b222 39ba
00000210: fa44 d839 1d47 71ba e961 e13c 38dd 30bc
00000220: 9b8c 08bc 649f 38b9 46b7 553b 71ed 15bc
00000230: 1b21 0ebc 2813 e2bb 0ada 28bb a26b aabb
00000240: ef76 1fbb 60d0 09bc d7f9 f23a d004 64ba
00000250: f036 44bc 7199 28bc c114 11bc 67a5 02ba
00000260: 0cfe 0cbc 1a7c 543a 6b00 60bb 9a15 febb
00000270: 9903 443b 18b8 c6ba 2a0b 29bc 1a58 363b
00000280: dc60 fabb 5b9f 8dbb d1cb 0f3a 9324 14bc
00000290: 1480 863a 0d9e afba 7e64 09bc 2c72 3dbc
000002a0: 8460 743d cf91 27bc f8b1 b5bb f5fc 2b3b
000002b0: 421a 2e39 f379 83bc 465e 0cbc 4394 10bb
000002c0: e67d 11bc e08d e9bb fe10 53bc df88 8fba
000002d0: 4963 8abb 062e e7bb 30b0 23bc bc9b c63a
000002e0: a12c fc3a 9664 c63a fbf2 ecbb c918 27ba
000002f0: 5e4a 13bc 6348 7c39 2af0 b1ba d359 0abc
00000300: b917 cbbb cf88 3cba 9262 e6b9 cdfc 07bc
00000310: 1c4e 0abc 093f a2bb 0055 e9bb 0649 17bc
00000320: 635d f4ba 0cbd d83a 07d8 89bb 48ab 7fba
00000330: 64e8 6b3b f179 0dbc 3ee4 28bc a834 b4ba
00000340: d770 e3ba 611e 0abc 686e 3bbb 34a4 a0ba
00000350: eaa5 e3bb 5f15 8eba 77ca bb3a 4a99 d03c
00000360: f799 22bc 9f77 21bc 9d1d d23a 3986 2ebb
00000370: b40e f1b8 9b64 30bc 5ca3 b4b9 f2b9 0b3b
00000380: 2b13 01bc fd37 e139 3bcf 05bc 6a3e 11bc
00000390: d2bf d9bb 27c6 2bbc f8a8 813b 007c aab8
000003a0: 26c3 e43b cfee cebb fa8c 27bc 904f ffbb
000003b0: db59 3cba e767 5bba 7013 fdbb 6dc5 81bb
000003c0: 1b6c 15bb a982 2739 960f 083b b557 78bb
000003d0: 10a1 d9b8 99e8 12bc 4ec3 79ba 9b93 eeb8
000003e0: bd17 07bc b0db 1bbc 02ab 2039 c13c 183b
000003f0: 0b33 a4ba 733b 44bb f97c 02bc b85f e5ba

policy_model.2.bias f4 [8]
-0.02193268 0.008970633 0.03757734 0.010931732 -0.012293561 -0.0026812176 0.026256366 -0.05488558
00000000: 2aac b3bc 90f9 123c b2ea 193d 021b 333c
00000010: ef6a 49bc 5eb7 2fbb 9717 d73c b4cf 60bd
