results/short_race/second_iteration_training/model793.pt (torch, 276107 bytes, 13 tensors)

features_model.0.weight f4 [128, 4]
0.00046965218 0.1362177 0.07688764 -0.3083815 0.031795017 -0.07127373 -1.4353563e-05 0.03194556
0.16003144 0.018462671 -0.033621956 0.28628135 0.1828156 -0.09564923 -0.056618158 -0.10102593
0.047229916 -0.0002548698 0.049157392 -0.038828794 0.048859432 0.056607004 0.2397719 -0.197804
-0.015093238 -0.033918247 0.10648247 0.31677213 0.008651464 -0.01831457 0.07294814 0.30942228
-0.18559296 0.05554293 0.12383354 0.0047795987 -0.012813338 0.15006012 0.055946212 -0.3566266
0.05039542 0.20867024 0.18569937 0.116689555 0.15313278 -0.113801524 0.17251255 0.06145874
0.14008111 0.29351407 0.034908555 -0.10030034 -0.16171272 -0.035030592 -0.1487276 0.018766388
-0.1132564 0.23275504 -0.034220524 0.13798587 -0.2072694 -0.026043143 -0.29714313 0.05383635
0.12174806 -0.019528039 0.025816564 -0.1258925 -0.055129293 -0.24151918 -0.123683445 -0.052897573
-0.13208133 0.056874573 -0.08167005 -0.111967996 -0.073617496 -0.13579398 -0.25819823 -0.19904542
0.08572286 -0.08024664 -0.12300628 0.045018125 -0.2375652 -0.16806476 0.18793075 -0.062221527
0.049853846 0.1715558 -0.07975407 -0.034475278 -0.22595903 -0.08954681 -0.10752787 0.06800271
0.039808914 0.13275766 0.1415473 -0.31714576 -0.37649348 -0.20974773 0.07575894 -0.087520964
0.24094316 0.34280232 -0.02480891 0.17815188 -0.08604127 -0.07977674 -0.105167955 -0.02524587
0.009978851 -0.024656488 -0.071620606 0.40154758 0.099856645 0.086126424 -0.114243306 -0.067844346
0.17310022 0.11962711 0.17414488 0.10313075 0.111282185 0.06953385 0.114409894 0.19911207
0.19815819 -0.28383666 0.059748065 0.11007299 0.18461084 -0.016526438 0.13225316 -0.017364066
0.016748676 0.028150935 0.23841587 0.28748724 0.08787569 -0.1381567 0.0031650402 -0.18460195
-0.078323975 -0.11427523 0.100462556 -0.01976788 -0.07087732 -0.095267214 -0.002114207 0.08764176
-0.18297017 0.025942648 0.074157275 0.21143247 0.04110155 0.0065761236 0.13622056 0.38229173
-0.015923468 -0.021290142 -0.07161273 0.33875573 -0.043548692 -0.06908334 0.025225805 -0.23773912
0.07557258 -0.05765509 -0.02691134 -0.12329036 -0.122307345 0.093474776 0.13364531 0.01418871
0.004127907 0.19209813 0.04749804 -0.047433168 -0.039280385 -0.08102421 -0.07106499 0.14209615
0.09921007 0.008177596 0.39359355 -0.10075281 -0.0005227099 0.0123683065 0.123722695 0.016384272
-0.20805657 -0.00029018972 -0.14687692 0.011392267 0.2341195 -0.12938891 0.05428629 0.13228285
-0.2051131 -0.080998 0.025637759 0.09044482 -0.29895744 0.116143785 0.1871312 0.02240603
0.20063907 0.32642782 -0.061479665 -0.049765408 0.22006096 -0.06434419 -0.034173965 -0.033458203
0.0541999 0.0011309643 0.109895825 0.04123185 0.1268395 -0.011941402 0.2014742 0.415113
0.14148693 0.04056419 0.0076203113 -0.097601816 -0.049163297 0.106781036 0.13394417 0.007890157
-0.072421394 0.020049755 -0.058465533 0.030194314 0.13106489 0.0735127 0.14649823 0.26535833
-0.068900734 0.03029766 0.019183371 0.22882698 0.009058777 -0.021522598 -0.13954066 0.2900801
-0.007552171 0.09026756 0.06322689 -0.3347392 -0.20328067 0.14498395 -0.031084288 -0.12645587
00000000: a63b f639 a77c 0b3e 4477 9d3d 2ee4 9dbe
00000010: 7e3b 023d f6f7 91bd 15d0 70b7 59d9 023d
00000020: 48df 233e 073f 973c 2db7 09bd 7893 923e
00000030: 0334 3b3e bee3 c3bd 71e8 67bd afe6 cebd
00000040: 2874 413d 0ca0 85b9 4359 493d f10a 1fbd
00000050: d420 483d bfdc 673d c486 753e 228d 4abe
00000060: a149 77bc dced 0abd 7b13 da3d f52f a23e
00000070: dfbe 0d3c 7008 96bc d665 953d 996c 9e3e
00000080: 150c 3ebe fc80 633d 709c fd3d 2e9e 9c3b
00000090: 09ef 51bc 5ca9 193e db27 653d c397 b6be
000000a0: 6e6b 4e3d a7ad 553e fa27 3e3e effa ee3d
000000b0: d7ce 1c3e c610 e9bd 21a7 303e 29bc 7b3d
000000c0: 6c71 0f3e 7a47 963e 46fc 0e3d 446a cdbd
000000d0: 0598 25be 3d7c 0fbd 0c4c 18be f8bb 993c
000000e0: f9f2 e7bd 5657 6e3e d22a 0cbd 2b4c 0d3e
000000f0: 6e3e 54be 6e58 d5bc 2523 98be 8183 5c3d
00000100: 0c57 f93d 44f9 9fbc 427d d33c f7e9 00be
00000110: 41cf 61bd ce50 77be bf4d fdbd 20ab 58bd
00000120: 5440 07be 50f5 683d a142 a7bd 7a4f e5bd
00000130: c5c4 96bd 940d 0bbe 8f32 84be 90d2 4bbe
00000140: 788f af3d 5a58 a4bd b7ea fbbd ed64 383d
00000150: 4b44 73be 2b19 2cbe eb70 403e 00dc 7ebd
00000160: 8c33 4c3d 53ac 2f3e 1a56 a3bd f335 0dbd
00000170: ce61 67be 5164 b7bd 9237 dcbd 0145 8b3d
00000180: ac0e 233d a0f1 073e c7f1 103e ee60 a2be
00000190: c1c3 c0be 1cc8 56be 8127 9b3d 313e b3bd
000001a0: ceb9 763e c983 af3e 0e3c cbbc 726d 363e
000001b0: 6836 b0bd fd61 a3bd 4c62 d7bd 6dd0 cebc
000001c0: 567e 233c 67fc c9bc d3ad 92bd a597 cd3e
000001d0: a481 cc3d 0d63 b03d 65f8 e9bd faf1 8abd
000001e0: 2f41 313e 0fff f43d 0953 323e 3736 d33d
000001f0: eae7 e33d c367 8e3d bc4f ea3d 09e4 4b3e
00000200: fbe9 4a3e 0a53 91be 63ba 743d f36d e13d
00000210: a00a 3d3e 7462 87bc 5f6d 073e 163f 8ebc
00000220: 8534 893c ca9c e63c 4a23 743e 8731 933e
00000230: 2bf8 b33d f378 0dbe 906c 4f3b 4b08 3dbe
00000240: 5268 a0bd 2209 eabd 50bf cd3d 40f0 a1bc
00000250: 2128 91bd 751b c3bd 828e 0abb 867d b33d
00000260: 885c 3bbe ad85 d43c c5df 973d c181 583e
00000270: 195a 283d 867c d73b 677d 0b3e bebb c33e
00000280: ef71 82bc aa68 aebc b2a9 92bd 6471 ad3e
00000290: 1d60 32bd 917b 8dbd 59a6 ce3c e271 73be
000002a0: ccc5 9a3d be27 6cbd 2c75 dcbc a87f fcbd
000002b0: 467c fabd b46f bf3d 51da 083e c377 683c
000002c0: 6543 873b 5fb5 443e 4e8d 423d 4849 42bd
000002d0: 78e4 20bd 05f0 a5bd 858a 91bd a781 113e
000002e0: a62e cb3d 53fb 053c 1885 c93e 7d57 cebd
000002f0: 7806 09ba 70a4 4a3c 5362 fd3d 4f38 863c
00000300: c80c 55be 9b24 98b9 e766 16be a2a6 3a3c
00000310: 06bd 6f3e 877e 04be 4d5b 5e3d 2875 073e
00000320: 2b09 52be 48e2 a5bd 4706 d23c 223b b93d
00000330: f310 99be cbdc ed3d 529f 3f3e da8c b73c
00000340: 5474 4d3e 8c21 a73e 1ad2 7bbd d0d6 4bbd
00000350: a957 613e e3c6 83bd 00fa 0bbd 780b 09bd
00000360: b700 5e3d dd3c 943a 1011 e13d bae2 283d
00000370: 37e2 013e dfa5 43bc 414f 4e3e b189 d43e
00000380: f3e1 103e a326 263d ceb3 f93b 76e3 c7bd
00000390: 745f 49bd 04b0 da3d a928 093e b845 013c
000003a0: ab51 94bd 623f a43c 8e79 6fbd 115a f73c
000003b0: e035 063e d48d 963d a203 163e 0cdd 873e
000003c0: d41b 8dbd cc32 f83c 7226 9d3c 9f51 6a3e
000003d0: 446b 143c 2950 b0bc bfe3 0ebe 6185 943e
000003e0: 3478 f7bb 33de b83d 1a7d 813d f062 abbe
000003f0: cf28 50be ac76 143e 7aa4 febc a67d 01be

features_model.0.bias f4 [128]
0.093552835 0.00832842 0.09074145 -0.033836138 0.1639407 0.08465548 0.114999 0.12947349
0.017710958 0.10166987 0.14189273 -0.0001424837 0.07837323 -0.04348263 0.013865244 0.079345345
0.09224488 -0.022657385 -0.060561355 -0.0037900792 0.026590353 -0.109545715 0.09509417 -0.019037388
0.14538048 -0.039828543 0.03975276 0.009914026 0.15372626 0.12213665 0.11080084 0.12590948
0.008612586 0.08618087 0.14170185 0.04526081 0.053104874 -0.029256918 0.10865925 0.13072316
0.1721657 0.034098223 0.09452248 0.025624638 0.06633846 -0.02633012 0.0674945 0.07990188
-0.029317528 0.06459188 -0.054417174 0.04821607 0.084818 0.082682624 0.15094939 0.07036755
0.09716353 0.037795775 -0.014620882 0.13117968 0.10928173 -0.050480653 0.11980353 0.061950143
0.056022134 0.13371915 0.08018531 0.114552855 0.0923656 0.025061868 -0.07473309 -0.07437217
-0.019070078 -0.009044626 0.11107793 -0.050919823 -0.013221125 0.08170512 0.1068739 0.047276355
0.06938294 -0.017218111 0.10870045 0.049156144 -0.0297008 0.02239837 0.18477675 0.09547564
0.097377524 -0.016688379 -0.013080717 0.048775643 -0.014993111 0.006398181 0.036321376 0.11144711
-0.048080895 -0.017313275 0.046895664 0.07553878 -0.025535997 0.15171559 0.19204023 0.05472402
0.08247623 0.15698534 0.14413965 0.083609216 -0.0142299635 -0.025825063 0.083056696 0.12442425
-0.04200124 0.087252975 0.10311764 0.12752022 0.16229384 -0.0036505584 0.061770424 -0.025684778
-0.0557183 0.17645109 0.09199838 0.050350737 0.11245734 0.10490818 0.107775316 0.003627676
00000000: a198 bf3d ed73 083c a7d6 b93d c397 0abd
00000010: 12e0 273e da5f ad3d 9984 eb3d b394 043e
00000020: 9216 913c 4b38 d03d 544c 113e ad67 15b9
00000030: 2582 a03d d81a 32bd 0c2b 633c d07f a23d
00000040: e2ea bc3d fb9b b9bc 2f0f 78bd fa62 78bb
00000050: 03d4 d93c 8159 e0bd bbc0 c23d 4cf4 9bbc
00000060: 9fde 143e 4123 23bd cad3 223d 706e 223c
00000070: 6b6a 1d3e c822 fa3d 8deb e23d 6aee 003e
00000080: ce1b 0d3c 997f b03d 4a1a 113e 6663 393d
00000090: 7f84 593d 34ac efbc be88 de3d 4bdc 053e
000000a0: 354c 303e 94aa 0b3d 0195 c13d c3ea d13c
000000b0: 75dc 873d 44b2 d7bc 8e3a 8a3d 99a3 a33d
000000c0: 502b f0bc bf48 843d 8be4 5ebd 377e 453d
000000d0: 0fb5 ad3d 8255 a93d 7a92 1a3e dd1c 903d
000000e0: acfd c63d becf 1a3d 6d8c 6fbc f753 063e
000000f0: 1acf df3d cdc4 4ebd 8e5b f53d 6fbf 7d3d
00000100: 7777 653d aced 083e 3238 a43d b09a ea3d
00000110: 2d2a bd3d 8c4e cd3c aa0d 99bd 7050 98bd
00000120: da38 9cbc e92f 14bc d37c e33d 4e91 50bd
00000130: 6b9d 58bc 0455 a73d b4e0 da3d daa4 413d
00000140: a518 8e3d ff0c 8dbc 579e de3d f457 493d
00000150: 184f f3bc c97c b73c 1e36 3d3e bb88 c33d
00000160: de6d c73d 11b6 88bc 8150 56bc f8c8 473d
00000170: aaa5 75bc d5a7 d13b b9c5 143d 623e e43d
00000180: 79f0 44bd 92d4 8dbc ab15 403d 13b4 9a3d
00000190: de30 d1bc 555b 1b3e 32a6 443e 4b26 603d
000001a0: 4ce9 a83d c4c0 203e 5899 133e 4f3b ab3d
000001b0: cb24 69bc 158f d3bc a119 aa3d 24d2 fe3d
000001c0: 7e09 2cbd b0b1 b23d 572f d33d a994 023e
000001d0: 5b30 263e 353e 6fbb fc02 7d3d e268 d2bc
000001e0: df38 64bd 98af 343e a669 bc3d 933c 4e3d
000001f0: 0950 e63d 1ada d63d 4eb9 dc3d 4ebe 6d3b

features_model.2.weight f4 [128, 128]
0.28873476 -0.06376482 -0.02486018 0.095422804 0.19540904 0.095888235 0.09160692 0.041210867
0.051297653 0.122215316 0.0962137 -0.009699117 0.009886091 0.03259222 -0.03979944 0.12585971
-0.14236504 0.074071765 -0.05470964 -0.121088706 0.09797623 0.038727123 0.0783704 -0.050962273
0.15349051 -0.13481674 -0.02400412 0.26408452 0.17614241 -0.06052311 0.037569415 0.1118907
0.19081402 -0.016534835 0.11222536 -0.010425073 -0.10352623 -0.2163728 -0.022137595 0.13560489
0.33938852 -0.033559248 0.17648044 0.16077933 0.18084231 0.16138086 -0.045293707 0.027624715
0.16786769 0.29607692 0.16333692 0.27655327 -0.08253631 -0.0432733 -0.027434446 -0.17112994
-0.0502119 -0.034851927 -0.058763556 0.14423504 0.25306115 0.33151498 0.1735023 -0.13076577
0.29811698 0.17431712 0.049822424 0.06937386 -0.007232053 0.15793224 0.10228603 -0.23015696
-0.21693686 -0.055001866 -0.005065145 -0.04824045 -0.031031165 0.045925718 0.03154211 -0.31470814
0.09761836 0.059224974 -0.07151083 0.0961801 0.23832028 0.19486378 -0.053145736 -0.07202632
0.046912134 0.057211503 -0.23574483 -0.09274453 0.17401837 -0.053978957 -0.039786596 -0.08488306
-0.026005864 0.108438954 0.21553752 -0.082069755 0.10155368 0.14796422 0.14859442 0.36588743
0.27245927 0.10291744 -0.018043317 -0.033318114 -0.12166035 0.16342604 0.05196233 0.29163453
-0.09876023 -0.17741431 -0.047533263 0.13214615 0.16393825 -0.13448733 0.04418781 -0.15656546
-0.07009388 0.17610222 -0.08052216 0.05609092 0.062675446 0.20709243 0.1886006 -0.083958335
-0.056874853 0.083293654 0.0760182 0.00698101 -0.059660017 0.07096477 0.16623834 -0.09409943
0.09214574 -0.25840718 -0.17712624 0.10746031 -0.0138478745 0.035187844 0.15443836 -0.020601843
-0.03108751 0.045384042 0.05543794 -0.082905374 -0.022056537 -0.14635532 -0.15473431 0.105488576
-0.08136927 -0.08736179 -0.17679043 -0.016873099 0.34019873 -0.18340574 -0.36030042 -0.09577218
0.062076196 0.010118171 -0.09002249 -0.055196337 0.07942283 0.015899584 0.2118848 0.02751814
0.18688367 -0.18963462 0.01569062 0.11552497 0.03284672 -0.034452584 0.03735053 0.27240634
-0.13892485 0.036721446 0.050805576 -0.055112813 0.01099248 0.0857451 0.02220201 0.09403216
0.012042563 0.09725796 -0.09152128 0.042673398 0.28121734 -0.017770547 -0.24171734 0.3316222
0.08229391 0.06596506 0.051823985 -0.05533469 -0.004437337 0.25662518 -0.25990632 -0.027598497
0.08508568 0.09421404 -0.15800086 0.14107825 0.0019062541 -0.023497606 -0.06863008 0.1149097
0.034144524 0.14247715 0.039973658 0.2788007 0.07384564 0.0085435575 -0.15447626 0.046216693
0.23183866 0.003156293 -0.025359532 0.008553657 0.043130286 0.032859385 0.14585517 -0.14238119
0.017758632 -0.088836074 0.17906743 -0.12545402 0.05302727 -0.03868813 -0.34543085 0.026955316
-0.07632503 0.014631014 -0.13305183 0.22367224 -0.1027679 -0.01626475 -0.015897328 0.20046441
-0.053226624 -0.20859572 0.06331185 -0.046111275 0.21531272 0.11397939 0.16174297 -0.08889761
-0.00898737 0.154959 0.20225984 0.008592491 -0.13579066 -0.1658131 -0.05324548 0.08786801
00000000: 0bd5 933e 2197 82bd 94a7 cbbc 086d c33d
00000010: 4f19 483e 0d61 c43d 699c bb3d bacc 283d
00000020: 7d1d 523d 064c fa3d b00b c53d 0ce9 1ebc
00000030: 45f9 213c 6b7f 053d bd04 23bd 5ee1 003e
00000040: 24c8 11be f0b2 973d 3717 60bd 5bfd f7bd
00000050: c3a7 c83d 55a0 1e3d a980 a03d d1bd 50bd
00000060: 9e2c 1d3e 660d 0abe 4aa4 c4bc 1636 873e
00000070: ad5e 343e 15e7 77bd 63e2 193d f426 e53d
00000080: c064 433e 1074 87bc 69d6 e53d edcd 2abc
00000090: 8f05 d4bd d590 5dbe e759 b5bc 02dc 0a3e
000000a0: 55c4 ad3e 6c75 09bd 4ab7 343e 56a3 243e
000000b0: ba2e 393e 0641 253e e585 39bd 3a4d e23c
000000c0: 82e5 2b3e 6597 973e cb41 273e 6498 8d3e
000000d0: cc08 a9bd 583f 31bd 34be e0bc b03c 2fbe
000000e0: feaa 4dbd e5c0 0ebd 0eb2 70bd 5ab2 133e
000000f0: 3b91 813e 55bc a93e 96aa 313e 76e7 05be
00000100: caa2 983e 3080 323e 9912 4c3d e213 8e3d
00000110: dcfa ecbb fdb8 213e 577b d13d 44ae 6bbe
00000120: b224 5ebe a349 61bd 84f9 a5bb c797 45bd
00000130: 1235 febc 9b1c 3c3d 4d32 013d 6d21 a1be
00000140: 22ec c73d e395 723d 4574 92bd 13fa c43d
00000150: 3b0a 743e 5f8a 473e 58af 59bd 8982 93bd
00000160: f026 403d 9c56 6a3d 1867 71be d8f0 bdbd
00000170: df31 323e 0a19 5dbd 45f7 22bd 2bd7 adbd
00000180: 400a d5bc 3e15 de3d deb5 5c3e 3014 a8bd
00000190: 60fb cf3d ef83 173e 2329 183e 9955 bb3e
000001a0: c87f 8b3e 61c6 d23d 94cf 93bc 9378 08bd
000001b0: 1029 f9bd 2859 273e 74d6 543d 1f51 953e
000001c0: ce42 cabd 19ac 35be 3db2 42bd 5251 073e
000001d0: 6edf 273e 0cb7 09be 47fe 343d b252 20be
000001e0: 618d 8fbd 2454 343e cde8 a4bd 98bf 653d
000001f0: fc5b 803d 0a10 543e 8420 413e 59f2 abbd
00000200: 9bf5 68bd dd95 aa3d 6eaf 9b3d f5c0 e43b
00000210: 105e 74bd fa55 913d 623a 2a3e 34b7 c0bd
00000220: e8b6 bc3d f24d 84be 9560 35be 2714 dc3d
00000230: 32e2 62bc 2121 103d 1725 1e3e 32c5 a8bc
00000240: 3cab febc 9ee4 393d e512 633d 4bca a9bd
00000250: e9af b4bc 2bde 15be ac72 1ebe 650a d83d
00000260: efa4 a6bd bdea b2bd 8d08 35be 7439 8abc
00000270: 872e ae3e b7ce 3bbe 4c79 b8be 3424 c4bd
00000280: 9c43 7e3d afc6 253c b65d b8bd 8e15 62bd
00000290: 70a8 a23d d83f 823c 54f8 583e b96d e13c
000002a0: 6f5e 3f3e 942f 42be 9d89 803c 5b98 ec3d
000002b0: 488a 063d 271e 0dbd dffc 183d d878 8b3e
000002c0: 5142 0ebe 3a69 163d 8219 503d f9bd 61bd
000002d0: ce19 343c 219b af3d fde0 b53c ef93 c03d
000002e0: 2c4e 453c 2e2f c73d 826f bbbd 4dca 2e3d
000002f0: b8fb 8f3e 8a93 91bc c084 77be 63ca a93e
00000300: b689 a83d b018 873d 6345 543d a1a6 62bd
00000310: 1567 91bb 6064 833e 7112 85be 3e16 e2bc
00000320: 6741 ae3d 4af3 c03d faca 21be d176 103e
00000330: 46db f93a 0d7e c0bc ed8d 8cbd c755 eb3d
00000340: 21db 0b3d 88e5 113e 6bbb 233d f7be 8e3e
00000350: 623c 973d 47fa 0b3c 062f 1ebe b74d 3d3d
00000360: 1d67 6d3e cfd9 4e3b cbbe cfbc a324 0c3c
00000370: 62a9 303d 9097 063d 0f5b 153e 60cc 11be
00000380: 8d7a 913c b0ef b5bd 745d 373e 0577 00be
00000390: 1f33 593d 7277 1ebd 50dc b0be 65d1 dc3c
000003a0: 4c50 9cbd ecb6 6f3c bd3e 08be 560a 653e
000003b0: fa77 d2bd a73d 85bc 1d3b 82bc 8b46 4d3e
000003c0: 2904 5abd 1e9a 55be a5a9 813d 2ddf 3cbd
000003d0: f07a 5c3e 076e e93d f39f 253e f30f b6bd
000003e0: c33f 13bc 92ad 1e3e 341d 4f3e 85c7 0c3c
000003f0: b50c 0bbe e9ca 29be ef17 5abd 25f4 b33d

features_model.2.bias f4 [128]
0.10098491 0.058112197 0.0039854962 -0.059995066 0.061215956 0.11789078 -0.019694272 0.0
0.10330172 0.12617746 -0.03046091 0.113974154 -0.01644598 -0.022822576 -0.006570116 0.17334804
-0.005014899 0.05733419 -0.026423043 0.13328922 -0.007941224 0.12833618 -0.018485265 -0.047663793
0.14389852 0.11083116 -0.0052597765 -0.011325365 -0.007056311 -0.0038858769 -0.02905986 0.10961576
0.084947206 0.1282827 0.15254533 0.10285971 -0.03281295 0.02159625 0.09965631 -0.010856116
0.14217219 0.015489331 -0.035849623 -0.006749283 0.08086624 -0.025072983 0.01620598 -0.012531319
-0.03015492 0.09045486 -0.015094315 -0.013292946 -0.019279141 0.09202997 -0.01137785 0.10790261
0.09802005 -0.02210417 0.07716902 -0.02725826 -0.026086422 0.032940544 -0.0031540815 0.00010303832
-0.010159974 -0.035751373 -0.005137843 0.14910835 0.130079 0.10487151 0.016840486 -0.0047793104
-0.029272158 -0.026790563 0.092977464 0.07237005 0.11112995 0.00021245758 0.12601453 -0.019181393
0.0 0.0019282049 -0.025310174 0.09330211 -0.014441308 0.06633667 -0.012946244 0.17514125
0.09594162 -0.0028522913 -0.031986266 0.026632093 0.122810654 -0.03497379 -0.021021707 0.08257136
-0.010664034 -0.01894887 0.011989727 0.15440194 -0.04547236 -0.039286263 0.0 -0.03800084
0.096052036 -0.0077622714 0.1291634 -0.054922745 -0.0005548816 -0.030895606 0.111372024 -0.047187403
-0.027028026 -0.01598392 0.052254546 0.17922977 0.09657603 0.122573204 -0.01321505 -0.047964755
0.007432194 -0.019060954 -0.015008433 0.052688677 -0.01256208 0.05136153 0.0 -0.0118540535
00000000: 2dd1 ce3d 0e07 6e3d c498 823b 63bd 75bd
00000010: 95bd 7a3d b970 f13d e255 a1bc 0000 0000
00000020: da8f d33d aa34 013e 2989 f9bc 486b e93d
00000030: b8b9 86bc 69f6 babc 214a d7bb 2682 313e
00000040: 0654 a4bb 41d7 6a3d 2375 d8bc f87c 083e
00000050: e81b 02bc 8f6a 033e 696e 97bc 1c3b 43bd
00000060: 225a 133e 72fb e23d 345a acbb 068e 39bc
00000070: a038 e7bb 32aa 7ebb f20e eebc 3a7e e03d
00000080: cdf8 ad3d 8a5c 033e d834 1c3e 1da8 d23d
00000090: df66 06bd 9eea b03c 9c18 cc3d dadd 31bc
000000a0: 9695 113e f7c6 7d3c 0ed7 12bd 1729 ddbb
000000b0: 339d a53d db65 cdbc 67c2 843c 2950 4dbc
000000c0: 7307 f7bc 6640 b93d 254e 77bc a8ca 59bc
000000d0: 4aef 9dbc 357a bc3d 296a 3abc 0bfc dc3d
000000e0: bcbe c83d ce13 b5bc cb0a 9e3d b74c dfbc
000000f0: 31b3 d5bc aaec 063d b5b4 4ebb 4716 d838
00000100: 0576 26bc 0870 12bd 5a5b a8bb dcaf 183e
00000110: 6e33 053e e0c6 d63d 0ff5 893c c39b 9cbb
00000120: 2acc efbc e277 dbbc f86a be3d c036 943d
00000130: 1998 e33d 26c7 5e39 f409 013e 4c22 9dbc
00000140: 0000 0000 d2bb fc3a 4857 cfbc 2d15 bf3d
00000150: 3c9b 6cbc 85db 873d 7c1c 54bc 3a58 333e
00000160: 0a7d c43d 82ed 3abb 0804 03bd 8c2b da3c
00000170: 2784 fb3d ad40 0fbd b735 acbc 2c1b a93d
00000180: 33b8 2ebc a93a 9bbc 8f70 443c 8b1b 1e3e
00000190: 3a41 3abd a2ea 20bd 0000 0000 c5a6 1bbd
000001a0: eeb6 c43d a75a febb 6943 043e acf6 60bd
000001b0: 7975 11ba c818 fdbc 0417 e43d 9447 41bd
000001c0: e169 ddbc b6f0 82bc dd08 563d 0288 373e
000001d0: a7c9 c53d a907 fb3d f083 58bc b176 44bd
000001e0: c389 f33b b825 9cbc eee5 75bc 15d0 573d
000001f0: 2fd1 4dbc 7860 523d 0000 0000 8137 42bc

features_model.4.weight f4 [128, 128]
0.1279101 -0.0001869322 0.05848755 -0.059247475 -0.01863177 -0.2212898 -0.25662068 0.0044812425
-0.07617045 0.014766951 -0.06015811 -0.16897526 -0.051794644 -0.050728817 -0.010388272 -0.041030005
0.13969985 0.09640793 -0.22357212 0.06232106 0.05610383 -0.28726673 -0.15004617 0.08769938
-0.10118565 0.07372266 0.36981347 -0.018307831 0.11155198 0.11348906 -0.029284231 -0.039313
0.031252738 -0.21386337 0.17994519 0.19674227 -0.18734257 -0.061213303 -0.030237127 0.035443682
-0.035190336 0.021012988 0.3348382 -0.13419583 0.06973916 0.17632836 -0.032986593 0.16192494
-0.2192759 0.021184167 0.05211622 0.05328244 -0.03443071 -0.14983128 -0.072703205 0.108041845
-0.06223571 -0.31544036 0.17438288 0.049912646 -0.14919259 -0.053939674 0.03794856 -0.036095675
-0.14549407 -0.08900957 0.03791722 -0.06819715 0.0742704 0.04529247 0.096248165 0.15736838
-0.13298215 -0.08573423 -0.033633746 0.06027428 -0.32092172 0.02881745 -0.09234154 -0.14036208
0.21276473 0.18822065 -0.009889487 -0.011803264 0.022119528 -0.12323485 0.018785186 0.060165886
0.00066572346 -0.1305381 0.054229297 0.036124337 -0.14940369 -0.10678826 -0.049868353 0.10068935
0.036191814 0.08484276 -0.008975237 0.0069092815 -0.043863088 -0.049533855 -0.11110716 0.081371725
-0.032935794 -0.19451094 -0.20478363 -0.032602962 -0.12923089 -0.13049245 0.2282972 0.14771251
0.0046840776 0.07433762 -0.035755076 0.04498401 -0.12778375 0.10263068 0.1464431 -0.09069677
0.10780673 -0.119574405 0.14240491 -0.22502176 -0.16105655 -0.1392359 -0.14005333 -0.040163558
-0.04047064 -0.108700864 0.11650329 -0.09251197 -0.12807056 -0.04177924 0.16612095 -0.14850345
-0.21530323 -0.0967834 0.032904442 -0.17736143 -0.048602436 0.13738072 0.033637516 0.01606178
-0.15444866 -0.053020377 0.28582114 -0.07935761 0.1218382 0.08206554 -0.07351211 0.21303688
0.0915085 0.040042367 -0.12167181 -0.033870578 -0.18817523 0.16497064 0.046920974 -0.08177664
-0.04333083 -0.13139138 0.05730914 -0.020987585 0.25870863 -0.037749853 0.044786345 -0.2834922
-0.01214424 -0.016814735 0.080800585 0.19035941 0.4162183 0.040258836 -0.030973189 -0.07284056
0.11822174 -0.21966927 -0.15340538 -0.3608513 0.06519541 -0.16622908 0.032159183 0.21558484
0.15719911 -0.007633675 -0.062766686 -0.095618196 0.22970907 0.26110265 0.078537114 -0.1013575
0.068247736 -0.025703577 -0.0026279453 0.092582665 0.1945976 -0.1718597 0.14146766 0.072907396
-0.03956121 0.08418066 -0.050471388 0.09074066 -0.101396784 -0.09244483 0.08994832 -0.13352783
0.09335628 -0.0007978298 -0.010455551 -0.037697196 0.015599465 -0.14286374 -0.015366445 -0.2420098
0.13919818 0.21041468 0.037355088 0.15629497 0.08586211 0.01025667 -0.067513116 -0.005981342
-0.008423747 0.1385851 -0.015684702 -0.04734466 0.21639523 0.033096034 -0.19973753 -0.013961759
0.1225206 -0.035734642 -0.05101466 -0.16256931 -0.11211237 0.042423435 -0.031578526 0.028089968
0.091123596 -0.12859325 0.09415365 0.100931615 -0.014934292 -0.050530925 0.15932427 -0.114017986
0.18502721 0.045858763 -0.015716799 -0.06861664 -0.1268272 -0.10562393 -0.034400105 0.20957494
00000000: defa 023e 3b03 44b9 a490 6f3d 7bad 72bd
00000010: a7a1 98bc cb99 62be c963 83be 63d7 923b
00000020: 41ff 9bbd 15f1 713c 5a68 76bd da07 2dbe
00000030: 9f26 54bd 05c9 4fbd 9233 2abc 140f 28bd
00000040: 7a0d 0f3e 8571 c53d 17f0 64be 5e44 7f3d
00000050: 21cd 653d a014 93be b4a5 19be bc9b b33d
00000060: 6c3a cfbd e8fb 963d 3158 bd3e 4efa 95bc
00000070: 5d75 e43d f46c e83d 7ce5 efbc ab06 21bd
00000080: df02 003d 00ff 5abe 8d43 383e ce76 493e
00000090: bbd6 3fbe cdba 7abd dab3 f7bc 652d 113d
000000a0: be23 10bd 6e23 ac3c ea6f ab3e a26a 09be
000000b0: 68d3 8e3d 6c8f 343e f31c 07bd a7cf 253e
000000c0: dd89 60be 6b8a ad3c d177 553d b03e 5a3d
000000d0: 3707 0dbd 5f6d 19be 6be5 94bd 0b45 dd3d
000000e0: dfea 7ebd 6681 a1be 6d91 323e 3471 4c3d
000000f0: f1c5 18be d9ef 5cbd f36f 1b3d 0fd9 13bd
00000100: 66fc 14be a64a b6bd 164f 1b3d f3aa 8bbd
00000110: 141b 983d 9984 393d c21d c53d 2d25 213e
00000120: 792c 08be 6e95 afbd 8ac3 09bd 2ae2 763d
00000130: da4f a4be 9312 ec3c 901d bdbd 14bb 0fbe
00000140: ffde 593e eabc 403e 8407 22bc 7a62 41bc
00000150: 0334 b53c 8e62 fcbd 64e3 993c 8170 763d
00000160: f283 2e3a c8ab 05be 8a1f 5e3d 1df7 133d
00000170: 48fd 18be ceb3 dabd c242 4cbd 3836 ce3d
00000180: de3d 143d 0ac2 ad3d df0c 13bc 4167 e23b
00000190: c8a9 33bd 03e4 4abd 278c e3bd 38a6 a63d
000001a0: afe7 06bd e02d 47be cdb2 51be af8a 05bd
000001b0: 1a55 04be d09f 05be bec6 693e f341 173e
000001c0: e47c 993b 523e 983d ea73 12bd 2741 383d
000001d0: bed9 02be 0930 d23d 2ef5 153e 3abf b9bd
000001e0: c6c9 dc3d 6de3 f4bd 98d2 113e 1b6c 66be
000001f0: 02ec 24be db93 0ebe 246a 0fbe 8b82 24bd
00000200: 8bc4 25bd 8f9e debd 4799 ee3d ea76 bdbd
00000210: ee24 03be b520 2bbd 9c1b 2a3e 4a11 18be
00000220: 7378 5cbe 6036 c6bd cfc6 063d 3c9e 35be
00000230: 5913 47bd 88ad 0c3e 7ec7 093d fe93 833c
00000240: ca27 1ebe e52b 59bd 2657 923e 3e86 a2bd
00000250: 4e86 f93d fa11 a83d 848d 96bd 5726 5a3e
00000260: cf68 bb3d 7703 243d 122f f9bd e0bb 0abd
00000270: 02b1 40be 10ee 283e 3530 403d 837a a7bd
00000280: ab7b 31bd 768b 06be fdbc 6a3d 28ee abbc
00000290: 7575 843e 979f 1abd e371 373d e425 91be
000002a0: a2f8 46bc 0ebf 89bc c77a a53d 94ed 423e
000002b0: 911a d53e 73e6 243d 7cbb fdbc 6e2d 95bd
000002c0: 3d1e f23d fbf0 60be 4d16 1dbe 80c1 b8be
000002d0: 2c85 853d f537 2abe 59b9 033d 46c2 5c3e
000002e0: cef8 203e e823 fabb d28b 80bd 79d3 c3bd
000002f0: db38 6b3e 3faf 853e 11d8 a03d 8594 cfbd
00000300: 78c5 8b3d 4f90 d2bc 9b39 2cbb fb9b bd3d
00000310: 9844 473e fdfb 2fbe e6dc 103e 7950 953d
00000320: ef0a 22bd e966 ac3d 16bb 4ebd 3dd6 b93d
00000330: 1ea9 cfbd b753 bdbd d336 b83d 85bb 08be
00000340: 9431 bf3d 7425 51ba c24d 2bbc 6068 1abd
00000350: e694 7f3c df4a 12be 8bc3 7bbc 6bd1 77be
00000360: f889 0e3e f276 573e a601 193d ca0b 203e
00000370: 79d8 af3d 980b 283c 5144 8abd 22ff c3bb
00000380: c103 0abc 41e9 0d3e 347d 80bc 79ec 41bd
00000390: b696 5d3e b58f 073d ff87 4cbe ddbf 64bc
000003a0: 15ec fa3d 7d5e 12bd c0f4 50bd 9278 26be
000003b0: 2c9b e5bd 32c4 2d3d 7c58 01bd ef1c e63c
000003c0: 029f ba3d f3ad 03be a1d3 c03d 3cb5 ce3d
000003d0: f6ae 74bc 84f9 4ebd e725 233e 4382 e9bd
000003e0: c677 3d3e 66d6 3b3d 84c0 80bc e286 8cbd
000003f0: fdde 01be 5c51 d8bd 20e7 0cbd d09a 563e

features_model.4.bias f4 [128]
-0.030294603 -0.018976768 -0.023804072 -0.029852828 0.13796291 -0.024087489 -0.029851498 -0.018530242
-0.020021686 -0.014746746 -0.0138422325 0.09398763 -0.013796255 0.07224339 0.018117506 -0.031027075
-0.015260069 -0.00076785666 -0.0075255996 0.11410394 -0.006671703 0.07499762 -0.016687045 -0.0086386
0.07942824 0.019170245 -0.025439719 0.028399726 -0.020008437 0.1221897 0.064773895 -0.0022221506
-0.012671165 0.07407381 -0.009953804 0.08691176 0.0029193638 0.0 0.10831704 -0.020796793
-0.018202797 -0.010832619 0.010881119 -0.0007444429 -0.017334582 -0.011231496 -0.012123204 0.08329448
0.092197284 0.19662912 0.002444643 -0.033057388 -0.022926249 0.0062194555 -0.023694752 -0.013707974
0.0 -0.005842586 -0.021401206 0.03512604 -0.0008956556 -0.0075611263 0.12428557 -0.025944475
0.16197513 0.012879806 0.10587242 0.011154817 -0.002772711 0.056552682 0.06798658 -0.019800313
-0.018481687 -0.020920832 -0.020424712 0.052046474 0.001218668 0.038954925 0.052552022 -0.021432241
0.012074212 -0.004255308 0.11700128 -0.024779722 -0.03490366 -0.0173688 0.113161325 0.12786159
-0.04257311 -0.0279885 -0.018885005 0.0064165574 0.15439804 -0.027078906 0.13449796 -0.033495635
0.13498357 0.09055246 0.1396904 0.16908816 -0.041486286 -0.02694269 -0.0049198 0.03468589
0.13999203 0.1176514 -0.0028203463 -0.022433726 0.1623546 -0.021914927 -0.025248598 0.038966697
0.0078039546 -0.01242279 0.12378821 0.029768493 -0.027942456 0.0946333 -0.020786706 0.14305562
-0.0026171904 0.07007634 -0.0205467 0.0 0.16730878 0.11783557 0.003503082 0.07334639
00000000: 632c f8bc 2b75 9bbc c200 c3bc eb8d f4bc
00000010: 2646 0d3e 2053 c5bc 218b f4bc bccc 97bc
00000020: 8504 a4bc 569c 71bc 88ca 62bc 967c c03d
00000030: b009 62bc 58f4 933d 2a6b 943c 7e2c febc
00000040: 5e05 7abc fd49 49ba 4e99 f6bb 54af e93d
00000050: 4d9e dabb 5a98 993d 45b3 88bc ea88 0dbc
00000060: 46ab a23d eb0a 9d3c f566 d0bc 8ba6 e83c
00000070: bce8 a3bc 983e fa3d 2da8 843d 80a1 11bb
00000080: b89a 4fbc 02b4 973d 4815 23bc cbfe b13d
00000090: cc52 3f3b 0000 0000 53d5 dd3d 095e aabc
000000a0: 081e 95bc 4c7b 31bc b946 323c b826 43ba
000000b0: 4101 8ebc 4f04 38bc 67a0 46bc 4c96 aa3d
000000c0: eed1 bc3d 2559 493e 4e36 203b 2f67 07bd
000000d0: d4cf bbbc 93cc cb3b 7f1b c2bc 6997 60bc
000000e0: 0000 0000 2a73 bfbb 9551 afbc 53e0 0f3d
000000f0: 6eca 6aba 53c3 f7bb 6f89 fe3d 8289 d4bc
00000100: cfdc 253e d205 533c a4d3 d83d b2c2 363c
00000110: 5fb6 35bb c9a3 673d 8c3c 8b3d 4434 a2bc
00000120: e866 97bc 2a62 abbc ba51 a7bc af2e 553d
00000130: b6bb 9f3a 338f 1f3d ca40 573d ab92 afbc
00000140: ead2 453c 1c70 8bbb 5e9e ef3d d8fe cabc
00000150: 24f7 0ebd 0349 8ebc 20c1 e73d 26ee 023e
00000160: 2461 2ebd 2448 e5bc bab4 9abc fc41 d23b
00000170: 851a 1e3e 95d4 ddbc d5b9 093e b832 09bd
00000180: 2239 0a3e 9173 b93d 000b 0f3e 7225 2d3e
00000190: 86ed 29bd ebb6 dcbc 4636 a1bb cb12 0e3d
000001a0: 125a 0f3e 38f3 f03d 8fd5 38bb efc6 b7bc
000001b0: 4940 263e ef86 b3bc 26d6 cebc 8b9b 1f3d
000001c0: 51b8 ff3b f588 4bbc ac84 fd3d 0edd f33c
000001d0: 94e7 e4bc 1bcf c13d e248 aabc 2c7d 123e
000001e0: 2b85 2bbb 2f84 8f3d 8e51 a8bc 0000 0000
000001f0: fe52 2b3e c653 f13d f793 653b a236 963d

policy_model.0.weight f4 [128, 128]
0.0019041691 0.0024805828 -0.0017797013 -0.0014851048 -0.0005470242 -0.002136836 -0.0025834194 -0.001286043
-0.0017655767 0.0016516428 -0.0011577907 -0.0018487186 -0.0021873172 0.00026514032 -0.0025721453 -0.0016344155
-0.0029211317 0.00042798909 -0.0011925537 -0.0034998828 0.0029534956 -0.0045777876 -0.0023383845 0.000108697786
3.7825404e-05 -0.001280686 -0.001212793 -0.0014393193 -0.0018453873 0.001336102 -0.0053206263 -0.00010460901
-0.0001005613 -0.0036774098 0.0004252481 -0.0043032537 -8.8569184e-05 -0.0009175332 -0.005088068 -0.002913615
-0.0002043278 -0.0009938407 -0.0007324342 0.0024067056 0.00018058713 0.0002981132 0.0016343492 -0.0008851129
-0.0006749896 -0.0011464959 -0.001893757 -0.0020893896 -0.001219487 0.0011463582 -0.0018734874 0.0006987973
-0.0006750936 -0.003426491 -0.0019130429 -0.002387654 -0.0017857933 -0.0016481562 -0.0007326067 -0.0007741634
0.0010741228 0.0018265333 0.002845373 -0.0024121713 6.480503e-05 -0.007156652 -0.005558174 -0.0014492677
0.0019031012 0.0009416681 -0.0025673022 0.0012486377 -7.9757076e-05 -0.00047776717 0.001456526 -0.0017560024
0.00091564865 0.0002116744 -0.0004556147 -0.0010172873 -0.0021765388 0.00214445 -0.008361451 -0.006354316
-0.0017417029 0.0029832325 -0.0016901663 -0.002829627 0.0015257779 -0.0028095054 -0.0009832644 0.0008342982
-0.0010005275 -0.0056664776 0.0018725243 0.00017859122 0.00021279081 -0.0017853801 -0.00062931224 0.00015347205
-0.001344987 -0.0017630568 0.0014188024 -0.002373475 0.00049916765 -0.00039144434 0.0012438631 -0.0027554878
-0.00027593836 -0.0032707232 0.00032172995 -0.0025928097 -0.0018837554 -0.0070071523 -0.0014994901 -0.00462014
-0.0021421327 -0.0068807392 1.5554751e-05 0.00015968697 -0.0060613193 -0.004441308 -0.00017306008 -0.0018065218
-0.05356942 0.004429402 0.013160907 0.012349722 0.036712565 0.015284072 0.0215613 -0.008915625
0.016986987 -0.016372818 -0.001571548 0.05782639 0.047773987 0.041085638 0.06862879 0.015857287
0.03456939 0.013882603 0.00057907234 0.065579444 0.0072046155 0.08203786 0.011750412 0.006052813
0.07715973 0.028391786 0.036537904 0.04716656 0.00635971 0.033375524 0.07299411 0.028011601
0.00566396 0.031580497 0.0051467028 0.076773405 -0.019121535 -0.0005363126 0.0512531 0.0021562409
-0.0097619 0.015798852 0.036344778 -0.00854648 0.0025057078 0.017914822 -0.022505293 0.07268953
0.024103025 0.00046094786 0.009029201 0.03614089 0.016977469 0.022098307 0.014498273 -0.0004205968
0.00013949178 0.00013335297 0.020008614 0.057759143 0.00073239143 0.007912587 -0.0006983238 0.013236247
-0.03877493 0.029052027 0.067728035 -0.009868504 0.007856549 0.06498113 0.06965126 0.055382382
0.0212313 -0.018909533 0.013552917 0.046987012 0.0012070519 0.0856314 -0.020180944 0.005339378
0.016991789 -0.035644636 -0.02395117 0.00044389121 0.02386269 0.016577337 0.05719734 0.05227257
0.0094148535 0.013990698 0.032355964 0.028814644 -0.005949688 -0.00058115565 0.0043320693 -0.024172403
0.03827532 0.068950064 -0.024847545 -0.00084844057 0.0041274354 0.031046888 0.059143923 0.06900113
-0.017108766 0.05651611 0.037256546 0.048298657 -0.03769803 0.0060200244 0.01190548 0.0015979331
0.06878998 0.010231626 0.025521806 0.030508434 0.004065424 0.06824112 0.012073727 0.057585005
-0.0016723751 0.07078254 0.032021172 -0.00072916516 0.043332487 0.0677159 0.00647739 0.08146075
00000000: 5095 f93a 4691 223b de44 e9ba d9a7 c2ba
00000010: 2c66 0fba 290a 0cbb 964e 29bb 7190 a8ba
00000020: ec6a e7ba f07b d83a 02c1 97ba b450 f2ba
00000030: 1859 0fbb 8802 8b39 7091 28bb e239 d6ba
00000040: 7570 3fbb b963 e039 764f 9cba 4a5e 65bb
00000050: 6f8f 413b 4401 96bb 953f 19bb aef4 e338
00000060: b8a6 1e38 b1dc a7ba 95f6 9eba 8ba7 bcba
00000070: ece0 f1ba 2520 af3a a658 aebb 8961 dbb8
00000080: 70e4 d2b8 b300 71bb d5f3 de39 4f02 8dbb
00000090: 38be b9b8 9c86 70ba cfb9 a6bb 59f2 3ebb
000000a0: d340 56b9 c343 82ba d400 40ba d2b9 1d3b
000000b0: fd5b 3d39 144c 9c39 a937 d63a ec06 68ba
000000c0: c9f1 30ba 0546 96ba f137 f8ba 24ee 08bb
000000d0: 32d7 9fba 6641 963a ce8f f5ba 7e2f 373a
000000e0: c4f8 30ba fb8e 60bb 11bf faba 307a 1cbb
000000f0: 4811 eaba f206 d8ba 670c 40ba 3af1 4aba
00000100: 95c9 8c3a 4a68 ef3a 7079 3a3b 8515 1ebb
00000110: f0e7 8738 5982 eabb 5821 b6bb 5bf5 bdba
00000120: 7b71 f93a 47da 763a 2f40 28bb 54a9 a33a
00000130: 4143 a7b8 d37c fab9 e7e8 be3a aa29 e6ba
00000140: 2408 703a eaf4 5d39 92df eeb9 7f56 85ba
00000150: 43a4 0ebb e789 0c3b 78fe 08bc de37 d0bb
00000160: da49 e4ba 5682 433b 9288 ddba 4371 39bb
00000170: 9cfc c73a ae1f 38bb e1e0 80ba ceb4 5a3a
00000180: 2224 83ba dcad b9bb 7d6f f53a 3744 3b39
00000190: 9920 5f39 6a03 eaba 6ef8 24ba 57ed 2039
000001a0: 464a b0ba 5f16 e7ba 1cf7 b93a 4e8c 1bbb
000001b0: 93da 023a c53a cdb9 1f09 a33a 6a95 34bb
000001c0: d2ab 90b9 a159 56bb ddad a839 21ec 29bb
000001d0: 58e8 f6ba 419c e5bb 8a8a c4ba 8b64 97bb
000001e0: 0663 0cbb d377 e1bb 937b 8237 a571 2739
000001f0: 089e c6bb 6488 91bb 7677 35b9 d0c8 ecba
00000200: 9c6b 5bbd 8424 913b d8a0 573c 7d56 4a3c
00000210: ea5f 163d 0b6a 7a3c 53a1 b03c d712 12bc
00000220: 4b28 8b3c 4a20 86bc 67fc cdba 5ddb 6c3d
00000230: a8ae 433d 6a49 283d 408d 8c3d 24e7 813c
00000240: a298 0d3d db73 633c e3cc 173a 844e 863d
00000250: b214 ec3b 7703 a83d cd84 403c ad56 c63b
00000260: ec05 9e3d e495 e83c c5a8 153d b931 413d
00000270: 1d65 d03b c6b4 083d f07d 953d 9678 e53c
00000280: bd98 b93b 8d5a 013d aca5 a83b 603b 9d3d
00000290: c4a4 9cbc 5497 0cba c5ee 513d b84f 0d3b
000002a0: 60f0 1fbc 986c 813c 43de 143d 8906 0cbc
000002b0: cd36 243b 1bc2 923c 055d b8bc 40de 943d
000002c0: b573 c53c 60ab f139 37ef 133c 7808 143d
000002d0: 5514 8b3c 8207 b53c 2a8a 6d3c 8c83 dcb9
000002e0: 8a44 1239 aad4 0b39 1be9 a33c da94 6c3d
000002f0: f5fd 3f3a cca3 013c b80f 37ba d8dc 583c
00000300: 76d2 1ebd 84fe ed3c ffb4 8a3d 81af 21bc
00000310: c1b8 003c d414 853d 52a5 8e3d a3d8 623d
00000320: 43ed ad3c 2ae8 9abc 0e0d 5e3c 7475 403d
00000330: f135 9e3a 845f af3d 8252 a5bc f3f5 ae3b
00000340: 5d32 8b3c 1c00 12bd 3e35 c4bc 12ba e839
00000350: b07b c33c 32cd 873c c247 6a3d c31b 563d
00000360: c240 1a3c 3e39 653c b087 043d b00c ec3c
00000370: 9af5 c2bb b258 18ba 08f4 8d3b 3405 c6bc
00000380: 95c6 1c3d b135 8d3d 148d cbbc e269 5eba
00000390: 703f 873b 0b56 fe3c e640 723d 7750 8d3d
000003a0: af27 8cbc 707d 673d 529a 183d d0d4 453d
000003b0: 4069 1abd a043 c53b 340f 433c bd71 d13a
000003c0: c3e1 8c3d 8da2 273c 1b13 d13c d3ec f93c
000003d0: 4037 853b 00c2 8b3d e2d0 453c 41de 6b3d
000003e0: 9933 dbba 70f6 903d a228 033d 7225 3fba
000003f0: 687d 313d a2ae 8a3d 4940 d43b e5d4 a63d

policy_model.0.bias f4 [128]
-0.0011417501 0.06950938 -0.0014982655 0.00018066491 2.1657543e-05 -0.0001491374 -0.005570961 -0.010237683
0.0016087131 -0.0014995139 -0.0015009871 -0.014329842 -0.016941998 0.01404973 0.0002597546 0.0003440429
0.0069249487 -0.017277228 -0.0014963433 -0.0014578769 -0.011548331 -0.0081964275 0.0076030684 -0.00038112613
-0.015248217 -0.0015008727 -0.011885796 -0.01380018 -0.007865691 -0.0014984334 -0.008706175 -0.006354336
-0.013687721 -0.006755752 -0.001500609 -0.006503699 -0.0008502196 -0.0011991822 -0.017633224 -0.013894195
0.06621848 -0.014600538 0.0062269606 -0.0014993733 -0.0012826791 0.03419217 -0.016221525 -0.010073476
-0.009328393 0.0025224464 -0.010376343 -0.001371411 -0.0037584372 0.004025974 -0.01292445 0.0
0.0 -0.0020962944 -0.01712801 -0.001275721 -0.016520973 -0.001489098 -0.0014970349 0.0037946778
-0.0038864845 -0.001500738 -0.0017543057 -0.015517143 -0.00848324 -0.00427842 -0.007848232 -0.0077784876
-0.0010024008 -0.005178268 0.0009946498 -0.003760655 -0.0014975681 -0.015933616 -0.015098061 -0.0015000735
0.029578773 -0.016479421 -0.014018599 -0.0005328667 0.005242542 -0.0011631271 -0.0008377505 0.10256826
-0.01016263 -0.017829213 -0.0014979397 -0.0035862254 -0.00030886714 -0.007136034 -0.0019211574 -0.009067198
-0.017229568 -0.0014995453 -0.015599182 -0.015746066 0.0024117786 -0.010106333 -0.0029666997 -0.0051058135
-0.0063800705 0.005802648 0.011559305 -0.010752157 -0.0012779451 -0.0014997962 -0.0066638454 -0.010622878
-0.010713303 -0.000110316134 -0.00068794546 -0.0016552908 -0.00815932 -0.015067906 -0.0012245595 -0.001484655
-0.01297877 0.041906323 -0.0012879611 0.0031065075 -0.0035848548 -0.00359203 0.0061221644 -0.003063017
00000000: c7a6 95ba ef5a 8e3d 7361 c4ba de70 3d39
00000010: 38ad b537 c461 1cb9 9c8c b6bb f4bb 27bc
00000020: 74db d23a 568b c4ba c5bc c4ba b7c7 6abc
00000030: f2c9 8abc d730 663c ac2f 8839 a860 b439
00000040: aeea e23b f988 8dbc f320 c4ba 3b16 bfba
00000050: 3635 3dbc 4f4a 06bc 2923 f93b e2d1 c7b9
00000060: a8d3 79bc eeb8 c4ba a4bc 42bc 261a 62bc
00000070: 19df 00bc 1567 c4ba 58a4 0ebc 0938 d0bb
00000080: 7742 60bc 5b5f ddbb 15b0 c4ba fb1c d5bb
00000090: 46e1 5eba e12d 9dba 8d73 90bc 7aa4 63bc
000000a0: 8e9d 873d 1837 6fbc 880b cc3b 9f86 c4ba
000000b0: 921f a8ba 170d 0c3d 01e3 84bc 380b 25bc
000000c0: 1ed6 18bc a14f 253b 8901 2abc ebc0 b3ba
000000d0: 1d50 76bb 51ec 833b 13c1 53bc 0000 0000
000000e0: 0000 0000 fc61 09bb 0a50 8cbc 1836 a7ba
000000f0: fe56 87bc d62d c3ba 2838 c4ba 21b0 783b
00000100: 64b4 7ebb 69b4 c4ba bbf0 e5ba 9d3b 7ebc
00000110: 4afd 0abc fd31 8cbb df95 00bc afe2 febb
00000120: fd62 83ba 76ae a9bb e95e 823a 5275 76bb
00000130: 0c4a c4ba 3787 82bc dc5d 77bc 1d9e c4ba
00000140: 2f4f f23c daff 86bc 44ae 65bc 14b0 0bba
00000150: a1c9 ab3b 1274 98ba 7c9c 5bba 4f0f d23d
00000160: 2981 26bc 920e 92bc 8456 c4ba e106 6bbb
00000170: 72ef a1b9 64d5 e9bb 58cf fbba 968e 14bc
00000180: 0625 8dbc 648c c4ba b693 7fbc e5fd 80bc
00000190: ee0e 1e3b 0895 25bc f66c 42bb ab4e a7bb
000001a0: e90f d1bb 2424 be3b 3d63 3d3c d129 30bc
000001b0: b980 a7ba cf94 c4ba 635c dabb 940b 2ebc
000001c0: da86 2fbc 8659 e7b8 3d57 34ba 58f6 d8ba
000001d0: abae 05bc 61df 76bc 6681 a0ba c198 c2ba
000001e0: e8a4 54bc f7a5 2b3d ced0 a8ba 8c96 4b3b
000001f0: e2ef 6abb 4368 6bbb 709c c83b e6bc 48bb

policy_model.2.weight f4 [8, 128]
-0.0018078343 -0.041781906 0.0017249605 0.00080096314 -0.0019682467 0.0007883454 -0.015412736 -0.0063643875
0.005554852 -0.00016256726 -0.0018161507 -0.005642033 -0.0053655836 0.0036776904 0.0024507213 0.0012158077
0.003693336 -0.0069144135 0.0010009056 -0.002591458 -0.005651887 -0.0073160776 0.015565613 0.0007064507
-0.0075708283 0.0016423524 -0.0026076925 -0.006694652 -0.015815 -0.00083358644 -0.008127774 0.00045570155
-0.00888077 -0.009688404 0.0017549412 -0.0075502237 -0.0011592811 0.0010916123 -0.007000468 -0.008363113
-0.060202736 -0.0066980035 0.003468957 -0.0015409295 0.0012805326 -0.07480824 -0.007628259 -0.0028641133
-0.0073620193 0.004679958 -0.007434327 -0.0055301124 0.004431037 0.00454108 -0.0052721566 -0.00022551893
0.0017280197 0.001266645 -0.006682116 -2.451288e-05 -0.006521637 -0.00046371666 -0.0006562424 0.004154853
-0.007784494 0.0010280797 0.00097574637 -0.005774789 -0.006491703 -0.00469266 -0.0074041546 -0.008284341
-6.275886e-05 0.0030746132 0.0018570005 -0.00076229527 0.0023037428 -0.008246764 -0.0050322386 5.31324e-05
0.026085878 -0.005587721 -0.0017121398 0.0012261329 0.004223397 0.0011169194 -0.00010874683 -0.08261777
-0.0056136893 -0.006424326 0.001570658 -0.0074984133 0.0024378493 -0.006577357 0.001186998 -0.014961154
-0.0060189073 0.0034453461 -0.004554175 -0.0070972 0.0037349965 -0.0066981404 0.0027958017 0.00027506036
6.244521e-05 0.0035808792 -0.028744642 -0.0072159613 -9.249044e-05 0.0022582593 -0.006466121 -0.0040694326
-0.0025365015 -9.7834956e-05 0.003883494 0.00075816084 -0.0015493371 -0.0062279734 0.0009616875 -0.00031699805
-0.007284367 -0.07384855 -0.00037814677 -0.002799848 -0.000121011006 -0.002133282 0.0045853974 0.000849748
0.001059876 0.03507271 -0.00065334234 -0.000706236 0.00041250122 -0.0009204017 0.027512508 -0.01079493
-0.008432556 -0.00017606985 0.003261046 -0.009150849 -0.008674885 -0.0068992563 -0.0025764727 -0.005200819
-0.0024332365 -0.008411497 0.0018537593 -0.0008698227 -0.011975989 -0.0102904895 -0.008855046 -0.00049837533
-0.008605491 0.0008105651 -0.0034179937 -0.00775404 0.002990937 -0.0015161065 -0.010317603 0.0027823509
-0.007640941 -0.004321975 0.0005485388 -0.009041923 0.0010261559 -0.0013398543 -0.008385776 -0.011562865
0.05920404 -0.010227635 -0.005544897 0.0026243303 0.00016603715 -0.01683162 -0.008567398 -0.0022061027
-0.008880114 -0.007835109 -0.012882469 -0.0010950825 -0.0042232615 -0.007055047 -0.009990737 0.0015152614
0.0019239375 0.0015136178 -0.007231114 -0.0006374238 -0.0089898985 0.00024059559 -0.0013575603 -0.008444267
-0.0061978963 -0.0007192017 -0.0004394246 -0.0083000185 -0.008441474 -0.004951362 -0.0071207285 -0.009233719
-0.0018643554 0.0016535833 -0.0042066607 -0.0009753001 0.003599667 -0.00863503 -0.010308323 -0.0013748603
-0.004557683 -0.008430094 -0.0028599743 -0.0012255968 -0.0069472687 -0.0010840109 0.0014327307 0.024906399
-0.009924403 -0.00985518 0.0016030554 -0.0026630296 -0.00011494514 -0.010766174 -0.00034453988 0.002132055
-0.007878105 0.0004295706 -0.008167083 -0.008864978 -0.006645181 -0.010484255 0.00395691 -8.1293285e-05
0.0069812713 -0.0063150893 -0.011716578 -0.007791467 -0.00071850204 -0.00083696697 -0.0077232644 -0.0039603026
-0.0022800032 0.00015975036 0.0020761243 -0.0037894074 -0.000103773666 -0.008966588 -0.0009527699 -0.00011376218
-0.008245406 -0.010288386 0.00015322494 0.0023229572 -0.0012527419 -0.002994266 -0.007964366 -0.001749984
00000000: daf4 ecba 8123 2bbd 1218 e23a baf7 513a
00000010: b3fd 00bb f7a8 4e3a b385 7cbc 5a8c d0bb
00000020: 7a05 b63b d176 2ab9 e80b eeba cee0 b8bb
00000030: c7d1 afbb 6805 713b 489c 203b bd5b 9f3a
00000040: e50b 723b 4e92 e2bb d230 833a 73d5 29bb
00000050: 7733 b9bb b5bb efbb ea06 7f3c 1b31 393a
00000060: b614 f8bb 3444 d73a d2e5 2abb d05e dbbb
00000070: 758e 81bc 0a85 5aba 5b2a 05bc 3aeb ee39
00000080: a680 11bc 1dbc 1ebc 0e06 e63a de67 f7bb
00000090: 05f3 97ba 6e14 8f3a 2f64 e5bb 7005 09bc
000000a0: 2597 76bd ed7a dbbb 7157 633b 04f9 c9ba
000000b0: 8bd7 a73a 1035 99bd 79f6 f9bb d9b3 3bbb
000000c0: 183d f1bb 555a 993b a89b f3bb f235 b5bb
000000d0: 3c32 913b 57cd 943b 0ec2 acbb 4779 6cb9
000000e0: b87e e23a 8e05 a63a a7f5 dabb 02a1 cdb7
000000f0: 75b3 d5bb ff1e f3b9 af07 2cba 6f25 883b
00000100: 1215 ffbb a1c0 863a 3bc9 7f3a 713a bdbb
00000110: 5ab8 d4bb e3c4 99bb 8d9e f2bb 0bbb 07bc
00000120: 689d 83b8 737f 493b 9966 f33a c5d4 47ba
00000130: 64fa 163b 6f1d 07bc 7ae5 a4bb 7bda 5e38
00000140: 0db2 d53c 3319 b7bb e169 e0ba 31b6 a03a
00000150: 6c64 8a3b 9965 923a 030f e4b8 8133 a9bd
00000160: 0af3 b7bb 2783 d2bb 89de cd3a 40b5 f5bb
00000170: 53c4 1f3b df86 d7bb 0b95 9b3a a11f 75bc
00000180: 413a c5bb 51cb 613b 303b 95bb a18f e8bb
00000190: d8c6 743b 137c dbbb c539 373b fa35 9039
000001a0: 04f5 8238 2fad 6a3b e279 ebbc df73 ecbb
000001b0: 6df7 c1b8 4eff 133b c1e1 d3bb e058 85bb
000001c0: 6f3b 26bb be2c cdb8 3882 7e3b 50bf 463a
000001d0: 2013 cbba 0714 ccbb c119 7c3a c232 a6b9
000001e0: b3b1 eebb e93d 97bd 0042 c6b9 a87d 37bb
000001f0: 4ac7 fdb8 88ce 0bbb 1a41 963b 9fc1 5e3a
00000200: 8aeb 8a3a 67a8 0f3d 1045 2bba b222 39ba
00000210: fa44 d839 1d47 71ba e961 e13c 38dd 30bc
00000220: b428 0abc 649f 38b9 46b7 553b 71ed 15bc
00000230: 1b21 0ebc 2813 e2bb 0ada 28bb a26b aabb
00000240: ef76 1fbb 60d0 09bc d7f9 f23a d004 64ba
00000250: f036 44bc 7199 28bc c114 11bc 67a5 02ba
00000260: 0cfe 0cbc 1a7c 543a 6b00 60bb 9a15 febb
00000270: 9903 443b 18b8 c6ba 2a0b 29bc 1a58 363b
00000280: dc60 fabb 5b9f 8dbb d1cb 0f3a 9324 14bc
00000290: 1480 863a 0d9e afba 7e64 09bc 2c72 3dbc
000002a0: ef7f 723d cf91 27bc f8b1 b5bb f5fc 2b3b
000002b0: 421a 2e39 77e2 89bc 465e 0cbc 4394 10bb
000002c0: e67d 11bc d45e 00bc fe10 53bc df88 8fba
000002d0: 4963 8abb 062e e7bb 30b0 23bc bc9b c63a
000002e0: a12c fc3a 9664 c63a fbf2 ecbb c918 27ba
000002f0: 5e4a 13bc 6348 7c39 2af0 b1ba d359 0abc
00000300: b917 cbbb cf88 3cba 9262 e6b9 cdfc 07bc
00000310: 1c4e 0abc 093f a2bb 0055 e9bb 0649 17bc
00000320: 635d f4ba 0cbd d83a 07d8 89bb 48ab 7fba
00000330: 64e8 6b3b f179 0dbc 3ee4 28bc a834 b4ba
00000340: 9e58 95bb 611e 0abc 686e 3bbb 34a4 a0ba
00000350: eaa5 e3bb 5f15 8eba 77ca bb3a 8108 cc3c
00000360: f799 22bc 9f77 21bc 9d1d d23a 3986 2ebb
00000370: b40e f1b8 9b64 30bc 5ca3 b4b9 f2b9 0b3b
00000380: 2b13 01bc fd37 e139 3bcf 05bc 6a3e 11bc
00000390: d2bf d9bb 27c6 2bbc f8a8 813b 007c aab8
000003a0: 26c3 e43b cfee cebb e4f6 3fbc 904f ffbb
000003b0: db59 3cba e767 5bba 7013 fdbb 6dc5 81bb
000003c0: 1b6c 15bb a982 2739 960f 083b b557 78bb
000003d0: 10a1 d9b8 99e8 12bc 4ec3 79ba 9b93 eeb8
000003e0: bd17 07bc 9e90 28bc 02ab 2039 c13c 183b
000003f0: 0b33 a4ba 733b 44bb f97c 02bc b85f e5ba

policy_model.2.bias f4 [8]
-0.021911826 0.008725385 0.03678114 0.011379242 -0.0121917715 -0.0027008697 0.026952391 -0.055002846
00000000: 6e80 b3bc ebf4 0e3c d2a7 163d 0070 3a3c
00000010: ffbf 47bc 1301 31bb 43cb dc3c aa4a 61bd
