results/short_race/second_iteration_training/model826.pt (torch, 276107 bytes, 13 tensors)

features_model.0.weight f4 [128, 4]
00000000: 4d3b cc3b c0aa 5d3e 4477 9d3d 0180 a1be
00000010: 17a0 083d 79aa 9cbd 3ea5 71b7 37fc ea3c
00000020: 6358 1c3e dddb d83c 2db7 09bd 4534 973e
00000030: 9759 403e f69e cfbd 72e8 67bd d335 d2bd
00000040: 8677 1d3d 9401 123c 4459 493d 85bf f4bc
00000050: dc2d 253d 49f2 803d c486 753e 5cf1 48be
00000060: a36e edbb d091 c4bc 9213 da3d 09fd a63e
00000070: 4d16 513b 2368 03bc d965 953d a6a7 a33e
00000080: 150c 3ebe a009 273e 709c fd3d 2e9e 9c3b
00000090: 3185 b33b 8167 6c3e db27 653d 8e5d babe
000000a0: 3d20 663d cc49 853e fa27 3e3e 8f3b 2a3e
000000b0: 6610 243e 8860 f4bd 21a7 303e 6b55 5e3d
000000c0: 6ec7 023e 229c b03e 46fc 0e3d 14ca a8bd
000000d0: e192 25be 8ce3 22bd 0c4c 18be 96e6 873c
000000e0: 5759 63bd 41f2 af3e d22a 0cbd 2b4c 0d3e
000000f0: dfbc 53be db07 89bc 2523 98be ccb2 813d
00000100: e3e9 f63d 2909 8dbc 457d d33c 02d3 ffbd
00000110: 4cfe 4bbd cf0c 7abe bf4d fdbd 7d55 5fbd
00000120: 5440 07be 50f5 683d a142 a7bd 7a4f e5bd
00000130: 06e9 93bd fdda 0ebe 8f32 84be 2b71 4bbe
00000140: 5b60 a93d 49a1 a2bd b7ea fbbd e43b 4e3d
00000150: 6fff 71be bfd9 31be eb70 403e f0d4 81bd
00000160: 6d2f 4b3d 8a40 6b3e 1a56 a3bd d584 d6bc
00000170: 4d9e 67be 31da b5bd 9237 dcbd a404 953d
00000180: 381b e83c e072 303e c7f1 103e a8c4 a0be
00000190: 3e7d c0be a186 58be 8127 9b3d af16 b3bd
000001a0: a34a 6f3e fc24 bf3e 0e3c cbbc 1f72 403e
000001b0: 4200 b0bd 5604 a3bd 4c62 d7bd f1fb c0bc
000001c0: 3d2b ac3b 8fc5 80bc cead 92bd c9de d13e
000001d0: bf61 bd3d 9156 d33d 65f8 e9bd 3f4d 82bd
000001e0: 62d1 293e 0a06 063e 0953 323e c341 f73d
000001f0: 7faf cc3d 294e 963d bc4f ea3d 4501 703e
00000200: 906b 513e d55a 93be 63ba 743d 8df7 d93d
00000210: 700d 3b3e 7e2b 45bc 5f6d 073e 7002 80bc
00000220: 517c 4f3c 46d9 1a3d 4a23 743e 84a1 983e
00000230: 3364 be3d edf7 10be 576c 4f3b abd4 3dbe
00000240: 0526 a1bd c6c5 ddbd 54bf cd3d e269 6ebc
00000250: a6d7 90bd b455 c4bd a38e 0abb 7038 b43d
00000260: 103b 17be 4f0a 203d c5df 973d 78c3 673e
00000270: a84d 013d 37c1 813c 677d 0b3e 693c c93e
00000280: a31a a6b8 d8dd 5cbc b1a9 92bd 8c66 b13e
00000290: 5daf 0fbd c479 94bd 4fa6 ce3c fe6a 72be
000002a0: e968 943d 60aa 54bd 2c75 dcbc b2e7 f2bd
000002b0: 467c fabd 5c4f 333e 51da 083e c377 683c
000002c0: 486c e73c e80b 9b3e 4e8d 423d 10ae e8bc
000002d0: c157 1fbd e43b aabd 858a 91bd fde3 133e
000002e0: 9687 c33d 4da2 2a3c 1885 c93e 80eb cbbd
000002f0: 106b f2bb c649 d53c 5362 fd3d 13ed fc3c
00000300: c80c 55be 9b24 98b9 e766 16be a2a6 3a3c
00000310: 6390 713e 3f9b 01be 4d5b 5e3d 6ec0 053e
00000320: 0f70 51be fe75 a5bd 4706 d23c f3ab b33d
00000330: f310 99be 9391 473e 529f 3f3e da8c b73c
00000340: 123a 453e c02f b93e 1ad2 7bbd 2181 22bd
00000350: 38da 603e 98dd 7abd fff9 0bbd 4237 03bd
00000360: ee09 363d 3beb 243c 1111 e13d 5afd 513d
00000370: 3d54 f63d d725 d2bb 414f 4e3e 9139 d73e
00000380: 26ad 093e 380e 433d d4b3 f93b 6dd4 c2bd
00000390: 3377 9fbb bcc4 503e a928 093e b845 013c
000003a0: ab51 94bd 623f a43c 8e79 6fbd 115a f73c
000003b0: 5278 f43d 469a a33d a203 163e d9f4 9b3e
000003c0: 4a89 b2bc 8a2c 303d 7226 9d3c 8004 7b3e
000003d0: d1fa 323c cd55 92bc bfe3 0ebe 9c0b 993e
000003e0: 4251 03bc 5d37 0d3e 1a7d 813d 2459 aabe
000003f0: cf28 50be 5756 813e 7aa4 febc 9580 21be
0.006232655 0.21647167 0.07688764 -0.31542972 0.0333558 -0.076497026 -1.4403193e-05 0.028684719
0.15268092 0.026472026 -0.033621956 0.29532066 0.18784176 -0.10137741 -0.05661816 -0.102641724
0.038444065 0.008911509 0.049157396 -0.02987648 0.040326938 0.06296212 0.2397719 -0.19623321
-0.007245855 -0.02399531 0.10648264 0.32614926 0.0031904161 -0.008020434 0.072948165 0.31963843
-0.18559296 0.16312265 0.12383354 0.0047795987 0.005478524 0.23086359 0.055946212 -0.36399502
0.05618309 0.26032865 0.18569937 0.16624282 0.1602188 -0.119324744 0.17251255 0.05428068
0.12771389 0.3449412 0.034908555 -0.08241668 -0.16169311 -0.039767787 -0.1487276 0.016589444
-0.055505123 0.34364513 -0.034220524 0.13798587 -0.20677517 -0.016727379 -0.29714313 0.06332931
0.12056329 -0.017216282 0.02581657 -0.124914184 -0.049803063 -0.24418949 -0.123683445 -0.054524887
-0.13208133 0.056874573 -0.08167005 -0.111967996 -0.0722218 -0.13950725 -0.25819823 -0.19867389
0.082703315 -0.07940919 -0.12300628 0.050350085 -0.23632596 -0.1736822 0.18793075 -0.06339443
0.049605776 0.22973838 -0.07975407 -0.026186386 -0.2261898 -0.08879507 -0.10752787 0.07276276
0.028333291 0.17231321 0.1415473 -0.31400037 -0.37595552 -0.21145107 0.07575894 -0.08744561
0.23368315 0.37332904 -0.02480891 0.18793534 -0.08593799 -0.079598114 -0.105167955 -0.023557635
0.005254178 -0.015719203 -0.07162057 0.40990284 0.09247159 0.103192456 -0.114243306 -0.0636239
0.1658378 0.13088241 0.17414488 0.1207309 0.09994411 0.073391266 0.114409894 0.23437984
0.20451188 -0.28780237 0.059748065 0.1064292 0.18266845 -0.012034295 0.13225316 -0.015626162
0.012663917 0.037804864 0.23841587 0.29810727 0.09296455 -0.14157076 0.003165027 -0.18538158
-0.0786858 -0.10828738 0.100462586 -0.014551612 -0.07072382 -0.09586659 -0.0021142147 0.08799827
-0.14768624 0.03907233 0.074157275 0.22633159 0.0315682 0.015839202 0.13622056 0.39303902
-7.920458e-05 -0.013480626 -0.07161272 0.3464855 -0.03507935 -0.072497874 0.025225786 -0.23673627
0.072465725 -0.051920295 -0.02691134 -0.118605986 -0.122307345 0.17510742 0.13364531 0.01418871
0.028249875 0.3028252 0.04749804 -0.028403312 -0.038902048 -0.083122045 -0.07106499 0.1444244
0.09547345 0.010414672 0.39359355 -0.099570274 -0.0073980168 0.026036154 0.123722695 0.030874765
-0.20805657 -0.00029018972 -0.14687692 0.011392267 0.23590235 -0.12656878 0.05428629 0.13061687
-0.20452903 -0.08079146 0.025637759 0.08773031 -0.29895744 0.19489126 0.1871312 0.02240603
0.19260433 0.36169243 -0.061479665 -0.03967393 0.21958244 -0.061246485 -0.03417396 -0.03203512
0.044443063 0.010065849 0.10989583 0.051267006 0.12027786 -0.0064132023 0.2014742 0.42036107
0.13444957 0.047620982 0.007620314 -0.09513173 -0.0048665046 0.20387548 0.13394417 0.007890157
-0.072421394 0.020049755 -0.058465533 0.030194314 0.11937012 0.0798841 0.14649823 0.3046024
-0.02179398 0.043011226 0.019183371 0.24513435 0.010924057 -0.017863179 -0.13954066 0.2989167
-0.008014979 0.1379065 0.06322689 -0.33271134 -0.20328067 0.25261185 -0.031084288 -0.15771706

features_model.0.bias f4 [128]
00000000: 3bf4 363e a04d e93b a2ce 033e 8232 09bd
00000010: 99c0 4e3e b73e ef3d 0d9d 233e 6300 343e
00000020: a9e4 0b3e 2a02 3f3e 6f14 693e faed f3bb
00000030: eaf7 133e 45d5 31bd 34b0 053e 6460 0a3e
00000040: 9673 bf3d 5c3f c2bc 2f0f 78bd 2aff 93bb
00000050: ba4b 1d3d deed e4bd bce1 263e 66a7 5dbc
00000060: a59f 523e 25f7 29bd 22c8 a03d f218 6c3c
00000070: 52ce 463e 528c 293e 2d4b 1f3e 9f9f 493e
00000080: 5ab2 eeb9 ecd1 ba3d 1951 4a3e a222 1f3d
00000090: 5488 893d ba85 e9bc f2a3 3f3e 523c 353e
000000a0: 2ac5 5b3e bd18 023d 0b9d de3d d0f8 f33d
000000b0: 939a 2a3e 676c a5bc e6fd 9f3d a1ae 1f3e
000000c0: 502b f0bc 8f94 6d3d 5a9e 6fbd f1dc 0b3e
000000d0: feee 023e fab5 a63d 6098 463e ba84 cd3d
000000e0: f3e8 053e f345 0e3e 6d8c 6fbc 5537 4e3e
000000f0: cdcc 413e d7e0 29bd b447 443e 4fba 2f3e
00000100: 5a20 1d3e 8d26 733e 19f1 1a3e 4103 4b3e
00000110: de54 2f3e aceb 0d3e 66c5 8ebd c091 9abd
00000120: 1d4d 70bc fb3c cd3d 581c 2d3e 5aa4 51bd
00000130: 6b9d 58bc 1b65 b53d 9134 453e 4744 233d
00000140: ee4a fc3d 68d5 86bc 28a1 243e 054f fb3d
00000150: d685 a8bc 07fd f53c d331 7a3e 7004 f03d
00000160: 3c20 013e bc04 8dbc d15c 83bc 631a 753d
00000170: 04ea 44bc 4327 953c 971d 3b3d 819f 1e3e
00000180: ea48 3abd 52e8 a3bc 3639 643d b011 1b3e
00000190: 79fb d8bc 738b 4f3e 8f5b 7f3e 8b80 2e3e
000001a0: 33c4 253e c8ce 523e 5d47 433e 155a 3f3e
000001b0: cb24 69bc 5230 dcbc a9da 2f3e f349 2f3e
000001c0: df8c 30bd 40bb b13d 4d7f f03d 2c2f 543e
000001d0: 339b 5e3e 701b 4bbb dda1 323e e85e efbc
000001e0: 90db 6abd e11a 883e cedb c83d 60c4 963d
000001f0: 0342 4d3e b7a8 1e3e 7d3e 523e 22f5 41bb
0.17866604 0.0071198493 0.12871793 -0.033495434 0.20190658 0.11681884 0.15977879 0.17578273
0.13661446 0.1865317 0.22761701 -0.0074441405 0.1445004 -0.04341628 0.13055497 0.13513333
0.09348218 -0.023711853 -0.060561355 -0.004516502 0.038402297 -0.11178182 0.16297048 -0.01352868
0.20568712 -0.04149546 0.07850672 0.014410244 0.19414642 0.16557434 0.15556021 0.19689797
-0.0004552778 0.09122071 0.19757499 0.038851388 0.06715456 -0.028506149 0.18714884 0.17698792
0.21461931 0.031761874 0.10869797 0.119126916 0.16660528 -0.020193292 0.07812099 0.1559396
-0.029317528 0.058003005 -0.058500625 0.13658501 0.12786481 0.08140178 0.19394064 0.10035081
0.13077144 0.13893871 -0.014620882 0.20138295 0.18925782 -0.04147419 0.19167978 0.17160915
0.15344372 0.23745175 0.15131034 0.1982546 0.17122218 0.13859433 -0.069712445 -0.07547331
-0.014666823 0.10021397 0.16905344 -0.05118213 -0.013221125 0.08857175 0.19258334 0.039860036
0.12318979 -0.016459182 0.16077101 0.12270931 -0.02057163 0.03002788 0.24433069 0.117195964
0.12609953 -0.017214172 -0.01603547 0.059839617 -0.012018684 0.018207198 0.045682516 0.15490533
-0.045479693 -0.02000824 0.055718623 0.15143466 -0.026487099 0.2026804 0.2493727 0.17041223
0.16188125 0.20586693 0.19070192 0.18686707 -0.0142299635 -0.02687851 0.17173256 0.17118053
-0.043103095 0.08678293 0.11743031 0.2072112 0.21738891 -0.0030991696 0.17444558 -0.02922006
-0.057338297 0.26583007 0.098075494 0.07361674 0.20044713 0.15494047 0.2053165 -0.0029595573

features_model.2.weight f4 [128, 128]
00000000: 5742 c13e a4ed 88bd 749f 56bc 4649 b23d
00000010: cb21 663e 1caa 033e 2074 d93d 0f72 753d
00000020: 892b 403e e963 5a3e 9adf 313e 7848 71bc
00000030: e0ae 503d 81f4 f33c 7fdf 883d 6299 113e
00000040: ed82 0fbe ff37 913d 3717 60bd 9e60 ffbd
00000050: 39ca c13d 3917 0f3d 3182 153e ac9c 58bd
00000060: 0f10 583e ed2a 0dbe 8c4c 83ba 4f1b 863e
00000070: c0bb 453e 7f87 f1bc ae26 723d b5a0 193e
00000080: 8fdf 3e3e 4d37 81bc 5515 173e d4e6 84bc
00000090: 6ca2 d5bd b974 5fbe fb56 503d 58eb 203e
000000a0: 9d33 b83e 6b56 13bd be57 353e a3b2 8e3e
000000b0: d8e8 933e eb54 243e b32c 22bd 7d23 ba3d
000000c0: 82e5 2b3e 029a 953e f5e2 243e 2228 c23e
000000d0: d9a1 51bd b148 3fbd 85d0 92b9 713e 27be
000000e0: 0f28 22bd 19e6 9d3d 0eb2 70bd d158 383e
000000f0: 9cee a83e 7d53 ab3e ae2c 813e afe1 40bc
00000100: 7d30 d13e bdeb 8d3e 8893 ec3d 6f49 1f3e
00000110: 9732 643d 5e54 873e ffa3 d43d b9bf 70be
00000120: eec0 5fbe 3b16 1c3d 4f97 843c d1a0 56bd
00000130: 1235 febc e6e4 5a3d 9909 033e b26f a3be
00000140: d15b f13d e9ab 423d 39ec 02bd 4312 253e
00000150: 152d 763e f67e 463e 6975 89bc 90a2 87bd
00000160: 87d8 853d 3700 623d 6162 73be 6215 c1bd
00000170: 9a2e 303e 8f6f 60bd 3ccb 2cbd 3802 89bd
00000180: 3d47 c5bc 7c75 d73d 7c9b 5a3e b282 0d3c
00000190: d333 c83d ce3a 323e 5a49 3c3e b249 f13e
000001a0: 3b03 b73e 61e9 fb3d b26f 7639 45ea 9a3d
000001b0: 1029 f9bd 0108 253e 5f4f 103e 9f13 9e3e
000001c0: 3591 d2bd 4aca 33be 57cf 41bd 6278 4e3e
000001d0: 8f31 5b3e eb61 09be 3387 1b3e 127b 25be
000001e0: 9f2c 9ebd 5962 8a3e 602a a2bd 97f6 6a3d
000001f0: e2a0 203e 9bc2 673e d394 933e f293 b1bd
00000200: 0e84 103d ac98 9d3d 7101 a93d 7ae4 38bb
00000210: 14fb 45bd 97c3 ac3d 98cd 343e 1f0f a3bd
00000220: 75a7 6d3e e6fe 31be 1aca 9abd df8c cc3d
00000230: 0116 943c 3d14 ea3c 624d 963e 1ff0 65bc
00000240: 28c3 0cbd 5d8b 1a3d e512 633d 3352 bbbd
00000250: 5a6d e7bc 7fd4 1ebe a5d8 abbd 8d26 ca3d
00000260: 05da 39bd fb5a c3bd a784 24be 21d6 c7bc
00000270: 54ae b43e 1429 28be 64ca b1be 69ff 8bbd
00000280: fad3 5d3d 07f7 023c 51c4 83bd ed8d 83bd
00000290: 08b4 953d 1b9f 153c 1870 923e f945 2f3d
000002a0: 213c 4f3e 6784 4abe 2075 303c 2450 783e
000002b0: 4a4a 293e 6b6e 21bd 00f4 1b3d 9c26 9b3e
000002c0: 5142 0ebe 65e1 f63c 7e77 2f3d 36a0 873d
000002d0: fa84 123d 125b a33d a931 133d 389f ca3d
000002e0: 8617 833c c737 673e 826f bbbd 1c56 8b3d
000002f0: decc b73e 3b18 82bc 1b89 3fbe 68fe ee3e
00000300: d577 5e3e 35ee 3b3e ed60 df3d 9948 793d
00000310: 1e22 8f3d 537a ca3e 9995 84be 4319 15bd
00000320: 725a a13d 6046 6b3e cf91 0fbe 42fa 073e
00000330: 46db f93a cfa4 b6bc ab7b 2e3d ad9f dc3d
00000340: 5f3e 453d d5d0 013e ad61 813d d0ac b33e
00000350: 7541 973d 48bd 313b efa4 02be 23f2 403d
00000360: 5645 713e 9540 1bbb 3416 03bd 30c0 d93a
00000370: 9059 143d 8c91 f63c 0322 0e3e cb2d 08be
00000380: 34fd 8f3c 3cd6 c6bd c755 313e c8a4 af39
00000390: 08c6 333d 6072 8cbc f0b0 a4be 5b79 263e
000003a0: 45cb 593d fa62 f23c 4c5b f3bd 9171 b53e
000003b0: fa77 d2bd dc9f c0bc a10d ea3d 6788 5a3e
000003c0: 143b 7bbd 7a0f 56be b496 6e3d ae54 d03c
000003d0: 5ffe 7f3e 8a6f e93d 3bf0 973e b703 c7bd
000003e0: 41b8 a4bc fc8b 843e e425 4b3e a203 873b
000003f0: 522d ffbb ead5 19be c222 933d 56f7 a23d
0.37745926 -0.06685951 -0.01309954 0.08705382 0.22473828 0.1285786 0.10617852 0.059923228
0.18766607 0.21327175 0.17370453 -0.014726751 0.050948024 0.029779674 0.066832535 0.14218667
-0.14014788 0.070907585 -0.05470964 -0.124696 0.09462399 0.034934256 0.14600445 -0.05288379
0.21099876 -0.13785906 -0.001001732 0.2619271 0.19309902 -0.029483555 0.05911892 0.15002711
0.18639968 -0.01577344 0.14754231 -0.016223349 -0.1043137 -0.2182187 0.0508642 0.15714777
0.35976878 -0.035971086 0.17709252 0.27870664 0.28888583 0.16048019 -0.03959341 0.090888
0.16786769 0.2921906 0.16102202 0.37921244 -0.05117974 -0.046700183 -0.0002800265 -0.16332413
-0.039588984 0.07709903 -0.058763556 0.18002631 0.32994545 0.33462134 0.252294 -0.011772557
0.40857306 0.27718917 0.11551577 0.15555356 0.05571231 0.26431555 0.10382842 -0.23510636
-0.2185094 0.038107138 0.01618543 -0.05239946 -0.031031165 0.05344095 0.1279663 -0.31921154
0.11785091 0.047527228 -0.03196356 0.16120248 0.24040635 0.19384369 -0.016779618 -0.06622803
0.0653544 0.055175986 -0.23767997 -0.094279066 0.17205277 -0.05479389 -0.042186007 -0.06689876
-0.02408182 0.10520455 0.21348375 0.008637117 0.0977551 0.17405245 0.18387356 0.47126538
0.35744652 0.12300373 0.00023501998 0.075642146 -0.12166035 0.16116334 0.14092778 0.30874345
-0.10281602 -0.17557636 -0.047316875 0.2016311 0.21405624 -0.13416259 0.15188293 -0.16160229
-0.077233545 0.27028158 -0.07918239 0.057364073 0.15686372 0.2263283 0.2882448 -0.086707965
0.035282187 0.076951355 0.08252228 -0.0028212355 -0.04833515 0.08435743 0.17656553 -0.079618685
0.23208411 -0.17382392 -0.07558079 0.099878065 0.018076899 0.028574103 0.29355913 -0.0140343
-0.034365803 0.037730563 0.05543794 -0.09146538 -0.028250385 -0.15510748 -0.08390931 0.09870634
-0.045373935 -0.095388375 -0.16066228 -0.024394097 0.35289252 -0.1642192 -0.34724724 -0.06835825
0.054157235 0.007993466 -0.06433929 -0.064235546 0.07309729 0.009132172 0.28601146 0.04279134
0.20237781 -0.1977707 0.010770112 0.24249321 0.16532245 -0.039411943 0.038074493 0.30302894
-0.13892485 0.030136773 0.042838566 0.06622355 0.035771348 0.07976355 0.03593603 0.0989365
0.016002428 0.22579871 -0.09152128 0.068035334 0.3589849 -0.015880695 -0.18704645 0.46678472
0.217254 0.18352588 0.10907159 0.06086025 0.06988929 0.3954645 -0.25895384 -0.036401045
0.07878579 0.22976065 -0.14020465 0.1327906 0.0019062541 -0.022295384 0.042598408 0.10772643
0.048155185 0.1267732 0.06317458 0.35092783 0.07385532 0.0027120877 -0.1275823 0.04710592
0.23561606 -0.0023689617 -0.032003596 0.0016613062 0.036218226 0.030098699 0.13880162 -0.13298719
0.017576791 -0.09708831 0.17317878 0.00033501373 0.04389003 -0.017144382 -0.32166243 0.16257231
0.05317237 0.029588211 -0.11882648 0.35438207 -0.1027679 -0.023513727 0.11428381 0.21341096
-0.06133564 -0.20904341 0.05824919 0.025431003 0.24999379 0.113982275 0.2967547 -0.097175054
-0.02010739 0.2588805 0.19838673 0.004120306 -0.007787385 -0.15023008 0.07184364 0.07957332

features_model.2.bias f4 [128]
00000000: bf5a 0c3e 6f11 993d 7506 bd3b 6604 79bd
00000010: 3195 b33d 6478 333e ab3e 98bc 0000 0000
00000020: cd19 023e 4dc9 253e be30 e9bc 2594 053e
00000030: 4851 7ebc 69f6 babc 214a d7bb 7e2e 513e
00000040: 0654 a4bb c951 723d a10c ccbc c559 133e
00000050: d76c c3bb 47c0 293e 756e 97bc 3a13 3bbd
00000060: 2929 4b3e c403 113e 424b 0ebb 068e 39bc
00000070: 2dde e4bb 1362 d8ba 9940 eabc a744 1d3e
00000080: aa45 e53d f037 0b3e 7acb 483e 2db1 e03d
00000090: 876e 09bd 8229 ce3d 8b8c 183e 89ad 49bb
000000a0: f9b2 353e 4e2c da3d 0ed7 12bd b32e ddbb
000000b0: 96e9 be3d 94c2 c5bc 4caa 6e3c 2950 4dbc
000000c0: f04a dabc 3a6d ce3d 4b81 64bc a8ca 59bc
000000d0: 4aef 9dbc 3652 cc3d 296a 3abc 6a2a 253e
000000e0: 72c1 d83d e691 7abc 9848 a83d c4ec ccbc
000000f0: 96f6 c7bc 7174 053d 1290 56bb 4716 d838
00000100: 0576 26bc 9fbe 1bbd 103f d9bb 989e 2f3e
00000110: 8797 203e 4e79 ec3d e9c8 b73c 505b a7bb
00000120: 22bc debc 7a82 d2bc df8b 073e ef67 083e
00000130: 9db1 0d3e 0bc1 4c3b cee8 0f3e 4c22 9dbc
00000140: 0000 0000 1e33 633c 79e5 c8bc 0eb6 033e
00000150: 3946 6ebc 029a 023e dfa7 38bc 420e 5d3e
00000160: 6998 e03d 82ed 3abb cb84 50bc 8848 e53c
00000170: 26fd 0b3e 2b9c 08bd 558d 9fbc 2161 033e
00000180: 33b8 2ebc a93a 9bbc f3ef 343d c13d 523e
00000190: ac4c 3bbd dc10 19bd 0000 0000 4388 8bbc
000001a0: 3ab2 033e a75a febb bfdb 213e 050f 56bd
000001b0: 7975 11ba 3e3b dfbc faa8 f33d d172 41bd
000001c0: bef2 d3bc 14a4 42bc 1814 e73d cf0e 6c3e
000001d0: c667 1e3e 8ab2 1d3e f083 58bc 762a 3dbd
000001e0: e8bd f33b f9ae 8bbc f2e9 72bc 8f76 8d3d
000001f0: 335b 53bc d2c9 3f3d 0000 0000 8137 42bc
0.13706492 0.07474028 0.005768592 -0.06079521 0.087686904 0.17526394 -0.01858457 0.0
0.12705155 0.16190071 -0.028465625 0.13044794 -0.015522309 -0.022822576 -0.006570116 0.20427892
-0.005014899 0.059160028 -0.024908366 0.14389713 -0.0059639025 0.16577254 -0.018485287 -0.045672633
0.1983992 0.14161593 -0.0021712338 -0.011325365 -0.006984493 -0.0016508721 -0.028595256 0.1535822
0.11194928 0.13595557 0.1960887 0.109712936 -0.033552673 0.10066511 0.14897363 -0.00307736
0.17744054 0.10652982 -0.035849623 -0.0067499517 0.09321897 -0.024140634 0.014566969 -0.012531319
-0.026647061 0.10079427 -0.0139468415 -0.013292946 -0.019279141 0.09976618 -0.01137785 0.16129461
0.10583772 -0.015293574 0.08216971 -0.025015242 -0.024409574 0.03258175 -0.0032739681 0.00010303832
-0.010159974 -0.038023587 -0.006629832 0.17150342 0.15682803 0.115465745 0.022434669 -0.005107321
-0.027189318 -0.025696982 0.1323695 0.13320898 0.13837285 0.0031242992 0.14053652 -0.019181393
0.0 0.013867168 -0.024523484 0.12862417 -0.01454311 0.12754062 -0.011270492 0.2158747
0.1096657 -0.0028522913 -0.012726973 0.027988687 0.13670787 -0.03335206 -0.019476572 0.1283002
-0.010664034 -0.01894887 0.044174146 0.2053137 -0.045727417 -0.037369594 0.0 -0.017032748
0.12860957 -0.0077622714 0.15806483 -0.052260417 -0.0005548816 -0.027249929 0.11897464 -0.047228638
-0.025872584 -0.01187994 0.112831295 0.23052524 0.15469274 0.15400138 -0.01321505 -0.046183072
0.00743841 -0.017051207 -0.014826285 0.06907379 -0.012900162 0.04682333 0.0 -0.0118540535

features_model.4.weight f4 [128, 128]
00000000: defa 023e 3b03 44b9 a490 6f3d 7bad 72bd
00000010: a7a1 98bc cb99 62be c963 83be 63d7 923b
00000020: 41ff 9bbd 15f1 713c 5a68 76bd da07 2dbe
00000030: 9f26 54bd 05c9 4fbd 9233 2abc 140f 28bd
00000040: 7a0d 0f3e 8571 c53d 17f0 64be 5e44 7f3d
00000050: 21cd 653d a014 93be b4a5 19be bc9b b33d
00000060: 6c3a cfbd e8fb 963d 3158 bd3e 4efa 95bc
00000070: 5d75 e43d f46c e83d 7ce5 efbc ab06 21bd
00000080: df02 003d 00ff 5abe 8d43 383e ce76 493e
00000090: bbd6 3fbe cdba 7abd dab3 f7bc 652d 113d
000000a0: be23 10bd 6e23 ac3c ea6f ab3e a26a 09be
000000b0: 68d3 8e3d 6c8f 343e f31c 07bd a7cf 253e
000000c0: dd89 60be 6b8a ad3c d177 553d b03e 5a3d
000000d0: 3707 0dbd 5f6d 19be 6be5 94bd 0b45 dd3d
000000e0: dfea 7ebd 6681 a1be 6d91 323e 3471 4c3d
000000f0: f1c5 18be d9ef 5cbd f36f 1b3d 0fd9 13bd
00000100: 66fc 14be a64a b6bd 164f 1b3d f3aa 8bbd
00000110: 141b 983d 9984 393d c21d c53d 2d25 213e
00000120: 792c 08be 6e95 afbd 8ac3 09bd 2ae2 763d
00000130: da4f a4be 9312 ec3c 901d bdbd 14bb 0fbe
00000140: ffde 593e eabc 403e 8407 22bc 7a62 41bc
00000150: 0334 b53c 8e62 fcbd 64e3 993c 8170 763d
00000160: f283 2e3a c8ab 05be 8a1f 5e3d 1df7 133d
00000170: 48fd 18be ceb3 dabd c242 4cbd 3836 ce3d
00000180: de3d 143d 0ac2 ad3d df0c 13bc 4167 e23b
00000190: c8a9 33bd 03e4 4abd 278c e3bd 38a6 a63d
000001a0: afe7 06bd e02d 47be cdb2 51be af8a 05bd
000001b0: 1a55 04be d09f 05be bec6 693e f341 173e
000001c0: e47c 993b 523e 983d ea73 12bd 2741 383d
000001d0: bed9 02be 0930 d23d 2ef5 153e 3abf b9bd
000001e0: c6c9 dc3d 6de3 f4bd 98d2 113e 1b6c 66be
000001f0: 02ec 24be db93 0ebe 246a 0fbe 8b82 24bd
00000200: d07f 19bd 3341 d7bd b373 f63d 9e4f b5bd
00000210: 26fd 01be a152 0abd 9f03 2e3e 4a11 18be
00000220: 805e 5bbe 23b1 bbbd 9d95 1b3d a8f8 33be
00000230: 1a70 32bd 88ad 0c3e 7ec7 093d 161f 993c
00000240: ca27 1ebe c32b 48bd de78 943e ef6f 9abd
00000250: 254a 003e 90a5 b73d 848d 96bd 1858 603e
00000260: cde5 cc3d 818c 333d f36d f2bd e0bb 0abd
00000270: 6880 3cbe 77d5 2c3e c24a 4f3d 9882 a0bd
00000280: 4b5a 2cbd ecb9 02be b15a 783d d6db 89bc
00000290: 4118 863e 069c 09bd 54aa 483d d348 90be
000002a0: 269f 0bbc 665c 0dbc c77a a53d 94ed 423e
000002b0: 9328 d73e ac9a 363d bedc dcbc 6e2d 95bd
000002c0: f039 fc3d f2fc 5dbe 855f 18be 80c1 b8be
000002d0: 2c85 853d c910 26be 59b9 033d 7475 663e
000002e0: eaab 243e e823 fabb ac34 6ebd c02f babd
000002f0: e030 6f3e a530 883e 11d8 a03d 8594 cfbd
00000300: 78c5 8b3d 0fb8 a5bc 9b39 2cbb a658 c13d
00000310: b3a0 483e f30b 2cbe 35f9 153e 7950 953d
00000320: 43c3 13bd f185 b93d 213e 40bd cc7b cb3d
00000330: 303c cbbd b387 b5bd 2b3a c03d 85bb 08be
00000340: 9431 bf3d 72cc 313b 1c85 a2bb a510 0cbd
00000350: e694 7f3c bca7 10be 7beb 28bc 939e 6fbe
00000360: f741 123e f276 573e aa91 1f3d 1fb5 233e
00000370: 57ac b53d 3905 643c 81d4 81bd 7f2a d43b
00000380: c103 0abc 41e9 0d3e 0eb6 44bc c2b6 22bd
00000390: 4a97 5d3e 89ae 0e3d ff87 4cbe 5b0a 5ebc
000003a0: f3d8 053e 7d5e 12bd 4916 3bbd 0201 23be
000003b0: 2c9b e5bd 0d8a 3f3d 40b2 e7bc 059c 023d
000003c0: e2f1 c13d 1cee ecbd 7c0d c93d 5dcf d73d
000003d0: 9d12 96b8 6ec4 46bd e725 233e 31f4 e2bd
000003e0: c677 3d3e 09d9 4e3d f7c8 46bc 3598 85bd
000003f0: fdde 01be 22eb cebd 20e7 0cbd d09a 563e
0.1279101 -0.0001869322 0.05848755 -0.059247475 -0.01863177 -0.2212898 -0.25662068 0.0044812425
-0.07617045 0.014766951 -0.06015811 -0.16897526 -0.051794644 -0.050728817 -0.010388272 -0.041030005
0.13969985 0.09640793 -0.22357212 0.06232106 0.05610383 -0.28726673 -0.15004617 0.08769938
-0.10118565 0.07372266 0.36981347 -0.018307831 0.11155198 0.11348906 -0.029284231 -0.039313
0.031252738 -0.21386337 0.17994519 0.19674227 -0.18734257 -0.061213303 -0.030237127 0.035443682
-0.035190336 0.021012988 0.3348382 -0.13419583 0.06973916 0.17632836 -0.032986593 0.16192494
-0.2192759 0.021184167 0.05211622 0.05328244 -0.03443071 -0.14983128 -0.072703205 0.108041845
-0.06223571 -0.31544036 0.17438288 0.049912646 -0.14919259 -0.053939674 0.03794856 -0.036095675
-0.14549407 -0.08900957 0.03791722 -0.06819715 0.0742704 0.04529247 0.096248165 0.15736838
-0.13298215 -0.08573423 -0.033633746 0.06027428 -0.32092172 0.02881745 -0.09234154 -0.14036208
0.21276473 0.18822065 -0.009889487 -0.011803264 0.022119528 -0.12323485 0.018785186 0.060165886
0.00066572346 -0.1305381 0.054229297 0.036124337 -0.14940369 -0.10678826 -0.049868353 0.10068935
0.036191814 0.08484276 -0.008975237 0.0069092815 -0.043863088 -0.049533855 -0.11110716 0.081371725
-0.032935794 -0.19451094 -0.20478363 -0.032602962 -0.12923089 -0.13049245 0.2282972 0.14771251
0.0046840776 0.07433762 -0.035755076 0.04498401 -0.12778375 0.10263068 0.1464431 -0.09069677
0.10780673 -0.119574405 0.14240491 -0.22502176 -0.16105655 -0.1392359 -0.14005333 -0.040163558
-0.037475407 -0.10510483 0.120337866 -0.088530764 -0.12694225 -0.033770207 0.16993569 -0.14850345
-0.21422768 -0.091646455 0.03798448 -0.17575324 -0.04356394 0.13738072 0.033637516 0.01869158
-0.15444866 -0.04886986 0.28998464 -0.07540881 0.12528284 0.089671254 -0.07351211 0.21908605
0.100047685 0.043835167 -0.118373774 -0.033870578 -0.18408358 0.16878305 0.050608404 -0.07837409
-0.042078298 -0.12766236 0.060633365 -0.016828459 0.2619038 -0.03359606 0.048990563 -0.2818056
-0.008521831 -0.008627987 0.080800585 0.19035941 0.42023143 0.0445811 -0.026960727 -0.07284056
0.12315738 -0.21678522 -0.14880188 -0.3608513 0.06519541 -0.1621734 0.032159183 0.22505742
0.16081205 -0.007633675 -0.0581557 -0.09091139 0.23358488 0.26599613 0.078537114 -0.1013575
0.068247736 -0.020229368 -0.0026279453 0.094407365 0.19592552 -0.16801433 0.14645846 0.072907396
-0.036074888 0.090587504 -0.04693425 0.09935722 -0.09923589 -0.08863773 0.09386095 -0.13352783
0.09335628 0.0027129916 -0.0049597155 -0.03419556 0.015599465 -0.14126486 -0.010310049 -0.23400335
0.14282976 0.21041468 0.038957275 0.15987061 0.08870762 0.013917261 -0.0633936 0.0064747925
-0.008423747 0.1385851 -0.012006296 -0.039725073 0.21639743 0.03483442 -0.19973753 -0.013552274
0.13071041 -0.035734642 -0.04567555 -0.15918353 -0.11211237 0.046762515 -0.028283238 0.031887073
0.094699636 -0.11568853 0.09817025 0.10537598 -7.1560244e-05 -0.048527174 0.15932427 -0.11081732
0.18502721 0.05049995 -0.012132875 -0.06523172 -0.1268272 -0.10103442 -0.034400105 0.20957494

features_model.4.bias f4 [128]
00000000: 632c f8bc 0765 8abc 4b89 b0bc e44d e5bc
00000010: 1bb4 193e 5a62 bcbc 04cd ebbc d6bf a1bc
00000020: bb67 94bc 62ee 81bc 1388 8fbc 8d40 c83d
00000030: 12d5 3dbc f27d 9c3d 3e78 a03c d91b f4bc
00000040: dca8 3ebc fd49 49ba 4e99 f6bb df0a f73d
00000050: aab1 22bb 9e1c 9a3d 6681 74bc ea88 0dbc
00000060: 753a aa3d df04 db3c 90da c5bc 4971 0a3d
00000070: e3f3 95bc 6e78 033e 23ba 8e3d 6415 fdba
00000080: 2da2 36bc 7f0b 9f3d 5c56 febb 82f3 bc3d
00000090: cc52 3f3b 0000 0000 a663 f33d f44f a4bc
000000a0: e012 94bc 4c7b 31bc ef56 893d b826 43ba
000000b0: 0c06 8ebc 4f04 38bc 67a0 46bc f341 b43d
000000c0: a364 fc3d 6966 5b3e 5f2e 323d 0e95 00bd
000000d0: 54cc aabc 93cc cb3b 832c b1bc c1ab 54bc
000000e0: 0000 0000 4f0b a53b 843b 9dbc d149 1f3d
000000f0: 6eca 6aba bd42 d53c cb51 293e 7287 c3bc
00000100: fe6e 373e d205 533c 18a3 e03d b2c2 363c
00000110: 5fb6 35bb c51d 763d c769 943d ea13 91bc
00000120: a3aa 8abc 2a62 abbc fd27 99bc 0509 ab3d
00000130: b6bb 9f3a 0d01 243d b07f d03d d773 c5bc
00000140: 870a 5b3c 2eb0 9e3c 04e3 0f3e ef5e c3bc
00000150: 67c7 08bd c709 72bc 412d f63d b884 093e
00000160: 2f5a 28bd b464 d5bc f6b0 9abc ac4c 0a3c
00000170: 4062 2d3e f89e d2bc 99a9 183e b832 09bd
00000180: ef0f 283e 907e c63d b104 203e 913c 393e
00000190: 8d10 27bd af92 c8bc ecdd 61bb 5f6e 203d
000001a0: 0070 2a3e 07d6 1a3e 8fd5 38bb e2db 9fbc
000001b0: 1c77 3f3e b20a a0bc 99b1 c0bc e50c 5f3d
000001c0: f28b 1a3c f588 4bbc 0c37 2e3e 3d9d 093d
000001d0: ba0d e7bc 9bcf cd3d 9181 acbc a8e5 193e
000001e0: 2b85 2bbb d412 983d 2d29 98bc 0000 0000
000001f0: daaf 353e c453 fc3d b43e 263c 678d 9f3d
-0.030294603 -0.016893877 -0.021549841 -0.027991243 0.15010111 -0.022996116 -0.028784283 -0.019744795
-0.018115869 -0.01586074 -0.01752094 0.09777937 -0.011586444 0.0764121 0.019588586 -0.029798435
-0.011636939 -0.00076785666 -0.0075255996 0.1206262 -0.0024825134 0.075249895 -0.014923429 -0.0086386
0.08311931 0.026735721 -0.02415207 0.033799443 -0.01830477 0.12838909 0.069690965 -0.0019308743
-0.011147064 0.077658646 -0.0077617597 0.09226133 0.0029193638 0.0 0.11884241 -0.020057656
-0.018075407 -0.010832619 0.067060344 -0.0007444429 -0.017336868 -0.011231496 -0.012123204 0.08801641
0.123238824 0.21425785 0.043501254 -0.03139215 -0.020849384 0.0062194555 -0.02162767 -0.012980402
0.0 0.0050367485 -0.019193418 0.038888756 -0.0008956556 0.0260328 0.16535108 -0.023868296
0.17913434 0.012879806 0.10968608 0.011154817 -0.002772711 0.060086984 0.07246738 -0.017709691
-0.016927069 -0.020920832 -0.018695826 0.0835133 0.001218668 0.040040065 0.101806045 -0.024103088
0.013369209 0.019371118 0.14051443 -0.023848979 -0.03339329 -0.014772839 0.1202035 0.13429534
-0.04110163 -0.026048996 -0.01888321 0.008441132 0.1693201 -0.025710568 0.14908446 -0.033495635
0.16412328 0.09692109 0.1562679 0.1808951 -0.04078727 -0.024484007 -0.003446455 0.039167758
0.16644287 0.15120707 -0.0028203463 -0.019514028 0.1869778 -0.01953635 -0.023522185 0.054455657
0.00943278 -0.01242279 0.17013186 0.03359722 -0.028204788 0.10049363 -0.021057876 0.15029013
-0.0026171904 0.07425466 -0.018574322 0.0 0.17742863 0.123206645 0.0101467855 0.07790642

policy_model.0.weight f4 [128, 128]
00000000: 5095 f93a 4691 223b de44 e9ba d9a7 c2ba
00000010: 2c66 0fba 290a 0cbb 964e 29bb 7190 a8ba
00000020: ec6a e7ba f07b d83a 02c1 97ba b450 f2ba
00000030: 1859 0fbb 8802 8b39 7091 28bb e239 d6ba
00000040: 7570 3fbb b963 e039 764f 9cba 4a5e 65bb
00000050: 6f8f 413b 4401 96bb 953f 19bb aef4 e338
00000060: b8a6 1e38 b1dc a7ba 95f6 9eba 8ba7 bcba
00000070: ece0 f1ba 2520 af3a a658 aebb 8961 dbb8
00000080: 70e4 d2b8 b300 71bb d5f3 de39 4f02 8dbb
00000090: 38be b9b8 9c86 70ba cfb9 a6bb 59f2 3ebb
000000a0: d340 56b9 c343 82ba d400 40ba d2b9 1d3b
000000b0: fd5b 3d39 144c 9c39 a937 d63a ec06 68ba
000000c0: c9f1 30ba 0546 96ba f137 f8ba 24ee 08bb
000000d0: 32d7 9fba 6641 963a ce8f f5ba 7e2f 373a
000000e0: c4f8 30ba fb8e 60bb 11bf faba 307a 1cbb
000000f0: 4811 eaba f206 d8ba 670c 40ba 3af1 4aba
00000100: 95c9 8c3a 4a68 ef3a 7079 3a3b 8515 1ebb
00000110: f0e7 8738 5982 eabb 5821 b6bb 5bf5 bdba
00000120: 7b71 f93a 47da 763a 2f40 28bb 54a9 a33a
00000130: 4143 a7b8 d37c fab9 e7e8 be3a aa29 e6ba
00000140: 2408 703a eaf4 5d39 92df eeb9 7f56 85ba
00000150: 43a4 0ebb e789 0c3b 78fe 08bc de37 d0bb
00000160: da49 e4ba 5682 433b 9288 ddba 4371 39bb
00000170: 9cfc c73a ae1f 38bb e1e0 80ba ceb4 5a3a
00000180: 2224 83ba dcad b9bb 7d6f f53a 3744 3b39
00000190: 9920 5f39 6a03 eaba 6ef8 24ba 57ed 2039
000001a0: 464a b0ba 5f16 e7ba 1cf7 b93a 4e8c 1bbb
000001b0: 93da 023a c53a cdb9 1f09 a33a 6a95 34bb
000001c0: d2ab 90b9 a159 56bb ddad a839 21ec 29bb
000001d0: 58e8 f6ba 419c e5bb 8a8a c4ba 8b64 97bb
000001e0: 0663 0cbb d377 e1bb 937b 8237 a571 2739
000001f0: 089e c6bb 6488 91bb 7677 35b9 d0c8 ecba
00000200: 9c6b 5bbd 7002 a23b c603 5f3c b844 4f3c
00000210: 14cd 1a3d 71f0 803c 1635 b43c d6f9 10bc
00000220: c6bd 913c 9c47 84bc 1836 30b9 d919 6f3d
00000230: 547a 453d 457b 2b3d 204c 8d3d 273c 843c
00000240: e367 113d db73 633c e3cc 173a 4df0 873d
00000250: 6286 063c 5f80 a83d b6e2 453c ad56 c63b
00000260: de25 9f3d 0024 f33c 9a20 173d 068e 443d
00000270: f934 da3b 0fdc 0f3d 51c8 963d 35ca e53c
00000280: 41cc c53b 567c 033d f76d b83b 5975 9e3d
00000290: c4a4 9cbc 5497 0cba 46f4 553d 3968 273b
000002a0: 5b53 1fbc 986c 813c bd77 b03d 8906 0cbc
000002b0: d33f 243b 1bc2 923c 055d b8bc 6ee3 953d
000002c0: 80fc ed3c 14b5 723b e133 623c 11b5 153d
000002d0: 1a8c 8e3c 8207 b53c f55f 723c 2d34 d637
000002e0: 8a44 1239 510c da3a de7a a93c 2e05 6f3d
000002f0: f5fd 3f3a 69a3 393c d843 ae3b 7972 603c
00000300: bc89 18bd 84fe ed3c 93da 8b3d 81af 21bc
00000310: c1b8 003c 972d 863d 29a3 8f3d 33e7 643d
00000320: 5a8e b03c 2ae8 9abc aca7 633c ad77 663d
00000330: f135 9e3a 680f b03d 4dbd f2bb 8e16 b53b
00000340: abc9 8e3c 3759 e2bc b5cc 9bbc dcbb 303a
00000350: 514c c73c b863 8c3c e3ff 6d3d d824 593d
00000360: 1e66 203c efdb 6d3c 9987 043d a489 ef3c
00000370: 6555 00bb f2ca 86b9 b8bb c23b 3405 c6bc
00000380: 4657 2f3d c489 8e3d 4b11 b0bc b3a6 fd39
00000390: 592d 913b ff14 013d 610d 743d a2d4 8e3d
000003a0: 4e55 50bc f693 7d3d 529a 183d cda6 473d
000003b0: a4db 0abd 769f d43b f7ea 483c 68a4 953b
000003c0: 4682 8d3d 8da2 273c 12c1 023d 4b2b 003d
000003d0: 9372 933b 25fb 8c3d ead1 453c ceb3 6e3d
000003e0: 9933 dbba d1e0 913d 3a83 053d 7225 3fba
000003f0: 74f5 343d b9ac 8b3d ff34 ef3b 4ef9 a73d
0.0019041691 0.0024805828 -0.0017797013 -0.0014851048 -0.0005470242 -0.002136836 -0.0025834194 -0.001286043
-0.0017655767 0.0016516428 -0.0011577907 -0.0018487186 -0.0021873172 0.00026514032 -0.0025721453 -0.0016344155
-0.0029211317 0.00042798909 -0.0011925537 -0.0034998828 0.0029534956 -0.0045777876 -0.0023383845 0.000108697786
3.7825404e-05 -0.001280686 -0.001212793 -0.0014393193 -0.0018453873 0.001336102 -0.0053206263 -0.00010460901
-0.0001005613 -0.0036774098 0.0004252481 -0.0043032537 -8.8569184e-05 -0.0009175332 -0.005088068 -0.002913615
-0.0002043278 -0.0009938407 -0.0007324342 0.0024067056 0.00018058713 0.0002981132 0.0016343492 -0.0008851129
-0.0006749896 -0.0011464959 -0.001893757 -0.0020893896 -0.001219487 0.0011463582 -0.0018734874 0.0006987973
-0.0006750936 -0.003426491 -0.0019130429 -0.002387654 -0.0017857933 -0.0016481562 -0.0007326067 -0.0007741634
0.0010741228 0.0018265333 0.002845373 -0.0024121713 6.480503e-05 -0.007156652 -0.005558174 -0.0014492677
0.0019031012 0.0009416681 -0.0025673022 0.0012486377 -7.9757076e-05 -0.00047776717 0.001456526 -0.0017560024
0.00091564865 0.0002116744 -0.0004556147 -0.0010172873 -0.0021765388 0.00214445 -0.008361451 -0.006354316
-0.0017417029 0.0029832325 -0.0016901663 -0.002829627 0.0015257779 -0.0028095054 -0.0009832644 0.0008342982
-0.0010005275 -0.0056664776 0.0018725243 0.00017859122 0.00021279081 -0.0017853801 -0.00062931224 0.00015347205
-0.001344987 -0.0017630568 0.0014188024 -0.002373475 0.00049916765 -0.00039144434 0.0012438631 -0.0027554878
-0.00027593836 -0.0032707232 0.00032172995 -0.0025928097 -0.0018837554 -0.0070071523 -0.0014994901 -0.00462014
-0.0021421327 -0.0068807392 1.5554751e-05 0.00015968697 -0.0060613193 -0.004441308 -0.00017306008 -0.0018065218
-0.05356942 0.004944138 0.0136117395 0.012650661 0.037793234 0.015739651 0.02199797 -0.008848628
0.017790686 -0.016147427 -0.0001680482 0.05837426 0.048212364 0.041865606 0.06899285 0.016141964
0.035499465 0.013882603 0.00057907234 0.066376306 0.00821075 0.0822761 0.012077978 0.006052813
0.077708945 0.029680252 0.036896326 0.047987007 0.006659147 0.035121974 0.07362426 0.028050521
0.006036312 0.032100998 0.005628343 0.07737226 -0.019121535 -0.0005363126 0.05223491 0.00255443
-0.009724463 0.015798852 0.08616588 -0.00854648 0.0025062456 0.017914822 -0.022505293 0.073187694
0.029051065 0.00370342 0.013806314 0.03654963 0.01740079 0.022098307 0.014793386 2.5535084e-05
0.00013949178 0.0016635751 0.02068847 0.05835455 0.00073239143 0.011330464 0.005318146 0.013699167
-0.03724073 0.029052027 0.06828799 -0.009868504 0.007856549 0.06551664 0.07013542 0.05588455
0.021552254 -0.018909533 0.013894957 0.056266475 0.0012070519 0.085966885 -0.0074078203 0.0055263704
0.017430147 -0.027630432 -0.01901851 0.00067418604 0.024328383 0.017137393 0.05810536 0.053013653
0.009789972 0.014517768 0.03235588 0.029240437 -0.001958215 -0.00025709678 0.005942788 -0.024172403
0.04280784 0.069598705 -0.02149262 0.0004838012 0.0044304547 0.031514164 0.05958307 0.0697415
-0.012715651 0.061908685 0.037256546 0.048743058 -0.033900872 0.006488736 0.012263051 0.004566718
0.06909613 0.010231626 0.031922407 0.031291287 0.0044997423 0.068838395 0.012073973 0.058276944
-0.0016723751 0.071229585 0.03259585 -0.00072916516 0.044179395 0.068200536 0.007300019 0.08201848

policy_model.0.bias f4 [128]
00000000: c7a6 95ba 6e36 8f3d 7361 c4ba de70 3d39
00000010: 38ad b537 c461 1cb9 9c8c b6bb f4bb 27bc
00000020: 5c27 ca3a 568b c4ba c5bc c4ba b7c7 6abc
00000030: f2c9 8abc d730 663c ac2f 8839 a860 b439
00000040: aeea e23b f988 8dbc f320 c4ba 3b16 bfba
00000050: 3635 3dbc 4f4a 06bc 2923 f93b e2d1 c7b9
00000060: a8d3 79bc eeb8 c4ba a4bc 42bc 261a 62bc
00000070: 19df 00bc 1567 c4ba 58a4 0ebc 0938 d0bb
00000080: 7742 60bc 5b5f ddbb 15b0 c4ba fb1c d5bb
00000090: 46e1 5eba e12d 9dba 8d73 90bc 7aa4 63bc
000000a0: 1fd0 883d 1837 6fbc 880b cc3b 9f86 c4ba
000000b0: 921f a8ba 2475 0b3d 01e3 84bc 380b 25bc
000000c0: 1ed6 18bc 9942 1e3b 8901 2abc ebc0 b3ba
000000d0: 1d50 76bb 51ec 833b 13c1 53bc 0000 0000
000000e0: 0000 0000 fc61 09bb 0a50 8cbc 1836 a7ba
000000f0: fe56 87bc d62d c3ba 2838 c4ba 21b0 783b
00000100: 64b4 7ebb 69b4 c4ba bbf0 e5ba 9d3b 7ebc
00000110: 4afd 0abc fd31 8cbb df95 00bc afe2 febb
00000120: fd62 83ba 76ae a9bb e95e 823a 5275 76bb
00000130: 0c4a c4ba 3787 82bc dc5d 77bc 1d9e c4ba
00000140: 1f77 d73c daff 86bc 44ae 65bc 14b0 0bba
00000150: a1c9 ab3b 1274 98ba 7c9c 5bba e78b d33d
00000160: 2981 26bc 920e 92bc 8456 c4ba e106 6bbb
00000170: 72ef a1b9 64d5 e9bb 58cf fbba 968e 14bc
00000180: 0625 8dbc 648c c4ba b693 7fbc e5fd 80bc
00000190: 3d0b 1e3b 0895 25bc f66c 42bb ab4e a7bb
000001a0: e90f d1bb 2424 be3b 5c3e 333c d129 30bc
000001b0: b980 a7ba cf94 c4ba 635c dabb 940b 2ebc
000001c0: da86 2fbc 8659 e7b8 3d57 34ba 58f6 d8ba
000001d0: abae 05bc 61df 76bc 6681 a0ba c198 c2ba
000001e0: e8a4 54bc f252 2b3d ced0 a8ba 8c96 4b3b
000001f0: e2ef 6abb 4368 6bbb 709c c83b e6bc 48bb
-0.0011417501 0.069928035 -0.0014982655 0.00018066491 2.1657543e-05 -0.0001491374 -0.005570961 -0.010237683
0.0015423107 -0.0014995139 -0.0015009871 -0.014329842 -0.016941998 0.01404973 0.0002597546 0.0003440429
0.0069249487 -0.017277228 -0.0014963433 -0.0014578769 -0.011548331 -0.0081964275 0.0076030684 -0.00038112613
-0.015248217 -0.0015008727 -0.011885796 -0.01380018 -0.007865691 -0.0014984334 -0.008706175 -0.006354336
-0.013687721 -0.006755752 -0.001500609 -0.006503699 -0.0008502196 -0.0011991822 -0.017633224 -0.013894195
0.06680321 -0.014600538 0.0062269606 -0.0014993733 -0.0012826791 0.03404726 -0.016221525 -0.010073476
-0.009328393 0.0024148582 -0.010376343 -0.001371411 -0.0037584372 0.004025974 -0.01292445 0.0
0.0 -0.0020962944 -0.01712801 -0.001275721 -0.016520973 -0.001489098 -0.0014970349 0.0037946778
-0.0038864845 -0.001500738 -0.0017543057 -0.015517143 -0.00848324 -0.00427842 -0.007848232 -0.0077784876
-0.0010024008 -0.005178268 0.0009946498 -0.003760655 -0.0014975681 -0.015933616 -0.015098061 -0.0015000735
0.026301919 -0.016479421 -0.014018599 -0.0005328667 0.005242542 -0.0011631271 -0.0008377505 0.10329419
-0.01016263 -0.017829213 -0.0014979397 -0.0035862254 -0.00030886714 -0.007136034 -0.0019211574 -0.009067198
-0.017229568 -0.0014995453 -0.015599182 -0.015746066 0.0024115585 -0.010106333 -0.0029666997 -0.0051058135
-0.0063800705 0.005802648 0.010940161 -0.010752157 -0.0012779451 -0.0014997962 -0.0066638454 -0.010622878
-0.010713303 -0.000110316134 -0.00068794546 -0.0016552908 -0.00815932 -0.015067906 -0.0012245595 -0.001484655
-0.01297877 0.04182715 -0.0012879611 0.0031065075 -0.0035848548 -0.00359203 0.0061221644 -0.003063017

policy_model.2.weight f4 [8, 128]
00000000: daf4 ecba b67a 2bbd 1218 e23a baf7 513a
00000010: b3fd 00bb f7a8 4e3a b385 7cbc 5a8c d0bb
00000020: 7808 b63b d176 2ab9 e80b eeba cee0 b8bb
00000030: c7d1 afbb 6805 713b 489c 203b bd5b 9f3a
00000040: e50b 723b 4e92 e2bb d230 833a 73d5 29bb
00000050: 7733 b9bb b5bb efbb ea06 7f3c 1b31 393a
00000060: b614 f8bb 3444 d73a d2e5 2abb d05e dbbb
00000070: 758e 81bc 0a85 5aba 5b2a 05bc 3aeb ee39
00000080: a680 11bc 1dbc 1ebc 0e06 e63a de67 f7bb
00000090: 05f3 97ba 6e14 8f3a 2f64 e5bb 7005 09bc
000000a0: 17f3 76bd ed7a dbbb 7157 633b 04f9 c9ba
000000b0: 8bd7 a73a f26c 99bd 79f6 f9bb d9b3 3bbb
000000c0: 183d f1bb 296f 993b a89b f3bb f235 b5bb
000000d0: 3c32 913b 57cd 943b 0ec2 acbb 4779 6cb9
000000e0: b87e e23a 8e05 a63a a7f5 dabb 02a1 cdb7
000000f0: 75b3 d5bb ff1e f3b9 af07 2cba 6f25 883b
00000100: 1215 ffbb a1c0 863a 3bc9 7f3a 713a bdbb
00000110: 5ab8 d4bb e3c4 99bb 8d9e f2bb 0bbb 07bc
00000120: 689d 83b8 737f 493b 9966 f33a c5d4 47ba
00000130: 64fa 163b 6f1d 07bc 7ae5 a4bb 7bda 5e38
00000140: b840 d13c 3319 b7bb e169 e0ba 31b6 a03a
00000150: 6c64 8a3b 9965 923a 030f e4b8 e45e a9bd
00000160: 0af3 b7bb 2783 d2bb 89de cd3a 40b5 f5bb
00000170: 53c4 1f3b df86 d7bb 0b95 9b3a a11f 75bc
00000180: 413a c5bb 51cb 613b 303b 95bb a18f e8bb
00000190: d8c6 743b 137c dbbb c539 373b fa35 9039
000001a0: 04f5 8238 2fad 6a3b a37d ecbc df73 ecbb
000001b0: 6df7 c1b8 4eff 133b c1e1 d3bb e058 85bb
000001c0: 6f3b 26bb be2c cdb8 3882 7e3b 50bf 463a
000001d0: 2013 cbba 0714 ccbb c119 7c3a c232 a6b9
000001e0: b3b1 eebb ba76 97bd 0042 c6b9 a87d 37bb
000001f0: 4ac7 fdb8 88ce 0bbb 1a41 963b 9fc1 5e3a
00000200: 8aeb 8a3a 80c1 113d 1045 2bba b222 39ba
00000210: fa44 d839 1d47 71ba e961 e13c 38dd 30bc
00000220: e18c 08bc 649f 38b9 46b7 553b 71ed 15bc
00000230: 1b21 0ebc 2813 e2bb 0ada 28bb a26b aabb
00000240: ef76 1fbb 60d0 09bc d7f9 f23a d004 64ba
00000250: f036 44bc 7199 28bc c114 11bc 67a5 02ba
00000260: 0cfe 0cbc 1a7c 543a 6b00 60bb 9a15 febb
00000270: 9903 443b 18b8 c6ba 2a0b 29bc 1a58 363b
00000280: dc60 fabb 5b9f 8dbb d1cb 0f3a 9324 14bc
00000290: 1480 863a 0d9e afba 7e64 09bc 2c72 3dbc
000002a0: b759 743d cf91 27bc f8b1 b5bb f5fc 2b3b
000002b0: 421a 2e39 708b 83bc 465e 0cbc 4394 10bb
000002c0: e67d 11bc a47f eabb fe10 53bc df88 8fba
000002d0: 4963 8abb 062e e7bb 30b0 23bc bc9b c63a
000002e0: a12c fc3a 9664 c63a fbf2 ecbb c918 27ba
000002f0: 5e4a 13bc 6348 7c39 2af0 b1ba d359 0abc
00000300: b917 cbbb cf88 3cba 9262 e6b9 cdfc 07bc
00000310: 1c4e 0abc 093f a2bb 0055 e9bb 0649 17bc
00000320: 635d f4ba 0cbd d83a 07d8 89bb 48ab 7fba
00000330: 64e8 6b3b f179 0dbc 3ee4 28bc a834 b4ba
00000340: 9490 e6ba 611e 0abc 686e 3bbb 34a4 a0ba
00000350: eaa5 e3bb 5f15 8eba 77ca bb3a 228b d03c
00000360: f799 22bc 9f77 21bc 9d1d d23a 3986 2ebb
00000370: b40e f1b8 9b64 30bc 5ca3 b4b9 f2b9 0b3b
00000380: 2b13 01bc fd37 e139 3bcf 05bc 6a3e 11bc
00000390: d2bf d9bb 27c6 2bbc f8a8 813b 007c aab8
000003a0: 26c3 e43b cfee cebb f4b0 27bc 904f ffbb
000003b0: db59 3cba e767 5bba 7013 fdbb 6dc5 81bb
000003c0: 1b6c 15bb a982 2739 960f 083b b557 78bb
000003d0: 10a1 d9b8 99e8 12bc 4ec3 79ba 9b93 eeb8
000003e0: bd17 07bc 15ff 1bbc 02ab 2039 c13c 183b
000003f0: 0b33 a4ba 733b 44bb f97c 02bc b85f e5ba
-0.0018078343 -0.041865073 0.0017249605 0.00080096314 -0.0019682467 0.0007883454 -0.015412736 -0.0063643875
0.005555209 -0.00016256726 -0.0018161507 -0.005642033 -0.0053655836 0.0036776904 0.0024507213 0.0012158077
0.003693336 -0.0069144135 0.0010009056 -0.002591458 -0.005651887 -0.0073160776 0.015565613 0.0007064507
-0.0075708283 0.0016423524 -0.0026076925 -0.006694652 -0.015815 -0.00083358644 -0.008127774 0.00045570155
-0.00888077 -0.009688404 0.0017549412 -0.0075502237 -0.0011592811 0.0010916123 -0.007000468 -0.008363113
-0.060290422 -0.0066980035 0.003468957 -0.0015409295 0.0012805326 -0.07491483 -0.007628259 -0.0028641133
-0.0073620193 0.004682441 -0.007434327 -0.0055301124 0.004431037 0.00454108 -0.0052721566 -0.00022551893
0.0017280197 0.001266645 -0.006682116 -2.451288e-05 -0.006521637 -0.00046371666 -0.0006562424 0.004154853
-0.007784494 0.0010280797 0.00097574637 -0.005774789 -0.006491703 -0.00469266 -0.0074041546 -0.008284341
-6.275886e-05 0.0030746132 0.0018570005 -0.00076229527 0.0023037428 -0.008246764 -0.0050322386 5.31324e-05
0.025543556 -0.005587721 -0.0017121398 0.0012261329 0.004223397 0.0011169194 -0.00010874683 -0.08270052
-0.0056136893 -0.006424326 0.001570658 -0.0074984133 0.0024378493 -0.006577357 0.001186998 -0.014961154
-0.0060189073 0.0034453461 -0.004554175 -0.0070972 0.0037349965 -0.0066981404 0.0027958017 0.00027506036
6.244521e-05 0.0035808792 -0.028868502 -0.0072159613 -9.249044e-05 0.0022582593 -0.006466121 -0.0040694326
-0.0025365015 -9.7834956e-05 0.003883494 0.00075816084 -0.0015493371 -0.0062279734 0.0009616875 -0.00031699805
-0.007284367 -0.07395692 -0.00037814677 -0.002799848 -0.000121011006 -0.002133282 0.0045853974 0.000849748
0.001059876 0.035584927 -0.00065334234 -0.000706236 0.00041250122 -0.0009204017 0.027512508 -0.01079493
-0.008334369 -0.00017606985 0.003261046 -0.009150849 -0.008674885 -0.0068992563 -0.0025764727 -0.005200819
-0.0024332365 -0.008411497 0.0018537593 -0.0008698227 -0.011975989 -0.0102904895 -0.008855046 -0.00049837533
-0.008605491 0.0008105651 -0.0034179937 -0.00775404 0.002990937 -0.0015161065 -0.010317603 0.0027823509
-0.007640941 -0.004321975 0.0005485388 -0.009041923 0.0010261559 -0.0013398543 -0.008385776 -0.011562865
0.05965587 -0.010227635 -0.005544897 0.0026243303 0.00016603715 -0.0160577 -0.008567398 -0.0022061027
-0.008880114 -0.007156329 -0.012882469 -0.0010950825 -0.0042232615 -0.007055047 -0.009990737 0.0015152614
0.0019239375 0.0015136178 -0.007231114 -0.0006374238 -0.0089898985 0.00024059559 -0.0013575603 -0.008444267
-0.0061978963 -0.0007192017 -0.0004394246 -0.0083000185 -0.008441474 -0.004951362 -0.0071207285 -0.009233719
-0.0018643554 0.0016535833 -0.0042066607 -0.0009753001 0.003599667 -0.00863503 -0.010308323 -0.0013748603
-0.0017590695 -0.008430094 -0.0028599743 -0.0012255968 -0.0069472687 -0.0010840109 0.0014327307 0.025456969
-0.009924403 -0.00985518 0.0016030554 -0.0026630296 -0.00011494514 -0.010766174 -0.00034453988 0.002132055
-0.007878105 0.0004295706 -0.008167083 -0.008864978 -0.006645181 -0.010484255 0.00395691 -8.1293285e-05
0.0069812713 -0.0063150893 -0.01023506 -0.007791467 -0.00071850204 -0.00083696697 -0.0077232644 -0.0039603026
-0.0022800032 0.00015975036 0.0020761243 -0.0037894074 -0.000103773666 -0.008966588 -0.0009527699 -0.00011376218
-0.008245406 -0.0095212655 0.00015322494 0.0023229572 -0.0012527419 -0.002994266 -0.007964366 -0.001749984

policy_model.2.bias f4 [8]
00000000: 2aac b3bc 27f3 123c 3bea 193d e71c 333c
00000010: f96a 49bc b3b9 2fbb 781a d73c 7ccf 60bd
-0.02193268 0.008969105 0.037576895 0.010932184 -0.012293571 -0.0026813566 0.026257738 -0.054885373
