results/short_race/second_iteration_training/model349.pt (torch, 276107 bytes, 13 tensors)

features_model.0.weight f4 [128, 4]
000000 28 79 72 bd 72 6f 23 3e 9e 6e 8d 3d 4b 71 62 be
       -0.059197575 0.15960482 0.06905864 -0.2211353
000010 3e d6 ce 3c cf ee 8e bd e2 a0 b9 ba 98 69 7a 3d
       0.025248643 -0.06979143 -0.0014162327 0.06113586
000020 c7 31 37 3e 12 51 69 3c bb 8f 17 bd cb 7c 41 3e
       0.17890082 0.01424052 -0.037002306 0.18895261
000030 61 70 34 3e 3b ee 9a bd 16 5a 69 bd ac 8e 8a bd
       0.17620994 -0.0756497 -0.05697068 -0.06765494
000040 a7 a2 55 3d 33 68 58 bc bc 76 10 3d be fc c2 bd
       0.05215707 -0.013208437 0.035269484 -0.09520863
000050 ce a3 8b 3d 4d 0b 43 3d 41 b1 70 3e be 81 31 be
       0.06818353 0.0476182 0.23505117 -0.17334649
000060 5d f0 50 be 0a 04 20 3c ed 5b 6d 3d 7e 3b 20 3e
       -0.20404191 0.009766588 0.057948995 0.15647694
000070 20 eb 69 bd e7 5f a6 3d 08 5c 3f 3d a8 c0 22 3e
       -0.057109 0.08123761 0.046718627 0.15893805
000080 15 0c 3e be 9e 53 32 3d 76 eb fc 3d b4 bb 9a 3b
       -0.18559296 0.043536775 0.12349598 0.004722083
000090 b5 85 a8 bd f1 01 20 3e 64 94 25 3d a3 d9 8e be
       -0.082286276 0.1562574 0.04042472 -0.2790042
0000a0 18 ac 38 3d e8 07 1c 3e ae 96 39 3e c0 21 83 3d
       0.045085996 0.15237391 0.18123886 0.06402922
0000b0 bf f5 1a 3e 4e 3f dc bd 8b 5d 28 3e 37 0a a9 3d
       0.15132807 -0.10754262 0.16441934 0.082539015
0000c0 10 bb 22 3e 33 43 6f 3e 21 42 ec 3c 42 c0 fc bd
       0.15891671 0.23365478 0.028840126 -0.12341358
0000d0 f2 3f 27 be 1d 15 6a bd 62 b5 15 be a9 0d a4 3b
       -0.16332987 -0.05714904 -0.14619973 0.005006511
0000e0 6c b7 ed bd ee f2 54 3e 3c 37 12 bd 2b 4c 0d 3e
       -0.116072506 0.20795795 -0.035697207 0.13798587
0000f0 ad 65 51 be 20 91 1a bd f6 35 9a be 8e bf f5 3c
       -0.20448942 -0.03773606 -0.30119294 0.029998567
000100 34 97 fb 3d 45 14 5b bc e6 da 85 3c 51 01 05 be
       0.12284699 -0.013371532 0.01633973 -0.12988783
000110 f5 56 6c bd 20 66 6f be 02 56 fe bd 52 a1 0b bd
       -0.057700116 -0.23378801 -0.124187484 -0.034089394
000120 54 40 07 be 19 6d 55 3d 09 8b a7 bd a5 3e f3 bd
       -0.13208133 0.052105997 -0.08180816 -0.11877183
000130 cd 29 ab bd 56 11 f1 bd 2a b7 83 be 6d 8a 2f be
       -0.08357582 -0.11770885 -0.2572568 -0.17142649
000140 d9 92 aa 3d 1e 48 cd bd cc 1e 02 be c6 8c 63 3c
       0.0832879 -0.10023521 -0.1270706 0.0138885435
000150 7b a3 7f be 21 e9 20 be 64 34 45 3e a7 c5 ea bb
       -0.24964707 -0.15713932 0.19258267 -0.0071646753
000160 f8 82 6c 3d 1d 4a 01 3e a9 5c c1 bd 5d 85 54 bd
       0.05774209 0.12625928 -0.09441502 -0.051884998
000170 d1 b9 69 be 28 96 bf bd cd a0 d9 bd a5 5a 82 3d
       -0.2282479 -0.09354812 -0.106263734 0.06364945
000180 e1 19 3c 3d 3e 66 10 3e bf 20 02 3e 8c 97 7e be
       0.045923118 0.14101502 0.12707804 -0.24862498
000190 9c ba c4 be 3e bc 51 be f5 2a 9f 3d 21 4a 8e bd
       -0.38423622 -0.20481965 0.07771865 -0.06947733
0001a0 92 d6 7a 3e 03 db 9c 3e ae a5 f4 bc b0 cc 28 3e
       0.24495915 0.30635843 -0.029864158 0.16484332
0001b0 87 e6 b0 bd 3b 4b a0 bd 1a 80 d6 bd 7d 10 e0 bc
       -0.086377196 -0.07826849 -0.10473652 -0.027351612
0001c0 76 6b ff bb 73 7c 97 3d b5 68 04 be e5 4f 7f 3e
       -0.0077947928 0.07396784 -0.12930568 0.24932821
0001d0 25 ab dd 3d e7 a9 81 3d d8 57 fa bd 75 15 7a bd
       0.10823659 0.063312344 -0.12223786 -0.06105562
0001e0 cf 1f 36 3e 40 67 df 3d 6c 53 2e 3e b4 3f 9b 3d
       0.17785572 0.10908365 0.1702401 0.0758051
0001f0 2f e6 f5 3d ff 25 9b 3d 6f a4 e6 3d e3 2c 20 3e
       0.12006795 0.075756066 0.11261832 0.15642123
000200 97 88 43 3e 66 4f 83 be 52 fa 62 3d 08 98 e8 3d
       0.19095074 -0.25646514 0.055414505 0.11357123
000210 a5 57 40 3e 7d 02 e8 bc 3d cc fe 3d 28 9a 19 bd
       0.18783434 -0.028321499 0.12441299 -0.03750053
000220 d2 74 0f 3d 5c fe 4a 3d 3a 91 72 3e 35 77 2a 3e
       0.035023518 0.049558982 0.23688212 0.16647036
000230 b2 e5 98 3d 33 01 d7 bd 10 61 e9 bb dd 29 26 be
       0.07465686 -0.104982756 -0.0071221665 -0.16226907
000240 eb 92 b0 bd 77 96 be bd e6 ce a6 3d c6 8e d0 bc
       -0.086217724 -0.09306043 0.081449315 -0.025458705
000250 f4 11 9c bd 45 6b bc bd ec c7 d7 b9 83 c2 f4 3d
       -0.07620612 -0.092001475 -0.0004115695 0.11951163
000260 60 2a 53 be eb 89 45 3d d4 34 9e 3d 72 1d fa 3d
       -0.20621634 0.048227232 0.0772492 0.122126475
000270 fb 33 87 3d d6 90 24 3c fe 0c 02 3e e8 2a 8a 3e
       0.06601711 0.010044297 0.12700269 0.2698586
000280 58 11 94 bd b4 db b0 3d ce d9 06 be 8e 4b 4b 3e
       -0.072298706 0.08635655 -0.13169023 0.1985304
000290 83 bf 43 bd b3 12 14 bd 62 71 86 3c 69 12 67 be
       -0.04779006 -0.036150645 0.016411487 -0.22565617
0002a0 7b 0f 95 3d 9e 74 42 bd 2c ec 3e bd 05 20 12 be
       0.07278343 -0.047474496 -0.04661195 -0.14270027
0002b0 46 7c fa bd 91 ad 8e 3d cf 2f 03 3e a4 4d 78 3c
       -0.122307345 0.06966699 0.12811206 0.01515523
0002c0 04 b1 00 bd 2b b8 19 3e 7d c8 4c 3d 48 49 42 bd
       -0.031418815 0.15011661 0.049995888 -0.047433168
0002d0 db 14 2e bd 25 fc d4 bd 62 71 8d bd 7b 10 fc 3d
       -0.042500358 -0.10399655 -0.06906392 0.12307831
0002e0 ac 99 d8 3d 12 cd b0 bb 17 a1 c6 3e c2 b0 e0 bd
       0.105761856 -0.00539554 0.38794777 -0.10971214
0002f0 d7 07 ec 3b 70 d1 0e bc ec 67 f7 3d 58 9a 11 bc
       0.007203083 -0.008716926 0.120803684 -0.008886896
000300 97 0b 55 be 8d 65 be bb fa 10 16 be 73 b1 e4 3b
       -0.20805202 -0.0058104456 -0.14654914 0.0069791614
000310 94 ee 6f 3e ab da 02 be 2a 72 47 3d dc 7c e3 3d
       0.23430854 -0.12778728 0.04869286 0.111077994
000320 12 36 55 be 0b 02 8b bd 7c 11 fd 3c 0b 0f 16 3e
       -0.20821407 -0.06787499 0.030892126 0.14654176
000330 f3 10 99 be d2 c2 d2 3d d7 79 39 3e 11 e4 b0 3c
       -0.29895744 0.10291065 0.18112884 0.021593126
000340 80 63 50 3e 3e aa 8f 3e 85 a2 90 bd ff 3c 69 bd
       0.20350456 0.28059572 -0.07062248 -0.056942936
000350 e5 6b 63 3e 82 58 73 bd 47 8c 46 bd da 5b 1c bd
       0.22209127 -0.05941058 -0.048473623 -0.038173534
000360 22 6c 89 3d df 1b 00 bc 53 0c c4 3d 6e 69 16 bc
       0.06710078 -0.007819145 0.09572663 -0.00918041
000370 ef f7 19 3e 89 c8 37 bb 66 38 4b 3e f8 d1 a4 3e
       0.15035985 -0.0028043112 0.19845733 0.32191443
000380 bc 99 1b 3e 9d bd 9c 3c a6 5e 08 3b 97 b8 c0 bd
       0.15195364 0.019133383 0.0020808368 -0.09410208
000390 a7 e4 66 bd cf 05 c6 3d 00 86 05 3e bf ce 02 3c
       -0.056370404 0.09669077 0.13039398 0.007983862
0003a0 ab 51 94 bd 62 3f a4 3c 8e 79 6f bd 11 5a f7 3c
       -0.072421394 0.020049755 -0.058465533 0.030194314
0003b0 63 de 0c 3e 58 9d ab 3d 53 25 13 3e 69 5b 54 3e
       0.13756709 0.0837962 0.14369707 0.20737995
0003c0 e2 a0 02 be ea 6e 8f 3d 5b e8 6c 3c 0c c8 1a 3e
       -0.12756684 0.07003577 0.014459695 0.15115374
0003d0 04 47 db 3c 35 02 87 bd 02 2a 0d be 83 d7 56 3e
       0.026767261 -0.06592218 -0.13785556 0.20980649
0003e0 01 2a bf bd b1 05 db 3d fb 8c 57 3d fb 6b 8b be
       -0.093341835 0.10694445 0.052624684 -0.2723082
0003f0 cf 28 50 be 15 51 c9 3d 85 41 ff bc de dd d3 bd
       -0.20328067 0.09829918 -0.031159172 -0.10345052

features_model.0.bias f4 [128]
000000 34 3e 14 b8 d9 1d 21 bc f4 a3 b8 3b 4d 6e de bc
       -3.534388e-05 -0.009833776 0.005634779 -0.027152205
000010 b5 fe 8a 3d cc e8 fc 3c 54 3b ac bc 4b 73 69 3b
       0.06786863 0.030872725 -0.021024384 0.0035621698
000020 db f7 47 bb 99 1d 99 bc 3b 36 cc 3c 4b 8f 0d 3b
       -0.0030512724 -0.018690871 0.024928203 0.0021600302
000030 3a 1e 74 3c ef 22 18 bd 2b f4 c2 bc 5f 2c f8 3b
       0.014899785 -0.03714269 -0.023798069 0.007573649
000040 d6 9d 73 3d 65 b3 cc bc 15 08 5e bd bf f8 a1 ba
       0.059476696 -0.024987886 -0.054206926 -0.0012357457
000050 33 38 fd bc a1 20 44 bd bf dc df 3c 88 ec ad bc
       -0.030910587 -0.04788268 0.02732694 -0.021230951
000060 63 2f 5d 3c 30 86 b5 bc 5c 74 68 3c e5 88 1b b9
       0.013500067 -0.022158712 0.0141878985 -0.00014832949
000070 9b 10 ab 3c cd 0c 28 3d d6 a1 57 3d ef e0 3a 3d
       0.020881942 0.041027833 0.052644573 0.04562467
000080 96 0c 6c b9 a4 fc 16 3d fe 34 be ba be 37 fd 3c
       -0.00022511402 0.03686203 -0.0014511643 0.030910369
000090 9d 30 02 3c 58 92 6d bc b7 67 7e bc c1 92 c8 3c
       0.007946161 -0.014500223 -0.015527657 0.02448404
0000a0 f6 c9 22 3d a4 83 2e 3c 08 74 3f 3d ce 24 8e bc
       0.039743386 0.010651503 0.046741515 -0.017351534
0000b0 c9 fd 4b bc 01 42 e2 bc bb 6e 43 3d 62 bd bf 3c
       -0.012450644 -0.027619364 0.047713023 0.023405734
0000c0 08 b9 bf bc 89 19 26 3d 8a 14 ba bc 6a cd 14 3c
       -0.02340366 0.040551696 -0.022714872 0.009082178
0000d0 22 b3 3d 3d 00 5b 3c 3d 3c 38 6b 3d 71 c2 45 bc
       0.046313412 0.045985222 0.057426676 -0.012070284
0000e0 25 85 fd 3c 4f e9 de 3b 6d 8c 6f bc 66 48 0f 3d
       0.030947277 0.006802715 -0.014620882 0.034981154
0000f0 ac bb 27 bc 93 57 3f bd 59 17 1e 3c 12 73 a7 bc
       -0.010237616 -0.046714377 0.009649121 -0.020440612
000100 ba bb b6 bc 5f b8 39 bc 3c fe 92 bc aa ff 52 3c
       -0.022306312 -0.011335461 -0.017943494 0.012878338
000110 ef b0 e6 3c f9 a3 84 bc 84 1f 94 bd 80 8a f6 bc
       0.02816054 -0.01619147 -0.07232574 -0.030095339
000120 f0 51 f1 bc 62 79 22 bd cd 11 23 bd 11 53 17 bd
       -0.029458016 -0.03966654 -0.039811898 -0.036944453
000130 25 fe 4a 3a 9e 78 7b 3d a0 32 93 ba 4f 86 b2 3c
       0.0007743559 0.061394326 -0.0011230297 0.021792559
000140 43 8f 12 bd 11 8d 06 bd b4 50 9f 3c 62 43 22 bc
       -0.035781156 -0.032849375 0.019447662 -0.009903761
000150 2c 1b 2c bd 8f 80 32 bc 34 5e 3c 3d 3b 89 6f 3d
       -0.0420181 -0.010894909 0.045988277 0.058480483
000160 cd 97 40 3d a5 2a cc bc 65 71 9a bc f3 5d 96 3a
       0.04701977 -0.024922678 -0.018852899 0.0011472091
000170 97 00 b9 bc 8b a2 b9 bc 97 cb 03 3b 7f bb d9 3c
       -0.02258329 -0.022660514 0.0020110363 0.026578663
000180 ec 03 3a bd 2f a0 96 3a 91 3f 0f bc 6d 3a 94 3b
       -0.045413896 0.001149183 -0.008743183 0.0045235665
000190 8a f7 c2 bc 1d 31 47 3c b5 8a ab 3d e0 8f b1 bc
       -0.023799676 0.012157706 0.08376066 -0.02167505
0001a0 88 71 5d bc 9c 82 f5 3b 9a d2 f5 bc 4f 59 96 bb
       -0.0135158375 0.0074923765 -0.03000765 -0.004588283
0001b0 cb 24 69 bc 4e 6c 91 bc 5d 58 bc bc 8b 9a 8a bc
       -0.0142299635 -0.017751839 -0.022991354 -0.016919395
0001c0 25 1c da bc 24 82 4f 3d 19 12 32 3d e8 a9 36 3c
       -0.026624748 0.05066122 0.04347429 0.011148907
0001d0 61 67 f4 3c ec 72 d1 bb 9a 22 19 bc 3d 63 a5 bc
       0.029834451 -0.0063918736 -0.009346629 -0.020188922
0001e0 7b 5c bf bc 43 59 06 3d c3 85 41 3d 6f 99 4f ba
       -0.023359528 0.03279997 0.047246706 -0.0007919287
0001f0 a5 8e 9f bc b5 bb 50 bc 3a 13 53 3c 76 46 f0 3b
       -0.019477198 -0.012740065 0.012883002 0.0073326183

features_model.2.weight f4 [128, 128]
000000 96 7c 35 3e b3 ad 81 bd 01 3a 88 bd df d8 e9 3d
       0.17723307 -0.063319586 -0.06651688 0.11418318
000010 e8 c4 35 3e 8c d1 5e 3d 5d 05 83 bd 20 e6 09 be
       0.17750895 0.05439906 -0.06397507 -0.13466692
000020 c0 e4 15 3c b6 49 03 3c eb b9 9e bc e0 f7 02 bc
       0.0091487765 0.0080131795 -0.019375762 -0.007993668
000030 94 51 d5 bc 92 d3 2d 3d b8 fe e2 bd ac 10 d9 3d
       -0.026039876 0.042438097 -0.1108374 0.10598883
000040 ae 76 07 be 27 f4 ad 3d 37 17 60 bd de 6e c3 bd
       -0.13228866 0.08493834 -0.05470964 -0.095426306
000050 8c ec d6 3d ea 20 54 3d dd d2 03 bb 9e 5b 53 bd
       0.104943365 0.0517892 -0.0020114698 -0.051601045
000060 b4 69 3d 3d f6 02 f9 bd ac 2b 52 bd e2 83 8d 3e
       0.046243384 -0.12158768 -0.05131118 0.2763968
000070 06 ae 80 bb 70 ea da bd 6d 6a 86 3b d8 58 6a 3d
       -0.003926995 -0.10689247 0.0041020424 0.057213634
000080 e8 fd 47 3e 0f e3 96 bc 97 8c 03 ba 8e 3a 27 3c
       0.19530451 -0.018418817 -0.0005018203 0.010206832
000090 00 01 c7 bd 45 ab 64 be d4 cc 4e be d3 1d 04 3d
       -0.097169876 -0.22330959 -0.20195323 0.032255005
0000a0 38 b9 21 3e 2b 9b fd 3b 6b 7e 45 3e 6a 08 b2 3d
       0.15793312 0.0077394447 0.19286506 0.08693011
0000b0 ee 9a a8 3d 53 3f 1d 3e 11 5d 2b bd 74 39 ee bb
       0.082326755 0.15356188 -0.041836802 -0.0072700325
0000c0 bd 6b 2c 3e 97 4c 96 3e 77 ce 13 3e c2 3a 42 3e
       0.16837974 0.29355308 0.14434229 0.18967727
0000d0 98 50 fb bd 0e 8f 22 bd 10 9e 94 bd 7a a9 62 be
       -0.122712314 -0.03968721 -0.072567105 -0.22134963
0000e0 59 b2 79 bd 6a de e6 bd 0e b2 70 bd 95 1d b7 3d
       -0.0609611 -0.11272891 -0.058763556 0.08941189
0000f0 f6 c4 e1 3d 97 d8 99 3e 8e 4b 0f 3d 89 63 73 be
       0.110238954 0.30048057 0.034984164 -0.23768438
000100 d9 3a 57 3e 0e cb 2f 3d 9e b1 c3 bd 60 5b 73 bd
       0.21018542 0.042918257 -0.09555362 -0.059413314
000110 f2 6b aa bd 86 58 ac 3d 4b ea c1 3d 2e 9e 57 be
       -0.0832137 0.08415322 0.09468516 -0.21056435
000120 7e 1e 61 be 1b 93 0d be f0 d6 e6 bd 84 b5 0a bd
       -0.21984288 -0.13825648 -0.11271465 -0.033864513
000130 d7 31 fe bc ea 4d 48 3d 49 74 c2 bd 9e c3 9e be
       -0.031029625 0.04890243 -0.09494836 -0.3100862
000140 e6 7f 46 3d 35 0c bd 3d 9f 9d e3 bd dc c3 09 3d
       0.048461817 0.09230844 -0.11114048 0.03363405
000150 f5 be 4b 3e 24 c4 47 3e 15 8c 08 be 27 9d 95 bd
       0.19897063 0.19508415 -0.13334687 -0.07305365
000160 5e 4c 6d 3d 00 99 5a 3d ce 64 6f be 29 93 a5 bd
       0.057934158 0.05336857 -0.23378298 -0.08084709
000170 f9 ef 33 3e 60 c0 78 bd 8e 50 06 bd de 4f f4 bd
       0.17572011 -0.060730338 -0.032791667 -0.11929296
000180 97 af 93 bd 19 ac ff 3d 29 a2 54 3e 4f b1 3d be
       -0.072112255 0.12483997 0.20764984 -0.18524669
000190 1b 9d 06 3e 6e 7e c6 bb e7 3d b4 3d e6 e5 91 3e
       0.13145868 -0.006057552 0.088008694 0.2849571
0001a0 e0 73 30 3e 30 30 2f bc cb de 35 be 9b 1c 0c be
       0.17231703 -0.010692641 -0.1776077 -0.13682787
0001b0 10 29 f9 bd 05 0f 2c 3e b9 1f 4b bd cc d3 3b 3e
       -0.12166035 0.16802604 -0.0495908 0.18342513
0001c0 f7 a1 b1 bd 7b 06 3f be a6 82 38 bd 14 e5 bb bc
       -0.086734705 -0.18654816 -0.04504647 -0.022936381
0001d0 c6 4a 1c 3d ae 80 06 be 62 d7 37 bd ae ef 18 be
       0.038157247 -0.13135025 -0.04488314 -0.1493518
0001e0 39 3e 40 bd e0 06 13 3c 53 64 94 bd c4 ae 57 3d
       -0.04693434 0.008973807 -0.07245698 0.052656904
0001f0 21 0e 2c bd fe 99 65 3d ec c5 aa 3d 5d f0 95 bd
       -0.042005662 0.05605506 0.08338532 -0.07321236
000200 ba d6 81 bd 37 3f 9c 3d 48 a6 8d 3d fc e1 97 3c
       -0.06339784 0.07629245 0.06916481 0.018540375
000210 16 4c 83 bd 2f 65 a5 3d 13 8d a8 3d c9 7d 20 be
       -0.064109966 0.0807594 0.08230033 -0.15672983
000220 61 1d cf 3d 4f 94 85 be 01 87 2a be fc fa d8 3d
       0.101130255 -0.26089713 -0.16653062 0.105947465
000230 90 9a c0 3b 09 13 c7 3c 52 f5 0e 3e 99 bf 2e bd
       0.0058778003 0.024301069 0.1396077 -0.04266319
000240 3d 79 8b bc 19 f8 17 3d 3d 47 6c 3d 10 f5 b2 bd
       -0.017025584 0.03710184 0.057685126 -0.08738148
000250 7f 9a b2 bc 46 97 20 be 2e 50 05 be cb bc b7 3d
       -0.021802185 -0.15682706 -0.13018867 0.08971556
000260 81 ef 8e bd c8 2e cc bd 6f 3a 21 be be a9 e4 bc
       -0.069792755 -0.0996986 -0.15744947 -0.02791297
000270 88 94 87 3e 70 1f 2c be ae a3 b2 be 2f d9 c7 bd
       0.26480508 -0.16808867 -0.34890503 -0.09758221
000280 5f e4 6b 3d 03 83 9b 3c 74 2e f7 bd b7 05 5e bd
       0.05759084 0.01898337 -0.12069407 -0.05420467
000290 13 2c 83 3d fb 0b 01 bb 06 2d 2b 3e 0d 97 36 bc
       0.06404891 -0.0019690979 0.16716394 -0.011144412
0002a0 62 e9 e6 3d af 34 43 be 81 ac 9c 3c 64 73 ea 3d
       0.11274983 -0.19063066 0.019125225 0.1144779
0002b0 3c c0 31 3c 57 72 51 bd 3f c3 43 3d 77 08 82 3e
       0.010849055 -0.051134434 0.047793623 0.25397083
0002c0 ae ec 0f be ed 9b 0c 3d 0b 6a da 3c 12 77 1b bd
       -0.1405513 0.03432839 0.026661893 -0.03795535
0002d0 ec af 0e 3d a2 95 be 3d cf 43 75 3c 45 5a 99 3d
       0.03483574 0.09305884 0.01496978 0.07487921
0002e0 b5 5c ca 3c dc f0 dd 3d 82 6f bb bd db cc 23 3d
       0.02470241 0.10836956 -0.09152128 0.039990287
0002f0 d3 54 63 3e ab 5c 44 bd 29 4b 72 be 0a d6 9d 3e
       0.22200327 -0.047939938 -0.23661484 0.3082736
000300 fd 71 6f 3d db 5e 9e 3b e5 89 c8 3b 30 ee 9a bd
       0.058458317 0.004833085 0.006119954 -0.07564962
000310 f0 71 b7 3c 6c 50 6e 3e c8 84 88 be e4 73 02 bd
       0.022393197 0.23272866 -0.26663804 -0.031848803
000320 f1 cc 8f 3d 51 74 c0 3d d6 5d 35 be 06 ef 0a 3e
       0.07021511 0.093971856 -0.17711577 0.13567743
000330 38 f3 03 3b 40 41 47 bc 6d ca c8 bd a8 a9 f8 3d
       0.0020133983 -0.012161553 -0.09804235 0.12141734
000340 31 5c c9 3b b9 38 24 3e 82 01 5a 3d 25 14 96 3e
       0.0061450233 0.16037263 0.053224094 0.29312244
000350 81 d7 21 3d 1f b0 c4 bb 7f 0a 2c be e4 e9 7f 3d
       0.03951216 -0.0060024406 -0.16800879 0.062478915
000360 0e 0d 76 3e 5f 48 f8 bb 96 07 25 bd 97 f7 8d bb
       0.24028417 -0.0075769867 -0.040290438 -0.0043324935
000370 d5 26 f6 3c e7 4d bd 3c 84 b7 10 3e b8 b5 11 be
       0.030047813 0.023108436 0.14132506 -0.14229476
000380 73 91 a5 bc 94 21 cd bd d0 93 2e 3e b5 97 df bd
       -0.020210957 -0.1001617 0.17048573 -0.10917608
000390 f2 27 51 3d ff 3f b7 bd 0f 23 ab be 50 15 8c 3c
       0.051063485 -0.08947753 -0.33425185 0.017100006
0003a0 90 15 78 bd c6 d9 3d bd d8 da 44 be 5c e0 64 3e
       -0.06056744 -0.046350263 -0.19224107 0.22351211
0003b0 fa 77 d2 bd 93 9a ec bc 63 1b 85 bc 50 7b 19 3e
       -0.1027679 -0.0288823 -0.01624841 0.14988446
0003c0 a3 46 74 bd fb 62 4c be f4 7f 6b 3d bd 1d ce bd
       -0.059637677 -0.19959633 0.057495072 -0.10064266
0003d0 11 60 3a 3e cf 86 d8 3d 29 94 0d 3e 5f 17 bc bd
       0.18200709 0.10572588 0.1382605 -0.09184145
0003e0 bf c8 13 bc 5b 66 90 3d 0a 2f 57 3e 86 be 41 bc
       -0.00902003 0.07050773 0.21014038 -0.0118252095
0003f0 2e 38 31 be b6 15 70 be 9a c0 03 bd f2 dc 92 3d
       -0.17306587 -0.23445782 -0.0321661 0.07171048

features_model.2.bias f4 [128]
000000 6f 8e bd bb 13 f6 9a 3c 72 c9 d9 bb 84 32 25 bd
       -0.0057848017 0.018916165 -0.0066463286 -0.04033138
000010 bf 00 74 bc e7 64 6d 3c 8d 54 ab bb 00 00 00 00
       -0.014892756 0.014489389 -0.005228585 0.0
000020 e6 05 b0 3c a2 67 b3 3a cf 93 ad bc 32 5c 0c 3d
       0.021487188 0.0013687501 -0.021188645 0.03426761
000030 22 fe 90 ba 0b 0a 6d bc 21 4a d7 bb 7a e9 9b 3c
       -0.0011062066 -0.014467726 -0.006570116 0.019032229
000040 06 54 a4 bb d8 d8 1d 3d 0d e4 cb bb 0c dc ab 3d
       -0.005014899 0.038536876 -0.006222254 0.0839158
000050 e8 09 53 bb 76 da a2 3c be 02 e7 bb 89 3f 38 bd
       -0.003220195 0.01987956 -0.0070498874 -0.044982467
000060 7e 46 91 3b d4 b3 78 bc bc 88 24 bc 06 8e 39 bc
       0.004433452 -0.015179593 -0.010042366 -0.011325365
000070 8b c0 8c bc 6c fb 71 bc d5 a7 99 bc 94 88 87 bc
       -0.017181655 -0.014769416 -0.018756786 -0.016544618
000080 28 cb 50 39 e0 a8 96 3d 50 3e 0b bc bd 3b 80 3d
       0.00019912107 0.07356429 -0.008498743 0.06261394
000090 e1 6c ab bc 7e 66 9e bc 50 dd e0 bb 58 6b 31 bc
       -0.020925941 -0.019335981 -0.00686232 -0.010828815
0000a0 57 bc a2 bb 59 80 87 bb 7b 2e f6 bc be ff a4 bb
       -0.0049662995 -0.0041351733 -0.03005146 -0.0050353697
0000b0 e6 60 d7 3c f6 8e 8e bc 0a 09 ba 3c 29 50 4d bc
       0.026291322 -0.017402153 0.022709388 -0.012531319
0000c0 df 31 0b bd fd fa 3e 3d 7f 7c cd bb ba ab 93 ba
       -0.033983108 0.04662608 -0.0062709446 -0.0011266388
0000d0 4a ef 9d bc e3 03 5a 3d f8 e7 39 bc 0e 15 53 bb
       -0.019279141 0.053226363 -0.01134681 -0.0032208594
0000e0 1d 60 6b 3d df 80 bc bc c4 b8 1b 3d 74 bb 2e bc
       0.057464708 -0.02301067 0.038018003 -0.0106648095
0000f0 7b a9 8d bc 6e 3b 35 3d 14 dd 07 bb e3 94 1b 3b
       -0.017292729 0.04424613 -0.0020731138 0.0023739866
000100 05 76 26 bc f6 f4 ad bc 1d fb c4 3a 0f d3 92 bc
       -0.010159974 -0.02123497 0.0015028451 -0.017922906
000110 8c 5e 22 3b a8 58 79 3d a4 d2 96 b7 b0 ab 71 bb
       0.0024775593 0.060875565 -1.797948e-05 -0.0036876015
000120 ca 6c ae bc 78 8e 4e bc a0 58 08 3c bc 07 c7 bc
       -0.021292109 -0.012607209 0.008321911 -0.02429568
000130 5e 4b 69 3c 1d 70 78 3b 0f bf 8f 3d 4c 22 9d bc
       0.01423916 0.0037908622 0.070188634 -0.019181393
000140 00 00 00 00 5f cc 27 bc b2 42 5b bc d4 ac 0e bc
       0.0 -0.010241597 -0.013382601 -0.008708198
000150 d5 c6 ff bb 34 56 35 3b ea 63 ac bc f8 62 44 bb
       -0.007805685 0.002766979 -0.021043736 -0.0029966217
000160 f9 e2 0e 3d 82 ed 3a bb cb 5b 13 bd 1a 8a f2 3b
       0.034884427 -0.0028522913 -0.035976212 0.007401717
000170 68 53 2f 3d c3 1a b0 bc d2 2d 84 bc 26 6c 0f 3b
       0.04280415 -0.021497136 -0.01613513 0.002188453
000180 f9 79 1f bc a9 3a 9b bc 18 dc 36 bc 5b ec b0 3b
       -0.00973367 -0.01894887 -0.011160873 0.0053992695
000190 f4 8c 26 bd 80 cd 0a bd 00 00 00 00 00 1f 1d bd
       -0.040661767 -0.033887386 0.0 -0.038359642
0001a0 89 c4 5b 3c a7 5a fe bb 90 7b 83 ba b1 28 12 bd
       0.013413557 -0.0077622714 -0.0010031331 -0.035683338
0001b0 71 ed 39 3b c8 81 7d bc 5b 40 71 3d 70 98 26 bd
       0.0028370286 -0.015472837 0.058899265 -0.04067272
0001c0 6f d5 a4 bc 2a d0 91 bc 39 d0 7a bc d9 08 28 3b
       -0.020121304 -0.017799456 -0.015308433 0.002564004
0001d0 ba 3c 06 bc 01 45 fe 3b f7 a0 07 bc 80 76 f5 bc
       -0.008193189 0.0077596908 -0.008278123 -0.029963732
0001e0 c8 07 ee 3b 7e f2 98 bc 5b 82 98 bc 90 0b 09 bc
       0.007264111 -0.018670317 -0.018616846 -0.008364573
0001f0 46 e7 dd bb a7 a9 4d 3d 00 00 00 00 97 26 51 bc
       -0.0067719547 0.05021062 0.0 -0.012765548

features_model.4.weight f4 [128, 128]
000000 04 6f 11 3e c2 1f 30 3c bf 8a 86 3d f9 0f 66 bd
       0.14202505 0.010749759 0.065694325 -0.056167576
000010 96 78 16 bc cb 99 62 be 08 98 82 be 63 d7 92 3b
       -0.009184023 -0.2212898 -0.25506616 0.0044812425
000020 bf 7c 7f bd 61 1c 08 3d 51 fd 6e bd ed 8f 1b be
       -0.062374827 0.03323019 -0.05834705 -0.15191622
000030 65 12 4b bd 81 ea 4d bd 92 33 2a bc 35 6b b3 bc
       -0.04957809 -0.05027247 -0.010388272 -0.021901706
000040 7a 0d 0f 3e 82 c7 d6 3d e5 8e 60 be 68 16 9a 3d
       0.13969985 0.10487272 -0.2192951 0.07523805
000050 96 3d 6d 3d 1c a1 92 be b4 a5 19 be bc 9b b3 3d
       0.05792006 -0.28638542 -0.15004617 0.08769938
000060 6c 3a cf bd 76 0f b1 3d 6d 85 c0 3e 4e fa 95 bc
       -0.10118565 0.08645527 0.37601796 -0.018307831
000070 6a 1e ea 3d af 36 f6 3d 0c f1 d8 bc 88 ab c8 bc
       0.11431582 0.12022149 -0.026482128 -0.024495855
000080 4f 4c 44 3d 34 fa 4c be c9 f6 45 3e bc 62 57 3e
       0.047924336 -0.2001732 0.19332422 0.21033758
000090 bb d6 3f be fd e3 71 bd 63 05 85 bc 65 2d 11 3d
       -0.18734257 -0.059055317 -0.01623792 0.035443682
0000a0 52 c7 8d bc 26 a2 b7 3c ea 6f ab 3e d2 69 09 be
       -0.017306957 0.022416186 0.3348382 -0.13419273
0000b0 f6 22 9d 3d 30 3d 36 3e 5c 90 e1 bc a7 cf 25 3e
       0.07672684 0.17796779 -0.027534656 0.16192494
0000c0 31 8a 60 be 34 51 fe 3c c3 4c 5e 3d b0 3e 5a 3d
       -0.21927716 0.03104458 0.054272424 0.05328244
0000d0 37 07 0d bd a2 fe 0e be 6b e5 94 bd f1 6a df 3d
       -0.03443071 -0.13964322 -0.072703205 0.10909069
0000e0 eb ca 4f bd 66 81 a1 be 34 82 30 3e a0 b5 54 3d
       -0.050730627 -0.31544036 0.17237169 0.051931024
0000f0 6a 7b 16 be 44 8a 3f bd f3 6f 1b 3d 0f d9 13 bd
       -0.14695516 -0.04676272 0.03794856 -0.036095675
000100 66 fc 14 be 30 80 b3 bd 16 4f 1b 3d c7 34 63 bd
       -0.14549407 -0.08764684 0.03791722 -0.055470254
000110 c7 98 b2 3d 7a 6b 6e 3d b7 a5 d5 3d 2d 25 21 3e
       0.08720546 0.058207966 0.10431998 0.15736838
000120 3b ee 06 be 02 8a af bd 99 38 b0 bc 2a e2 76 3d
       -0.13176815 -0.08571245 -0.021511363 0.06027428
000130 6c 52 9c be 92 b0 fa 3c b0 19 aa bd 14 bb 0f be
       -0.30531633 0.030601773 -0.08305681 -0.14036208
000140 ff de 59 3e b1 30 48 3e fe 9d ec bb 26 e3 97 3b
       0.21276473 0.19549824 -0.0072209826 0.0046352325
000150 7d 40 b5 3c 8e 62 fc bd 9f 1b 95 3c 81 70 76 3d
       0.022125477 -0.12323485 0.018201647 0.060165886
000160 89 17 51 3c c8 ab 05 be 7c b1 7a 3d 60 40 27 3d
       0.012761959 -0.1305381 0.06120442 0.040832877
000170 b7 27 09 be 5a ae d5 bd b4 fb 39 bd 38 36 ce 3d
       -0.13394056 -0.104336455 -0.04540606 0.10068935
000180 de 3d 14 3d 0a c2 ad 3d ef 98 14 3a 41 67 e2 3b
       0.036191814 0.08484276 0.0005668541 0.0069092815
000190 c8 a9 33 bd 89 f2 36 bd 27 8c e3 bd f3 bf b5 3d
       -0.043863088 -0.044664893 -0.11110716 0.08874502
0001a0 f1 37 07 bd e0 2d 47 be 9c 67 40 be f7 aa fe bc
       -0.033012334 -0.19451094 -0.18789524 -0.031087382
0001b0 1a 55 04 be 68 0a 04 be d4 d6 77 3e f3 41 17 3e
       -0.12923089 -0.12894595 0.24203044 0.14771251
0001c0 2e d3 d8 3b 52 3e 98 3d 0f 61 c8 bc e7 21 64 3d
       0.0066169715 0.07433762 -0.024460344 0.055696394
0001d0 be d9 02 be e6 74 ea 3d 2e f5 15 3e c5 84 b7 bd
       -0.12778375 0.11448078 0.1464431 -0.08960871
0001e0 c6 c9 dc 3d cd 0a f4 bd 06 5a 19 3e 1d 7d 66 be
       0.10780673 -0.119161226 0.14975747 -0.22508664
0001f0 02 ec 24 be a8 4b 07 be 24 6a 0f be 8b 82 24 bd
       -0.16105655 -0.13212454 -0.14005333 -0.040163558
000200 14 20 29 bd 2a 7b f7 bd b2 67 e8 3d 06 4b b1 bd
       -0.041290358 -0.120840386 0.11347903 -0.08656888
000210 8b 34 0a be b2 8e 64 bd dc 77 29 3e 4a 11 18 be
       -0.13496606 -0.055800147 0.16549629 -0.14850345
000220 58 2f 5e be f5 dd 8c bd 41 96 02 3d b3 49 3e be
       -0.21697748 -0.068782724 0.031881575 -0.18582802
000230 c3 08 69 bd 12 9e 0c 3e 7e c7 09 3d 05 ca a1 3c
       -0.05689312 0.13732174 0.033637516 0.01974965
000240 ca 27 1e be ba 6c 8a bd db a8 90 3e cd 0b b2 bd
       -0.15444866 -0.06759019 0.28253826 -0.08693657
000250 fe ec f4 3d 05 0b ac 3d e3 b7 8f bd 88 2e 5e 3e
       0.11959265 0.08400539 -0.070174955 0.21697438
000260 cb 56 95 3d d9 53 c7 3d 6c 3f f2 bd e0 bb 0a bd
       0.07291945 0.097327895 -0.11828503 -0.033870578
000270 7d c0 44 be 36 10 27 3e 61 e3 48 3d 25 0c b3 bd
       -0.19214053 0.16314778 0.04904497 -0.08742551
000280 0a bf 09 bd 97 e7 0e be b0 35 f9 3c 84 b0 e3 bc
       -0.033629455 -0.13955532 0.030421108 -0.02779413
000290 67 10 87 3e a5 d5 30 bd 2c 48 44 bb 6d 63 91 be
       0.26379701 -0.043172497 -0.0029950244 -0.28396168
0002a0 a4 4e e1 3b 0e f6 a3 bc c7 7a a5 3d e9 eb 42 3e
       0.00687583 -0.020014789 0.080800585 0.19035305
0002b0 30 af d1 3e 6c 82 21 3d 05 a4 10 bd 6e 2d 95 bd
       0.4095397 0.03943102 -0.03531267 -0.07284056
0002c0 d2 73 fe 3d c6 31 69 be 89 07 1e be 80 c1 b8 be
       0.12424435 -0.22772893 -0.15432562 -0.3608513
0002d0 2c 85 85 3d c1 d9 36 be 59 b9 03 3d 45 e3 54 3e
       0.06519541 -0.17856504 0.032159183 0.20789821
0002e0 39 b2 19 3e e8 23 fa bb c8 11 a5 bd f5 7e c8 bd
       0.15009393 -0.007633675 -0.08060032 -0.0978984
0002f0 6d c2 68 3e 3d 1b 82 3e 11 d8 a0 3d 85 94 cf bd
       0.22730418 0.25411406 0.078537114 -0.1013575
000300 78 c5 8b 3d f8 8d df bc 9b 39 2c bb 39 f7 b8 3d
       0.068247736 -0.027289376 -0.0026279453 0.09031529
000310 15 4d 30 3e 4b 60 38 be 79 57 0f 3e 79 50 95 3d
       0.17216904 -0.18005483 0.13998212 0.072907396
000320 c0 a0 1f bd ff a8 b2 3d 3d 39 56 bd c6 45 8a 3d
       -0.038971663 0.0872364 -0.05230068 0.067515895
000330 4e 03 d3 bd df 5a c0 bd 2e 55 a4 3d 85 bb 08 be
       -0.10303365 -0.09392332 0.08024059 -0.13352783
000340 94 31 bf 3d b6 eb 91 ba 93 eb 5b bc 75 bd 10 bd
       0.09335628 -0.0011132869 -0.0134228645 -0.03533693
000350 89 ba 7f 3c 06 54 06 be 57 62 0a bd 1e 00 48 be
       0.015608438 -0.1311799 -0.03378519 -0.19531295
000360 b3 81 0b 3e f2 76 57 3e 8d 56 21 3d 96 b7 1b 3e
       0.13623695 0.21041468 0.039389182 0.15206751
000370 54 65 9e 3d 46 91 17 3c ae 08 8d bd da 78 28 3b
       0.077341706 0.0092509445 -0.06886421 0.0025706799
000380 c1 03 0a bc 41 e9 0d 3e d3 43 52 bc 57 ee 8a bd
       -0.008423747 0.1385851 -0.012833553 -0.06783741
000390 f2 d5 5e 3e 31 07 10 3d ff 87 4c be e5 67 30 bc
       0.21761301 0.03516311 -0.19973753 -0.010766958
0003a0 57 e1 ee 3d 7d 5e 12 bd ac be ca bb ba d8 26 be
       0.11664074 -0.035734642 -0.0061872806 -0.16293612
0003b0 2c 9b e5 bd 5a 2f 26 3d 5b 06 24 bd ff 36 f4 3c
       -0.11211237 0.0405725 -0.040045124 0.02981138
0003c0 d9 e3 b3 3d f3 ad 03 be f5 f2 ae 3d f5 84 a5 3d
       0.08783693 -0.12859325 0.08542434 0.08082
0003d0 1b a9 8e bc a9 8a 99 bd e7 25 23 3e c0 3c e5 bd
       -0.01741462 -0.074971505 0.15932427 -0.11193228
0003e0 c6 77 3d 3e a3 16 5a 3d e8 63 60 bc 86 7d 95 bd
       0.18502721 0.053244244 -0.0136956945 -0.07299332
0003f0 fd de 01 be 36 13 e5 bd 20 e7 0c bd d0 9a 56 3e
       -0.1268272 -0.11185305 -0.034400105 0.20957494

features_model.4.bias f4 [128]
000000 07 cd b7 bc 4b 19 83 bc 56 17 93 bc 99 3f a4 bc
       -0.022436632 -0.016003272 -0.017955463 -0.020049857
000010 db 7f d3 3c f9 12 57 bc 3b be 79 bc 7e 6b 50 bc
       0.025817802 -0.013127082 -0.015243108 -0.012720941
000020 12 c3 92 bc 54 8b 0f bc 6c c9 fb bb 78 67 82 3d
       -0.017915282 -0.008761246 -0.0076839235 0.06367391
000030 90 90 f8 bb 4c 3c 36 3d b9 72 7b 3c 51 b7 e0 bc
       -0.0075855926 0.044491097 0.015347176 -0.027431162
000040 d6 95 2e bc ed 49 49 ba 4e 99 f6 bb 2e 41 6c 3d
       -0.010655841 -0.00076785573 -0.0075255996 0.057679348
000050 39 24 73 bb 8b 63 80 3d 93 a0 1d bc ea 88 0d bc
       -0.0037100448 0.06268986 -0.009620803 -0.0086386
000060 43 9f 5f 3d 59 a0 10 bb bd a0 22 bc 65 b7 32 3c
       0.054595243 -0.002206823 -0.009926018 0.0109079825
000070 6f e3 c7 bc a3 da d6 bb aa b3 0f 3d 4b ab 09 3b
       -0.024400441 -0.0065568252 0.03508345 0.002100664
000080 03 54 69 bc 94 71 6b 3d 09 ba 54 bc b8 41 4e 3d
       -0.014241221 0.057481363 -0.012983807 0.050355643
000090 cc 52 3f 3b 00 00 00 00 d9 fd 88 3c 62 4c c2 bc
       0.0029193638 0.0 0.016722606 -0.023718063
0000a0 85 03 2c bc 45 7b 31 bc b9 46 32 3c b8 26 43 ba
       -0.010498886 -0.010832612 0.010881119 -0.0007444429
0000b0 65 52 5e bc 4f 04 38 bc 61 21 ec bb 7b 5f 44 3d
       -0.013569449 -0.011231496 -0.0072061275 0.04794262
0000c0 e1 45 d3 bc 00 00 00 00 64 77 14 bc 20 a7 98 bc
       -0.025790157 0.0 -0.009061668 -0.018634379
0000d0 b1 3f 86 bc 93 cc cb 3b 14 8e ae bc 7f 62 8b bc
       -0.016387792 0.0062194555 -0.021307983 -0.01701474
0000e0 00 00 00 00 aa 28 ea bc 4d e0 cd bc 11 8a 92 3c
       0.0 -0.028583843 -0.025131369 0.0178881
0000f0 6e ca 6a ba ce da 93 bc 11 4c 1a bc c2 36 cd bc
       -0.0008956556 -0.01804867 -0.00941755 -0.025050525
000100 8d 4a 4c 3d 26 14 54 3c e0 81 97 3d 0a f1 3d 3c
       0.049875785 0.012944257 0.073978186 0.011593113
000110 80 08 10 bb 2f d7 0c 3d 3f 09 14 3d 1f 83 79 bc
       -0.0021977723 0.034384903 0.03614163 -0.015229016
000120 58 be 40 bc 2a 62 ab bc 97 5b 55 bc ed da 6d 3c
       -0.0117641315 -0.020920832 -0.013022325 0.014517528
000130 b6 bb 9f 3a 53 87 1f 3d f6 82 6b 3b f0 20 86 bc
       0.001218668 0.038947415 0.0035936213 -0.016373128
000140 33 62 d2 3c 7a 82 88 ba 6b 4c 87 3c 45 b0 a8 bc
       0.02568159 -0.0010414862 0.016515931 -0.020591864
000150 86 f0 8f bc 7c 57 87 bc f0 1e 38 3d 68 26 98 3d
       -0.017570745 -0.016521208 0.04495138 0.074292004
000160 80 32 ab bc 4e 72 d5 bc 00 c2 62 bc 52 02 80 3c
       -0.020898104 -0.026055481 -0.0138401985 0.015626106
000170 ae e6 6c 3b b4 90 d0 bc 7d 24 02 3c 51 b7 d8 bc
       0.0036148238 -0.025459625 0.00794327 -0.0264546
000180 06 2f a5 bb 90 f2 34 3d 9b 57 26 bc 3b 5c 37 3c
       -0.005041006 0.044176638 -0.010152723 0.011191423
000190 74 4d c8 bc e4 00 cd bc 7b 47 40 3c 63 2f c3 3c
       -0.024450995 -0.025024839 0.011735792 0.023826307
0001a0 74 52 82 3c 2a ae dd bb 8f d5 38 bb 71 90 31 bc
       0.015908457 -0.0067651467 -0.0028203463 -0.01083766
0001b0 3a ad 10 3a 2b e3 cd bc 80 35 56 bc 6f bc 0a bc
       0.0005518977 -0.025132736 -0.013074279 -0.008467778
0001c0 b5 67 45 3c 24 b4 fa bb 77 e2 9f bc 4f a3 a2 3c
       0.012048651 -0.007650869 -0.019517167 0.019853262
0001d0 fb d8 aa bc 3e 81 4e 3d f1 a1 87 bc 06 8b a8 3d
       -0.020855417 0.050416224 -0.016556712 0.082296416
0001e0 2b 85 2b bb 21 4c 2f 3d 4f 8f 69 3c 00 00 00 00
       -0.0026171904 0.04279721 0.014255359 0.0
0001f0 ea dd 7c 3d 05 1a 8f 3d 29 7e 2d bc ed eb 30 3d
       0.06173507 0.06987385 -0.010589161 0.043193746

policy_model.0.weight f4 [128, 128]
000000 50 95 f9 3a 46 91 22 3b de 44 e9 ba d9 a7 c2 ba
       0.0019041691 0.0024805828 -0.0017797013 -0.0014851048
000010 2c 66 0f ba 29 0a 0c bb 96 4e 29 bb 71 90 a8 ba
       -0.0005470242 -0.002136836 -0.0025834194 -0.001286043
000020 ec 6a e7 ba f0 7b d8 3a 02 c1 97 ba b4 50 f2 ba
       -0.0017655767 0.0016516428 -0.0011577907 -0.0018487186
000030 18 59 0f bb 88 02 8b 39 70 91 28 bb e2 39 d6 ba
       -0.0021873172 0.00026514032 -0.0025721453 -0.0016344155
000040 75 70 3f bb b9 63 e0 39 76 4f 9c ba 4a 5e 65 bb
       -0.0029211317 0.00042798909 -0.0011925537 -0.0034998828
000050 6f 8f 41 3b 44 01 96 bb 95 3f 19 bb ae f4 e3 38
       0.0029534956 -0.0045777876 -0.0023383845 0.000108697786
000060 b8 a6 1e 38 b1 dc a7 ba 95 f6 9e ba 8b a7 bc ba
       3.7825404e-05 -0.001280686 -0.001212793 -0.0014393193
000070 ec e0 f1 ba 25 20 af 3a a6 58 ae bb 89 61 db b8
       -0.0018453873 0.001336102 -0.0053206263 -0.00010460901
000080 70 e4 d2 b8 b3 00 71 bb d5 f3 de 39 4f 02 8d bb
       -0.0001005613 -0.0036774098 0.0004252481 -0.0043032537
000090 38 be b9 b8 9c 86 70 ba cf b9 a6 bb 59 f2 3e bb
       -8.8569184e-05 -0.0009175332 -0.005088068 -0.002913615
0000a0 d3 40 56 b9 c3 43 82 ba d4 00 40 ba d2 b9 1d 3b
       -0.0002043278 -0.0009938407 -0.0007324342 0.0024067056
0000b0 fd 5b 3d 39 14 4c 9c 39 a9 37 d6 3a ec 06 68 ba
       0.00018058713 0.0002981132 0.0016343492 -0.0008851129
0000c0 c9 f1 30 ba 05 46 96 ba f1 37 f8 ba 24 ee 08 bb
       -0.0006749896 -0.0011464959 -0.001893757 -0.0020893896
0000d0 32 d7 9f ba 66 41 96 3a ce 8f f5 ba 7e 2f 37 3a
       -0.001219487 0.0011463582 -0.0018734874 0.0006987973
0000e0 c4 f8 30 ba fb 8e 60 bb 11 bf fa ba 30 7a 1c bb
       -0.0006750936 -0.003426491 -0.0019130429 -0.002387654
0000f0 48 11 ea ba f2 06 d8 ba 67 0c 40 ba 3a f1 4a ba
       -0.0017857933 -0.0016481562 -0.0007326067 -0.0007741634
000100 95 c9 8c 3a 4a 68 ef 3a 70 79 3a 3b 85 15 1e bb
       0.0010741228 0.0018265333 0.002845373 -0.0024121713
000110 f0 e7 87 38 59 82 ea bb 58 21 b6 bb 5b f5 bd ba
       6.480503e-05 -0.007156652 -0.005558174 -0.0014492677
000120 7b 71 f9 3a 47 da 76 3a 2f 40 28 bb 54 a9 a3 3a
       0.0019031012 0.0009416681 -0.0025673022 0.0012486377
000130 41 43 a7 b8 d3 7c fa b9 e7 e8 be 3a aa 29 e6 ba
       -7.9757076e-05 -0.00047776717 0.001456526 -0.0017560024
000140 24 08 70 3a ea f4 5d 39 92 df ee b9 7f 56 85 ba
       0.00091564865 0.0002116744 -0.0004556147 -0.0010172873
000150 43 a4 0e bb e7 89 0c 3b 78 fe 08 bc de 37 d0 bb
       -0.0021765388 0.00214445 -0.008361451 -0.006354316
000160 da 49 e4 ba 56 82 43 3b 92 88 dd ba 43 71 39 bb
       -0.0017417029 0.0029832325 -0.0016901663 -0.002829627
000170 9c fc c7 3a ae 1f 38 bb e1 e0 80 ba ce b4 5a 3a
       0.0015257779 -0.0028095054 -0.0009832644 0.0008342982
000180 22 24 83 ba dc ad b9 bb 7d 6f f5 3a 37 44 3b 39
       -0.0010005275 -0.0056664776 0.0018725243 0.00017859122
000190 99 20 5f 39 6a 03 ea ba 6e f8 24 ba 57 ed 20 39
       0.00021279081 -0.0017853801 -0.00062931224 0.00015347205
0001a0 46 4a b0 ba 5f 16 e7 ba 1c f7 b9 3a 4e 8c 1b bb
       -0.001344987 -0.0017630568 0.0014188024 -0.002373475
0001b0 93 da 02 3a c5 3a cd b9 1f 09 a3 3a 6a 95 34 bb
       0.00049916765 -0.00039144434 0.0012438631 -0.0027554878
0001c0 d2 ab 90 b9 a1 59 56 bb dd ad a8 39 21 ec 29 bb
       -0.00027593836 -0.0032707232 0.00032172995 -0.0025928097
0001d0 58 e8 f6 ba 41 9c e5 bb 8a 8a c4 ba 8b 64 97 bb
       -0.0018837554 -0.0070071523 -0.0014994901 -0.00462014
0001e0 06 63 0c bb d3 77 e1 bb 93 7b 82 37 a5 71 27 39
       -0.0021421327 -0.0068807392 1.5554751e-05 0.00015968697
0001f0 08 9e c6 bb 64 88 91 bb 76 77 35 b9 d0 c8 ec ba
       -0.0060613193 -0.004441308 -0.00017306008 -0.0018065218
000200 b6 2e 5a bd bc 78 22 bc 30 57 bf bb 52 d5 da bb
       -0.053267203 -0.009916481 -0.005839251 -0.006678262
000210 76 64 19 3d d3 a2 c1 b9 19 37 bd 3a bd b4 20 bc
       0.037449323 -0.00036933142 0.0014435976 -0.009808716
000220 d5 93 8a 3c 83 2c 92 bc fb 0a 4f bc 36 31 0a 3d
       0.016916195 -0.01784349 -0.012636895 0.033738337
000230 9e 11 ce 3c 11 ff 95 3c a8 66 26 3d 5b af c8 3b
       0.025154885 0.018310102 0.040625244 0.0061244196
000240 23 5c 9c 3c db 73 63 3c e3 cc 17 3a 92 d6 43 3d
       0.019086903 0.013882603 0.00057907234 0.047812052
000250 f6 31 32 3b ec af 6f 3d 37 06 12 bc ad 56 c6 3b
       0.0027190424 0.05851738 -0.008912615 0.006052813
000260 2a 2c 4f 3d 76 5a 09 3c ba 63 0c 3c f6 19 e9 3c
       0.050579228 0.008383384 0.008568699 0.028454762
000270 19 06 dc bb c5 5d 8f bc 1a 3b 4c 3d 62 95 f3 3c
       -0.006714594 -0.017500767 0.04986105 0.029734317
000280 34 b8 a1 bb 2e be 34 3b 9a 8d a3 bb 2c ce 5b 3d
       -0.004935289 0.0027579176 -0.0049912455 0.053663418
000290 c4 a4 9c bc 54 97 0c ba b0 5a 2d 3d 26 f8 dc bb
       -0.019121535 -0.0005363126 0.042322814 -0.006743449
0002a0 4f 93 45 bc 98 6c 81 3c 43 de 14 3d 89 06 0c bc
       -0.012059047 0.015798852 0.036344778 -0.00854648
0002b0 e6 86 0c 3b 1b c2 92 3c 9c 33 bf bc 59 d8 4f 3d
       0.002144271 0.017914822 -0.023340039 0.050743435
0002c0 a6 b2 f0 3b 19 17 65 ba f6 d7 eb 3b d8 88 61 3c
       0.0073455153 -0.00087390986 0.0071973754 0.013765536
0002d0 4e ca 53 bb 82 07 b5 3c cb 26 9c bb 1a 35 f0 bb
       -0.0032316628 0.022098307 -0.0047653667 -0.007330549
0002e0 8a 44 12 39 7b 59 6b bc 4a 60 0d 3c 7f 0b 16 3d
       0.00013949178 -0.0143645955 0.008628914 0.036632057
0002f0 f5 fd 3f 3a 20 5a c2 3b de be d6 b9 34 97 e3 ba
       0.00073239143 0.005931154 -0.00040959468 -0.0017363788
000300 fb 43 58 bd c0 2b ee 3c e6 81 23 3d 25 84 21 bc
       -0.052799206 0.029073596 0.039918803 -0.009858166
000310 e8 84 84 3a 73 32 29 3d 5f 8e 50 3d aa d1 ed 3c
       0.001011041 0.041307878 0.050917026 0.02903064
000320 92 b0 8f 3a 2a e8 9a bc 41 ff eb bb 72 12 37 3d
       0.0010962656 -0.018909533 -0.0072020595 0.044695325
000330 f1 35 9e 3a 67 b8 6b 3d 25 c2 a4 bc fb 6a 83 3b
       0.0012070519 0.057548907 -0.020112107 0.004010556
000340 be 5d 71 3c d2 b7 21 bd 7c aa a1 bc 0f 24 fa bb
       0.014731823 -0.039481945 -0.019734614 -0.007633693
000350 db 7e 8e 3b b2 76 90 bb f0 83 21 3d 14 dc 04 3d
       0.0043486184 -0.004408681 0.039432466 0.032436445
000360 e3 af 7a bc 91 a7 44 bb cb 43 00 3d ce 51 72 3b
       -0.015300724 -0.0030007104 0.031314652 0.003697503
000370 8c f1 a8 3c 43 f8 75 bc a5 af 4b bb 58 82 c9 bc
       0.020622991 -0.0150128035 -0.0031080034 -0.024598286
000380 d2 8a cf 3c f0 15 45 3d 65 53 34 bb 94 a4 99 bc
       0.02533475 0.048116624 -0.0027515527 -0.018755235
000390 9f a0 3e bc 9c 1a 33 3c 56 f8 ff 3c ce 94 44 3d
       -0.011634975 0.010931637 0.031246345 0.047993474
0003a0 db 6a dc bb 76 5b 40 3d 52 9a 18 3d 4a 9f 4f 3c
       -0.0067266054 0.046962224 0.037256546 0.012672255
0003b0 7a 87 a7 bc 47 74 b5 bb 6b ac 37 bc a2 90 35 bc
       -0.020450342 -0.005537543 -0.011210541 -0.011081846
0003c0 09 2a 31 3d 78 55 07 3c 7e fa 4a ba 22 20 a6 3b
       0.04325298 0.008260123 -0.0007743015 0.0050697485
0003d0 de 47 2e bc 6f 9d 4c 3d 3c 6f 42 3c 9a 48 02 3d
       -0.010637252 0.049954828 0.011867341 0.03180752
0003e0 99 33 db ba 7a 54 4f 3d 6e bf 38 3c 72 25 3f ba
       -0.0016723751 0.050617673 0.011276109 -0.00072916516
0003f0 f3 bc 1d 3d 66 59 3f 3d 7f a2 72 bc 00 49 74 3d
       0.038510274 0.046716116 -0.01480925 0.05963993

policy_model.0.bias f4 [128]
000000 c7 a6 95 ba c4 11 3d 3d 73 61 c4 ba de 70 3d 39
       -0.0011417501 0.04615952 -0.0014982655 0.00018066491
000010 38 ad b5 37 c4 61 1c b9 36 5e b7 bb c6 37 d0 bb
       2.1657543e-05 -0.0001491374 -0.0055959476 -0.006354305
000020 74 db d2 3a 56 8b c4 ba c5 bc c4 ba 6d 4f 4b bc
       0.0016087131 -0.0014995139 -0.0015009871 -0.012409073
000030 22 e5 75 bc d7 30 66 3c 2d 99 88 39 a8 60 b4 39
       -0.015008243 0.01404973 0.00026054066 0.0003440429
000040 ae ea e2 3b 1e 85 7a bc f3 20 c4 ba 3b 16 bf ba
       0.0069249487 -0.015290527 -0.0014963433 -0.0014578769
000050 98 9f 04 bc b9 69 8a bb 29 23 f9 3b e2 d1 c7 b9
       -0.008094691 -0.004224029 0.0076030684 -0.00038112613
000060 9b 51 5a bc ee b8 c4 ba d3 1a 34 bc 8f fb 37 bc
       -0.01332512 -0.0015008727 -0.0109927235 -0.01122941
000070 ad a2 00 bc 15 67 c4 ba 77 31 af bb 09 38 d0 bb
       -0.007851285 -0.0014984334 -0.005346473 -0.006354336
000080 bc bd 38 bc 46 62 1e 3b 15 b0 c4 ba 48 a2 e5 b9
       -0.011275705 0.0024167462 -0.001500609 -0.00043799193
000090 46 e1 5e ba e1 2d 9d ba 45 0e 7f bc c9 9b 45 bc
       -0.0008502196 -0.0011991822 -0.015567367 -0.012061068
0000a0 2a ac 1e 3d ab 19 39 bc 88 0b cc 3b 9f 86 c4 ba
       0.038738407 -0.011297624 0.0062269606 -0.0014993733
0000b0 92 1f a8 ba 88 cc cd 3c 6f d0 65 bc b0 2f 02 bc
       -0.0012826791 0.025121942 -0.014026745 -0.00794594
0000c0 b8 2b b3 bb f5 99 26 3b 0f 00 f5 bb eb c0 b3 ba
       -0.005467858 0.0025421355 -0.0074768136 -0.001371411
0000d0 1d 50 76 bb 51 ec 83 3b 1e ff 1e bc 00 00 00 00
       -0.0037584372 0.004025974 -0.009704379 0.0
0000e0 00 00 00 00 fc 61 09 bb d6 e2 58 bc 18 36 a7 ba
       0.0 -0.0020962944 -0.013237676 -0.001275721
0000f0 91 b4 70 bc d6 2d c3 ba 28 38 c4 ba 21 b0 78 3b
       -0.014691488 -0.001489098 -0.0014970349 0.0037946778
000100 e4 c3 ac 3b 69 b4 c4 ba bb f0 e5 ba 97 a0 5d bc
       0.0052723754 -0.001500738 -0.0017543057 -0.013527057
000110 7c e4 53 bb fd 31 8c bb aa fd 46 bb 8a 9c 72 bb
       -0.0032332232 -0.00427842 -0.0030363598 -0.0037019574
000120 fd 62 83 ba 76 ae a9 bb 5e 75 82 3a 52 75 76 bb
       -0.0010024008 -0.005178268 0.0009953191 -0.003760655
000130 0c 4a c4 ba b9 35 66 bc 85 a8 58 bc 1d 9e c4 ba
       -0.0014975681 -0.014050894 -0.013223772 -0.0015000735
000140 a2 e6 21 bb 48 7e 71 bc bf 43 57 bc 14 b0 0b ba
       -0.0024704118 -0.01473958 -0.0131387105 -0.0005328667
000150 a1 c9 ab 3b 12 74 98 ba 7c 9c 5b ba 01 13 b0 3d
       0.005242542 -0.0011631271 -0.0008377505 0.08597375
000160 e6 63 fe bb 2b 47 83 bc 84 56 c4 ba e1 06 6b bb
       -0.0077633737 -0.016025146 -0.0014979397 -0.0035862254
000170 72 ef a1 b9 a8 22 a5 bb 58 cf fb ba 01 3f 92 bb
       -0.00030886714 -0.0050395317 -0.0019211574 -0.004463077
000180 c5 fc 7a bc 64 8c c4 ba 0d 00 5d bc c6 d2 67 bc
       -0.015319054 -0.0014995453 -0.013488782 -0.014149373
000190 e6 65 1e 3b 50 e7 f0 bb f6 6c 42 bb ab 4e a7 bb
       0.0024169623 -0.0073517933 -0.0029666997 -0.0051058135
0001a0 e9 0f d1 bb 24 24 be 3b a3 54 aa 3c cf 22 ee bb
       -0.0063800705 0.005802648 0.020792311 -0.007267333
0001b0 b9 80 a7 ba cf 94 c4 ba d7 d5 82 3a be 83 0b bc
       -0.0012779451 -0.0014997962 0.0009981942 -0.0085152965
0001c0 99 1e 10 bc 86 59 e7 b8 3d 57 34 ba 58 f6 d8 ba
       -0.008796358 -0.000110316134 -0.00068794546 -0.0016552908
0001d0 5d be d9 ba 59 3f 35 bc 66 81 a0 ba c1 98 c2 ba
       -0.0016612519 -0.011062467 -0.0012245595 -0.001484655
0001e0 0c a2 1d bc 1e 88 01 3d ce d0 a8 ba 6a 97 4b 3b
       -0.0096211545 0.031623952 -0.0012879611 0.0031065592
0001f0 e2 ef 6a bb 43 68 6b bb 70 9c c8 3b e6 bc 48 bb
       -0.0035848548 -0.00359203 0.0061221644 -0.003063017
