results/short_race/second_iteration_training/model831.pt (torch, 276107 bytes, 13 tensors)

features_model.0.weight f4 [128, 4]
0	0x3be3252f	0.006931923
1	0x3e5aa42b	0.21351688
2	0x3d9d7744	0.07688764
3	0xbea17ead	-0.31541958
4	0x3d088cc5	0.033337373
5	0xbd9c804b	-0.076416574
6	0xb771a53e	-1.4403193e-05
7	0x3ceaf403	0.028680807
8	0x3e1c6be4	0.15275532
9	0x3cd7f041	0.02635968
10	0xbd09b72d	-0.033621956
11	0x3e97349b	0.29532322
12	0x3e404c37	0.18779074
13	0xbdcfa046	-0.101379916
14	0xbd67e872	-0.05661816
15	0xbdd23779	-0.10264487
16	0x3d1dd8c3	0.0385368
17	0x3c0fb55a	0.008771265
18	0x3d495944	0.049157396
19	0xbcf4b930	-0.02987346
20	0x3d257b9b	0.040401082
21	0x3d80927f	0.06277942
22	0x3e7586c4	0.2397719
23	0xbe48f090	-0.19623017
24	0xbbe4af14	-0.0069788788
25	0xbcc58238	-0.024109945
26	0x3dda1392	0.10648264
27	0x3ea6fd3b	0.32615075
28	0x3b5d71cc	0.0033789752
29	0xbc0566dd	-0.0081422
30	0x3d9565d9	0.072948165
31	0x3ea3a7c1	0.31963924
32	0xbe3e0c15	-0.18559296
33	0x3e23442d	0.15943976
34	0x3dfd9c70	0.12383354
35	0x3b9c9e2e	0.0047795987
36	0x3bd487a5	0.0064858967
37	0x3e698113	0.22803144
38	0x3d6527db	0.055946212
39	0xbeba5c40	-0.36398506
40	0x3d67e6b1	0.05661649
41	0x3e83daf0	0.25752974
42	0x3e3e27fa	0.18569937
43	0x3e2a3c41	0.16624548
44	0x3e23fb9e	0.16013953
45	0xbdf3bab8	-0.11900848
46	0x3e30a721	0.17251255
47	0x3d5e5250	0.054277718
48	0x3e02ed0e	0.12785742
49	0x3eafcf5c	0.3433789
50	0x3d0efc46	0.034908555
51	0xbda8bd98	-0.08239287
52	0xbe2592e1	-0.16169311
53	0xbd22e5af	-0.039769825
54	0xbe184c0c	-0.1487276
55	0x3c87e3e7	0.016588164
56	0xbd61080a	-0.054939307
57	0x3eae2740	0.3401432
58	0xbd0c2ad2	-0.034220524
59	0x3e0d4c2b	0.13798587
60	0xbe53bcdf	-0.20677517
61	0xbc8aaf19	-0.016929196
62	0xbe982325	-0.29714313
63	0x3d81b2b2	0.063329116
64	0x3df6ea40	0.120563984
65	0xbc8d1500	-0.017221928
66	0x3cd37d45	0.02581657
67	0xbdffd292	-0.12491335
68	0xbd4bf81c	-0.049797162
69	0xbe79f75a	-0.24410763
70	0xbdfd4dbf	-0.123683445
71	0xbd5f5756	-0.05452665
72	0xbe074054	-0.13208133
73	0x3d68f550	0.056874573
74	0xbda742a1	-0.08167005
75	0xbde54f7a	-0.111967996
76	0xbd93e894	-0.07222095
77	0xbe0eb7cc	-0.139373
78	0xbe84328f	-0.25819823
79	0xbe4b7177	-0.19867502
80	0x3da96d8e	0.08272849
81	0xbda2f554	-0.07956949
82	0xbdfbeab7	-0.12300628
83	0x3d4e3bfe	0.05035018
84	0xbe71ff60	-0.23632574
85	0xbe31da0f	-0.17368339
86	0x3e4070eb	0.18793075
87	0xbd81d54e	-0.06339513
88	0x3d4c2f38	0.04984972
89	0x3e6904ce	0.22755739
90	0xbda3561a	-0.07975407
91	0xbcd66c80	-0.026174784
92	0xbe679e45	-0.22618969
93	0xbdb606eb	-0.08888038
94	0xbddc3792	-0.10752787
95	0x3d950414	0.072761685
96	0x3ce93490	0.028467447
97	0x3e2f37bf	0.17111109
98	0x3e10f1c7	0.1415473
99	0xbea0c34a	-0.31398994
100	0xbec07d3e	-0.37595552
101	0xbe587064	-0.21136624
102	0x3d9b2781	0.07575894
103	0xbdb3170e	-0.08744632
104	0x3e6f5e62	0.23375848
105	0x3ebfd257	0.37465164
106	0xbccb3c0e	-0.02480891
107	0x3e407504	0.18794638
108	0xbdb0003a	-0.08593793
109	0xbda318d0	-0.07963717
110	0xbdd7624c	-0.105167955
111	0xbcc0fe1e	-0.023558673
112	0x3bb138fb	0.005408404
113	0xbc819805	-0.015819559
114	0xbd92adce	-0.07162057
115	0x3ed1ded7	0.40990326
116	0x3dbd8b0e	0.09255038
117	0x3dd23be9	0.10265333
118	0xbde9f865	-0.114243306
119	0xbd824a26	-0.06361799
120	0x3e29e5ea	0.16591612
121	0x3e0589a9	0.13040794
122	0x3e325309	0.17414488
123	0x3df7451b	0.12073728
124	0x3dccee75	0.100064196
125	0x3d9518f9	0.07280154
126	0x3dea4fbc	0.114409894
127	0x3e700332	0.23438719
128	0x3e515ebe	0.20446298
129	0xbe934050	-0.28760004
130	0x3d74ba63	0.059748065
131	0x3dd9f611	0.106426366
132	0x3e3b0ef0	0.18267417
133	0xbc455b8d	-0.012045753
134	0x3e076d5f	0.13225316
135	0xbc7fff29	-0.0156248
136	0x3c5243c0	0.012833536
137	0x3d1a250a	0.03763298
138	0x3e74234a	0.23841587
139	0x3e98a18f	0.2981076
140	0x3dbe4f1a	0.09292431
141	0xbe10cc30	-0.14140391
142	0x3b4f6c57	0.003165027
143	0xbe3dd51c	-0.18538326
144	0xbda126c6	-0.078687236
145	0xbdde0c6b	-0.10842212
146	0x3dcdbf54	0.100462586
147	0xbc6e62b6	-0.014549902
148	0xbd90d79b	-0.070723735
149	0xbdc4563c	-0.095867604
150	0xbb0a8ea3	-0.0021142147
151	0x3db43812	0.08799757
152	0xbe173af0	-0.14768577
153	0x3d1eb502	0.03874684
154	0x3d97dfc5	0.074157275
155	0x3e67c380	0.22633171
156	0x3d01b78e	0.031669192
157	0x3c809fa0	0.015701115
158	0x3e0b7d67	0.13622056
159	0x3ec93cb5	0.39304128
160	0x39d5f75e	0.0004081083
161	0xbc5e9abf	-0.013586699
162	0xbd92a9b1	-0.07161272
163	0x3eb1669f	0.34648606
164	0xbd0fa43d	-0.03506874
165	0xbd944e06	-0.07241444
166	0x3ccea64f	0.025225786
167	0xbe726b72	-0.236738
168	0x3d94797b	0.07249733
169	0xbd54d713	-0.051962923
170	0xbcdc752c	-0.02691134
171	0xbdf2e701	-0.11860467
172	0xbdfa7c46	-0.122307345
173	0x3e300464	0.17189175
174	0x3e08da51	0.13364531
175	0x3c6877c3	0.01418871
176	0x3cf15aad	0.029462183
177	0x3e996d34	0.29966128
178	0x3d428d4e	0.04749804
179	0xbce893de	-0.028390821
180	0xbd1f57a4	-0.03890194
181	0xbdaa3d81	-0.08312512
182	0xbd918a85	-0.07106499
183	0x3e13e385	0.1444226
184	0x3dc392b6	0.09549467
185	0x3c2a09d5	0.010378321
186	0x3ec98518	0.39359355
187	0xbdcbea8f	-0.09956848
188	0xbbea637e	-0.0071529737
189	0x3cd2933d	0.025704974
190	0x3dfd6253	0.123722695
191	0x3cfcf21b	0.030877164
192	0xbe550cc8	-0.20805657
193	0xb998249b	-0.00029018972
194	0xbe1666e7	-0.14687692
195	0x3c3aa6a2	0.011392267
196	0x3e718808	0.23587048
197	0xbe018260	-0.1264739
198	0x3d5e5b4d	0.05428629
199	0x3e05c07f	0.13061713
200	0xbe516ff7	-0.20452867
201	0xbda5764a	-0.080792025
202	0x3cd20647	0.025637759
203	0x3db3abaf	0.087729804
204	0xbe9910f3	-0.29895744
205	0x3e446dd2	0.19182518
206	0x3e3f9f52	0.1871312
207	0x3cb78cda	0.02240603
208	0x3e45500f	0.19268821
209	0x3eb8acc4	0.3606931
210	0xbd7bd21a	-0.061479665
211	0xbd2274ac	-0.03966205
212	0x3e60d82f	0.21957467
213	0xbd7aca89	-0.06122831
214	0xbd0bf9ff	-0.03417396
215	0xbd03360d	-0.03203397
216	0x3d367d37	0.044553008
217	0x3c22828f	0.009918823
218	0x3de11111	0.10989583
219	0x3d520136	0.051270686
220	0x3df67471	0.12033928
221	0xbbd43160	-0.0064756125
222	0x3e4e4f41	0.2014742
223	0x3ed739bf	0.42036244
224	0x3e09bc63	0.1345077
225	0x3d4256ec	0.047446176
226	0x3bf9b3d4	0.007620314
227	0xbdc2d2a7	-0.09512835
228	0xba80ca26	-0.000982587
229	0x3e4d269f	0.20034264
230	0x3e0928a9	0.13394417
231	0x3c0145b8	0.007890157
232	0xbd9451ab	-0.072421394
233	0x3ca43f62	0.020049755
234	0xbd6f798e	-0.058465533
235	0x3cf75a11	0.030194314
236	0x3df4b69d	0.11948893
237	0x3da2394f	0.07921087
238	0x3e1603a2	0.14649823
239	0x3e9bf5eb	0.30461058
240	0xbca0e46d	-0.019640172
241	0x3d2eefdc	0.042709216
242	0x3c9d2672	0.019183371
243	0x3e7b0488	0.24513447
244	0x3c349504	0.011021856
245	0xbc9255cd	-0.017863179
246	0xbe0ee3bf	-0.13954066
247	0x3e990b9c	0.2989167
248	0xbbfe8774	-0.007767612
249	0x3e0b96c8	0.13631737
250	0x3d817d1a	0.06322689
251	0xbeaa5817	-0.33270332
252	0xbe5028cf	-0.20328067
253	0x3e7f613d	0.24939437
254	0xbcfea47a	-0.031084288
255	0xbe2181aa	-0.15772119

features_model.0.bias f4 [128]
0	0x3e495fab	0.196654
1	0x3b99885b	0.0046854443
2	0x3e0cd1e2	0.13751939
3	0xbd095a82	-0.03353358
4	0x3e582768	0.21108782
5	0x3e01cddb	0.12676184
6	0x3e2db637	0.1696404
7	0x3e3e93b6	0.18611035
8	0x3e21c844	0.15799052
9	0x3e50e5c1	0.20400144
10	0x3e7a6a0c	0.24454516
11	0xbc541a89	-0.01294578
12	0x3e252f7a	0.16131392
13	0xbd31d3ee	-0.043415003
14	0x3e1b213b	0.15149395
15	0x3e16fd7f	0.14745139
16	0x3dc01c74	0.09380427
17	0xbcd2d2d6	-0.0257353
18	0xbd780f2f	-0.060561355
19	0xbc09e53f	-0.008416473
20	0x3d2d43f6	0.04230114
21	0xbde4ed83	-0.11178114
22	0x3e376e7d	0.17913242
23	0xbc371beb	-0.01117609
24	0x3e617f21	0.22021152
25	0xbd349b0f	-0.044093188
26	0x3dab6b44	0.08370069
27	0x3c806917	0.01567511
28	0x3e501747	0.2032138
29	0x3e35b110	0.17743325
30	0x3e2bb9bd	0.16770072
31	0x3e585aa5	0.21128328
32	0xbbaadfc8	-0.005214665
33	0x3dbccd53	0.0921885
34	0x3e56e8dc	0.20987266
35	0x3d0bf510	0.034169257
36	0x3d9377bc	0.07200572
37	0xbce9843b	-0.028505435
38	0x3e4fdd40	0.20299244
39	0x3e3fac1b	0.18717997
40	0x3e6527d3	0.22378473
41	0x3cea7f04	0.028625019
42	0x3de55f31	0.11199797
43	0x3e0e980e	0.13925192
44	0x3e3e4b67	0.18583451
45	0xbca56812	-0.020191226
46	0x3da6b543	0.08140042
47	0x3e3068d1	0.17227484
48	0xbcf02b50	-0.029317528
49	0x3d5f0668	0.05444947
50	0xbd6f9de5	-0.05850019
51	0x3e201d7e	0.1563625
52	0x3e0f6887	0.14004718
53	0x3da57114	0.080782086
54	0x3e50b057	0.20379768
55	0x3ddbf8f6	0.10740845
56	0x3e0eebaf	0.13957094
57	0x3e238cd3	0.15971689
58	0xbc6f8c6d	-0.014620882
59	0x3e5c3051	0.21502806
60	0x3e518b64	0.2046333
61	0xbd29c2b5	-0.041445453
62	0x3e54c501	0.20778276
63	0x3e43efbf	0.19134425
64	0x3e30beff	0.17260359
65	0x3e82446a	0.2544282
66	0x3e29a61f	0.16567276
67	0x3e5cbaf5	0.21555693
68	0x3e41bb52	0.18919113
69	0x3e23310e	0.15936682
70	0xbd8ec561	-0.06971241
71	0xbd9a8f9c	-0.075469226
72	0xbc422af1	-0.011851058
73	0x3dfa4129	0.122194596
74	0x3e399a49	0.18125261
75	0xbd5d646b	-0.054050844
76	0xbc589d6b	-0.013221125
77	0x3dba253a	0.09089132
78	0x3e578142	0.21045402
79	0x3d190802	0.037361152
80	0x3e09d017	0.13458286
81	0xbc879097	-0.016548438
82	0x3e334536	0.1750687
83	0x3e0f872a	0.14016405
84	0xbca885f0	-0.020571679
85	0x3d09ff0b	0.033690494
86	0x3e83a818	0.25714183
87	0x3dfc4090	0.12317002
88	0x3e0a5b48	0.13511384
89	0xbc8d41f7	-0.017243369
90	0xbca34b07	-0.019933237
91	0x3d8432e8	0.06455022
92	0xbc2d6a96	-0.010584494
93	0x3cb64e3a	0.022254098
94	0x3d45c743	0.048285734
95	0x3e29064d	0.1650631
96	0xbd3a4917	-0.04547986
97	0xbcbf2952	-0.023335133
98	0x3d700a45	0.058603544
99	0x3e2c6dd0	0.16838765
100	0xbcd8f836	-0.026485544
101	0x3e5b03c4	0.21388155
102	0x3e872880	0.26398087
103	0x3e4408a9	0.19143929
104	0x3e374916	0.17898974
105	0x3e5d6e2d	0.2162406
106	0x3e4d90b6	0.20074734
107	0x3e527156	0.20551047
108	0xbc6924cb	-0.0142299635
109	0xbceae0dd	-0.028671676
110	0x3e429e95	0.19005807
111	0x3e39a745	0.18130215
112	0xbd3a2321	-0.045443658
113	0x3db0f0ce	0.0863968
114	0x3df7408d	0.12072859
115	0x3e63c593	0.22243337
116	0x3e6b0445	0.22950847
117	0xbb4b1b28	-0.0030991528
118	0x3e47b38b	0.19502084
119	0xbd066172	-0.032807775
120	0xbd6b199e	-0.057397477
121	0x3e9061d1	0.28199628
122	0x3dcbafc2	0.099456325
123	0x3da1231c	0.07868025
124	0x3e5f9440	0.21833897
125	0x3e2a0bbf	0.16606043
126	0x3e647f9c	0.22314304
127	0xbc07903a	-0.008274132

features_model.2.weight f4 [128, 128]
0	0x3ec7ae94	0.3900038
1	0xbd88538b	-0.066565596
2	0xbc28d475	-0.01030456
3	0x3db259c7	0.0870853
4	0x3e6def13	0.23235731
5	0x3e0bcdf4	0.13652784
6	0x3de02502	0.10944559
7	0x3d82d75f	0.06388735
8	0x3e51627d	0.20447727
9	0x3e6710e1	0.22565033
10	0x3e3d352a	0.18477312
11	0xbc6ee8c6	-0.014581865
12	0x3d669370	0.05629295
13	0x3cf3f476	0.029779654
14	0x3d9dd229	0.077061005
15	0x3e17047a	0.14747801
16	0xbe0ca132	-0.13733366
17	0x3d917a42	0.07103397
18	0xbd601737	-0.05470964
19	0xbdfeef7f	-0.12448024
20	0x3dc32523	0.09528568
21	0x3d0f1739	0.034934256
22	0x3e1fc33b	0.15601818
23	0xbd584df5	-0.05280872
24	0x3e628f03	0.22124867
25	0xbe0d22f2	-0.13782862
26	0x3a84b95f	0.0010126046
27	0x3e865c8e	0.2624249
28	0x3e49328d	0.1964819
29	0xbcb48ee3	-0.02204079
30	0x3d8336ef	0.06406962
31	0x3e2133a3	0.15742354
32	0x3e3f1654	0.18660861
33	0xbc64006d	-0.013916117
34	0x3e1d9305	0.15388115
35	0xbc7fb1ac	-0.015606325
36	0xbdd3883a	-0.103287175
37	0xbe5f74b9	-0.2182187
38	0x3d822873	0.06355371
39	0x3e24fe94	0.16112739
40	0x3eba5cee	0.36399025
41	0xbd0f0a18	-0.034921736
42	0x3e37cb04	0.17948538
43	0x3e96688e	0.29376644
44	0x3e99e02e	0.30053848
45	0x3e2454eb	0.16048019
46	0xbd15427a	-0.03644035
47	0x3dd61e3a	0.10454984
48	0x3e2be582	0.16786769
49	0x3e95e837	0.29278728
50	0x3e24e2f5	0.16102202
51	0x3ec95902	0.3932572
52	0xbd4237da	-0.047416545
53	0xbd3a6ef9	-0.045515988
54	0x3bd7c7cf	0.0065850983
55	0xbe2574fd	-0.16157909
56	0xbd10e2b8	-0.035372466
57	0x3dbb6735	0.091505446
58	0xbd70b20e	-0.058763556
59	0x3e3f0b61	0.18656684
60	0x3eaf5fb0	0.3425269
61	0x3eab537d	0.33462134
62	0x3e87e8a8	0.2654469
63	0x3af8a6d0	0.0018970612
64	0x3ed793ff	0.421051
65	0x3e960166	0.29297942
66	0x3e0038a6	0.1252161
67	0x3e2c541e	0.16828963
68	0x3d81dd6c	0.06341061
69	0x3e8cc511	0.274941
70	0x3dd4a3ff	0.10382842
71	0xbe70c033	-0.23510818
72	0xbe5f9f5c	-0.21838135
73	0x3d3df0d0	0.046372235
74	0x3cabfc73	0.0209944
75	0xbd5685c3	-0.05237366
76	0xbcfe3512	-0.031031165
77	0x3d6932cc	0.05693321
78	0x3e121108	0.1426431
79	0xbea3000b	-0.3183597
80	0x3df9823e	0.12183045
81	0x3d42c756	0.047553383
82	0xbcba2b39	-0.022725688
83	0x3e2c2206	0.16809854
84	0x3e762d15	0.24040635
85	0x3e470b64	0.19437939
86	0xbc27f267	-0.010250664
87	0xbd80dc25	-0.06291989
88	0x3d9299b7	0.07158225
89	0x3d62046c	0.05518
90	0xbe7342ad	-0.23755904
91	0xbdbf70a8	-0.09347659
92	0x3e305234	0.17218858
93	0xbd5de299	-0.05417118
94	0xbd28ac5d	-0.041180003
95	0xbd7f390c	-0.062310264
96	0xbcc54733	-0.024081802
97	0x3dd7a56c	0.105295986
98	0x3e5b38c2	0.2140837
99	0x3c9fee50	0.019522816
100	0x3dc833d3	0.0977551
101	0x3e37ebad	0.17960997
102	0x3e444551	0.19167067
103	0x3ef6d846	0.4821188
104	0x3ebb77ff	0.36614987
105	0x3e0257a5	0.12728746
106	0x3b81a1a0	0.003956035
107	0x3db714b9	0.089394994
108	0xbdf92910	-0.12166035
109	0x3e2526ce	0.16128084
110	0x3e19e655	0.15029271
111	0x3e9fbaa5	0.31197086
112	0xbdd259bb	-0.10271021
113	0xbe31f71c	-0.17379421
114	0xbd3ad2f5	-0.04561134
115	0x3e5b5d2b	0.2142226
116	0x3e64b9c0	0.22336483
117	0xbe0961eb	-0.13416259
118	0x3e26c54f	0.16286205
119	0xbe256f26	-0.16155681
120	0xbd9e29e6	-0.07722835
121	0x3e91e19f	0.28492448
122	0xbd9d11ee	-0.076694354
123	0x3d70e988	0.058816463
124	0x3e2b2195	0.1671203
125	0x3e6c7437	0.23091207
126	0x3e9a1675	0.30095258
127	0xbdb12939	-0.08650441
128	0x3d49a4c2	0.04922939
129	0x3d9deeb8	0.077115476
130	0x3dacea57	0.08443134
131	0xbb381368	-0.002808774
132	0xbd356dcf	-0.044294175
133	0x3db5ba84	0.08873466
134	0x3e37b06f	0.17938398
135	0xbd9c10ac	-0.076203674
136	0x3e7fad68	0.24968493
137	0xbe247235	-0.16059192
138	0xbd7e6534	-0.062108234
139	0x3dccb6c1	0.09995795
140	0x3cbd9b7a	0.023145426
141	0x3cea0a11	0.028569253
142	0x3e9bfdfe	0.30467218
143	0xbc2c09dd	-0.010500398
144	0xbd073226	-0.03300681
145	0x3d1acf88	0.037795573
146	0x3d6312e5	0.05543794
147	0xbdbb1cdc	-0.09136364
148	0xbce458da	-0.027874399
149	0xbe1ed62a	-0.15511385
150	0xbd947a56	-0.07249896
151	0x3dca3bfb	0.098747216
152	0xbd183dbb	-0.037168246
153	0xbdc3555f	-0.095377676
154	0xbe2295b9	-0.15877427
155	0xbcc5952e	-0.024118986
156	0x3eb623a1	0.35574058
157	0xbe2208db	-0.1582369
158	0xbeafbd1d	-0.3432397
159	0xbd7d8ae8	-0.06190005
160	0x3d5e4f98	0.054275125
161	0x3c13e705	0.009027247
162	0xbd72bf7c	-0.059264645
163	0xbd82ec69	-0.06392748
164	0x3d96e149	0.073671885
165	0x3c158882	0.009126784
166	0x3e992c6c	0.29916704
167	0x3d3bde77	0.045866456
168	0x3e52e643	0.2059565
169	0xbe4a14cc	-0.19734496
170	0x3c432eed	0.011913043
171	0x3e844daa	0.25840503
172	0x3e367b59	0.17820491
173	0xbd2172df	-0.03941619
174	0x3d224329	0.03961483
175	0x3e9f9087	0.31164953
176	0xbe0e4251	-0.13892485
177	0x3cf9c558	0.030489609
178	0x3d2f714e	0.042832665
179	0x3da6b1ae	0.081393585
180	0x3d21d9a2	0.03951419
181	0x3da4b1bc	0.08041713
182	0x3d24adb4	0.04020472
183	0x3dcd381e	0.10020469
184	0x3c97ecb8	0.018545493
185	0x3e770608	0.24123394
186	0xbdbb6f82	-0.09152128
187	0x3d96ceed	0.07363687
188	0x3ebe8099	0.37207487
189	0xbc821830	-0.015880674
190	0xbe334c35	-0.1750954
191	0x3ef66d8a	0.48130447
192	0x3e6c4734	0.23074037
193	0x3e4d2bfa	0.20036307
194	0x3df28f97	0.11843794
195	0x3d9b4e06	0.07583241
196	0x3da2b96e	0.07945524
197	0x3ed062d4	0.407004
198	0xbe849599	-0.25895384
199	0xbd15207e	-0.03640794
200	0x3da1812e	0.07885967
201	0x3e74cc0a	0.2390596
202	0xbe0b2a1c	-0.13590282
203	0x3e07fc7b	0.13279907
204	0x3af9db46	0.0019062541
205	0xbca8b7ed	-0.020595515
206	0x3d706460	0.058689475
207	0x3ddd96c5	0.10819773
208	0x3d5159e4	0.051111117
209	0x3e01d192	0.12677601
210	0x3d8f7af4	0.07005873
211	0x3eb7e078	0.35913444
212	0x3d97413a	0.07385488
213	0x3b4648fc	0.0030255904
214	0xbdf99d16	-0.12188165
215	0x3d4888d3	0.04895861
216	0x3e73ef3d	0.23821731
217	0xbb1b5a39	-0.00237049
218	0xbd02d1c4	-0.03193833
219	0x3b09b805	0.0021014225
220	0x3d14aa45	0.036295194
221	0x3cf9afac	0.030479275
222	0x3e0eb80c	0.13937396
223	0xbe051970	-0.12997985
224	0x3c8ffc3e	0.017576333
225	0xbdc6bfbf	-0.097045414
226	0x3e31b9a5	0.17355974
227	0x3c557aa6	0.01302973
228	0x3d33be9d	0.043882955
229	0xbc47d9ad	-0.012197894
230	0xbea140fc	-0.31494892
231	0x3e329835	0.17440875
232	0x3d8279e6	0.063709065
233	0x3d07e7d4	0.033180073
234	0xbdecce9f	-0.11562847
235	0x3ebd0f92	0.36925942
236	0xbdd277fa	-0.1027679
237	0xbcc01b13	-0.02345041
238	0x3e006b90	0.12541032
239	0x3e5d2db6	0.21599469
240	0xbd7b02e7	-0.061282065
241	0xbe54faa1	-0.20798732
242	0x3d725f0b	0.05917267
243	0x3d1ea96e	0.0387358
244	0x3e83d157	0.2574565
245	0x3de96f8a	0.113982275
246	0x3e9e0626	0.30864066
247	0xbdc6f89f	-0.097153895
248	0xbca4c082	-0.020111326
249	0x3e8ca15a	0.2746685
250	0x3e4c63da	0.19959965
251	0x3ba352a5	0.004984217
252	0x3b839a04	0.004016163
253	0xbe15b451	-0.14619567
254	0x3db02c83	0.0860224
255	0x3da32f9c	0.07968065

features_model.2.bias f4 [128]
0	0x3e13f842	0.14450172
1	0x3da2312a	0.079195336
2	0x3bcc5c48	0.0062365867
3	0xbd7905b4	-0.060796455
4	0x3dbfc0f3	0.09362974
5	0x3e3f523e	0.18683717
6	0xbc989665	-0.018626401
7	0x00000000	0.0
8	0x3e076bbf	0.13224696
9	0x3e2d6bff	0.16935728
10	0xbce92bc4	-0.028463252
11	0x3e092653	0.13393526
12	0xbc7e7f86	-0.015533334
13	0xbcbaf669	-0.022822576
14	0xbbd74a21	-0.006570116
15	0x3e577e17	0.21044193
16	0xbba45406	-0.005014899
17	0x3d743c8e	0.059628062
18	0xbccc0d20	-0.024908602
19	0x3e15a3d6	0.1461328
20	0xbbc35663	-0.005961226
21	0x3e323569	0.17403187
22	0xbc976e75	-0.018485287
23	0xbd3b1351	-0.04567272
24	0x3e564582	0.20924953
25	0x3e177d2d	0.14793845
26	0xb94aa4b0	-0.00019325572
27	0xbc398e06	-0.011325365
28	0xbbe50a64	-0.006989764
29	0xbaa75df9	-0.0012769095
30	0xbcea3f91	-0.028594764
31	0x3e26593e	0.1624498
32	0x3df0e1f9	0.11761851
33	0x3e0d0b9f	0.13773964
34	0x3e51d918	0.20492971
35	0x3de3aacd	0.11116562
36	0xbd097084	-0.03355457
37	0x3deefd22	0.11669375
38	0x3e2267af	0.15859865
39	0xbb4dae92	-0.003138457
40	0x3e3cfa2c	0.18454808
41	0x3dfb8d9d	0.1228287
42	0xbd12d70e	-0.035849623
43	0xbbdd2eb3	-0.0067499517
44	0x3dc40969	0.09572107
45	0xbcc5c263	-0.024140542
46	0x3c6045a9	0.013688483
47	0xbc4d5029	-0.012531319
48	0xbcda446c	-0.026643954
49	0x3dd2d665	0.10294799
50	0xbc648030	-0.013946578
51	0xbc59caa8	-0.013292946
52	0xbc9def4a	-0.019279141
53	0x3dcfabd9	0.10140199
54	0xbc3a6a29	-0.01137785
55	0x3e2fcba7	0.17167531
56	0x3ddc2d83	0.10750868
57	0xba910328	-0.0011063563
58	0x3daae8e7	0.08345204
59	0xbccce8a4	-0.025013275
60	0xbcc7f2a0	-0.024407685
61	0x3d056db6	0.03257533
62	0xbb569012	-0.0032739681
63	0x38d81647	0.00010303832
64	0xbc267605	-0.010159974
65	0xbd1bbfb0	-0.038024604
66	0xbbd949bf	-0.0066311057
67	0x3e344eb7	0.17608152
68	0x3e26369e	0.16231772
69	0x3df0cfaa	0.11758359
70	0x3cc381a3	0.023865527
71	0xbba75b56	-0.0051073236
72	0xbcdeb927	-0.027187897
73	0xbcd280f6	-0.025696259
74	0x3e104733	0.1408966
75	0x3e149f16	0.14513811
76	0x3e1381d1	0.1440499
77	0x3b4ce8e1	0.0031266736
78	0x3e1360d6	0.14392409
79	0xbc9d224c	-0.019181393
80	0x00000000	0.0
81	0x3c895390	0.016763479
82	0xbcc8e24c	-0.02452197
83	0x3e0b33b2	0.13593939
84	0xbc6ea849	-0.0145664895
85	0x3e0fc1bf	0.14038752
86	0xbc389f3a	-0.011268431
87	0x3e65215d	0.22376008
88	0x3de71b67	0.112845235
89	0xbb3aed82	-0.0028522913
90	0xbbdeb552	-0.0067965174
91	0x3ce321fb	0.027726164
92	0x3e0f69d7	0.14005218
93	0xbd089a92	-0.033350535
94	0xbc9f88b9	-0.019474374
95	0x3e0d69b0	0.13809848
96	0xbc2eb833	-0.010664034
97	0xbc9b3aa9	-0.01894887
98	0x3d5339a5	0.051568646
99	0x3e5c45e5	0.21511038
100	0xbd3b4cb0	-0.04572743
101	0xbd190e09	-0.0373669
102	0x00000000	0.0
103	0xbc2cf537	-0.010556511
104	0x3e0b0f40	0.13580036
105	0xbbfe5aa7	-0.0077622714
106	0x3e2826df	0.16421078
107	0xbd560c2e	-0.05225771
108	0xba117579	-0.0005548816
109	0xbcdf3423	-0.02724654
110	0x3df72d6e	0.12069212
111	0xbd417321	-0.047228936
112	0xbcd3ef23	-0.025870865
113	0xbc4293cc	-0.011876058
114	0x3e002e13	0.12517576
115	0x3e76191e	0.24033019
116	0x3e2a408f	0.1662619
117	0x3e247963	0.1606193
118	0xbc5883f0	-0.01321505
119	0xbd3d28f2	-0.046181627
120	0x3bf3bde8	0.00743841
121	0xbc8bad5d	-0.01705044
122	0xbc72e6e2	-0.014825555
123	0x3d94c69b	0.072644435
124	0xbc535be5	-0.012900327
125	0x3d3cea1d	0.046121705
126	0x00000000	0.0
127	0xbc423781	-0.0118540535

features_model.4.weight f4 [128, 128]
0	0x3e02fade	0.1279101
1	0xb944033b	-0.0001869322
2	0x3d6f90a4	0.05848755
3	0xbd72ad7b	-0.059247475
4	0xbc98a1a7	-0.01863177
5	0xbe6299cb	-0.2212898
6	0xbe8363c9	-0.25662068
7	0x3b92d763	0.0044812425
8	0xbd9bff41	-0.07617045
9	0x3c71f115	0.014766951
10	0xbd76685a	-0.06015811
11	0xbe2d07da	-0.16897526
12	0xbd54269f	-0.051794644
13	0xbd4fc905	-0.050728817
14	0xbc2a3392	-0.010388272
15	0xbd280f14	-0.041030005
16	0x3e0f0d7a	0.13969985
17	0x3dc57185	0.09640793
18	0xbe64f017	-0.22357212
19	0x3d7f445e	0.06232106
20	0x3d65cd21	0.05610383
21	0xbe9314a0	-0.28726673
22	0xbe19a5b4	-0.15004617
23	0x3db39bbc	0.08769938
24	0xbdcf3a6c	-0.10118565
25	0x3d96fbe8	0.07372266
26	0x3ebd5831	0.36981347
27	0xbc95fa4e	-0.018307831
28	0x3de4755d	0.11155198
29	0x3de86cf4	0.11348906
30	0xbcefe57c	-0.029284231
31	0xbd2106ab	-0.039313
32	0x3d0002df	0.031252738
33	0xbe5aff00	-0.21386337
34	0x3e38438d	0.17994519
35	0x3e4976ce	0.19674227
36	0xbe3fd6bb	-0.18734257
37	0xbd7abacd	-0.061213303
38	0xbcf7b3da	-0.030237127
39	0x3d112d65	0.035443682
40	0xbd1023be	-0.035190336
41	0x3cac236e	0.021012988
42	0x3eab6fea	0.3348382
43	0xbe096aa2	-0.13419583
44	0x3d8ed368	0.06973916
45	0x3e348f6c	0.17632836
46	0xbd071cf3	-0.032986593
47	0x3e25cfa7	0.16192494
48	0xbe6089dd	-0.2192759
49	0x3cad8a6b	0.021184167
50	0x3d5577d1	0.05211622
51	0x3d5a3eb0	0.05328244
52	0xbd0d0737	-0.03443071
53	0xbe196d5f	-0.14983128
54	0xbd94e56b	-0.072703205
55	0x3ddd450b	0.108041845
56	0xbd7eeadf	-0.06223571
57	0xbea18166	-0.31544036
58	0x3e32916d	0.17438288
59	0x3d4c7134	0.049912646
60	0xbe18c5f1	-0.14919259
61	0xbd5cefd9	-0.053939674
62	0x3d1b6ff3	0.03794856
63	0xbd13d90f	-0.036095675
64	0xbe14fc66	-0.14549407
65	0xbdb64aa6	-0.08900957
66	0x3d1b4f16	0.03791722
67	0xbd8baaf3	-0.06819715
68	0x3d981b14	0.0742704
69	0x3d398499	0.04529247
70	0x3dc51dc2	0.096248165
71	0x3e21252d	0.15736838
72	0xbe082c79	-0.13298215
73	0xbdaf956e	-0.08573423
74	0xbd09c38a	-0.033633746
75	0x3d76e22a	0.06027428
76	0xbea44fda	-0.32092172
77	0x3cec1293	0.02881745
78	0xbdbd1d90	-0.09234154
79	0xbe0fbb14	-0.14036208
80	0x3e59deff	0.21276473
81	0x3e40bcea	0.18822065
82	0xbc220784	-0.009889487
83	0xbc41627a	-0.011803264
84	0x3cb53403	0.022119528
85	0xbdfc628e	-0.12323485
86	0x3c99e364	0.018785186
87	0x3d767081	0.060165886
88	0x3a2e83f2	0.00066572346
89	0xbe05abc8	-0.1305381
90	0x3d5e1f8a	0.054229297
91	0x3d13f71d	0.036124337
92	0xbe18fd48	-0.14940369
93	0xbddab3ce	-0.10678826
94	0xbd4c42c2	-0.049868353
95	0x3dce3638	0.10068935
96	0x3d143dde	0.036191814
97	0x3dadc20a	0.08484276
98	0xbc130cdf	-0.008975237
99	0x3be26741	0.0069092815
100	0xbd33a9c8	-0.043863088
101	0xbd4ae403	-0.049533855
102	0xbde38c27	-0.11110716
103	0x3da6a638	0.081371725
104	0xbd06e7af	-0.032935794
105	0xbe472de0	-0.19451094
106	0xbe51b2cd	-0.20478363
107	0xbd058aaf	-0.032602962
108	0xbe04551a	-0.12923089
109	0xbe059fd0	-0.13049245
110	0x3e69c6be	0.2282972
111	0x3e1741f3	0.14771251
112	0x3b997ce4	0.0046840776
113	0x3d983e52	0.07433762
114	0xbd1273ea	-0.035755076
115	0x3d384127	0.04498401
116	0xbe02d9be	-0.12778375
117	0x3dd23009	0.10263068
118	0x3e15f52e	0.1464431
119	0xbdb9bf3a	-0.09069677
120	0x3ddcc9c6	0.10780673
121	0xbdf4e36d	-0.119574405
122	0x3e11d298	0.14240491
123	0xbe666c1b	-0.22502176
124	0xbe24ec02	-0.16105655
125	0xbe0e93db	-0.1392359
126	0xbe0f6a24	-0.14005333
127	0xbd24828b	-0.040163558
128	0xbd197f92	-0.037475176
129	0xbdd74067	-0.10510331
130	0x3df6757d	0.12034128
131	0xbdb54dc3	-0.088527225
132	0xbe01fd1f	-0.12694214
133	0xbd0a4d10	-0.0337649
134	0x3e2e04b6	0.16993985
135	0xbe18114a	-0.14850345
136	0xbe5b5e76	-0.21422753
137	0xbdbbb106	-0.09164624
138	0x3d1b9ae5	0.037989516
139	0xbe33f88f	-0.17575286
140	0xbd326ab9	-0.04355881
141	0x3e0cad88	0.13738072
142	0x3d09c77e	0.033637516
143	0x3c991ff1	0.018691989
144	0xbe1e27ca	-0.15444866
145	0xbd4827a0	-0.048865914
146	0x3e947966	0.2899887
147	0xbd9a6e8f	-0.07540619
148	0x3e004b2f	0.1252868
149	0x3db7a6c7	0.08967357
150	0xbd968d84	-0.07351211
151	0x3e6059a8	0.21909201
152	0x3dcce6da	0.10004969
153	0x3d338cba	0.04383538
154	0xbdf26cad	-0.118371345
155	0xbd0abbe0	-0.033870578
156	0xbe3c7f68	-0.18407977
157	0x3e2cd65a	0.16878644
158	0x3d4f4e49	0.050611768
159	0xbda08227	-0.078373246
160	0xbd2c59eb	-0.04207794
161	0xbe02b93f	-0.12765978
162	0x3d785b4d	0.060633946
163	0xbc89d4d3	-0.016825115
164	0x3e861894	0.26190627
165	0xbd099b25	-0.033595223
166	0x3d48aad9	0.048991058
167	0xbe904855	-0.28180185
168	0xbc0b9dda	-0.008521521
169	0xbc0d58ad	-0.008627099
170	0x3da57ac7	0.080800585
171	0x3e42ed94	0.19035941
172	0x3ed72901	0.4202347
173	0x3d369f21	0.04458535
174	0xbcdcd46d	-0.026956761
175	0xbd952d6e	-0.07284056
176	0x3dfc3cb8	0.12316269
177	0xbe5dfc5c	-0.21678299
178	0xbe185e58	-0.1487974
179	0xbeb8c180	-0.3608513
180	0x3d85852c	0.06519541
181	0xbe260ff3	-0.16217022
182	0x3d03b959	0.032159183
183	0x3e6675cd	0.22505875
184	0x3e24acae	0.16081497
185	0xbbfa23e8	-0.007633675
186	0xbd6e2ff6	-0.058151208
187	0xbdba2d2c	-0.09090647
188	0x3e6f31e6	0.23358878
189	0x3e88313a	0.26600057
190	0x3da0d811	0.078537114
191	0xbdcf9485	-0.1013575
192	0x3d8bc578	0.068247736
193	0xbca5ad7c	-0.020224325
194	0xbb2c399b	-0.0026279453
195	0x3dc158d6	0.09440772
196	0x3e48a0c3	0.19592576
197	0xbe2c0b28	-0.16801131
198	0x3e15fa38	0.14646232
199	0x3d955079	0.072907396
200	0xbd13bf96	-0.036071382
201	0x3db9893e	0.0905938
202	0xbd403dc8	-0.04693392
203	0x3dcb7cd4	0.099359185
204	0xbdcb3c07	-0.09923559
205	0xbdb5858b	-0.08863362
206	0x3dc03bc7	0.093864016
207	0xbe08bb85	-0.13352783
208	0x3dbf3194	0.09335628
209	0x3b31fba3	0.0027158044
210	0xbba256d8	-0.0049542002
211	0xbd0c104d	-0.034195233
212	0x3c7f94e6	0.015599465
213	0xbe10a76c	-0.14126366
214	0xbc28d513	-0.010304707
215	0xbe6f9db1	-0.23399998
216	0x3e124289	0.14283194
217	0x3e5776f2	0.21041468
218	0x3d1f9276	0.038958035
219	0x3e23b606	0.15987405
220	0x3db5acd6	0.088708565
221	0x3c641429	0.013920822
222	0xbd81d26d	-0.06338964
223	0x3bd44fe4	0.0064792503
224	0xbc0a03c1	-0.008423747
225	0x3e0de941	0.1385851
226	0xbc44b017	-0.012004874
227	0xbd22b4d1	-0.03972322
228	0x3e5d974a	0.21639743
229	0x3d0eb031	0.034835998
230	0xbe4c87ff	-0.19973753
231	0xbc5e0a5b	-0.013552274
232	0x3e05d934	0.13071138
233	0xbd125e7d	-0.035734642
234	0xbd3b15d1	-0.045675103
235	0xbe230015	-0.15918
236	0xbde59b2c	-0.11211237
237	0x3d3f8f02	0.046767242
238	0xbce7ae36	-0.028281312
239	0x3d02a044	0.031891122
240	0x3dc1f3df	0.09470343
241	0xbdecd095	-0.11563221
242	0x3dc90dec	0.098171085
243	0x3dd7cff2	0.10537709
244	0xb893b428	-7.043063e-05
245	0xbd46c43c	-0.048526987
246	0x3e2325e7	0.15932427
247	0xbde2f271	-0.11081398
248	0x3e3d77c6	0.18502721
249	0x3d4ede38	0.050504893
250	0xbc46bc2f	-0.012129827
251	0xbd8596ea	-0.06522925
252	0xbe01defd	-0.1268272
253	0xbdcee8d7	-0.101030044
254	0xbd0ce720	-0.034400105
255	0x3e569ad0	0.20957494

features_model.4.bias f4 [128]
0	0xbcf82c63	-0.030294603
1	0xbc8a6078	-0.016891703
2	0xbcb0839b	-0.02154713
3	0xbce54973	-0.027989125
4	0x3e1bd94a	0.15219608
5	0xbcbc5f92	-0.02299479
6	0xbcec135d	-0.028817827
7	0xbca1c2ec	-0.019746266
8	0xbc94e761	-0.018176736
9	0xbc81f18f	-0.015862254
10	0xbc8f9297	-0.017525954
11	0x3dc98680	0.09840107
12	0xbc3dc9c9	-0.011583754
13	0x3d9e030d	0.07715426
14	0x3ca0839d	0.019594008
15	0xbcf417d2	-0.029796515
16	0xbc33c9a5	-0.010973369
17	0xba4949fd	-0.00076785666
18	0xbbf6994e	-0.0075255996
19	0x3df9c637	0.121960096
20	0xb9b52056	-0.00034547102
21	0x3d9a1cdf	0.07525038
22	0xbc7479dc	-0.014921632
23	0xbc0d88ea	-0.0086386
24	0x3dab6148	0.08368164
25	0x3ce930b6	0.02846561
26	0xbcc6498f	-0.024204997
27	0x3d0e56e3	0.03475083
28	0xbc95eff1	-0.01830289
29	0x3e051c15	0.12998994
30	0x3d907dcc	0.07055244
31	0xbafd131c	-0.0019308063
32	0xbc372624	-0.011178527
33	0x3da034d4	0.07822576
34	0xbbfe440d	-0.007759577
35	0x3dbee3a9	0.093207665
36	0x3b3f52cc	0.0029193638
37	0x00000000	0.0
38	0x3df73e78	0.12072462
39	0xbca47c41	-0.02007878
40	0xbc941240	-0.018075109
41	0xbc317b4c	-0.010832619
42	0x3db1ddb8	0.086848676
43	0xba4326b8	-0.0007444429
44	0xbc8e060c	-0.017336868
45	0xbc38044f	-0.011231496
46	0xbc46a067	-0.012123204
47	0x3db5de71	0.08880318
48	0x3e03d24c	0.1287319
49	0x3e5ed5e3	0.21761279
50	0x3d55da0c	0.0522099
51	0xbd0092eb	-0.031390112
52	0xbcaac814	-0.020847358
53	0x3bcbcc93	0.0062194555
54	0xbcb128c7	-0.02162589
55	0xbc54a643	-0.012979093
56	0x00000000	0.0
57	0x3bf6ac2a	0.007527848
58	0xbc9d36c4	-0.019191153
59	0x3d21c26d	0.03949206
60	0xba6aca6e	-0.0008956556
61	0x3d0b2e15	0.033979494
62	0x3e304fb6	0.17217907
63	0xbcc38b79	-0.023870217
64	0x3e3a7d86	0.18211946
65	0x3c5305d2	0.012879806
66	0x3de215c6	0.11039309
67	0x3c36c2b2	0.011154817
68	0xbb35b65f	-0.002772711
69	0x3d785930	0.06063193
70	0x3d95e843	0.07319691
71	0xbc914e4e	-0.017737534
72	0xbc8aa77e	-0.01692557
73	0xbcab622a	-0.020920832
74	0xbc9924a3	-0.018694228
75	0x3db88aad	0.09010825
76	0x3a9fbbb6	0.001218668
77	0x3d2401f0	0.04004091
78	0x3de2c3a6	0.11072473
79	0xbcc57902	-0.024105553
80	0x3c5ebce1	0.013594837
81	0x3cd04801	0.02542496
82	0x3e142b3d	0.14469619
83	0xbcc35be5	-0.02384753
84	0xbd08c818	-0.03339395
85	0xbc720023	-0.01477054
86	0x3df9531a	0.121740535
87	0x3e0ae825	0.13565119
88	0xbd285851	-0.04109985
89	0xbcd56030	-0.026046842
90	0xbc9ab0f6	-0.01888321
91	0x3c0d4f23	0.008624825
92	0x3e3069bc	0.17227834
93	0xbcd308b3	-0.025760984
94	0x3e1b4b9d	0.15165563
95	0xbd0932b8	-0.033495635
96	0x3e2cf3ff	0.16889952
97	0x3dc8fbd3	0.09813657
98	0x3e235927	0.15951978
99	0x3e3b5c60	0.18296957
100	0xbd27198c	-0.040795848
101	0xbcc88d06	-0.024481308
102	0xbb61c12a	-0.003444741
103	0x3d237448	0.039905816
104	0x3e2f1f75	0.17101844
105	0x3e206ed9	0.15667285
106	0xbb38d58f	-0.0028203463
107	0xbc9fd5b6	-0.019511085
108	0x3e43b2bf	0.19111155
109	0xbca0064c	-0.019534253
110	0xbcc0ad7d	-0.023520226
111	0x3d6cc13d	0.057801474
112	0x3c1a91df	0.009434192
113	0xbc4b88f5	-0.01242279
114	0x3e360ee3	0.17779116
115	0x3d0c5dc1	0.0342691
116	0xbce817f7	-0.02833174
117	0x3dd01ca2	0.10161711
118	0xbcac81d2	-0.021057997
119	0x3e1b77e1	0.15182449
120	0xbb2b852b	-0.0026171904
121	0x3d99960a	0.07499321
122	0xbc9826d3	-0.0185732
123	0x00000000	0.0
124	0x3e37836c	0.17921227
125	0x3dfe617e	0.12420939
126	0x3c3dee5b	0.011592473
127	0x3da12104	0.07867625

policy_model.0.weight f4 [128, 128]
0	0x3af99550	0.0019041691
1	0x3b229146	0.0024805828
2	0xbae944de	-0.0017797013
3	0xbac2a7d9	-0.0014851048
4	0xba0f662c	-0.0005470242
5	0xbb0c0a29	-0.002136836
6	0xbb294e96	-0.0025834194
7	0xbaa89071	-0.001286043
8	0xbae76aec	-0.0017655767
9	0x3ad87bf0	0.0016516428
10	0xba97c102	-0.0011577907
11	0xbaf250b4	-0.0018487186
12	0xbb0f5918	-0.0021873172
13	0x398b0288	0.00026514032
14	0xbb289170	-0.0025721453
15	0xbad639e2	-0.0016344155
16	0xbb3f7075	-0.0029211317
17	0x39e063b9	0.00042798909
18	0xba9c4f76	-0.0011925537
19	0xbb655e4a	-0.0034998828
20	0x3b418f6f	0.0029534956
21	0xbb960144	-0.0045777876
22	0xbb193f95	-0.0023383845
23	0x38e3f4ae	0.000108697786
24	0x381ea6b8	3.7825404e-05
25	0xbaa7dcb1	-0.001280686
26	0xba9ef695	-0.001212793
27	0xbabca78b	-0.0014393193
28	0xbaf1e0ec	-0.0018453873
29	0x3aaf2025	0.001336102
30	0xbbae58a6	-0.0053206263
31	0xb8db6189	-0.00010460901
32	0xb8d2e470	-0.0001005613
33	0xbb7100b3	-0.0036774098
34	0x39def3d5	0.0004252481
35	0xbb8d024f	-0.0043032537
36	0xb8b9be38	-8.8569184e-05
37	0xba70869c	-0.0009175332
38	0xbba6b9cf	-0.005088068
39	0xbb3ef259	-0.002913615
40	0xb95640d3	-0.0002043278
41	0xba8243c3	-0.0009938407
42	0xba4000d4	-0.0007324342
43	0x3b1db9d2	0.0024067056
44	0x393d5bfd	0.00018058713
45	0x399c4c14	0.0002981132
46	0x3ad637a9	0.0016343492
47	0xba6806ec	-0.0008851129
48	0xba30f1c9	-0.0006749896
49	0xba964605	-0.0011464959
50	0xbaf837f1	-0.001893757
51	0xbb08ee24	-0.0020893896
52	0xba9fd732	-0.001219487
53	0x3a964166	0.0011463582
54	0xbaf58fce	-0.0018734874
55	0x3a372f7e	0.0006987973
56	0xba30f8c4	-0.0006750936
57	0xbb608efb	-0.003426491
58	0xbafabf11	-0.0019130429
59	0xbb1c7a30	-0.002387654
60	0xbaea1148	-0.0017857933
61	0xbad806f2	-0.0016481562
62	0xba400c67	-0.0007326067
63	0xba4af13a	-0.0007741634
64	0x3a8cc995	0.0010741228
65	0x3aef684a	0.0018265333
66	0x3b3a7970	0.002845373
67	0xbb1e1585	-0.0024121713
68	0x3887e7f0	6.480503e-05
69	0xbbea8259	-0.007156652
70	0xbbb62158	-0.005558174
71	0xbabdf55b	-0.0014492677
72	0x3af9717b	0.0019031012
73	0x3a76da47	0.0009416681
74	0xbb28402f	-0.0025673022
75	0x3aa3a954	0.0012486377
76	0xb8a74341	-7.9757076e-05
77	0xb9fa7cd3	-0.00047776717
78	0x3abee8e7	0.001456526
79	0xbae629aa	-0.0017560024
80	0x3a700824	0.00091564865
81	0x395df4ea	0.0002116744
82	0xb9eedf92	-0.0004556147
83	0xba85567f	-0.0010172873
84	0xbb0ea443	-0.0021765388
85	0x3b0c89e7	0.00214445
86	0xbc08fe78	-0.008361451
87	0xbbd037de	-0.006354316
88	0xbae449da	-0.0017417029
89	0x3b438256	0.0029832325
90	0xbadd8892	-0.0016901663
91	0xbb397143	-0.002829627
92	0x3ac7fc9c	0.0015257779
93	0xbb381fae	-0.0028095054
94	0xba80e0e1	-0.0009832644
95	0x3a5ab4ce	0.0008342982
96	0xba832422	-0.0010005275
97	0xbbb9addc	-0.0056664776
98	0x3af56f7d	0.0018725243
99	0x393b4437	0.00017859122
100	0x395f2099	0.00021279081
101	0xbaea036a	-0.0017853801
102	0xba24f86e	-0.00062931224
103	0x3920ed57	0.00015347205
104	0xbab04a46	-0.001344987
105	0xbae7165f	-0.0017630568
106	0x3ab9f71c	0.0014188024
107	0xbb1b8c4e	-0.002373475
108	0x3a02da93	0.00049916765
109	0xb9cd3ac5	-0.00039144434
110	0x3aa3091f	0.0012438631
111	0xbb34956a	-0.0027554878
112	0xb990abd2	-0.00027593836
113	0xbb5659a1	-0.0032707232
114	0x39a8addd	0.00032172995
115	0xbb29ec21	-0.0025928097
116	0xbaf6e858	-0.0018837554
117	0xbbe59c41	-0.0070071523
118	0xbac48a8a	-0.0014994901
119	0xbb97648b	-0.00462014
120	0xbb0c6306	-0.0021421327
121	0xbbe177d3	-0.0068807392
122	0x37827b93	1.5554751e-05
123	0x392771a5	0.00015968697
124	0xbbc69e08	-0.0060613193
125	0xbb918864	-0.004441308
126	0xb9357776	-0.00017306008
127	0xbaecc8d0	-0.0018065218
128	0xbd5b6b9c	-0.05356942
129	0x3ba20807	0.0049448046
130	0x3c5f0601	0.013612271
131	0x3c4f465d	0.012651053
132	0x3d1acac1	0.037791017
133	0x3c80f19e	0.015740212
134	0x3cb4363f	0.021998523
135	0xbc10f981	-0.008848549
136	0x3c91bfec	0.01779171
137	0xbc8446fc	-0.01614713
138	0xb92e5da7	-0.00016628821
139	0x3d6f19b5	0.058374126
140	0x3d457ae8	0.048212916
141	0x3d2b7acc	0.041865155
142	0x3d8d4c57	0.06899326
143	0x3c843cfe	0.016142365
144	0x3d1166f3	0.03549857
145	0x3c6373db	0.013882603
146	0x3a17cce3	0.00057907234
147	0x3d87efe6	0.06637554
148	0x3c067404	0.008206371
149	0x3da88084	0.082276374
150	0x3c45e48e	0.012078417
151	0x3bc656ad	0.006052813
152	0x3d9f25dc	0.07770893
153	0x3cf32057	0.029678507
154	0x3d172108	0.036896735
155	0x3d448d69	0.04798642
156	0x3bda3864	0.0066595543
157	0x3d0fd97a	0.03511951
158	0x3d96c81f	0.07362389
159	0x3ce5ca37	0.028050525
160	0x3bc5d03c	0.0060367864
161	0x3d037c2c	0.03210084
162	0x3bb87365	0.0056289905
163	0x3d9e7523	0.07737186
164	0xbc9ca4c4	-0.019121535
165	0xba0c9754	-0.0005363126
166	0x3d55f282	0.052233227
167	0x3b27715a	0.002554974
168	0xbc1f52f1	-0.009724365
169	0x3c816c98	0.015798852
170	0x3db038bf	0.086045735
171	0xbc0c0689	-0.00854648
172	0x3b243fd3	0.0025062456
173	0x3c92c21b	0.017914822
174	0xbcb85d05	-0.022505293
175	0x3d95e359	0.07318754
176	0x3cedeabe	0.029042598
177	0x3b7262e9	0.0036985225
178	0x3c62068a	0.013795504
179	0x3d15b597	0.03655013
180	0x3c8e8d19	0.017401265
181	0x3cb50782	0.022098307
182	0x3c72619f	0.0147937825
183	0x37db5a4c	2.6148882e-05
184	0x3912448a	0.00013949178
185	0x3ad9c959	0.0016615792
186	0x3ca97ccf	0.020689396
187	0x3d6f04e2	0.058354266
188	0x3a3ffdf5	0.00073239143
189	0x3c397d84	0.011321429
190	0x3badee93	0.0053079813
191	0x3c607569	0.013699868
192	0xbd188c76	-0.03724333
193	0x3cedfe84	0.029052027
194	0x3d8bda70	0.06828773
195	0xbc21af81	-0.009868504
196	0x3c00b8c1	0.007856549
197	0x3d862d77	0.065516405
198	0x3d8fa30d	0.07013521
199	0x3d64e7e5	0.055885214
200	0x3cb08f3d	0.021552676
201	0xbc9ae82a	-0.018909533
202	0x3c63a988	0.0138954
203	0x3d66644a	0.056247987
204	0x3a9e35f1	0.0012070519
205	0x3db00faf	0.085967414
206	0xbbf3baf7	-0.0074380594
207	0x3bb5184a	0.005526577
208	0x3c8ec9a7	0.01743014
209	0xbce282a4	-0.027650185
210	0xbc9bdf0a	-0.019027252
211	0x3a30d260	0.00067452155
212	0x3cc74d94	0.024328984
213	0x3c8c6513	0.01713804
214	0x3d6dfe83	0.05810405
215	0x3d5923f7	0.053012814
216	0x3c20681a	0.009790445
217	0x3c6ddec0	0.01451844
218	0x3d048799	0.03235588
219	0x3cef89cb	0.02924051
220	0xbb00aef2	-0.0019635526
221	0xb98690ce	-0.0002566636
222	0x3bc2a324	0.005939858
223	0xbcc60534	-0.024172403
224	0x3d2f4f56	0.04280027
225	0x3d8e897e	0.06959818
226	0xbcb01b9a	-0.021497536
227	0x39fc7e5d	0.00048159334
228	0x3b9130f5	0.004430885
229	0x3d011594	0.03151472
230	0x3d740df1	0.059583608
231	0x3d8ed471	0.06974114
232	0xbc50771e	-0.012723712
233	0x3d7d89c3	0.061898958
234	0x3d189a52	0.037256546
235	0x3d47a75d	0.048743594
236	0xbd0ae20c	-0.03390698
237	0x3bd4a46d	0.0064893276
238	0x3c48ecff	0.0122635355
239	0x3b957af8	0.004561778
240	0x3d8d8272	0.06909646
241	0x3c27a28d	0.010231626
242	0x3d02b472	0.031910367
243	0x3d002ad6	0.03129085
244	0x3b93752a	0.004500051
245	0x3d8cfad9	0.06883783
246	0x3c45d1ea	0.012073973
247	0x3d6eb2de	0.05827605
248	0xbadb3399	-0.0016723751
249	0x3d91e0b0	0.07122934
250	0x3d058405	0.032596607
251	0xba3f2572	-0.00072916516
252	0x3d34f402	0.044178016
253	0x3d8bac82	0.06820013
254	0x3bef2b87	0.00729889
255	0x3da7f927	0.08201819

policy_model.0.bias f4 [128]
0	0xba95a6c7	-0.0011417501
1	0x3d8f3688	0.06992823
2	0xbac46173	-0.0014982655
3	0x393d70de	0.00018066491
4	0x37b5ad38	2.1657543e-05
5	0xb91c61c4	-0.0001491374
6	0xbbb68c9c	-0.005570961
7	0xbc27bbf4	-0.010237683
8	0x3aca255f	0.0015422514
9	0xbac48b56	-0.0014995139
10	0xbac4bcc5	-0.0015009871
11	0xbc6ac7b7	-0.014329842
12	0xbc8ac9f2	-0.016941998
13	0x3c6630d7	0.01404973
14	0x39882fac	0.0002597546
15	0x39b460a8	0.0003440429
16	0x3be2eaae	0.0069249487
17	0xbc8d88f9	-0.017277228
18	0xbac420f3	-0.0014963433
19	0xbabf163b	-0.0014578769
20	0xbc3d3536	-0.011548331
21	0xbc064a4f	-0.0081964275
22	0x3bf92329	0.0076030684
23	0xb9c7d1e2	-0.00038112613
24	0xbc79d3a8	-0.015248217
25	0xbac4b8ee	-0.0015008727
26	0xbc42bca4	-0.011885796
27	0xbc621a26	-0.01380018
28	0xbc00df19	-0.007865691
29	0xbac46715	-0.0014984334
30	0xbc0ea458	-0.008706175
31	0xbbd03809	-0.006354336
32	0xbc604277	-0.013687721
33	0xbbdd5f5b	-0.006755752
34	0xbac4b015	-0.001500609
35	0xbbd51cfb	-0.006503699
36	0xba5ee146	-0.0008502196
37	0xba9d2de1	-0.0011991822
38	0xbc90738d	-0.017633224
39	0xbc63a47a	-0.013894195
40	0x3d88d087	0.066803984
41	0xbc6f3718	-0.014600538
42	0x3bcc0b88	0.0062269606
43	0xbac4869f	-0.0014993733
44	0xbaa81f92	-0.0012826791
45	0x3d0b73da	0.03404603
46	0xbc84e301	-0.016221525
47	0xbc250b38	-0.010073476
48	0xbc18d61e	-0.009328393
49	0x3b1e1cbb	0.0024126011
50	0xbc2a0189	-0.010376343
51	0xbab3c0eb	-0.001371411
52	0xbb76501d	-0.0037584372
53	0x3b83ec51	0.004025974
54	0xbc53c113	-0.01292445
55	0x00000000	0.0
56	0x00000000	0.0
57	0xbb0961fc	-0.0020962944
58	0xbc8c500a	-0.01712801
59	0xbaa73618	-0.001275721
60	0xbc8756fe	-0.016520973
61	0xbac32dd6	-0.001489098
62	0xbac43828	-0.0014970349
63	0x3b78b021	0.0037946778
64	0xbb7eb464	-0.0038864845
65	0xbac4b469	-0.001500738
66	0xbae5f0bb	-0.0017543057
67	0xbc7e3b9d	-0.015517143
68	0xbc0afd4a	-0.00848324
69	0xbb8c31fd	-0.00427842
70	0xbc0095df	-0.007848232
71	0xbbfee2af	-0.0077784876
72	0xba8362fd	-0.0010024008
73	0xbba9ae76	-0.005178268
74	0x3a825ee9	0.0009946498
75	0xbb767552	-0.003760655
76	0xbac44a0c	-0.0014975681
77	0xbc828737	-0.015933616
78	0xbc775ddc	-0.015098061
79	0xbac49e1d	-0.0015000735
80	0x3cd77381	0.026300194
81	0xbc86ffda	-0.016479421
82	0xbc65ae44	-0.014018599
83	0xba0bb014	-0.0005328667
84	0x3babc9a1	0.005242542
85	0xba987412	-0.0011631271
86	0xba5b9c7c	-0.0008377505
87	0x3dd38c00	0.10329437
88	0xbc268129	-0.01016263
89	0xbc920e92	-0.017829213
90	0xbac45684	-0.0014979397
91	0xbb6b06e1	-0.0035862254
92	0xb9a1ef72	-0.00030886714
93	0xbbe9d564	-0.007136034
94	0xbafbcf58	-0.0019211574
95	0xbc148e96	-0.009067198
96	0xbc8d2506	-0.017229568
97	0xbac48c64	-0.0014995453
98	0xbc7f93b6	-0.015599182
99	0xbc80fde5	-0.015746066
100	0x3b1e0ad4	0.002411534
101	0xbc259508	-0.010106333
102	0xbb426cf6	-0.0029666997
103	0xbba74eab	-0.0051058135
104	0xbbd10fe9	-0.0063800705
105	0x3bbe2424	0.005802648
106	0x3c333963	0.010938975
107	0xbc3029d1	-0.010752157
108	0xbaa780b9	-0.0012779451
109	0xbac494cf	-0.0014997962
110	0xbbda5c63	-0.0066638454
111	0xbc2e0b94	-0.010622878
112	0xbc2f86da	-0.010713303
113	0xb8e75986	-0.000110316134
114	0xba34573d	-0.00068794546
115	0xbad8f658	-0.0016552908
116	0xbc05aeab	-0.00815932
117	0xbc76df61	-0.015067906
118	0xbaa08166	-0.0012245595
119	0xbac298c1	-0.001484655
120	0xbc54a4e8	-0.01297877
121	0x3d2b51d5	0.041826088
122	0xbaa8d0ce	-0.0012879611
123	0x3b4b968c	0.0031065075
124	0xbb6aefe2	-0.0035848548
125	0xbb6b6843	-0.00359203
126	0x3bc89c85	0.006122174
127	0xbb48bce6	-0.003063017

policy_model.2.weight f4 [8, 128]
0	0xbaecf4da	-0.0018078343
1	0xbd2b7ab6	-0.041865073
2	0x3ae21812	0.0017249605
3	0x3a51f7ba	0.00080096314
4	0xbb00fdb3	-0.0019682467
5	0x3a4ea8f7	0.0007883454
6	0xbc7c85b3	-0.015412736
7	0xbbd08c5a	-0.0063643875
8	0x3bb60878	0.005555209
9	0xb92a76d1	-0.00016256726
10	0xbaee0be8	-0.0018161507
11	0xbbb8e0ce	-0.005642033
12	0xbbafd1c7	-0.0053655836
13	0x3b710568	0.0036776904
14	0x3b209c48	0.0024507213
15	0x3a9f5bbd	0.0012158077
16	0x3b720be5	0.003693336
17	0xbbe2924e	-0.0069144135
18	0x3a8330d2	0.0010009056
19	0xbb29d573	-0.002591458
20	0xbbb93377	-0.005651887
21	0xbbefbbb5	-0.0073160776
22	0x3c7f06ea	0.015565613
23	0x3a39311b	0.0007064507
24	0xbbf814b6	-0.0075708283
25	0x3ad74434	0.0016423524
26	0xbb2ae5d2	-0.0026076925
27	0xbbdb5ed0	-0.006694652
28	0xbc818e75	-0.015815
29	0xba5a850a	-0.00083358644
30	0xbc052a5b	-0.008127774
31	0x39eeeb3a	0.00045570155
32	0xbc1180a6	-0.00888077
33	0xbc1ebc1d	-0.009688404
34	0x3ae6060e	0.0017549412
35	0xbbf767de	-0.0075502237
36	0xba97f305	-0.0011592811
37	0x3a8f146e	0.0010916123
38	0xbbe5642f	-0.007000468
39	0xbc090570	-0.008363113
40	0xbd76f317	-0.060290422
41	0xbbdb7aed	-0.0066980035
42	0x3b635771	0.003468957
43	0xbac9f904	-0.0015409295
44	0x3aa7d78b	0.0012805326
45	0xbd996cf2	-0.07491483
46	0xbbf9f679	-0.007628259
47	0xbb3bb3d9	-0.0028641133
48	0xbbf13d18	-0.0073620193
49	0x3b996f3d	0.00468245
50	0xbbf39ba8	-0.007434327
51	0xbbb535f2	-0.0055301124
52	0x3b91323c	0.004431037
53	0x3b94cd57	0.00454108
54	0xbbacc20e	-0.0052721566
55	0xb96c7947	-0.00022551893
56	0x3ae27eb8	0.0017280197
57	0x3aa6058e	0.001266645
58	0xbbdaf5a7	-0.006682116
59	0xb7cda102	-2.451288e-05
60	0xbbd5b375	-0.006521637
61	0xb9f31eff	-0.00046371666
62	0xba2c07af	-0.0006562424
63	0x3b88256f	0.004154853
64	0xbbff1512	-0.007784494
65	0x3a86c0a1	0.0010280797
66	0x3a7fc93b	0.00097574637
67	0xbbbd3a71	-0.005774789
68	0xbbd4b85a	-0.006491703
69	0xbb99c4e3	-0.00469266
70	0xbbf29e8d	-0.0074041546
71	0xbc07bb0b	-0.008284341
72	0xb8839d68	-6.275886e-05
73	0x3b497f73	0.0030746132
74	0x3af36699	0.0018570005
75	0xba47d4c5	-0.00076229527
76	0x3b16fa64	0.0023037428
77	0xbc071d6f	-0.008246764
78	0xbba4e57a	-0.0050322386
79	0x385eda7b	5.31324e-05
80	0x3cd140d5	0.02554361
81	0xbbb71933	-0.005587721
82	0xbae069e1	-0.0017121398
83	0x3aa0b631	0.0012261329
84	0x3b8a646c	0.004223397
85	0x3a926599	0.0011169194
86	0xb8e40f03	-0.00010874683
87	0xbda95ee4	-0.08270052
88	0xbbb7f30a	-0.0056136893
89	0xbbd28327	-0.006424326
90	0x3acdde89	0.001570658
91	0xbbf5b540	-0.0074984133
92	0x3b1fc453	0.0024378493
93	0xbbd786df	-0.006577357
94	0x3a9b950b	0.001186998
95	0xbc751fa1	-0.014961154
96	0xbbc53a41	-0.0060189073
97	0x3b61cb51	0.0034453461
98	0xbb953b30	-0.004554175
99	0xbbe88fa1	-0.0070972
100	0x3b74c6d8	0.0037349965
101	0xbbdb7c13	-0.0066981404
102	0x3b3739c5	0.0027958017
103	0x399035fa	0.00027506036
104	0x3882f504	6.244521e-05
105	0x3b6aad2f	0.0035808792
106	0xbcec7da3	-0.028868502
107	0xbbec73df	-0.0072159613
108	0xb8c1f76d	-9.249044e-05
109	0x3b13ff4e	0.0022582593
110	0xbbd3e1c1	-0.006466121
111	0xbb8558e0	-0.0040694326
112	0xbb263b6f	-0.0025365015
113	0xb8cd2cbe	-9.7834956e-05
114	0x3b7e8238	0.003883494
115	0x3a46bf50	0.00075816084
116	0xbacb1320	-0.0015493371
117	0xbbcc1407	-0.0062279734
118	0x3a7c19c1	0.0009616875
119	0xb9a632c2	-0.00031699805
120	0xbbeeb1b3	-0.007284367
121	0xbd9776ba	-0.07395692
122	0xb9c64200	-0.00037814677
123	0xbb377da8	-0.002799848
124	0xb8fdc74a	-0.000121011006
125	0xbb0bce88	-0.002133282
126	0x3b96411a	0.0045853974
127	0x3a5ec19f	0.000849748
128	0x3a8aeb8a	0.001059876
129	0x3d11cd28	0.035596043
130	0xba2b4510	-0.00065334234
131	0xba3922b2	-0.000706236
132	0x39d844fa	0.00041250122
133	0xba71471d	-0.0009204017
134	0x3ce161e9	0.027512508
135	0xbc30dd38	-0.01079493
136	0xbc088c8c	-0.00833429
137	0xb9389f64	-0.00017606985
138	0x3b55b746	0.003261046
139	0xbc15ed71	-0.009150849
140	0xbc0e211b	-0.008674885
141	0xbbe21328	-0.0068992563
142	0xbb28da0a	-0.0025764727
143	0xbbaa6ba2	-0.005200819
144	0xbb1f76ef	-0.0024332365
145	0xbc09d060	-0.008411497
146	0x3af2f9d7	0.0018537593
147	0xba6404d0	-0.0008698227
148	0xbc4436f0	-0.011975989
149	0xbc289971	-0.0102904895
150	0xbc1114c1	-0.008855046
151	0xba02a567	-0.00049837533
152	0xbc0cfe0c	-0.008605491
153	0x3a547c1a	0.0008105651
154	0xbb60006b	-0.0034179937
155	0xbbfe159a	-0.00775404
156	0x3b440399	0.002990937
157	0xbac6b818	-0.0015161065
158	0xbc290b2a	-0.010317603
159	0x3b36581a	0.0027823509
160	0xbbfa60dc	-0.007640941
161	0xbb8d9f5b	-0.004321975
162	0x3a0fcbd1	0.0005485388
163	0xbc142493	-0.009041923
164	0x3a868014	0.0010261559
165	0xbaaf9e0d	-0.0013398543
166	0xbc09647e	-0.008385776
167	0xbc3d722c	-0.011562865
168	0x3d746557	0.059666958
169	0xbc2791cf	-0.010227635
170	0xbbb5b1f8	-0.005544897
171	0x3b2bfcf5	0.0026243303
172	0x392e1a42	0.00016603715
173	0xbc836dbf	-0.016043542
174	0xbc0c5e46	-0.008567398
175	0xbb109443	-0.0022061027
176	0xbc117de6	-0.008880114
177	0xbbe8e122	-0.007106916
178	0xbc5310fe	-0.012882469
179	0xba8f88df	-0.0010950825
180	0xbb8a6349	-0.0042232615
181	0xbbe72e06	-0.007055047
182	0xbc23b030	-0.009990737
183	0x3ac69bbc	0.0015152614
184	0x3afc2ca1	0.0019239375
185	0x3ac66496	0.0015136178
186	0xbbecf2fb	-0.007231114
187	0xba2718c9	-0.0006374238
188	0xbc134a5e	-0.0089898985
189	0x397c4863	0.00024059559
190	0xbab1f02a	-0.0013575603
191	0xbc0a59d3	-0.008444267
192	0xbbcb17b9	-0.0061978963
193	0xba3c88cf	-0.0007192017
194	0xb9e66292	-0.0004394246
195	0xbc07fccd	-0.0083000185
196	0xbc0a4e1c	-0.008441474
197	0xbba23f09	-0.004951362
198	0xbbe95500	-0.0071207285
199	0xbc174906	-0.009233719
200	0xbaf45d63	-0.0018643554
201	0x3ad8bd0c	0.0016535833
202	0xbb89d807	-0.0042066607
203	0xba7fab48	-0.0009753001
204	0x3b6be864	0.003599667
205	0xbc0d79f1	-0.00863503
206	0xbc28e43e	-0.010308323
207	0xbab434a8	-0.0013748603
208	0xbae14a2e	-0.0017188245
209	0xbc0a1e61	-0.008430094
210	0xbb3b6e68	-0.0028599743
211	0xbaa0a434	-0.0012255968
212	0xbbe3a5ea	-0.0069472687
213	0xba8e155f	-0.0010840109
214	0x3abbca77	0.0014327307
215	0x3cd0a33c	0.025468461
216	0xbc2299f7	-0.009924403
217	0xbc21779f	-0.00985518
218	0x3ad21d9d	0.0016030554
219	0xbb2e8639	-0.0026630296
220	0xb8f10eb4	-0.00011494514
221	0xbc30649b	-0.010766174
222	0xb9b4a35c	-0.00034453988
223	0x3b0bb9f2	0.002132055
224	0xbc01132b	-0.007878105
225	0x39e137fd	0.0004295706
226	0xbc05cf3b	-0.008167083
227	0xbc113e6a	-0.008864978
228	0xbbd9bfd2	-0.006645181
229	0xbc2bc627	-0.010484255
230	0x3b81a8f8	0.00395691
231	0xb8aa7c00	-8.1293285e-05
232	0x3be4c326	0.0069812713
233	0xbbceeecf	-0.0063150893
234	0xbc2774a8	-0.010220684
235	0xbbff4f90	-0.007791467
236	0xba3c59db	-0.00071850204
237	0xba5b67e7	-0.00083696697
238	0xbbfd1370	-0.0077232644
239	0xbb81c56d	-0.0039603026
240	0xbb156c1b	-0.0022800032
241	0x392782a9	0.00015975036
242	0x3b080f96	0.0020761243
243	0xbb7857b5	-0.0037894074
244	0xb8d9a110	-0.000103773666
245	0xbc12e899	-0.008966588
246	0xba79c34e	-0.0009527699
247	0xb8ee939b	-0.00011376218
248	0xbc0717bd	-0.008245406
249	0xbc1bc2f2	-0.009506928
250	0x3920ab02	0.00015322494
251	0x3b183cc1	0.0023229572
252	0xbaa4330b	-0.0012527419
253	0xbb443b73	-0.002994266
254	0xbc027cf2	-0.00796436
255	0xbae55fb8	-0.001749984

policy_model.2.bias f4 [8]
0	0xbcb3ac2a	-0.02193268
1	0x3c12fdae	0.008971615
2	0x3d19e9fb	0.037576657
3	0x3c331a91	0.010931627
4	0xbc496aef	-0.012293561
5	0xbb2fb716	-0.0026812009
6	0x3cd717bd	0.026256436
7	0xbd60cfc0	-0.054885626
