results/short_race/second_iteration_training/model802.pt (torch, 276107 bytes, 13 tensors)

features_model.0.weight f4 [128, 4]
0	0x3c4241e4	0.01185653
1	0x3e1a270a	0.15053955
2	0x3d9d7744	0.07688764
3	0xbe9f1254	-0.3106867
4	0x3d01bfa6	0.03167691
5	0xbd92da86	-0.07170586
6	0xb771a05d	-1.4402057e-05
7	0x3cffb5ab	0.031214556
8	0x3e262ad8	0.16227281
9	0x3cb27c6e	0.021787848
10	0xbd09b72d	-0.033621956
11	0x3e9525ac	0.29130304
12	0x3e3a49c2	0.18192199
13	0xbdc872eb	-0.09787544
14	0xbd67e872	-0.05661816
15	0xbdcf45ef	-0.10120761
16	0x3d4d49ec	0.050119326
17	0x3b31f592	0.0027154428
18	0x3d495944	0.049157396
19	0xbd08e1b1	-0.03341836
20	0x3d4dfa96	0.050287805
21	0x3d69e3fe	0.057102196
22	0x3e7586c4	0.2397719
23	0xbe4ac054	-0.1979993
24	0x3b07dbf3	0.0020730465
25	0xbcfa5435	-0.030557731
26	0x3dda1392	0.10648264
27	0x3ea528c7	0.32257673
28	0x3ca60617	0.020266576
29	0xbc758bbb	-0.014986928
30	0x3d9565d9	0.072948165
31	0x3ea1859c	0.31547248
32	0xbe3e0c15	-0.18559296
33	0x3da2829b	0.07935067
34	0x3dfd9c70	0.12383354
35	0x3b9c9e2e	0.0047795987
36	0x3c514dbe	0.012774883
37	0x3e2989c1	0.16556455
38	0x3d6527db	0.055946212
39	0xbeb7d732	-0.35906368
40	0x3d6da966	0.05802288
41	0x3e508a97	0.20365368
42	0x3e3e27fa	0.18569937
43	0x3e1803ad	0.14845152
44	0x3e1a3b4a	0.1506168
45	0xbdee17fa	-0.11625667
46	0x3e30a721	0.17251255
47	0x3d695768	0.056968123
48	0x3e1296a0	0.14315271
49	0x3e99d731	0.3004699
50	0x3d0efc46	0.034908555
51	0xbdcd798b	-0.10032948
52	0xbe259608	-0.16170514
53	0xbd15d9ab	-0.036584537
54	0xbe184c0c	-0.1487276
55	0x3c94d4fe	0.018167969
56	0xbde0f8cd	-0.10984955
57	0x3e850fed	0.25988713
58	0xbd0c2ad2	-0.034220524
59	0x3e0d4c2b	0.13798587
60	0xbe53ce27	-0.2068411
61	0xbcbcbc84	-0.02303911
62	0xbe982325	-0.29714313
63	0x3d7be10a	0.06149391
64	0x3df99d67	0.12188225
65	0xbc9efd5a	-0.019407917
66	0x3cd37d45	0.02581657
67	0xbe00c6d8	-0.12575853
68	0xbd6284cb	-0.055302422
69	0xbe78af26	-0.24285564
70	0xbdfd4dbf	-0.123683445
71	0xbd5b5011	-0.053543154
72	0xbe074054	-0.13208133
73	0x3d68f550	0.056874573
74	0xbda742a1	-0.08167005
75	0xbde54f7a	-0.111967996
76	0xbd96f190	-0.07370293
77	0xbe0d47b5	-0.13796885
78	0xbe84328f	-0.25819823
79	0xbe4bbb12	-0.1989558
80	0x3db218d0	0.08696139
81	0xbda22e0d	-0.0791894
82	0xbdfbeab7	-0.12300628
83	0x3d485df5	0.04891773
84	0xbe728187	-0.23682223
85	0xbe2f9dfd	-0.17150111
86	0x3e4070eb	0.18793075
87	0xbd832dd8	-0.064052284
88	0x3d5eb684	0.05437328
89	0x3e3866a3	0.18007903
90	0xbda3561a	-0.07975407
91	0xbd0bb073	-0.034103822
92	0xbe679d23	-0.22618537
93	0xbdb858d6	-0.09001319
94	0xbddc3792	-0.10752787
95	0x3d92a28f	0.07159912
96	0x3d3057ba	0.043052413
97	0x3e0c4c79	0.13701047
98	0x3e10f1c7	0.1415473
99	0xbea2d6f4	-0.3180462
100	0xbec09e00	-0.37620544
101	0xbe58a428	-0.2115637
102	0x3d9b2781	0.07575894
103	0xbdb37af4	-0.08763686
104	0x3e78701a	0.24261513
105	0x3eb10515	0.3457419
106	0xbccb3c0e	-0.02480891
107	0x3e377c11	0.17918421
108	0xbdb032f3	-0.08603468
109	0xbda45dcc	-0.08025703
110	0xbdd7624c	-0.105167955
111	0xbcc383d5	-0.023866573
112	0x3c7b5fb6	0.0153426435
113	0xbcb14992	-0.021641526
114	0xbd92adce	-0.07162057
115	0x3ed038fb	0.40668473
116	0x3dd0dd9c	0.10198519
117	0x3db25e65	0.087094106
118	0xbde9f865	-0.114243306
119	0xbd88ca9e	-0.06679271
120	0x3e334c97	0.17509685
121	0x3df2f977	0.11863988
122	0x3e325309	0.17414488
123	0x3de27989	0.11058337
124	0x3de9fa3a	0.1142468
125	0x3d6efd45	0.058347005
126	0x3dea4fbc	0.114409894
127	0x3e62ef3d	0.22161575
128	0x3e49b20e	0.19696829
129	0xbe929260	-0.286273
130	0x3d74ba63	0.059748065
131	0x3ddd8f43	0.10818341
132	0x3e3d583e	0.18490693
133	0xbc766d60	-0.0150407255
134	0x3e076d5f	0.13225316
135	0xbc897604	-0.016779907
136	0x3cb0e1e5	0.02159209
137	0x3d0422de	0.032259814
138	0x3e74234a	0.23841587
139	0x3e96d19e	0.294568
140	0x3db1df7d	0.08685205
141	0xbe1003ee	-0.14063999
142	0x3b4f6c57	0.003165027
143	0xbe3d8e5f	-0.18511342
144	0xbd9fc7d7	-0.07801788
145	0xbde6ab03	-0.11263087
146	0x3dcdbf54	0.100462586
147	0xbc87402f	-0.016510097
148	0xbd911fdd	-0.070861556
149	0xbdc3dd93	-0.09563746
150	0xbb0a8ea3	-0.0021142147
151	0x3db44986	0.08803086
152	0xbe24e35f	-0.1610236
153	0x3d01ce93	0.031691145
154	0x3d97dfc5	0.074157275
155	0x3e6408f6	0.22269043
156	0x3d35f121	0.04441941
157	0x3c27beb1	0.0102383355
158	0x3e0b7d67	0.13622056
159	0x3ec7092d	0.38874188
160	0xbb2b31d4	-0.002612223
161	0xbc95a364	-0.018266387
162	0xbd92a9b1	-0.07161272
163	0x3eb0570d	0.34441414
164	0xbd31c61d	-0.043401826
165	0xbd9133df	-0.07089972
166	0x3ccea64f	0.025225786
167	0xbe7216b8	-0.23641479
168	0x3d9ce39a	0.07660599
169	0xbd67567e	-0.05647897
170	0xbcdc752c	-0.02691134
171	0xbdf760db	-0.120790206
172	0xbdfa7c46	-0.122307345
173	0x3dddaf9d	0.10824511
174	0x3e08da51	0.13364531
175	0x3c6877c3	0.01418871
176	0x3d0440f4	0.032288507
177	0x3e627a68	0.22117007
178	0x3d428d4e	0.04749804
179	0xbd424948	-0.047433168
180	0xbd200864	-0.039070502
181	0xbda4987c	-0.080368966
182	0xbd918a85	-0.07106499
183	0x3e143191	0.14472033
184	0x3dcc5921	0.099779375
185	0x3c095c0d	0.008383763
186	0x3ec98518	0.39359355
187	0xbdce3805	-0.10069279
188	0x3c025b97	0.007956407
189	0x3c8c8136	0.017151456
190	0x3dfd6253	0.123722695
191	0x3cd67ac3	0.026181584
192	0xbe550cc8	-0.20805657
193	0xb998249b	-0.00029018972
194	0xbe1666e7	-0.14687692
195	0x3c3aa6a2	0.011392267
196	0x3e6f226b	0.23352973
197	0xbe03dd5e	-0.12877414
198	0x3d5e5b4d	0.05428629
199	0x3e05a31f	0.13050507
200	0xbe519aae	-0.20469162
201	0xbda8e820	-0.08247399
202	0x3cd20647	0.025637759
203	0x3db416cb	0.0879341
204	0xbe9910f3	-0.29895744
205	0x3e051760	0.12997198
206	0x3e3f9f52	0.1871312
207	0x3cb78cda	0.02240603
208	0x3e4f9b40	0.20274067
209	0x3ea92fcc	0.3304428
210	0xbd7bd21a	-0.061479665
211	0xbd48099b	-0.048837285
212	0x3e614a61	0.2200103
213	0xbd8367c7	-0.06416278
214	0xbd0bf9ff	-0.03417396
215	0xbd083ec7	-0.033262994
216	0x3d6ce073	0.05783124
217	0x3b8a095a	0.0042125406
218	0x3de11111	0.10989583
219	0x3d42187b	0.047386628
220	0x3e03c3a0	0.12867594
221	0xbc1a6dd5	-0.0094256
222	0x3e4e4f41	0.2014742
223	0x3ed5f920	0.4179163
224	0x3e12c494	0.14332801
225	0x3d28b133	0.041184615
226	0x3bf9b3d4	0.007620314
227	0xbdc6d234	-0.09708062
228	0xbca6dddd	-0.020369465
229	0x3e0191bb	0.12653248
230	0x3e0928a9	0.13394417
231	0x3c0145b8	0.007890157
232	0xbd9451ab	-0.072421394
233	0x3ca43f62	0.020049755
234	0xbd6f798e	-0.058465533
235	0x3cf75a11	0.030194314
236	0x3e09a388	0.13441288
237	0x3d78f22c	0.060777828
238	0x3e1603a2	0.14649823
239	0x3e94d788	0.29070687
240	0xbd0a15e0	-0.033712268
241	0x3d11fad9	0.035639618
242	0x3c9d2672	0.019183371
243	0x3e77480e	0.2414858
244	0x3c2d0fdb	0.010562862
245	0xbc9895f4	-0.01862619
246	0xbe0ee3bf	-0.13954066
247	0x3e97fb8f	0.2968411
248	0x3bdb8200	0.006698847
249	0x3dc58b2e	0.09645687
250	0x3d817d1a	0.06322689
251	0xbeac1beb	-0.3361505
252	0xbe5028cf	-0.20328067
253	0x3e338ce3	0.17534213
254	0xbcfea47a	-0.031084288
255	0xbe0b7e3e	-0.13622376

features_model.0.bias f4 [128]
0	0x3df30a97	0.11867254
1	0x3bf5f1d8	0.0075056367
2	0x3dd4486d	0.103653766
3	0xbd104f61	-0.03523195
4	0x3e34e611	0.17665888
5	0x3dbdf7d5	0.09275786
6	0x3e05fd98	0.1308502
7	0x3e15603f	0.14587496
8	0x3d5e8ed6	0.054335438
9	0x3e02a9d4	0.12760097
10	0x3e2f4af3	0.17118435
11	0xbbcdc6f4	-0.0062798206
12	0x3dc64331	0.096807845
13	0xbd34a6cb	-0.04410438
14	0x3d4b9540	0.049702883
15	0x3dc72fdb	0.097259246
16	0x3dbebfea	0.093139485
17	0xbcc2c16e	-0.023773875
18	0xbd780f2f	-0.060561355
19	0xbb95f872	-0.004576736
20	0x3d097d2e	0.033566646
21	0xbde48f07	-0.11160093
22	0x3dea627b	0.11444565
23	0xbc6e1779	-0.0145319635
24	0x3e26d7f1	0.16293313
25	0xbd25b081	-0.04045153
26	0x3d487b75	0.048945863
27	0x3c4e3ab0	0.012587234
28	0x3e2bed8c	0.16789836
29	0x3e095651	0.13411833
30	0x3dff04f2	0.12452115
31	0x3e1ddcef	0.1541631
32	0x3b884681	0.0041587953
33	0x3db4f2b3	0.08835354
34	0x3e2474b5	0.16060145
35	0x3d2cb153	0.042161297
36	0x3d72fd0a	0.059323348
37	0xbcec219a	-0.028824616
38	0x3e09d1cf	0.13458942
39	0x3e169134	0.14703828
40	0x3e3f539d	0.1868424
41	0x3d08c2d2	0.03338892
42	0x3dcce7fc	0.10005185
43	0x3d485ad2	0.048914738
44	0x3dc95d6a	0.098322704
45	0xbcbb2b53	-0.022847807
46	0x3d905ad7	0.07048576
47	0x3dd7894a	0.10524233
48	0xbcf02b50	-0.029317528
49	0x3d7cf2e9	0.061755095
50	0xbd691fa2	-0.056914933
51	0x3d8dcd59	0.069239326
52	0x3dc4a259	0.09601278
53	0x3da9d1c9	0.082919665
54	0x3e29b8e5	0.16574438
55	0x3da4a0e0	0.08038497
56	0x3ddb4b5b	0.10707732
57	0x3d85caab	0.065327965
58	0xbc6f8c6d	-0.014620882
59	0x3e237fbf	0.159667
60	0x3e0cd5ab	0.13753383
61	0xbd32f1f2	-0.04368777
62	0x3e10fd57	0.14159141
63	0x3dc25e54	0.09490648
64	0x3dadb25d	0.08481286
65	0x3e33a9f7	0.17545305
66	0x3dd75cce	0.10515748
67	0x3e0f9dbf	0.14025019
68	0x3de98617	0.11402529
69	0x3d73c788	0.05951646
70	0xbd91814f	-0.07104742
71	0xbd9efa72	-0.077626124
72	0xbc7a2248	-0.015266962
73	0x3c494a91	0.012285844
74	0x3e063bab	0.13108699
75	0xbd54742a	-0.051868595
76	0xbc589d6b	-0.013221125
77	0x3dabea0d	0.08394251
78	0x3e063363	0.1310554
79	0x3d3cd57b	0.04610203
80	0x3db4ff00	0.088377
81	0xbc9c8007	-0.019104017
82	0x3dfb716a	0.122774914
83	0x3d8ba06f	0.0681771
84	0xbcb6f2ad	-0.022332514
85	0x3cd74c4f	0.026281504
86	0x3e52e786	0.20596132
87	0x3dd06c77	0.10176938
88	0x3dd67a2b	0.104725204
89	0xbc95514f	-0.018227248
90	0xbc74cef5	-0.0149419205
91	0x3d603269	0.054735575
92	0xbc471fe4	-0.012153599
93	0x3c366108	0.0111315325
94	0x3d272aa3	0.040812146
95	0x3e012329	0.12611069
96	0xbd3b158d	-0.04567485
97	0xbc9a14d9	-0.018808769
98	0x3d597875	0.053093392
99	0x3dc58f5a	0.09646483
100	0xbcdb27aa	-0.026752312
101	0x3e2d9e80	0.16954994
102	0x3e55a765	0.20864637
103	0x3db3b2a4	0.08774307
104	0x3dd8b801	0.10581971
105	0x3e32a29b	0.17444842
106	0x3e24a3f2	0.16078165
107	0x3df40d2a	0.11916573
108	0xbc6924cb	-0.0142299635
109	0xbcd9ad22	-0.026571814
110	0x3de09009	0.109649725
111	0x3e102f5a	0.14080563
112	0xbd3330bf	-0.04374766
113	0x3db3f4b7	0.0878691
114	0x3ddea746	0.108717486
115	0x3e202009	0.1563722
116	0x3e39c156	0.18140158
117	0xbb6b398d	-0.0035892457
118	0x3dc4c754	0.09608331
119	0xbcf352e5	-0.029702613
120	0xbd700eba	-0.058607794
121	0x3e563c42	0.20921424
122	0x3dc1e78c	0.09467992
123	0x3d6f577f	0.058433052
124	0x3e0e0efd	0.13872905
125	0x3df7ca27	0.120991044
126	0x3e120626	0.14260158
127	0x39bd9ac9	0.00036164213

features_model.2.weight f4 [128, 128]
0	0x3ea079ae	0.31342834
1	0xbd83f877	-0.06443875
2	0xbc8305fd	-0.015994066
3	0x3dc14c90	0.09438431
4	0x3e54213f	0.20715807
5	0x3ddc7055	0.10763613
6	0x3dc7cebb	0.097562276
7	0x3d490078	0.049072713
8	0x3dc16ecc	0.09444961
9	0x3e179f07	0.14806758
10	0x3df453f0	0.11930072
11	0xbc21fd1a	-0.009887004
12	0x3cb1ba7d	0.02169537
13	0x3cf93916	0.030422729
14	0xbc610e78	-0.01373636
15	0x3e04eaab	0.12980144
16	0xbe0d8442	-0.13819984
17	0x3d938214	0.07202545
18	0xbd601737	-0.05470964
19	0xbdfe0f0a	-0.12405212
20	0x3dc8cc94	0.09804645
21	0x3d123ee6	0.035704516
22	0x3dc57b06	0.096426055
23	0xbd57082e	-0.052498035
24	0x3e2e2246	0.17005262
25	0xbe0c9c86	-0.13731584
26	0xbc7679d9	-0.015043699
27	0x3e863027	0.26208612
28	0x3e3bdbb0	0.18345523
29	0xbd44d80c	-0.0480576
30	0x3d474bb4	0.04865618
31	0x3e0602aa	0.13086954
32	0x3e429bb7	0.19004713
33	0xbc496fb0	-0.012294695
34	0x3e01c45b	0.1267256
35	0xbc455c09	-0.012045869
36	0xbdd69148	-0.10476929
37	0xbe5f09d5	-0.21781094
38	0x3bdb70ca	0.006696795
39	0x3e14ee46	0.14544019
40	0x3eb1f703	0.34758767
41	0xbd1436f3	-0.036185216
42	0x3e35ebf2	0.17765787
43	0x3e459fbc	0.19299215
44	0x3e5b350e	0.21406958
45	0x3e248aa7	0.16068517
46	0xbd21f277	-0.039537873
47	0x3d4545c1	0.048162226
48	0x3e2be582	0.16786769
49	0x3e9814fc	0.2970351
50	0x3e256971	0.16153504
51	0x3e9ae8aa	0.30255634
52	0xbd92a7f1	-0.071609385
53	0xbd292c29	-0.04130188
54	0xbc8182d4	-0.015809454
55	0xbe28dfda	-0.16491643
56	0xbd2f8d2d	-0.042859245
57	0xbba1f995	-0.0049430826
58	0xbd70b20e	-0.058763556
59	0x3e2735ed	0.16329165
60	0x3e91e7b1	0.2849708
61	0x3eaaefbf	0.33386037
62	0x3e487a55	0.19577916
63	0xbdc25bdd	-0.09490178
64	0x3ea88e5b	0.3292111
65	0x3e5bb488	0.21455586
66	0x3da33082	0.079682365
67	0x3dc26bc0	0.09493208
68	0x3c16f2a4	0.0092131235
69	0x3e3d092f	0.18460535
70	0x3dd3cc3c	0.10341689
71	0xbe6e7ca5	-0.23289736
72	0xbe5f5a69	-0.21811832
73	0xbd11e70d	-0.035620738
74	0x3b427b97	0.0029675716
75	0xbd4f0a41	-0.05054689
76	0xbcfe3512	-0.031031165
77	0x3d56309e	0.05229246
78	0x3d6c7c5f	0.057735797
79	0xbea08bc0	-0.3135662
80	0x3dd97392	0.106177464
81	0x3d62550c	0.05525689
82	0xbd6fa6a6	-0.058508538
83	0x3de6165b	0.11234733
84	0x3e759298	0.23981702
85	0x3e467ca2	0.19383481
86	0xbd0b7bc3	-0.034053575
87	0xbd86344c	-0.065529436
88	0x3d5cdc89	0.053921256
89	0x3d6888df	0.056771155
90	0xbe7301a3	-0.23731093
91	0xbdc1716a	-0.0944546
92	0x3e30ad2c	0.1725356
93	0xbd56a4e4	-0.052403346
94	0xbd255553	-0.040364575
95	0xbd971b93	-0.07378306
96	0xbcc99f1d	-0.024612004
97	0x3dd89269	0.105748005
98	0x3e5d5f4a	0.21618381
99	0xbd69a244	-0.057039514
100	0x3dc91590	0.09818566
101	0x3e21d1f2	0.15802744
102	0x3e25f2c1	0.16205885
103	0x3ec979c2	0.39350706
104	0x3e975368	0.2955582
105	0x3de34aec	0.110982746
106	0xbc2979a8	-0.0103439465
107	0xb9b1efe0	-0.00033938792
108	0xbdf92910	-0.12166035
109	0x3e258c42	0.16166785
110	0x3d9cbcc5	0.076531924
111	0x3e99375a	0.29925042
112	0xbdce685a	-0.10078497
113	0xbe2f9e22	-0.17150167
114	0xbd3f6c39	-0.04673407
115	0x3e23187a	0.15927306
116	0x3e3c6614	0.18398315
117	0xbe09aa9a	-0.13443986
118	0x3d96da6e	0.07365881
119	0xbe2187f7	-0.15774523
120	0xbd95eed8	-0.073209465
121	0x3e5b321d	0.21405835
122	0xbd9f5bed	-0.07781205
123	0x3d642d81	0.05570746
124	0x3db786d6	0.08961265
125	0x3e5b29b6	0.2140263
126	0x3e611c2b	0.21983401
127	0xbdb0ab7a	-0.086264566
128	0xbd07a886	-0.0331197
129	0x3da9f731	0.08299101
130	0x3da50b54	0.08058801
131	0x3bc586bb	0.006028024
132	0xbd623eaf	-0.05523556
133	0x3d989e89	0.07452113
134	0x3e2f8a36	0.17142567
135	0xbdb39961	-0.08769489
136	0x3e0d6515	0.13808091
137	0xbe7386b2	-0.23781851
138	0xbe146063	-0.14489894
139	0x3ddb78ab	0.10716375
140	0xbbf590c2	-0.007494063
141	0x3d0c0c4f	0.034191426
142	0x3e51ed77	0.20500742
143	0xbc9174f1	-0.017755957
144	0xbcf7bdfc	-0.030241959
145	0x3d362483	0.044468414
146	0x3d6312e5	0.05543794
147	0xbdac82e1	-0.08423401
148	0xbcb56610	-0.022143394
149	0xbe175c5b	-0.14781325
150	0xbe0e38c4	-0.13888842
151	0x3dd6bd92	0.104853764
152	0xbd966b9b	-0.07344743
153	0xbdb54742	-0.08851482
154	0xbe30eaa8	-0.17277014
155	0xbc917b03	-0.017758852
156	0x3eb131aa	0.34608203
157	0xbe361c1f	-0.17784165
158	0xbeb5e5a5	-0.35526767
159	0xbdab9c8a	-0.08379467
160	0x3d7c692b	0.061623733
161	0x3c3967bf	0.011316239
162	0xbda34de2	-0.07973839
163	0xbd65d60d	-0.056112338
164	0x3da1baa3	0.07896926
165	0x3c7ac4ee	0.015305741
166	0x3e77c432	0.24195936
167	0x3d0cbfc5	0.034362573
168	0x3e4636b4	0.19356805
169	0xbe433be3	-0.19065814
170	0x3c81d04e	0.015846398
171	0x3e1d7b69	0.15379108
172	0x3da8c5eb	0.08240875
173	0xbd0db0a7	-0.034592297
174	0x3d1e8907	0.0387049
175	0x3e8fd913	0.28095302
176	0xbe0e4251	-0.13892485
177	0x3d174e03	0.036939632
178	0x3d4cb08d	0.04997306
179	0xbc9143ef	-0.017732589
180	0x3c89ba6f	0.016812531
181	0x3db05201	0.08609391
182	0x3ce259de	0.027630743
183	0x3dc85381	0.09781552
184	0x3c69162d	0.0142264785
185	0x3e0df104	0.13861471
186	0xbdbb6f82	-0.09152128
187	0x3d60661b	0.054784875
188	0x3ea0ef41	0.31432536
189	0xbc8311a4	-0.015999623
190	0xbe6b2131	-0.2296188
191	0x3ec31d4e	0.38108295
192	0x3e0735c1	0.13204099
193	0x3df09446	0.11747031
194	0x3d9e1614	0.07719055
195	0xbc778678	-0.015107743
196	0x3c4816b0	0.01221244
197	0x3e9da611	0.3079076
198	0xbe84b4f2	-0.259193
199	0xbcec7c69	-0.028867917
200	0x3dad611a	0.08465786
201	0x3e108da5	0.14116533
202	0xbe1a7884	-0.15085036
203	0x3e0f60ba	0.14001742
204	0x3af9db46	0.0019062541
205	0xbcb3ce95	-0.021949092
206	0xbd08630e	-0.03329759
207	0x3deb879e	0.11500476
208	0x3d2408d7	0.040047493
209	0x3e0fd002	0.14044192
210	0x3d3ae613	0.045629572
211	0x3e9667d3	0.29376087
212	0x3d9a3749	0.07530076
213	0x3c067519	0.008206629
214	0xbe11038e	-0.14161512
215	0x3d4414d9	0.047871444
216	0x3e6f54c7	0.23372184
217	0x3b4b537e	0.0031025107
218	0xbcd50cbd	-0.02600705
219	0x3c006ee6	0.00783894
220	0x3d2e2a39	0.042520735
221	0x3d09dc92	0.033657618
222	0x3e151683	0.14559369
223	0xbe0c9474	-0.13728505
224	0x3c9cab6a	0.019124705
225	0xbdb87967	-0.09007531
226	0x3e37bef6	0.1794394
227	0xbda3d130	-0.07998884
228	0x3d532a3c	0.05155395
229	0xbcf91627	-0.03040607
230	0xbead73f7	-0.33877537
231	0x3d9e5542	0.077311054
232	0xbcddb2f8	-0.027062878
233	0x3cac2f13	0.02101854
234	0xbe01c7fc	-0.12673944
235	0x3e8bb461	0.27286056
236	0xbdd277fa	-0.1027679
237	0xbc8b861b	-0.01703172
238	0x3d0923a5	0.03348126
239	0x3e53330b	0.2062494
240	0xbd5dc8eb	-0.05414669
241	0xbe53c99b	-0.20682375
242	0x3d823e4d	0.06359539
243	0xbc8e73ce	-0.017389204
244	0x3e69a531	0.22816922
245	0x3de96e12	0.11397947
246	0x3e5913dd	0.21198983
247	0xbdb76cef	-0.08956324
248	0xbc2ce8e0	-0.010553569
249	0x3e4c89f0	0.19974494
250	0x3e4fb47b	0.20283692
251	0x3c0dae27	0.008647478
252	0xbdb34fe9	-0.08755476
253	0xbe234353	-0.15943651
254	0xbba8cecc	-0.0051516052
255	0x3db1cc50	0.08681548

features_model.2.bias f4 [128]
0	0x3dea0fb1	0.11428774
1	0x3d84368e	0.06455718
2	0x3bad20c2	0.005283446
3	0xbd758f55	-0.059951145
4	0x3d90a53f	0.07062768
5	0x3e0dad02	0.13835528
6	0xbc9b5082	-0.018959288
7	0x00000000	0.0
8	0x3de4e956	0.11177318
9	0x3e0f31fe	0.13983914
10	0xbcfde6b2	-0.030993793
11	0x3df5a0c8	0.11993557
12	0xbc86c2ae	-0.016450252
13	0xbcbaf669	-0.022822576
14	0xbbd74a21	-0.006570116
15	0x3e3d7aa9	0.18503822
16	0xbba45406	-0.005014899
17	0x3d6dbac1	0.05803943
18	0xbcd7f6e6	-0.026362848
19	0x3e0d0c76	0.13774285
20	0xbbf90535	-0.0075994977
21	0x3e10efac	0.14153928
22	0xbc976e75	-0.018485287
23	0xbd3db0a2	-0.04631103
24	0x3e27e154	0.1639455
25	0x3df9eb30	0.122030616
26	0xbb910db6	-0.0044266833
27	0xbc398e06	-0.011325365
28	0xbbda7f86	-0.006668034
29	0xbb3547ca	-0.0027661198
30	0xbceaeddb	-0.028677871
31	0x3e00dfa0	0.12585306
32	0x3dc1ffa2	0.09472586
33	0x3e06a728	0.13149703
34	0x3e2cc3bf	0.16871546
35	0x3dd8ac5e	0.105797514
36	0xbd00cf25	-0.03144755
37	0x3d498a4e	0.049204163
38	0x3df25639	0.11832852
39	0xbc3fe47f	-0.011712193
40	0x3e1f16b7	0.15536009
41	0x3d4e24cb	0.050328057
42	0xbd12d70e	-0.035849623
43	0xbbdd2e96	-0.0067499382
44	0x3db02f50	0.08602774
45	0xbcca252d	-0.02467593
46	0x3c727d5b	0.014800395
47	0xbc4d5029	-0.012531319
48	0xbceb5aed	-0.02872988
49	0x3dc1ffa6	0.09472589
50	0xbc6c0b9e	-0.014407067
51	0xbc59caa8	-0.013292946
52	0xbc9def4a	-0.019279141
53	0x3dc3afdb	0.09555026
54	0xbc3a6a29	-0.01137785
55	0x3e02db9b	0.12779085
56	0x3dcef60c	0.101055235
57	0xbcb4cea2	-0.022071186
58	0x3da26f1d	0.079313494
59	0xbcd744ef	-0.026277987
60	0xbcd1184e	-0.025524285
61	0x3d05af71	0.032638017
62	0xbb5661f3	-0.003271219
63	0x38d81647	0.00010303832
64	0xbc267605	-0.010159974
65	0xbd130785	-0.035895843
66	0xbbb6958e	-0.0055720275
67	0x3e214654	0.15749484
68	0x3e0f33e3	0.13984637
69	0x3de0115e	0.109408125
70	0x3ca28189	0.019837158
71	0xbba44d59	-0.0050141034
72	0xbcea731b	-0.02861934
73	0xbcd4753f	-0.025934814
74	0x3ddc0bde	0.10744451
75	0x3dc23804	0.094833404
76	0x3df7f47c	0.121071786
77	0x3aaaf627	0.001304333
78	0x3e06d5c2	0.1316748
79	0xbc9d224c	-0.019181393
80	0x00000000	0.0
81	0x3bc9d87a	0.006159839
82	0xbcd0a1a7	-0.025467707
83	0x3dd98db7	0.10622733
84	0xbc6c9b3c	-0.014441308
85	0x3db5f3de	0.088844046
86	0xbc4d7d78	-0.012542121
87	0x3e42faf2	0.1904104
88	0x3dd01efb	0.10162159
89	0xbb3aed82	-0.0028522913
90	0xbcdeed5b	-0.02721279
91	0x3ce1950e	0.027536895
92	0x3e032867	0.12808381
93	0xbd0c41ab	-0.034242313
94	0xbca923d4	-0.020646967
95	0x3dce8947	0.10084777
96	0xbc2eb833	-0.010664034
97	0xbc9b3aa9	-0.01894887
98	0x3ccb916c	0.024849616
99	0x3e31a4a9	0.17347969
100	0xbd3a413a	-0.04547236
101	0xbd2112c5	-0.03932454
102	0x00000000	0.0
103	0xbd0ad030	-0.03388995
104	0x3ddc596c	0.10759243
105	0xbbfe5aa7	-0.0077622714
106	0x3e0fd402	0.14045718
107	0xbd5feacc	-0.05466728
108	0xba117579	-0.0005548816
109	0xbcf1be5f	-0.029509721
110	0x3dea4cb2	0.1144041
111	0xbd400c6e	-0.046886854
112	0xbcdb2142	-0.026749257
113	0xbc7d54d0	-0.015462115
114	0x3d983d47	0.07433563
115	0x3e4bbcb4	0.19896203
116	0x3df13aa3	0.11778762
117	0x3e09443d	0.13404937
118	0xbc5883f0	-0.01321505
119	0xbd41dfbf	-0.04733252
120	0x3bf3bc6f	0.0074382345
121	0xbc935aa7	-0.017987562
122	0xbc734acf	-0.014849379
123	0x3d72032e	0.059085064
124	0xbc4cefc3	-0.0125083355
125	0x3d4bcd7c	0.049756512
126	0x00000000	0.0
127	0xbc423781	-0.0118540535

features_model.4.weight f4 [128, 128]
0	0x3e02fade	0.1279101
1	0xb944033b	-0.0001869322
2	0x3d6f90a4	0.05848755
3	0xbd72ad7b	-0.059247475
4	0xbc98a1a7	-0.01863177
5	0xbe6299cb	-0.2212898
6	0xbe8363c9	-0.25662068
7	0x3b92d763	0.0044812425
8	0xbd9bff41	-0.07617045
9	0x3c71f115	0.014766951
10	0xbd76685a	-0.06015811
11	0xbe2d07da	-0.16897526
12	0xbd54269f	-0.051794644
13	0xbd4fc905	-0.050728817
14	0xbc2a3392	-0.010388272
15	0xbd280f14	-0.041030005
16	0x3e0f0d7a	0.13969985
17	0x3dc57185	0.09640793
18	0xbe64f017	-0.22357212
19	0x3d7f445e	0.06232106
20	0x3d65cd21	0.05610383
21	0xbe9314a0	-0.28726673
22	0xbe19a5b4	-0.15004617
23	0x3db39bbc	0.08769938
24	0xbdcf3a6c	-0.10118565
25	0x3d96fbe8	0.07372266
26	0x3ebd5831	0.36981347
27	0xbc95fa4e	-0.018307831
28	0x3de4755d	0.11155198
29	0x3de86cf4	0.11348906
30	0xbcefe57c	-0.029284231
31	0xbd2106ab	-0.039313
32	0x3d0002df	0.031252738
33	0xbe5aff00	-0.21386337
34	0x3e38438d	0.17994519
35	0x3e4976ce	0.19674227
36	0xbe3fd6bb	-0.18734257
37	0xbd7abacd	-0.061213303
38	0xbcf7b3da	-0.030237127
39	0x3d112d65	0.035443682
40	0xbd1023be	-0.035190336
41	0x3cac236e	0.021012988
42	0x3eab6fea	0.3348382
43	0xbe096aa2	-0.13419583
44	0x3d8ed368	0.06973916
45	0x3e348f6c	0.17632836
46	0xbd071cf3	-0.032986593
47	0x3e25cfa7	0.16192494
48	0xbe6089dd	-0.2192759
49	0x3cad8a6b	0.021184167
50	0x3d5577d1	0.05211622
51	0x3d5a3eb0	0.05328244
52	0xbd0d0737	-0.03443071
53	0xbe196d5f	-0.14983128
54	0xbd94e56b	-0.072703205
55	0x3ddd450b	0.108041845
56	0xbd7eeadf	-0.06223571
57	0xbea18166	-0.31544036
58	0x3e32916d	0.17438288
59	0x3d4c7134	0.049912646
60	0xbe18c5f1	-0.14919259
61	0xbd5cefd9	-0.053939674
62	0x3d1b6ff3	0.03794856
63	0xbd13d90f	-0.036095675
64	0xbe14fc66	-0.14549407
65	0xbdb64aa6	-0.08900957
66	0x3d1b4f16	0.03791722
67	0xbd8baaf3	-0.06819715
68	0x3d981b14	0.0742704
69	0x3d398499	0.04529247
70	0x3dc51dc2	0.096248165
71	0x3e21252d	0.15736838
72	0xbe082c79	-0.13298215
73	0xbdaf956e	-0.08573423
74	0xbd09c38a	-0.033633746
75	0x3d76e22a	0.06027428
76	0xbea44fda	-0.32092172
77	0x3cec1293	0.02881745
78	0xbdbd1d90	-0.09234154
79	0xbe0fbb14	-0.14036208
80	0x3e59deff	0.21276473
81	0x3e40bcea	0.18822065
82	0xbc220784	-0.009889487
83	0xbc41627a	-0.011803264
84	0x3cb53403	0.022119528
85	0xbdfc628e	-0.12323485
86	0x3c99e364	0.018785186
87	0x3d767081	0.060165886
88	0x3a2e83f2	0.00066572346
89	0xbe05abc8	-0.1305381
90	0x3d5e1f8a	0.054229297
91	0x3d13f71d	0.036124337
92	0xbe18fd48	-0.14940369
93	0xbddab3ce	-0.10678826
94	0xbd4c42c2	-0.049868353
95	0x3dce3638	0.10068935
96	0x3d143dde	0.036191814
97	0x3dadc20a	0.08484276
98	0xbc130cdf	-0.008975237
99	0x3be26741	0.0069092815
100	0xbd33a9c8	-0.043863088
101	0xbd4ae403	-0.049533855
102	0xbde38c27	-0.11110716
103	0x3da6a638	0.081371725
104	0xbd06e7af	-0.032935794
105	0xbe472de0	-0.19451094
106	0xbe51b2cd	-0.20478363
107	0xbd058aaf	-0.032602962
108	0xbe04551a	-0.12923089
109	0xbe059fd0	-0.13049245
110	0x3e69c6be	0.2282972
111	0x3e1741f3	0.14771251
112	0x3b997ce4	0.0046840776
113	0x3d983e52	0.07433762
114	0xbd1273ea	-0.035755076
115	0x3d384127	0.04498401
116	0xbe02d9be	-0.12778375
117	0x3dd23009	0.10263068
118	0x3e15f52e	0.1464431
119	0xbdb9bf3a	-0.09069677
120	0x3ddcc9c6	0.10780673
121	0xbdf4e36d	-0.119574405
122	0x3e11d298	0.14240491
123	0xbe666c1b	-0.22502176
124	0xbe24ec02	-0.16105655
125	0xbe0e93db	-0.1392359
126	0xbe0f6a24	-0.14005333
127	0xbd24828b	-0.040163558
128	0xbd1bc885	-0.038033027
129	0xbddbccf1	-0.10732449
130	0x3df00ec0	0.11721563
131	0xbdbc371a	-0.09190197
132	0xbe024021	-0.12719776
133	0xbd13e66e	-0.036108427
134	0x3e2a6956	0.16641745
135	0xbe18114a	-0.14850345
136	0xbe5ba1ed	-0.21448489
137	0xbdbea1d8	-0.09308213
138	0x3d0984c8	0.033573896
139	0xbe347d84	-0.17626005
140	0xbd44f19c	-0.04808198
141	0x3e0cad88	0.13738072
142	0x3d09c77e	0.033637516
143	0x3c94d5dc	0.018168382
144	0xbe1e27ca	-0.15444866
145	0xbd565155	-0.052323658
146	0x3e92a3a9	0.28640488
147	0xbd9fdd55	-0.078058876
148	0x3df9fc50	0.12206328
149	0x3db41ef0	0.08794963
150	0xbd968d84	-0.07351211
151	0x3e5add64	0.21373516
152	0x3dc92c4c	0.09822902
153	0x3d30bd68	0.043149382
154	0xbdf79f2a	-0.12090905
155	0xbd0abbe0	-0.033870578
156	0xbe401d9d	-0.18761297
157	0x3e29aeb4	0.1657055
158	0x3d427320	0.047473073
159	0xbda20b97	-0.07912367
160	0xbd2d7a14	-0.04235275
161	0xbe0550b5	-0.13019069
162	0x3d758e9e	0.059950463
163	0xbca2fcd8	-0.019895956
164	0x3e849426	0.25894278
165	0xbd0def57	-0.03465208
166	0x3d454e6b	0.04817049
167	0xbe9126fd	-0.28350058
168	0xbc16a571	-0.009194718
169	0xbc294d7a	-0.010333413
170	0x3da57ac7	0.080800585
171	0x3e42ed94	0.19035941
172	0x3ed589e2	0.4170676
173	0x3d26f268	0.04075852
174	0xbcf93980	-0.030422926
175	0xbd952d6e	-0.07284056
176	0x3df30105	0.11865429
177	0xbe602332	-0.21888426
178	0xbe1c8773	-0.15286045
179	0xbeb8c180	-0.3608513
180	0x3d85852c	0.06519541
181	0xbe292e02	-0.16521457
182	0x3d03b959	0.032159183
183	0x3e64967f	0.22323035
184	0x3e21e07c	0.1580829
185	0xbbfa23e8	-0.007633675
186	0xbd7eb787	-0.062186744
187	0xbdc2e184	-0.0951567
188	0x3e6bb34f	0.2301762
189	0x3e86152a	0.26188022
190	0x3da0d811	0.078537114
191	0xbdcf9485	-0.1013575
192	0x3d8bc578	0.068247736
193	0xbccc7f94	-0.024963178
194	0xbb2c399b	-0.0026279453
195	0x3dc06297	0.093938045
196	0x3e4859de	0.19565532
197	0xbe2ef5ba	-0.17085925
198	0x3e120e60	0.14263296
199	0x3d955079	0.072907396
200	0xbd207b66	-0.039180182
201	0x3dadd541	0.084879406
202	0xbd43a302	-0.04776288
203	0x3dc77cda	0.097406104
204	0xbdcc1824	-0.09965542
205	0xbdbcb344	-0.0921388
206	0x3dba6d67	0.09102898
207	0xbe08bb85	-0.13352783
208	0x3dbf3194	0.09335628
209	0x35723d20	9.0240974e-07
210	0xbc2109ad	-0.009828967
211	0xbd0ebf29	-0.034850273
212	0x3c7f94e6	0.015599465
213	0xbe115154	-0.1419118
214	0xbc732507	-0.014840371
215	0xbe7192a5	-0.23591097
216	0x3e0fd7a9	0.14047112
217	0x3e5776f2	0.21041468
218	0x3d1b495c	0.037911758
219	0x3e20962c	0.15682286
220	0x3db2e2df	0.087346785
221	0x3c304a0e	0.0107598435
222	0xbd890627	-0.066906266
223	0xb9ba0380	-0.00035479292
224	0xbc0a03c1	-0.008423747
225	0x3e0de941	0.1385851
226	0xbc68aa78	-0.014200799
227	0xbd2967e2	-0.041358836
228	0x3e5d96b6	0.21639523
229	0x3d08de79	0.03341529
230	0xbe4c87ff	-0.19973753
231	0xbc5f235c	-0.01361927
232	0x3e04134e	0.12897989
233	0xbd125e7d	-0.035734642
234	0xbd438918	-0.047738165
235	0xbe26140f	-0.16218589
236	0xbde59b2c	-0.11211237
237	0x3d2f28a8	0.042763382
238	0xbcf822a0	-0.030289948
239	0x3ce76f18	0.028251216
240	0x3dbb406f	0.09143149
241	0xbe03adf3	-0.12859325
242	0x3dc740d7	0.09729164
243	0x3dd5d301	0.104406364
244	0xbb2b6989	-0.0026155433
245	0xbd4850c1	-0.048905138
246	0x3e2325e7	0.15932427
247	0xbde8d566	-0.113688275
248	0x3e3d77c6	0.18502721
249	0x3d3d4809	0.046211276
250	0xbc75b007	-0.0149955815
251	0xbd8aad9f	-0.06771397
252	0xbe01defd	-0.1268272
253	0xbdd6ddd8	-0.10491532
254	0xbd0ce720	-0.034400105
255	0x3e569ad0	0.20957494

features_model.4.bias f4 [128]
0	0xbcf82c63	-0.030294603
1	0xbc9630db	-0.018333843
2	0xbcc00f68	-0.023444846
3	0xbcf04a5e	-0.029332336
4	0x3e122823	0.14273123
5	0xbcc424eb	-0.023943385
6	0xbcf416ff	-0.029796122
7	0xbc995ea6	-0.01872189
8	0xbc9fb7c7	-0.019496812
9	0xbc71665f	-0.01473388
10	0xbc62534c	-0.013813805
11	0x3dc4221d	0.09576819
12	0xbc59d7de	-0.013296096
13	0x3d97e4be	0.07416676
14	0x3c995e43	0.018721705
15	0xbcfe922d	-0.031075561
16	0xbc604f55	-0.013690789
17	0xba4949fd	-0.00076785666
18	0xbbf6994e	-0.0075255996
19	0x3df02bd0	0.117271066
20	0xbbc5e8c5	-0.006039711
21	0x3d99a810	0.075027585
22	0xbc8394b4	-0.016062118
23	0xbc0d88ea	-0.0086386
24	0x3da63593	0.08115687
25	0x3cb95219	0.022622155
26	0xbccb817a	-0.024842013
27	0x3cfd7c75	0.030943135
28	0xbca04c2b	-0.01956757
29	0x3e004550	0.1252644
30	0x3d895f1a	0.06707592
31	0xbb11c0aa	-0.002224008
32	0xbc49a46d	-0.012307269
33	0x3d9b3036	0.07577555
34	0xbc18d336	-0.0093277
35	0x3db743d6	0.089484856
36	0x3b3f52cc	0.0029193638
37	0x00000000	0.0
38	0x3de65647	0.11246925
39	0xbcaa2bb3	-0.02077279
40	0xbc952098	-0.018204018
41	0xbc317b4c	-0.010832619
42	0x3c38ebe8	0.011286713
43	0xba4326b8	-0.0007444429
44	0xbc8e07ce	-0.017337706
45	0xbc38044f	-0.011231496
46	0xbc46a067	-0.012123204
47	0x3daf3df3	0.08556738
48	0x3dd71d84	0.105036765
49	0x3e51fe96	0.20507273
50	0x3cb6581b	0.022258809
51	0xbd05c3e4	-0.03265752
52	0xbcb70949	-0.022343295
53	0x3bcbcc93	0.0062194555
54	0xbcbc305d	-0.02297228
55	0xbc5eb66e	-0.013593299
56	0x00000000	0.0
57	0xba36397b	-0.0006951314
58	0xbca90cf1	-0.020636054
59	0x3d16f092	0.03685052
60	0xba6aca6e	-0.0008956556
61	0x3ba87320	0.005140677
62	0x3e10fe41	0.1415949
63	0xbcce7d14	-0.025206126
64	0x3e2cdd3b	0.16881268
65	0x3c5305d2	0.012879806
66	0x3ddc98b3	0.107713126
67	0x3c36c2b2	0.011154817
68	0xbb35b65f	-0.002772711
69	0x3d6e522c	0.058183834
70	0x3d8fa248	0.070133746
71	0xbc9d764f	-0.019221453
72	0xbc937004	-0.01799775
73	0xbcab622a	-0.020920832
74	0xbca2d7e5	-0.019878337
75	0x3d8267a0	0.06367421
76	0x3a9fbbb6	0.001218668
77	0x3d211698	0.039328188
78	0x3d938554	0.07203165
79	0xbcb470d4	-0.022026457
80	0x3c4cd6a3	0.012502345
81	0x3b478bc3	0.0030448295
82	0x3e019499	0.12654342
83	0xbccb151f	-0.024790345
84	0xbd0d5f93	-0.034514975
85	0xbc86dc91	-0.016462596
86	0x3deec869	0.11659319
87	0x3e0633c5	0.13105686
88	0xbd2cdc21	-0.04220212
89	0xbce07ca3	-0.027403181
90	0xbc9ab422	-0.018884722
91	0x3bef3b91	0.007300802
92	0x3e25edc2	0.16203979
93	0xbcdade18	-0.02671723
94	0x3e0fa036	0.1402596
95	0xbd0932b8	-0.033495635
96	0x3e16f325	0.1474119
97	0x3dbfca12	0.09364714
98	0x3e175554	0.14778644
99	0x3e31d625	0.17366846
100	0xbd28e586	-0.041234516
101	0xbcd6e186	-0.026230585
102	0xbb93ccd9	-0.0045105037
103	0x3d167863	0.036735903
104	0x3e1a7536	0.15083775
105	0x3e0710f7	0.13190065
106	0xbb38d58f	-0.0028203463
107	0xbcb00591	-0.02148703
108	0x3e30ddf7	0.17272173
109	0xbcaccac1	-0.021092774
110	0xbcca90e0	-0.024727285
111	0x3d3f5dac	0.04672019
112	0x3c08b11d	0.008343008
113	0xbc4b88f5	-0.01242279
114	0x3e12935e	0.14314029
115	0x3d00fa8b	0.031488936
116	0xbce617ed	-0.02808758
117	0x3dc79c00	0.097465515
118	0xbcaa46ab	-0.02078565
119	0x3e1628c0	0.14663982
120	0xbb2b852b	-0.0026171904
121	0x3d938f39	0.07205052
122	0xbca31c63	-0.019910997
123	0x00000000	0.0
124	0x3e2f5c95	0.17125161
125	0x3df6b066	0.12045364
126	0x3bd9c913	0.0066462844
127	0x3d9a967d	0.075482346

policy_model.0.weight f4 [128, 128]
0	0x3af99550	0.0019041691
1	0x3b229146	0.0024805828
2	0xbae944de	-0.0017797013
3	0xbac2a7d9	-0.0014851048
4	0xba0f662c	-0.0005470242
5	0xbb0c0a29	-0.002136836
6	0xbb294e96	-0.0025834194
7	0xbaa89071	-0.001286043
8	0xbae76aec	-0.0017655767
9	0x3ad87bf0	0.0016516428
10	0xba97c102	-0.0011577907
11	0xbaf250b4	-0.0018487186
12	0xbb0f5918	-0.0021873172
13	0x398b0288	0.00026514032
14	0xbb289170	-0.0025721453
15	0xbad639e2	-0.0016344155
16	0xbb3f7075	-0.0029211317
17	0x39e063b9	0.00042798909
18	0xba9c4f76	-0.0011925537
19	0xbb655e4a	-0.0034998828
20	0x3b418f6f	0.0029534956
21	0xbb960144	-0.0045777876
22	0xbb193f95	-0.0023383845
23	0x38e3f4ae	0.000108697786
24	0x381ea6b8	3.7825404e-05
25	0xbaa7dcb1	-0.001280686
26	0xba9ef695	-0.001212793
27	0xbabca78b	-0.0014393193
28	0xbaf1e0ec	-0.0018453873
29	0x3aaf2025	0.001336102
30	0xbbae58a6	-0.0053206263
31	0xb8db6189	-0.00010460901
32	0xb8d2e470	-0.0001005613
33	0xbb7100b3	-0.0036774098
34	0x39def3d5	0.0004252481
35	0xbb8d024f	-0.0043032537
36	0xb8b9be38	-8.8569184e-05
37	0xba70869c	-0.0009175332
38	0xbba6b9cf	-0.005088068
39	0xbb3ef259	-0.002913615
40	0xb95640d3	-0.0002043278
41	0xba8243c3	-0.0009938407
42	0xba4000d4	-0.0007324342
43	0x3b1db9d2	0.0024067056
44	0x393d5bfd	0.00018058713
45	0x399c4c14	0.0002981132
46	0x3ad637a9	0.0016343492
47	0xba6806ec	-0.0008851129
48	0xba30f1c9	-0.0006749896
49	0xba964605	-0.0011464959
50	0xbaf837f1	-0.001893757
51	0xbb08ee24	-0.0020893896
52	0xba9fd732	-0.001219487
53	0x3a964166	0.0011463582
54	0xbaf58fce	-0.0018734874
55	0x3a372f7e	0.0006987973
56	0xba30f8c4	-0.0006750936
57	0xbb608efb	-0.003426491
58	0xbafabf11	-0.0019130429
59	0xbb1c7a30	-0.002387654
60	0xbaea1148	-0.0017857933
61	0xbad806f2	-0.0016481562
62	0xba400c67	-0.0007326067
63	0xba4af13a	-0.0007741634
64	0x3a8cc995	0.0010741228
65	0x3aef684a	0.0018265333
66	0x3b3a7970	0.002845373
67	0xbb1e1585	-0.0024121713
68	0x3887e7f0	6.480503e-05
69	0xbbea8259	-0.007156652
70	0xbbb62158	-0.005558174
71	0xbabdf55b	-0.0014492677
72	0x3af9717b	0.0019031012
73	0x3a76da47	0.0009416681
74	0xbb28402f	-0.0025673022
75	0x3aa3a954	0.0012486377
76	0xb8a74341	-7.9757076e-05
77	0xb9fa7cd3	-0.00047776717
78	0x3abee8e7	0.001456526
79	0xbae629aa	-0.0017560024
80	0x3a700824	0.00091564865
81	0x395df4ea	0.0002116744
82	0xb9eedf92	-0.0004556147
83	0xba85567f	-0.0010172873
84	0xbb0ea443	-0.0021765388
85	0x3b0c89e7	0.00214445
86	0xbc08fe78	-0.008361451
87	0xbbd037de	-0.006354316
88	0xbae449da	-0.0017417029
89	0x3b438256	0.0029832325
90	0xbadd8892	-0.0016901663
91	0xbb397143	-0.002829627
92	0x3ac7fc9c	0.0015257779
93	0xbb381fae	-0.0028095054
94	0xba80e0e1	-0.0009832644
95	0x3a5ab4ce	0.0008342982
96	0xba832422	-0.0010005275
97	0xbbb9addc	-0.0056664776
98	0x3af56f7d	0.0018725243
99	0x393b4437	0.00017859122
100	0x395f2099	0.00021279081
101	0xbaea036a	-0.0017853801
102	0xba24f86e	-0.00062931224
103	0x3920ed57	0.00015347205
104	0xbab04a46	-0.001344987
105	0xbae7165f	-0.0017630568
106	0x3ab9f71c	0.0014188024
107	0xbb1b8c4e	-0.002373475
108	0x3a02da93	0.00049916765
109	0xb9cd3ac5	-0.00039144434
110	0x3aa3091f	0.0012438631
111	0xbb34956a	-0.0027554878
112	0xb990abd2	-0.00027593836
113	0xbb5659a1	-0.0032707232
114	0x39a8addd	0.00032172995
115	0xbb29ec21	-0.0025928097
116	0xbaf6e858	-0.0018837554
117	0xbbe59c41	-0.0070071523
118	0xbac48a8a	-0.0014994901
119	0xbb97648b	-0.00462014
120	0xbb0c6306	-0.0021421327
121	0xbbe177d3	-0.0068807392
122	0x37827b93	1.5554751e-05
123	0x392771a5	0.00015968697
124	0xbbc69e08	-0.0060613193
125	0xbb918864	-0.004441308
126	0xb9357776	-0.00017306008
127	0xbaecc8d0	-0.0018065218
128	0xbd5b6b9c	-0.05356942
129	0x3b91aefa	0.0044459077
130	0x3c57ca2d	0.013170761
131	0x3c4a4a04	0.012346748
132	0x3d1701ba	0.03686688
133	0x3c7aad78	0.015300147
134	0x3cb0b05d	0.021568472
135	0xbc121c10	-0.008917823
136	0x3c8b3ee1	0.016997756
137	0xbc861acb	-0.016370198
138	0xbacaeb6d	-0.0015481539
139	0x3d6d0a79	0.057871316
140	0x3d43ac8c	0.047771975
141	0x3d288d4f	0.041150387
142	0x3d8c8fb7	0.06863349
143	0x3c81eb8d	0.01585939
144	0x3d0dd48d	0.034626532
145	0x3c6373db	0.013882603
146	0x3a17cce3	0.00057907234
147	0x3d867dbc	0.06566951
148	0x3bed8d95	0.007249544
149	0x3da7fe16	0.0820276
150	0x3c40ab76	0.0117596295
151	0x3bc656ad	0.006052813
152	0x3d9e194b	0.07719668
153	0x3ce9a846	0.028522622
154	0x3d15bce0	0.03655708
155	0x3d4178b5	0.047234256
156	0x3bd0a9ce	0.0063678985
157	0x3d09ada0	0.033612847
158	0x3d959900	0.07304573
159	0x3ce5787f	0.028011559
160	0x3bb9f8f9	0.005675432
161	0x3d018099	0.03161678
162	0x3ba9092f	0.0051585655
163	0x3d9d595e	0.07683061
164	0xbc9ca4c4	-0.019121535
165	0xba0c9754	-0.0005363126
166	0x3d527d38	0.05138895
167	0x3b0df3b9	0.0021660163
168	0xbc1feea3	-0.009761485
169	0x3c816c98	0.015798852
170	0x3d14555c	0.036214218
171	0xbc0c0689	-0.00854648
172	0x3b243f98	0.002506232
173	0x3c92c21b	0.017914822
174	0xbcb85d05	-0.022505293
175	0x3d94f543	0.072733425
176	0x3cca200d	0.024673486
177	0x3a6f9157	0.0009138784
178	0x3c1b08c0	0.009462535
179	0x3d1407b6	0.036140166
180	0x3c8b1ac7	0.016980542
181	0x3cb50782	0.022098307
182	0x3c6d8e28	0.014499225
183	0xb9d7763a	-0.0004109608
184	0x3912448a	0.00013949178
185	0x39976648	0.0002887717
186	0x3ca403fb	0.02002143
187	0x3d6cbd22	0.05779756
188	0x3a3ffdf5	0.00073239143
189	0x3c06fa44	0.008238379
190	0x379399ce	1.7595386e-05
191	0x3c58e61a	0.013238454
192	0xbd1df7f8	-0.03856656
193	0x3cedfe84	0.029052027
194	0x3d8ad1d6	0.06778304
195	0xbc21af81	-0.009868504
196	0x3c00b8c1	0.007856549
197	0x3d852b94	0.065024525
198	0x3d8eb920	0.069689035
199	0x3d62dd5e	0.055386893
200	0x3cadf5f2	0.02123544
201	0xbc9ae82a	-0.018909533
202	0x3c5e366f	0.013562783
203	0x3d4481ce	0.047975354
204	0x3a9e35f1	0.0012070519
205	0x3daf5d07	0.085626654
206	0xbc985eca	-0.018599886
207	0x3baf1bf7	0.00534391
208	0x3c8b08ae	0.016971912
209	0xbd0f4e27	-0.03498664
210	0xbcbf473d	-0.023349399
211	0x39eb6733	0.00044899582
212	0x3cc391df	0.023873268
213	0x3c87e4b4	0.016588546
214	0x3d6ac11b	0.057313066
215	0x3d5680e4	0.052369013
216	0x3c1a5f02	0.009422066
217	0x3c654675	0.013993849
218	0x3d0487b0	0.032355964
219	0x3cec41ae	0.028839912
220	0xbbb3373a	-0.00546923
221	0xba1535e0	-0.0005691927
222	0x3b94b6d3	0.004538396
223	0xbcc60534	-0.024172403
224	0x3d1f095b	0.03882728
225	0x3d8d5a21	0.06901956
226	0xbcc7b580	-0.024378538
227	0xba2a9402	-0.000650704
228	0x3b877128	0.0041333623
229	0x3cfe5974	0.031048514
230	0x3d72380e	0.05913549
231	0x3d8d6589	0.06904132
232	0xbc8772af	-0.016534178
233	0x3d6a10ec	0.057145044
234	0x3d189a52	0.037256546
235	0x3d45d221	0.048296098
236	0xbd1885de	-0.03723704
237	0x3bc5afb0	0.0060329065
238	0x3c433146	0.011913603
239	0x3b0237f4	0.0019869776
240	0x3d8cddb3	0.06878223
241	0x3c27a28d	0.010231626
242	0x3cd71ccb	0.026258847
243	0x3cfa7375	0.030572632
244	0x3b86b10a	0.00411046
245	0x3d8be250	0.06830275
246	0x3c45d17e	0.012073873
247	0x3d6c3b18	0.057673544
248	0xbadb3399	-0.0016723751
249	0x3d91088d	0.07081709
250	0x3d032b62	0.032023795
251	0xba3f2572	-0.00072916516
252	0x3d31fa47	0.043451574
253	0x3d8ac874	0.06776515
254	0x3bd71dc7	0.006564829
255	0x3da6ea8f	0.08150207

policy_model.0.bias f4 [128]
0	0xba95a6c7	-0.0011417501
1	0x3d8e6e98	0.06954688
2	0xbac46173	-0.0014982655
3	0x393d70de	0.00018066491
4	0x37b5ad38	2.1657543e-05
5	0xb91c61c4	-0.0001491374
6	0xbbb68c9c	-0.005570961
7	0xbc27bbf4	-0.010237683
8	0x3ad2db74	0.0016087131
9	0xbac48b56	-0.0014995139
10	0xbac4bcc5	-0.0015009871
11	0xbc6ac7b7	-0.014329842
12	0xbc8ac9f2	-0.016941998
13	0x3c6630d7	0.01404973
14	0x39882fac	0.0002597546
15	0x39b460a8	0.0003440429
16	0x3be2eaae	0.0069249487
17	0xbc8d88f9	-0.017277228
18	0xbac420f3	-0.0014963433
19	0xbabf163b	-0.0014578769
20	0xbc3d3536	-0.011548331
21	0xbc064a4f	-0.0081964275
22	0x3bf92329	0.0076030684
23	0xb9c7d1e2	-0.00038112613
24	0xbc79d3a8	-0.015248217
25	0xbac4b8ee	-0.0015008727
26	0xbc42bca4	-0.011885796
27	0xbc621a26	-0.01380018
28	0xbc00df19	-0.007865691
29	0xbac46715	-0.0014984334
30	0xbc0ea458	-0.008706175
31	0xbbd03809	-0.006354336
32	0xbc604277	-0.013687721
33	0xbbdd5f5b	-0.006755752
34	0xbac4b015	-0.001500609
35	0xbbd51cfb	-0.006503699
36	0xba5ee146	-0.0008502196
37	0xba9d2de1	-0.0011991822
38	0xbc90738d	-0.017633224
39	0xbc63a47a	-0.013894195
40	0x3d87d230	0.06631887
41	0xbc6f3718	-0.014600538
42	0x3bcc0b88	0.0062269606
43	0xbac4869f	-0.0014993733
44	0xbaa81f92	-0.0012826791
45	0x3d0b9c2e	0.03408449
46	0xbc84e301	-0.016221525
47	0xbc250b38	-0.010073476
48	0xbc18d61e	-0.009328393
49	0x3b254fa1	0.0025224464
50	0xbc2a0189	-0.010376343
51	0xbab3c0eb	-0.001371411
52	0xbb76501d	-0.0037584372
53	0x3b83ec51	0.004025974
54	0xbc53c113	-0.01292445
55	0x00000000	0.0
56	0x00000000	0.0
57	0xbb0961fc	-0.0020962944
58	0xbc8c500a	-0.01712801
59	0xbaa73618	-0.001275721
60	0xbc8756fe	-0.016520973
61	0xbac32dd6	-0.001489098
62	0xbac43828	-0.0014970349
63	0x3b78b021	0.0037946778
64	0xbb7eb464	-0.0038864845
65	0xbac4b469	-0.001500738
66	0xbae5f0bb	-0.0017543057
67	0xbc7e3b9d	-0.015517143
68	0xbc0afd4a	-0.00848324
69	0xbb8c31fd	-0.00427842
70	0xbc0095df	-0.007848232
71	0xbbfee2af	-0.0077784876
72	0xba8362fd	-0.0010024008
73	0xbba9ae76	-0.005178268
74	0x3a825ee9	0.0009946498
75	0xbb767552	-0.003760655
76	0xbac44a0c	-0.0014975681
77	0xbc828737	-0.015933616
78	0xbc775ddc	-0.015098061
79	0xbac49e1d	-0.0015000735
80	0x3ceb3dcb	0.028715989
81	0xbc86ffda	-0.016479421
82	0xbc65ae44	-0.014018599
83	0xba0bb014	-0.0005328667
84	0x3babc9a1	0.005242542
85	0xba987412	-0.0011631271
86	0xba5b9c7c	-0.0008377505
87	0x3dd24dbd	0.10268734
88	0xbc268129	-0.01016263
89	0xbc920e92	-0.017829213
90	0xbac45684	-0.0014979397
91	0xbb6b06e1	-0.0035862254
92	0xb9a1ef72	-0.00030886714
93	0xbbe9d564	-0.007136034
94	0xbafbcf58	-0.0019211574
95	0xbc148e96	-0.009067198
96	0xbc8d2506	-0.017229568
97	0xbac48c64	-0.0014995453
98	0xbc7f93b6	-0.015599182
99	0xbc80fde5	-0.015746066
100	0x3b1e0eee	0.0024117786
101	0xbc259508	-0.010106333
102	0xbb426cf6	-0.0029666997
103	0xbba74eab	-0.0051058135
104	0xbbd10fe9	-0.0063800705
105	0x3bbe2424	0.005802648
106	0x3c3a4270	0.011368379
107	0xbc3029d1	-0.010752157
108	0xbaa780b9	-0.0012779451
109	0xbac494cf	-0.0014997962
110	0xbbda5c63	-0.0066638454
111	0xbc2e0b94	-0.010622878
112	0xbc2f86da	-0.010713303
113	0xb8e75986	-0.000110316134
114	0xba34573d	-0.00068794546
115	0xbad8f658	-0.0016552908
116	0xbc05aeab	-0.00815932
117	0xbc76df61	-0.015067906
118	0xbaa08166	-0.0012245595
119	0xbac298c1	-0.001484655
120	0xbc54a4e8	-0.01297877
121	0x3d2b44a7	0.04181352
122	0xbaa8d0ce	-0.0012879611
123	0x3b4b968c	0.0031065075
124	0xbb6aefe2	-0.0035848548
125	0xbb6b6843	-0.00359203
126	0x3bc89c70	0.0061221644
127	0xbb48bce6	-0.003063017

policy_model.2.weight f4 [8, 128]
0	0xbaecf4da	-0.0018078343
1	0xbd2b658e	-0.041844897
2	0x3ae21812	0.0017249605
3	0x3a51f7ba	0.00080096314
4	0xbb00fdb3	-0.0019682467
5	0x3a4ea8f7	0.0007883454
6	0xbc7c85b3	-0.015412736
7	0xbbd08c5a	-0.0063643875
8	0x3bb6057a	0.005554852
9	0xb92a76d1	-0.00016256726
10	0xbaee0be8	-0.0018161507
11	0xbbb8e0ce	-0.005642033
12	0xbbafd1c7	-0.0053655836
13	0x3b710568	0.0036776904
14	0x3b209c48	0.0024507213
15	0x3a9f5bbd	0.0012158077
16	0x3b720be5	0.003693336
17	0xbbe2924e	-0.0069144135
18	0x3a8330d2	0.0010009056
19	0xbb29d573	-0.002591458
20	0xbbb93377	-0.005651887
21	0xbbefbbb5	-0.0073160776
22	0x3c7f06ea	0.015565613
23	0x3a39311b	0.0007064507
24	0xbbf814b6	-0.0075708283
25	0x3ad74434	0.0016423524
26	0xbb2ae5d2	-0.0026076925
27	0xbbdb5ed0	-0.006694652
28	0xbc818e75	-0.015815
29	0xba5a850a	-0.00083358644
30	0xbc052a5b	-0.008127774
31	0x39eeeb3a	0.00045570155
32	0xbc1180a6	-0.00888077
33	0xbc1ebc1d	-0.009688404
34	0x3ae6060e	0.0017549412
35	0xbbf767de	-0.0075502237
36	0xba97f305	-0.0011592811
37	0x3a8f146e	0.0010916123
38	0xbbe5642f	-0.007000468
39	0xbc090570	-0.008363113
40	0xbd76de59	-0.06027064
41	0xbbdb7aed	-0.0066980035
42	0x3b635771	0.003468957
43	0xbac9f904	-0.0015409295
44	0x3aa7d78b	0.0012805326
45	0xbd995f46	-0.07488875
46	0xbbf9f679	-0.007628259
47	0xbb3bb3d9	-0.0028641133
48	0xbbf13d18	-0.0073620193
49	0x3b995a55	0.004679958
50	0xbbf39ba8	-0.007434327
51	0xbbb535f2	-0.0055301124
52	0x3b91323c	0.004431037
53	0x3b94cd57	0.00454108
54	0xbbacc20e	-0.0052721566
55	0xb96c7947	-0.00022551893
56	0x3ae27eb8	0.0017280197
57	0x3aa6058e	0.001266645
58	0xbbdaf5a7	-0.006682116
59	0xb7cda102	-2.451288e-05
60	0xbbd5b375	-0.006521637
61	0xb9f31eff	-0.00046371666
62	0xba2c07af	-0.0006562424
63	0x3b88256f	0.004154853
64	0xbbff1512	-0.007784494
65	0x3a86c0a1	0.0010280797
66	0x3a7fc93b	0.00097574637
67	0xbbbd3a71	-0.005774789
68	0xbbd4b85a	-0.006491703
69	0xbb99c4e3	-0.00469266
70	0xbbf29e8d	-0.0074041546
71	0xbc07bb0b	-0.008284341
72	0xb8839d68	-6.275886e-05
73	0x3b497f73	0.0030746132
74	0x3af36699	0.0018570005
75	0xba47d4c5	-0.00076229527
76	0x3b16fa64	0.0023037428
77	0xbc071d6f	-0.008246764
78	0xbba4e57a	-0.0050322386
79	0x385eda7b	5.31324e-05
80	0x3cd268bd	0.025684709
81	0xbbb71933	-0.005587721
82	0xbae069e1	-0.0017121398
83	0x3aa0b631	0.0012261329
84	0x3b8a646c	0.004223397
85	0x3a926599	0.0011169194
86	0xb8e40f03	-0.00010874683
87	0xbda95443	-0.08268025
88	0xbbb7f30a	-0.0056136893
89	0xbbd28327	-0.006424326
90	0x3acdde89	0.001570658
91	0xbbf5b540	-0.0074984133
92	0x3b1fc453	0.0024378493
93	0xbbd786df	-0.006577357
94	0x3a9b950b	0.001186998
95	0xbc751fa1	-0.014961154
96	0xbbc53a41	-0.0060189073
97	0x3b61cb51	0.0034453461
98	0xbb953b30	-0.004554175
99	0xbbe88fa1	-0.0070972
100	0x3b74c6d8	0.0037349965
101	0xbbdb7c13	-0.0066981404
102	0x3b3739c5	0.0027958017
103	0x399035fa	0.00027506036
104	0x3882f504	6.244521e-05
105	0x3b6aad2f	0.0035808792
106	0xbcec3651	-0.028834494
107	0xbbec73df	-0.0072159613
108	0xb8c1f76d	-9.249044e-05
109	0x3b13ff4e	0.0022582593
110	0xbbd3e1c1	-0.006466121
111	0xbb8558e0	-0.0040694326
112	0xbb263b6f	-0.0025365015
113	0xb8cd2cbe	-9.7834956e-05
114	0x3b7e8238	0.003883494
115	0x3a46bf50	0.00075816084
116	0xbacb1320	-0.0015493371
117	0xbbcc1407	-0.0062279734
118	0x3a7c19c1	0.0009616875
119	0xb9a632c2	-0.00031699805
120	0xbbeeb1b3	-0.007284367
121	0xbd9768cb	-0.073930345
122	0xb9c64200	-0.00037814677
123	0xbb377da8	-0.002799848
124	0xb8fdc74a	-0.000121011006
125	0xbb0bce88	-0.002133282
126	0x3b96411a	0.0045853974
127	0x3a5ec19f	0.000849748
128	0x3a8aeb8a	0.001059876
129	0x3d115492	0.035481043
130	0xba2b4510	-0.00065334234
131	0xba3922b2	-0.000706236
132	0x39d844fa	0.00041250122
133	0xba71471d	-0.0009204017
134	0x3ce161e9	0.027512508
135	0xbc30dd38	-0.01079493
136	0xbc0a28b4	-0.008432556
137	0xb9389f64	-0.00017606985
138	0x3b55b746	0.003261046
139	0xbc15ed71	-0.009150849
140	0xbc0e211b	-0.008674885
141	0xbbe21328	-0.0068992563
142	0xbb28da0a	-0.0025764727
143	0xbbaa6ba2	-0.005200819
144	0xbb1f76ef	-0.0024332365
145	0xbc09d060	-0.008411497
146	0x3af2f9d7	0.0018537593
147	0xba6404d0	-0.0008698227
148	0xbc4436f0	-0.011975989
149	0xbc289971	-0.0102904895
150	0xbc1114c1	-0.008855046
151	0xba02a567	-0.00049837533
152	0xbc0cfe0c	-0.008605491
153	0x3a547c1a	0.0008105651
154	0xbb60006b	-0.0034179937
155	0xbbfe159a	-0.00775404
156	0x3b440399	0.002990937
157	0xbac6b818	-0.0015161065
158	0xbc290b2a	-0.010317603
159	0x3b36581a	0.0027823509
160	0xbbfa60dc	-0.007640941
161	0xbb8d9f5b	-0.004321975
162	0x3a0fcbd1	0.0005485388
163	0xbc142493	-0.009041923
164	0x3a868014	0.0010261559
165	0xbaaf9e0d	-0.0013398543
166	0xbc09647e	-0.008385776
167	0xbc3d722c	-0.011562865
168	0x3d741b53	0.05959637
169	0xbc2791cf	-0.010227635
170	0xbbb5b1f8	-0.005544897
171	0x3b2bfcf5	0.0026243303
172	0x392e1a42	0.00016603715
173	0xbc854740	-0.016269326
174	0xbc0c5e46	-0.008567398
175	0xbb109443	-0.0022061027
176	0xbc117de6	-0.008880114
177	0xbc005ed4	-0.007835109
178	0xbc5310fe	-0.012882469
179	0xba8f88df	-0.0010950825
180	0xbb8a6349	-0.0042232615
181	0xbbe72e06	-0.007055047
182	0xbc23b030	-0.009990737
183	0x3ac69bbc	0.0015152614
184	0x3afc2ca1	0.0019239375
185	0x3ac66496	0.0015136178
186	0xbbecf2fb	-0.007231114
187	0xba2718c9	-0.0006374238
188	0xbc134a5e	-0.0089898985
189	0x397c4863	0.00024059559
190	0xbab1f02a	-0.0013575603
191	0xbc0a59d3	-0.008444267
192	0xbbcb17b9	-0.0061978963
193	0xba3c88cf	-0.0007192017
194	0xb9e66292	-0.0004394246
195	0xbc07fccd	-0.0083000185
196	0xbc0a4e1c	-0.008441474
197	0xbba23f09	-0.004951362
198	0xbbe95500	-0.0071207285
199	0xbc174906	-0.009233719
200	0xbaf45d63	-0.0018643554
201	0x3ad8bd0c	0.0016535833
202	0xbb89d807	-0.0042066607
203	0xba7fab48	-0.0009753001
204	0x3b6be864	0.003599667
205	0xbc0d79f1	-0.00863503
206	0xbc28e43e	-0.010308323
207	0xbab434a8	-0.0013748603
208	0xbb3212f4	-0.0027171941
209	0xbc0a1e61	-0.008430094
210	0xbb3b6e68	-0.0028599743
211	0xbaa0a434	-0.0012255968
212	0xbbe3a5ea	-0.0069472687
213	0xba8e155f	-0.0010840109
214	0x3abbca77	0.0014327307
215	0x3ccf7f76	0.025329333
216	0xbc2299f7	-0.009924403
217	0xbc21779f	-0.00985518
218	0x3ad21d9d	0.0016030554
219	0xbb2e8639	-0.0026630296
220	0xb8f10eb4	-0.00011494514
221	0xbc30649b	-0.010766174
222	0xb9b4a35c	-0.00034453988
223	0x3b0bb9f2	0.002132055
224	0xbc01132b	-0.007878105
225	0x39e137fd	0.0004295706
226	0xbc05cf3b	-0.008167083
227	0xbc113e6a	-0.008864978
228	0xbbd9bfd2	-0.006645181
229	0xbc2bc627	-0.010484255
230	0x3b81a8f8	0.00395691
231	0xb8aa7c00	-8.1293285e-05
232	0x3be4c326	0.0069812713
233	0xbbceeecf	-0.0063150893
234	0xbc30e1c0	-0.0107960105
235	0xbbff4f90	-0.007791467
236	0xba3c59db	-0.00071850204
237	0xba5b67e7	-0.00083696697
238	0xbbfd1370	-0.0077232644
239	0xbb81c56d	-0.0039603026
240	0xbb156c1b	-0.0022800032
241	0x392782a9	0.00015975036
242	0x3b080f96	0.0020761243
243	0xbb7857b5	-0.0037894074
244	0xb8d9a110	-0.000103773666
245	0xbc12e899	-0.008966588
246	0xba79c34e	-0.0009527699
247	0xb8ee939b	-0.00011376218
248	0xbc0717bd	-0.008245406
249	0xbc1f6a49	-0.00972993
250	0x3920ab02	0.00015322494
251	0x3b183cc1	0.0023229572
252	0xbaa4330b	-0.0012527419
253	0xbb443b73	-0.002994266
254	0xbc027cf9	-0.007964366
255	0xbae55fb8	-0.001749984

policy_model.2.bias f4 [8]
0	0xbcb39b41	-0.021924617
1	0x3c12524a	0.008930752
2	0x3d1735f6	0.036916696
3	0x3c39eff0	0.011348709
4	0xbc489f69	-0.012245038
5	0xbb2d5eca	-0.0026454204
6	0x3cda79c6	0.026669394
7	0xbd6156ab	-0.055014294
