results/short_race/second_iteration_training/model344.pt (torch, 276107 bytes, 13 tensors)

features_model.0.weight f4 [128, 4]
0	0xbd7d2bd9	-0.061809395
1	0x3e211a52	0.15732697
2	0x3d8d670b	0.069044195
3	0xbe62c7b8	-0.22146499
4	0x3cc57a44	0.024106152
5	0xbd8b4deb	-0.06801971
6	0xbb07aa38	-0.0020700824
7	0x3d6ffe5c	0.058592185
8	0x3e35a369	0.17738117
9	0x3c8a1762	0.016856853
10	0xbd1adfc1	-0.037811045
11	0x3e410367	0.18848954
12	0x3e3405f1	0.17580391
13	0xbd99c9ce	-0.07509194
14	0xbd6b41ac	-0.057435676
15	0xbd8d98c1	-0.06913901
16	0x3d4b0957	0.049569454
17	0xbc410869	-0.01178179
18	0x3d0d9771	0.034568254
19	0xbdc816ec	-0.09769997
20	0x3d8c64b8	0.06855148
21	0x3d3c273e	0.04593586
22	0x3e70b561	0.2350669
23	0xbe3431f6	-0.17597184
24	0xbe50f05d	-0.20404191
25	0x3c0740ab	0.008255164
26	0x3d6af1c1	0.05735946
27	0x3e21e4d9	0.15809955
28	0xbd66e511	-0.0563708
29	0x3da383bc	0.07984111
30	0x3d3eb3dd	0.04655825
31	0x3e22d8ee	0.15903065
32	0xbe3e0c15	-0.18559296
33	0x3d2fc700	0.04291439
34	0x3dfce36a	0.12348063
35	0x3b99c19d	0.00469227
36	0xbda6f9a1	-0.08153082
37	0x3e1c54b0	0.1526668
38	0x3d26036b	0.040530603
39	0xbe8f2929	-0.2796109
40	0x3d3d1555	0.046162922
41	0x3e1adf0c	0.15124148
42	0x3e394865	0.18094023
43	0x3d85ea36	0.06538813
44	0x3e1978f1	0.14987542
45	0xbdd84972	-0.105608836
46	0x3e27acfb	0.1637458
47	0x3da1e9ca	0.0790592
48	0x3e2426bd	0.16030402
49	0x3e6ee154	0.23328143
50	0x3cebfca7	0.028806997
51	0xbdfddcbc	-0.12395617
52	0xbe21afe1	-0.15789749
53	0xbd6e4882	-0.058174618
54	0xbe154450	-0.1457684
55	0x3bb662cf	0.005565978
56	0xbdefd1b5	-0.1170992
57	0x3e55d62c	0.20882481
58	0xbd1226e7	-0.03568163
59	0x3e0d4c2b	0.13798587
60	0xbe520676	-0.20510277
61	0xbd1553ed	-0.03645699
62	0xbe9a54e1	-0.30142882
63	0x3cfede29	0.031111794
64	0x3df7e780	0.12104702
65	0xbc12cad5	-0.008959492
66	0x3c7f87dd	0.015596357
67	0xbe099f92	-0.13439777
68	0xbd6b28fb	-0.05741213
69	0xbe6f5f3c	-0.23376173
70	0xbdff7399	-0.124732204
71	0xbd0b28f7	-0.033974614
72	0xbe074054	-0.13208133
73	0x3d569b7e	0.052394383
74	0xbda789d1	-0.08180583
75	0xbdf271c4	-0.11838105
76	0xbdaa33a1	-0.08310629
77	0xbdf19ab7	-0.11797088
78	0xbe83f22e	-0.25770706
79	0xbe2f71e6	-0.17133293
80	0x3da98caa	0.08278783
81	0xbdcc53ce	-0.09976922
82	0xbe029a08	-0.12754071
83	0x3c598377	0.013275973
84	0xbe7d8c5e	-0.24760577
85	0xbe22b6e0	-0.15890074
86	0x3e45617f	0.19275473
87	0xbbb52f5a	-0.0055293264
88	0x3d71777d	0.058951844
89	0x3dfc1e67	0.12310486
90	0xbdc18c67	-0.09450608
91	0xbd53d1e1	-0.051713828
92	0xbe67801a	-0.2260746
93	0xbdc1e178	-0.09466833
94	0xbdd9e68d	-0.10639677
95	0x3d84cb5c	0.064841
96	0x3d4245f9	0.047430012
97	0x3e0b6d4b	0.1361591
98	0x3e01d78f	0.12679885
99	0xbe807b8c	-0.2509426
100	0xbec3a898	-0.38214564
101	0xbe52cc8d	-0.20585842
102	0x3d9f7fa3	0.07788017
103	0xbd8c2322	-0.068426386
104	0x3e7a5ecb	0.24450223
105	0x3e9c5203	0.3053132
106	0xbcf1cc99	-0.029516505
107	0x3e28c3a7	0.16480885
108	0xbdafd309	-0.08585174
109	0xbda10e81	-0.078640945
110	0xbdd6c7f2	-0.10487355
111	0xbcd9289b	-0.02650862
112	0xbbbad6db	-0.0057018823
113	0x3d9400f0	0.07226741
114	0xbe04c7bd	-0.12966819
115	0x3e803636	0.2504136
116	0x3dde0d4a	0.108423784
117	0x3d7f57c0	0.062339544
118	0xbdfae94b	-0.12251528
119	0xbd80e1a8	-0.062930405
120	0x3e360045	0.1777354
121	0x3ddf5520	0.10904908
122	0x3e2e2e4f	0.17009853
123	0x3d9a0da5	0.07522134
124	0x3df5ddf5	0.120052256
125	0x3d9b22dc	0.07575008
126	0x3de666a9	0.112500496
127	0x3e2003c5	0.15626438
128	0x3e422be1	0.18962051
129	0xbe829339	-0.25502947
130	0x3d5cf47f	0.053944107
131	0x3de604d6	0.11231391
132	0x3e3ebe00	0.18627167
133	0xbcdbfed8	-0.026854917
134	0x3dfd6db7	0.12374442
135	0xbd24b4f8	-0.040211648
136	0x3d0affd9	0.0339354
137	0x3d4c53d3	0.04988463
138	0x3e720b33	0.23637085
139	0x3e2ab5f1	0.16670968
140	0x3d946959	0.07246656
141	0xbdd15cf4	-0.102228075
142	0xbc180410	-0.009278312
143	0xbe2998cf	-0.16562198
144	0xbdbb4b41	-0.09145213
145	0xbdbace76	-0.091214105
146	0x3da448db	0.080217086
147	0xbcdfbb68	-0.027311042
148	0xbd9989e4	-0.07497004
149	0xbdbe0f2b	-0.09280237
150	0xba01de8d	-0.0004954122
151	0x3df6d569	0.120524235
152	0xbe532a60	-0.20621634
153	0x3d4c6f29	0.049910698
154	0x3d9e53a2	0.077307954
155	0x3df98c93	0.121850155
156	0x3d82b8c5	0.06382898
157	0x3c4d4f42	0.012531104
158	0x3e00ecd8	0.12590349
159	0x3e880e73	0.26573524
160	0xbd986838	-0.07441753
161	0x3da6a0cb	0.081361376
162	0xbe0714a0	-0.13191462
163	0x3e4da632	0.2008293
164	0xbd46531d	-0.048419107
165	0xbd192e95	-0.03739794
166	0x3c6ac020	0.014328033
167	0xbe65d19a	-0.22443238
168	0x3d8f3d87	0.06994157
169	0xbd3b1091	-0.045670096
170	0xbd46f573	-0.048573922
171	0xbe14b96a	-0.14523855
172	0xbdfa7c46	-0.122307345
173	0x3d874cb4	0.06606427
174	0x3e02f014	0.12786895
175	0x3c784da4	0.01515523
176	0xbd06c0df	-0.03289878
177	0x3e1afcdb	0.15135519
178	0x3d4d5acb	0.050135415
179	0xbd424948	-0.047433168
180	0xbd27ba2e	-0.04094904
181	0xbdd671b7	-0.10470908
182	0xbd8caf60	-0.068693876
183	0x3dfe2fa3	0.1241143
184	0x3dd47036	0.10372965
185	0xbb7144ff	-0.0036814807
186	0x3ec661ea	0.38746578
187	0xbde4fbef	-0.11180865
188	0x3bd1a031	0.00639727
189	0xbc038cce	-0.008029176
190	0x3df7f2ac	0.12106833
191	0xbc27dfda	-0.010246241
192	0xbe550b97	-0.20805202
193	0xbb901147	-0.004396591
194	0xbe15ebad	-0.14640684
195	0x3b9f2ccc	0.004857635
196	0x3e6e97d9	0.23300113
197	0xbe0140f7	-0.12622438
198	0x3d45905d	0.04823338
199	0x3de033a4	0.1094735
200	0xbe4e9127	-0.20172559
201	0xbd8f0432	-0.06983222
202	0x3cfe3a38	0.03103362
203	0x3e16e9ef	0.14737676
204	0xbe9910f3	-0.29895744
205	0x3dca69af	0.09883439
206	0x3e392763	0.18081431
207	0x3cb0e939	0.021595584
208	0x3e506acf	0.20353244
209	0x3e8f1deb	0.27952513
210	0xbd905996	-0.07048337
211	0xbd72b339	-0.05925295
212	0x3e617b33	0.22019653
213	0xbd6a57cc	-0.057212636
214	0xbd4e2ad8	-0.050333828
215	0xbd2a45a8	-0.041570336
216	0x3d84496f	0.06459319
217	0xbbdef904	-0.0068045873
218	0x3dc2ae11	0.09505857
219	0xbc3c4db0	-0.0114931315
220	0x3e18da80	0.14927101
221	0xbaf8687b	-0.0018952036
222	0x3e4a96e8	0.19784129
223	0x3ea47ded	0.32127324
224	0x3e1a1957	0.15048729
225	0x3cb2165e	0.021739181
226	0x3b0bbef2	0.002132353
227	0xbdc77e04	-0.097408324
228	0xbd6b06ce	-0.057379536
229	0x3dc274ed	0.09494958
230	0x3e0551ed	0.13019533
231	0x3c02d442	0.0079851765
232	0xbd9451ab	-0.072421394
233	0x3ca43f62	0.020049755
234	0xbd6f798e	-0.058465533
235	0x3cf75a11	0.030194314
236	0x3e0c121d	0.13678785
237	0x3dacb797	0.084334545
238	0x3e12c6ac	0.143336
239	0x3e5375df	0.20650433
240	0xbe02a0e2	-0.12756684
241	0x3d8d63c4	0.069037944
242	0x3c69143a	0.014226014
243	0x3e1aa421	0.15101673
244	0x3ce42df3	0.027853942
245	0xbd89e9dc	-0.06734058
246	0xbe0cc3ae	-0.13746521
247	0x3e577e18	0.21044195
248	0xbdbfd5f3	-0.093669794
249	0x3dd0b492	0.10190691
250	0x3d56d5c8	0.05244997
251	0xbe8d0fa3	-0.27550992
252	0xbe5028cf	-0.20328067
253	0x3dd0aeb6	0.101895735
254	0xbcfff741	-0.03124583
255	0xbdd3dead	-0.103452064

features_model.0.bias f4 [128]
0	0xbb69eb15	-0.0035693098
1	0xbc3c431b	-0.011490609
2	0x3b6f5ef3	0.00365251
3	0xbce2a4ca	-0.027666468
4	0x3d868389	0.06568057
5	0x3d005d28	0.03133884
6	0xbc9ea240	-0.019364476
7	0x3a290183	0.00064470636
8	0xbba2c715	-0.00496758
9	0xbcc11daa	-0.023573715
10	0x3ca010f6	0.019539338
11	0x38eb939a	0.00011233166
12	0x3c558153	0.013031322
13	0xbd18cbb2	-0.037303634
14	0xbcbdaebb	-0.023154607
15	0x3bea36f2	0.0071476633
16	0x3d61d9af	0.05513924
17	0xbcd1affb	-0.02559661
18	0xbd5f8477	-0.054569688
19	0xbac8438d	-0.0015278921
20	0xbd005e22	-0.031339772
21	0xbd40c265	-0.04706039
22	0x3c9b14b5	0.018930772
23	0xbcb0778e	-0.021541383
24	0x3c06d1e3	0.008228752
25	0xbcb4a57e	-0.02205157
26	0x3c17fdf2	0.009276854
27	0xba174dd0	-0.0005771788
28	0x3c94b0fb	0.018150797
29	0x3d21c8e4	0.039498225
30	0x3d4d2cc9	0.05009154
31	0x3d3654d2	0.044514485
32	0xbabb465c	-0.0014287937
33	0x3d0dbc30	0.034603298
34	0xbb01ac5a	-0.0019786567
35	0x3cec53cd	0.028848553
36	0x3bdeb705	0.00679672
37	0xbc70c4b8	-0.014695339
38	0xbc35d70a	-0.011098633
39	0x3c9712a6	0.01844151
40	0x3d18a080	0.03726244
41	0x3c4f2acb	0.01264448
42	0x3d33ac05	0.043865222
43	0xbcc449db	-0.023960998
44	0xbc30fc9b	-0.010802413
45	0xbce3e2de	-0.02781814
46	0x3d3e5779	0.04647014
47	0x3cc6c632	0.024264429
48	0xbcc57c6a	-0.024107177
49	0x3d23c7c0	0.03998542
50	0xbcb5ea19	-0.022206353
51	0x3a48df34	0.00076626544
52	0x3d261d30	0.04055518
53	0x3d2a784e	0.041618638
54	0x3d664cb2	0.056225486
55	0xbc4cd18a	-0.01250113
56	0x3cfa5021	0.030555787
57	0x3b31ac42	0.002711073
58	0xbc6f8c6d	-0.014620882
59	0x3d0542f1	0.032534543
60	0xbc4aa96f	-0.012369498
61	0xbd3a9728	-0.04555431
62	0x3bb6af41	0.005575091
63	0xbc704aa6	-0.014666235
64	0xbcedce10	-0.029028922
65	0xbc3afa35	-0.011412193
66	0xbca5629f	-0.020188628
67	0x3c16614e	0.009178473
68	0x3cadd1a9	0.021218138
69	0xbc33cc01	-0.010973931
70	0xbd8cecf6	-0.06881134
71	0xbcf77adf	-0.030209957
72	0xbcf48626	-0.029849123
73	0xbcf8b902	-0.030361656
74	0xbd263214	-0.040575102
75	0xbd1712c9	-0.03688315
76	0x3c21076f	0.009828432
77	0x3d75a3b2	0.059970565
78	0xbbd2047a	-0.006409225
79	0x3c9b3f7e	0.018951174
80	0xbd10afe8	-0.035324007
81	0xbd002919	-0.031289194
82	0x3c99b405	0.018762598
83	0xbc91ff7d	-0.017822022
84	0xbd2a4002	-0.04156495
85	0xbc3be9d3	-0.011469322
86	0x3d32bc43	0.04363657
87	0x3d67ff7a	0.056640126
88	0x3d34e3a8	0.044162422
89	0xbcca3ffa	-0.02468871
90	0xbc998f24	-0.018745013
91	0xba0bcf26	-0.0005333297
92	0xbcba3e33	-0.022734737
93	0xbcc006f3	-0.023440814
94	0x39ad6e62	0.00033079373
95	0x3cc48955	0.023991266
96	0xbd331560	-0.043721557
97	0x3a3faf6f	0.00073122134
98	0xbc1c4e1a	-0.009540105
99	0x399a9e14	0.00029490946
100	0xbcc1404c	-0.02359023
101	0x3c2d1a59	0.010565364
102	0x3da874c9	0.082254
103	0xbc86c2f1	-0.016450377
104	0xbc9b231a	-0.018937636
105	0x3bc76f9b	0.0060863025
106	0xbcec9692	-0.028880391
107	0xbc4dc1c4	-0.012558404
108	0xbc6924cb	-0.0142299635
109	0xbc93b89a	-0.01803236
110	0xbcf8ac9e	-0.030355748
111	0xbc8f93fb	-0.017526617
112	0xbcdea17c	-0.027176611
113	0x3d4696c4	0.048483625
114	0x3d292bed	0.041301657
115	0x3bd0b4fc	0.0063692313
116	0x3cd88a47	0.026433123
117	0xbb5c2fd1	-0.0033597837
118	0xbb4766e4	-0.0030426318
119	0xbca81279	-0.020516621
120	0xbcbee297	-0.023301406
121	0x3d0a08a4	0.033699647
122	0x3d364d26	0.04450717
123	0xba96deca	-0.0011510488
124	0xbcaf598c	-0.021405004
125	0xbc18926f	-0.009312256
126	0x3c12ce2c	0.008960288
127	0x3b985bc1	0.00464961

features_model.2.weight f4 [128, 128]
0	0x3e357c96	0.17723307
1	0xbd81b24e	-0.06332837
2	0xbd88c674	-0.06678477
3	0x3de9903b	0.11404463
4	0x3e340aee	0.17582294
5	0x3d5e4d53	0.05427296
6	0xbd83b635	-0.064312376
7	0xbe0a45a2	-0.13503125
8	0x3c15e4c0	0.0091487765
9	0x3c0349b6	0.0080131795
10	0xbc9ed105	-0.019386778
11	0xbc0501d4	-0.008118112
12	0xbcd5d914	-0.026104487
13	0x3d2e1f18	0.042510122
14	0xbde2feb8	-0.1108374
15	0x3dd929e8	0.10603696
16	0xbe0803df	-0.13282727
17	0x3dadc1a0	0.08484197
18	0xbd601737	-0.05470964
19	0xbdc3e004	-0.09564212
20	0x3dd6d399	0.10489578
21	0x3d536017	0.05160531
22	0xbb03d30f	-0.0020114814
23	0xbd52dff3	-0.051483106
24	0x3d3d69b4	0.046243384
25	0xbdf9879f	-0.12184071
26	0xbd52c452	-0.051456757
27	0x3e8d7381	0.27627185
28	0xbb8273fb	-0.003981111
29	0xbddb35c7	-0.107036166
30	0x3b7737bb	0.0037722427
31	0x3d68abcd	0.056804467
32	0x3e47e0ae	0.19519302
33	0xbc98efef	-0.018669097
34	0xba1c640b	-0.00059658353
35	0x3c218ddd	0.009860483
36	0xbdc783d7	-0.09741943
37	0xbe648018	-0.22314489
38	0xbe4f21ae	-0.20227692
39	0x3d029c95	0.03188761
40	0x3e21a4c3	0.15785508
41	0x3bd9ead6	0.006650309
42	0x3e4500e5	0.19238622
43	0x3db2086a	0.08693011
44	0x3da89aee	0.082326755
45	0x3e1d6578	0.15370739
46	0xbd2e6431	-0.04257602
47	0xbc016352	-0.007897215
48	0x3e2c9ccd	0.1685669
49	0x3e963bf2	0.2934261
50	0x3e1431f6	0.14472184
51	0x3e423ac2	0.18967727
52	0xbdfb8cd3	-0.122827195
53	0xbd236628	-0.039892346
54	0xbd9601fb	-0.073245965
55	0xbe62cbc1	-0.22148038
56	0xbd7ab496	-0.061207376
57	0xbde6de6a	-0.11272891
58	0xbd70b20e	-0.058763556
59	0x3db63a74	0.08897868
60	0x3de0f7ed	0.10984788
61	0x3e9a0895	0.30084673
62	0x3d0f4b8e	0.034984164
63	0xbe736389	-0.23768438
64	0x3e573ad9	0.21018542
65	0x3d2fcb0e	0.042918257
66	0xbdc38eea	-0.09548743
67	0xbd735b60	-0.059413314
68	0xbdaa6f8e	-0.083220586
69	0x3dac5886	0.08415322
70	0x3dc2581e	0.09489463
71	0xbe57d4aa	-0.21077219
72	0xbe611692	-0.21981266
73	0xbe0d931b	-0.13825648
74	0xbde73155	-0.11288706
75	0xbd0b2699	-0.033972356
76	0xbcfe1ab1	-0.031018587
77	0x3d452b96	0.04813727
78	0xbdc27449	-0.09494836
79	0xbe9ed170	-0.31019163
80	0x3d476bf9	0.048686955
81	0x3dbc956f	0.0920819
82	0xbde3a93b	-0.111162625
83	0x3d09c3dc	0.03363405
84	0x3e4c7b40	0.19968891
85	0x3e47b7c6	0.19503698
86	0xbe092b63	-0.13395457
87	0xbd9681ce	-0.07348977
88	0x3d6a7592	0.05724103
89	0x3d5ac43a	0.053409792
90	0xbe6f6c61	-0.23381187
91	0xbda62992	-0.08113398
92	0x3e33ecdb	0.17570822
93	0xbd78710e	-0.060654692
94	0xbd06138a	-0.032733478
95	0xbdf49c21	-0.11943842
96	0xbd923c13	-0.071403645
97	0x3dff0e93	0.12453952
98	0x3e54ad0a	0.20769134
99	0xbe3db14f	-0.18524669
100	0x3e061042	0.1309214
101	0xbbcc6ea3	-0.006238775
102	0x3db3a490	0.08771622
103	0x3e91e5e6	0.2849571
104	0x3e3073e0	0.17231703
105	0xbc29b61c	-0.01035836
106	0xbe35e44b	-0.17762868
107	0xbe0c1c9b	-0.13682787
108	0xbdf92910	-0.12166035
109	0x3e2c15e0	0.1680522
110	0xbd4b1fb9	-0.0495908
111	0x3e3bb815	0.1833194
112	0xbdb1e050	-0.08685362
113	0xbe3f5fdb	-0.1868891
114	0xbd39c4c6	-0.045353673
115	0xbcbc188e	-0.022960927
116	0x3d1a8477	0.037723985
117	0xbe074f04	-0.13213736
118	0xbd37d762	-0.04488314
119	0xbe190a26	-0.14945278
120	0xbd408d84	-0.04700996
121	0x3c1448e1	0.009050579
122	0xbd9558f1	-0.07292355
123	0x3d564565	0.052312274
124	0xbd2c0e21	-0.042005662
125	0x3d656b64	0.05601062
126	0x3daac5ec	0.08338532
127	0xbd96a3f8	-0.07355493
128	0xbd81d6be	-0.06339787
129	0x3d991c56	0.07476108
130	0x3d8a586d	0.06755147
131	0x3c8f6651	0.017504843
132	0xbd83e6c6	-0.06440501
133	0x3da8ead8	0.08247918
134	0x3da8d29a	0.08243294
135	0xbe20f514	-0.1571849
136	0x3dcf1ab9	0.10112519
137	0xbe859454	-0.26089728
138	0xbe2a8be9	-0.16654934
139	0x3dd5e025	0.10443143
140	0x3bc19a1b	0.0059082634
141	0x3cd1a0de	0.025589403
142	0x3e0ef552	0.1396077
143	0xbd226bdf	-0.039653655
144	0xbc903ad2	-0.017606173
145	0x3d13c0b4	0.036072448
146	0x3d6c473d	0.057685126
147	0xbdb30327	-0.08740836
148	0xbcbd61b0	-0.02311787
149	0xbe20b4fb	-0.15694039
150	0xbe058220	-0.1303792
151	0x3db943ed	0.09046159
152	0xbd8de48a	-0.06928356
153	0xbdcb86f6	-0.09937851
154	0xbe21724c	-0.15766257
155	0xbce7b050	-0.028282315
156	0x3e87791d	0.2645959
157	0xbe2b5baf	-0.16734193
158	0xbeb2aa22	-0.34895426
159	0xbdc90f27	-0.09817343
160	0x3d65ba6f	0.056086
161	0x3c926cc8	0.017874137
162	0xbdf7f3f3	-0.121070765
163	0xbd6147f3	-0.055000257
164	0x3d821540	0.06351709
165	0xbb5f359f	-0.003405906
166	0x3e2aa237	0.16663443
167	0xbc6c025c	-0.014404859
168	0x3de79c36	0.11309092
169	0xbe41c140	-0.18921375
170	0x3c989a37	0.018628223
171	0x3dea7364	0.1144779
172	0x3c31c03c	0.010849055
173	0xbd57b89f	-0.052666303
174	0x3d41117c	0.047135815
175	0x3e81ac7e	0.25326914
176	0xbe0fd70a	-0.14046875
177	0x3d062ebb	0.03275941
178	0x3ce0340e	0.027368572
179	0xbd1b7712	-0.03795535
180	0x3d0e6acf	0.03476983
181	0x3dbc1187	0.091830306
182	0x3c5befe5	0.0134238945
183	0x3d94c909	0.07264907
184	0x3cc907cc	0.02453985
185	0x3dddf0dc	0.10836956
186	0xbdbb6f82	-0.09152128
187	0x3d210bac	0.03931777
188	0x3e62e6bb	0.22158329
189	0xbd4d6edc	-0.050154552
190	0xbe71fc90	-0.23631501
191	0x3e9dd60a	0.3082736
192	0x3d6f71fd	0.058458317
193	0x3b9e5edb	0.004833085
194	0x3bc6bbd5	0.006064872
195	0xbd9aee58	-0.07564992
196	0x3cb741e9	0.022370296
197	0x3e6e506c	0.23272866
198	0xbe8908f4	-0.26764643
199	0xbd05b112	-0.03263957
200	0x3d8cc1dd	0.06872914
201	0x3dc07451	0.093971856
202	0xbe353513	-0.17696027
203	0x3e09eab5	0.1346844
204	0x3b365ec1	0.0027827474
205	0xbc4ced0b	-0.012507687
206	0xbdc8ca6d	-0.09804235
207	0x3df61cde	0.12017225
208	0x3b8c25c8	0.004276965
209	0x3e24c6ff	0.16091536
210	0x3d5d05f7	0.053960767
211	0x3e9613fc	0.29312122
212	0x3d1e965f	0.038717624
213	0xbbeb0cc4	-0.0071731526
214	0xbe2d491d	-0.16922422
215	0x3d7df04d	0.061996747
216	0x3e7695bc	0.24080557
217	0xbc14c366	-0.00907979
218	0xbd28d7b2	-0.041221328
219	0xbb8a7052	-0.0042248154
220	0x3ceb7c99	0.028745936
221	0x3cb00cc0	0.021490455
222	0x3e0f6e93	0.14007024
223	0xbe1319d2	-0.14365318
224	0xbca91341	-0.020639064
225	0xbdcbf946	-0.099596545
226	0x3e2caffa	0.16864005
227	0xbddf97b5	-0.10917608
228	0x3d52eb3f	0.05149388
229	0xbdb7bf67	-0.08972054
230	0xbeaad19c	-0.33363044
231	0x3c8c1550	0.017100006
232	0xbd781590	-0.06056744
233	0xbd4195a3	-0.047261845
234	0xbe45ed93	-0.19328909
235	0x3e64e05c	0.22351211
236	0xbdd277fa	-0.1027679
237	0xbcf596c2	-0.029979113
238	0xbc851b63	-0.01624841
239	0x3e167165	0.14691694
240	0xbd78c047	-0.060730245
241	0xbe4d976c	-0.20077294
242	0x3d6664c3	0.056248438
243	0xbdce11d6	-0.10061996
244	0x3e3828cb	0.17984311
245	0x3dd8d2e4	0.10587099
246	0x3e0d9429	0.1382605
247	0xbdbefd21	-0.09325624
248	0xbc20cb2e	-0.009814067
249	0x3d93ec75	0.07222835
250	0x3e566480	0.20936775
251	0xbc41ca09	-0.011827954
252	0xbe31382e	-0.17306587
253	0xbe717d15	-0.23582871
254	0xbd03c09a	-0.0321661
255	0x3d94575c	0.07243225

features_model.2.bias f4 [128]
0	0xbbe42e91	-0.006963559
1	0x3c98bb2f	0.018643944
2	0xbbf7566e	-0.007548145
3	0xbd23bda5	-0.03997578
4	0xbc847afa	-0.016171921
5	0x3c7d6eb0	0.0154682845
6	0xbbd88e55	-0.006608764
7	0x00000000	0.0
8	0x3ca09b78	0.019605383
9	0x3a371481	0.00069839513
10	0xbcaf3346	-0.021386754
11	0x3cf1d5b6	0.02952085
12	0xbb81630b	-0.0039485744
13	0xbc5089cf	-0.012728169
14	0xbbd74a21	-0.006570116
15	0x3c810c9b	0.015753081
16	0xbba45406	-0.005014899
17	0x3d0e5846	0.034752153
18	0xbc00c942	-0.007860484
19	0x3da9a276	0.0828294
20	0xbb851788	-0.004061643
21	0x3c880b98	0.01660709
22	0xbbd587b9	-0.0065164235
23	0xbd386222	-0.04501546
24	0x3bc32c48	0.0059562065
25	0xbc7879c2	-0.015165748
26	0xbc2a3e3b	-0.010390813
27	0xbc398e06	-0.011325365
28	0xbc93d815	-0.018047372
29	0xbc7d3013	-0.015453356
30	0xbc9a0893	-0.018802917
31	0xbc8c553a	-0.017130483
32	0xbb4426b9	-0.0029930307
33	0x3d91eb9e	0.071250185
34	0xbc127f40	-0.008941472
35	0x3d77931e	0.060443036
36	0xbcae6a1a	-0.021290828
37	0xbca0ea55	-0.019642988
38	0xbc10f3dc	-0.008847203
39	0xbc2b3b41	-0.010451139
40	0xbc12494a	-0.008928606
41	0xbaed7c16	-0.0018118646
42	0xbcf25876	-0.029583197
43	0xbbb0ef6a	-0.005399634
44	0x3cb8af0a	0.022544403
45	0xbc92c806	-0.017917644
46	0x3c94621f	0.018113194
47	0xbc4d5029	-0.012531319
48	0xbd0a21ce	-0.033723645
49	0x3d38660f	0.045019206
50	0xbbe1602f	-0.006877921
51	0xbac697da	-0.0015151456
52	0xbc9def4a	-0.019279141
53	0x3d52ba54	0.051447228
54	0xbc3a24fa	-0.011361355
55	0xbb5f5f6a	-0.003408397
56	0x3d601fc0	0.05471778
57	0xbcba6415	-0.022752801
58	0x3d0cf4b7	0.034413066
59	0xbc33c082	-0.01097119
60	0xbc9163a2	-0.017747704
61	0x3d34c8ac	0.044136688
62	0xbb07dd14	-0.0020731138
63	0x3b25d949	0.0025306514
64	0xbc267605	-0.010159974
65	0xbcb3a268	-0.021928027
66	0xb9f7ae9c	-0.00047241605
67	0xbc98be55	-0.018645445
68	0xbb26dafb	-0.0025460112
69	0x3d71bd2a	0.05901829
70	0xbb14cd14	-0.0022705244
71	0x3adba7c6	0.0016758374
72	0xbcafaed1	-0.021445664
73	0xbc5faf12	-0.01365258
74	0x3c1e3e93	0.009658474
75	0xbca8e160	-0.02061528
76	0x3c3d5d67	0.011557913
77	0x3b50bebe	0.0031851972
78	0x3d8ea096	0.06964223
79	0xbc9d224c	-0.019181393
80	0x00000000	0.0
81	0xbc358cef	-0.0110809645
82	0xbc67b9ee	-0.01414345
83	0xbc10f8c8	-0.008848377
84	0xbc05bc95	-0.008162637
85	0x3b9a1fa2	0.004703478
86	0xbca55920	-0.0201841
87	0xba3a8334	-0.00071148877
88	0x3d01cc97	0.031689253
89	0xbb3aed82	-0.0028522913
90	0xbd1554cc	-0.03645782
91	0x3b90521c	0.0044043195
92	0x3d24008a	0.040039577
93	0xbcb46f76	-0.022025805
94	0xbc89f1b3	-0.016838884
95	0x3c0000a6	0.007812655
96	0xbc20f050	-0.00982292
97	0xbc9b3aa9	-0.01894887
98	0xbc3cd531	-0.011525438
99	0x39e5d309	0.00043835517
100	0xbd23545b	-0.03987537
101	0xbd0a2b68	-0.0337328
102	0x00000000	0.0
103	0xbd180fa1	-0.03712428
104	0x3c578ee1	0.013156624
105	0xbbfe5aa7	-0.0077622714
106	0xbacdb6ef	-0.0015694777
107	0xbd136ac0	-0.035990477
108	0x3b8c9ba0	0.004291013
109	0xbc8138be	-0.015774127
110	0x3d6b3203	0.05742074
111	0xbd271ee7	-0.040800955
112	0xbcaad806	-0.020854961
113	0xbc91d02a	-0.017799456
114	0xbc77f959	-0.015135133
115	0x3b28b443	0.002574221
116	0xbc053c54	-0.008132059
117	0x3b8415d2	0.0040309215
118	0xbc07a0b3	-0.00827806
119	0xbcf5d0cd	-0.03000679
120	0x3bee07c8	0.007264111
121	0xbc9695c8	-0.018381968
122	0xbc99c38d	-0.018770004
123	0xbc2ee8d8	-0.010675631
124	0xb997cea7	-0.00028954932
125	0x3d3fab7a	0.046794392
126	0x00000000	0.0
127	0xbc5140ab	-0.012771766

features_model.4.weight f4 [128, 128]
0	0x3e1195d2	0.14217308
1	0x3c316a56	0.010828575
2	0x3d868eb6	0.06570189
3	0xbd652777	-0.05594584
4	0xbc15f582	-0.009152772
5	0xbe6299cb	-0.2212898
6	0xbe829903	-0.25507364
7	0x3b92d763	0.0044812425
8	0xbd7ea19f	-0.062165853
9	0x3d0a9e38	0.033842295
10	0xbd6ee08b	-0.05831961
11	0xbe1b1ad9	-0.1514696
12	0xbd4b12a6	-0.04957833
13	0xbd4d1fd3	-0.050079178
14	0xbc2a3392	-0.010388272
15	0xbcb7624c	-0.022385739
16	0x3e0f0d7a	0.13969985
17	0x3dd6f679	0.1049623
18	0xbe607fd8	-0.21923769
19	0x3d9ac6ef	0.07557475
20	0x3d6d1821	0.05788434
21	0xbe9262e0	-0.2859106
22	0xbe19a5b4	-0.15004617
23	0x3db39bbc	0.08769938
24	0xbdcf3a6c	-0.10118565
25	0x3db10f76	0.08645527
26	0x3ec087a1	0.37603477
27	0xbc95fa4e	-0.018307831
28	0x3dea1e6a	0.11431582
29	0x3df67a83	0.12035086
30	0xbcd79d85	-0.026320228
31	0xbcc8ab88	-0.024495855
32	0x3d45b678	0.04826972
33	0xbe4c8bb4	-0.19975168
34	0x3e45f6c9	0.19332422
35	0x3e57cf13	0.21075086
36	0xbe3fd6bb	-0.18734257
37	0xbd71e3fd	-0.059055317
38	0xbc850563	-0.01623792
39	0x3d112d65	0.035443682
40	0xbc899f32	-0.016799543
41	0x3cbbecbe	0.022940036
42	0x3eab6fea	0.3348382
43	0xbe0963e8	-0.13417017
44	0x3d9d19f2	0.07670964
45	0x3e3651fa	0.17804709
46	0xbce1100d	-0.027473474
47	0x3e25cfa7	0.16192494
48	0xbe608ca5	-0.21928652
49	0x3d004364	0.03131427
50	0x3d5e3556	0.054250084
51	0x3d5a3eb0	0.05328244
52	0xbd0d0737	-0.03443071
53	0xbe0ec529	-0.13942398
54	0xbd94e585	-0.0727034
55	0x3de1159b	0.10990449
56	0xbd4e718d	-0.05040126
57	0xbea18166	-0.31544036
58	0x3e308234	0.17237169
59	0x3d54e81a	0.05197916
60	0xbe167c5b	-0.14695875
61	0xbd3ed827	-0.046592858
62	0x3d1b6ff3	0.03794856
63	0xbd13d90f	-0.036095675
64	0xbe14fc66	-0.14549407
65	0xbdb3800e	-0.08764659
66	0x3d1b4f16	0.03791722
67	0xbd6334c7	-0.055470254
68	0x3db298c7	0.08720546
69	0x3d70a9de	0.058755748
70	0x3dd5e42f	0.10443913
71	0x3e21252d	0.15736838
72	0xbe06dfcf	-0.13171314
73	0xbdaf9d16	-0.08574884
74	0xbcb03899	-0.021511363
75	0x3d76e22a	0.06027428
76	0xbe9c2864	-0.30499566
77	0x3cfaa5c4	0.030596621
78	0xbdaa0ee7	-0.08303624
79	0xbe0fbb14	-0.14036208
80	0x3e59deff	0.21276473
81	0x3e4864af	0.19569658
82	0xbbec91b9	-0.00721952
83	0x3ba0c649	0.00490645
84	0x3cb5995f	0.02216786
85	0xbdfc628e	-0.12323485
86	0x3c951b9f	0.018201647
87	0x3d767081	0.060165886
88	0x3c5777c9	0.013151118
89	0xbe05abc8	-0.1305381
90	0x3d7abb10	0.061213553
91	0x3d27575b	0.040854793
92	0xbe089e58	-0.13341653
93	0xbdd594b4	-0.104287535
94	0xbd39c159	-0.045350406
95	0x3dce3638	0.10068935
96	0x3d143dde	0.036191814
97	0x3dadc20a	0.08484276
98	0x3a6c3693	0.0009010818
99	0x3be26741	0.0069092815
100	0xbd33a9c8	-0.043863088
101	0xbd36c1de	-0.04461848
102	0xbde38c27	-0.11110716
103	0x3db60ab8	0.08888763
104	0xbd0737f1	-0.033012334
105	0xbe472de0	-0.19451094
106	0xbe3fcb0f	-0.18729804
107	0xbcfe8aab	-0.031071981
108	0xbe04551a	-0.12923089
109	0xbe040dda	-0.12895909
110	0x3e782e2e	0.24236366
111	0x3e1741f3	0.14771251
112	0x3bd8d32e	0.0066169715
113	0x3d983e52	0.07433762
114	0xbcc6376d	-0.024196351
115	0x3d63e9da	0.05564294
116	0xbe02d9be	-0.12778375
117	0x3dea74e6	0.11448078
118	0x3e15f52e	0.1464431
119	0xbdb77439	-0.089577146
120	0x3ddcc9c6	0.10780673
121	0xbdf3fdc3	-0.119136356
122	0x3e19855b	0.14992277
123	0xbe6771f9	-0.22602071
124	0xbe24ec02	-0.16105655
125	0xbe0734ec	-0.13203782
126	0xbe0f6a24	-0.14005333
127	0xbd24828b	-0.040163558
128	0xbd258587	-0.040410545
129	0xbdf516db	-0.1196725
130	0x3de98113	0.11401572
131	0xbdb10788	-0.086440146
132	0xbe093f96	-0.13403162
133	0xbd648eb2	-0.055800147
134	0x3e29ac1e	0.16569564
135	0xbe18114a	-0.14850345
136	0xbe5cd4b2	-0.21565512
137	0xbd8d11a2	-0.06888129
138	0x3d049563	0.03236903
139	0xbe3c2cdf	-0.18376492
140	0xbd6600dc	-0.056153163
141	0x3e0c9a49	0.1373073
142	0x3d09c77e	0.033637516
143	0x3c9001e0	0.01757902
144	0xbe1e27ca	-0.15444866
145	0xbd87e768	-0.06635934
146	0x3e90e531	0.2829986
147	0xbdb047e6	-0.086074635
148	0x3df43da5	0.1192582
149	0x3dac0b22	0.08400561
150	0xbd905a03	-0.070484184
151	0x3e5e59d5	0.21713956
152	0x3d9556cb	0.07291945
153	0x3dc753d9	0.097327895
154	0xbdf30855	-0.118668236
155	0xbd0abbe0	-0.033870578
156	0xbe4450f0	-0.191715
157	0x3e276a76	0.16349205
158	0x3d494b55	0.049144108
159	0xbdb30c25	-0.08742551
160	0xbd09ca2e	-0.03364008
161	0xbe0e3dcf	-0.13890766
162	0x3cf935b0	0.030421108
163	0xbcdce1a5	-0.026963064
164	0x3e86b883	0.26312646
165	0xbd31f37f	-0.043445107
166	0xbb44482c	-0.0029950244
167	0xbe90fd10	-0.2831807
168	0x3bd8ba9f	0.006614044
169	0xbca3f55c	-0.020014457
170	0x3da57ac7	0.080800585
171	0x3e42f6ed	0.19039507
172	0x3ed1d375	0.4098164
173	0x3d2412df	0.04005706
174	0xbd0e2d11	-0.034710947
175	0xbd952d6e	-0.07284056
176	0x3dfea22d	0.12433276
177	0xbe686b61	-0.22697212
178	0xbe1ddd96	-0.1541656
179	0xbeb8c180	-0.3608513
180	0x3d85852c	0.06519541
181	0xbe3637be	-0.17794701
182	0x3d03b959	0.032159183
183	0x3e54e345	0.20789821
184	0x3e1a13e3	0.15046649
185	0xbbfa23e8	-0.007633675
186	0xbda65b14	-0.081228405
187	0xbdc857b3	-0.09782352
188	0x3e68e946	0.22745237
189	0x3e8247ec	0.25445497
190	0x3da0d811	0.078537114
191	0xbdcf9485	-0.1013575
192	0x3d8bc578	0.068247736
193	0xbcdcfbe4	-0.02697558
194	0xbb2c399b	-0.0026279453
195	0x3db8f739	0.09031529
196	0x3e304d15	0.17216904
197	0xbe386737	-0.18008123
198	0x3e0f952c	0.14021748
199	0x3d955079	0.072907396
200	0xbd1ee903	-0.038796436
201	0x3db23b4e	0.08702718
202	0xbd564b63	-0.052317988
203	0x3d8a45c6	0.067515895
204	0xbdd38d64	-0.103297025
205	0xbdbfca9a	-0.09364815
206	0x3da4fd6b	0.08056148
207	0xbe08bb85	-0.13352783
208	0x3dbf3194	0.09335628
209	0xba51ade9	-0.0007998632
210	0xbc55a12c	-0.013038915
211	0xbd0fae9e	-0.035078637
212	0x3c7fba89	0.015608438
213	0xbe0693cd	-0.13142319
214	0xbd0dce7b	-0.034620743
215	0xbe46b7b1	-0.1940601
216	0x3e0bb42e	0.13642952
217	0x3e5776f2	0.21041468
218	0x3d21d76d	0.039512087
219	0x3e1c340d	0.15254231
220	0x3da0c774	0.07850543
221	0x3c1dd245	0.009632652
222	0xbd8ce2bf	-0.06879186
223	0x3b2878da	0.0025706799
224	0xbc0a03c1	-0.008423747
225	0x3e0de941	0.1385851
226	0xbc4c45e3	-0.012467834
227	0xbd8aee57	-0.06783741
228	0x3e5f1e11	0.21788813
229	0x3d1173cf	0.035510834
230	0xbe4c87ff	-0.19973753
231	0xbc2e6f2b	-0.010646622
232	0x3deee157	0.11664074
233	0xbd125e7d	-0.035734642
234	0xbbcac150	-0.0061875954
235	0xbe26840d	-0.16261311
236	0xbde59b2c	-0.11211237
237	0x3d268db5	0.040662486
238	0xbd1ee0c2	-0.038788565
239	0x3cf5e55d	0.030016595
240	0x3db4594e	0.08806096
241	0xbe03adf3	-0.12859325
242	0x3daef7b2	0.08543338
243	0x3da584f5	0.08082
244	0xbc8ea91b	-0.01741462
245	0xbd998aa9	-0.074971505
246	0x3e2325e7	0.15932427
247	0xbde51299	-0.11185188
248	0x3e3d77c6	0.18502721
249	0x3d59ef96	0.053207003
250	0xbc603b89	-0.013686069
251	0xbd9484ed	-0.07251916
252	0xbe01defd	-0.1268272
253	0xbde367db	-0.11103793
254	0xbd0ce720	-0.034400105
255	0x3e569ad0	0.20957494

features_model.4.bias f4 [128]
0	0xbcb4623d	-0.0220195
1	0xbc871aab	-0.016492208
2	0xbc967bf9	-0.018369662
3	0xbcaa1b8a	-0.020765085
4	0x3ca91d0c	0.020643733
5	0xbc5d96c4	-0.013524715
6	0xbc7e055c	-0.015504207
7	0xbc4da59b	-0.01255169
8	0xbc98998f	-0.01862791
9	0xbc136428	-0.008996047
10	0xbc01de77	-0.007926575
11	0x3d6de16a	0.0580763
12	0xbc11d4b6	-0.008900812
13	0x3d1e0fe9	0.03858939
14	0x3c31283a	0.010812813
15	0xbce64dbd	-0.02811324
16	0xbc361406	-0.011113172
17	0xba494964	-0.00076784776
18	0xbbf6994e	-0.0075255996
19	0x3d5a450d	0.05328851
20	0xbb8f0d33	-0.004365587
21	0x3d72d282	0.059282787
22	0xbc248bae	-0.010043068
23	0xbc0d88ea	-0.0086386
24	0x3d4db47d	0.050220955
25	0xbb99f2df	-0.004698142
26	0xbc44110b	-0.011966954
27	0x3be82139	0.0070840386
28	0xbccd5380	-0.02506423
29	0xbbd87e91	-0.0066068848
30	0x3cffca86	0.0312245
31	0x39d9ff6d	0.00041579772
32	0xbc74cb6d	-0.014941079
33	0x3d5dcc10	0.054149687
34	0xbc5c9690	-0.013463631
35	0x3d3ddea0	0.04635489
36	0x3b3f52cc	0.0029193638
37	0x00000000	0.0
38	0x3c5cb80f	0.013471617
39	0xbcc683cb	-0.024232766
40	0xbc366f5b	-0.011134948
41	0xbc317afe	-0.010832546
42	0x3c3246b9	0.010881119
43	0xba4326b8	-0.0007444429
44	0xbc7aac1b	-0.015299822
45	0xbc38044f	-0.011231496
46	0xbbf70ffb	-0.007539747
47	0x3d310c8a	0.04322485
48	0xbcd345e1	-0.025790157
49	0x00000000	0.0
50	0xbc22ffb9	-0.009948664
51	0xbca28f31	-0.01984367
52	0xbc898e30	-0.016791433
53	0x3bcbcc93	0.0062194555
54	0xbcb227db	-0.02174752
55	0xbc8e99d5	-0.017407337
56	0x00000000	0.0
57	0xbceb744e	-0.028741982
58	0xbcd37189	-0.025810974
59	0x3c601d12	0.013678806
60	0xba6aca6e	-0.0008956556
61	0xbc956566	-0.018236827
62	0xbc1a4c11	-0.00941755
63	0xbcd05e96	-0.025435727
64	0x3d42718d	0.04747157
65	0x3c542460	0.012948126
66	0x3d938ccc	0.07204589
67	0x3c3df107	0.01159311
68	0xbb100880	-0.0021977723
69	0x3cf65f07	0.03007461
70	0x3d019259	0.03163371
71	0xbc828a69	-0.01593514
72	0xbc48253a	-0.012215907
73	0xbcab622a	-0.020920832
74	0xbc59b28d	-0.013287199
75	0x3c726912	0.0147955585
76	0x3a9fbbb6	0.001218668
77	0x3d0c8af6	0.03431221
78	0x3b6b8481	0.0035937133
79	0xbc84271b	-0.016131928
80	0x3cbbc8c1	0.022922875
81	0xbb06fecb	-0.0020598646
82	0x3c868bf4	0.016424157
83	0xbcab1f9e	-0.0208891
84	0xbc93a150	-0.018021256
85	0xbc8c24d6	-0.017107408
86	0x3d26e1cb	0.040742677
87	0x3d93c46f	0.07215201
88	0xbcab9b8f	-0.0209482
89	0xbcda3d3f	-0.026640533
90	0xbc6b0ad0	-0.01434584
91	0x3c3b0638	0.011415057
92	0x3b7fe02b	0.0039043527
93	0xbcd4eee1	-0.025992813
94	0x3bac600e	0.005260474
95	0xbcdce219	-0.02696328
96	0xbba52152	-0.0050393725
97	0x3d265029	0.04060379
98	0xbc26579b	-0.010152723
99	0x3c0d26f7	0.008615247
100	0xbccca629	-0.024981575
101	0xbcd258cc	-0.025677107
102	0x3bfdd7ef	0.0077466886
103	0x3c9f5118	0.019447848
104	0x3c8e29fa	0.017354
105	0xbbdd9311	-0.0067619164
106	0xbb38d58f	-0.0028203463
107	0xbc3b880d	-0.011446011
108	0x3a10ad3a	0.0005518977
109	0xbcd2d364	-0.025735565
110	0xbc5c7a8d	-0.013456953
111	0xbc10a6fb	-0.008828874
112	0x3bfe3114	0.0077573154
113	0xbc0a5811	-0.008443848
114	0xbc9fe277	-0.019517167
115	0x3c7fd3aa	0.0156144295
116	0xbcac9e24	-0.021071501
117	0x3d403bd6	0.046932064
118	0xbc8b5bff	-0.01701164
119	0x3d9fe9de	0.078082785
120	0xbb2b852b	-0.0026171904
121	0x3d26379a	0.04058037
122	0x3c2bc05f	0.010482877
123	0x00000000	0.0
124	0x3d7666ec	0.060156748
125	0x3d8664b1	0.06562174
126	0xbc4723a7	-0.012154496
127	0x3d225301	0.03962994

policy_model.0.weight f4 [128, 128]
0	0x3af99550	0.0019041691
1	0x3b229146	0.0024805828
2	0xbae944de	-0.0017797013
3	0xbac2a7d9	-0.0014851048
4	0xba0f662c	-0.0005470242
5	0xbb0c0a29	-0.002136836
6	0xbb294e96	-0.0025834194
7	0xbaa89071	-0.001286043
8	0xbae76aec	-0.0017655767
9	0x3ad87bf0	0.0016516428
10	0xba97c102	-0.0011577907
11	0xbaf250b4	-0.0018487186
12	0xbb0f5918	-0.0021873172
13	0x398b0288	0.00026514032
14	0xbb289170	-0.0025721453
15	0xbad639e2	-0.0016344155
16	0xbb3f7075	-0.0029211317
17	0x39e063b9	0.00042798909
18	0xba9c4f76	-0.0011925537
19	0xbb655e4a	-0.0034998828
20	0x3b418f6f	0.0029534956
21	0xbb960144	-0.0045777876
22	0xbb193f95	-0.0023383845
23	0x38e3f4ae	0.000108697786
24	0x381ea6b8	3.7825404e-05
25	0xbaa7dcb1	-0.001280686
26	0xba9ef695	-0.001212793
27	0xbabca78b	-0.0014393193
28	0xbaf1e0ec	-0.0018453873
29	0x3aaf2025	0.001336102
30	0xbbae58a6	-0.0053206263
31	0xb8db6189	-0.00010460901
32	0xb8d2e470	-0.0001005613
33	0xbb7100b3	-0.0036774098
34	0x39def3d5	0.0004252481
35	0xbb8d024f	-0.0043032537
36	0xb8b9be38	-8.8569184e-05
37	0xba70869c	-0.0009175332
38	0xbba6b9cf	-0.005088068
39	0xbb3ef259	-0.002913615
40	0xb95640d3	-0.0002043278
41	0xba8243c3	-0.0009938407
42	0xba4000d4	-0.0007324342
43	0x3b1db9d2	0.0024067056
44	0x393d5bfd	0.00018058713
45	0x399c4c14	0.0002981132
46	0x3ad637a9	0.0016343492
47	0xba6806ec	-0.0008851129
48	0xba30f1c9	-0.0006749896
49	0xba964605	-0.0011464959
50	0xbaf837f1	-0.001893757
51	0xbb08ee24	-0.0020893896
52	0xba9fd732	-0.001219487
53	0x3a964166	0.0011463582
54	0xbaf58fce	-0.0018734874
55	0x3a372f7e	0.0006987973
56	0xba30f8c4	-0.0006750936
57	0xbb608efb	-0.003426491
58	0xbafabf11	-0.0019130429
59	0xbb1c7a30	-0.002387654
60	0xbaea1148	-0.0017857933
61	0xbad806f2	-0.0016481562
62	0xba400c67	-0.0007326067
63	0xba4af13a	-0.0007741634
64	0x3a8cc995	0.0010741228
65	0x3aef684a	0.0018265333
66	0x3b3a7970	0.002845373
67	0xbb1e1585	-0.0024121713
68	0x3887e7f0	6.480503e-05
69	0xbbea8259	-0.007156652
70	0xbbb62158	-0.005558174
71	0xbabdf55b	-0.0014492677
72	0x3af9717b	0.0019031012
73	0x3a76da47	0.0009416681
74	0xbb28402f	-0.0025673022
75	0x3aa3a954	0.0012486377
76	0xb8a74341	-7.9757076e-05
77	0xb9fa7cd3	-0.00047776717
78	0x3abee8e7	0.001456526
79	0xbae629aa	-0.0017560024
80	0x3a700824	0.00091564865
81	0x395df4ea	0.0002116744
82	0xb9eedf92	-0.0004556147
83	0xba85567f	-0.0010172873
84	0xbb0ea443	-0.0021765388
85	0x3b0c89e7	0.00214445
86	0xbc08fe78	-0.008361451
87	0xbbd037de	-0.006354316
88	0xbae449da	-0.0017417029
89	0x3b438256	0.0029832325
90	0xbadd8892	-0.0016901663
91	0xbb397143	-0.002829627
92	0x3ac7fc9c	0.0015257779
93	0xbb381fae	-0.0028095054
94	0xba80e0e1	-0.0009832644
95	0x3a5ab4ce	0.0008342982
96	0xba832422	-0.0010005275
97	0xbbb9addc	-0.0056664776
98	0x3af56f7d	0.0018725243
99	0x393b4437	0.00017859122
100	0x395f2099	0.00021279081
101	0xbaea036a	-0.0017853801
102	0xba24f86e	-0.00062931224
103	0x3920ed57	0.00015347205
104	0xbab04a46	-0.001344987
105	0xbae7165f	-0.0017630568
106	0x3ab9f71c	0.0014188024
107	0xbb1b8c4e	-0.002373475
108	0x3a02da93	0.00049916765
109	0xb9cd3ac5	-0.00039144434
110	0x3aa3091f	0.0012438631
111	0xbb34956a	-0.0027554878
112	0xb990abd2	-0.00027593836
113	0xbb5659a1	-0.0032707232
114	0x39a8addd	0.00032172995
115	0xbb29ec21	-0.0025928097
116	0xbaf6e858	-0.0018837554
117	0xbbe59c41	-0.0070071523
118	0xbac48a8a	-0.0014994901
119	0xbb97648b	-0.00462014
120	0xbb0c6306	-0.0021421327
121	0xbbe177d3	-0.0068807392
122	0x37827b93	1.5554751e-05
123	0x392771a5	0.00015968697
124	0xbbc69e08	-0.0060613193
125	0xbb918864	-0.004441308
126	0xb9357776	-0.00017306008
127	0xbaecc8d0	-0.0018065218
128	0xbd5a940e	-0.053363852
129	0xbc2c6b2a	-0.010523597
130	0xbc07a927	-0.008280075
131	0xbc14e77c	-0.009088393
132	0x3d2cd8b7	0.042198863
133	0xbb0e7c02	-0.0021741395
134	0xba225720	-0.0006192792
135	0xbc235f47	-0.009971446
136	0x3c830fd8	0.015998766
137	0xbc9122ce	-0.017716791
138	0xbc4fa47f	-0.012673496
139	0x3d1292a1	0.035784367
140	0x3cb971ce	0.022637274
141	0x3ca8efee	0.02062222
142	0x3d293a1b	0.04131518
143	0x3b95c668	0.004570771
144	0x3c9c0122	0.019043509
145	0x3c6373db	0.013882603
146	0x3a17cce3	0.00057907234
147	0x3d5123a1	0.05105937
148	0x3ac12b13	0.0014737569
149	0x3d7961b5	0.060884196
150	0xbc38d406	-0.011281019
151	0x3bc656ad	0.006052813
152	0x3d5ae38c	0.05343966
153	0x3c04cd5e	0.008105604
154	0x3bcd7cf7	0.0062710005
155	0x3cfa447f	0.03055024
156	0xbc0aef50	-0.008479908
157	0xbc8e6697	-0.017382903
158	0x3d52e0da	0.051483966
159	0x3cec7f14	0.02886919
160	0xbbd99d8a	-0.0066410946
161	0x3b29b508	0.0025895257
162	0xbbe144fa	-0.0068746777
163	0x3d63a80a	0.055580176
164	0xbc9ca4c4	-0.019121535
165	0xba0c9754	-0.0005363126
166	0x3d3d820a	0.046266593
167	0xbc02e218	-0.007988475
168	0xbc5d8d2a	-0.013522426
169	0x3c816c98	0.015798852
170	0x3d14de43	0.036344778
171	0xbc0c0689	-0.00854648
172	0x3adb132c	0.0016714088
173	0x3c92c21b	0.017914822
174	0xbcc757fe	-0.02433395
175	0x3d5a616e	0.053315572
176	0x3bf0b2a6	0.0073455153
177	0xba651719	-0.00087390986
178	0x3bd7596a	0.0065719383
179	0x3c3bfaf3	0.011473405
180	0xbbb8daf3	-0.005641335
181	0x3cb50782	0.022098307
182	0xbbe2a9c8	-0.006917212
183	0xbc0e3cd4	-0.008681495
184	0x3912448a	0.00013949178
185	0xbc880665	-0.016604612
186	0x3bd437bc	0.0064763706
187	0x3d1750cc	0.03694229
188	0x3a3ffdf5	0.00073239143
189	0x3bc0989a	0.0058775665
190	0xb9d6bede	-0.00040959468
191	0xbb65d6d2	-0.003507067
192	0xbd49eb25	-0.049296517
193	0x3cee26fb	0.029071322
194	0x3d2977b1	0.041373912
195	0xbc218425	-0.009858166
196	0x3a8484e8	0.001011041
197	0x3d30ba9c	0.043146715
198	0x3d594ef9	0.05305383
199	0x3cda6a83	0.026662117
200	0xbaa37582	-0.0012470933
201	0xbc9ae82a	-0.018909533
202	0xbc18da6f	-0.009329422
203	0x3d398dcf	0.045301255
204	0x3a9e35f1	0.0012070519
205	0x3d767099	0.060165975
206	0xbca4c225	-0.020112107
207	0x3b84f791	0.0040578325
208	0x3caebffa	0.021331776
209	0xbd22dc8f	-0.039761122
210	0xbca0e13f	-0.019638656
211	0xbc10b4c4	-0.00883216
212	0x3b327841	0.0027232321
213	0xbbd7c048	-0.006584201
214	0x3d2c3fab	0.042052906
215	0x3d0ee0e8	0.034882456
216	0xbc90e4c6	-0.017687213
217	0xbba28e46	-0.004960808
218	0x3cf4b59f	0.02987176
219	0x3b9c1b80	0.0047640204
220	0x3ca5e62a	0.020251352
221	0xbc8809dc	-0.016606264
222	0x3a5db744	0.00084577897
223	0xbccf5b4d	-0.02531209
224	0x3ccf8b8c	0.025335096
225	0x3d4e91c7	0.050431993
226	0xbb345365	-0.0027515527
227	0xbc31b62b	-0.010846655
228	0xbc5a4391	-0.013321773
229	0x3c0a6e3f	0.008449136
230	0x3cfe4131	0.031036945
231	0x3d4e2101	0.050324444
232	0xbbe7f36d	-0.007078579
233	0x3d405c29	0.04696289
234	0x3d189a52	0.037256546
235	0x3c183739	0.00929051
236	0xbca7877a	-0.020450342
237	0xbbd9854d	-0.006638205
238	0xbc62d02f	-0.01384358
239	0xbc4c4faa	-0.012470165
240	0x3d30e563	0.04318751
241	0x3bc203e1	0.0059208726
242	0xba4afa7e	-0.0007743015
243	0x3b9d8a22	0.0048077265
244	0xbc4d85c6	-0.012544101
245	0x3d58422b	0.052797478
246	0x3c3c4574	0.011491168
247	0x3d0a415b	0.033753734
248	0xbadb3399	-0.0016723751
249	0x3d59b83c	0.053154215
250	0x3c8b666c	0.017016612
251	0xba3f2572	-0.00072916516
252	0x3d331718	0.043723196
253	0x3d45d196	0.04829558
254	0xbc773cea	-0.015090207
255	0x3d7c1ad2	0.061549015

policy_model.0.bias f4 [128]
0	0xba95a6c7	-0.0011417501
1	0x3d35b0fe	0.044358246
2	0xbac46173	-0.0014982655
3	0x393d70de	0.00018066491
4	0x37b5ad38	2.1657543e-05
5	0xb91c61c4	-0.0001491374
6	0xbbbb4ee2	-0.0057161907
7	0xbbdfc43c	-0.006828813
8	0x3ad2db74	0.0016087131
9	0xbac48b56	-0.0014995139
10	0xbac4bcc5	-0.0015009871
11	0xbc4c12c5	-0.012455647
12	0xbc6d7f7f	-0.0144957295
13	0x3c6630d7	0.01404973
14	0x398b8804	0.00026613486
15	0x39b460a8	0.0003440429
16	0x3be2eaae	0.0069249487
17	0xbc7655ed	-0.015035135
18	0xbac420f3	-0.0014963433
19	0xbabf163b	-0.0014578769
20	0xbc0c31dc	-0.008556809
21	0xbb936402	-0.004498006
22	0x3bf92329	0.0076030684
23	0xb9c7d1e2	-0.00038112613
24	0xbc50be01	-0.012740613
25	0xbac4b8ee	-0.0015008727
26	0xbc346ae6	-0.011011815
27	0xbc35b881	-0.011091352
28	0xbbfde90f	-0.00774873
29	0xbac46715	-0.0014984334
30	0xbbb91125	-0.0056477957
31	0xbbd03809	-0.006354336
32	0xbc37ec42	-0.011225762
33	0x3a754546	0.0009356331
34	0xbac4b015	-0.001500609
35	0xba912043	-0.0011072237
36	0xba5ee146	-0.0008502196
37	0xba9d2de1	-0.0011991822
38	0xbc7976a4	-0.01522604
39	0xbc479db5	-0.012183596
40	0x3d1664b7	0.036717143
41	0xbc3762c3	-0.01119298
42	0x3bcc0b88	0.0062269606
43	0xbac4869f	-0.0014993733
44	0xbaa81f92	-0.0012826791
45	0x3cad5232	0.021157358
46	0xbc6194b0	-0.01376836
47	0xbbf61994	-0.0075103734
48	0xbbbc4e74	-0.005746657
49	0x3b2699f5	0.0025421355
50	0xbbfef7cd	-0.007781005
51	0xbab3c0eb	-0.001371411
52	0xbb76501d	-0.0037584372
53	0x3b83ec51	0.004025974
54	0xbc1fcd28	-0.009753503
55	0x00000000	0.0
56	0x00000000	0.0
57	0xbb0961fc	-0.0020962944
58	0xbc583623	-0.013196501
59	0xbaa73618	-0.001275721
60	0xbc60aa96	-0.013712546
61	0xbac32dd6	-0.001489098
62	0xbac43828	-0.0014970349
63	0x3b78b021	0.0037946778
64	0x3b947100	0.004530072
65	0xbac4b469	-0.001500738
66	0xbae5f0bb	-0.0017543057
67	0xbc50cd85	-0.012744312
68	0xbb8c1dd9	-0.004276019
69	0xbb8c31fd	-0.00427842
70	0xbb8453d8	-0.0040383153
71	0xbb883f25	-0.004157918
72	0xba8362fd	-0.0010024008
73	0xbba9ae76	-0.005178268
74	0x3a83153b	0.0010000834
75	0xbb767552	-0.003760655
76	0xbac44a0c	-0.0014975681
77	0xbc5581c3	-0.013031426
78	0xbc4c2286	-0.012459403
79	0xbac49e1d	-0.0015000735
80	0xbb21e6a2	-0.0024704118
81	0xbc62b8fe	-0.013838051
82	0xbc571889	-0.013128408
83	0xba0bb014	-0.0005328667
84	0x3babc9a1	0.005242542
85	0xba987412	-0.0011631271
86	0xba5b9c7c	-0.0008377505
87	0x3da7de1c	0.08196661
88	0xbc00f83e	-0.007871686
89	0xbc77416f	-0.015091284
90	0xbac45684	-0.0014979397
91	0xbb6b06e1	-0.0035862254
92	0xb9a1ef72	-0.00030886714
93	0xbba9269b	-0.005162073
94	0xbafbcf58	-0.0019211574
95	0xbbac4987	-0.0052577886
96	0xbc6df74d	-0.014524293
97	0xbac48c64	-0.0014995453
98	0xbc5767be	-0.013147293
99	0xbc579c76	-0.013159862
100	0x3b1e65e6	0.0024169623
101	0xbbf3cb15	-0.0074399807
102	0xbb426cf6	-0.0029666997
103	0xbba74eab	-0.0051058135
104	0xbbd10fe9	-0.0063800705
105	0x3bbe2424	0.005802648
106	0x3cbdbc50	0.023161083
107	0xbbf9ffc6	-0.0076293675
108	0xbaa780b9	-0.0012779451
109	0xbac494cf	-0.0014997962
110	0xb9057020	-0.00012725638
111	0xbc061032	-0.008182572
112	0xbc0627da	-0.008188212
113	0xb8e75986	-0.000110316134
114	0xba34573d	-0.00068794546
115	0xbad8f658	-0.0016552908
116	0xbad9be5d	-0.0016612519
117	0xbc35366d	-0.011060339
118	0xbaa08166	-0.0012245595
119	0xbac298c1	-0.001484655
120	0xbc1cbd0f	-0.009566559
121	0x3ce1aa9d	0.027547175
122	0xbaa8d0ce	-0.0012879611
123	0x3b4b9db7	0.0031069347
124	0xbb6aefe2	-0.0035848548
125	0xbb6b6843	-0.00359203
126	0x3bc89c70	0.0061221644
127	0xbb48bce6	-0.003063017

policy_model.2.weight f4 [8, 128]
0	0xbaecf4da	-0.0018078343
1	0xbcb1d5ec	-0.021708451
2	0x3ae21812	0.0017249605
3	0x3a51f7ba	0.00080096314
4	0xbb00fdb3	-0.0019682467
5	0x3a4ea8f7	0.0007883454
6	0xbc7c2021	-0.0153885195
7	0xbbe7ad70	-0.007070236
8	0x3bb6057a	0.005554852
9	0xb92a76d1	-0.00016256726
10	0xbaee0be8	-0.0018161507
11	0xbbcd2538	-0.0062605403
12	0xbbc29f6e	-0.0059394157
13	0x3b710568	0.0036776904
14	0x3b20a347	0.0024511383
15	0x3a9f5bbd	0.0012158077
16	0x3b720be5	0.003693336
17	0xbbf75ba2	-0.0075487653
18	0x3a8330d2	0.0010009056
19	0xbb29d573	-0.002591458
20	0xbbd116fb	-0.0063809133
21	0xbc043333	-0.0080688475
22	0x3c7f06ea	0.015565613
23	0x3a39311b	0.0007064507
24	0xbc056627	-0.008142031
25	0x3ad74434	0.0016423524
26	0xbb39b818	-0.0028338488
27	0xbbf35ec4	-0.0074270684
28	0xbc819008	-0.01581575
29	0xba5a850a	-0.00083358644
30	0xbc106958	-0.008814178
31	0x39eeeb3a	0.00045570155
32	0xbc1f123c	-0.009708937
33	0xbc2cbaf6	-0.010542622
34	0x3ae6060e	0.0017549412
35	0xbc07f3d0	-0.0082978755
36	0xba97f305	-0.0011592811
37	0x3a8f146e	0.0010916123
38	0xbbfa9626	-0.0076472936
39	0xbc15e9f0	-0.009150013
40	0xbd1f762c	-0.038931057
41	0xbbf0a889	-0.0073443097
42	0x3b635771	0.003468957
43	0xbac9f904	-0.0015409295
44	0x3aa7d78b	0.0012805326
45	0xbd5a4998	-0.05329284
46	0xbc074b26	-0.008257663
47	0xbb662614	-0.0035117911
48	0xbc0619b5	-0.00818484
49	0x3b995b1b	0.00468005
50	0xbc056c25	-0.008143459
51	0xbbb535f2	-0.0055301124
52	0x3b91323c	0.004431037
53	0x3b94cd57	0.00454108
54	0xbbbfaa23	-0.0058491393
55	0xb96c7947	-0.00022551893
56	0x3ae27eb8	0.0017280197
57	0x3aa6058e	0.001266645
58	0xbbf307eb	-0.0074167154
59	0xb7cda102	-2.451288e-05
60	0xbbe4cd53	-0.0069824844
61	0xb9f31eff	-0.00046371666
62	0xba2c07af	-0.0006562424
63	0x3b88256f	0.004154853
64	0xbc0e0f1d	-0.0086705955
65	0x3a86c0a1	0.0010280797
66	0x3a7fc93b	0.00097574637
67	0xbbcdd0fb	-0.006281016
68	0xbbf96a09	-0.0076115173
69	0xbb99c4e3	-0.00469266
70	0xbc0aca97	-0.008471153
71	0xbc1643ce	-0.009171439
72	0xb8839d68	-6.275886e-05
73	0x3b497f73	0.0030746132
74	0x3af366aa	0.0018570025
75	0xba47d4c5	-0.00076229527
76	0x3b16fa64	0.0023037428
77	0xbc0fc655	-0.008775313
78	0xbbb4fae9	-0.005523075
79	0x385eda7b	5.31324e-05
80	0x3ac80915	0.0015261496
81	0xbbc4ed6b	-0.0060097477
82	0xbafe1808	-0.0019385824
83	0x3aa0b631	0.0012261329
84	0x3b8a646c	0.004223397
85	0x3a926599	0.0011169194
86	0xb8e40f03	-0.00010874683
87	0xbd7f5006	-0.062332176
88	0xbbce60b3	-0.0062981485
89	0xbbe2ca54	-0.006921092
90	0x3acdde89	0.001570658
91	0xbbf5b540	-0.0074984133
92	0x3b1fc453	0.0024378493
93	0xbbee11e5	-0.007265317
94	0x3a9b950b	0.001186998
95	0xbc841c48	-0.016126767
96	0xbbd38552	-0.006455102
97	0x3b61cb51	0.0034453461
98	0xbba7c71c	-0.0051201712
99	0xbbf81fb6	-0.0075721396
100	0x3b74c6f6	0.0037350035
101	0xbbf271e8	-0.0073988326
102	0x3b3739c5	0.0027958017
103	0x399035fa	0.00027506036
104	0x3882f504	6.244521e-05
105	0x3b6aad2f	0.0035808792
106	0xbafe325d	-0.0019393672
107	0xbc05c8dc	-0.008165564
108	0xb8c1f76d	-9.249044e-05
109	0x3b13ff4e	0.0022582593
110	0xbbf05f4e	-0.00733558
111	0xbba01e97	-0.004886459
112	0xbb4f0762	-0.0031590094
113	0xb8cd2cbe	-9.7834956e-05
114	0x3b7e8238	0.003883494
115	0x3a46bf50	0.00075816084
116	0xb9a9aefc	-0.00032364565
117	0xbbe2c474	-0.0069203917
118	0x3a7c19c1	0.0009616875
119	0xb9a632c2	-0.00031699805
120	0xbc01bc09	-0.007918366
121	0xbd575023	-0.05256666
122	0xb9c64200	-0.00037814677
123	0xbb377bd4	-0.0027997391
124	0xb8fdc74a	-0.000121011006
125	0xbb0bce88	-0.002133282
126	0x3b96411a	0.0045853974
127	0x3a5ec19f	0.000849748
128	0x3a8aeb8a	0.001059876
129	0x3c5fa185	0.013649349
130	0xba2b4510	-0.00065334234
131	0xba3922b2	-0.000706236
132	0x39d844fa	0.00041250122
133	0xba71471d	-0.0009204017
134	0x3ce1541b	0.027505925
135	0xbc312d2c	-0.0108139925
136	0xbc0a28b4	-0.008432556
137	0xb9389f64	-0.00017606985
138	0x3b55b746	0.003261046
139	0xbc12d463	-0.00896177
140	0xbc0dab66	-0.008646822
141	0xbbe21328	-0.0068992563
142	0xbb28db27	-0.002576539
143	0xbbaa6ba2	-0.005200819
144	0xbb1f76ef	-0.0024332365
145	0xbc08a889	-0.008340963
146	0x3af2f9d7	0.0018537593
147	0xba6404d0	-0.0008698227
148	0xbc4256cc	-0.011861514
149	0xbc27b6d1	-0.010236458
150	0xbc1114c1	-0.008855046
151	0xba02a567	-0.00049837533
152	0xbc0c4830	-0.008562133
153	0x3a547c1a	0.0008105651
154	0xbb5ed0b6	-0.0033998913
155	0xbbfccdb1	-0.00771495
156	0x3b445af1	0.0029961432
157	0xbac6b818	-0.0015161065
158	0xbc273bc0	-0.010207117
159	0x3b36581a	0.0027823509
160	0xbbf8b5be	-0.0075900247
161	0xbbbe8a98	-0.0058148615
162	0x3a0fcbd1	0.0005485388
163	0xbc1fa630	-0.009744212
164	0x3a868014	0.0010261559
165	0xbaaf9e0d	-0.0013398543
166	0xbc08e6ec	-0.008355837
167	0xbc38e44d	-0.0112849
168	0x3d130375	0.03589197
169	0xbc274e5d	-0.010211554
170	0xbbb5b1f8	-0.005544897
171	0x3b2bfcf5	0.0026243303
172	0x392e1a42	0.00016603715
173	0xbd106a93	-0.035257887
174	0xbc0c2461	-0.008553595
175	0xbb0c050d	-0.0021365315
176	0xbc0fb8f6	-0.0087721255
177	0xbc00624c	-0.007835936
178	0xbc50eacf	-0.012751295
179	0xba8f88df	-0.0010950825
180	0xbb8a6349	-0.0042232615
181	0xbbe72e06	-0.007055047
182	0xbc247df0	-0.010039791
183	0x3ac69bbc	0.0015152614
184	0x3afc2ca1	0.0019239375
185	0x3ac66496	0.0015136178
186	0xbbee5c6d	-0.0072742016
187	0xba2718c9	-0.0006374238
188	0xbc1236ad	-0.008924169
189	0x397c4863	0.00024059559
190	0xbab1f02a	-0.0013575603
191	0xbc0a59d3	-0.008444267
192	0xbc01dce3	-0.007926199
193	0xba3c88cf	-0.0007192017
194	0xb9e66292	-0.0004394246
195	0xbc076d67	-0.00826583
196	0xbc102a11	-0.008799092
197	0xbba23f09	-0.004951362
198	0xbbf7c0ba	-0.0075608166
199	0xbc17e37c	-0.009270545
200	0xbaf45d63	-0.0018643554
201	0x3ad8bd0c	0.0016535833
202	0xbb89d806	-0.00420666
203	0xba7fab48	-0.0009753001
204	0x3b6be864	0.003599667
205	0xbc0be1d6	-0.00853773
206	0xbc27eb92	-0.010249035
207	0xbab434a8	-0.0013748603
208	0xb8c8a3dd	-9.567265e-05
209	0xbc091c35	-0.0083685415
210	0xbb39cf03	-0.0028352148
211	0xbaa0a434	-0.0012255968
212	0xbbe3a5ea	-0.0069472687
213	0xba8e155f	-0.0010840109
214	0x3abbca77	0.0014327307
215	0x3bef2a89	0.0072987718
216	0xbc1fbeff	-0.009750127
217	0xbc202f34	-0.009776879
218	0x3ad21d9d	0.0016030554
219	0xbb2e8639	-0.0026630296
220	0xb8f10eb4	-0.00011494514
221	0xbc2cb987	-0.01054228
222	0xb9b4a35c	-0.00034453988
223	0x3af9e44e	0.0019065232
224	0xbc002d6f	-0.007823332
225	0x39e137fd	0.0004295706
226	0xbc05b100	-0.008159876
227	0xbc0fd362	-0.008778425
228	0xbbd9c067	-0.0066452506
229	0xbc294116	-0.010330459
230	0x3b81a8f8	0.00395691
231	0xb8aa7c00	-8.1293285e-05
232	0x3be4c326	0.0069812713
233	0xbbceeecf	-0.0063150893
234	0xbcd58b40	-0.026067376
235	0xbbf8531e	-0.0075782677
236	0xba3c59db	-0.00071850204
237	0xba5b67e7	-0.00083696697
238	0xbc139cea	-0.009009579
239	0xbb79eca1	-0.0038135427
240	0xbb0f5a97	-0.0021874064
241	0x392782a9	0.00015975036
242	0x3b080f96	0.0020761243
243	0xbb7857b5	-0.0037894074
244	0x3b1d22d9	0.002397707
245	0xbc13ae45	-0.009013717
246	0xba79c34e	-0.0009527699
247	0xb8ee939b	-0.00011376218
248	0xbc069304	-0.008213762
249	0xbceef49a	-0.02916937
250	0x3920ab02	0.00015322494
251	0x3b183c24	0.0023229206
252	0xbaa4330b	-0.0012527419
253	0xbb443b73	-0.002994266
254	0xbc027cf9	-0.007964366
255	0xbae55fb8	-0.001749984

policy_model.2.bias f4 [8]
0	0xbc94b3bf	-0.018152116
1	0xbbc37af2	-0.005965584
2	0x3d09baba	0.033625342
3	0x3be68f5c	0.0070361327
4	0xbbdd45b0	-0.006752692
5	0x3a4d4761	0.00078307657
6	0x3c8f8bb4	0.01752267
7	0xbce888a4	-0.028385468
