results/short_race/second_iteration_training/model331.pt (torch, 276107 bytes, 13 tensors)

features_model.0.weight f4 [128, 4]
0	0xbd81cfd1	-0.06338466
1	0x3e20acf6	0.1569098
2	0x3d8d4b6f	0.068991534
3	0xbe63b4b3	-0.222369
4	0x3cb4121c	0.021981291
5	0xbd881466	-0.06644516
6	0xbb840cbb	-0.004029838
7	0x3d808525	0.06275395
8	0x3e34d416	0.1765903
9	0x3ca4b571	0.02010605
10	0xbd2af22c	-0.04173486
11	0x3e3dd8b4	0.18539697
12	0x3e32f2c7	0.17475425
13	0xbd9a78b0	-0.075425506
14	0xbd6b9361	-0.0575136
15	0xbd8853aa	-0.06656583
16	0x3d3f295c	0.046670303
17	0xbc212bcb	-0.009837101
18	0x3cfd0dee	0.030890431
19	0xbdc9581f	-0.09831261
20	0x3d8b3d3b	0.06798788
21	0x3d367b9a	0.04455147
22	0x3e708c83	0.23491101
23	0xbe35ab79	-0.17741193
24	0xbe50f05d	-0.20404191
25	0x3c27b7d5	0.0102367
26	0x3d63214a	0.05545167
27	0x3e20d0f2	0.15704706
28	0xbd6ace44	-0.057325616
29	0x3da52521	0.080637224
30	0x3d38f620	0.045156598
31	0x3e2258d3	0.15854196
32	0xbe3e0c15	-0.18559296
33	0x3d308df4	0.043104127
34	0x3dfcb4b5	0.12339155
35	0x3b966230	0.0045893416
36	0xbda3d057	-0.07998722
37	0x3e1c6527	0.15272962
38	0x3d28f5dc	0.041250095
39	0xbe8fddaa	-0.28098804
40	0x3d2c44da	0.04205785
41	0x3e1e19f6	0.15439591
42	0x3e38918a	0.18024269
43	0x3d88e98f	0.06685173
44	0x3e174db4	0.14775735
45	0xbdd6a8ff	-0.10481452
46	0x3e253d14	0.1613658
47	0x3da2b131	0.07943953
48	0x3e234a64	0.15946347
49	0x3e6ee8fc	0.23331064
50	0x3cea79bd	0.028622502
51	0xbe0015ed	-0.12508364
52	0xbe251589	-0.16121496
53	0xbd770097	-0.060303297
54	0xbe126216	-0.1429523
55	0x3ba12f68	0.0049189813
56	0xbdef98f0	-0.116990924
57	0x3e569404	0.20954901
58	0xbd11cb54	-0.0355943
59	0x3e0d4c2b	0.13798587
60	0xbe55f669	-0.2089478
61	0xbd1ac75c	-0.03778778
62	0xbe982006	-0.29711932
63	0x3d0cf901	0.034417156
64	0x3df41bcd	0.11919365
65	0xbbfb6b9a	-0.007672739
66	0x3c695817	0.014242194
67	0xbe062b75	-0.13102515
68	0xbd6f2a96	-0.058390222
69	0xbe6e39b2	-0.23264197
70	0xbdffe075	-0.12493984
71	0xbcff29b0	-0.031147808
72	0xbe074054	-0.13208133
73	0x3d58aa0e	0.05289655
74	0xbda7b5cf	-0.08188974
75	0xbdf0fe7b	-0.11767288
76	0xbdac2836	-0.08406107
77	0xbdef1973	-0.11674776
78	0xbe840b65	-0.25789943
79	0xbe2be886	-0.1678792
80	0x3da45054	0.08023134
81	0xbdcd583d	-0.10026596
82	0xbe02f723	-0.12789588
83	0x3c5b96e4	0.013402674
84	0xbe7da919	-0.24771537
85	0xbe23960e	-0.1597521
86	0x3e470a75	0.19437583
87	0xbb96bbfb	-0.0046000457
88	0x3d60f8b6	0.05492469
89	0x3dfbbdaf	0.12292039
90	0xbdc116d1	-0.0942818
91	0xbd4964ec	-0.049168512
92	0xbe6785f3	-0.22609691
93	0xbdc4c965	-0.096087255
94	0xbdd76676	-0.1051759
95	0x3d86fe5d	0.06591485
96	0x3d478ad1	0.04871637
97	0x3e02afc9	0.12762369
98	0x3e02a00c	0.12756366
99	0xbe802a99	-0.250325
100	0xbec3ff31	-0.38280633
101	0xbe53cec1	-0.20684339
102	0x3da32915	0.0796682
103	0xbd8a25b4	-0.067454726
104	0x3e79541f	0.24348496
105	0x3e9b41fc	0.3032378
106	0xbce617c0	-0.028087497
107	0x3e2691aa	0.16266504
108	0xbdaff05e	-0.08590768
109	0xbda27dae	-0.07934128
110	0xbdd57f8e	-0.1042472
111	0xbccd2d7c	-0.025046103
112	0xbbbdd4ec	-0.0057932045
113	0x3d9f6f00	0.077848434
114	0xbe07a776	-0.13247475
115	0x3e7c31bb	0.24628346
116	0x3ddab5d5	0.10679213
117	0x3d7f68d3	0.062355828
118	0xbdfcc510	-0.12342274
119	0xbd82fdc2	-0.06396057
120	0x3e3477ab	0.17623775
121	0x3ddfe0ec	0.10931572
122	0x3e2db36e	0.16962978
123	0x3d9a36e5	0.075300016
124	0x3df347a8	0.11878902
125	0x3d9c4d0b	0.07631882
126	0x3de5d105	0.11221508
127	0x3e1f57ac	0.15560788
128	0x3e40e5a7	0.18837605
129	0xbe8031af	-0.25037906
130	0x3d4f4da3	0.05061115
131	0x3df12883	0.11775305
132	0x3e3d2de0	0.18474531
133	0xbcd247a4	-0.025668927
134	0x3df76276	0.12079327
135	0xbd27f2a2	-0.041002877
136	0x3d06411a	0.03277693
137	0x3d625462	0.055256255
138	0x3e6f9594	0.23396903
139	0x3e25fa36	0.16208729
140	0x3d8dd468	0.06925279
141	0xbdc55a66	-0.09636383
142	0xbc684e1f	-0.014178782
143	0xbe2118e5	-0.15732153
144	0xbdbd3dcd	-0.09240303
145	0xbdb3b499	-0.08774681
146	0x3d9e803c	0.077393025
147	0xbca44ea7	-0.020057036
148	0xbd98e43e	-0.07465409
149	0xbdbfbff8	-0.09362787
150	0x3a53501d	0.0008060949
151	0x3dfa8f26	0.12234335
152	0xbe532a60	-0.20621634
153	0x3d4d8c72	0.050182767
154	0x3d9ea7c5	0.07746843
155	0x3df77850	0.12083495
156	0x3d7ae9e1	0.0612582
157	0x3c7c26c2	0.0153901
158	0x3df87105	0.12130932
159	0x3e865a66	0.26240844
160	0xbd9d0e29	-0.076687165
161	0x3da631e0	0.08114982
162	0xbe0ac767	-0.13552628
163	0x3e4ce946	0.20010862
164	0xbd596cdf	-0.053082343
165	0xbd02810d	-0.031861354
166	0x3c060b1a	0.008181358
167	0xbe5bec4f	-0.21476863
168	0x3d8a48f7	0.06752198
169	0xbd28acd7	-0.041180458
170	0xbd5cea8b	-0.053934615
171	0xbe0d6372	-0.13807467
172	0xbdfa7c46	-0.122307345
173	0x3d8a2846	0.06745963
174	0x3e01ee23	0.12688498
175	0x3c784a3f	0.01515442
176	0xbd030233	-0.03198452
177	0x3e1a0b5f	0.150434
178	0x3d53076e	0.051520757
179	0xbd424948	-0.047433168
180	0xbd25cdb9	-0.040479396
181	0xbdda91ac	-0.10672316
182	0xbd8922a2	-0.06696059
183	0x3dfecaae	0.12441002
184	0x3dd2275c	0.102614135
185	0xbaae26f2	-0.0013286753
186	0x3ec4d9de	0.3844747
187	0xbde5ed8c	-0.11226949
188	0x3c04c2ae	0.008103056
189	0xbc04c847	-0.00810439
190	0x3df5081b	0.119644366
191	0xbc53cf07	-0.012927777
192	0xbe550ca9	-0.2080561
193	0xbbfbd577	-0.007685359
194	0xbe133cd5	-0.14378674
195	0xbb575a1c	-0.0032860106
196	0x3e6df711	0.2323878
197	0xbe000739	-0.12502755
198	0x3d3c9bd9	0.046047065
199	0x3ddebceb	0.10875877
200	0xbe4f787f	-0.2026081
201	0xbd92505a	-0.07144232
202	0x3d07e0d2	0.03317339
203	0x3e18aaa7	0.14908849
204	0xbe9910f3	-0.29895744
205	0x3dcd3ac9	0.10020978
206	0x3e3803b6	0.17970166
207	0x3cb1b49a	0.021692563
208	0x3e4ecad6	0.20194563
209	0x3e8dcefe	0.27696985
210	0xbd8fafd1	-0.07015956
211	0xbd843c0e	-0.06456767
212	0x3e5ea392	0.21742085
213	0xbd580e48	-0.052747995
214	0xbd65ae28	-0.05607429
215	0xbd1815c3	-0.03713013
216	0x3d7f92b9	0.062395785
217	0xbb94b20e	-0.0045378273
218	0x3dbba6b6	0.09162657
219	0xbc4f58e5	-0.012655471
220	0x3e183f20	0.1486783
221	0xba64b2d4	-0.0008724157
222	0x3e47677b	0.19473068
223	0x3ea2850f	0.3174214
224	0x3e18c56b	0.14919059
225	0x3cacabcf	0.021078018
226	0x3b0e25c3	0.0021689988
227	0xbdc714df	-0.09720778
228	0xbd6be589	-0.05759195
229	0x3dc34751	0.09535087
230	0x3e04c764	0.12966686
231	0x3c03b481	0.008038641
232	0xbd9451ab	-0.072421394
233	0x3ca44140	0.020050645
234	0xbd6f798e	-0.058465533
235	0x3cf75a11	0.030194314
236	0x3e0a467e	0.13503453
237	0x3dadc348	0.084845126
238	0x3e1215c7	0.1426612
239	0x3e518fd1	0.20465018
240	0xbe02a0e2	-0.12756684
241	0x3d8c8a5d	0.06862328
242	0x3c4835e5	0.012219881
243	0x3e1ad640	0.15120792
244	0x3ced790a	0.02898838
245	0xbd8fbbd4	-0.07018247
246	0xbe0a2553	-0.134908
247	0x3e552e7c	0.20818514
248	0xbdb7224f	-0.08942091
249	0x3dd365b2	0.10322131
250	0x3d572e3e	0.052534334
251	0xbe8dbb8c	-0.2768215
252	0xbe5028cf	-0.20328067
253	0x3dcf8c74	0.10134211
254	0xbcfda7bc	-0.030963771
255	0xbdd4b4f7	-0.10386079

features_model.0.bias f4 [128]
0	0xbb530eb8	-0.0032204818
1	0xbc81ce7a	-0.015845526
2	0x3941c73d	0.00018480136
3	0xbce6b088	-0.028160349
4	0x3d7f0feb	0.06227104
5	0x3d0209a4	0.031747475
6	0xbca69bc2	-0.020337943
7	0x3907bc77	0.00012944812
8	0xbba00745	-0.004883679
9	0xbcaa302c	-0.020774923
10	0x3c976d4d	0.018484736
11	0xbba1acea	-0.004933943
12	0x3c4c77ac	0.012479704
13	0xbd07e69e	-0.033178918
14	0xbcb747d0	-0.02237311
15	0x3c2933ef	0.010327323
16	0x3d521f60	0.051299453
17	0xbcdaf9a4	-0.026730366
18	0xbd6235be	-0.055227034
19	0xbb310421	-0.0027010518
20	0xbd01d369	-0.031695757
21	0xbd368d78	-0.04456851
22	0x3c8657a0	0.016399205
23	0xbc9f6f6c	-0.01946231
24	0x3c1391c6	0.009006923
25	0xbca190f8	-0.019722447
26	0x3c1555cd	0.009114695
27	0x3993e618	0.00028209458
28	0x3c92f93a	0.017941106
29	0x3d22f425	0.039783616
30	0x3d4a64c3	0.0494125
31	0x3d32632e	0.043551616
32	0xbc1caee5	-0.0095631825
33	0x3cfcb907	0.030849947
34	0xbbc94311	-0.006142028
35	0x3c9477ad	0.018123472
36	0xba3e7bea	-0.00072663894
37	0xbc5a1bcc	-0.013312291
38	0xbc4254e8	-0.011861064
39	0x3c793c27	0.015212095
40	0x3d1c1efe	0.038115494
41	0x3b4a1b12	0.003083889
42	0x3d0e096f	0.034676965
43	0xbcc3b5b5	-0.023890356
44	0xbc2499d3	-0.01004644
45	0xbcc75d1b	-0.024336388
46	0x3d2d3209	0.042284045
47	0x3cc1ded8	0.02366583
48	0xbc849087	-0.016182197
49	0x3d166ae9	0.03672305
50	0xbc9c6d6c	-0.019095145
51	0x38d8ed5a	0.00010343893
52	0x3d21c9d6	0.039499126
53	0x3d03db30	0.032191455
54	0x3d537457	0.051624622
55	0xbc7c7c63	-0.0154105155
56	0x3cf81744	0.030284531
57	0x3b201369	0.0024425632
58	0xbc6f896d	-0.014620167
59	0x3cfbd136	0.030739408
60	0xbc3c27ac	-0.011484068
61	0xbd25bf6a	-0.04046575
62	0x3bdbf845	0.0067129456
63	0xbc6adb0d	-0.014334452
64	0xbcd3c957	-0.025852842
65	0xbc4d3e25	-0.012527023
66	0xbca03908	-0.019558445
67	0x3c0a4ab1	0.008440659
68	0x3ca6252b	0.020281395
69	0xbc472cf6	-0.012156716
70	0xbd74cf8b	-0.05976824
71	0xbce2404f	-0.027618555
72	0xbcebbb55	-0.02877585
73	0xbcfa59c4	-0.030560382
74	0xbd1e6a9a	-0.038675882
75	0xbd12f0c6	-0.03587415
76	0x3ba55bf9	0.0050463644
77	0x3d69d3d4	0.05708678
78	0xbbe83885	-0.007086816
79	0x3c4a919c	0.012363818
80	0xbd050d51	-0.032483403
81	0xbcf72fc6	-0.030174147
82	0x3c97c055	0.018524328
83	0xbc954b5e	-0.018224414
84	0xbd1fbc90	-0.038998187
85	0xbc755862	-0.014974685
86	0x3d2c2a08	0.04203227
87	0x3d55d653	0.05220635
88	0x3d294a3e	0.04133057
89	0xbcb28597	-0.021792216
90	0xbc97174d	-0.018443728
91	0xbb25175b	-0.0025190923
92	0xbcba779d	-0.022762114
93	0xbca24803	-0.019809728
94	0xbb282452	-0.0025656414
95	0x3cbdfc60	0.02319163
96	0xbd211375	-0.039325196
97	0x3a8de430	0.0010825451
98	0xbc359ed3	-0.01108523
99	0x3aca4c4e	0.0015434118
100	0xbccced93	-0.025015628
101	0x3c1fc946	0.009752577
102	0x3da55cfb	0.08074375
103	0xbc8d2458	-0.017229244
104	0xbc9bafcc	-0.019004725
105	0x3baa2c3d	0.005193262
106	0xbd023e0f	-0.031797465
107	0xbc1e25e0	-0.009652585
108	0xbc6924cb	-0.0142299635
109	0xbc905cdb	-0.017622402
110	0xbcf03052	-0.029319916
111	0xbcadd867	-0.021221353
112	0xbce4745d	-0.027887518
113	0x3d3b799a	0.045770265
114	0x3d0d8562	0.034551032
115	0x3be9fce4	0.0071407426
116	0x3ccd776e	0.025081363
117	0xbbca37c0	-0.0061711967
118	0xbb7a9814	-0.0038237618
119	0xbcb5c5c9	-0.022189038
120	0xbcc05769	-0.02347918
121	0x3d097488	0.0335584
122	0x3d17d6aa	0.037069954
123	0xbbf852b7	-0.0075782198
124	0xbcb1cc78	-0.021703944
125	0xbc41a516	-0.011819145
126	0x3c1b990a	0.009496937
127	0xbb4a7c49	-0.0030896834

features_model.2.weight f4 [128, 128]
0	0x3e357c96	0.17723307
1	0xbd82f9ef	-0.06395327
2	0xbd8985e5	-0.067149915
3	0x3de7848c	0.11304578
4	0x3e2e603c	0.17028898
5	0x3d563487	0.052296188
6	0xbd767dea	-0.060178675
7	0xbe0cd469	-0.13752903
8	0x3c15e643	0.009149137
9	0x3c0349b6	0.0080131795
10	0xbc9eafad	-0.019370878
11	0xbc1141b1	-0.00886576
12	0xbcd6b76d	-0.026210511
13	0x3d2a44c1	0.041569475
14	0xbde2feb8	-0.1108374
15	0x3dd6b6a1	0.104840524
16	0xbe09d9b9	-0.13461961
17	0x3dab6148	0.08368164
18	0xbd601737	-0.05470964
19	0xbdc7c77d	-0.09754846
20	0x3dd4dcef	0.10393702
21	0x3d50f801	0.051017765
22	0xbb03eebc	-0.002013131
23	0xbd5378ca	-0.051628865
24	0x3d3d69b0	0.04624337
25	0xbdfb1d04	-0.12261394
26	0xbd53d90b	-0.05172066
27	0x3e8cdad5	0.27510706
28	0xbbacfb54	-0.005278984
29	0xbddb7ab9	-0.10716767
30	0x3b62e403	0.003462077
31	0x3d66fcac	0.05639331
32	0x3e46f1a2	0.19428113
33	0xbca0a234	-0.019608594
34	0xba87948f	-0.0010343957
35	0x3c056d24	0.008143697
36	0xbdc9c977	-0.098528795
37	0xbe649bfb	-0.22325127
38	0xbe512e26	-0.2042776
39	0x3d05b532	0.032643504
40	0x3e1fbb22	0.15598729
41	0x3b6dd7c3	0.0036291934
42	0x3e42e1bd	0.19031425
43	0x3db2086a	0.08693011
44	0x3da89aee	0.082326755
45	0x3e1d021a	0.15332833
46	0xbd342e9c	-0.043989763
47	0xbc15419b	-0.00910988
48	0x3e2b59d1	0.16733481
49	0x3e95d12e	0.29261154
50	0x3e14f992	0.14548329
51	0x3e423ac2	0.18967727
52	0xbdfbf0c2	-0.1230178
53	0xbd27af9a	-0.04093895
54	0xbd995242	-0.074863926
55	0xbe62784f	-0.22116207
56	0xbd7e4281	-0.06207514
57	0xbde6de6a	-0.11272891
58	0xbd70b20e	-0.058763556
59	0x3db561de	0.08856557
60	0x3ddc4de8	0.10757047
61	0x3e9a2461	0.3010588
62	0x3d0f4b8e	0.034984164
63	0xbe736389	-0.23768438
64	0x3e573ad9	0.21018542
65	0x3d2fcb7b	0.042918663
66	0xbdc7916a	-0.097445324
67	0xbd735b60	-0.059413314
68	0xbdaa79c6	-0.08324008
69	0x3dac5886	0.08415322
70	0x3dc26ee4	0.09493807
71	0xbe593463	-0.2121139
72	0xbe61a0e6	-0.22034034
73	0xbe0d931b	-0.13825648
74	0xbde7757d	-0.11301706
75	0xbd100c32	-0.03516788
76	0xbcfdf774	-0.031001784
77	0x3d3e4152	0.046449013
78	0xbdc27449	-0.09494836
79	0xbe9f5e7f	-0.31126782
80	0x3d48ced7	0.049025383
81	0x3dba478e	0.09095679
82	0xbde3cbd0	-0.111228585
83	0x3d09c3dc	0.03363405
84	0x3e4e23e0	0.20130873
85	0x3e470082	0.19433787
86	0xbe09c61d	-0.1345448
87	0xbd98dfea	-0.07464583
88	0x3d60e1d3	0.054902863
89	0x3d58d048	0.052933007
90	0xbe703450	-0.23457456
91	0xbda85f2e	-0.08221279
92	0x3e333396	0.17500147
93	0xbd7b21b0	-0.061311424
94	0xbd0b853c	-0.03406261
95	0xbdf5c0b1	-0.119996436
96	0xbd8e97bc	-0.06962535
97	0x3dfd048f	0.12354385
98	0x3e542001	0.20715334
99	0xbe3db14f	-0.18524669
100	0x3e0471e8	0.12934077
101	0xbbef6e2b	-0.007306834
102	0x3db35c1c	0.08757803
103	0x3e91e5e6	0.2849571
104	0x3e3073e0	0.17231703
105	0xbbf989b0	-0.0076152906
106	0xbe35c538	-0.17751014
107	0xbe0c1c9b	-0.13682787
108	0xbdf92910	-0.12166035
109	0x3e2b210a	0.16711822
110	0xbd4b1fb9	-0.0495908
111	0x3e3cc3e1	0.18434097
112	0xbdb44515	-0.08802239
113	0xbe402924	-0.18765694
114	0xbd3fd5f2	-0.046834894
115	0xbcbc5d99	-0.02299385
116	0x3d18ce88	0.03730634
117	0xbe073631	-0.13204266
118	0xbd37d762	-0.04488314
119	0xbe19ed9a	-0.15032044
120	0xbd45f10d	-0.048325587
121	0x3c1566af	0.00911872
122	0xbd98822d	-0.07446704
123	0x3d54bcc8	0.05193785
124	0xbd2c0e21	-0.042005662
125	0x3d6d1f89	0.057891402
126	0x3daac5ec	0.08338532
127	0xbd981087	-0.07425027
128	0xbd81dd65	-0.06341056
129	0x3d973aea	0.07384284
130	0x3d88c37d	0.066779114
131	0x3c8814b4	0.016611435
132	0xbd8e8466	-0.06958847
133	0x3da2a2d9	0.07941217
134	0x3da0d487	0.078530364
135	0xbe23fcca	-0.160144
136	0x3dceae78	0.10091871
137	0xbe859b75	-0.26095167
138	0xbe2a8be9	-0.16654934
139	0x3dd3a57a	0.103342965
140	0x3bc28ea9	0.0059374166
141	0x3cb75549	0.022379534
142	0x3e0ef552	0.1396077
143	0xbd44c5e0	-0.04804027
144	0xbc9f8d6b	-0.019476613
145	0x3d0d98fd	0.03456973
146	0x3d6c473d	0.057685126
147	0xbdb74028	-0.08947784
148	0xbcc4c1ac	-0.024018131
149	0xbe22c76b	-0.15896384
150	0xbe0566f4	-0.13027555
151	0x3db422c0	0.087956905
152	0xbd922643	-0.07136204
153	0xbdd0a2df	-0.10187315
154	0xbe21d4f7	-0.15803896
155	0xbcf718e0	-0.030163229
156	0x3e8732ad	0.2640585
157	0xbe2c131a	-0.16804162
158	0xbeb3268b	-0.34990343
159	0xbdca8348	-0.09888321
160	0x3d60c028	0.054870754
161	0x3c899aef	0.01679751
162	0xbdf989e3	-0.12184503
163	0xbd691dca	-0.056913175
164	0x3d7c0324	0.061526433
165	0xbb972a54	-0.0046132
166	0x3e27700e	0.16351339
167	0xbc84e3e8	-0.016221955
168	0x3de60c95	0.112328686
169	0xbe46c649	-0.19411577
170	0x3c87b94d	0.01656785
171	0x3dea7364	0.1144779
172	0x3c31c03c	0.010849055
173	0xbd5b360a	-0.053518333
174	0x3d36e326	0.04465022
175	0x3e804e6e	0.25059837
176	0xbe1112f4	-0.14167386
177	0x3d01f973	0.031732034
178	0x3cca0751	0.024661692
179	0xbd1b7712	-0.03795535
180	0x3d0e382d	0.034721542
181	0x3dba159d	0.09086154
182	0x3c34a250	0.011025026
183	0x3d9259cc	0.07146034
184	0x3cbfd332	0.023416135
185	0x3dddf0dc	0.10836956
186	0xbdbb6f82	-0.09152128
187	0x3d1e21ef	0.03860658
188	0x3e60b121	0.2194257
189	0xbd4c8da3	-0.049939763
190	0xbe75064b	-0.23928182
191	0x3e9dd60a	0.3082736
192	0x3d6f71fd	0.058458317
193	0x3b9e5edb	0.004833085
194	0x3b999886	0.0046873717
195	0xbd9af49f	-0.07566189
196	0x3cb741e9	0.022370296
197	0x3e6e506c	0.23272866
198	0xbe88ecf3	-0.26743278
199	0xbd0d3e94	-0.034483507
200	0x3d8a23cb	0.06745108
201	0x3dc07451	0.093971856
202	0xbe3694ca	-0.17830196
203	0x3e086d8f	0.13323043
204	0x3b7f18d7	0.0038924718
205	0xbc76a0a7	-0.015052951
206	0xbdc8ca6d	-0.09804235
207	0x3df4d150	0.11953986
208	0x3ba984e0	0.0051733106
209	0x3e23a5a1	0.15981151
210	0x3d5c0765	0.05371799
211	0x3e9613fc	0.29312122
212	0x3d1b1d93	0.03787
213	0xbc0e2b82	-0.008677365
214	0xbe2e28a5	-0.17007692
215	0x3d788ef8	0.06068322
216	0x3e73b95d	0.23801179
217	0xbc221c9c	-0.009894516
218	0xbd2f2280	-0.04275751
219	0xbbd7f9e8	-0.0065910704
220	0x3ce07211	0.027398141
221	0x3cab19ac	0.020886265
222	0x3e0eb369	0.13935627
223	0xbe1360c3	-0.1439238
224	0xbcb35a41	-0.021893622
225	0xbdd12aed	-0.102132656
226	0x3e2c02e6	0.1679798
227	0xbddf97b5	-0.10917608
228	0x3d46e3b8	0.048557013
229	0xbdbbacc0	-0.09163809
230	0xbeab48a1	-0.3345385
231	0x3c8c1550	0.017100006
232	0xbd781590	-0.06056744
233	0xbd46e41e	-0.048557393
234	0xbe471c7b	-0.19444458
235	0x3e64e05c	0.22351211
236	0xbdd277fa	-0.1027679
237	0xbcffe1fc	-0.031235687
238	0xbc851b63	-0.01624841
239	0x3e14d398	0.14533842
240	0xbd7ebe1e	-0.06219303
241	0xbe4ee760	-0.2020545
242	0x3d5eaeef	0.05436605
243	0xbdcc7b52	-0.09984459
244	0x3e378409	0.17921461
245	0x3dd4c8b6	0.10389845
246	0x3e0d9429	0.1382605
247	0xbdc1731f	-0.09445786
248	0xbc345d15	-0.011008521
249	0x3db1b964	0.086779386
250	0x3e548179	0.20752515
251	0xbc6a40aa	-0.014297644
252	0xbe31382e	-0.17306587
253	0xbe746bb9	-0.23869218
254	0xbd03c09a	-0.0321661
255	0x3d8e4e01	0.06948472

features_model.2.bias f4 [128]
0	0xbc073455	-0.008252223
1	0x3c53a1b3	0.01291697
2	0xbc1ad4f8	-0.00945019
3	0xbd1b9533	-0.037984084
4	0xbc945e9a	-0.018111516
5	0x3c873feb	0.01650997
6	0xbbcc50ba	-0.0062352093
7	0x00000000	0.0
8	0x3c912480	0.0177176
9	0x38b4e74c	8.626151e-05
10	0xbca79a3b	-0.020459285
11	0x3ce84280	0.028352022
12	0xbc07eaea	-0.008295754
13	0xbc4a0a3c	-0.012331542
14	0xbbd74a21	-0.006570116
15	0x3c3b4461	0.011429877
16	0xbba45406	-0.005014899
17	0x3cef58d8	0.029217169
18	0xbc36ed97	-0.011165044
19	0x3da1eabe	0.07906102
20	0xbb868dc6	-0.004106256
21	0x3c6e37ed	0.014539701
22	0xba8f5fc8	-0.0010938579
23	0xbd2aceef	-0.041701254
24	0x3bc2eb17	0.005948435
25	0xbc6a05f4	-0.014283646
26	0xbc20fcdf	-0.009825914
27	0xbc398e06	-0.011325365
28	0xbc9d90a3	-0.019234007
29	0xbc8f4d57	-0.017492933
30	0xbc913396	-0.017724793
31	0xbc82d136	-0.0159689
32	0xbc1c037b	-0.009522314
33	0x3d8595d0	0.06522715
34	0xbc0e61c8	-0.008690305
35	0x3d5f0fa9	0.054458294
36	0xbca21cb9	-0.019789087
37	0xbc99b2cc	-0.018762015
38	0xbc10f3dc	-0.008847203
39	0xbbc1b604	-0.0059115905
40	0xbc181c86	-0.009284144
41	0xbb19e37d	-0.002348154
42	0xbcd9340c	-0.026514076
43	0xbb49dd29	-0.0030801988
44	0x3c8036e3	0.015651172
45	0xbc9762c0	-0.018479705
46	0x3c11b165	0.008892392
47	0xbc4d5029	-0.012531319
48	0xbcf73b7e	-0.030179735
49	0x3d2126ed	0.039343763
50	0xbbe70de4	-0.0070512164
51	0xbb066d30	-0.0020511858
52	0xbc9def4a	-0.019279141
53	0x3d3eea3c	0.046610102
54	0xbc3b64b8	-0.011437587
55	0xbb94de48	-0.0045430996
56	0x3d471ba7	0.048610356
57	0xbcbc4a77	-0.022984726
58	0x3cae91a9	0.02130969
59	0xbc3a27cf	-0.01136203
60	0xbc93f1da	-0.01805966
61	0x3d2a5c17	0.04159173
62	0xbb07dd14	-0.0020731138
63	0x3b811ac5	0.0039399588
64	0xbc21e055	-0.009880145
65	0xbcaffac1	-0.021481873
66	0x3a1a2a9a	0.0005880982
67	0xbc9bff0b	-0.019042512
68	0xbb26eb74	-0.002546993
69	0x3d5b22fe	0.053500168
70	0xbbda5d0a	-0.006663923
71	0x390b1aac	0.00013266009
72	0xbca8897f	-0.020573376
73	0xbc5f19da	-0.013617003
74	0x3c6fc359	0.014633977
75	0xbcb2e299	-0.021836566
76	0x3c4ac915	0.012377043
77	0x3b73d2cb	0.00372045
78	0x3d885725	0.066572465
79	0xbc9d224c	-0.019181393
80	0x00000000	0.0
81	0xbc4a85f2	-0.012361037
82	0xbc60e102	-0.013725521
83	0xbbdaa05b	-0.006671948
84	0xbc0842cc	-0.008316707
85	0x3c1dc44d	0.009629321
86	0xbcac33b1	-0.021020742
87	0x3b01760c	0.00197542
88	0x3cccd25b	0.025002649
89	0xbb3aed82	-0.0028522913
90	0xbd0f55d4	-0.03499396
91	0xbaaf5802	-0.0013377669
92	0x3d075c4f	0.033047017
93	0xbcb148ae	-0.021641102
94	0xbca16f22	-0.019706313
95	0x3bc13250	0.0058958903
96	0xbc26900b	-0.010166178
97	0xbc9b3aa9	-0.01894887
98	0xbc3186dd	-0.010835377
99	0xbb4ece2e	-0.0031555998
100	0xbd15c047	-0.036560323
101	0xbcf22536	-0.02955876
102	0x00000000	0.0
103	0xbd042084	-0.03225757
104	0x3c2ce7a5	0.010553275
105	0xbbfe5aa7	-0.0077622714
106	0xbb16ff91	-0.0023040513
107	0xbd0ba717	-0.034094896
108	0x3b8b25fc	0.0042464714
109	0xbc772442	-0.015084328
110	0x3d5b59c7	0.053552415
111	0xbd1d032d	-0.038333107
112	0xbcad1240	-0.021126866
113	0xbc91d02a	-0.017799456
114	0xbc6f53bf	-0.014607369
115	0x3b212513	0.0024588748
116	0xbc0bc7cb	-0.008531521
117	0x3b99c197	0.004692267
118	0xbc075963	-0.008261058
119	0xbce5ade1	-0.028037013
120	0x3bee07c8	0.007264111
121	0xbc7577ab	-0.014982144
122	0xbc8a133a	-0.016854871
123	0xbc74ff41	-0.014953435
124	0xbb0faa32	-0.0021921513
125	0x3d21a278	0.039461583
126	0x00000000	0.0
127	0xbc4b2a66	-0.012400245

features_model.4.weight f4 [128, 128]
0	0x3e109a11	0.14121272
1	0x3c24e7eb	0.010065059
2	0x3d835c7f	0.064141266
3	0xbd63620c	-0.055513427
4	0xbc1e68a8	-0.009668507
5	0xbe6299cb	-0.2212898
6	0xbe829fea	-0.2551263
7	0x3b92d763	0.0044812425
8	0xbd7ede49	-0.062223706
9	0x3d014862	0.03156317
10	0xbd6dd311	-0.058062617
11	0xbe1ba8f0	-0.15201163
12	0xbd4bc7d2	-0.04975111
13	0xbd481fb4	-0.04885836
14	0xbc2a3392	-0.010388272
15	0xbcf9ca95	-0.030492106
16	0x3e0f0d7a	0.13969985
17	0x3dd8ae1a	0.10580082
18	0xbe606b2a	-0.2191588
19	0x3d9ccf50	0.07656729
20	0x3d69cf02	0.057082184
21	0xbe90c4ce	-0.2827515
22	0xbe19a5b4	-0.15004617
23	0x3db39bbc	0.08769938
24	0xbdcf3a6c	-0.10118565
25	0x3db10f76	0.08645527
26	0x3ec08b17	0.37606117
27	0xbc95fa4e	-0.018307831
28	0x3dea1e6a	0.11431582
29	0x3df684c8	0.12037045
30	0xbcd38f5f	-0.0258252
31	0xbcc8ab88	-0.024495855
32	0x3d4a8134	0.049439624
33	0xbe4b573f	-0.198575
34	0x3e45f6c9	0.19332422
35	0x3e57f70a	0.21090332
36	0xbe3fd6bb	-0.18734257
37	0xbd71e3fd	-0.059055317
38	0xbc850563	-0.01623792
39	0x3d112d65	0.035443682
40	0xbc9eca69	-0.019383626
41	0x3ccb2945	0.024799952
42	0x3eab6fea	0.3348382
43	0xbe09218f	-0.13391708
44	0x3d9ca6da	0.07649012
45	0x3e3684aa	0.17824045
46	0xbce0526b	-0.02738305
47	0x3e25cfa7	0.16192494
48	0xbe60b437	-0.21943747
49	0x3d0560b2	0.03256292
50	0x3d5c865e	0.05383908
51	0x3d5a3eb0	0.05328244
52	0xbd0d0737	-0.03443071
53	0xbe0dc794	-0.13845664
54	0xbd94e703	-0.072706245
55	0x3ded69d3	0.1159245
56	0xbd4a7077	-0.04942366
57	0xbea18166	-0.31544036
58	0x3e308234	0.17237169
59	0x3d568c45	0.052379865
60	0xbe167f83	-0.1469708
61	0xbd3c4742	-0.045966394
62	0x3d1b6ff3	0.03794856
63	0xbd13d90f	-0.036095675
64	0xbe14fc66	-0.14549407
65	0xbdb37dca	-0.08764227
66	0x3d1b4f16	0.03791722
67	0xbd6334c7	-0.055470254
68	0x3db298c7	0.08720546
69	0x3d7af241	0.061266188
70	0x3dd60cb6	0.10451643
71	0x3e21252d	0.15736838
72	0xbe0683aa	-0.13136163
73	0xbdb13002	-0.08651735
74	0xbcb03899	-0.021511363
75	0x3d76e22a	0.06027428
76	0xbe9b58f6	-0.3034131
77	0x3cfa5e9f	0.030562697
78	0xbda997ef	-0.08280932
79	0xbe0fbb14	-0.14036208
80	0x3e59deff	0.21276473
81	0x3e487d28	0.19578993
82	0xbbfb3b01	-0.007666946
83	0xba15fdb6	-0.0005721705
84	0x3cb917bd	0.022594327
85	0xbdfc628e	-0.12323485
86	0x3c951b9f	0.018201647
87	0x3d767081	0.060165886
88	0x3c7300dd	0.014831749
89	0xbe05abc8	-0.1305381
90	0x3d750b47	0.059825208
91	0x3d280394	0.041019037
92	0xbe077324	-0.13227516
93	0xbdd5e6d0	-0.104444146
94	0xbd39d28c	-0.04536681
95	0x3dce3638	0.10068935
96	0x3d143dde	0.036191814
97	0x3dadc20a	0.08484276
98	0x3b021fbe	0.0019855346
99	0x3be26741	0.0069092815
100	0xbd33a9c8	-0.043863088
101	0xbd37856e	-0.044804983
102	0xbde38c27	-0.11110716
103	0x3db6c69f	0.08924603
104	0xbd0737f1	-0.033012334
105	0xbe472de0	-0.19451094
106	0xbe41b88d	-0.18918057
107	0xbd00a0db	-0.031403404
108	0xbe04551a	-0.12923089
109	0xbe044c00	-0.12919617
110	0x3e79354b	0.24336736
111	0x3e1741f3	0.14771251
112	0x3bd8d32e	0.0066169715
113	0x3d983e52	0.07433762
114	0xbcc317b9	-0.023815023
115	0x3d5ee869	0.054420862
116	0xbe02d9be	-0.12778375
117	0x3dea74e6	0.11448078
118	0x3e15f52e	0.1464431
119	0xbdb863c7	-0.09003406
120	0x3ddcc9c6	0.10780673
121	0xbdf6816b	-0.12036403
122	0x3e19db31	0.15025021
123	0xbe6e13e4	-0.23249775
124	0xbe24ec02	-0.16105655
125	0xbe071b98	-0.1319412
126	0xbe0f6a24	-0.14005333
127	0xbd24828b	-0.040163558
128	0xbd1f7f76	-0.038939916
129	0xbdf369e0	-0.118854284
130	0x3deb7983	0.11497786
131	0xbdae1970	-0.085009456
132	0xbe082f8e	-0.1329939
133	0xbd648eb0	-0.05580014
134	0x3e2a85cb	0.166526
135	0xbe18114a	-0.14850345
136	0xbe5c3a41	-0.21506597
137	0xbd8ca80b	-0.06867989
138	0x3d0850d5	0.033280212
139	0xbe3b9155	-0.18317159
140	0xbd645209	-0.055742297
141	0x3e0c8248	0.13721573
142	0x3d09c77e	0.033637516
143	0x3c90066d	0.017581189
144	0xbe1e27ca	-0.15444866
145	0xbd889cea	-0.06670554
146	0x3e914c2a	0.2837842
147	0xbdaefde7	-0.08544522
148	0x3df533e8	0.11972791
149	0x3dac0ab5	0.0840048
150	0xbd8dcb6f	-0.069235675
151	0x3e5f2dbb	0.21794789
152	0x3d9556cb	0.07291945
153	0x3dc753d9	0.097327895
154	0xbdf0f8e8	-0.11766225
155	0xbd0abbe0	-0.033870578
156	0xbe43b384	-0.19111449
157	0x3e2860fa	0.16443244
158	0x3d4eac2a	0.050457157
159	0xbdb30bad	-0.08742461
160	0xbd09ca13	-0.03363998
161	0xbe0d4924	-0.13797432
162	0x3cf935b0	0.030421108
163	0xbcd87d7d	-0.026427025
164	0x3e8749af	0.26423404
165	0xbd32f734	-0.043692783
166	0xbb44482c	-0.0029950244
167	0xbe90d179	-0.28284815
168	0x3bdffa85	0.006835284
169	0xbca3c0e0	-0.01998943
170	0x3da57ac7	0.080800585
171	0x3e4316ec	0.19051713
172	0x3ed27de4	0.41111672
173	0x3d2814dd	0.04103552
174	0xbd0bac7c	-0.03410004
175	0xbd952d6e	-0.07284056
176	0x3e003ad1	0.12522437
177	0xbe682bac	-0.2267291
178	0xbe1cc919	-0.15311088
179	0xbeb8c180	-0.3608513
180	0x3d85852c	0.06519541
181	0xbe35b306	-0.17744073
182	0x3d03b979	0.032159302
183	0x3e54e345	0.20789821
184	0x3e1b04c2	0.15138534
185	0xbbfa23e8	-0.007633675
186	0xbda5a589	-0.08088214
187	0xbdc6d27d	-0.09708116
188	0x3e69a990	0.22818589
189	0x3e8283a6	0.25491065
190	0x3da0d811	0.078537114
191	0xbdcf9485	-0.1013575
192	0x3d8bc578	0.068247736
193	0xbcd95ffc	-0.026535027
194	0xbb2c399b	-0.0026279453
195	0x3db8f739	0.09031529
196	0x3e304d15	0.17216904
197	0xbe37dfb1	-0.17956425
198	0x3e10c33a	0.14136973
199	0x3d955079	0.072907396
200	0xbd1b0fc8	-0.037856847
201	0x3db4b439	0.08823437
202	0xbd4b9509	-0.049702678
203	0x3d8a45c6	0.067515895
204	0xbdd47757	-0.10374325
205	0xbdbe310c	-0.09286699
206	0x3da5a028	0.08087188
207	0xbe08bb85	-0.13352783
208	0x3dbf3194	0.09335628
209	0x3a0a92fd	0.0005286185
210	0xbc4822d6	-0.012215337
211	0xbd093f81	-0.033507828
212	0x3c7fbb5a	0.015608633
213	0xbe07fcb4	-0.13279992
214	0xbd0bc687	-0.034124877
215	0xbe47cfa2	-0.195128
216	0x3e0d43b1	0.13795353
217	0x3e5776f2	0.21041468
218	0x3d278012	0.04089362
219	0x3e1ce62c	0.15322179
220	0x3da30908	0.07960707
221	0x3c2d2f92	0.010570424
222	0xbd8ad433	-0.06778755
223	0x3b2879d1	0.0025707374
224	0xbc0a03bd	-0.008423743
225	0x3e0de941	0.1385851
226	0xbc2e27cb	-0.010629605
227	0xbd8aee57	-0.06783741
228	0x3e5f27ff	0.21792601
229	0x3d155142	0.036454447
230	0xbe4c87ff	-0.19973753
231	0xbc1c03af	-0.009522363
232	0x3deee157	0.11664074
233	0xbd125e7d	-0.035734642
234	0xbbcc477b	-0.006234107
235	0xbe25b1cc	-0.16181105
236	0xbde59b2c	-0.11211237
237	0x3d29158d	0.041280318
238	0xbd1e6c27	-0.03867736
239	0x3cfb8233	0.030701732
240	0x3db5daed	0.088796474
241	0xbe03adf3	-0.12859325
242	0x3daf15e6	0.08549099
243	0x3da584f5	0.08082
244	0xbc8ea91b	-0.01741462
245	0xbd998aa9	-0.074971505
246	0x3e2325e7	0.15932427
247	0xbde309c1	-0.11085845
248	0x3e3d77c6	0.18502721
249	0x3d5dc0a2	0.054138787
250	0xbc4ea1f2	-0.012611853
251	0xbd9220d1	-0.071351655
252	0xbe01defd	-0.1268272
253	0xbde2f7ae	-0.110823974
254	0xbd0ce720	-0.034400105
255	0x3e569ad0	0.20957494

features_model.4.bias f4 [128]
0	0xbcadabbc	-0.021200053
1	0xbc74c47a	-0.014939422
2	0xbc984066	-0.018585395
3	0xbcaaa0e1	-0.020828666
4	0x3c76f146	0.0150721725
5	0xbc5a169f	-0.013311057
6	0xbc7dbdce	-0.0154871475
7	0xbc245272	-0.010029422
8	0xbc965dfa	-0.018355358
9	0xbbb9401c	-0.0056533944
10	0xbbe04e35	-0.0068452605
11	0x3d3eca32	0.046579547
12	0xbc437e7e	-0.011932014
13	0x3cde50be	0.02713811
14	0x3b8d1ad0	0.004306175
15	0xbcdfae4b	-0.027304789
16	0xbc534cf9	-0.01289677
17	0xba48bba6	-0.00076573563
18	0xbbf6994e	-0.0075255996
19	0x3d369234	0.044573024
20	0xbb82bbc1	-0.003989667
21	0x3d58fa54	0.052973107
22	0xbc1c3434	-0.009533931
23	0xbc0d887b	-0.0086384965
24	0x3d276d5c	0.040875778
25	0xbc02fa3d	-0.007994232
26	0xbc6c6e97	-0.014430664
27	0x3b115563	0.0022176139
28	0xbcca82ec	-0.024720632
29	0xbbab92dd	-0.0052360133
30	0x3cc884e5	0.024477432
31	0xba6ae386	-0.0008960295
32	0xbc6825b4	-0.014169145
33	0x3d364efc	0.04450892
34	0xbc4f975b	-0.012670363
35	0x3d201d6e	0.039090566
36	0x3b3f52cc	0.0029193638
37	0x00000000	0.0
38	0x3c2cbbe6	0.010542845
39	0xbcba0f84	-0.022712477
40	0xbc2da1d9	-0.0105976695
41	0xbc3131e5	-0.010815118
42	0x3c3246b9	0.010881119
43	0xba4326b8	-0.0007444429
44	0xbc730cf6	-0.014834633
45	0xbc38044f	-0.011231496
46	0xbbef76bd	-0.007307856
47	0x3d0eddc9	0.03487948
48	0xbcd345e1	-0.025790157
49	0x00000000	0.0
50	0xbc279516	-0.010228416
51	0xbcafcae7	-0.021459056
52	0xbc87bfa4	-0.016570874
53	0x3bcbcc93	0.0062194555
54	0xbcb010df	-0.02149242
55	0xbc8644db	-0.016390255
56	0x00000000	0.0
57	0xbcece103	-0.028915888
58	0xbccf3562	-0.02529401
59	0x3c0092d4	0.007847507
60	0xba6aca6e	-0.0008956556
61	0xbc88d01c	-0.016700797
62	0xbc1a4c11	-0.00941755
63	0xbccd1702	-0.025035385
64	0x3d28f669	0.04125062
65	0x3c431bd7	0.011908493
66	0x3d854ae7	0.06508427
67	0x3c3deb35	0.011591722
68	0xbb100880	-0.0021977723
69	0x3cbda662	0.023150627
70	0x3cca5230	0.024697393
71	0xbc89f146	-0.016838681
72	0xbc42eff5	-0.0118980305
73	0xbcab61e0	-0.020920694
74	0xbc512dee	-0.012767298
75	0x3c950315	0.018189946
76	0x3a9fbbb6	0.001218668
77	0x3cdbe545	0.026842723
78	0x3b6d1a66	0.0036179065
79	0xbc719129	-0.014744082
80	0x3c94e4f9	0.018175589
81	0x3a84b6aa	0.0010125239
82	0x3c7bd234	0.015369941
83	0xbca16945	-0.019703517
84	0xbc92cc28	-0.017919615
85	0xbc888de0	-0.016669214
86	0x3d01bb78	0.031672925
87	0x3d850863	0.0649574
88	0xbcaf0842	-0.021366242
89	0xbcd83220	-0.026391089
90	0xbc794336	-0.015213778
91	0x3b60c4cf	0.0034296995
92	0x3b975b42	0.004619033
93	0xbcd2a308	-0.025712505
94	0x3abbe4d3	0.0014335163
95	0xbcdabe06	-0.026701938
96	0xbb9cee8c	-0.004789179
97	0x3d04b27e	0.032396786
98	0xbc265797	-0.010152719
99	0x3c1b4dc2	0.009478988
100	0xbcd138c3	-0.025539761
101	0xbcd63923	-0.026150292
102	0x3b0d6fb1	0.0021581466
103	0x3c662863	0.014047715
104	0x3c8e1dd4	0.017348208
105	0xbbd01c11	-0.006351002
106	0xbb38d58f	-0.0028203463
107	0xbc7371cf	-0.014858677
108	0x3a10ad3a	0.0005518977
109	0xbcc97b11	-0.024594815
110	0xbc5d02c7	-0.013489432
111	0xbbe85e46	-0.0070913164
112	0x3b34ec9a	0.0027606846
113	0xbc068c73	-0.008212197
114	0xbc9fe277	-0.019517167
115	0x3c163eb6	0.009170225
116	0xbca3f892	-0.020015988
117	0x3d220684	0.039556995
118	0xbc85e2ab	-0.016343435
119	0x3d81bb12	0.06334509
120	0xbb2b852b	-0.0026171904
121	0x3d10239f	0.03519022
122	0x3b456b73	0.003012386
123	0x00000000	0.0
124	0x3d67a7f7	0.056556668
125	0x3d674095	0.056458075
126	0xbc648f05	-0.013950114
127	0x3d08b12c	0.03337209

policy_model.0.weight f4 [128, 128]
0	0x3af99550	0.0019041691
1	0x3b229146	0.0024805828
2	0xbae944de	-0.0017797013
3	0xbac2a7d9	-0.0014851048
4	0xba0f662c	-0.0005470242
5	0xbb0c0a29	-0.002136836
6	0xbb294e96	-0.0025834194
7	0xbaa89071	-0.001286043
8	0xbae76aec	-0.0017655767
9	0x3ad87bf0	0.0016516428
10	0xba97c102	-0.0011577907
11	0xbaf250b4	-0.0018487186
12	0xbb0f5918	-0.0021873172
13	0x398b0288	0.00026514032
14	0xbb289170	-0.0025721453
15	0xbad639e2	-0.0016344155
16	0xbb3f7075	-0.0029211317
17	0x39e063b9	0.00042798909
18	0xba9c4f76	-0.0011925537
19	0xbb655e4a	-0.0034998828
20	0x3b418f6f	0.0029534956
21	0xbb960144	-0.0045777876
22	0xbb193f95	-0.0023383845
23	0x38e3f4ae	0.000108697786
24	0x381ea6b8	3.7825404e-05
25	0xbaa7dcb1	-0.001280686
26	0xba9ef695	-0.001212793
27	0xbabca78b	-0.0014393193
28	0xbaf1e0ec	-0.0018453873
29	0x3aaf2025	0.001336102
30	0xbbae58a6	-0.0053206263
31	0xb8db6189	-0.00010460901
32	0xb8d2e470	-0.0001005613
33	0xbb7100b3	-0.0036774098
34	0x39def3d5	0.0004252481
35	0xbb8d024f	-0.0043032537
36	0xb8b9be38	-8.8569184e-05
37	0xba70869c	-0.0009175332
38	0xbba6b9cf	-0.005088068
39	0xbb3ef259	-0.002913615
40	0xb95640d3	-0.0002043278
41	0xba8243c3	-0.0009938407
42	0xba4000d4	-0.0007324342
43	0x3b1db9d2	0.0024067056
44	0x393d5bfd	0.00018058713
45	0x399c4c14	0.0002981132
46	0x3ad637a9	0.0016343492
47	0xba6806ec	-0.0008851129
48	0xba30f1c9	-0.0006749896
49	0xba964605	-0.0011464959
50	0xbaf837f1	-0.001893757
51	0xbb08ee24	-0.0020893896
52	0xba9fd732	-0.001219487
53	0x3a964166	0.0011463582
54	0xbaf58fce	-0.0018734874
55	0x3a372f7e	0.0006987973
56	0xba30f8c4	-0.0006750936
57	0xbb608efb	-0.003426491
58	0xbafabf11	-0.0019130429
59	0xbb1c7a30	-0.002387654
60	0xbaea1148	-0.0017857933
61	0xbad806f2	-0.0016481562
62	0xba400c67	-0.0007326067
63	0xba4af13a	-0.0007741634
64	0x3a8cc995	0.0010741228
65	0x3aef684a	0.0018265333
66	0x3b3a7970	0.002845373
67	0xbb1e1585	-0.0024121713
68	0x3887e7f0	6.480503e-05
69	0xbbea8259	-0.007156652
70	0xbbb62158	-0.005558174
71	0xbabdf55b	-0.0014492677
72	0x3af9717b	0.0019031012
73	0x3a76da47	0.0009416681
74	0xbb28402f	-0.0025673022
75	0x3aa3a954	0.0012486377
76	0xb8a74341	-7.9757076e-05
77	0xb9fa7cd3	-0.00047776717
78	0x3abee8e7	0.001456526
79	0xbae629aa	-0.0017560024
80	0x3a700824	0.00091564865
81	0x395df4ea	0.0002116744
82	0xb9eedf92	-0.0004556147
83	0xba85567f	-0.0010172873
84	0xbb0ea443	-0.0021765388
85	0x3b0c89e7	0.00214445
86	0xbc08fe78	-0.008361451
87	0xbbd037de	-0.006354316
88	0xbae449da	-0.0017417029
89	0x3b438256	0.0029832325
90	0xbadd8892	-0.0016901663
91	0xbb397143	-0.002829627
92	0x3ac7fc9c	0.0015257779
93	0xbb381fae	-0.0028095054
94	0xba80e0e1	-0.0009832644
95	0x3a5ab4ce	0.0008342982
96	0xba832422	-0.0010005275
97	0xbbb9addc	-0.0056664776
98	0x3af56f7d	0.0018725243
99	0x393b4437	0.00017859122
100	0x395f2099	0.00021279081
101	0xbaea036a	-0.0017853801
102	0xba24f86e	-0.00062931224
103	0x3920ed57	0.00015347205
104	0xbab04a46	-0.001344987
105	0xbae7165f	-0.0017630568
106	0x3ab9f71c	0.0014188024
107	0xbb1b8c4e	-0.002373475
108	0x3a02da93	0.00049916765
109	0xb9cd3ac5	-0.00039144434
110	0x3aa3091f	0.0012438631
111	0xbb34956a	-0.0027554878
112	0xb990abd2	-0.00027593836
113	0xbb5659a1	-0.0032707232
114	0x39a8addd	0.00032172995
115	0xbb29ec21	-0.0025928097
116	0xbaf6e858	-0.0018837554
117	0xbbe59c41	-0.0070071523
118	0xbac48a8a	-0.0014994901
119	0xbb97648b	-0.00462014
120	0xbb0c6306	-0.0021421327
121	0xbbe177d3	-0.0068807392
122	0x37827b93	1.5554751e-05
123	0x392771a5	0.00015968697
124	0xbbc69e08	-0.0060613193
125	0xbb918864	-0.004441308
126	0xb9357776	-0.00017306008
127	0xbaecc8d0	-0.0018065218
128	0xbd4d901f	-0.050186273
129	0xbc36b2bd	-0.011151013
130	0xbc06d2ce	-0.008228971
131	0xbc14cb58	-0.009081684
132	0x3d1f3603	0.03886987
133	0xbb0b6dad	-0.0021275089
134	0xba0f9fa1	-0.00054788037
135	0xbc12306d	-0.008922678
136	0x3c854afc	0.016271107
137	0xbc8d1670	-0.017222613
138	0xbc4c0b89	-0.012453922
139	0x3d00d342	0.03145147
140	0x3cbefb31	0.023313137
141	0x3c8606eb	0.01636072
142	0x3d1e7811	0.038688723
143	0x3b9b6582	0.0047423253
144	0x3c9abd2d	0.018889034
145	0x3c6373c4	0.013882581
146	0x3a17cce3	0.00057907234
147	0x3d42863e	0.047491305
148	0x3adca2d0	0.001683319
149	0x3d6be488	0.05759099
150	0xbc38f33b	-0.011288459
151	0x3bc656b9	0.0060528186
152	0x3d49d47c	0.049274907
153	0x3bf0064d	0.00732497
154	0x3bba75fc	0.0056903344
155	0x3ce7d826	0.02830131
156	0xbc05dc69	-0.008170226
157	0xbc8cdac6	-0.017194163
158	0x3d47dfe4	0.048797503
159	0x3cee802d	0.029113853
160	0xbbca60e7	-0.0061761024
161	0xbabb9d69	-0.001431388
162	0xbbe0d8f6	-0.0068618013
163	0x3d5846c1	0.05280185
164	0xbc9ca4c4	-0.019121535
165	0xba0c9754	-0.0005363126
166	0x3d3104cf	0.043217476
167	0xbbfc3228	-0.007696409
168	0xbc649608	-0.013951786
169	0x3c816d4b	0.015799185
170	0x3d14de43	0.036344778
171	0xbc0c0689	-0.00854648
172	0x3aa62bdb	0.0012677865
173	0x3c92c21b	0.017914822
174	0xbcd157e5	-0.025554607
175	0x3d4ada8e	0.049524836
176	0x3bf0b2a6	0.0073455153
177	0xba651719	-0.00087390986
178	0x3bea0ca9	0.0071426225
179	0x3c3cf0a4	0.011531983
180	0xbbb95e9d	-0.0056570307
181	0x3cb50782	0.022098307
182	0xbbdc8dc5	-0.0067307674
183	0xbc09d65c	-0.008412924
184	0x3912448a	0.00013949178
185	0xbc88a35e	-0.016679462
186	0x3bcc80dd	0.0062409476
187	0x3d0edc95	0.034878332
188	0x3a3ffdf5	0.00073239143
189	0x3bc6b76c	0.006064346
190	0xb9d6bede	-0.00040959468
191	0xbb815c0d	-0.003947741
192	0xbd5eb023	-0.054367196
193	0x3cead337	0.028665168
194	0x3d184975	0.03717943
195	0xbc21847c	-0.009858247
196	0x3a8484e8	0.001011041
197	0x3d2554a5	0.040363926
198	0x3d4ca903	0.04996587
199	0x3cd81062	0.026375
200	0xbac27bb2	-0.001483789
201	0xbc9ae82a	-0.018909533
202	0xbc1b101b	-0.009464289
203	0x3d54dae1	0.05196655
204	0x3a9e35f1	0.0012070519
205	0x3d6b7d27	0.0574924
206	0xbca4c2da	-0.020112444
207	0x3b89f3d0	0.004209973
208	0x3c9b0d6c	0.018927298
209	0xbd213fd3	-0.03936751
210	0xbc922dcf	-0.017844109
211	0xbc126fa3	-0.008937749
212	0x3b26ae18	0.0025433358
213	0xbbe41947	-0.006961021
214	0x3d1e4b37	0.03864595
215	0x3cfb07bc	0.030643336
216	0xbc8f9ccc	-0.017530821
217	0xbbaa6192	-0.0051996196
218	0x3cf2383a	0.029567827
219	0x3a9546bd	0.001138888
220	0x3c844051	0.01614395
221	0xbc87d0ac	-0.016578995
222	0xba6e4af2	-0.0009090147
223	0xbccd2b6d	-0.025045121
224	0x3cd030e9	0.025413947
225	0x3d3fb472	0.046802945
226	0xbb345343	-0.0027515448
227	0xbca39d3e	-0.01997244
228	0xbc596786	-0.013269311
229	0x3c1152f4	0.008869875
230	0x3cee7ec5	0.029113183
231	0x3d447abc	0.04796861
232	0xbb9b0e5b	-0.004731936
233	0x3d40e6ad	0.04709499
234	0x3d189a52	0.037256546
235	0x3c1f023c	0.009705123
236	0xbca7877a	-0.020450342
237	0xbbd142d5	-0.006386141
238	0xbc67b3b5	-0.014141967
239	0xbc3eb76e	-0.011640413
240	0x3d2b2888	0.0417867
241	0x3bd80031	0.0065918197
242	0xba4afa7e	-0.0007743015
243	0x3ac9e777	0.0015404065
244	0xbc4d48fe	-0.01252961
245	0x3d4a2746	0.04935386
246	0x3c4129af	0.011789723
247	0x3cf274ac	0.02959665
248	0xbadb3399	-0.0016723751
249	0x3d4b584a	0.049644746
250	0x3c38e969	0.011286118
251	0xba3f2572	-0.00072916516
252	0x3d24cbc6	0.040233396
253	0x3d36c05b	0.04461704
254	0xbc85fdbe	-0.016356345
255	0x3d6fdb0e	0.058558516

policy_model.0.bias f4 [128]
0	0xba95a6c7	-0.0011417501
1	0x3d2bf19e	0.04197847
2	0xbac46173	-0.0014982655
3	0x393d70de	0.00018066491
4	0x37b5ad38	2.1657543e-05
5	0xb91c61c4	-0.0001491374
6	0xbbd6b366	-0.0065521477
7	0xbbbe7549	-0.0058123213
8	0x3ad2db74	0.0016087131
9	0xbac48b56	-0.0014995139
10	0xbac4bcc5	-0.0015009871
11	0xbc38b42b	-0.011273424
12	0xbc393b2d	-0.0113056125
13	0x3c6630d7	0.01404973
14	0x3ae5774c	0.0017506867
15	0x39b460a8	0.0003440429
16	0x3be2eaae	0.0069249487
17	0xbc4edf53	-0.012626487
18	0xbac420f3	-0.0014963433
19	0xbabf163b	-0.0014578769
20	0xbbf395ed	-0.007433644
21	0xbb6760b6	-0.0035305447
22	0x3bf92329	0.0076030684
23	0xb9c7d1e2	-0.00038112613
24	0xbc1dabc2	-0.00962347
25	0xbac4b8ee	-0.0015008727
26	0xbc0dab60	-0.008646816
27	0xbc0ca591	-0.008584396
28	0xbb7f2954	-0.0038934546
29	0xbac46715	-0.0014984334
30	0xbb8edb66	-0.0043596504
31	0xbbd03809	-0.006354336
32	0xbc0bda42	-0.008535923
33	0xba05abca	-0.0005099146
34	0xbac4b015	-0.001500609
35	0xbadcb987	-0.001683996
36	0xba5ee146	-0.0008502196
37	0xba9d2de1	-0.0011991822
38	0xbc494e1e	-0.012286691
39	0xbc3ca1b9	-0.011513167
40	0x3d124943	0.0357144
41	0xbc239a01	-0.009985448
42	0x3bcc0b88	0.0062269606
43	0xbac4869f	-0.0014993733
44	0xbaa81f92	-0.0012826791
45	0x3c367a29	0.011137524
46	0xbc303884	-0.010755662
47	0xbb86952f	-0.0041071395
48	0xbb9b2226	-0.0047342954
49	0x3b2699f5	0.0025421355
50	0xbbe3d047	-0.006952319
51	0xbab3c0eb	-0.001371411
52	0xbb76501d	-0.0037584372
53	0x3b83ec51	0.004025974
54	0xbc0904f1	-0.0083629945
55	0x00000000	0.0
56	0x00000000	0.0
57	0xbb0961fc	-0.0020962944
58	0xbc41748f	-0.011807575
59	0xbaa73618	-0.001275721
60	0xbc2936ef	-0.010328039
61	0xbac32dd6	-0.001489098
62	0xbac43828	-0.0014970349
63	0x3b78b021	0.0037946778
64	0x3b0a304b	0.0021085914
65	0xbac4b469	-0.001500738
66	0xbae5f0bb	-0.0017543057
67	0xbc17821a	-0.009247327
68	0xbb8279e3	-0.003981815
69	0xbb8c31fd	-0.00427842
70	0xbb744626	-0.0037273257
71	0xbb6cc456	-0.0036127768
72	0xba8362fd	-0.0010024008
73	0xbba9ae76	-0.005178268
74	0x3aaa37df	0.0012986622
75	0xbb767552	-0.003760655
76	0xbac44a0c	-0.0014975681
77	0xbc1b35c9	-0.009473273
78	0xbc1784d2	-0.009247975
79	0xbac49e1d	-0.0015000735
80	0xbb21e6a2	-0.0024704118
81	0xbc2ed3f3	-0.01067065
82	0xbc329945	-0.0109008
83	0xba0bb014	-0.0005328667
84	0x3babc9a1	0.005242542
85	0xba987412	-0.0011631271
86	0xba5b9c7c	-0.0008377505
87	0x3d9f0473	0.077645205
88	0xbbe49885	-0.0069761896
89	0xbc3e1d54	-0.011603672
90	0xbac45684	-0.0014979397
91	0xbb6b06e1	-0.0035862254
92	0xb9a1ef72	-0.00030886714
93	0xbb8ba8dd	-0.0042620734
94	0xbafbcf58	-0.0019211574
95	0xbb72e1d9	-0.0037060885
96	0xbc3908d1	-0.011293606
97	0xbac48c64	-0.0014995453
98	0xbc21ba51	-0.009871081
99	0xbc1e9ad7	-0.009680471
100	0x3b1e65e6	0.0024169623
101	0xbbd362ee	-0.0064510023
102	0xbb426cf6	-0.0029666997
103	0xbba74eab	-0.0051058135
104	0xbbd10fe9	-0.0063800705
105	0x3bbe2424	0.005802648
106	0x3c95be8f	0.018279342
107	0xbbcabbf3	-0.006186956
108	0xbaa780b9	-0.0012779451
109	0xbac494cf	-0.0014997962
110	0xbb2fe853	-0.0026841357
111	0xbbbaf2c9	-0.005705212
112	0xbb938a85	-0.004502597
113	0xb8e75986	-0.000110316134
114	0xba34573d	-0.00068794546
115	0xbad8f658	-0.0016552908
116	0xbad9be5d	-0.0016612519
117	0xbc1fcf57	-0.0097540235
118	0xbaa08166	-0.0012245595
119	0xbac298c1	-0.001484655
120	0xbc0a7a86	-0.008452063
121	0x3c932ab2	0.017964695
122	0xbaa8d0ce	-0.0012879611
123	0x3b521409	0.00320554
124	0xbb6aefe2	-0.0035848548
125	0xbb6b6843	-0.00359203
126	0x3bc89c70	0.0061221644
127	0xbb48bce6	-0.003063017

policy_model.2.weight f4 [8, 128]
0	0xbaecf4da	-0.0018078343
1	0xbca1e33e	-0.019761678
2	0x3ae21812	0.0017249605
3	0x3a51f7ba	0.00080096314
4	0xbb00fdb3	-0.0019682467
5	0x3a4ea8f7	0.0007883454
6	0xbc7b0c88	-0.015322812
7	0xbbd341f5	-0.0064470717
8	0x3bb6057a	0.005554852
9	0xb92a76d1	-0.00016256726
10	0xbaee0be8	-0.0018161507
11	0xbbbce15f	-0.005764171
12	0xbbb0d4cb	-0.0053964606
13	0x3b710568	0.0036776904
14	0x3b2730d1	0.0025511275
15	0x3a9f5bbd	0.0012158077
16	0x3b720be5	0.003693336
17	0xbbe4384a	-0.006964718
18	0x3a8330d2	0.0010009056
19	0xbb29d573	-0.002591458
20	0xbbc1e708	-0.0059174336
21	0xbbfa8143	-0.0076448037
22	0x3c7f06ea	0.015565613
23	0x3a39311b	0.0007064507
24	0xbbf84c23	-0.0075774356
25	0x3ad74434	0.0016423524
26	0xbb24edbf	-0.0025166122
27	0xbbdeb07d	-0.0067959414
28	0xbc7bb762	-0.015363546
29	0xba5a850a	-0.00083358644
30	0xbc08708e	-0.008327616
31	0x39eeeb3a	0.00045570155
32	0xbc12ab8e	-0.008952035
33	0xbc22f4d9	-0.009946072
34	0x3ae6060e	0.0017549412
35	0xbc023ca1	-0.007949025
36	0xba97f305	-0.0011592811
37	0x3a8f146e	0.0010916123
38	0xbbe7d776	-0.0070752455
39	0xbc0c7287	-0.008572227
40	0xbd162c5d	-0.036663402
41	0xbbdf5716	-0.0068158014
42	0x3b635771	0.003468957
43	0xbac9f904	-0.0015409295
44	0x3aa7d78b	0.0012805326
45	0xbd4f5406	-0.05061724
46	0xbbfc158b	-0.007692998
47	0xbb402b29	-0.00293226
48	0xbbfd1727	-0.0077237072
49	0x3b995b1b	0.00468005
50	0xbbf92250	-0.0076029673
51	0xbbb535f2	-0.0055301124
52	0x3b91323c	0.004431037
53	0x3b94cd57	0.00454108
54	0xbbafb68b	-0.005362337
55	0xb96c7947	-0.00022551893
56	0x3ae27eb8	0.0017280197
57	0x3aa6058e	0.001266645
58	0xbbddb315	-0.006765733
59	0xb7cda102	-2.451288e-05
60	0xbbd473eb	-0.006483545
61	0xb9f31eff	-0.00046371666
62	0xba2c07af	-0.0006562424
63	0x3b88256f	0.004154853
64	0xbc0b5da8	-0.008506216
65	0x3a86c0a1	0.0010280797
66	0x3a7fc93b	0.00097574637
67	0xbbbbe8a8	-0.005734522
68	0xbbe55b25	-0.0069993907
69	0xbb99c4e3	-0.00469266
70	0xbc018245	-0.007904594
71	0xbc0e73b6	-0.00869458
72	0xb8839d68	-6.275886e-05
73	0x3b497f73	0.0030746132
74	0x3af37672	0.0018574728
75	0xba47d4c5	-0.00076229527
76	0x3b16fa64	0.0023037428
77	0xbc059718	-0.008153699
78	0xbba50712	-0.0050362432
79	0x385eda7b	5.31324e-05
80	0x3ac80915	0.0015261496
81	0xbbb62c68	-0.005559493
82	0xbad70666	-0.0016405105
83	0x3aa0b631	0.0012261329
84	0x3b8a646c	0.004223397
85	0x3a926599	0.0011169194
86	0xb8e40f03	-0.00010874683
87	0xbd752e51	-0.059858624
88	0xbbbbce52	-0.0057313824
89	0xbbd0f472	-0.0063767964
90	0x3acdde89	0.001570658
91	0xbbf5b540	-0.0074984133
92	0x3b1fc453	0.0024378493
93	0xbbdce99e	-0.0067417165
94	0x3a9b950b	0.001186998
95	0xbc755e1f	-0.0149760535
96	0xbbc47b89	-0.005996172
97	0x3b61cb51	0.0034453461
98	0xbb967013	-0.004590997
99	0xbbe6244e	-0.007023371
100	0x3b74c6f6	0.0037350035
101	0xbbddfd51	-0.0067745824
102	0x3b3739c5	0.0027958017
103	0x399035fa	0.00027506036
104	0x3882f504	6.244521e-05
105	0x3b6aad2f	0.0035808792
106	0xbaab1ca4	-0.00130548
107	0xbbf652e9	-0.007517208
108	0xb8c1f76d	-9.249044e-05
109	0x3b13ff4e	0.0022582593
110	0xbbe8332c	-0.0070861783
111	0xbb8b08e8	-0.004243005
112	0xbb284ddd	-0.0025681176
113	0xb8cd2cbe	-9.7834956e-05
114	0x3b7e8238	0.003883494
115	0x3a46bf50	0.00075816084
116	0xb9a9aefc	-0.00032364565
117	0xbbcef908	-0.006316308
118	0x3a7c19c1	0.0009616875
119	0xb9a632c2	-0.00031699805
120	0xbbf16466	-0.0073667048
121	0xbd4be6e4	-0.04978074
122	0xb9c64200	-0.00037814677
123	0xbb35d2fb	-0.0027744162
124	0xb8fdc74a	-0.000121011006
125	0xbb0bce88	-0.002133282
126	0x3b96411a	0.0045853974
127	0x3a5ec19f	0.000849748
128	0x3a8aeb8a	0.001059876
129	0x3c85e81f	0.016346036
130	0xba2b4510	-0.00065334234
131	0xba3922b2	-0.000706236
132	0x39d844fa	0.00041250122
133	0xba71471d	-0.0009204017
134	0x3ce1cf6f	0.027564732
135	0xbc1038dc	-0.008802619
136	0xbc0a28b4	-0.008432556
137	0xb9389f64	-0.00017606985
138	0x3b55b746	0.003261046
139	0xbbe810b8	-0.007082071
140	0xbbe978a0	-0.0071249753
141	0xbbe21328	-0.0068992563
142	0xbb2a1b6b	-0.0025956284
143	0xbbaa6ba2	-0.005200819
144	0xbb1f76ef	-0.0024332365
145	0xbbd7aa2e	-0.0065815663
146	0x3af2f9d7	0.0018537593
147	0xba6404d0	-0.0008698227
148	0xbc1e5235	-0.009663154
149	0xbc023a73	-0.007948506
150	0xbc1114c1	-0.008855046
151	0xba02a567	-0.00049837533
152	0xbbe56f6c	-0.007001808
153	0x3a547c1a	0.0008105651
154	0xbb24f999	-0.0025173186
155	0xbbc23668	-0.005926896
156	0x3b7abf63	0.0038261048
157	0xbac6b818	-0.0015161065
158	0xbc042d10	-0.008067384
159	0x3b36581a	0.0027823509
160	0xbbb5bf6a	-0.0055465
161	0xbafc606a	-0.0019254808
162	0x3a0fcbd1	0.0005485388
163	0xbbea97db	-0.007159216
164	0x3a868014	0.0010261559
165	0xbaaf9e0d	-0.0013398543
166	0xbbdd8a8c	-0.006760901
167	0xbc155b76	-0.009116044
168	0x3d1e7b13	0.03869159
169	0xbc09ead2	-0.008417802
170	0xbbb5b1f8	-0.005544897
171	0x3b2bfcf5	0.0026243303
172	0x392e1a42	0.00016603715
173	0xbcea2474	-0.028581835
174	0xbbe3c009	-0.0069503826
175	0xb9b44e10	-0.00034390436
176	0xbbcfa5d9	-0.0063369093
177	0xbc00624c	-0.007835936
178	0xbc3037a0	-0.0107554495
179	0xba8f88df	-0.0010950825
180	0xbb8a6349	-0.0042232615
181	0xbbe72e06	-0.007055047
182	0xbc0a29da	-0.00843283
183	0x3ac69bbc	0.0015152614
184	0x3afc2ca1	0.0019239375
185	0x3ac66496	0.0015136178
186	0xbbaac434	-0.0052113775
187	0xba2718c9	-0.0006374238
188	0xbbf74a8b	-0.007546728
189	0x397c4863	0.00024059559
190	0xbab1f02a	-0.0013575603
191	0xbc0a59d3	-0.008444267
192	0xbba93239	-0.0051634577
193	0xba3c88cf	-0.0007192017
194	0xb9e66292	-0.0004394246
195	0xbbdd3b3b	-0.0067514456
196	0xbbb718bf	-0.0055876668
197	0xbba23f09	-0.004951362
198	0xbb8fda1c	-0.0043900143
199	0xbbdd6b05	-0.0067571425
200	0xbaf45d63	-0.0018643554
201	0x3ad8bd0c	0.0016535833
202	0xbb89d44f	-0.0042062174
203	0xba7fab48	-0.0009753001
204	0x3b6be864	0.003599667
205	0xbbe330c8	-0.0069333054
206	0xbc11450a	-0.008866558
207	0xbab434a8	-0.0013748603
208	0xb8c8a3dd	-9.567265e-05
209	0xbbe9b035	-0.007131601
210	0xbb037d78	-0.00200638
211	0xbaa0a434	-0.0012255968
212	0xbbe3a5ea	-0.0069472687
213	0xba8e155f	-0.0010840109
214	0x3abbca77	0.0014327307
215	0x3c397a09	0.011320599
216	0xbbfdd47b	-0.007746277
217	0xbc07d4f1	-0.008290515
218	0x3ad21d9d	0.0016030554
219	0xbb2e8639	-0.0026630296
220	0xb8f10eb4	-0.00011494514
221	0xbc0bd330	-0.008534238
222	0xb9b4a35c	-0.00034453988
223	0x3bc0e269	0.005886365
224	0xbbd6cb49	-0.006554995
225	0x39e137fd	0.0004295706
226	0xbbd91187	-0.006624404
227	0xbbefbbda	-0.007316095
228	0xbbd9c067	-0.0066452506
229	0xbc07385a	-0.008253181
230	0x3b81a8f8	0.00395691
231	0xb8aa7c00	-8.1293285e-05
232	0x3be4c326	0.0069812713
233	0xbbceeecf	-0.0063150893
234	0xbcbbe8c3	-0.022938138
235	0xbb9bb9bd	-0.0047523663
236	0xba3c59db	-0.00071850204
237	0xba5b67e7	-0.00083696697
238	0xbbd16429	-0.006390114
239	0xbaf4c77e	-0.0018675176
240	0xb9b6a0b7	-0.00034833487
241	0x392782a9	0.00015975036
242	0x3b080f96	0.0020761243
243	0xbb7857b5	-0.0037894074
244	0x3b1d22d9	0.002397707
245	0xbbe81c34	-0.00708344
246	0xba79c34e	-0.0009527699
247	0xb8ee939b	-0.00011376218
248	0xbbcf5556	-0.0063273115
249	0xbcb8d126	-0.022560667
250	0x3920ab02	0.00015322494
251	0x3b17ac1c	0.0023143357
252	0xbaa4330b	-0.0012527419
253	0xbb443b73	-0.002994266
254	0xbc027cf9	-0.007964366
255	0xbae55fb8	-0.001749984

policy_model.2.bias f4 [8]
0	0xbc8efa87	-0.017453445
1	0xbaa62519	-0.0012675851
2	0x3d04a4ca	0.032383718
3	0x3bc08ace	0.005875922
4	0xbbbabcb3	-0.005698764
5	0xba64ee43	-0.00087330135
6	0x3c5e3abc	0.013563808
7	0xbcd2dcdd	-0.025740081
