results/short_race/second_iteration_training/model315.pt (torch, 276107 bytes, 13 tensors)

features_model.0.weight f4 [128, 4]
00000000: e979 83bd 80a6 203e 2789 8e3d 45d3 62be
00000010: 8d92 a93c dabf 84bd 71af 88bb 000f 863d
00000020: c167 313e b67c e63c 1bd1 34bd cee5 373e
00000030: 7c33 333e 84b5 9fbd 2ef9 61bd 6d56 85bd
00000040: e088 2f3d dd38 4bbb 0dc0 f03c 4fc4 d2bd
00000050: 9c59 8a3d fc7c 2b3d 619d 723e 6bdf 35be
00000060: 5df0 50be 0f8e ec3b 5ca7 6e3d f21e 263e
00000070: fb89 6abd 9c6a ab3d af40 373d 3f6e 1d3e
00000080: 150c 3ebe de6c 323d fbff fa3d 6dfa 503b
00000090: c877 a5bd c483 1b3e 89b5 2c3d 4d59 8fbe
000000a0: fc8f 263d 4c1c 1a3e 0245 383e be11 8a3d
000000b0: a85c 163e e6f7 d8bd 358a 263e 0b2d a23d
000000c0: 839b 233e 1b23 6e3e e31d ee3c 70db 00be
000000d0: d1a4 30be fc3f 5ebd c754 14be 60f2 d13b
000000e0: 65e0 efbd 9f80 593e fab8 10bd 2b4c 0d3e
000000f0: feb2 6cbe 810c 17bd 0333 99be 919d 133d
00000100: b30a ee3d 2d4b adbb ec99 753c dae6 05be
00000110: 2df7 6abd b456 70be aefb fbbd 1464 f0bc
00000120: 5440 07be c437 513d 7eb8 a7bd 420a f6bd
00000130: 4915 a9bd e855 f5bd 57f4 82be 3193 2abe
00000140: ef4e a03d c1ff d2bd e724 01be 8797 6a3c
00000150: a271 7abe 5b66 28be 0000 493e effd 81bb
00000160: 6926 4b3d 9fe9 003e d1d9 c3bd edc9 3fbd
00000170: 52c7 5fbe eb55 d1bd b081 d2bd a9f7 873d
00000180: e915 363d b6ea 033e 1de0 013e 6a36 7dbe
00000190: f5e6 c1be 5fde 57be 9456 a73d b426 87bd
000001a0: fb3d 763e 0b99 9b3e 6498 eabc 36e5 273e
000001b0: 261d acbd e9b2 a9bd 6e05 d2bd aef7 bdbc
000001c0: ed3e f3bb 559f a03d b56d 08be 7aab 793e
000001d0: c155 d93d 6722 773d 2cf3 fabd ec57 83bd
000001e0: 5548 323e 1a00 e23d 14e4 2c3e cb71 953d
000001f0: 5cd0 f13d 45a6 9d3d 8392 e43d c1ad 1b3e
00000200: 6d86 3f3e 660a 80be 4e26 563d 123b f73d
00000210: df89 3a3e 6b18 babc 7bbe f53d a6f1 2bbd
00000220: 164b 073d a155 673d f686 6f3e 6e6f 233e
00000230: 3fd5 813d c839 bfbd 2775 44bc 00f5 19be
00000240: e7f8 c4bd 11fc abbd 2ca7 a33d cdb6 7cbc
00000250: 0f0f 98bd a39f c5bd c270 293b f454 ff3d
00000260: 602a 53be 5465 523d 9518 a03d ee16 f73d
00000270: 164d 713d 8e99 8a3c a8bd f73d 5f13 833e
00000280: fa51 9abd dd86 b03d 9773 0abe cfab 463e
00000290: f2e3 4dbd 6a27 07bd 387a 403c d5a6 58be
000002a0: 84f6 843d 77a8 1dbd 727f 4ebd 2912 0bbe
000002b0: 947c fabd 47b9 843d 0d8d 013e a17f 6d3c
000002c0: 3cc2 07bd 4d3a 1c3e 5a9f 513d 4849 42bd
000002d0: f739 1fbd cc44 e1bd a341 86bd 3cbb 003e
000002e0: 17c0 ca3d c801 8a3b 78dc c33e e927 ebbd
000002f0: 025c e93b 6c37 74bb 2de7 f13d 1896 8ebc
00000300: cb0e 55be 559b 02bc 8b7b 13be 88c3 0cbc
00000310: de52 6b3e 74b0 f9bd 9855 393d 2533 dc3d
00000320: 8eac 51be 2cf4 8fbd 6ba3 0d3d 9782 1d3e
00000330: f310 99be becd c73d 8572 373e 44d6 ac3c
00000340: 66dc 4a3e 528c 8d3e 7f6d 8fbd 5cd1 86bd
00000350: c180 5b3e 3c47 51bd 8067 5ebd 90ff 18bd
00000360: 1801 6c3d a92d 1bb9 eaff b73d 169c 72bc
00000370: a58f 143e d78c 9a3b 0b82 443e 4238 a13e
00000380: a80b 173e c648 a43c 2ca9 9b3b 04cd cbbd
00000390: ef54 6cbd 8d51 c13d d26a 043e 06d9 fe3b
000003a0: ab51 94bd 5932 aa3c 307e 6fbd 115a f73c
000003b0: f159 083e 6964 af3d 7d9b 113e 313a 4e3e
000003c0: e2a0 02be c26f 933d 19b0 3f3c d950 163e
000003d0: e89b 013d b5c9 93bd c92c 0abe b667 5a3e
000003e0: bda2 b7bd cad1 d73d 3518 593d 586a 8bbe
000003f0: cf28 50be 13b9 cd3d 86e7 00bd b9ad dbbd
-0.06419737 0.15688515 0.069597535 -0.22150905 0.020699764 -0.06481905 -0.004171305 0.0654583
0.17324735 0.028135639 -0.04414473 0.17958757 0.17500108 -0.07798293 -0.055169277 -0.06510625
0.042855144 -0.0031009235 0.029388452 -0.10291349 0.06755373 0.04186724 0.23692848 -0.17761008
-0.20404191 0.007219083 0.058265075 0.16222742 -0.057260495 0.083699435 0.04473942 0.15374087
-0.18559296 0.043560855 0.12255856 0.0031887547 -0.08079487 0.15186983 0.042165313 -0.2799782
0.040664658 0.15049857 0.17995074 0.06741665 0.14683783 -0.10594158 0.1626366 0.079187475
0.15977292 0.23255579 0.029066985 -0.12583709 -0.17250372 -0.05426024 -0.14485465 0.006407067
-0.11712722 0.21240471 -0.035332657 0.13798587 -0.23115155 -0.03687716 -0.2992173 0.03603894
0.116231345 -0.0052885027 0.014990311 -0.13076344 -0.05736463 -0.23470575 -0.123038635 -0.029344596
-0.13208133 0.051078573 -0.08189486 -0.12013675 -0.08256013 -0.11979276 -0.25577042 -0.16657712
0.078275554 -0.103026874 -0.12611733 0.0143183535 -0.2445741 -0.16445296 0.19628906 -0.003967039
0.049597178 0.1258912 -0.095630296 -0.04682343 -0.21853378 -0.10221466 -0.10278642 0.06639034
0.04445449 0.12882504 0.12683149 -0.24727789 -0.3787152 -0.21080922 0.0817081 -0.06599179
0.24047081 0.303902 -0.028637119 0.16396031 -0.08403997 -0.082860775 -0.10254942 -0.023189392
-0.007423273 0.0784289 -0.133231 0.2438182 0.106120594 0.060335543 -0.122534126 -0.06413254
0.17410405 0.110351756 0.1688388 0.07297095 0.118073195 0.07697729 0.111607574 0.15203
0.18703623 -0.25007933 0.052282624 0.12071814 0.18216656 -0.022716722 0.11999222 -0.0419785
0.033030592 0.056478146 0.23391327 0.15960476 0.063395016 -0.09337193 -0.011990822 -0.15034866
-0.09617787 -0.08397687 0.0799087 -0.0154244425 -0.07424747 -0.09649589 0.0025854562 0.124673754
-0.20621634 0.051366165 0.07817189 0.1206492 0.058911406 0.016918924 0.12096721 0.25600716
-0.07535167 0.08619473 -0.13520657 0.19401477 -0.050266214 -0.032996573 0.011747889 -0.21157391
0.064923316 -0.03849074 -0.05041451 -0.13581146 -0.12230793 0.06480651 0.12651463 0.014495761
-0.03314422 0.15256615 0.05117736 -0.047433168 -0.03887364 -0.1099945 -0.06555488 0.12571424
0.098999195 0.004211638 0.38254142 -0.11482222 0.007121564 -0.003726448 0.118116714 -0.017405555
-0.20806424 -0.007971604 -0.14402597 -0.00859154 0.2298083 -0.12191859 0.045247644 0.107519425
-0.2047598 -0.07028994 0.034579676 0.15381847 -0.29895744 0.09756039 0.1791478 0.021098264
0.19810638 0.27646118 -0.070033066 -0.06582901 0.21435834 -0.051093325 -0.054297924 -0.0373531
0.05761823 -0.00014798962 0.089843586 -0.014807722 0.14507921 0.0047164964 0.19190232 0.31488234
0.1475054 0.020054232 0.0047503915 -0.09951213 -0.057698186 0.09439383 0.12931374 0.007777336
-0.072421394 0.02077596 -0.05846995 0.030194314 0.1331556 0.085640736 0.1421947 0.20139386
-0.12756684 0.071990505 0.0116997 0.14679278 0.031642824 -0.07216207 -0.13493647 0.21328625
-0.08966587 0.10538061 0.0530016 -0.2722957 -0.20328067 0.10045066 -0.031470798 -0.10726494

features_model.0.bias f4 [128]
00000000: 598e a8bb d127 96bc d63c 09bc 5b98 d3bc
00000010: 9132 523d 50f9 033d fd9e 7bbc a7c5 9bbb
00000020: 14b9 c2bb fc10 c4bc 4871 743c 0ef3 10bc
00000030: 5339 4c3c 825e fcbc a038 a1bc 2368 693c
00000040: cb74 373d db13 c0bc eed3 58bd a2a0 2c3a
00000050: 9692 efbc 6d0f 18bd d768 683c 3b05 34bc
00000060: cf8b a13b 45a4 52bc e32d 0a3c 272b a73b
00000070: f1c5 7e3c e629 1e3d f595 3c3d 771a 233d
00000080: 37b0 5fbc 7693 bf3c 45c3 f2bb 9285 fd3b
00000090: 6ec3 18bc 3d57 01bc ea3c 19bc cc26 283c
000000a0: 03ad 063d b153 f83a 1104 d33c 0f3d e7bc
000000b0: 32c7 03bc 36e9 99bc 42fe 0c3d 9e74 853c
000000c0: b6e4 59bc 90a9 f53c 7fb7 52bc c896 87bb
000000d0: a948 203d 6342 c63c 4891 2a3d d0e4 b3bc
000000e0: 147c e83c 0279 a93a 5502 66bc 55ff e23c
000000f0: 160c 8abc 0695 18bd 99ad 34ba c523 18bc
00000100: cc87 ecbc 2456 1bbc 90b9 d8bc ee31 143c
00000110: 267b 7f3c e134 0bbc 9b6c 66bd d407 b4bc
00000120: 9d68 c0bc 86b4 d8bc 5193 e2bc 2209 04bd
00000130: bcf4 de3a d965 523d c4b4 38bc b380 ee3b
00000140: fb87 eabc 9df9 f1bc 4a40 8f3c 6ba1 a8bc
00000150: 1a3e 07bd bf76 30bc c53b 1d3d 797d 3c3d
00000160: c554 1d3d 6090 73bc f37f 62bc 299a 23bb
00000170: d90c 9abc 4584 7dbc c0a9 8eba 626a 9d3c
00000180: 4f03 08bd 096a af3b d4f1 04bc 5c74 0cbb
00000190: f02f cebc c65c c73b 4245 a53d 16d4 89bc
000001a0: 367f a4bc dfd8 f63a d8f3 fbbc d32e 5cbc
000001b0: cb24 69bc fa27 4fbc cc27 0cbd 00b9 debc
000001c0: 1434 c6bc 447f 1b3d a667 d23c b396 2d3c
000001d0: 18b6 913c 632d 27bc 3fea 4c3a 6c0c 9ebc
000001e0: f416 afbc 40d0 0b3d d7e7 d73c 5685 6dbc
000001f0: 112d b1bc 447c 4abc 57e5 283c a0df f3bb
-0.0051439223 -0.018329533 -0.008376321 -0.025829485 0.051317755 0.032220185 -0.01535773 -0.0047537866
-0.005942473 -0.02393388 0.0149195865 -0.008847011 0.012464839 -0.030806784 -0.019680321 0.01424602
0.044789117 -0.023446968 -0.052936487 0.00065852155 -0.029244702 -0.037124086 0.014185152 -0.010987575
0.0049299966 -0.012856548 0.008433792 0.0051015797 0.015550123 0.038614176 0.046041448 0.03982016
-0.013652853 0.023385745 -0.007408532 0.00773687 -0.009323938 -0.007894334 -0.009352902 0.010263156
0.03287984 0.001894584 0.025758775 -0.028227357 -0.008043097 -0.018787961 0.034422167 0.016290959
-0.013299158 0.02998808 -0.012861132 -0.0041378476 0.039131794 0.024201578 0.041642457 -0.021959692
0.028379478 0.001292974 -0.014038642 0.027709642 -0.016851466 -0.037251495 -0.0006892323 -0.009285872
-0.028873347 -0.009480987 -0.02645567 0.009045107 0.015593326 -0.008496494 -0.056255918 -0.021976389
-0.023487383 -0.026453268 -0.027658137 -0.032235272 0.0017010192 0.05136666 -0.011273567 0.0072785257
-0.028629294 -0.02953797 0.01748671 -0.020584783 -0.03301821 -0.010770499 0.03838708 0.046018098
0.03841092 -0.014865965 -0.013824451 -0.0024963713 -0.018804954 -0.01547343 -0.001088433 0.019215766
-0.03320628 0.0053532165 -0.008114297 -0.002143166 -0.025169343 0.0060840575 0.080698505 -0.016824763
-0.02008019 0.0018832943 -0.030755922 -0.013438898 -0.0142299635 -0.0126438085 -0.03421764 -0.027187824
-0.024194755 0.037963167 0.025684189 0.0105950115 0.017787024 -0.010203692 0.0007816888 -0.019293033
-0.02137325 0.03413415 0.026355667 -0.014497122 -0.021627935 -0.012358729 0.010308585 -0.0074424297

features_model.2.weight f4 [128, 128]
00000000: 967c 353e 83ce 79bd a858 84bd 60bd eb3d
00000010: abf9 303e 7b55 563d cc6c 51bd 63d7 07be
00000020: 1eb3 1a3c b649 033c 33e8 9ebc bb86 c4bb
00000030: 6320 d8bc be1a 2c3d b8fe e2bd 4c80 df3d
00000040: 62f6 07be b251 b03d 3717 60bd ef55 c6bd
00000050: 3efe d93d b84e 563d e32c 03bb a747 4ebd
00000060: 0752 3d3d 7a54 f9bd db5a 54bd bf88 8d3e
00000070: 7def 943a 6f8e d9bd 7498 8a3b f0f5 6a3d
00000080: c3f6 493e 96b7 8ebc a1e0 13b9 6f4b 273c
00000090: 3ecc c6bd fb31 61be 01c0 4cbe e6ac 153d
000000a0: 6d32 273e 67d5 3d3b e7af 443e 6a08 b23d
000000b0: ee9a a83d 7226 203e debd 2abd b3a7 ecbb
000000c0: 1ee7 2b3e ab4b 973e ddf4 173e bd3a 423e
000000d0: ca55 fcbd ec49 1ebd e394 92bd 4ff7 5ebe
000000e0: ad2b 78bd 6dde e6bd 0eb2 70bd 457c b73d
000000f0: df05 e73d 64fd 9b3e 8e4b 0f3d 8963 73be
00000100: d93a 573e 0337 313d 134c bbbd c95b 73bd
00000110: 7b79 aabd 8658 ac3d da81 c63d 8900 57be
00000120: 1063 5ebe 1b93 0dbe 5044 ddbd b37d 06bd
00000130: 8bf9 fdbc c917 463d 4974 c2bd 1042 9ebe
00000140: 3e20 543d 50b5 b93d 7bc0 e2bd dcc3 093d
00000150: 9017 523e bebd 493e ba6a 07be 7267 95bd
00000160: 2511 633d abc0 643d 5ae5 6dbe 80c0 a6bd
00000170: 4b2c 363e a148 6fbd dc33 01bd 5bf6 f0bd
00000180: 073a 86bd 76ba fd3d e16b 573e 4cb1 3dbe
00000190: 04c1 043e b193 a0bb 0d55 b43d e6e5 913e
000001a0: e073 303e 1ffe 4cbb e270 31be 9b1c 0cbe
000001b0: 1029 f9bd ee97 2d3e b91f 4bbd f696 403e
000001c0: 541e afbd 17b9 3dbe f821 34bd 9df0 a6bc
000001d0: 340b 283d 7fae 05be 79d7 37bd 8807 17be
000001e0: 5173 3ebd 561e 0f3c 2c47 94bd 3aba 5a3d
000001f0: 210e 2cbd fc7a 7b3d 98c5 aa3d 421d 97bd
00000200: cd1b 82bd 9f06 923d 86ea 8d3d 470d 883c
00000210: 8ee1 8bbd f3f0 ab3d 6c1a 8f3d 8c99 25be
00000220: 78ae ce3d f0c9 85be 7a8d 2abe 6faa d13d
00000230: 3a01 d43b 746e 943c 52f5 0e3e e2b2 81bd
00000240: 9f30 92bc 4a91 f63c 3d47 6c3d ee9b c3bd
00000250: d226 d3bc 1fb0 28be 9d6b 05be 95fd a73d
00000260: c529 94bd b81f ddbd 0072 21be 7a42 1cbd
00000270: ec81 863e eea3 27be 593e b1be 0936 c5bd
00000280: 9362 583d 8d48 933c 762f f9bd cce6 70bd
00000290: c23c 643d 6fbb 3dbc 1156 263e 1fce 91bc
000002a0: b8a0 e03d 6524 4dbe 52e5 813c 6473 ea3d
000002b0: 3cc0 313c 121e 6fbd 03f2 3d3d 1a8c 7f3e
000002c0: ff97 12be 9018 fe3c 5d4f a43c 1277 1bbd
000002d0: 9fe3 103d 9a76 bb3d a298 4c3c 33c9 933d
000002e0: 18d1 d63c dcf0 dd3d 826f bbbd 49a5 273d
000002f0: 4808 5f3e 1b96 58bd 4238 75be 0ad6 9d3e
00000300: fd71 6f3d db5e 9e3b dc97 3f3b aef4 9abd
00000310: 0944 b73c 6c50 6e3e e866 89be be8c 1dbd
00000320: 3929 7f3d 5174 c03d e888 38be 8366 043e
00000330: d718 7f3b 7676 59bc 6dca c8bd d354 f53d
00000340: f51a 823b 5c5b 223e 1134 6a3d 0014 963e
00000350: e624 063d fcbf 69bc c894 2abe 76e8 813d
00000360: b07b 733e a71d 4fbc 35f3 49bd 9ad2 58bc
00000370: 432b b73c 98ee 983c c0ed 0a3e ee19 11be
00000380: 5067 ddbc c62d ddbd 3801 2a3e b597 dfbd
00000390: 0267 313d 8871 bcbd af77 a9be 5015 8c3c
000003a0: 9015 78bd 0341 58bd d0a5 48be 5ce0 643e
000003b0: fa77 d2bd 8192 17bd 631b 85bc 6eab 113e
000003c0: f7ee 86bd 238f 4cbe b333 553d 23fa cdbd
000003d0: 8a4b 3a3e 9701 d43d 2994 0d3e a3b7 c5bd
000003e0: f510 6bbc 1874 b03d d54b 553e 01d7 9ebc
000003f0: 2e38 31be e777 76be 9ac0 03bd 87bd 823d
0.17723307 -0.06098796 -0.06462222 0.1151073 0.17282741 0.052327614 -0.051129147 -0.13265757
0.009442119 0.0080131795 -0.01939783 -0.0059975064 -0.02638263 0.04201769 -0.1108374 0.109131426
-0.13277581 0.08609332 -0.05470964 -0.09684359 0.10644196 0.052321166 -0.0020015768 -0.0503613
0.046220805 -0.12174316 -0.05184446 0.2764339 0.0011362877 -0.1062287 0.0042295996 0.05736345
0.19723038 -0.017421525 -0.00014102693 0.010210856 -0.09706925 -0.21991722 -0.19995119 0.036541842
0.1632783 0.002896631 0.19207726 0.08693011 0.082326755 0.15639666 -0.041684978 -0.0072221397
0.16787383 0.29549918 0.14839502 0.1896772 -0.123210505 -0.038644716 -0.07157304 -0.21774028
-0.060588527 -0.11272893 -0.058763556 0.089592494 0.11280417 0.3046676 0.034984164 -0.23768438
0.21018542 0.043265354 -0.091453694 -0.059413705 -0.08323952 0.08415322 0.09692736 -0.20996298
-0.21717477 -0.13825648 -0.10804045 -0.03283472 -0.03100278 0.048362527 -0.09494836 -0.30909777
0.05178856 0.09067786 -0.11071869 0.03363405 0.20516801 0.19701287 -0.13224307 -0.07295121
0.055436272 0.055847805 -0.23232022 -0.08142185 0.17790334 -0.058418874 -0.031543598 -0.117657386
-0.065540366 0.1238908 0.21037246 -0.18524665 0.12964255 -0.0049004187 0.08805285 0.2849571
0.17231703 -0.0031279398 -0.17328218 -0.13682787 -0.12166035 0.16952488 -0.0495908 0.18807587
-0.085507065 -0.18527637 -0.043977708 -0.020378405 0.04102631 -0.13054846 -0.044883225 -0.14748967
-0.046496693 0.00873526 -0.072401375 0.053400256 -0.042005662 0.061396584 0.08338469 -0.07378627
-0.06352959 0.07130169 0.069294974 0.016607894 -0.068301305 0.08395567 0.069874614 -0.16171855
0.10091871 -0.2613063 -0.16655532 0.10237586 0.006469873 0.018119074 0.1396077 -0.06332947
-0.01784545 0.030098576 0.057685126 -0.095512256 -0.025775347 -0.16473435 -0.13029332 0.08202664
-0.072345294 -0.107970655 -0.15766144 -0.038149334 0.26270998 -0.16371128 -0.3461788 -0.09629447
0.052828383 0.01797893 -0.121672556 -0.058813855 0.055722006 -0.011580332 0.16243769 -0.017798482
0.10968155 -0.20033415 0.015856419 0.1144779 0.010849055 -0.058378287 0.04637338 0.24955788
-0.14315794 0.031017572 0.020057375 -0.03795535 0.035373326 0.09153481 0.012487562 0.0721611
0.02622275 0.10836956 -0.09152128 0.040929113 0.21780503 -0.052877527 -0.23947242 0.3082736
0.058458317 0.004833085 0.0029234802 -0.075662 0.022371309 0.23272866 -0.26836324 -0.0384643
0.062295172 0.093971856 -0.18020976 0.1292973 0.0038924718 -0.013272872 -0.09804235 0.119790696
0.0039704987 0.15855163 0.05717856 0.29312134 0.032750033 -0.014266964 -0.16658318 0.063431665
0.23777652 -0.012641347 -0.049304206 -0.013233805 0.022359496 0.018668458 0.13567257 -0.14170048
-0.027026802 -0.10799746 0.16602027 -0.10917608 0.043311127 -0.09201342 -0.33099124 0.017100006
-0.06056744 -0.052796375 -0.19594502 0.22351211 -0.1027679 -0.03700495 -0.01624841 0.14225551
-0.06588548 -0.19976477 0.052051257 -0.100574754 0.18192878 0.10351866 0.1382605 -0.096541665
-0.014347305 0.08615893 0.20829709 -0.019389631 -0.17306587 -0.24069177 -0.0321661 0.06383806

features_model.2.bias f4 [128]
00000000: 8626 a3bb 92b4 c23b dc1c e3bb 9fae 04bd
00000010: 6717 65bc 5143 823c 2288 14bb 0000 0000
00000020: fecc 693c 37c8 f7b9 4749 85bc a13f a43c
00000030: b690 18bc dc2b 64bc 214a d7bb 80c2 f63b
00000040: 0654 a4bb df9d be3c 1d51 13bc a02f 933d
00000050: 5bdf 61ba d62c 603c bf46 08bb 71d4 12bd
00000060: b5eb f83b fa23 2ebc cf97 bfbb 068e 39bc
00000070: 71c2 90bc d279 64bc 775e 48bc c275 85bc
00000080: 94c6 03bc 93bc 673d 9cc7 16bc 6b20 3a3d
00000090: c211 85bc 7777 b5bc dcf3 10bc c9a7 d1bb
000000a0: fff8 20bc f641 1cbc cd31 d5bc eebb d03a
000000b0: 6d9a 4d3c 2db8 6cbc abc2 523b 2950 4dbc
000000c0: aede babc 727b 003d ad70 17bb f420 2ebb
000000d0: 4aef 9dbc 970a 253d 82b1 33bc bc92 2fbb
000000e0: de62 233d 3a89 bcbc 6e1a 333c 7640 0bbc
000000f0: e0a5 61bc 6447 0d3d 14dd 07bb 5b06 aa3b
00000100: a0e5 09bc a7ec 9abc 7f7a 4db9 b8c4 90bc
00000110: 62b9 d9ba de92 3a3d bddf ccbb 9a85 653b
00000120: cdaf 78bc 718c 31bc b8fc 903c 49f9 9bbc
00000130: d1f8 2a3c b27a 093c ad09 763d 4c22 9dbc
00000140: 0000 0000 f7e0 16bc ebee 24bc 1c65 5e3b
00000150: fa06 12bc 4385 3f3c 4201 bfbc e7ea 5fbb
00000160: 8355 923c 82ed 3abb 9c54 ebbc 62b7 7fbb
00000170: 4089 db3c 1043 8cbc a335 95bc 4ead a83b
00000180: e284 25bc a93a 9bbc 80f8 b6bb cc12 97bb
00000190: 8d25 02bd 0442 bbbc 0000 0000 52c3 e1bc
000001a0: f6d6 473c a75a febb 0282 6fbb 0d6e e4bc
000001b0: 2473 a53b d22b 20bc d32a 3e3d e493 07bd
000001c0: 259b 8dbc 2ad0 91bc 2719 8ebc 7b77 313b
000001d0: 533b 1bbc ecd2 43ba b76f f9bb 1d4f b4bc
000001e0: c807 ee3b a73b f4bb f318 33bc e628 7abc
000001f0: 4035 ccb7 837a 023d 0000 0000 5f62 4dbc
-0.0049789576 0.005941936 -0.0069309305 -0.032393094 -0.01398263 0.01590124 -0.002266415 0.0
0.014270065 -0.00047260683 -0.016270293 0.020049872 -0.0093118455 -0.0139264725 -0.006570116 0.0075305104
-0.005014899 0.023268638 -0.008991507 0.07186818 -0.00086163514 0.013682565 -0.002079412 -0.03584713
0.007596458 -0.010628695 -0.0058469544 -0.011325365 -0.017670842 -0.01394506 -0.012229553 -0.016291503
-0.00804295 0.056576323 -0.009202864 0.045441072 -0.01624382 -0.022151692 -0.008847203 -0.0063981754
-0.00982499 -0.009537211 -0.026024723 0.0015925148 0.012549025 -0.014448208 0.0032159488 -0.012531319
-0.02281126 0.031367727 -0.0023107931 -0.0026569935 -0.019279141 0.040293302 -0.010967614 -0.0026790341
0.03988921 -0.023014653 0.010931594 -0.008499255 -0.013772458 0.03449191 -0.0020731138 0.005188746
-0.008416563 -0.018911673 -0.00019595957 -0.017671928 -0.0016611035 0.04555022 -0.0062522576 0.003502226
-0.015178633 -0.0108367065 0.01769863 -0.019039767 0.010435299 0.008391069 0.06006782 -0.019181393
0.0 -0.009208909 -0.010066728 0.0033934778 -0.008912796 0.011689487 -0.02331603 -0.0034167112
0.01786304 -0.0028522913 -0.028726868 -0.0039019217 0.026798844 -0.017121822 -0.018214053 0.0051476127
-0.0101024825 -0.01894887 -0.0055838227 -0.004610395 -0.031774092 -0.022858627 0.0 -0.027558956
0.012197247 -0.0077622714 -0.0036545997 -0.027884508 0.005049126 -0.009776073 0.04642756 -0.033100024
-0.017285893 -0.017799456 -0.017345978 0.0027079273 -0.009474593 -0.00074700895 -0.0076121944 -0.02201038
0.007264111 -0.0074534 -0.010931241 -0.01526854 -2.4343492e-05 0.031855118 0.0 -0.0125356605

features_model.4.weight f4 [128, 128]
00000000: 119a 103e ebe7 243c 7f5c 833d 0c62 63bd
00000010: a868 1ebc cb99 62be ea9f 82be 63d7 923b
00000020: 49de 7ebd 6248 013d 11d3 6dbd f0a8 1bbe
00000030: d2c7 4bbd b41f 48bd 9233 2abc 95ca f9bc
00000040: 7a0d 0f3e 1aae d83d 2a6b 60be 50cf 9c3d
00000050: 02cf 693d cec4 90be b4a5 19be bc9b b33d
00000060: 6c3a cfbd 760f b13d 178b c03e 4efa 95bc
00000070: 6a1e ea3d c884 f63d 5f8f d3bc 88ab c8bc
00000080: 3481 4a3d 3f57 4bbe c9f6 453e 0af7 573e
00000090: bbd6 3fbe fde3 71bd 6305 85bc 652d 113d
000000a0: 69ca 9ebc 4529 cb3c ea6f ab3e 8f21 09be
000000b0: daa6 9c3d aa84 363e 6b52 e0bc a7cf 253e
000000c0: 37b4 60be b260 053d 5e86 5c3d b03e 5a3d
000000d0: 3707 0dbd 94c7 0dbe 03e7 94bd d369 ed3d
000000e0: 7770 4abd 6681 a1be 3482 303e 458c 563d
000000f0: 837f 16be 4247 3cbd f36f 1b3d 0fd9 13bd
00000100: 66fc 14be ca7d b3bd 164f 1b3d c734 63bd
00000110: c798 b23d 41f2 7a3d b60c d63d 2d25 213e
00000120: aa83 06be 0230 b1bd 9938 b0bc 2ae2 763d
00000130: f658 9bbe 9f5e fa3c ef97 a9bd 14bb 0fbe
00000140: ffde 593e 287d 483e 013b fbbb b6fd 15ba
00000150: bd17 b93c 8e62 fcbd 9f1b 953c 8170 763d
00000160: dd00 733c c8ab 05be 470b 753d 9403 283d
00000170: 2473 07be d0e6 d5bd 8cd2 39bd 3836 ce3d
00000180: de3d 143d 0ac2 ad3d be1f 023b 4167 e23b
00000190: c8a9 33bd 6e85 37bd 278c e3bd 9fc6 b63d
000001a0: f137 07bd e02d 47be 8db8 41be dba0 00bd
000001b0: 1a55 04be 004c 04be 4b35 793e f341 173e
000001c0: 2ed3 d83b 523e 983d b917 c3bc 69e8 5e3d
000001d0: bed9 02be e674 ea3d 2ef5 153e c763 b8bd
000001e0: c6c9 dc3d 6b81 f6bd 31db 193e e413 6ebe
000001f0: 02ec 24be 981b 07be 246a 0fbe 8b82 24bd
00000200: 4d7e 13bd 9534 eebd 0ef4 ef3d d3af a8bd
00000210: 2183 05be 607c 64bd af64 2c3e 4a11 18be
00000220: ef65 59be 2164 8bbd 4731 103d d095 37be
00000230: 89f6 5ebd a7cb 0d3e 7ec7 093d e672 953c
00000240: ca27 1ebe f0b2 86bd cd5c 923e 5699 a8bd
00000250: 0872 f63d 7d9e ac3d 9a1f 89bd a1a6 603e
00000260: b856 953d 915a c73d 8098 edbd e0bb 0abd
00000270: b3f4 41be f18b 2a3e 6b7a 583d 0d0e b3bd
00000280: 286b 09bd 37ab 09be b035 f93c 0e7f b6bc
00000290: eba3 883e d576 3cbd 2c48 44bb f58d 90be
000002a0: 6b67 293c c163 9fbc 1a84 a53d d247 443e
000002b0: 9ab8 d33e 180c 313d 2ad3 03bd 6e2d 95bd
000002c0: 86a6 013e 370d 66be 56d1 1abe 80c1 b8be
000002d0: 2c85 853d 84ee 33be 2f28 043d 50e9 543e
000002e0: 23d3 1d3e e823 fabb 1fb7 a7bd 6c36 c3bd
000002f0: 0068 6b3e c614 833e 11d8 a03d 8594 cfbd
00000300: 78c5 8b3d fe44 cfbc 9b39 2cbb 7ef6 b83d
00000310: 154d 303e 489b 35be 3005 133e 7950 953d
00000320: a97c 14bd 630d b93d cf60 3abd c645 8a3d
00000330: 5620 d3bd babd babd f01e aa3d 85bb 08be
00000340: 9431 bf3d 052f 473b acff 2abc 5996 ebbc
00000350: df31 813c 5aea 07be ad05 04bd 35ac 46be
00000360: 6ab2 103e f276 573e 4e65 323d abec 1e3e
00000370: 6ec1 ab3d 8846 503c f31e 87bd 3796 2b3b
00000380: 94eb 09bc 41e9 0d3e 30a4 f2bb 57ee 8abd
00000390: 04b7 5f3e 7bfc 1c3d ff87 4cbe e2cc e9bb
000003a0: c4dd ee3d 7d5e 12bd a319 cdbb 05c1 23be
000003b0: 389b e5bd 115d 2e3d f32b 16bd d6b1 023d
000003c0: 853a b93d f3ad 03be 7fbb af3d d384 a53d
000003d0: 1ba9 8ebc ba8a 99bd e725 233e fd0c dfbd
000003e0: c677 3d3e 3599 643d 2c58 2abc ec2d 8dbd
000003f0: fdde 01be f07c dfbd 20e7 0cbd d09a 563e
0.14121272 0.010065059 0.064141266 -0.055513427 -0.009668507 -0.2212898 -0.2551263 0.0044812425
-0.062223706 0.03156317 -0.058062617 -0.15201163 -0.04975111 -0.04885836 -0.010388272 -0.030492106
0.13969985 0.10580082 -0.2191588 0.07656729 0.057082184 -0.2827515 -0.15004617 0.08769938
-0.10118565 0.08645527 0.37606117 -0.018307831 0.11431582 0.12037045 -0.0258252 -0.024495855
0.049439624 -0.198575 0.19332422 0.21090332 -0.18734257 -0.059055317 -0.01623792 0.035443682
-0.019383626 0.024799952 0.3348382 -0.13391708 0.07649012 0.17824045 -0.02738305 0.16192494
-0.21943747 0.03256292 0.05383908 0.05328244 -0.03443071 -0.13845664 -0.072706245 0.1159245
-0.04942366 -0.31544036 0.17237169 0.052379865 -0.1469708 -0.045966394 0.03794856 -0.036095675
-0.14549407 -0.08764227 0.03791722 -0.055470254 0.08720546 0.061266188 0.10451643 0.15736838
-0.13136163 -0.08651735 -0.021511363 0.06027428 -0.3034131 0.030562697 -0.08280932 -0.14036208
0.21276473 0.19578993 -0.007666946 -0.0005721705 0.022594327 -0.12323485 0.018201647 0.060165886
0.014831749 -0.1305381 0.059825208 0.041019037 -0.13227516 -0.104444146 -0.04536681 0.10068935
0.036191814 0.08484276 0.0019855346 0.0069092815 -0.043863088 -0.044804983 -0.11110716 0.08924603
-0.033012334 -0.19451094 -0.18918057 -0.031403404 -0.12923089 -0.12919617 0.24336736 0.14771251
0.0066169715 0.07433762 -0.023815023 0.054420862 -0.12778375 0.11448078 0.1464431 -0.09003406
0.10780673 -0.12036403 0.15025021 -0.23249775 -0.16105655 -0.1319412 -0.14005333 -0.040163558
-0.03600912 -0.11631123 0.117164716 -0.08236661 -0.13038303 -0.055782676 0.16835283 -0.14850345
-0.21230291 -0.068062074 0.035203245 -0.17928243 -0.054434333 0.13847218 0.033637516 0.018243264
-0.15444866 -0.06577098 0.28586426 -0.082323715 0.120334685 0.08428667 -0.06695481 0.21938564
0.07291931 0.09734071 -0.11601353 -0.033870578 -0.18941002 0.16654946 0.052851122 -0.08742914
-0.033549458 -0.1344422 0.030421108 -0.022277381 0.2668756 -0.046011765 -0.0029950244 -0.28233305
0.010339598 -0.019456746 0.08081837 0.19168022 0.41351777 0.043224424 -0.032183804 -0.07284056
0.1266118 -0.22465979 -0.15118918 -0.3608513 0.06519541 -0.17571455 0.032264885 0.20792127
0.15412574 -0.007633675 -0.081892245 -0.095318645 0.22988892 0.25601786 0.078537114 -0.1013575
0.068247736 -0.025301453 -0.0026279453 0.0903139 0.17216904 -0.17735016 0.14357448 0.072907396
-0.036251698 0.090357564 -0.04550248 0.067515895 -0.10308902 -0.09118219 0.08306682 -0.13352783
0.09335628 0.0030393016 -0.0104369335 -0.028758215 0.01577085 -0.13272992 -0.032231975 -0.1940163
0.1413056 0.21041468 0.043553643 0.15519969 0.08386503 0.012712128 -0.065977 0.0026182064
-0.008417983 0.1385851 -0.0074048266 -0.06783741 0.21847159 0.03832672 -0.19973753 -0.0071350196
0.11663392 -0.035734642 -0.0062591597 -0.159916 -0.11211246 0.042569224 -0.036663007 0.03190788
0.09044365 -0.12859325 0.08580684 0.08081975 -0.01741462 -0.07497163 0.15932427 -0.10891149
0.18502721 0.055810172 -0.010396998 -0.068935245 -0.1268272 -0.10912502 -0.034400105 0.20957494

features_model.4.bias f4 [128]
00000000: bcab adbc c89a 2cbc 226c 68bc 9cfc 8bbc
00000010: 6dde 5c3c b041 0fbc ba55 34bc de17 a0bb
00000020: 03d0 87bc 8b87 66bb 7fd8 82bb 96a8 163d
00000030: 2321 1cbc 70b4 8e3c 1d74 fc3a 4ff6 b7bc
00000040: eb1e 23bc 1169 e9b9 4e99 f6bb 8222 163d
00000050: a706 8f39 bb1d 413d cd53 97bb ce1a 0cbc
00000060: 2c79 073d 59ac e5bb be57 48bc 3dc1 8a3a
00000070: ef7e a4bc d3a0 abbb 8d5c 903c a88b 273b
00000080: ab70 1cbc 89ec 093d 335e 04bc 2ffc 073d
00000090: cc52 3f3b 0000 0000 ff3d 2a3c e2e6 90bc
000000a0: 430d d1bb 075f 0dbc b946 323c b826 43ba
000000b0: 8e15 60bc 8803 38bc 1e5c 99bb 3c15 e73c
000000c0: e145 d3bc 0000 0000 85df e5bb e20c 9cbc
000000d0: 6ab4 44bc 93cc cb3b 41f9 88bc 870d 3cbc
000000e0: 0000 0000 bcb3 c2bc 9cb4 a8bc b021 c03b
000000f0: 6eca 6aba 1edd 23bc 114c 1abc 0442 afbc
00000100: 74e8 1a3d dabf 1a3c 9583 5e3d d12e 403c
00000110: 8008 10bb 87bf 9a3c 32fc 973c 4ac5 68bc
00000120: a7d7 ecbb 5203 aabc 1467 03bc c121 7a3c
00000130: b6bb 9f3a 93c8 9d3c 9d41 723b 9c6a 36bc
00000140: fedb 573c 11d7 613a 3bd7 913c 1765 6ebc
00000150: 185e 5ebc 7de1 4abc e522 cd3c 3892 643d
00000160: b9b0 8abc 41db b6bc 38f1 52bc 4d9b a6ba
00000170: 3432 9d3b 63e5 acbc 3757 1d3a 0dcd 9abc
00000180: c111 83bb b352 c03c 7f3f 26bc 3462 d53b
00000190: d907 acbc 3c21 b2bc 74cd 20bb d443 393c
000001a0: 2976 8a3c 9e3f 9abb 8fd5 38bb 8d51 6abc
000001b0: 3aad 103a 5499 9ebc 1c32 0fbc 3de2 aaba
000001c0: 4a07 233b 408c 99bb 77e2 9fbc 2856 cd3b
000001d0: efa0 73bc 01e4 033d 221e 57bc c6da 433d
000001e0: 2b85 2bbb ba5e ea3c 8319 0f3a 0000 0000
000001f0: c594 5f3d 48cc 443d 29e8 37bc cfa1 e23c
-0.021200053 -0.01053495 -0.014185937 -0.017088227 0.013480765 -0.008743688 -0.011006767 -0.0048856577
-0.01657868 -0.0035176005 -0.0039930935 0.03678187 -0.009529385 0.017420024 0.0019260679 -0.022456316
-0.009956102 -0.00044519504 -0.0075255996 0.036654003 0.00027280042 0.047147494 -0.004618144 -0.008551313
0.033074543 -0.007009071 -0.012227951 0.0010586154 -0.020080058 -0.0052376776 0.017622257 0.002556542
-0.0095483465 0.033672843 -0.0080790995 0.033199485 0.0029193638 0.0 0.010390758 -0.017688219
-0.0063797547 -0.008628613 0.010881119 -0.0007444429 -0.013677014 -0.011231311 -0.0046801707 0.028208368
-0.025790157 0.0 -0.007015171 -0.019049112 -0.012005905 0.0062194555 -0.016720416 -0.011477835
0.0 -0.023767345 -0.020593934 0.005863391 -0.0008956556 -0.010001449 -0.00941755 -0.021393783
0.03781934 0.009445155 0.054324705 0.011729912 -0.0021977723 0.018890155 0.018552873 -0.014207194
-0.007227856 -0.020753536 -0.008020181 0.015266837 0.001218668 0.01926068 0.0036965378 -0.011133816
0.013175009 0.0008615116 0.017802825 -0.014550469 -0.013572238 -0.012382862 0.025041053 0.055803508
-0.016929971 -0.022321345 -0.012874894 -0.0012711078 0.0047972444 -0.021105474 0.0006002071 -0.018896604
-0.003999919 0.023476934 -0.010146975 0.006511951 -0.020999836 -0.021744363 -0.0024536522 0.011307675
0.016902046 -0.004707291 -0.0028203463 -0.01430167 0.0005518977 -0.019360222 -0.008739974 -0.0013037395
0.002487617 -0.0046859086 -0.019517167 0.006266374 -0.0148699125 0.032199863 -0.013129743 0.04781606
-0.0026171904 0.028609622 0.00054588186 0.0 0.054585237 0.04804638 -0.011224785 0.027665047

policy_model.0.weight f4 [128, 128]
00000000: 5095 f93a 4691 223b de44 e9ba d9a7 c2ba
00000010: 2c66 0fba 290a 0cbb 964e 29bb 7190 a8ba
00000020: ec6a e7ba f07b d83a 02c1 97ba b450 f2ba
00000030: 1859 0fbb 8802 8b39 7091 28bb e239 d6ba
00000040: 7570 3fbb b963 e039 764f 9cba 4a5e 65bb
00000050: 6f8f 413b 4401 96bb 953f 19bb aef4 e338
00000060: b8a6 1e38 b1dc a7ba 95f6 9eba 8ba7 bcba
00000070: ece0 f1ba 2520 af3a a658 aebb 8961 dbb8
00000080: 70e4 d2b8 b300 71bb d5f3 de39 4f02 8dbb
00000090: 38be b9b8 9c86 70ba cfb9 a6bb 59f2 3ebb
000000a0: d340 56b9 c343 82ba d400 40ba d2b9 1d3b
000000b0: fd5b 3d39 144c 9c39 a937 d63a ec06 68ba
000000c0: c9f1 30ba 0546 96ba f137 f8ba 24ee 08bb
000000d0: 32d7 9fba 6641 963a ce8f f5ba 7e2f 373a
000000e0: c4f8 30ba fb8e 60bb 11bf faba 307a 1cbb
000000f0: 4811 eaba f206 d8ba 670c 40ba 3af1 4aba
00000100: 95c9 8c3a 4a68 ef3a 7079 3a3b 8515 1ebb
00000110: f0e7 8738 5982 eabb 5821 b6bb 5bf5 bdba
00000120: 7b71 f93a 47da 763a 2f40 28bb 54a9 a33a
00000130: 4143 a7b8 d37c fab9 e7e8 be3a aa29 e6ba
00000140: 2408 703a eaf4 5d39 92df eeb9 7f56 85ba
00000150: 43a4 0ebb e789 0c3b 78fe 08bc de37 d0bb
00000160: da49 e4ba 5682 433b 9288 ddba 4371 39bb
00000170: 9cfc c73a ae1f 38bb e1e0 80ba ceb4 5a3a
00000180: 2224 83ba dcad b9bb 7d6f f53a 3744 3b39
00000190: 9920 5f39 6a03 eaba 6ef8 24ba 57ed 2039
000001a0: 464a b0ba 5f16 e7ba 1cf7 b93a 4e8c 1bbb
000001b0: 93da 023a c53a cdb9 1f09 a33a 6a95 34bb
000001c0: d2ab 90b9 a159 56bb ddad a839 21ec 29bb
000001d0: 58e8 f6ba 419c e5bb 8a8a c4ba 8b64 97bb
000001e0: 0663 0cbb d377 e1bb 937b 8237 a571 2739
000001f0: 089e c6bb 6488 91bb 7677 35b9 d0c8 ecba
00000200: 1f90 4dbd d482 febb 5f8f c0bb dadf babb
00000210: 9970 1c3d f58e 8b38 d3b9 c13a 4b30 dbbb
00000220: c5ae 8b3c 620c 64bc bf5d 29bc 8b22 ff3c
00000230: 39be db3c 22eb 8a3c 40ff 223d 8ba6 c63b
00000240: 9330 aa3c 7864 633c e3cc 173a ac34 403d
00000250: 3d7f 7d3b 0f33 6c3d 2e93 13bc 9687 c63b
00000260: 5bb9 443d c7e8 283c 945d 193c 1393 ef3c
00000270: 92b6 bbbb 13d8 8cbc dc76 4b3d ab5b 0a3d
00000280: 296e 8cbb db11 e6b9 b04e 99bb dbae 593d
00000290: c4a4 9cbc 5497 0cba 9328 2e3d 120c abbb
000002a0: 3079 3ebc 33dc 833c 43de 143d 8906 0cbc
000002b0: d86f 1a3b 54c1 923c f0e0 a8bc 649d 483d
000002c0: a6b2 f03b 1917 65ba a28d 143c 1114 6b3c
000002d0: 37c5 5ebb 8207 b53c ef1d 8fbb e03e c5bb
000002e0: 8a44 1239 66af 6ebc 60cf fd3b b9ff 153d
000002f0: f5fd 3f3a a612 f03b debe d6b9 b32c f1ba
00000300: 39bf 60bd c006 ef3c 503c 193d 6f40 22bc
00000310: e884 843a b57c 283d 9aa5 493d 3fe4 eb3c
00000320: ca9d e939 54f0 9abc 90a3 e3bb b2d6 4b3d
00000330: f135 9e3a a899 6f3d 7b03 a5bc aec7 c83b
00000340: 5854 9c3c 8b28 0abd 5e54 95bc 150e d8bb
00000350: 7219 973b 1f21 a0bb 64e4 1a3d e36e f43c
00000360: aef5 6fbc 9473 47bb 34a1 fc3c 9b11 0a3b
00000370: bf11 a73c bd26 5fbc b839 933b 5dac a8bc
00000380: 1b6b d13c 39ac 3f3d 62da 33bb 56b0 00bd
00000390: 6dff 2bbc 06f4 2d3c 3f95 fe3c c971 483d
000003a0: 517c ebba 3caf 403d 529a 183d 3966 433c
000003b0: 7a87 a7bc 04b4 83bb 3242 39bc e979 10bc
000003c0: ebfa 363d c624 023c 7efa 4aba 2603 343b
000003d0: 700d 25bc 84f1 493d 33f6 5b3c 7f39 ec3c
000003e0: 9933 dbba c16d 493d 682c 093c 7225 3fba
000003f0: 8f9d 213d 70fd 363d 1951 6cbc 9555 713d
0.0019041691 0.0024805828 -0.0017797013 -0.0014851048 -0.0005470242 -0.002136836 -0.0025834194 -0.001286043
-0.0017655767 0.0016516428 -0.0011577907 -0.0018487186 -0.0021873172 0.00026514032 -0.0025721453 -0.0016344155
-0.0029211317 0.00042798909 -0.0011925537 -0.0034998828 0.0029534956 -0.0045777876 -0.0023383845 0.000108697786
3.7825404e-05 -0.001280686 -0.001212793 -0.0014393193 -0.0018453873 0.001336102 -0.0053206263 -0.00010460901
-0.0001005613 -0.0036774098 0.0004252481 -0.0043032537 -8.8569184e-05 -0.0009175332 -0.005088068 -0.002913615
-0.0002043278 -0.0009938407 -0.0007324342 0.0024067056 0.00018058713 0.0002981132 0.0016343492 -0.0008851129
-0.0006749896 -0.0011464959 -0.001893757 -0.0020893896 -0.001219487 0.0011463582 -0.0018734874 0.0006987973
-0.0006750936 -0.003426491 -0.0019130429 -0.002387654 -0.0017857933 -0.0016481562 -0.0007326067 -0.0007741634
0.0010741228 0.0018265333 0.002845373 -0.0024121713 6.480503e-05 -0.007156652 -0.005558174 -0.0014492677
0.0019031012 0.0009416681 -0.0025673022 0.0012486377 -7.9757076e-05 -0.00047776717 0.001456526 -0.0017560024
0.00091564865 0.0002116744 -0.0004556147 -0.0010172873 -0.0021765388 0.00214445 -0.008361451 -0.006354316
-0.0017417029 0.0029832325 -0.0016901663 -0.002829627 0.0015257779 -0.0028095054 -0.0009832644 0.0008342982
-0.0010005275 -0.0056664776 0.0018725243 0.00017859122 0.00021279081 -0.0017853801 -0.00062931224 0.00015347205
-0.001344987 -0.0017630568 0.0014188024 -0.002373475 0.00049916765 -0.00039144434 0.0012438631 -0.0027554878
-0.00027593836 -0.0032707232 0.00032172995 -0.0025928097 -0.0018837554 -0.0070071523 -0.0014994901 -0.00462014
-0.0021421327 -0.0068807392 1.5554751e-05 0.00015968697 -0.0060613193 -0.004441308 -0.00017306008 -0.0018065218
-0.050186273 -0.007767061 -0.005876466 -0.0057029547 0.03819332 6.654664e-05 0.0014780111 -0.0066891066
0.01705111 -0.013918968 -0.010337292 0.031144401 0.026824104 0.016957823 0.039794207 0.006062334
0.020775115 0.013878934 0.00057907234 0.04692523 0.0038680576 0.05766588 -0.009007258 0.0060586436
0.04802833 0.010309405 0.00936069 0.029244935 -0.005728551 -0.017192876 0.0496739 0.033778828
-0.004285593 -0.00043882322 -0.0046785697 0.05314527 -0.019121535 -0.0005363126 0.042519163 -0.0052199448
-0.011625573 0.01609621 0.036344778 -0.00854648 0.00235652 0.017914452 -0.020615071 0.048978224
0.0073455153 -0.00087390986 0.009066971 0.014348046 -0.003399206 0.022098307 -0.004367582 -0.006019458
0.00013949178 -0.014568185 0.0077456683 0.03662083 0.00073239143 0.007326442 -0.00040959468 -0.0018400162
-0.054869864 0.029178023 0.037411034 -0.0099030575 0.001011041 0.041134555 0.049230196 0.02879536
0.00044558785 -0.018913426 -0.0069469884 0.049765296 0.0012070519 0.058496147 -0.020143261 0.0061273193
0.019083187 -0.03373007 -0.018228706 -0.0065934756 0.0046111876 -0.004886761 0.037815467 0.029838031
-0.014645977 -0.003043388 0.030838586 0.0021067623 0.020394204 -0.013620076 0.0044929646 -0.020590002
0.025563767 0.046795104 -0.0027443399 -0.031418167 -0.01049791 0.010617262 0.031077025 0.04893664
-0.0017966126 0.047042117 0.037256546 0.011926227 -0.020450342 -0.0040192623 -0.011307286 -0.008818128
0.044672888 0.007943338 -0.0007743015 0.0027467697 -0.0100740045 0.049302593 0.013425398 0.02883601
-0.0016723751 0.049176935 0.008372404 -0.00072916516 0.0394569 0.04467529 -0.014423632 0.058919508

policy_model.0.bias f4 [128]
00000000: c7a6 95ba a3b5 383d 7361 c4ba de70 3d39
00000010: 38ad b537 c461 1cb9 53ed 8dba c5dc e4ba
00000020: 74db d23a 568b c4ba c5bc c4ba 2b96 eabb
00000030: e515 cdbb d730 663c 04b5 433b a860 b439
00000040: aeea e23b c3dd f8bb f320 c4ba 3b16 bfba
00000050: 0d00 79bb 5c62 5539 2923 f93b dfd1 c7b9
00000060: a719 95bb eeb8 c4ba b674 93bb 8f77 79bb
00000070: f1bb a33a 1567 c4ba 8945 c8b9 0938 d0bb
00000080: 1a95 70bb 980c d3b6 15b0 c4ba 9417 b73a
00000090: 46e1 5eba e12d 9dba 1b90 f4bb b92e 05bc
000000a0: b791 0c3d 6628 bebb 880b cc3b 9f86 c4ba
000000b0: 921f a8ba 5e7b 9b3b b391 b4bb 3a0b d738
000000c0: 6023 9dba f599 263b f0be 40bb ebc0 b3ba
000000d0: 1d50 76bb 51ec 833b 1736 7cbb 0000 0000
000000e0: 0000 0000 fc61 09bb 1322 fbbb 1836 a7ba
000000f0: 28ba a5bb d62d c3ba 2838 c4ba 21b0 783b
00000100: e334 613b 69b4 c4ba bbf0 e5ba 85c4 7fbb
00000110: f2e4 e9ba fd31 8cbb 4f8d b0ba 1b4f d0b9
00000120: fd62 83ba 76ae a9bb 136c e03a 5275 76bb
00000130: 0c4a c4ba 2c6b 92bb 1d94 89bb 1d9e c4ba
00000140: a2e6 21bb 6c49 b3bb c2d6 e4bb 14b0 0bba
00000150: a1c9 ab3b 1274 98ba 7c9c 5bba 69d3 993d
00000160: d36b 45bb 464a d4bb 8456 c4ba e106 6bbb
00000170: 72ef a1b9 ee55 dcb9 58cf fbba 3f2d 57ba
00000180: 64e1 c9bb 648c c4ba 0c83 9cbb 7735 97bb
00000190: e665 1e3b 3889 1abb f66c 42bb ab4e a7bb
000001a0: e90f d1bb 2424 be3b b51a 513c 9a34 49bb
000001b0: b980 a7ba cf94 c4ba 4e2c 1bb9 7762 f0ba
000001c0: 51ea 21b9 8659 e7b8 3d57 34ba 58f6 d8ba
000001d0: 5dbe d9ba aa65 aebb 6681 a0ba c198 c2ba
000001e0: 9d8d 92bb 3bff 2f3c ced0 a8ba 925d 573b
000001f0: e2ef 6abb 4368 6bbb 709c c83b e6bc 48bb
-0.0011417501 0.045095097 -0.0014982655 0.00018066491 2.1657543e-05 -0.0001491374 -0.0010828174 -0.0017460814
0.0016087131 -0.0014995139 -0.0015009871 -0.0071590147 -0.0062587135 0.01404973 0.0029862532 0.0003440429
0.0069249487 -0.0075947954 -0.0014963433 -0.0014578769 -0.0037994415 0.00020349905 0.0076030684 -0.00038112604
-0.004550177 -0.0015008727 -0.004499997 -0.0038065647 0.0012491924 -0.0014984334 -0.0003819878 -0.006354336
-0.0036709965 -6.289756e-06 -0.001500609 0.0013968819 -0.0008502196 -0.0011991822 -0.007463468 -0.008128815
0.034318652 -0.0058031557 0.0062269606 -0.0014993733 -0.0012826791 0.004744931 -0.0055105328 0.0001025409
-0.0011988692 0.0025421355 -0.0029410683 -0.001371411 -0.0037584372 0.004025974 -0.0038484388 0.0
0.0 -0.0020962944 -0.007663974 -0.001275721 -0.005057592 -0.001489098 -0.0014970349 0.0037946778
0.0034363798 -0.001500738 -0.0017543057 -0.0039027047 -0.001784472 -0.00427842 -0.0013469848 -0.0003973179
-0.0010024008 -0.005178268 0.0017122052 -0.003760655 -0.0014975681 -0.0044683423 -0.0041985647 -0.0015000735
-0.0024704118 -0.005471399 -0.006983609 -0.0005328667 0.005242542 -0.0011631271 -0.0008377505 0.075110264
-0.0030124083 -0.0064785806 -0.0014979397 -0.0035862254 -0.00030886714 -0.00042025693 -0.0019211574 -0.00082083413
-0.006160902 -0.0014995453 -0.004776364 -0.004614528 0.0024169623 -0.0023580324 -0.0029666997 -0.0051058135
-0.0063800705 0.005802648 0.012762715 -0.003070152 -0.0012779451 -0.0014997962 -0.00014798457 -0.0018339892
-0.00015441446 -0.000110316134 -0.00068794546 -0.0016552908 -0.0016612519 -0.005322178 -0.0012245595 -0.001484655
-0.004472448 0.010742004 -0.0012879611 0.0032862169 -0.0035848548 -0.00359203 0.0061221644 -0.003063017

policy_model.2.weight f4 [8, 128]
00000000: daf4 ecba a1b5 c1bc 1218 e23a baf7 513a
00000010: b3fd 00bb f7a8 4e3a bce8 80bc 322a eebb
00000020: 7a05 b63b d176 2ab9 e80b eeba 193b d6bb
00000030: 1d41 cbbb 6805 713b f061 243b bd5b 9f3a
00000040: e50b 723b dd2f 00bc d230 833a 73d5 29bb
00000050: f992 ddbb 2e31 0bbc ea06 7f3c 1b31 393a
00000060: 99e8 09bc 3444 d73a 0bf2 47bb 8dd2 fbbb
00000070: aa8c 84bc 0a85 5aba 9df9 15bc 3aeb ee39
00000080: 2c02 24bc bb80 34bc 0e06 e63a 0380 11bc
00000090: 05f3 97ba 6e14 8f3a c6f9 01bc c733 1bbc
000000a0: de69 2abd d8ed f8bb 7157 633b 04f9 c9ba
000000b0: 8bd7 a73a e942 74bd a5ad 0bbc 266e 76bb
000000c0: fbce 0dbc 1b5b 993b 5774 0abc f235 b5bb
000000d0: 3c32 913b 57cd 943b 9e8b c7bb 4779 6cb9
000000e0: b87e e23a 8e05 a63a ddda fabb 02a1 cdb7
000000f0: 56a0 edbb ff1e f3b9 af07 2cba 6f25 883b
00000100: 7e83 1cbc a1c0 863a 3bc9 7f3a 5ea0 d6bb
00000110: 2d75 04bc e3c4 99bb a28b 14bc 589d 1ebc
00000120: 689d 83b8 737f 493b 1fc6 f33a c5d4 47ba
00000130: 64fa 163b bbe7 14bc 3bc1 bcbb 7bda 5e38
00000140: 1509 c83a 2d48 cdbb b3bb 0dbb 31b6 a03a
00000150: 6c64 8a3b 9965 923a 030f e4b8 337a 87bd
00000160: ed55 d6bb b2fb ebbb 89de cd3a 40b5 f5bb
00000170: 53c4 1f3b 0378 f7bb 0b95 9b3a b2a8 86bc
00000180: 0a4b dcbb 51cb 613b 1ca5 afbb 1586 00bc
00000190: f6c6 743b b527 f9bb c539 373b fa35 9039
000001a0: 04f5 8238 2fad 6a3b 1246 22ba f8dd 0cbc
000001b0: 6df7 c1b8 4eff 133b 97b6 03bc 6862 a9bb
000001c0: 10e7 5ebb be2c cdb8 3882 7e3b 50bf 463a
000001d0: fcae a9b9 5ed7 e9bb c119 7c3a c232 a6b9
000001e0: 1a90 05bc f5b6 73bd 0042 c6b9 c8d4 3abb
000001f0: 4ac7 fdb8 88ce 0bbb 1a41 963b 9fc1 5e3a
00000200: 8aeb 8a3a 768b c83c 1045 2bba b222 39ba
00000210: fa44 d839 1d47 71ba 2741 f43c 4a91 09bc
00000220: b428 0abc 649f 38b9 46b7 553b 6546 dfbb
00000230: 8c3c d6bb 2813 e2bb e237 13bb a26b aabb
00000240: ef76 1fbb 22da c6bb d7f9 f23a d004 64ba
00000250: 0f5c 1cbc 84dc 00bc c114 11bc 67a5 02ba
00000260: 9f5e d0bb 1a7c 543a 388d f4ba b61e acbb
00000270: 6563 9d3b 18b8 c6ba de02 01bc 1a58 363b
00000280: 4e33 9ebb 5571 a3ba d1cb 0f3a 9f46 ecbb
00000290: 1480 863a 0d9e afba e9eb c7bb 88d0 0fbc
000002a0: 07ea 423d f8c5 04bc f8b1 b5bb f5fc 2b3b
000002b0: 421a 2e39 b00a 95bc 92a9 cfbb 9cba e539
000002c0: 51ab ccbb 4c62 00bc c95b 2cbc df88 8fba
000002d0: 4963 8abb 062e e7bb 1c76 05bc bc9b c63a
000002e0: a12c fc3a 9664 c63a ca56 9cbb c918 27ba
000002f0: bb74 e3bb 6348 7c39 2af0 b1ba d359 0abc
00000300: 000e b2bb cf88 3cba 9262 e6b9 44fc c9bb
00000310: f959 a6bb 093f a2bb 4c05 86bb f535 d9bb
00000320: 635d f4ba 0cbd d83a 5c85 89bb 48ab 7fba
00000330: 64e8 6b3b 28e7 cfbb bde5 07bc a834 b4ba
00000340: dda3 c8b8 809e d6bb 6fd4 b9ba 34a4 a0ba
00000350: eaa5 e3bb 5f15 8eba 77ca bb3a 93bb ac3c
00000360: b581 f2bb ab31 ffbb 9d1d d23a 3986 2ebb
00000370: b40e f1b8 aa06 07bc 5ca3 b4b9 b38c e73b
00000380: 6437 c3bb fd37 e139 1559 c5bb badd dabb
00000390: 67c0 d9bb a963 00bc f8a8 813b 007c aab8
000003a0: 26c3 e43b cfee cebb 9a87 b8bc a62c 8ebb
000003b0: db59 3cba e767 5bba 5b3d d5bb 2c77 85ba
000003c0: c6c0 fd39 a982 2739 960f 083b b557 78bb
000003d0: d922 1d3b 633a dabb 4ec3 79ba 9b93 eeb8
000003e0: 777c c3bb b1b5 45bc 02ab 2039 913b 1d3b
000003f0: 0b33 a4ba 733b 44bb f97c 02bc b85f e5ba
-0.0018078343 -0.023646178 0.0017249605 0.00080096314 -0.0019682467 0.0007883454 -0.015735976 -0.0072682137
0.005554852 -0.00016256726 -0.0018161507 -0.0065378067 -0.0062028305 0.0036776904 0.002508279 0.0012158077
0.003693336 -0.0078239115 0.0010009056 -0.002591458 -0.0067619053 -0.008495612 0.015565613 0.0007064507
-0.008417272 0.0016423524 -0.003050926 -0.0076850117 -0.016180355 -0.00083358644 -0.009153751 0.00045570155
-0.010010283 -0.01101702 0.0017549412 -0.008880618 -0.0011592811 0.0010916123 -0.007933086 -0.009472794
-0.04160487 -0.0075967126 0.003468957 -0.0015409295 0.0012805326 -0.059634123 -0.008525287 -0.0037602275
-0.008655305 0.00468005 -0.008450589 -0.0055301124 0.004431037 0.00454108 -0.0060896417 -0.00022551893
0.0017280197 0.001266645 -0.007655485 -2.451288e-05 -0.0072517795 -0.00046371666 -0.0006562424 0.004154853
-0.009552835 0.0010280797 0.00097574637 -0.006549879 -0.0080845775 -0.00469266 -0.009066494 -0.009681068
-6.275886e-05 0.0030746132 0.0018598473 -0.00076229527 0.0023037428 -0.009088452 -0.0057603396 5.31324e-05
0.0015261496 -0.0062647075 -0.002162677 0.0012261329 0.004223397 0.0011169194 -0.00010874683 -0.066151045
-0.006541005 -0.0072016353 0.001570658 -0.0074984133 0.0024378493 -0.0075521483 0.001186998 -0.016437862
-0.0067228125 0.0034453461 -0.0053602587 -0.007844468 0.0037350035 -0.0076036104 0.0027958017 0.00027506036
6.244521e-05 0.0035808792 -0.0006190251 -0.008597843 -9.249044e-05 0.0022582593 -0.008039138 -0.0051692016
-0.0034012236 -9.7834956e-05 0.003883494 0.00075816084 -0.00032364565 -0.0071362695 0.0009616875 -0.00031699805
-0.008152032 -0.059500653 -0.00037814677 -0.0028508175 -0.000121011006 -0.002133282 0.0045853974 0.000849748
0.001059876 0.024480563 -0.00065334234 -0.000706236 0.00041250122 -0.0009204017 0.029816223 -0.008396456
-0.008432556 -0.00017606985 0.003261046 -0.0068138116 -0.0065379795 -0.0068992563 -0.0022463729 -0.005200819
-0.0024332365 -0.006068484 0.0018537593 -0.0008698227 -0.009543433 -0.007865075 -0.008855046 -0.00049837533
-0.006358936 0.0008105651 -0.0018657809 -0.0052526845 0.0048031085 -0.0015161065 -0.007874219 0.0027823509
-0.0048278933 -0.0012469689 0.0005485388 -0.007210567 0.0010261559 -0.0013398543 -0.0061011207 -0.008777745
0.047586467 -0.00810384 -0.005544897 0.0026243303 0.00016603715 -0.018193573 -0.006337353 0.00043817319
-0.0062460084 -0.007835936 -0.01051993 -0.0010950825 -0.0042232615 -0.007055047 -0.008145835 0.0015152614
0.0019239375 0.0015136178 -0.0047710882 -0.0006374238 -0.0069414056 0.00024059559 -0.0013575603 -0.008444267
-0.005433798 -0.0007192017 -0.0004394246 -0.0061641056 -0.0050766435 -0.004951362 -0.004089987 -0.0066287466
-0.0018643554 0.0016535833 -0.004196806 -0.0009753001 0.003599667 -0.0063446946 -0.00829452 -0.0013748603
-9.567265e-05 -0.0065496564 -0.001417769 -0.0012255968 -0.0069472687 -0.0010840109 0.0014327307 0.021085536
-0.007400716 -0.0077879033 0.0016030554 -0.0026630296 -0.00011494514 -0.008241335 -0.00034453988 0.007066333
-0.005957531 0.0004295706 -0.0060225823 -0.006679264 -0.0066452506 -0.007836261 0.00395691 -8.1293285e-05
0.0069812713 -0.0063150893 -0.022525597 -0.0043388186 -0.00071850204 -0.00083696697 -0.0065075583 -0.0010182611
0.00048399548 0.00015975036 0.0020761243 -0.0037894074 0.002397707 -0.0066597923 -0.0009527699 -0.00011376218
-0.005965765 -0.012067244 0.00015322494 0.0023991803 -0.0012527419 -0.002994266 -0.007964366 -0.001749984

policy_model.2.bias f4 [8]
00000000: 70c6 aabc 6cb2 b03a d933 fc3c 61a0 413c
00000010: 3f61 b6b9 42ae 60bb bf06 d43b 0f79 d6bc
-0.020846575 0.0013480908 0.030786442 0.0118180225 -0.000347862 -0.0034283553 0.0064705308 -0.026180772
