results/short_race/second_iteration_training/model795.pt (torch, 276107 bytes, 13 tensors)

features_model.0.weight f4 [128, 4]
0.0031520568 0.13646641 0.07688764 -0.30883032 0.031758282 -0.07117258 -1.4381741e-05 0.031613722
0.16068064 0.01851219 -0.033621956 0.28810748 0.18252863 -0.0957659 -0.05661816 -0.10149832
0.048065852 -0.00036058127 0.049157396 -0.036895804 0.049212188 0.056618102 0.2397719 -0.19781692
-0.009802636 -0.033958036 0.10648258 0.31893483 0.012132129 -0.018362124 0.072948165 0.31163445
-0.18559296 0.057963427 0.12383354 0.0047795987 -0.007137901 0.15059035 0.055946212 -0.35710263
0.05241712 0.2046727 0.18569937 0.12419951 0.1523652 -0.1136595 0.17251255 0.05973236
0.1408111 0.29418892 0.034908555 -0.10013649 -0.1617083 -0.034964573 -0.1487276 0.01831144
-0.11291958 0.23592716 -0.034220524 0.13798587 -0.20733483 -0.026237128 -0.29714313 0.056336053
0.12177993 -0.019551182 0.02581657 -0.12584618 -0.055215742 -0.24154866 -0.123683445 -0.053275876
-0.13208133 0.056874573 -0.08167005 -0.111967996 -0.07369527 -0.1358864 -0.25819823 -0.19942805
0.086075224 -0.08036516 -0.12300628 0.046204187 -0.23749524 -0.1682143 0.18793075 -0.063400164
0.05098116 0.17170505 -0.07975407 -0.03426582 -0.22598808 -0.08984991 -0.10752787 0.06907169
0.040542733 0.13285246 0.1415473 -0.31732127 -0.3764641 -0.20989317 0.07575894 -0.08779228
0.24138708 0.3429925 -0.02480891 0.17854632 -0.08603807 -0.079919934 -0.105167955 -0.024906214
0.01159847 -0.024687119 -0.07162057 0.40346614 0.100427434 0.08593368 -0.114243306 -0.06743226
0.1736108 0.119153626 0.17414488 0.10474552 0.11208628 0.06652682 0.114409894 0.20452315
0.19779508 -0.2838799 0.059748065 0.10914251 0.18470259 -0.016463052 0.13225316 -0.017043961
0.018151168 0.028143777 0.23841587 0.29005826 0.087562 -0.13828814 0.0031650322 -0.18519253
-0.0781072 -0.114425205 0.100462586 -0.018566843 -0.0708789 -0.095303476 -0.002114212 0.08766334
-0.18135644 0.025997967 0.074157275 0.21536405 0.042074025 0.006549705 0.13622056 0.3845893
-0.011792793 -0.021347595 -0.07161272 0.34082645 -0.04355606 -0.069248326 0.02522579 -0.23765261
0.075866796 -0.057758484 -0.02691134 -0.12243403 -0.122307345 0.09493165 0.13364531 0.01418871
0.010184071 0.1957998 0.04749804 -0.047433168 -0.039191548 -0.08099992 -0.07106499 0.14281294
0.0993728 0.008182547 0.39359355 -0.10070387 0.001984362 0.012191588 0.123722695 0.019864881
-0.20805657 -0.00029018972 -0.14687692 0.011392267 0.23395315 -0.12927665 0.05428629 0.13180219
-0.20500213 -0.08106106 0.025637759 0.08948496 -0.29895744 0.117519386 0.1871312 0.02240603
0.20117581 0.3267467 -0.061479665 -0.049397387 0.22004439 -0.064391 -0.03417396 -0.03338278
0.055247366 0.00097145874 0.10989583 0.043419704 0.12737933 -0.011891102 0.2014742 0.41624427
0.14202115 0.04048415 0.007620314 -0.09734091 -0.046530616 0.10871124 0.13394417 0.007890157
-0.072421394 0.020049755 -0.058465533 0.030194314 0.13201508 0.07000286 0.14649823 0.27160546
-0.06062203 0.03017688 0.019183371 0.23332308 0.009673742 -0.021588843 -0.13954066 0.29247138
-0.0041226805 0.0903987 0.06322689 -0.33501565 -0.20328067 0.14861287 -0.031084288 -0.1282795
00000000: bd92 4e3b dabd 0b3e 4477 9d3d 021f 9ebe
00000010: f914 023d eec2 91bd 1b49 71b7 647d 013d
00000020: 7789 243e e0a6 973c 2db7 09bd d382 933e
00000030: c9e8 3a3e ea20 c4bd 72e8 67bd 5ade cfbd
00000040: b3e0 443d 660c bdb9 4459 493d 0e20 17bd
00000050: b892 493d 62e8 673d c486 753e 8590 4abe
00000060: 3c9b 20bc 9517 0bbd 8a13 da3d 6d4b a33e
00000070: d6c5 463c 2a6c 96bc d965 953d 8d8e 9f3e
00000080: 150c 3ebe 0f6b 6d3d 709c fd3d 2e9e 9c3b
00000090: 0ee5 e9bb 5b34 1a3e db27 653d 28d6 b6be
000000a0: 56b3 563d b895 513e fa27 3e3e 505c fe3d
000000b0: 9f05 1c3e 50c6 e8bd 21a7 303e eba9 743d
000000c0: c930 103e ee9f 963e 46fc 0e3d 5c14 cdbd
000000d0: dc96 25be 0337 0fbd 0c4c 18be df01 963c
000000e0: 6142 e7bd e496 713e d22a 0cbd 2b4c 0d3e
000000f0: 954f 54be 3fef d6bc 2523 98be a2c0 663d
00000100: c267 f93d cd29 a0bc 457d d33c d2dd 00be
00000110: e729 62bd 8858 77be bf4d fdbd ce37 5abd
00000120: 5440 07be 50f5 683d a142 a7bd 7a4f e5bd
00000130: 8ced 96bd ce25 0bbe 8f32 84be de36 4cbe
00000140: 3548 b03d 7d96 a4bd b7ea fbbd 9a40 3d3d
00000150: f431 73be 5f40 2cbe eb70 403e f2d7 81bd
00000160: 9fd1 503d 73d3 2f3e 1a56 a3bd 515a 0cbd
00000170: 6b69 67be 3b03 b8bd 9237 dcbd 7575 8d3d
00000180: 2310 263d 7a0a 083e c7f1 103e ef77 a2be
00000190: e7bf c0be 3cee 56be 8127 9b3d 70cc b3bd
000001a0: 2d2e 773e b79c af3e 0e3c cbbc d9d4 363e
000001b0: ba34 b0bd 10ad a3bd 4c62 d7bd 1e08 ccbc
000001c0: 8207 3e3c a43c cabc cead 92bd 1d93 ce3e
000001d0: e6ac cd3d fffd af3d 65f8 e9bd ed19 8abd
000001e0: 08c7 313e d106 f43d 0953 323e d284 d63d
000001f0: 7e8d e53d 373f 883d bc4f ea3d 846e 513e
00000200: cb8a 4a3e b558 91be 63ba 743d 1c86 df3d
00000210: ad22 3d3e 86dd 86bc 5f6d 073e c79f 8bbc
00000220: c2b1 943c c78d e63c 4a23 743e 8482 943e
00000230: b553 b33d 689b 0dbe 6e6c 4f3b 1ca3 3dbe
00000240: abf6 9fbd c357 eabd 54bf cd3d 7e19 98bc
00000250: f528 91bd 782e c3bd 978e 0abb d688 b33d
00000260: 81b5 39be b0f9 d43c c5df 973d 6588 5c3e
00000270: d055 2c3d e89e d63b 677d 0b3e e4e8 c43e
00000280: 8f36 41bc 27e1 aebc b1a9 92bd ce80 ae3e
00000290: d767 32bd 11d2 8dbd 51a6 ce3c 355b 73be
000002a0: 0d60 9b3d 2994 6cbd 2c75 dcbc b1be fabd
000002b0: 467c fabd 866b c23d 51da 083e c377 683c
000002c0: 17db 263c be7f 483e 4e8d 423d 4849 42bd
000002d0: 5187 20bd 49e3 a5bd 858a 91bd 8e3d 123e
000002e0: f783 cb3d 1710 063c 1885 c93e d53d cebd
000002f0: 120c 023b 3abf 473c 5362 fd3d adbb a23c
00000300: c80c 55be 9b24 98b9 e766 16be a2a6 3a3c
00000310: 6a91 6f3e 1961 04be 4d5b 5e3d 27f7 063e
00000320: 14ec 51be 5703 a6bd 4706 d23c e443 b73d
00000330: f310 99be 01ae f03d 529f 3f3e da8c b73c
00000340: 0801 4e3e 584b a73e 1ad2 7bbd ea54 4abd
00000350: 5153 613e 6edf 83bd fff9 0bbd 62bc 08bd
00000360: 104b 623d 7ea9 7e3a 1111 e13d dcd8 313d
00000370: ba6f 023e e6d2 42bc 414f 4e3e f81d d53e
00000380: fe6d 113e b5d2 253d d4b3 f93b ac5a c7bd
00000390: e396 3ebd 00a4 de3d a928 093e b845 013c
000003a0: ab51 94bd 623f a43c 8e79 6fbd 115a f73c
000003b0: f62e 073e a95d 8f3d a203 163e df0f 8b3e
000003c0: ce4e 78bd 8135 f73c 7226 9d3c 3fec 6e3e
000003d0: 9d7e 1e3c 16db b0bc bfe3 0ebe cfbe 953e
000003e0: 8d17 87bb f422 b93d 1a7d 813d 2c87 abbe
000003f0: cf28 50be f92d 183e 7aa4 febc b45b 03be

features_model.0.bias f4 [128]
0.098135956 0.007983603 0.09359436 -0.034659404 0.16679987 0.086031854 0.11870396 0.1332829
0.022933602 0.106411606 0.14765093 -0.0024174098 0.081149645 -0.043953534 0.019070102 0.08321053
0.09238884 -0.023181241 -0.060561355 -0.004473156 0.02832342 -0.11072965 0.09855585 -0.017614836
0.14852497 -0.040281806 0.041075476 0.0105603365 0.1570373 0.12427929 0.11322025 0.13168451
0.007185174 0.08665561 0.1460537 0.04422179 0.05472762 -0.029220382 0.114474826 0.13444433
0.17559752 0.033786174 0.09571825 0.028559279 0.07148331 -0.025288641 0.067970105 0.08557671
-0.029317528 0.06387214 -0.05537184 0.05086842 0.08651363 0.082705036 0.15428355 0.072620176
0.098965265 0.041355334 -0.014620882 0.13707452 0.11564895 -0.04809781 0.12379759 0.06683382
0.06009598 0.14239642 0.085999236 0.119342744 0.09569875 0.030009387 -0.07336506 -0.0759375
-0.017923372 -0.0071772872 0.11568005 -0.051475942 -0.013221125 0.08208873 0.110982604 0.046862748
0.07379012 -0.018782666 0.111180894 0.051833488 -0.02715311 0.023416305 0.18954712 0.09656666
0.098791145 -0.017336763 -0.013885816 0.050268084 -0.01412332 0.0073875445 0.03731946 0.11466807
-0.047163 -0.018011902 0.04843338 0.07874414 -0.02664794 0.15583378 0.1950276 0.059258465
0.08609607 0.1610255 0.14803013 0.0893729 -0.0142299635 -0.026251137 0.0873291 0.12821598
-0.04277705 0.08731648 0.104303956 0.1341868 0.16662829 -0.003642032 0.06679215 -0.027197758
-0.057185482 0.18460058 0.092546165 0.051920544 0.116539076 0.10856703 0.1146883 0.0026528526
00000000: 81fb c83d a8cd 023c 66ae bf3d 05f7 0dbd
00000010: 96cd 2a3e 7831 b03d 101b f33d 507b 083e
00000020: 40df bb3c 54ee d93d ce31 173e 686d 1ebb
00000030: c931 a63d 9f08 34bd e738 9c3c 486a aa3d
00000040: 5c36 bd3d 96e6 bdbc 2f0f 78bd 8d93 92bb
00000050: 8406 e83c 3ac6 e2bd a6d7 c93d fd4c 90bc
00000060: ee16 183e 89fe 24bd c23e 283d 4305 2d3c
00000070: 63ce 203e 2486 fe3d 05e0 e73d 4ed8 063e
00000080: 9c71 eb3b 7f78 b13d 1a8f 153e e821 353d
00000090: 122a 603d 955f efbc c771 ea3d c6ab 093e
000000a0: d6cf 333e 5f63 0a3d ee07 c43d 26f5 e93c
000000b0: d765 923d 202a cfbc e933 8b3d d842 af3d
000000c0: 502b f0bc 66cf 823d 95cd 62bd 685b 503d
000000d0: 0f2e b13d 4261 a93d 82fc 1d3e e3b9 943d
000000e0: 4dae ca3d 3664 293d 6d8c 6fbc 435d 0c3e
000000f0: 5bd9 ec3d 3602 45bd 9789 fd3d 2be0 883d
00000100: 3427 763d 5ed0 113e 5e20 b03d f869 f43d
00000110: b5fd c33d 3fd6 f53c 6c40 96bd 1f85 9bbd
00000120: 09d4 92bc 732f ebbb a9e9 ec3d 70d8 52bd
00000130: 6b9d 58bc 231e a83d d94a e33d 27f3 3f3d
00000140: 461f 973d 1bde 99bc cfb2 e33d 5a4f 543d
00000150: 3370 debc 8dd3 bf3c a418 423e bec4 c53d
00000160: 0353 ca3d d405 8ebc 5581 63bc e8e5 4d3d
00000170: 7f65 67bc 3713 f23b 4adc 183d 18d7 ea3d
00000180: fd2d 41bd b28d 93bc 1462 463d 9c44 a13d
00000190: c84c dabc e492 1f3e 51b5 473e 01b9 723d
000001a0: 2353 b03d dee3 243e 3695 173e 2409 b73d
000001b0: cb24 69bc a00c d7bc 99d9 b23d 0d4b 033e
000001c0: fd36 2fbd fcd2 b23d 509d d53d 4468 093e
000001d0: 9ba0 2a3e 28af 6ebb 53ca 883d d5cd debc
000001e0: 533b 6abd ef07 3d3e d888 bd3d a3aa 543d
000001f0: 0aac ee3d 6458 de3d b3e1 ea3d 7bdb 2d3b

features_model.2.weight f4 [128, 128]
0.29246408 -0.06339862 -0.022501867 0.095651716 0.19805902 0.097927995 0.09360437 0.04359836
0.057826873 0.12604676 0.099920794 -0.009184702 0.011738069 0.032525517 -0.036819205 0.12715827
-0.1412474 0.07413917 -0.05470964 -0.12128552 0.09851987 0.038538933 0.0811314 -0.050751712
0.15620515 -0.13486806 -0.022383953 0.26417804 0.17841943 -0.058222376 0.039774075 0.11591643
0.191234 -0.015308309 0.1157756 -0.010262764 -0.10324934 -0.21612826 -0.015164186 0.1383457
0.34183282 -0.03377172 0.17715213 0.16504459 0.18579134 0.16177288 -0.04403855 0.031634007
0.16786769 0.29687995 0.16353728 0.27988803 -0.0807071 -0.04236511 -0.024637334 -0.1691331
-0.048695028 -0.031031048 -0.058763556 0.14841531 0.26082483 0.33264014 0.17710686 -0.1254478
0.3023071 0.1816095 0.057172164 0.07358251 -0.004724904 0.1610882 0.10277914 -0.23028699
-0.21662253 -0.052760437 -0.002692315 -0.04824115 -0.031031165 0.04728519 0.035598125 -0.31391692
0.10002434 0.058933698 -0.06922097 0.098486334 0.23930624 0.19518618 -0.04877265 -0.07060359
0.048258815 0.057674535 -0.23556003 -0.09260304 0.17426917 -0.05310628 -0.039334524 -0.08230393
-0.025069132 0.108331755 0.21632467 -0.07847589 0.10121878 0.15075473 0.15103722 0.36939323
0.27572346 0.10533267 -0.015682943 -0.028649485 -0.12166035 0.16358815 0.055511232 0.29396468
-0.098676704 -0.1759788 -0.04681701 0.13887836 0.16842717 -0.1344781 0.048048884 -0.15627609
-0.070258334 0.18450011 -0.079593495 0.056557003 0.066569395 0.20918931 0.19322036 -0.08391868
-0.054576356 0.08352541 0.07718658 0.0070049767 -0.058785323 0.0713476 0.16790405 -0.092237525
0.09861597 -0.25650835 -0.17323673 0.107705586 -0.013447444 0.03522568 0.1657353 -0.019728899
-0.03087173 0.04549524 0.05543794 -0.08294236 -0.021782868 -0.14637855 -0.15343669 0.10571234
-0.08056033 -0.087310076 -0.17649293 -0.01674065 0.3419486 -0.18274787 -0.35957795 -0.09354161
0.062323377 0.01047407 -0.087651394 -0.05513004 0.0796538 0.016145483 0.21890745 0.029331898
0.18878041 -0.18968569 0.015892724 0.11958264 0.042669207 -0.034124635 0.03757172 0.2738681
-0.13892485 0.037096325 0.051051714 -0.05088183 0.011380717 0.0860369 0.023385582 0.095232084
0.01236245 0.1024712 -0.09152128 0.045065068 0.28909004 -0.016998844 -0.24042249 0.34121627
0.09226845 0.07658036 0.057751868 -0.04925208 -0.0032236606 0.26834816 -0.25962368 -0.027602844
0.0853659 0.10341145 -0.1559751 0.14114833 0.0019062541 -0.023253627 -0.06360095 0.11519792
0.035730556 0.14233886 0.04062006 0.27973238 0.07463505 0.008813348 -0.15177195 0.046486355
0.23211512 0.0034995659 -0.025170725 0.008707219 0.04336925 0.03333663 0.14613569 -0.1412991
0.01850939 -0.08881791 0.1795512 -0.11798855 0.052927826 -0.036515057 -0.3446694 0.037668213
-0.06635818 0.01645166 -0.13120392 0.23290235 -0.1027679 -0.01608665 -0.005942918 0.2021559
-0.053112622 -0.20821182 0.06365159 -0.03914241 0.21793205 0.11397945 0.1722671 -0.0887233
-0.009019106 0.16514574 0.20249866 0.008948979 -0.12665322 -0.16399269 -0.0445458 0.08797454
00000000: dabd 953e 23d7 81bd d655 b8bc 0ce5 c33d
00000010: fccf 4a3e 798e c83d a6b3 bf3d 3294 323d
00000020: dfdb 6c3d 6712 013e 46a3 cc3d 6f7b 16bc
00000030: 0851 403c 7a39 053d bccf 16bd c735 023e
00000040: 29a3 10be 47d6 973d 3717 60bd 8b64 f8bd
00000050: c9c4 c93d 00db 1d3d 3828 a63d 07e1 4fbd
00000060: 3ef4 1f3e da1a 0abe 8d5e b7bc 5842 873e
00000070: 95b3 363e 967a 6ebd 24ea 223d 9865 ed3d
00000080: d8d2 433e b4cf 7abc c21b ed3d 2725 28bc
00000090: 6474 d3bd ba50 5dbe 3573 78bc 7faa 0d3e
000000a0: b604 af3e 3754 0abd 5e67 353e 7301 293e
000000b0: 1640 3e3e caa7 253e c461 34bd a992 013d
000000c0: 82e5 2b3e a600 983e 5176 273e 7c4d 8f3e
000000d0: c449 a5bd 0a87 2dbd 3cd4 c9bc 3a31 2dbe
000000e0: 7074 47bd d334 febc 0eb2 70bd 2ffa 173e
000000f0: d58a 853e cf4f aa3e 805b 353e 6375 00be
00000100: ffc7 9a3e d7f7 393e 5c2d 6a3d 6db2 963d
00000110: 5ed3 9abb 4ef4 243e df7d d23d 5ad0 6bbe
00000120: 4cd2 5dbe 541b 58bd 8d71 30bb 8398 45bd
00000130: 1235 febc 1eae 413d 57cf 113d b8b9 a0be
00000140: 90d9 cc3d 7664 713d b9c3 8dbd 34b3 c93d
00000150: b20c 753e e3de 473e d5c5 47bd 9d98 90bd
00000160: 09ab 453d 223c 6c3d a636 71be aaa6 bdbd
00000170: 9e73 323e f885 59bd 3d1d 21bd f68e a8bd
00000180: c85d cdbc 0add dd3d 3784 5d3e f8b7 a0bd
00000190: cb4b cf3d 735f 1a3e 80a9 1a3e 1c21 bd3e
000001a0: a02b 8d3e a8b8 d73d 8479 80bc 53b2 eabc
000001b0: 1029 f9bd a783 273e bf5f 633d 8a82 963e
000001c0: 0317 cabd c933 34be 31c3 3fbd 2136 0e3e
000001d0: 2c78 2c3e a1b4 09be e8ce 443d d706 20be
000001e0: 9ae3 8fbd 99ed 3c3e ea01 a3bd 51a8 673d
000001f0: 8955 883d b935 563e 8fdb 453e 8fdd abbd
00000200: 758b 5fbd 5f0f ab3d ff13 9e3d 018a e53b
00000210: e1c8 70bd b11e 923d 0aef 2b3e 07e7 bcbd
00000220: 2bf7 c93d 1055 83be f864 31be bf94 dc3d
00000230: ab52 5cbc cd48 103d 84b6 293e 809e a1bc
00000240: b6e6 fcbc 3759 3a3d e512 633d afdd a9bd
00000250: fc71 b2bc 42e4 15be 821e 1dbe b67f d83d
00000260: d0fc a4bd a0cf b2bd 90ba 34be b023 89bc
00000270: e313 af3e 4222 3bbe 9a1a b8be be92 bfbd
00000280: cc46 7f3d 6f9b 2b3c 9382 b3bd 09d0 61bd
00000290: 8821 a33d 8843 843c 4629 603e 7349 f03c
000002a0: a74f 413e f73c 42be 7531 823c bee7 f43d
000002b0: e8c5 2e3d 46c6 0bbd cee4 193d 7138 8c3e
000002c0: 5142 0ebe 51f2 173d 9a1b 513d 7769 50bd
000002d0: 3076 3a3c 1d34 b03d 1f93 bf3c 0a09 c33d
000002e0: e08b 4a3c 6cdc d13d 826f bbbd 2696 383d
000002f0: 9c03 943e 2941 8bbc 5031 76be e6b3 ae3e
00000300: 3ef7 bc3d 2ad6 9c3d 398d 6c3d 8dbc 49bd
00000310: 0d44 53bb ee64 893e 65ed 84be 5c1f e2bc
00000320: 51d4 ae3d 62c9 d33d f0b7 1fbe 3089 103e
00000330: 46db f93a 647e bebc 3741 82bd e3ec eb3d
00000340: 345a 123d 47c1 113e 3861 263d 1539 8f3e
00000350: 43da 983d dc65 103c 1b6a 1bbe 7a68 3e3d
00000360: 96af 6d3e f958 653b d632 cebc b9a8 0e3c
00000370: f4a3 313d fd8b 083d 98a4 153e b6b0 10be
00000380: 01a1 973c 2ae6 b5bd 45dc 373e fba3 f1bd
00000390: d9ca 583d d090 15bd 8278 b0be fc49 1a3d
000003a0: cce6 87bd a2c5 863c 525a 06be f47d 6e3e
000003b0: fa77 d2bd 26c8 83bc cfbc c2bb f501 4f3e
000003c0: 9f8c 59bd 7b35 55be c45b 823d cb53 20bd
000003d0: 9429 5f3e 0f6e e93d c966 303e 90b4 b5bd
000003e0: dfc4 13bc f71b 293e cf5b 4f3e bd9e 123c
000003f0: 62b1 01be b3ed 27be a875 36bd ff2b b43d

features_model.2.bias f4 [128]
0.1041032 0.05946943 0.004374563 -0.060186878 0.06333777 0.12263784 -0.01955708 0.0
0.10528107 0.12937503 -0.031017983 0.11535707 -0.01667263 -0.022822576 -0.006570116 0.17610106
-0.005014899 0.057472613 -0.026577106 0.13434541 -0.007863553 0.13137291 -0.018485282 -0.047585182
0.14857998 0.1134847 -0.0049804216 -0.011325365 -0.0070258416 -0.0036584474 -0.02908813 0.11343684
0.0872378 0.12904143 0.15631221 0.10355599 -0.032595582 0.02738257 0.10401275 -0.011270173
0.14526829 0.023508308 -0.035849623 -0.006749663 0.08206483 -0.025161497 0.015825205 -0.012531319
-0.030012183 0.09145876 -0.015265208 -0.013292946 -0.019279141 0.092840195 -0.01137785 0.11257324
0.09871618 -0.02209259 0.07765064 -0.02716099 -0.026025409 0.032747444 -0.0032221563 0.00010303832
-0.010159974 -0.035965677 -0.005137843 0.1510548 0.13235255 0.105942525 0.017539848 -0.0047793104
-0.029317176 -0.026777215 0.09632849 0.07752424 0.113461316 0.00036788342 0.12735051 -0.019181393
0.0 0.0028478887 -0.025654996 0.09631463 -0.014441308 0.07193421 -0.012949947 0.17876388
0.09723195 -0.0028522913 -0.031118793 0.026831549 0.124045946 -0.034861688 -0.021039292 0.086855985
-0.010664034 -0.01894887 0.014794526 0.15890104 -0.04547236 -0.0393686 0.0 -0.03705109
0.09868671 -0.0077622714 0.13184287 -0.055070024 -0.0005548816 -0.030709792 0.11210101 -0.047147833
-0.026987148 -0.01590122 0.0573069 0.18387267 0.10153088 0.12522216 -0.01321505 -0.047968756
0.007435074 -0.019039676 -0.015007632 0.05416747 -0.0125624165 0.05096927 0.0 -0.0118540535
00000000: 0f34 d53d 3896 733d 7f58 8f3b 8486 76bd
00000010: 3cb7 813d 8c29 fb3d 2b36 a0bc 0000 0000
00000020: 9a9d d73d e37a 043e 6d19 febc 5440 ec3d
00000030: 0a95 88bc 69f6 babc 214a d7bb d653 343e
00000040: 0654 a4bb 6768 6b3d 3bb8 d9bc d891 093e
00000050: 22d6 00bc 9f86 063e 726e 97bc aee8 42bd
00000060: 5a25 183e ab6a e83d ce32 a3bb 068e 39bc
00000070: 0839 e6bb 90c2 6fbb 3b4a eebc 9351 e83d
00000080: bba9 b23d 7023 043e 4f10 203e 2a15 d43d
00000090: f282 05bd 6951 e03c a304 d53d 88a6 38bc
000000a0: 36c1 143e 7f94 c03c 0ed7 12bd 472c ddbb
000000b0: 9b11 a83d 7c1f cebc dca3 813c 2950 4dbc
000000c0: 1cdc f5bc bb4e bb3d ec1a 7abc a8ca 59bc
000000d0: 4aef 9dbc 0023 be3d 296a 3abc cd8c e63d
000000e0: b52b ca3d 85fb b4bc 4c07 9f3d b980 debc
000000f0: 3d33 d5bc 2f22 063d d02a 53bb 4716 d838
00000100: 0576 26bc bf50 13bd 5a5b a8bb 1cae 1a3e
00000110: 6d87 073e 65f8 d83d baaf 8f3c c39b 9cbb
00000120: 932a f0bc e45b dbbc df47 c53d 07c5 9e3d
00000130: 685e e83d 7ae0 c039 2c68 023e 4c22 9dbc
00000140: 0000 0000 a5a3 3a3b 6d2a d2bc 9b40 c53d
00000150: 3c9b 6cbc 3e52 933d 042c 54bc e10d 373e
00000160: 8b21 c73d 82ed 3abb d7ec febc d6cd db3c
00000170: cd0b fe3d 21cb 0ebd 985a acbc 8de1 b13d
00000180: 33b8 2ebc a93a 9bbc bd64 723c f4b6 223e
00000190: 3a41 3abd f840 21bd 0000 0000 e2c2 17bd
000001a0: 421c ca3d a75a febb d101 073e 1b91 61bd
000001b0: 7975 11ba 1a93 fbbc 3795 e53d 161e 41bd
000001c0: 2714 ddbc 4643 82bc a4ba 6a3d 1e49 3c3e
000001d0: 6cef cf3d 3d3a 003e f083 58bc e37a 44bd
000001e0: eca1 f33b 18f9 9bbc 92e2 75bc b6de 5d3d
000001f0: 98d2 4dbc 27c5 503d 0000 0000 8137 42bc

features_model.4.weight f4 [128, 128]
0.1279101 -0.0001869322 0.05848755 -0.059247475 -0.01863177 -0.2212898 -0.25662068 0.0044812425
-0.07617045 0.014766951 -0.06015811 -0.16897526 -0.051794644 -0.050728817 -0.010388272 -0.041030005
0.13969985 0.09640793 -0.22357212 0.06232106 0.05610383 -0.28726673 -0.15004617 0.08769938
-0.10118565 0.07372266 0.36981347 -0.018307831 0.11155198 0.11348906 -0.029284231 -0.039313
0.031252738 -0.21386337 0.17994519 0.19674227 -0.18734257 -0.061213303 -0.030237127 0.035443682
-0.035190336 0.021012988 0.3348382 -0.13419583 0.06973916 0.17632836 -0.032986593 0.16192494
-0.2192759 0.021184167 0.05211622 0.05328244 -0.03443071 -0.14983128 -0.072703205 0.108041845
-0.06223571 -0.31544036 0.17438288 0.049912646 -0.14919259 -0.053939674 0.03794856 -0.036095675
-0.14549407 -0.08900957 0.03791722 -0.06819715 0.0742704 0.04529247 0.096248165 0.15736838
-0.13298215 -0.08573423 -0.033633746 0.06027428 -0.32092172 0.02881745 -0.09234154 -0.14036208
0.21276473 0.18822065 -0.009889487 -0.011803264 0.022119528 -0.12323485 0.018785186 0.060165886
0.00066572346 -0.1305381 0.054229297 0.036124337 -0.14940369 -0.10678826 -0.049868353 0.10068935
0.036191814 0.08484276 -0.008975237 0.0069092815 -0.043863088 -0.049533855 -0.11110716 0.081371725
-0.032935794 -0.19451094 -0.20478363 -0.032602962 -0.12923089 -0.13049245 0.2282972 0.14771251
0.0046840776 0.07433762 -0.035755076 0.04498401 -0.12778375 0.10263068 0.1464431 -0.09069677
0.10780673 -0.119574405 0.14240491 -0.22502176 -0.16105655 -0.1392359 -0.14005333 -0.040163558
-0.03998663 -0.10847688 0.116577506 -0.092467085 -0.12791125 -0.04052909 0.16610451 -0.14850345
-0.21509294 -0.09606281 0.032944646 -0.17711972 -0.04859167 0.13738072 0.033637516 0.0165322
-0.15444866 -0.05294088 0.28586325 -0.07914058 0.12181596 0.08338661 -0.07351211 0.21305321
0.09294522 0.040674385 -0.12158137 -0.033870578 -0.18813677 0.16505218 0.046960436 -0.08119026
-0.04304202 -0.13119373 0.057869494 -0.020822005 0.2586725 -0.03720159 0.045550443 -0.2834971
-0.0115077915 -0.015807088 0.080800585 0.19035941 0.41631746 0.04027955 -0.030931065 -0.07284056
0.11820358 -0.2195466 -0.15338609 -0.3608513 0.06519541 -0.16607642 0.032159183 0.21731961
0.1573242 -0.007633675 -0.06273763 -0.095614076 0.22972915 0.2611706 0.078537114 -0.1013575
0.068247736 -0.025655052 -0.0026279453 0.092875585 0.19483885 -0.1717113 0.14161435 0.072907396
-0.039556943 0.08419871 -0.049952414 0.09213503 -0.1009808 -0.092459336 0.09011499 -0.13352783
0.09335628 -0.000700852 -0.010427496 -0.037120566 0.015599465 -0.1428603 -0.015356237 -0.24055462
0.13940571 0.21041468 0.03742927 0.15634045 0.08613706 0.010289382 -0.067466445 -0.0049663484
-0.008423747 0.1385851 -0.015453298 -0.046008 0.21639523 0.033120528 -0.19973753 -0.013874046
0.123971716 -0.035734642 -0.050402995 -0.16255686 -0.11211237 0.042404287 -0.031350955 0.028037008
0.091111146 -0.12859325 0.09478111 0.10166981 -0.011926713 -0.050200555 0.15932427 -0.114014156
0.18502721 0.045838613 -0.015636852 -0.06849526 -0.1268272 -0.10555438 -0.034400105 0.20957494
00000000: defa 023e 3b03 44b9 a490 6f3d 7bad 72bd
00000010: a7a1 98bc cb99 62be c963 83be 63d7 923b
00000020: 41ff 9bbd 15f1 713c 5a68 76bd da07 2dbe
00000030: 9f26 54bd 05c9 4fbd 9233 2abc 140f 28bd
00000040: 7a0d 0f3e 8571 c53d 17f0 64be 5e44 7f3d
00000050: 21cd 653d a014 93be b4a5 19be bc9b b33d
00000060: 6c3a cfbd e8fb 963d 3158 bd3e 4efa 95bc
00000070: 5d75 e43d f46c e83d 7ce5 efbc ab06 21bd
00000080: df02 003d 00ff 5abe 8d43 383e ce76 493e
00000090: bbd6 3fbe cdba 7abd dab3 f7bc 652d 113d
000000a0: be23 10bd 6e23 ac3c ea6f ab3e a26a 09be
000000b0: 68d3 8e3d 6c8f 343e f31c 07bd a7cf 253e
000000c0: dd89 60be 6b8a ad3c d177 553d b03e 5a3d
000000d0: 3707 0dbd 5f6d 19be 6be5 94bd 0b45 dd3d
000000e0: dfea 7ebd 6681 a1be 6d91 323e 3471 4c3d
000000f0: f1c5 18be d9ef 5cbd f36f 1b3d 0fd9 13bd
00000100: 66fc 14be a64a b6bd 164f 1b3d f3aa 8bbd
00000110: 141b 983d 9984 393d c21d c53d 2d25 213e
00000120: 792c 08be 6e95 afbd 8ac3 09bd 2ae2 763d
00000130: da4f a4be 9312 ec3c 901d bdbd 14bb 0fbe
00000140: ffde 593e eabc 403e 8407 22bc 7a62 41bc
00000150: 0334 b53c 8e62 fcbd 64e3 993c 8170 763d
00000160: f283 2e3a c8ab 05be 8a1f 5e3d 1df7 133d
00000170: 48fd 18be ceb3 dabd c242 4cbd 3836 ce3d
00000180: de3d 143d 0ac2 ad3d df0c 13bc 4167 e23b
00000190: c8a9 33bd 03e4 4abd 278c e3bd 38a6 a63d
000001a0: afe7 06bd e02d 47be cdb2 51be af8a 05bd
000001b0: 1a55 04be d09f 05be bec6 693e f341 173e
000001c0: e47c 993b 523e 983d ea73 12bd 2741 383d
000001d0: bed9 02be 0930 d23d 2ef5 153e 3abf b9bd
000001e0: c6c9 dc3d 6de3 f4bd 98d2 113e 1b6c 66be
000001f0: 02ec 24be db93 0ebe 246a 0fbe 8b82 24bd
00000200: 05c9 23bd 2029 debd 30c0 ee3d 625f bdbd
00000210: 2bfb 02be d501 26bd 4d17 2a3e 4a11 18be
00000220: 5341 5cbe 94bc c4bd f7f0 063d df5e 35be
00000230: 0f08 47bd 88ad 0c3e 7ec7 093d 896e 873c
00000240: ca27 1ebe 89d8 58bd ab5c 923e 7514 a2bd
00000250: a57a f93d 99c6 aa3d 848d 96bd 9f2a 5a3e
00000260: 105a be3d 2f9a 263d a7ff f8bd e0bb 0abd
00000270: eda6 40be 7003 293e 9659 403d 1447 a6bd
00000280: d44c 30bd a657 06be 9008 6d3d e992 aabc
00000290: b970 843e b260 18bd 1a93 3a3d 8826 91be
000002a0: 2d8b 3cbc de7d 81bc c77a a53d 94ed 423e
000002b0: 9027 d53e 2bfc 243d 2563 fdbc 6e2d 95bd
000002c0: b814 f23d d3d0 60be 3e11 1dbe 80c1 b8be
000002d0: 2c85 853d f00f 2abe 59b9 033d 0889 5e3e
000002e0: 9819 213e e823 fabb 967c 80bd 50d1 c3bd
000002f0: 1e3e 6b3e 27b8 853e 11d8 a03d 8594 cfbd
00000300: 78c5 8b3d 8b2a d2bc 9b39 2cbb 8e35 be3d
00000310: d683 473e 16d5 2fbe 5a03 113e 7950 953d
00000320: 7606 22bd 6070 ac3d e79a 4cbd 4ab1 bc3d
00000330: 06cf cebd 525b bdbd 358e b83d 85bb 08be
00000340: 9431 bf3d 62b9 37ba 17d8 2abc bc0b 18bd
00000350: e694 7f3c f849 12be ba98 7bbc f353 76be
00000360: 5fc0 0e3e f276 573e 6f4f 193d b617 203e
00000370: a068 b03d cc94 283c d92b 8abd c0bc a2bb
00000380: c103 0abc 41e9 0d3e d42f 7dbc e272 3cbd
00000390: b696 5d3e 64a9 073d ff87 4cbe f74f 63bc
000003a0: e2e4 fd3d 7d5e 12bd 5f73 4ebd 4e75 26be
000003b0: 2c9b e5bd 1eb0 2d3d dc69 00bd dead e53c
000003c0: 7b98 ba3d f3ad 03be 991c c23d 4338 d03d
000003d0: 4368 43bc 199f 4dbd e725 233e 4180 e9bd
000003e0: c677 3d3e 45c1 3b3d db18 80bc 3e47 8cbd
000003f0: fdde 01be e52c d8bd 20e7 0cbd d09a 563e

features_model.4.bias f4 [128]
-0.030294603 -0.018843642 -0.023823861 -0.029790841 0.13913842 -0.024129603 -0.029931437 -0.018641604
-0.019860549 -0.014739269 -0.013825715 0.09442001 -0.013734939 0.07270713 0.018251566 -0.03105525
-0.014902246 -0.00076785666 -0.0075255996 0.11487675 -0.0065831244 0.07500129 -0.016568054 -0.0086386
0.079846375 0.01997954 -0.025308954 0.029005628 -0.019951623 0.122946166 0.06532808 -0.0022232297
-0.012626104 0.0744829 -0.009830449 0.08753604 0.0029193638 0.0 0.109330855 -0.02082486
-0.018203508 -0.010832619 0.010881119 -0.0007444429 -0.017336398 -0.011231496 -0.012123204 0.08384865
0.095250376 0.19866249 0.0069783377 -0.033015665 -0.022834461 0.0062194555 -0.023570206 -0.013663379
0.0 -0.004631952 -0.02126977 0.035535842 -0.0008956556 -0.0048628543 0.12847868 -0.025812425
0.1636412 0.012879806 0.10632419 0.011154817 -0.002772711 0.056943692 0.068508625 -0.019726222
-0.018391328 -0.020920832 -0.020313075 0.05473278 0.001218668 0.039044175 0.05705458 -0.021424253
0.012155029 -0.0028861787 0.119295105 -0.024785895 -0.034852598 -0.017198201 0.114000276 0.12864563
-0.042524762 -0.027915135 -0.018884841 0.006615344 0.15625834 -0.02704962 0.13590686 -0.033495635
0.13798994 0.09130584 0.14163828 0.17021993 -0.0414355 -0.026823979 -0.0048543 0.0351665
0.1426129 0.12110863 -0.0028203463 -0.022269424 0.16486387 -0.021766787 -0.025169497 0.04083246
0.007896849 -0.01242279 0.12847404 0.030171685 -0.027996818 0.09532234 -0.020786092 0.14393121
-0.0026171904 0.07055418 -0.020429036 0.0 0.16828482 0.11847854 0.0042466484 0.073861055
00000000: 632c f8bc fb5d 9abc 422a c3bc ec0b f4bc
00000010: 4d7a 0e3e 72ab c5bc c632 f5bc 47b6 98bc
00000020: 97b2 a2bc fa7c 71bc 4085 62bc 475f c13d
00000030: 8208 61bc 7ae7 943d 4f84 953c 9467 febc
00000040: 8d28 74bc fd49 49ba 4e99 f6bb 8044 eb3d
00000050: 40b7 d7bb 479a 993d bab9 87bc ea88 0dbc
00000060: 7f86 a33d 22ac a33c b954 cfbc 369d ed3c
00000070: 9671 a3bc 33cb fb3d baca 853d 9bb3 11bb
00000080: b8dd 4ebc 7e8a 983d e40f 21bc 1846 b33d
00000090: cc52 3f3b 0000 0000 dbe8 df3d e698 aabc
000000a0: 861f 95bc 4c7b 31bc b946 323c b826 43ba
000000b0: 1005 8ebc 4f04 38bc 67a0 46bc d7b8 ab3d
000000c0: a112 c33d 2e6e 4b3e 8aaa e43b 6f3b 07bd
000000d0: 560f bbbc 93cc cb3b 4e16 c1bc 5ddc 5fbc
000000e0: 0000 0000 a1c7 97bb f13d aebc 088e 113d
000000f0: 6eca 6aba 9458 9fbb ea8f 033e 9474 d3bc
00000100: 8f91 273e d205 533c 7fc0 d93d b2c2 363c
00000110: 5fb6 35bb ca3d 693d 404e 8c3d e398 a1bc
00000120: 69a9 96bc 2a62 abbc 9b67 a6bc 7b2f 603d
00000130: b6bb 9f3a c9ec 1f3d 10b2 693d ea81 afbc
00000140: e325 473c 0b26 3dbb fe50 f43d ca0b cbbc
00000150: 99c1 0ebd 3ee3 8cbc fa78 e93d aebb 033e
00000160: 722e 2ebd 48ae e4bc 62b4 9abc 87c5 d83b
00000170: 3002 203e 2a97 ddbc 2b2b 0b3e b832 09bd
00000180: 3c4d 0d3e 8efe ba3d a009 113e 224e 2e3e
00000190: 45b8 29bd f6bd dbbc d210 9fbb bf0a 103d
000001a0: 1e09 123e cd07 f83d 8fd5 38bb 5e6e b6bc
000001b0: 13d2 283e 4350 b2bc 4330 cebc f03f 273d
000001c0: c961 013c f588 4bbc b38e 033e 9c2a f73c
000001d0: 9559 e5bc 5c38 c33d 9847 aabc b462 133e
000001e0: 2b85 2bbb b67e 903d cb5a a7bc 0000 0000
000001f0: db52 2c3e e0a4 f23d 7827 8b3b 7744 973d

policy_model.0.weight f4 [128, 128]
0.0019041691 0.0024805828 -0.0017797013 -0.0014851048 -0.0005470242 -0.002136836 -0.0025834194 -0.001286043
-0.0017655767 0.0016516428 -0.0011577907 -0.0018487186 -0.0021873172 0.00026514032 -0.0025721453 -0.0016344155
-0.0029211317 0.00042798909 -0.0011925537 -0.0034998828 0.0029534956 -0.0045777876 -0.0023383845 0.000108697786
3.7825404e-05 -0.001280686 -0.001212793 -0.0014393193 -0.0018453873 0.001336102 -0.0053206263 -0.00010460901
-0.0001005613 -0.0036774098 0.0004252481 -0.0043032537 -8.8569184e-05 -0.0009175332 -0.005088068 -0.002913615
-0.0002043278 -0.0009938407 -0.0007324342 0.0024067056 0.00018058713 0.0002981132 0.0016343492 -0.0008851129
-0.0006749896 -0.0011464959 -0.001893757 -0.0020893896 -0.001219487 0.0011463582 -0.0018734874 0.0006987973
-0.0006750936 -0.003426491 -0.0019130429 -0.002387654 -0.0017857933 -0.0016481562 -0.0007326067 -0.0007741634
0.0010741228 0.0018265333 0.002845373 -0.0024121713 6.480503e-05 -0.007156652 -0.005558174 -0.0014492677
0.0019031012 0.0009416681 -0.0025673022 0.0012486377 -7.9757076e-05 -0.00047776717 0.001456526 -0.0017560024
0.00091564865 0.0002116744 -0.0004556147 -0.0010172873 -0.0021765388 0.00214445 -0.008361451 -0.006354316
-0.0017417029 0.0029832325 -0.0016901663 -0.002829627 0.0015257779 -0.0028095054 -0.0009832644 0.0008342982
-0.0010005275 -0.0056664776 0.0018725243 0.00017859122 0.00021279081 -0.0017853801 -0.00062931224 0.00015347205
-0.001344987 -0.0017630568 0.0014188024 -0.002373475 0.00049916765 -0.00039144434 0.0012438631 -0.0027554878
-0.00027593836 -0.0032707232 0.00032172995 -0.0025928097 -0.0018837554 -0.0070071523 -0.0014994901 -0.00462014
-0.0021421327 -0.0068807392 1.5554751e-05 0.00015968697 -0.0060613193 -0.004441308 -0.00017306008 -0.0018065218
-0.05356942 0.004427586 0.013155408 0.012348009 0.036757085 0.015279682 0.021556955 -0.008916902
0.01698396 -0.016371299 -0.0015579545 0.057831444 0.047762405 0.041093316 0.068624474 0.015858509
0.034573108 0.013882603 0.00057907234 0.065596186 0.0072045317 0.08203104 0.0117498655 0.006052813
0.07716196 0.028413918 0.03653573 0.047174677 0.0063568414 0.03341968 0.073000155 0.028011573
0.0056599216 0.031583812 0.0051469775 0.07678069 -0.019121535 -0.0005363126 0.051285632 0.0021557584
-0.0097616585 0.015798852 0.036344778 -0.00854648 0.002506012 0.017914822 -0.022505293 0.07269538
0.024233185 0.0005625056 0.00908942 0.036132198 0.016971717 0.022098307 0.014496365 -0.00042048443
0.00013949178 0.0001621659 0.020006316 0.057762966 0.00073239143 0.007968588 -0.00051848486 0.013231687
-0.03871699 0.029052027 0.06773534 -0.009868504 0.007856549 0.06498344 0.06965453 0.05537403
0.021228122 -0.018909533 0.0135498075 0.04718459 0.0012070519 0.085621715 -0.019822432 0.005342168
0.01698173 -0.035544638 -0.02379215 0.00044685733 0.023859318 0.016574558 0.057220396 0.052291706
0.009411155 0.013992623 0.032355964 0.028816147 -0.005843644 -0.0005832479 0.004390616 -0.024172403
0.03841815 0.06896219 -0.024745664 -0.0007937573 0.0041268356 0.031037474 0.059131425 0.06900494
-0.016955718 0.056676246 0.037256546 0.048290055 -0.03757621 0.0060183606 0.011901255 0.0016765778
0.06878084 0.010231626 0.025710609 0.030516809 0.004070541 0.06825029 0.012073811 0.05760165
-0.0016723751 0.070786834 0.032015715 -0.00072916516 0.043366253 0.06772295 0.006491178 0.0814649
00000000: 5095 f93a 4691 223b de44 e9ba d9a7 c2ba
00000010: 2c66 0fba 290a 0cbb 964e 29bb 7190 a8ba
00000020: ec6a e7ba f07b d83a 02c1 97ba b450 f2ba
00000030: 1859 0fbb 8802 8b39 7091 28bb e239 d6ba
00000040: 7570 3fbb b963 e039 764f 9cba 4a5e 65bb
00000050: 6f8f 413b 4401 96bb 953f 19bb aef4 e338
00000060: b8a6 1e38 b1dc a7ba 95f6 9eba 8ba7 bcba
00000070: ece0 f1ba 2520 af3a a658 aebb 8961 dbb8
00000080: 70e4 d2b8 b300 71bb d5f3 de39 4f02 8dbb
00000090: 38be b9b8 9c86 70ba cfb9 a6bb 59f2 3ebb
000000a0: d340 56b9 c343 82ba d400 40ba d2b9 1d3b
000000b0: fd5b 3d39 144c 9c39 a937 d63a ec06 68ba
000000c0: c9f1 30ba 0546 96ba f137 f8ba 24ee 08bb
000000d0: 32d7 9fba 6641 963a ce8f f5ba 7e2f 373a
000000e0: c4f8 30ba fb8e 60bb 11bf faba 307a 1cbb
000000f0: 4811 eaba f206 d8ba 670c 40ba 3af1 4aba
00000100: 95c9 8c3a 4a68 ef3a 7079 3a3b 8515 1ebb
00000110: f0e7 8738 5982 eabb 5821 b6bb 5bf5 bdba
00000120: 7b71 f93a 47da 763a 2f40 28bb 54a9 a33a
00000130: 4143 a7b8 d37c fab9 e7e8 be3a aa29 e6ba
00000140: 2408 703a eaf4 5d39 92df eeb9 7f56 85ba
00000150: 43a4 0ebb e789 0c3b 78fe 08bc de37 d0bb
00000160: da49 e4ba 5682 433b 9288 ddba 4371 39bb
00000170: 9cfc c73a ae1f 38bb e1e0 80ba ceb4 5a3a
00000180: 2224 83ba dcad b9bb 7d6f f53a 3744 3b39
00000190: 9920 5f39 6a03 eaba 6ef8 24ba 57ed 2039
000001a0: 464a b0ba 5f16 e7ba 1cf7 b93a 4e8c 1bbb
000001b0: 93da 023a c53a cdb9 1f09 a33a 6a95 34bb
000001c0: d2ab 90b9 a159 56bb ddad a839 21ec 29bb
000001d0: 58e8 f6ba 419c e5bb 8a8a c4ba 8b64 97bb
000001e0: 0663 0cbb d377 e1bb 937b 8237 a571 2739
000001f0: 089e c6bb 6488 91bb 7677 35b9 d0c8 ecba
00000200: 9c6b 5bbd 4915 913b c889 573c 4e4f 4a3c
00000210: 998e 163d a257 7a3c 3698 b03c 3318 12bc
00000220: f221 8b3c 1a1d 86bc 4734 ccba aae0 6c3d
00000230: 83a2 433d 7751 283d fd8a 8c3d b4e9 813c
00000240: 889c 0d3d db73 633c e3cc 173a 4b57 863d
00000250: fe13 ec3b e4ff a73d 8282 403c ad56 c63b
00000260: 1707 9e3d 4ec4 e83c 7da6 153d 3c3a 413d
00000270: 0d4d d03b 13e3 083d 1b81 953d 8778 e53c
00000280: dd76 b93b 075e 013d faa7 a83b 323f 9d3d
00000290: c4a4 9cbc 5497 0cba e210 523d a047 0d3b
000002a0: 5def 1fbc 986c 813c 43de 143d 8906 0cbc
000002b0: e83b 243b 1bc2 923c 055d b8bc 51e1 943d
000002c0: ac84 c63c 1d75 133a caeb 143c 5bff 133d
000002d0: 4508 8b3c 8207 b53c 2982 6d3c 7774 dcb9
000002e0: 8a44 1239 140b 2a39 49e4 a33c dc98 6c3d
000002f0: f5fd 3f3a ae8e 023c eeea 07ba b8c9 583c
00000300: b595 1ebd 84fe ed3c d3b8 8a3d 81af 21bc
00000310: c1b8 003c 0a16 853d 09a7 8e3d e1cf 623d
00000320: 99e6 ad3c 2ae8 9abc 0300 5e3c a144 413d
00000330: f135 9e3a 705a af3d a762 a2bc 5a0d af3b
00000340: 451d 8b3c 4197 11bd c1e7 c2bc 2d48 ea39
00000350: 9e74 c33c 5ec7 873c ef5f 6a3d d42f 563d
00000360: 3f31 1a3c 5141 653c b087 043d d70f ec3c
00000370: 0a7c bfbb 1be5 18ba 28df 8f3b 3405 c6bc
00000380: 5a5c 1d3d 0c3c 8d3d 6bb7 cabc 2714 50ba
00000390: 683a 873b 4d42 fe3c cb33 723d 7652 8d3d
000003a0: b8e6 8abc 5a25 683d 529a 183d cbcb 453d
000003b0: 83e9 19bd ab35 c53b 7bfd 423c 9ec0 db3a
000003c0: f8dc 8c3d 8da2 273c 0e9f d23c 63fe f93c
000003d0: 2c62 853b cfc6 8b3d 3cd1 453c b5ef 6b3d
000003e0: 9933 dbba b0f8 903d e922 033d 7225 3fba
000003f0: d0a0 313d 54b2 8a3d f3b3 d43b 12d7 a63d

policy_model.0.bias f4 [128]
-0.0011417501 0.0695198 -0.0014982655 0.00018066491 2.1657543e-05 -0.0001491374 -0.005570961 -0.010237683
0.0016087131 -0.0014995139 -0.0015009871 -0.014329842 -0.016941998 0.01404973 0.0002597546 0.0003440429
0.0069249487 -0.017277228 -0.0014963433 -0.0014578769 -0.011548331 -0.0081964275 0.0076030684 -0.00038112613
-0.015248217 -0.0015008727 -0.011885796 -0.01380018 -0.007865691 -0.0014984334 -0.008706175 -0.006354336
-0.013687721 -0.006755752 -0.001500609 -0.006503699 -0.0008502196 -0.0011991822 -0.017633224 -0.013894195
0.06625246 -0.014600538 0.0062269606 -0.0014993733 -0.0012826791 0.0341759 -0.016221525 -0.010073476
-0.009328393 0.0025224464 -0.010376343 -0.001371411 -0.0037584372 0.004025974 -0.01292445 0.0
0.0 -0.0020962944 -0.01712801 -0.001275721 -0.016520973 -0.001489098 -0.0014970349 0.0037946778
-0.0038864845 -0.001500738 -0.0017543057 -0.015517143 -0.00848324 -0.00427842 -0.007848232 -0.0077784876
-0.0010024008 -0.005178268 0.0009946498 -0.003760655 -0.0014975681 -0.015933616 -0.015098061 -0.0015000735
0.02937542 -0.016479421 -0.014018599 -0.0005328667 0.005242542 -0.0011631271 -0.0008377505 0.10260002
-0.01016263 -0.017829213 -0.0014979397 -0.0035862254 -0.00030886714 -0.007136034 -0.0019211574 -0.009067198
-0.017229568 -0.0014995453 -0.015599182 -0.015746066 0.0024117786 -0.010106333 -0.0029666997 -0.0051058135
-0.0063800705 0.005802648 0.011512898 -0.010752157 -0.0012779451 -0.0014997962 -0.0066638454 -0.010622878
-0.010713303 -0.000110316134 -0.00068794546 -0.0016552908 -0.00815932 -0.015067906 -0.0012245595 -0.001484655
-0.01297877 0.041895255 -0.0012879611 0.0031065075 -0.0035848548 -0.00359203 0.0061221644 -0.003063017
00000000: c7a6 95ba 6660 8e3d 7361 c4ba de70 3d39
00000010: 38ad b537 c461 1cb9 9c8c b6bb f4bb 27bc
00000020: 74db d23a 568b c4ba c5bc c4ba b7c7 6abc
00000030: f2c9 8abc d730 663c ac2f 8839 a860 b439
00000040: aeea e23b f988 8dbc f320 c4ba 3b16 bfba
00000050: 3635 3dbc 4f4a 06bc 2923 f93b e2d1 c7b9
00000060: a8d3 79bc eeb8 c4ba a4bc 42bc 261a 62bc
00000070: 19df 00bc 1567 c4ba 58a4 0ebc 0938 d0bb
00000080: 7742 60bc 5b5f ddbb 15b0 c4ba fb1c d5bb
00000090: 46e1 5eba e12d 9dba 8d73 90bc 7aa4 63bc
000000a0: 5faf 873d 1837 6fbc 880b cc3b 9f86 c4ba
000000b0: 921f a8ba 07fc 0b3d 01e3 84bc 380b 25bc
000000c0: 1ed6 18bc a14f 253b 8901 2abc ebc0 b3ba
000000d0: 1d50 76bb 51ec 833b 13c1 53bc 0000 0000
000000e0: 0000 0000 fc61 09bb 0a50 8cbc 1836 a7ba
000000f0: fe56 87bc d62d c3ba 2838 c4ba 21b0 783b
00000100: 64b4 7ebb 69b4 c4ba bbf0 e5ba 9d3b 7ebc
00000110: 4afd 0abc fd31 8cbb df95 00bc afe2 febb
00000120: fd62 83ba 76ae a9bb e95e 823a 5275 76bb
00000130: 0c4a c4ba 3787 82bc dc5d 77bc 1d9e c4ba
00000140: b9a4 f03c daff 86bc 44ae 65bc 14b0 0bba
00000150: a1c9 ab3b 1274 98ba 7c9c 5bba f61f d23d
00000160: 2981 26bc 920e 92bc 8456 c4ba e106 6bbb
00000170: 72ef a1b9 64d5 e9bb 58cf fbba 968e 14bc
00000180: 0625 8dbc 648c c4ba b693 7fbc e5fd 80bc
00000190: ee0e 1e3b 0895 25bc f66c 42bb ab4e a7bb
000001a0: e90f d1bb 2424 be3b 98a0 3c3c d129 30bc
000001b0: b980 a7ba cf94 c4ba 635c dabb 940b 2ebc
000001c0: da86 2fbc 8659 e7b8 3d57 34ba 58f6 d8ba
000001d0: abae 05bc 61df 76bc 6681 a0ba c198 c2ba
000001e0: e8a4 54bc 5c9a 2b3d ced0 a8ba 8c96 4b3b
000001f0: e2ef 6abb 4368 6bbb 709c c83b e6bc 48bb

policy_model.2.weight f4 [8, 128]
-0.0018078343 -0.041811712 0.0017249605 0.00080096314 -0.0019682467 0.0007883454 -0.015412736 -0.0063643875
0.005554852 -0.00016256726 -0.0018161507 -0.005642033 -0.0053655836 0.0036776904 0.0024507213 0.0012158077
0.003693336 -0.0069144135 0.0010009056 -0.002591458 -0.005651887 -0.0073160776 0.015565613 0.0007064507
-0.0075708283 0.0016423524 -0.0026076925 -0.006694652 -0.015815 -0.00083358644 -0.008127774 0.00045570155
-0.00888077 -0.009688404 0.0017549412 -0.0075502237 -0.0011592811 0.0010916123 -0.007000468 -0.008363113
-0.060235202 -0.0066980035 0.003468957 -0.0015409295 0.0012805326 -0.07484522 -0.007628259 -0.0028641133
-0.0073620193 0.004679958 -0.007434327 -0.0055301124 0.004431037 0.00454108 -0.0052721566 -0.00022551893
0.0017280197 0.001266645 -0.006682116 -2.451288e-05 -0.006521637 -0.00046371666 -0.0006562424 0.004154853
-0.007784494 0.0010280797 0.00097574637 -0.005774789 -0.006491703 -0.00469266 -0.0074041546 -0.008284341
-6.275886e-05 0.0030746132 0.0018570005 -0.00076229527 0.0023037428 -0.008246764 -0.0050322386 5.31324e-05
0.025906025 -0.005587721 -0.0017121398 0.0012261329 0.004223397 0.0011169194 -0.00010874683 -0.08264701
-0.0056136893 -0.006424326 0.001570658 -0.0074984133 0.0024378493 -0.006577357 0.001186998 -0.014961154
-0.0060189073 0.0034453461 -0.004554175 -0.0070972 0.0037349965 -0.0066981404 0.0027958017 0.00027506036
6.244521e-05 0.0035808792 -0.028784547 -0.0072159613 -9.249044e-05 0.0022582593 -0.006466121 -0.0040694326
-0.0025365015 -9.7834956e-05 0.003883494 0.00075816084 -0.0015493371 -0.0062279734 0.0009616875 -0.00031699805
-0.007284367 -0.07388616 -0.00037814677 -0.002799848 -0.000121011006 -0.002133282 0.0045853974 0.000849748
0.001059876 0.035185806 -0.00065334234 -0.000706236 0.00041250122 -0.0009204017 0.027512508 -0.01079493
-0.008432556 -0.00017606985 0.003261046 -0.009150849 -0.008674885 -0.0068992563 -0.0025764727 -0.005200819
-0.0024332365 -0.008411497 0.0018537593 -0.0008698227 -0.011975989 -0.0102904895 -0.008855046 -0.00049837533
-0.008605491 0.0008105651 -0.0034179937 -0.00775404 0.002990937 -0.0015161065 -0.010317603 0.0027823509
-0.007640941 -0.004321975 0.0005485388 -0.009041923 0.0010261559 -0.0013398543 -0.008385776 -0.011562865
0.05931293 -0.010227635 -0.005544897 0.0026243303 0.00016603715 -0.01667656 -0.008567398 -0.0022061027
-0.008880114 -0.007835109 -0.012882469 -0.0010950825 -0.0042232615 -0.007055047 -0.009990737 0.0015152614
0.0019239375 0.0015136178 -0.007231114 -0.0006374238 -0.0089898985 0.00024059559 -0.0013575603 -0.008444267
-0.0061978963 -0.0007192017 -0.0004394246 -0.0083000185 -0.008441474 -0.004951362 -0.0071207285 -0.009233719
-0.0018643554 0.0016535833 -0.0042066607 -0.0009753001 0.003599667 -0.00863503 -0.010308323 -0.0013748603
-0.0040515405 -0.008430094 -0.0028599743 -0.0012255968 -0.0069472687 -0.0010840109 0.0014327307 0.025022281
-0.009924403 -0.00985518 0.0016030554 -0.0026630296 -0.00011494514 -0.010766174 -0.00034453988 0.002132055
-0.007878105 0.0004295706 -0.008167083 -0.008864978 -0.006645181 -0.010484255 0.00395691 -8.1293285e-05
0.0069812713 -0.0063150893 -0.011459398 -0.007791467 -0.00071850204 -0.00083696697 -0.0077232644 -0.0039603026
-0.0022800032 0.00015975036 0.0020761243 -0.0037894074 -0.000103773666 -0.008966588 -0.0009527699 -0.00011376218
-0.008245406 -0.010134442 0.00015322494 0.0023229572 -0.0012527419 -0.002994266 -0.007964366 -0.001749984
00000000: daf4 ecba c242 2bbd 1218 e23a baf7 513a
00000010: b3fd 00bb f7a8 4e3a b385 7cbc 5a8c d0bb
00000020: 7a05 b63b d176 2ab9 e80b eeba cee0 b8bb
00000030: c7d1 afbb 6805 713b 489c 203b bd5b 9f3a
00000040: e50b 723b 4e92 e2bb d230 833a 73d5 29bb
00000050: 7733 b9bb b5bb efbb ea06 7f3c 1b31 393a
00000060: b614 f8bb 3444 d73a d2e5 2abb d05e dbbb
00000070: 758e 81bc 0a85 5aba 5b2a 05bc 3aeb ee39
00000080: a680 11bc 1dbc 1ebc 0e06 e63a de67 f7bb
00000090: 05f3 97ba 6e14 8f3a 2f64 e5bb 7005 09bc
000000a0: 30b9 76bd ed7a dbbb 7157 633b 04f9 c9ba
000000b0: 8bd7 a73a 7348 99bd 79f6 f9bb d9b3 3bbb
000000c0: 183d f1bb 555a 993b a89b f3bb f235 b5bb
000000d0: 3c32 913b 57cd 943b 0ec2 acbb 4779 6cb9
000000e0: b87e e23a 8e05 a63a a7f5 dabb 02a1 cdb7
000000f0: 75b3 d5bb ff1e f3b9 af07 2cba 6f25 883b
00000100: 1215 ffbb a1c0 863a 3bc9 7f3a 713a bdbb
00000110: 5ab8 d4bb e3c4 99bb 8d9e f2bb 0bbb 07bc
00000120: 689d 83b8 737f 493b 9966 f33a c5d4 47ba
00000130: 64fa 163b 6f1d 07bc 7ae5 a4bb 7bda 5e38
00000140: df38 d43c 3319 b7bb e169 e0ba 31b6 a03a
00000150: 6c64 8a3b 9965 923a 030f e4b8 d642 a9bd
00000160: 0af3 b7bb 2783 d2bb 89de cd3a 40b5 f5bb
00000170: 53c4 1f3b df86 d7bb 0b95 9b3a a11f 75bc
00000180: 413a c5bb 51cb 613b 303b 95bb a18f e8bb
00000190: d8c6 743b 137c dbbb c539 373b fa35 9039
000001a0: 04f5 8238 2fad 6a3b 92cd ebbc df73 ecbb
000001b0: 6df7 c1b8 4eff 133b c1e1 d3bb e058 85bb
000001c0: 6f3b 26bb be2c cdb8 3882 7e3b 50bf 463a
000001d0: 2013 cbba 0714 ccbb c119 7c3a c232 a6b9
000001e0: b3b1 eebb a151 97bd 0042 c6b9 a87d 37bb
000001f0: 4ac7 fdb8 88ce 0bbb 1a41 963b 9fc1 5e3a
00000200: 8aeb 8a3a fe1e 103d 1045 2bba b222 39ba
00000210: fa44 d839 1d47 71ba e961 e13c 38dd 30bc
00000220: b428 0abc 649f 38b9 46b7 553b 71ed 15bc
00000230: 1b21 0ebc 2813 e2bb 0ada 28bb a26b aabb
00000240: ef76 1fbb 60d0 09bc d7f9 f23a d004 64ba
00000250: f036 44bc 7199 28bc c114 11bc 67a5 02ba
00000260: 0cfe 0cbc 1a7c 543a 6b00 60bb 9a15 febb
00000270: 9903 443b 18b8 c6ba 2a0b 29bc 1a58 363b
00000280: dc60 fabb 5b9f 8dbb d1cb 0f3a 9324 14bc
00000290: 1480 863a 0d9e afba 7e64 09bc 2c72 3dbc
000002a0: 1df2 723d cf91 27bc f8b1 b5bb f5fc 2b3b
000002b0: 421a 2e39 489d 88bc 465e 0cbc 4394 10bb
000002c0: e67d 11bc d45e 00bc fe10 53bc df88 8fba
000002d0: 4963 8abb 062e e7bb 30b0 23bc bc9b c63a
000002e0: a12c fc3a 9664 c63a fbf2 ecbb c918 27ba
000002f0: 5e4a 13bc 6348 7c39 2af0 b1ba d359 0abc
00000300: b917 cbbb cf88 3cba 9262 e6b9 cdfc 07bc
00000310: 1c4e 0abc 093f a2bb 0055 e9bb 0649 17bc
00000320: 635d f4ba 0cbd d83a 07d8 89bb 48ab 7fba
00000330: 64e8 6b3b f179 0dbc 3ee4 28bc a834 b4ba
00000340: c9c2 84bb 611e 0abc 686e 3bbb 34a4 a0ba
00000350: eaa5 e3bb 5f15 8eba 77ca bb3a 87fb cc3c
00000360: f799 22bc 9f77 21bc 9d1d d23a 3986 2ebb
00000370: b40e f1b8 9b64 30bc 5ca3 b4b9 f2b9 0b3b
00000380: 2b13 01bc fd37 e139 3bcf 05bc 6a3e 11bc
00000390: d2bf d9bb 27c6 2bbc f8a8 813b 007c aab8
000003a0: 26c3 e43b cfee cebb 33c0 3bbc 904f ffbb
000003b0: db59 3cba e767 5bba 7013 fdbb 6dc5 81bb
000003c0: 1b6c 15bb a982 2739 960f 083b b557 78bb
000003d0: 10a1 d9b8 99e8 12bc 4ec3 79ba 9b93 eeb8
000003e0: bd17 07bc ee0a 26bc 02ab 2039 c13c 183b
000003f0: 0b33 a4ba 733b 44bb f97c 02bc b85f e5ba

policy_model.2.bias f4 [8]
-0.021917555 0.008795439 0.03680372 0.011369147 -0.012218472 -0.0026802488 0.02689004 -0.05500915
00000000: 728c b3bc bf1a 103c 7fbf 163d a945 3a3c
00000010: fc2f 48bc 1da7 2fbb 8048 dc3c 4651 61bd
