results/short_race/second_iteration_training/model814.pt (torch, 276107 bytes, 13 tensors)

features_model.0.weight f4 [128, 4]
0	0x3bb34faf	0.0054721455
1	0x3e3dff97	0.18554531
2	0x3d9d7744	0.07688764
3	0xbea26655	-0.31718698
4	0x3d0723f8	0.032993287
5	0xbd9af18a	-0.07565601
6	0xb771a539	-1.4403188e-05
7	0x3cf08d2d	0.029364193
8	0x3e1d9d46	0.15392026
9	0x3ccd7a52	0.025082741
10	0xbd09b72d	-0.033621956
11	0x3e96f937	0.2948701
12	0x3e3f346b	0.1867234
13	0xbdce96c7	-0.10087352
14	0xbd67e872	-0.05661816
15	0xbdd1180f	-0.10209667
16	0x3d242086	0.04007008
17	0x3be6cc7b	0.007043419
18	0x3d495944	0.049157396
19	0xbcf90bc3	-0.030401116
20	0x3d2b7088	0.041855365
21	0x3d794c4d	0.06086378
22	0x3e7586c4	0.2397719
23	0xbe497cee	-0.19676563
24	0xbc0175e9	-0.007901647
25	0xbcd19545	-0.025583873
26	0x3dda1392	0.10648264
27	0x3ea6daab	0.32588705
28	0x3b658793	0.0035023435
29	0xbc1b174d	-0.009466005
30	0x3d9565d9	0.072948165
31	0x3ea39595	0.3195006
32	0xbe3e0c15	-0.18559296
33	0x3e01f680	0.12691689
34	0x3dfd9c70	0.12383354
35	0x3b9c9e2e	0.0047795987
36	0x3b8e5e34	0.004344726
37	0x3e4d63bd	0.20057578
38	0x3d6527db	0.055946212
39	0xbebb4054	-0.36572516
40	0x3d61c29b	0.05511723
41	0x3e6c71de	0.23090312
42	0x3e3e27fa	0.18569937
43	0x3e29c482	0.16578868
44	0x3e22bbc5	0.15891941
45	0xbdf3cfd1	-0.11904872
46	0x3e30a721	0.17251255
47	0x3d607191	0.054795805
48	0x3e055f55	0.13024648
49	0x3ea7e743	0.32793626
50	0x3d0efc46	0.034908555
51	0xbdb14159	-0.08655042
52	0xbe2593f0	-0.16169715
53	0xbd216f19	-0.03941259
54	0xbe184c0c	-0.1487276
55	0x3c89b99a	0.016812135
56	0xbd9eb522	-0.07749392
57	0x3e9d90c5	0.30774513
58	0xbd0c2ad2	-0.034220524
59	0x3e0d4c2b	0.13798587
60	0xbe53bd3d	-0.20677657
61	0xbc99bf25	-0.018767903
62	0xbe982325	-0.29714313
63	0x3d81c427	0.06336241
64	0x3df769e7	0.12080746
65	0xbc8fc7a7	-0.017551256
66	0x3cd37d45	0.02581657
67	0xbe000faa	-0.12505975
68	0xbd503098	-0.050827593
69	0xbe79d12a	-0.24396196
70	0xbdfd4dbf	-0.123683445
71	0xbd5e139e	-0.054217927
72	0xbe074054	-0.13208133
73	0x3d68f550	0.056874573
74	0xbda742a1	-0.08167005
75	0xbde54f7a	-0.111967996
76	0xbd9435ff	-0.072368614
77	0xbe0ebc3d	-0.13938995
78	0xbe84328f	-0.25819823
79	0xbe4b3d01	-0.1984749
80	0x3daa99d4	0.08330122
81	0xbda242ec	-0.079229206
82	0xbdfbeab7	-0.12300628
83	0x3d4e2b2e	0.050334148
84	0xbe720a1b	-0.23636667
85	0xbe31a2ec	-0.17347306
86	0x3e4070eb	0.18793075
87	0xbd819611	-0.06327451
88	0x3d4a6b1c	0.049418554
89	0x3e54dd4f	0.20787548
90	0xbda3561a	-0.07975407
91	0xbce70549	-0.028200762
92	0xbe67a533	-0.22621612
93	0xbdb55540	-0.08854151
94	0xbddc3792	-0.10752787
95	0x3d95662c	0.07294878
96	0x3cfb8d26	0.030706953
97	0x3e21db0d	0.15806217
98	0x3e10f1c7	0.1415473
99	0xbea1b3af	-0.315824
100	0xbec07f9f	-0.37597367
101	0xbe586dbb	-0.21135609
102	0x3d9b2781	0.07575894
103	0xbdb2d78d	-0.08732519
104	0x3e70b079	0.23504819
105	0x3eb98134	0.36231387
106	0xbccb3c0e	-0.02480891
107	0x3e3e7b0a	0.18601623
108	0xbdb006c1	-0.08595038
109	0xbda2885f	-0.07936167
110	0xbdd7624c	-0.105167955
111	0xbcbf82b1	-0.023377748
112	0x3ba56296	0.0050471528
113	0xbc8a7ef7	-0.016906245
114	0xbd92adce	-0.07162057
115	0x3ed1d46f	0.40982386
116	0x3dc074cd	0.09397278
117	0x3dc69897	0.09697073
118	0xbde9f865	-0.114243306
119	0xbd8465b5	-0.064647116
120	0x3e2b0fc7	0.16705237
121	0x3e014410	0.1262362
122	0x3e325309	0.17414488
123	0x3df4fe34	0.11962548
124	0x3dd0e644	0.1020017
125	0x3d88fcec	0.06688866
126	0x3dea4fbc	0.114409894
127	0x3e6eb290	0.23310304
128	0x3e503261	0.20331718
129	0xbe933852	-0.28753906
130	0x3d74ba63	0.059748065
131	0x3ddaf8ca	0.10691984
132	0x3e3b6e48	0.18303788
133	0xbc4da23e	-0.012550889
134	0x3e076d5f	0.13225316
135	0xbc81f2d1	-0.015862854
136	0x3c4b0eaf	0.012393638
137	0x3d1378b4	0.036003783
138	0x3e74234a	0.23841587
139	0x3e9898e5	0.2980415
140	0x3dbc4b41	0.09194041
141	0xbe10f118	-0.1415447
142	0x3b4f6c57	0.003165027
143	0xbe3d87f2	-0.1850889
144	0xbda0a3b4	-0.07843724
145	0xbddf5160	-0.10904193
146	0x3dcdbf54	0.100462586
147	0xbc734994	-0.014849085
148	0xbd90e03e	-0.07074021
149	0xbdc3f848	-0.0956884
150	0xbb0a8ea3	-0.0021142147
151	0x3db47774	0.088118464
152	0xbe174fd8	-0.14776552
153	0x3d1387a8	0.036018044
154	0x3d97dfc5	0.074157275
155	0x3e67bd03	0.22630696
156	0x3d09269b	0.033484083
157	0x3c667132	0.014065074
158	0x3e0b7d67	0.13622056
159	0x3ec9081e	0.39264005
160	0xbb0578e7	-0.0020366253
161	0xbc7281c9	-0.014801451
162	0xbd92a9b1	-0.07161272
163	0x3eb15948	0.3463843
164	0xbd173c61	-0.036922816
165	0xbd9439fb	-0.072376214
166	0x3ccea64f	0.025225786
167	0xbe721d96	-0.23644099
168	0x3d95c0c8	0.07312161
169	0xbd580054	-0.052734688
170	0xbcdc752c	-0.02691134
171	0xbdf35e4b	-0.11883219
172	0xbdfa7c46	-0.122307345
173	0x3e136a02	0.14395908
174	0x3e08da51	0.13364531
175	0x3c6877c3	0.01418871
176	0x3ccec2f0	0.025239438
177	0x3e89df96	0.26928395
178	0x3d428d4e	0.04749804
179	0xbcfa7395	-0.030572692
180	0xbd1f6ab4	-0.03892012
181	0xbda92267	-0.08258515
182	0xbd918a85	-0.07106499
183	0x3e143558	0.14473474
184	0x3dc4a554	0.09601846
185	0x3c1ee0f1	0.009697185
186	0x3ec98518	0.39359355
187	0xbdcc8df8	-0.09988016
188	0xbbeaf27d	-0.00717002
189	0x3cbb58f2	0.02286956
190	0x3dfd6253	0.123722695
191	0x3cf983bb	0.030458322
192	0xbe550cc8	-0.20805657
193	0xb998249b	-0.00029018972
194	0xbe1666e7	-0.14687692
195	0x3c3aa6a2	0.011392267
196	0x3e715cfb	0.23570625
197	0xbe01dc5b	-0.12681715
198	0x3d5e5b4d	0.05428629
199	0x3e05b4a9	0.13057198
200	0xbe518063	-0.20459132
201	0xbda5421d	-0.08069251
202	0x3cd20647	0.025637759
203	0x3db3d9cb	0.08781775
204	0xbe9910f3	-0.29895744
205	0x3e282676	0.16420922
206	0x3e3f9f52	0.1871312
207	0x3cb78cda	0.02240603
208	0x3e46e9db	0.19425146
209	0x3eb32768	0.34991002
210	0xbd7bd21a	-0.061479665
211	0xbd2af3a8	-0.041736275
212	0x3e60f865	0.21969755
213	0xbd7c76cd	-0.061636735
214	0xbd0bf9ff	-0.03417396
215	0xbd04087d	-0.032234658
216	0x3d3e0f2f	0.0464012
217	0x3c034c0c	0.008013736
218	0x3de11111	0.10989583
219	0x3d4f60d2	0.050629444
220	0x3df8ef63	0.121550344
221	0xbbedd534	-0.007258082
222	0x3e4e4f41	0.2014742
223	0x3ed71a15	0.42012087
224	0x3e0b2865	0.13589628
225	0x3d39d0ab	0.045365017
226	0x3bf9b3d4	0.007620314
227	0xbdc40772	-0.095717326
228	0xbc933a58	-0.017972156
229	0x3e2d9435	0.16951068
230	0x3e0928a9	0.13394417
231	0x3c0145b8	0.007890157
232	0xbd9451ab	-0.072421394
233	0x3ca43f62	0.020049755
234	0xbd6f798e	-0.058465533
235	0x3cf75a11	0.030194314
236	0x3df93c02	0.12169649
237	0x3d9311e4	0.07181147
238	0x3e1603a2	0.14649823
239	0x3e9b3a43	0.30317888
240	0xbcf788bb	-0.030216565
241	0x3d2404b9	0.040043566
242	0x3c9d2672	0.019183371
243	0x3e7afe07	0.24510966
244	0x3c2f259a	0.010690117
245	0xbc9252fd	-0.017861838
246	0xbe0ee3bf	-0.13954066
247	0x3e9909fb	0.29890427
248	0xbbfd0157	-0.007721107
249	0x3df98b03	0.121847175
250	0x3d817d1a	0.06322689
251	0xbeab0f11	-0.33409932
252	0xbe5028cf	-0.20328067
253	0x3e5fd262	0.21857598
254	0xbcfea47a	-0.031084288
255	0xbe20c4ff	-0.15700148

features_model.0.bias f4 [128]
0	0x3e14082f	0.14456247
1	0x3c09c0f5	0.008407821
2	0x3de979fd	0.114002205
3	0xbd0a73c8	-0.033801824
4	0x3e3f6913	0.18692426
5	0x3dcf90a9	0.101350136
6	0x3e12118f	0.1426451
7	0x3e2192ed	0.15778704
8	0x3dbda580	0.09260082
9	0x3e1cff03	0.15331654
10	0x3e48bc72	0.19603136
11	0xbbba3d0d	-0.0056835474
12	0x3deafa9d	0.11473582
13	0xbd32bdc8	-0.04363802
14	0x3db221d8	0.086978614
15	0x3de915bf	0.11381101
16	0x3dbfac09	0.09358985
17	0xbcbede5a	-0.023299385
18	0xbd780f2f	-0.060561355
19	0xbb60d5ca	-0.0034307116
20	0x3d120d5f	0.035657283
21	0xbde52be0	-0.11190009
22	0x3e08d563	0.1336265
23	0xbc6d86e2	-0.014497491
24	0x3e38577b	0.18002121
25	0xbd26f2dc	-0.040758952
26	0x3d79560d	0.06087308
27	0x3c5b609a	0.013389731
28	0x3e36ac04	0.17839056
29	0x3e15b781	0.14620782
30	0x3e0c392e	0.13693687
31	0x3e307d76	0.1723536
32	0x3b5fe94a	0.003416615
33	0x3db89bbb	0.09014078
34	0x3e3406c4	0.17580706
35	0x3d2c4057	0.042053547
36	0x3d7c2198	0.061555475
37	0xbcea89f0	-0.028630227
38	0x3e21ca0e	0.15799734
39	0x3e232993	0.15933828
40	0x3e4b6660	0.19863272
41	0x3d0a8bc8	0.033824712
42	0x3dd49d1d	0.103815295
43	0x3da226dc	0.07917568
44	0x3e033d43	0.12816338
45	0xbca85e5e	-0.02055281
46	0x3d969887	0.07353311
47	0x3e01b4f5	0.12666686
48	0xbcf02b50	-0.029317528
49	0x3d78527a	0.06062553
50	0xbd6fece0	-0.05857551
51	0x3dc8242b	0.097725235
52	0x3ddc3a28	0.1075328
53	0x3da94d97	0.08266752
54	0x3e35ba56	0.17746863
55	0x3db551b9	0.08853478
56	0x3dee872f	0.11646878
57	0x3dc6e06c	0.09710774
58	0xbc6f8c6d	-0.014620882
59	0x3e35fd03	0.17772298
60	0x3e247318	0.1605953
61	0xbd2a3b17	-0.04156026
62	0x3e2606a7	0.16213475
63	0x3e067b06	0.13132867
64	0x3deb8260	0.114994764
65	0x3e52278c	0.20522898
66	0x3e000acf	0.12504123
67	0x3e2979db	0.1655039
68	0x3e0c7345	0.13715847
69	0x3dc417d2	0.09574856
70	0xbd8eca2e	-0.069721565
71	0xbd9bf5d2	-0.07615246
72	0xbc7fc7b1	-0.015611575
73	0x3d5a84ee	0.053349428
74	0x3e16ce4f	0.14727138
75	0xbd4fb7e3	-0.050712477
76	0xbc589d6b	-0.013221125
77	0x3daf495d	0.08558915
78	0x3e220882	0.15823558
79	0x3d3700cd	0.044678498
80	0x3dd2b320	0.10288072
81	0xbc8995a5	-0.016794989
82	0x3e0c6e02	0.1371384
83	0x3db85968	0.09001428
84	0xbca8741f	-0.020563183
85	0x3ce34178	0.027741179
86	0x3e634842	0.22195533
87	0x3ddcf541	0.10788966
88	0x3de66a34	0.112507254
89	0xbc8f8f4e	-0.017524388
90	0xbc7304f3	-0.014832723
91	0x3d67c3f3	0.056583356
92	0xbc4b850a	-0.012421856
93	0x3c67a07b	0.014137383
94	0x3d2e0af0	0.0424909
95	0x3e0d3f2e	0.13793632
96	0xbd3a2abe	-0.04545092
97	0xbc9bac6c	-0.019003116
98	0x3d5c1f4b	0.05374078
99	0x3df40f4c	0.1191698
100	0xbcdb3203	-0.026757246
101	0x3e3b657d	0.18300433
102	0x3e6602f6	0.22462067
103	0x3e01cfa1	0.1267686
104	0x3e045f7e	0.12927052
105	0x3e3fed48	0.1874286
106	0x3e311f15	0.17297013
107	0x3e1a02ea	0.15040174
108	0xbc6924cb	-0.0142299635
109	0xbcd88a62	-0.026433174
110	0x3e0b1f57	0.13586174
111	0x3e1d10da	0.1533846
112	0xbd2f0c1c	-0.042736158
113	0x3db3caa5	0.08778886
114	0x3de675cc	0.11252937
115	0x3e374a31	0.17899396
116	0x3e493cf7	0.19652162
117	0xbb4b4cab	-0.003102104
118	0x3e073b18	0.13206136
119	0xbce838de	-0.028347429
120	0xbd6bcba0	-0.05756724
121	0x3e70fa2f	0.23532937
122	0x3dc54640	0.0963254
123	0x3d85acb4	0.06527081
124	0x3e292d14	0.16521102
125	0x3e0ad8be	0.13559243
126	0x3e2f39be	0.1711187
127	0xba96afcf	-0.0011496487

features_model.2.weight f4 [128, 128]
0	0x3eb07d2c	0.344705
1	0xbd88606c	-0.06659016
2	0xbc8a2f2a	-0.016868193
3	0x3db4cd9a	0.08828278
4	0x3e59ab79	0.21256818
5	0x3de967ea	0.11396773
6	0x3dcf6c44	0.10128072
7	0x3d5bc4ed	0.0536546
8	0x3e11ea41	0.14249517
9	0x3e38c73d	0.18044753
10	0x3e146bb6	0.14494213
11	0xbc649d15	-0.013953467
12	0x3d087905	0.03331854
13	0x3cf3fd2e	0.029783811
14	0x3ce85fef	0.028366057
15	0x3e09b35d	0.13447328
16	0xbe125934	-0.14291841
17	0x3d916251	0.070988305
18	0xbd601737	-0.05470964
19	0xbdff7b25	-0.1247466
20	0x3dc2539e	0.09488605
21	0x3d0f186a	0.034935392
22	0x3df34f36	0.11880343
23	0xbd58b118	-0.052903265
24	0x3e40270a	0.18764892
25	0xbe0d2ebc	-0.13787359
26	0xbc326d42	-0.010890307
27	0x3e85f9e1	0.26167205
28	0x3e403f75	0.18774207
29	0xbd322e8c	-0.04350142
30	0x3d4bfbeb	0.049800795
31	0x3e0c7c62	0.13719323
32	0x3e3f69b7	0.18692671
33	0xbc8d25be	-0.017229911
34	0x3e0b940c	0.13630694
35	0xbc819b62	-0.015821163
36	0xbdd703cb	-0.1049877
37	0xbe5f7418	-0.2182163
38	0x3ce01c5d	0.027357275
39	0x3e1a2a05	0.15055092
40	0x3eb4b8b8	0.3529718
41	0xbd15610e	-0.03646951
42	0x3e330de5	0.17485769
43	0x3e7203bf	0.23634242
44	0x3e81177e	0.25213236
45	0x3e245563	0.16048197
46	0xbd319b45	-0.043360967
47	0x3d879b9a	0.066214755
48	0x3e2be582	0.16786769
49	0x3e95e117	0.29273292
50	0x3e24e3c7	0.16102515
51	0x3eae2ad9	0.34017065
52	0xbd841595	-0.06449429
53	0xbd3fb6f2	-0.04680533
54	0xbc36370a	-0.011121521
55	0xbe295bb8	-0.16538894
56	0xbd3acb5b	-0.04560409
57	0x3d147728	0.03624645
58	0xbd70b20e	-0.058763556
59	0x3e2cc6bf	0.1687269
60	0x3e9cd2de	0.3062963
61	0x3eab52cc	0.33461607
62	0x3e63d235	0.22248156
63	0xbd53831b	-0.051638704
64	0x3ebd7d24	0.37009537
65	0x3e7b2ea1	0.24529506
66	0x3dc6fb89	0.09715945
67	0x3dfc3954	0.12315622
68	0x3cfb1c12	0.030653033
69	0x3e678158	0.22607934
70	0x3dd4a285	0.10382561
71	0xbe706c41	-0.23478796
72	0xbe5fca75	-0.21854575
73	0x3ad18ac3	0.0015986789
74	0x3c0d71a3	0.00863305
75	0xbd559f60	-0.052153945
76	0xbcfe3512	-0.031031165
77	0x3d48c4f5	0.049015958
78	0x3dbcd69d	0.09220622
79	0xbea33b7b	-0.31881317
80	0x3de42cfc	0.111413926
81	0x3d48b8bc	0.0490043
82	0xbd4ba304	-0.04971601
83	0x3e0a9345	0.13532741
84	0x3e762bfe	0.24040219
85	0x3e4634e1	0.19356109
86	0xbce5f71c	-0.028071932
87	0xbd8fbae0	-0.070180655
88	0x3d663043	0.05619837
89	0x3d631827	0.055442955
90	0xbe736dbd	-0.2377233
91	0xbdc206cd	-0.094739534
92	0x3e30244d	0.17201348
93	0xbd5fe9a9	-0.054666195
94	0xbd2dd9bf	-0.042443987
95	0xbd96d753	-0.073652886
96	0xbcc54f2c	-0.024085604
97	0x3dd76138	0.1051659
98	0x3e5ac911	0.21365763
99	0xbccae6e2	-0.024768297
100	0x3dc8312e	0.09775005
101	0x3e28dfdc	0.16491646
102	0x3e2c80e5	0.16846044
103	0x3ede2d6c	0.4339403
104	0x3ea715b2	0.3263374
105	0x3dede3fc	0.1161575
106	0xbbb9e492	-0.0056729997
107	0x3d1c56cc	0.038168713
108	0xbdf92910	-0.12166035
109	0x3e24fe2e	0.16112587
110	0x3dde721c	0.108616084
111	0x3e9b7234	0.30360568
112	0xbdd207f6	-0.10255425
113	0xbe354f54	-0.17706043
114	0xbd477592	-0.04869611
115	0x3e36dd9e	0.17857978
116	0x3e49c772	0.19704989
117	0xbe0964c2	-0.13417342
118	0x3dea48aa	0.11439641
119	0xbe24da5e	-0.16098925
120	0xbd9cd3d9	-0.07657594
121	0x3e770140	0.2412157
122	0xbda70112	-0.08154501
123	0x3d6553fb	0.055988293
124	0x3dfceb4f	0.12349569
125	0x3e608d2f	0.21928857
126	0x3e822344	0.2541753
127	0xbdb1be74	-0.08678904
128	0xba4ba2de	-0.00077681046
129	0x3d9f77ab	0.07786497
130	0x3da3dc43	0.08000996
131	0xbab7df66	-0.001402837
132	0xbd5da3fd	-0.05411147
133	0x3d9d247a	0.07672973
134	0x3e30ddfb	0.17272179
135	0xbdad80a0	-0.08471799
136	0x3e3ead7b	0.18620865
137	0xbe550cb3	-0.20805626
138	0xbde279c7	-0.110583834
139	0x3dcee321	0.10101915
140	0x3b0c9cf7	0.0021455863
141	0x3cf0fb18	0.029416606
142	0x3e8186ff	0.25298306
143	0xbc959a32	-0.018262003
144	0xbd1008ff	-0.03516483
145	0x3d1ec655	0.038763363
146	0x3d6312e5	0.05543794
147	0xbdb90ca1	-0.09035612
148	0xbce0e41b	-0.02745252
149	0xbe1db1bd	-0.15399833
150	0xbde9c8da	-0.114152625
151	0x3dcc044e	0.099617586
152	0xbd80ac3b	-0.0628285
153	0xbdc130b6	-0.09433119
154	0xbe2da17f	-0.16956137
155	0xbcc04bef	-0.023473708
156	0x3eb2818c	0.3486446
157	0xbe33377b	-0.17501633
158	0xbeb58767	-0.35454866
159	0xbda1d87d	-0.0790262
160	0x3d628266	0.05530014
161	0x3bf23c64	0.007392453
162	0xbd951a27	-0.07280379
163	0xbd812b2a	-0.06307061
164	0x3d96f925	0.07371739
165	0x3c24f580	0.010068297
166	0x3e867b15	0.2626578
167	0x3d1b822f	0.03796595
168	0x3e49af0b	0.1969568
169	0xbe497d8a	-0.19676796
170	0x3c2bffdc	0.010498013
171	0x3e4bd91c	0.1990704
172	0x3e009be2	0.12559465
173	0xbd1e68d1	-0.03867418
174	0x3d14ef81	0.03636122
175	0x3e941e16	0.28929204
176	0xbe0e4251	-0.13892485
177	0x3cfe537a	0.031045664
178	0x3d33aa03	0.043863308
179	0x3ccca1c6	0.024979483
180	0x3cbca1e2	0.02302641
181	0x3da4451e	0.080209956
182	0x3cf303d5	0.029664913
183	0x3dc7a544	0.09748319
184	0x3c4b4a29	0.012407818
185	0x3e3b8733	0.18313293
186	0xbdbb6f82	-0.09152128
187	0x3d70e98c	0.058816478
188	0x3eabbb94	0.33541548
189	0xbc820468	-0.015871242
190	0xbe5970ab	-0.21234386
191	0x3eda027c	0.4258002
192	0x3e351119	0.17682303
193	0x3e19f1ae	0.150336
194	0x3dbd250b	0.09235581
195	0x3cb7caa5	0.022435496
196	0x3d20ff2d	0.039305855
197	0x3eb5d428	0.35513425
198	0xbe8495cd	-0.2589554
199	0xbd1031bc	-0.03520368
200	0x3da320c7	0.07965236
201	0x3e41fe20	0.18944597
202	0xbe161dae	-0.1465976
203	0x3e0923ad	0.13392515
204	0x3af9db46	0.0019062541
205	0xbcc6a7e0	-0.02424997
206	0x3b7c531e	0.003850169
207	0x3dde608d	0.10858259
208	0x3d32b7de	0.04363238
209	0x3e042fd7	0.12908874
210	0x3d4fe241	0.050752882
211	0x3ea44769	0.32085732
212	0x3d976977	0.07393163
213	0x3b60f4ed	0.0034325675
214	0xbe0c467b	-0.13698761
215	0x3d37d7d6	0.04488357
216	0x3e6e01d6	0.23242888
217	0xbac5d908	-0.0015094588
218	0xbcfebdf4	-0.031096436
219	0x3b1f8793	0.0024342283
220	0x3d1823fe	0.0371437
221	0x3cf9d432	0.03049669
222	0x3e0eed09	0.13957609
223	0xbe0c9482	-0.13728526
224	0x3c90a488	0.01765658
225	0xbdc4a110	-0.09601033
226	0x3e3226c3	0.17397599
227	0xbd1cac0d	-0.038250018
228	0x3d38cf08	0.045119315
229	0xbccb8570	-0.024843901
230	0xbeab33cc	-0.33437955
231	0x3dfbefbb	0.12301584
232	0x3c810e3a	0.015753854
233	0x3cc618b1	0.024181696
234	0xbdfd2db2	-0.12362231
235	0x3ea133d0	0.31484842
236	0xbdd277fa	-0.1027679
237	0xbcb8a098	-0.022537515
238	0x3d9c3c40	0.07628679
239	0x3e5689dd	0.20951028
240	0xbd76a800	-0.06021881
241	0xbe570a2f	-0.20999978
242	0x3d6ee1de	0.058320872
243	0x3b045f1c	0.0020198291
244	0x3e72f830	0.23727489
245	0x3de96f8a	0.113982275
246	0x3e83c9e3	0.25739965
247	0xbdc48a73	-0.095967196
248	0xbc9840c0	-0.018585563
249	0x3e69d588	0.22835362
250	0x3e4a9cc8	0.1978637
251	0x3b89cf71	0.004205637
252	0xbd3a8727	-0.045539048
253	0xbe1fcca2	-0.15605405
254	0x3d0d71f7	0.034532513
255	0x3da52fc4	0.08065751

features_model.2.bias f4 [128]
0	0x3dfe1095	0.124055065
1	0x3d8b093f	0.06788873
2	0x3bb54d0b	0.005532866
3	0xbd782216	-0.060579382
4	0x3d9f1c5e	0.077690825
5	0x3e1dea6d	0.15421458
6	0xbc987c29	-0.018613892
7	0x00000000	0.0
8	0x3df1f9c7	0.11815219
9	0x3e186123	0.14880805
10	0xbcedb7c4	-0.02901829
11	0x3dfecfe1	0.124419935
12	0xbc806a18	-0.01567559
13	0xbcbaf669	-0.022822576
14	0xbbd74a21	-0.006570116
15	0x3e4605d2	0.19338158
16	0xbba45406	-0.005014899
17	0x3d7046b9	0.058661196
18	0xbccf6da3	-0.025320834
19	0x3e0f93cd	0.14021225
20	0xbbd2ace2	-0.0064293006
21	0x3e1b4c2d	0.15165778
22	0xbc976e75	-0.018485287
23	0xbd3b03c2	-0.04565788
24	0x3e37355e	0.17891452
25	0x3e058ec7	0.13042746
26	0xbb8d4c9e	-0.004312112
27	0xbc398e06	-0.011325365
28	0xbbe2ad34	-0.00691762
29	0xbb0f648c	-0.002188
30	0xbceaf39f	-0.02868062
31	0x3e0d2677	0.13784204
32	0x3dd120ac	0.1021131
33	0x3e085052	0.1331189
34	0x3e38d6e1	0.1805072
35	0x3ddbd896	0.1073467
36	0xbd08164c	-0.03322439
37	0x3d91b9c1	0.07115508
38	0x3e06dde2	0.13170579
39	0xbb9141b2	-0.0044328803
40	0x3e28e200	0.16492462
41	0x3d9b2e61	0.075772054
42	0xbd12d70e	-0.035849623
43	0xbbdd2eb3	-0.0067499517
44	0x3db652d2	0.089025155
45	0xbcc5e398	-0.024156377
46	0x3c7791ec	0.015110474
47	0xbc4d5029	-0.012531319
48	0xbcdeb7eb	-0.027187308
49	0x3dc71eae	0.097226486
50	0xbc6543b8	-0.013993196
51	0xbc59caa8	-0.013292946
52	0xbc9def4a	-0.019279141
53	0x3dc70d95	0.097193874
54	0xbc3a6a29	-0.01137785
55	0x3e11f5d3	0.14253931
56	0x3dd31409	0.10306556
57	0xbcb4b2cf	-0.022057919
58	0x3da42bdf	0.0801618
59	0xbccfb909	-0.025356786
60	0xbccaa81b	-0.024738362
61	0x3d052d7c	0.03251408
62	0xbb568fc7	-0.0032739507
63	0x38d81647	0.00010303832
64	0xbc267605	-0.010159974
65	0xbd1b04a6	-0.03784623
66	0xbbd1ffa1	-0.006408647
67	0x3e276544	0.16347224
68	0x3e16be75	0.14721091
69	0x3de51ba5	0.111869134
70	0x3ca76f09	0.020438688
71	0xbba7563f	-0.005106717
72	0xbce0c2f1	-0.027436705
73	0xbcd3899c	-0.025822453
74	0x3df0d810	0.11759961
75	0x3de4895b	0.11159011
76	0x3e038c05	0.12846382
77	0x3b31b41c	0.002711541
78	0x3e0a5408	0.13508618
79	0xbc9d224c	-0.019181393
80	0x00000000	0.0
81	0x3c183a90	0.009291306
82	0xbccaef70	-0.024772376
83	0x3ded4298	0.115849674
84	0xbc6c9b3c	-0.014441308
85	0x3dd67a96	0.104726
86	0xbc3e86fd	-0.011628863
87	0x3e4e71ca	0.20160595
88	0x3dd63e5b	0.10461112
89	0xbb3aed82	-0.0028522913
90	0xbcb3b63c	-0.021937482
91	0x3ce6d63f	0.028178332
92	0x3e067516	0.13130602
93	0xbd09b145	-0.033616323
94	0xbca2aeca	-0.019858737
95	0x3de4940b	0.111610495
96	0xbc2eb833	-0.010664034
97	0xbc9b3aa9	-0.01894887
98	0x3d034dc4	0.032056585
99	0x3e3fefa4	0.1874376
100	0xbd3b4872	-0.045723386
101	0xbd1afc4c	-0.037838265
102	0x00000000	0.0
103	0xbce1445b	-0.027498415
104	0x3dee778b	0.11643895
105	0xbbfe5aa7	-0.0077622714
106	0x3e16e6ba	0.14736453
107	0xbd57fcb1	-0.05273122
108	0xba117579	-0.0005548816
109	0xbce40dee	-0.027838673
110	0x3dee02f7	0.11621659
111	0xbd413bf6	-0.047176324
112	0xbcd663f0	-0.0261707
113	0xbc4dbea9	-0.012557664
114	0x3dba1704	0.09086421
115	0x3e59e430	0.21278453
116	0x3e08f906	0.13376245
117	0x3e11ef98	0.14251554
118	0xbc5883f0	-0.01321505
119	0xbd3e32cd	-0.046435166
120	0x3bf3bde8	0.00743841
121	0xbc8cc659	-0.017184423
122	0xbc74fecc	-0.014953326
123	0x3d81308a	0.06308086
124	0xbc52e465	-0.012871836
125	0x3d464d30	0.048413455
126	0x00000000	0.0
127	0xbc423781	-0.0118540535

features_model.4.weight f4 [128, 128]
0	0x3e02fade	0.1279101
1	0xb944033b	-0.0001869322
2	0x3d6f90a4	0.05848755
3	0xbd72ad7b	-0.059247475
4	0xbc98a1a7	-0.01863177
5	0xbe6299cb	-0.2212898
6	0xbe8363c9	-0.25662068
7	0x3b92d763	0.0044812425
8	0xbd9bff41	-0.07617045
9	0x3c71f115	0.014766951
10	0xbd76685a	-0.06015811
11	0xbe2d07da	-0.16897526
12	0xbd54269f	-0.051794644
13	0xbd4fc905	-0.050728817
14	0xbc2a3392	-0.010388272
15	0xbd280f14	-0.041030005
16	0x3e0f0d7a	0.13969985
17	0x3dc57185	0.09640793
18	0xbe64f017	-0.22357212
19	0x3d7f445e	0.06232106
20	0x3d65cd21	0.05610383
21	0xbe9314a0	-0.28726673
22	0xbe19a5b4	-0.15004617
23	0x3db39bbc	0.08769938
24	0xbdcf3a6c	-0.10118565
25	0x3d96fbe8	0.07372266
26	0x3ebd5831	0.36981347
27	0xbc95fa4e	-0.018307831
28	0x3de4755d	0.11155198
29	0x3de86cf4	0.11348906
30	0xbcefe57c	-0.029284231
31	0xbd2106ab	-0.039313
32	0x3d0002df	0.031252738
33	0xbe5aff00	-0.21386337
34	0x3e38438d	0.17994519
35	0x3e4976ce	0.19674227
36	0xbe3fd6bb	-0.18734257
37	0xbd7abacd	-0.061213303
38	0xbcf7b3da	-0.030237127
39	0x3d112d65	0.035443682
40	0xbd1023be	-0.035190336
41	0x3cac236e	0.021012988
42	0x3eab6fea	0.3348382
43	0xbe096aa2	-0.13419583
44	0x3d8ed368	0.06973916
45	0x3e348f6c	0.17632836
46	0xbd071cf3	-0.032986593
47	0x3e25cfa7	0.16192494
48	0xbe6089dd	-0.2192759
49	0x3cad8a6b	0.021184167
50	0x3d5577d1	0.05211622
51	0x3d5a3eb0	0.05328244
52	0xbd0d0737	-0.03443071
53	0xbe196d5f	-0.14983128
54	0xbd94e56b	-0.072703205
55	0x3ddd450b	0.108041845
56	0xbd7eeadf	-0.06223571
57	0xbea18166	-0.31544036
58	0x3e32916d	0.17438288
59	0x3d4c7134	0.049912646
60	0xbe18c5f1	-0.14919259
61	0xbd5cefd9	-0.053939674
62	0x3d1b6ff3	0.03794856
63	0xbd13d90f	-0.036095675
64	0xbe14fc66	-0.14549407
65	0xbdb64aa6	-0.08900957
66	0x3d1b4f16	0.03791722
67	0xbd8baaf3	-0.06819715
68	0x3d981b14	0.0742704
69	0x3d398499	0.04529247
70	0x3dc51dc2	0.096248165
71	0x3e21252d	0.15736838
72	0xbe082c79	-0.13298215
73	0xbdaf956e	-0.08573423
74	0xbd09c38a	-0.033633746
75	0x3d76e22a	0.06027428
76	0xbea44fda	-0.32092172
77	0x3cec1293	0.02881745
78	0xbdbd1d90	-0.09234154
79	0xbe0fbb14	-0.14036208
80	0x3e59deff	0.21276473
81	0x3e40bcea	0.18822065
82	0xbc220784	-0.009889487
83	0xbc41627a	-0.011803264
84	0x3cb53403	0.022119528
85	0xbdfc628e	-0.12323485
86	0x3c99e364	0.018785186
87	0x3d767081	0.060165886
88	0x3a2e83f2	0.00066572346
89	0xbe05abc8	-0.1305381
90	0x3d5e1f8a	0.054229297
91	0x3d13f71d	0.036124337
92	0xbe18fd48	-0.14940369
93	0xbddab3ce	-0.10678826
94	0xbd4c42c2	-0.049868353
95	0x3dce3638	0.10068935
96	0x3d143dde	0.036191814
97	0x3dadc20a	0.08484276
98	0xbc130cdf	-0.008975237
99	0x3be26741	0.0069092815
100	0xbd33a9c8	-0.043863088
101	0xbd4ae403	-0.049533855
102	0xbde38c27	-0.11110716
103	0x3da6a638	0.081371725
104	0xbd06e7af	-0.032935794
105	0xbe472de0	-0.19451094
106	0xbe51b2cd	-0.20478363
107	0xbd058aaf	-0.032602962
108	0xbe04551a	-0.12923089
109	0xbe059fd0	-0.13049245
110	0x3e69c6be	0.2282972
111	0x3e1741f3	0.14771251
112	0x3b997ce4	0.0046840776
113	0x3d983e52	0.07433762
114	0xbd1273ea	-0.035755076
115	0x3d384127	0.04498401
116	0xbe02d9be	-0.12778375
117	0x3dd23009	0.10263068
118	0x3e15f52e	0.1464431
119	0xbdb9bf3a	-0.09069677
120	0x3ddcc9c6	0.10780673
121	0xbdf4e36d	-0.119574405
122	0x3e11d298	0.14240491
123	0xbe666c1b	-0.22502176
124	0xbe24ec02	-0.16105655
125	0xbe0e93db	-0.1392359
126	0xbe0f6a24	-0.14005333
127	0xbd24828b	-0.040163558
128	0xbd19aa95	-0.037516195
129	0xbdd7cd54	-0.1053721
130	0x3df53d02	0.11974527
131	0xbdb692c2	-0.089147106
132	0xbe020330	-0.12696528
133	0xbd0e18f6	-0.034691773
134	0x3e2d470e	0.16921636
135	0xbe18114a	-0.14850345
136	0xbe5b6643	-0.21425728
137	0xbdbbc420	-0.09168267
138	0x3d18005d	0.03710972
139	0xbe34094e	-0.17581674
140	0xbd36181a	-0.04445658
141	0x3e0cad88	0.13738072
142	0x3d09c77e	0.033637516
143	0x3c9889bb	0.018620363
144	0xbe1e27ca	-0.15444866
145	0xbd4afb9a	-0.049556352
146	0x3e941b7b	0.28927216
147	0xbd9b6026	-0.07586698
148	0x3dff2d8b	0.124598585
149	0x3db6d1af	0.08926713
150	0xbd968d84	-0.07351211
151	0x3e5f4802	0.21804813
152	0x3dcc2f8f	0.099700086
153	0x3d33659f	0.043798085
154	0xbdf34ab7	-0.11879485
155	0xbd0abbe0	-0.033870578
156	0xbe3d2fd6	-0.18475279
157	0x3e2c3ba6	0.16819629
158	0x3d4ce4d5	0.05002292
159	0xbda0cf27	-0.07852011
160	0xbd2c9ba7	-0.04214063
161	0xbe032ebe	-0.128108
162	0x3d77f0f2	0.060532518
163	0xbc8e9db0	-0.017409176
164	0x3e85e00a	0.2614749
165	0xbd0a3420	-0.033741117
166	0x3d484ffe	0.04890441
167	0xbe909ead	-0.2824606
168	0xbc0c7fd2	-0.008575397
169	0xbc0fe2ad	-0.008782071
170	0x3da57ac7	0.080800585
171	0x3e42ed94	0.19035941
172	0x3ed6dcd5	0.41965356
173	0x3d33947e	0.043842785
174	0xbce28133	-0.027649498
175	0xbd952d6e	-0.07284056
176	0x3dfa57c7	0.122237734
177	0xbe5e63b2	-0.21717718
178	0xbe192b7d	-0.14957996
179	0xbeb8c180	-0.3608513
180	0x3d85852c	0.06519541
181	0xbe26a144	-0.16272455
182	0x3d03b959	0.032159183
183	0x3e663889	0.22482504
184	0x3e242812	0.1603091
185	0xbbfa23e8	-0.007633675
186	0xbd7165d0	-0.058934987
187	0xbdbbf0ae	-0.091767654
188	0x3e6e7fd8	0.23290956
189	0x3e87ca8d	0.2652172
190	0x3da0d811	0.078537114
191	0xbdcf9485	-0.1013575
192	0x3d8bc578	0.068247736
193	0xbcace46a	-0.02110501
194	0xbb2c399b	-0.0026279453
195	0x3dc1388d	0.09434614
196	0x3e489559	0.19588222
197	0xbe2c95b2	-0.16853979
198	0x3e154905	0.14578636
199	0x3d955079	0.072907396
200	0xbd164320	-0.03668511
201	0x3db747d8	0.0894925
202	0xbd407a82	-0.046991833
203	0x3dcac93b	0.09901663
204	0xbdcb57a6	-0.09928827
205	0xbdb6fe9a	-0.0893528
206	0x3dbf2307	0.09332853
207	0xbe08bb85	-0.13352783
208	0x3dbf3194	0.09335628
209	0x3b11c3b6	0.0022241897
210	0xbbc1ed67	-0.005918193
211	0xbd0c4be5	-0.034252066
212	0x3c7f94e6	0.015599465
213	0xbe10deb4	-0.14147455
214	0xbc38217d	-0.011238453
215	0xbe7037ba	-0.23458758
216	0x3e11de8a	0.14245048
217	0x3e5776f2	0.21041468
218	0x3d1f0749	0.038825307
219	0x3e2316b3	0.15926628
220	0x3db5566e	0.08854376
221	0x3c59e08d	0.013298166
222	0xbd833e9e	-0.06408428
223	0x3bbac8f2	0.005700224
224	0xbc0a03c1	-0.008423747
225	0x3e0de941	0.1385851
226	0xbc48c2e9	-0.012253501
227	0xbd240721	-0.04004586
228	0x3e5d974a	0.21639743
229	0x3d0d8eeb	0.034560125
230	0xbe4c87ff	-0.19973753
231	0xbc5e0c2d	-0.013552708
232	0x3e05ac65	0.13054045
233	0xbd125e7d	-0.035734642
234	0xbd3b677d	-0.04575299
235	0xbe23a0de	-0.15979335
236	0xbde59b2c	-0.11211237
237	0x3d3c2d4a	0.04594163
238	0xbcea7064	-0.028618045
239	0x3cff734a	0.031182904
240	0x3dc09814	0.094040066
241	0xbe007f7b	-0.1254863
242	0x3dc8c163	0.098025106
243	0x3dd76a47	0.10518318
244	0xb98c5904	-0.00026769203
245	0xbd46e5ea	-0.048559107
246	0x3e2325e7	0.15932427
247	0xbde4232d	-0.11139522
248	0x3e3d77c6	0.18502721
249	0x3d4b54b4	0.049641326
250	0xbc4f772c	-0.01266269
251	0xbd867755	-0.065657295
252	0xbe01defd	-0.1268272
253	0xbdd079ca	-0.101794794
254	0xbd0ce720	-0.034400105
255	0x3e569ad0	0.20957494

features_model.4.bias f4 [128]
0	0xbcf82c63	-0.030294603
1	0xbc8d7d54	-0.017271675
2	0xbcb4668d	-0.022021556
3	0xbce84f91	-0.028358253
4	0x3e159b53	0.14610033
5	0xbcbe44b9	-0.023226129
6	0xbcee07aa	-0.029056389
7	0xbc9fa8a4	-0.019489594
8	0xbc97f549	-0.018549578
9	0xbc7f8c7e	-0.015597461
10	0xbc886374	-0.016648985
11	0x3dc5efc0	0.09664869
12	0xbc4565b4	-0.012048174
13	0x3d99d326	0.075109765
14	0x3c9ebcc1	0.019377114
15	0xbcf6d825	-0.030132363
16	0xbc5075e8	-0.012723424
17	0xba4949fd	-0.00076785666
18	0xbbf6994e	-0.0075255996
19	0x3df290da	0.118440345
20	0xbba728f4	-0.0051013175
21	0x3d99f0f2	0.0751666
22	0xbc79a02d	-0.015235943
23	0xbc0d88ea	-0.0086386
24	0x3da81221	0.08206583
25	0x3cc4f7af	0.024043886
26	0xbcc6b4a9	-0.024256067
27	0x3d03b7af	0.032157596
28	0xbc98a1e2	-0.01863188
29	0x3e0102c1	0.12598707
30	0x3d8ba495	0.06818501
31	0xbafea1fd	-0.0019426938
32	0xbc3b5512	-0.011433857
33	0x3d9ced99	0.07662506
34	0xbc05627a	-0.008141154
35	0x3db99798	0.09062117
36	0x3b3f52cc	0.0029193638
37	0x00000000	0.0
38	0x3dec227d	0.115300156
39	0xbca6051e	-0.020266112
40	0xbc94807b	-0.01812767
41	0xbc317b4c	-0.010832619
42	0x3ceb96ae	0.028758373
43	0xba4326b8	-0.0007444429
44	0xbc8e0679	-0.01733707
45	0xbc38044f	-0.011231496
46	0xbc46a067	-0.012123204
47	0x3db16001	0.086608894
48	0x3de7a9b2	0.11311664
49	0x3e5516b0	0.20809436
50	0x3cf113a2	0.029428307
51	0xbd0207ba	-0.03174565
52	0xbcadafe0	-0.021202028
53	0x3bcbcc93	0.0062194555
54	0xbcb3b6a3	-0.021937674
55	0xbc586655	-0.013207992
56	0x00000000	0.0
57	0x3a9de04f	0.0012044999
58	0xbca073a6	-0.019586395
59	0x3d1ad2eb	0.037798803
60	0xba6aca6e	-0.0008956556
61	0x3c463adc	0.012098994
62	0x3e1c1766	0.15243301
63	0xbcc65c63	-0.024213975
64	0x3e31b392	0.17353657
65	0x3c5305d2	0.012879806
66	0x3dde23ec	0.10846695
67	0x3c36c2b2	0.011154817
68	0xbb35b65f	-0.002772711
69	0x3d71fd8c	0.05907969
70	0x3d91b96d	0.07115445
71	0xbc94a282	-0.018143896
72	0xbc8ccdca	-0.017187972
73	0xbcab622a	-0.020920832
74	0xbc9b6ed4	-0.018973745
75	0x3d92af26	0.07162313
76	0x3a9fbbb6	0.001218668
77	0x3d2327ec	0.039832994
78	0x3daedda7	0.085383706
79	0xbcc1f12a	-0.023674566
80	0x3c54888b	0.0129720075
81	0x3c12d157	0.008961043
82	0x3e080912	0.1328471
83	0xbcc5706a	-0.024101455
84	0xbd0a123b	-0.033708792
85	0xbc789796	-0.01517286
86	0x3df12559	0.117747016
87	0x3e074714	0.13210708
88	0xbd299ff3	-0.041412305
89	0xbcd8766a	-0.026423652
90	0xbc9ab0fd	-0.018883223
91	0x3c02d8d8	0.00798627
92	0x3e287bc8	0.16453469
93	0xbcd4442f	-0.025911419
94	0x3e13b61d	0.1442494
95	0xbd0932b8	-0.033495635
96	0x3e1ed54c	0.15511054
97	0x3dc24eaf	0.09487664
98	0x3e19f38b	0.1503431
99	0x3e353354	0.17695361
100	0xbd2787d8	-0.040901035
101	0xbccc5e7d	-0.0249474
102	0xbb756389	-0.003744336
103	0x3d1b0b85	0.037852783
104	0x3e21be1e	0.1579518
105	0x3e1033b1	0.14082219
106	0xbb38d58f	-0.0028203463
107	0xbca40ca0	-0.020025551
108	0x3e378921	0.17923404
109	0xbca30841	-0.019901397
110	0xbcc37bd3	-0.023862755
111	0x3d496f47	0.049178388
112	0x3c1685a9	0.0091871405
113	0xbc4b88f5	-0.01242279
114	0x3e1f476c	0.15554589
115	0x3d04d0ec	0.032425806
116	0xbce57e90	-0.028014451
117	0x3dc9f32c	0.098608345
118	0xbcac5575	-0.021036843
119	0x3e175fb7	0.14782606
120	0xbb2b852b	-0.0026171904
121	0x3d956ff4	0.07296744
122	0xbc9b1bbc	-0.018934123
123	0x00000000	0.0
124	0x3e3232c0	0.17402172
125	0x3df8d4c0	0.12149954
126	0x3c012e53	0.00788458
127	0x3d9cc03d	0.07653854

policy_model.0.weight f4 [128, 128]
0	0x3af99550	0.0019041691
1	0x3b229146	0.0024805828
2	0xbae944de	-0.0017797013
3	0xbac2a7d9	-0.0014851048
4	0xba0f662c	-0.0005470242
5	0xbb0c0a29	-0.002136836
6	0xbb294e96	-0.0025834194
7	0xbaa89071	-0.001286043
8	0xbae76aec	-0.0017655767
9	0x3ad87bf0	0.0016516428
10	0xba97c102	-0.0011577907
11	0xbaf250b4	-0.0018487186
12	0xbb0f5918	-0.0021873172
13	0x398b0288	0.00026514032
14	0xbb289170	-0.0025721453
15	0xbad639e2	-0.0016344155
16	0xbb3f7075	-0.0029211317
17	0x39e063b9	0.00042798909
18	0xba9c4f76	-0.0011925537
19	0xbb655e4a	-0.0034998828
20	0x3b418f6f	0.0029534956
21	0xbb960144	-0.0045777876
22	0xbb193f95	-0.0023383845
23	0x38e3f4ae	0.000108697786
24	0x381ea6b8	3.7825404e-05
25	0xbaa7dcb1	-0.001280686
26	0xba9ef695	-0.001212793
27	0xbabca78b	-0.0014393193
28	0xbaf1e0ec	-0.0018453873
29	0x3aaf2025	0.001336102
30	0xbbae58a6	-0.0053206263
31	0xb8db6189	-0.00010460901
32	0xb8d2e470	-0.0001005613
33	0xbb7100b3	-0.0036774098
34	0x39def3d5	0.0004252481
35	0xbb8d024f	-0.0043032537
36	0xb8b9be38	-8.8569184e-05
37	0xba70869c	-0.0009175332
38	0xbba6b9cf	-0.005088068
39	0xbb3ef259	-0.002913615
40	0xb95640d3	-0.0002043278
41	0xba8243c3	-0.0009938407
42	0xba4000d4	-0.0007324342
43	0x3b1db9d2	0.0024067056
44	0x393d5bfd	0.00018058713
45	0x399c4c14	0.0002981132
46	0x3ad637a9	0.0016343492
47	0xba6806ec	-0.0008851129
48	0xba30f1c9	-0.0006749896
49	0xba964605	-0.0011464959
50	0xbaf837f1	-0.001893757
51	0xbb08ee24	-0.0020893896
52	0xba9fd732	-0.001219487
53	0x3a964166	0.0011463582
54	0xbaf58fce	-0.0018734874
55	0x3a372f7e	0.0006987973
56	0xba30f8c4	-0.0006750936
57	0xbb608efb	-0.003426491
58	0xbafabf11	-0.0019130429
59	0xbb1c7a30	-0.002387654
60	0xbaea1148	-0.0017857933
61	0xbad806f2	-0.0016481562
62	0xba400c67	-0.0007326067
63	0xba4af13a	-0.0007741634
64	0x3a8cc995	0.0010741228
65	0x3aef684a	0.0018265333
66	0x3b3a7970	0.002845373
67	0xbb1e1585	-0.0024121713
68	0x3887e7f0	6.480503e-05
69	0xbbea8259	-0.007156652
70	0xbbb62158	-0.005558174
71	0xbabdf55b	-0.0014492677
72	0x3af9717b	0.0019031012
73	0x3a76da47	0.0009416681
74	0xbb28402f	-0.0025673022
75	0x3aa3a954	0.0012486377
76	0xb8a74341	-7.9757076e-05
77	0xb9fa7cd3	-0.00047776717
78	0x3abee8e7	0.001456526
79	0xbae629aa	-0.0017560024
80	0x3a700824	0.00091564865
81	0x395df4ea	0.0002116744
82	0xb9eedf92	-0.0004556147
83	0xba85567f	-0.0010172873
84	0xbb0ea443	-0.0021765388
85	0x3b0c89e7	0.00214445
86	0xbc08fe78	-0.008361451
87	0xbbd037de	-0.006354316
88	0xbae449da	-0.0017417029
89	0x3b438256	0.0029832325
90	0xbadd8892	-0.0016901663
91	0xbb397143	-0.002829627
92	0x3ac7fc9c	0.0015257779
93	0xbb381fae	-0.0028095054
94	0xba80e0e1	-0.0009832644
95	0x3a5ab4ce	0.0008342982
96	0xba832422	-0.0010005275
97	0xbbb9addc	-0.0056664776
98	0x3af56f7d	0.0018725243
99	0x393b4437	0.00017859122
100	0x395f2099	0.00021279081
101	0xbaea036a	-0.0017853801
102	0xba24f86e	-0.00062931224
103	0x3920ed57	0.00015347205
104	0xbab04a46	-0.001344987
105	0xbae7165f	-0.0017630568
106	0x3ab9f71c	0.0014188024
107	0xbb1b8c4e	-0.002373475
108	0x3a02da93	0.00049916765
109	0xb9cd3ac5	-0.00039144434
110	0x3aa3091f	0.0012438631
111	0xbb34956a	-0.0027554878
112	0xb990abd2	-0.00027593836
113	0xbb5659a1	-0.0032707232
114	0x39a8addd	0.00032172995
115	0xbb29ec21	-0.0025928097
116	0xbaf6e858	-0.0018837554
117	0xbbe59c41	-0.0070071523
118	0xbac48a8a	-0.0014994901
119	0xbb97648b	-0.00462014
120	0xbb0c6306	-0.0021421327
121	0xbbe177d3	-0.0068807392
122	0x37827b93	1.5554751e-05
123	0x392771a5	0.00015968697
124	0xbbc69e08	-0.0060613193
125	0xbb918864	-0.004441308
126	0xb9357776	-0.00017306008
127	0xbaecc8d0	-0.0018065218
128	0xbd5b6b9c	-0.05356942
129	0x3b9e3612	0.004828223
130	0x3c5d7fcd	0.01351924
131	0x3c4e2813	0.012582797
132	0x3d190dd2	0.037366696
133	0x3c8023de	0.015642103
134	0x3cb3670a	0.021899719
135	0xbc11340a	-0.008862505
136	0x3c904437	0.017610652
137	0xbc84b47d	-0.016199345
138	0xb9f87c58	-0.0004739489
139	0x3d6e6754	0.05820401
140	0x3d451788	0.048118144
141	0x3d2a7466	0.041614912
142	0x3d8d1854	0.06889406
143	0x3c83aade	0.016072687
144	0x3d1035b6	0.035207473
145	0x3c6373db	0.013882603
146	0x3a17cce3	0.00057907234
147	0x3d8761bc	0.06610438
148	0x3c00b5cd	0.007855845
149	0x3da867a0	0.0822289
150	0x3c44a297	0.012001655
151	0x3bc656ad	0.006052813
152	0x3d9ecb00	0.07753563
153	0x3cef8b48	0.02924122
154	0x3d16c8ba	0.03681252
155	0x3d43763c	0.04772018
156	0x3bd7e35f	0.006588384
157	0x3d0d6d9b	0.034528356
158	0x3d965db9	0.07342095
159	0x3ce5c6d5	0.028048912
160	0x3bc2ff9b	0.0059508807
161	0x3d02d12d	0.031937767
162	0x3bb4be50	0.005515851
163	0x3d9e0ffc	0.077178925
164	0xbc9ca4c4	-0.019121535
165	0xba0c9754	-0.0005363126
166	0x3d546466	0.05185356
167	0x3b2130c2	0.0024595712
168	0xbc1f9a8d	-0.009741438
169	0x3c816c98	0.015798852
170	0x3d9e860f	0.077404134
171	0xbc0c0689	-0.00854648
172	0x3b243fd3	0.0025062456
173	0x3c92c21b	0.017914822
174	0xbcb85d05	-0.022505293
175	0x3d9592c2	0.073033825
176	0x3cdeec8f	0.02721241
177	0x3b2647da	0.0025372417
178	0x3c45b8ea	0.012068013
179	0x3d1558f5	0.03646179
180	0x3c8ddd22	0.017317358
181	0x3cb50782	0.022098307
182	0x3c713e2f	0.014724298
183	0xb8aa316a	-8.115436e-05
184	0x3912448a	0.00013949178
185	0x3a951c67	0.0011376262
186	0x3ca82945	0.020527491
187	0x3d6e48bc	0.058174834
188	0x3a3ffdf5	0.00073239143
189	0x3c23a1b6	0.009987285
190	0x3b49d187	0.0030795054
191	0x3c5e93e9	0.013585069
192	0xbd1aeadb	-0.037821632
193	0x3cedfe84	0.029052027
194	0x3d8b7b8e	0.068106756
195	0xbc21af81	-0.009868504
196	0x3c00b8c1	0.007856549
197	0x3d85d732	0.06535186
198	0x3d8f51a4	0.069979936
199	0x3d6470c2	0.055771597
200	0x3caff400	0.021478653
201	0xbc9ae82a	-0.018909533
202	0x3c62633e	0.0138176065
203	0x3d5882d2	0.052859135
204	0x3a9e35f1	0.0012070519
205	0x3dafe22e	0.08588062
206	0xbc460166	-0.012085294
207	0x3bb3e952	0.0054904604
208	0x3c8d7226	0.017266344
209	0xbcfaa158	-0.030594513
210	0xbcaa33a7	-0.020776583
211	0x3a217208	0.00061586546
212	0x3cc67248	0.024224415
213	0x3c8b76bd	0.017024392
214	0x3d6ca602	0.057775505
215	0x3d581adf	0.05276
216	0x3c1f0ede	0.009708134
217	0x3c6bf1f4	0.014400948
218	0x3d048799	0.03235588
219	0x3cee80b9	0.029114114
220	0xbb5ae8aa	-0.0033402839
221	0xb9ae89bb	-0.00033290483
222	0x3badc0e5	0.005302536
223	0xbcc60534	-0.024172403
224	0x3d28a5ee	0.041173868
225	0x3d8e1668	0.069378674
226	0xbcb9f7e1	-0.022701206
227	0xb7b94fb8	-2.209084e-05
228	0x3b8ecf7e	0.004358231
229	0x3d00aedf	0.03141677
230	0x3d73ab9d	0.059489835
231	0x3d8e50a7	0.06948977
232	0xbc6b1416	-0.014348051
233	0x3d757fcd	0.059936333
234	0x3d189a52	0.037256546
235	0x3d474662	0.048651107
236	0xbd1099a3	-0.03530277
237	0x3bd140ab	0.006385883
238	0x3c478a9b	0.012179042
239	0x3b6a04a6	0.0035708337
240	0x3d8d6497	0.069039516
241	0x3c27a28d	0.010231626
242	0x3cf1c205	0.029511461
243	0x3cfe5f55	0.031051317
244	0x3b90263a	0.004399088
245	0x3d8c8f73	0.06863298
246	0x3c45d1d8	0.012073956
247	0x3d6db693	0.058035444
248	0xbadb3399	-0.0016723751
249	0x3d918ee5	0.07107333
250	0x3d04fd7a	0.032468297
251	0xba3f2572	-0.00072916516
252	0x3d3391c2	0.043840177
253	0x3d8b5690	0.0680362
254	0x3be600cf	0.0070191394
255	0x3da799d6	0.08183639

policy_model.0.bias f4 [128]
0	0xba95a6c7	-0.0011417501
1	0x3d8ef8ec	0.06981072
2	0xbac46173	-0.0014982655
3	0x393d70de	0.00018066491
4	0x37b5ad38	2.1657543e-05
5	0xb91c61c4	-0.0001491374
6	0xbbb68c9c	-0.005570961
7	0xbc27bbf4	-0.010237683
8	0x3acb8014	0.0015525841
9	0xbac48b56	-0.0014995139
10	0xbac4bcc5	-0.0015009871
11	0xbc6ac7b7	-0.014329842
12	0xbc8ac9f2	-0.016941998
13	0x3c6630d7	0.01404973
14	0x39882fac	0.0002597546
15	0x39b460a8	0.0003440429
16	0x3be2eaae	0.0069249487
17	0xbc8d88f9	-0.017277228
18	0xbac420f3	-0.0014963433
19	0xbabf163b	-0.0014578769
20	0xbc3d3536	-0.011548331
21	0xbc064a4f	-0.0081964275
22	0x3bf92329	0.0076030684
23	0xb9c7d1e2	-0.00038112613
24	0xbc79d3a8	-0.015248217
25	0xbac4b8ee	-0.0015008727
26	0xbc42bca4	-0.011885796
27	0xbc621a26	-0.01380018
28	0xbc00df19	-0.007865691
29	0xbac46715	-0.0014984334
30	0xbc0ea458	-0.008706175
31	0xbbd03809	-0.006354336
32	0xbc604277	-0.013687721
33	0xbbdd5f5b	-0.006755752
34	0xbac4b015	-0.001500609
35	0xbbd51cfb	-0.006503699
36	0xba5ee146	-0.0008502196
37	0xba9d2de1	-0.0011991822
38	0xbc90738d	-0.017633224
39	0xbc63a47a	-0.013894195
40	0x3d888852	0.06666626
41	0xbc6f3718	-0.014600538
42	0x3bcc0b88	0.0062269606
43	0xbac4869f	-0.0014993733
44	0xbaa81f92	-0.0012826791
45	0x3d0b49ad	0.03400581
46	0xbc84e301	-0.016221525
47	0xbc250b38	-0.010073476
48	0xbc18d61e	-0.009328393
49	0x3b2519bb	0.0025192339
50	0xbc2a0189	-0.010376343
51	0xbab3c0eb	-0.001371411
52	0xbb76501d	-0.0037584372
53	0x3b83ec51	0.004025974
54	0xbc53c113	-0.01292445
55	0x00000000	0.0
56	0x00000000	0.0
57	0xbb0961fc	-0.0020962944
58	0xbc8c500a	-0.01712801
59	0xbaa73618	-0.001275721
60	0xbc8756fe	-0.016520973
61	0xbac32dd6	-0.001489098
62	0xbac43828	-0.0014970349
63	0x3b78b021	0.0037946778
64	0xbb7eb464	-0.0038864845
65	0xbac4b469	-0.001500738
66	0xbae5f0bb	-0.0017543057
67	0xbc7e3b9d	-0.015517143
68	0xbc0afd4a	-0.00848324
69	0xbb8c31fd	-0.00427842
70	0xbc0095df	-0.007848232
71	0xbbfee2af	-0.0077784876
72	0xba8362fd	-0.0010024008
73	0xbba9ae76	-0.005178268
74	0x3a825ee9	0.0009946498
75	0xbb767552	-0.003760655
76	0xbac44a0c	-0.0014975681
77	0xbc828737	-0.015933616
78	0xbc775ddc	-0.015098061
79	0xbac49e1d	-0.0015000735
80	0x3cd90468	0.026491359
81	0xbc86ffda	-0.016479421
82	0xbc65ae44	-0.014018599
83	0xba0bb014	-0.0005328667
84	0x3babc9a1	0.005242542
85	0xba987412	-0.0011631271
86	0xba5b9c7c	-0.0008377505
87	0x3dd33d6e	0.10314451
88	0xbc268129	-0.01016263
89	0xbc920e92	-0.017829213
90	0xbac45684	-0.0014979397
91	0xbb6b06e1	-0.0035862254
92	0xb9a1ef72	-0.00030886714
93	0xbbe9d564	-0.007136034
94	0xbafbcf58	-0.0019211574
95	0xbc148e96	-0.009067198
96	0xbc8d2506	-0.017229568
97	0xbac48c64	-0.0014995453
98	0xbc7f93b6	-0.015599182
99	0xbc80fde5	-0.015746066
100	0x3b1e0eee	0.0024117786
101	0xbc259508	-0.010106333
102	0xbb426cf6	-0.0029666997
103	0xbba74eab	-0.0051058135
104	0xbbd10fe9	-0.0063800705
105	0x3bbe2424	0.005802648
106	0x3c349e12	0.011024015
107	0xbc3029d1	-0.010752157
108	0xbaa780b9	-0.0012779451
109	0xbac494cf	-0.0014997962
110	0xbbda5c63	-0.0066638454
111	0xbc2e0b94	-0.010622878
112	0xbc2f86da	-0.010713303
113	0xb8e75986	-0.000110316134
114	0xba34573d	-0.00068794546
115	0xbad8f658	-0.0016552908
116	0xbc05aeab	-0.00815932
117	0xbc76df61	-0.015067906
118	0xbaa08166	-0.0012245595
119	0xbac298c1	-0.001484655
120	0xbc54a4e8	-0.01297877
121	0x3d2b1a6b	0.04177324
122	0xbaa8d0ce	-0.0012879611
123	0x3b4b968c	0.0031065075
124	0xbb6aefe2	-0.0035848548
125	0xbb6b6843	-0.00359203
126	0x3bc89c70	0.0061221644
127	0xbb48bce6	-0.003063017

policy_model.2.weight f4 [8, 128]
0	0xbaecf4da	-0.0018078343
1	0xbd2b7cc7	-0.041867044
2	0x3ae21812	0.0017249605
3	0x3a51f7ba	0.00080096314
4	0xbb00fdb3	-0.0019682467
5	0x3a4ea8f7	0.0007883454
6	0xbc7c85b3	-0.015412736
7	0xbbd08c5a	-0.0063643875
8	0x3bb6080e	0.0055551594
9	0xb92a76d1	-0.00016256726
10	0xbaee0be8	-0.0018161507
11	0xbbb8e0ce	-0.005642033
12	0xbbafd1c7	-0.0053655836
13	0x3b710568	0.0036776904
14	0x3b209c48	0.0024507213
15	0x3a9f5bbd	0.0012158077
16	0x3b720be5	0.003693336
17	0xbbe2924e	-0.0069144135
18	0x3a8330d2	0.0010009056
19	0xbb29d573	-0.002591458
20	0xbbb93377	-0.005651887
21	0xbbefbbb5	-0.0073160776
22	0x3c7f06ea	0.015565613
23	0x3a39311b	0.0007064507
24	0xbbf814b6	-0.0075708283
25	0x3ad74434	0.0016423524
26	0xbb2ae5d2	-0.0026076925
27	0xbbdb5ed0	-0.006694652
28	0xbc818e75	-0.015815
29	0xba5a850a	-0.00083358644
30	0xbc052a5b	-0.008127774
31	0x39eeeb3a	0.00045570155
32	0xbc1180a6	-0.00888077
33	0xbc1ebc1d	-0.009688404
34	0x3ae6060e	0.0017549412
35	0xbbf767de	-0.0075502237
36	0xba97f305	-0.0011592811
37	0x3a8f146e	0.0010916123
38	0xbbe5642f	-0.007000468
39	0xbc090570	-0.008363113
40	0xbd76f575	-0.06029268
41	0xbbdb7aed	-0.0066980035
42	0x3b635771	0.003468957
43	0xbac9f904	-0.0015409295
44	0x3aa7d78b	0.0012805326
45	0xbd996e18	-0.07491702
46	0xbbf9f679	-0.007628259
47	0xbb3bb3d9	-0.0028641133
48	0xbbf13d18	-0.0073620193
49	0x3b9960d9	0.0046807346
50	0xbbf39ba8	-0.007434327
51	0xbbb535f2	-0.0055301124
52	0x3b91323c	0.004431037
53	0x3b94cd57	0.00454108
54	0xbbacc20e	-0.0052721566
55	0xb96c7947	-0.00022551893
56	0x3ae27eb8	0.0017280197
57	0x3aa6058e	0.001266645
58	0xbbdaf5a7	-0.006682116
59	0xb7cda102	-2.451288e-05
60	0xbbd5b375	-0.006521637
61	0xb9f31eff	-0.00046371666
62	0xba2c07af	-0.0006562424
63	0x3b88256f	0.004154853
64	0xbbff1512	-0.007784494
65	0x3a86c0a1	0.0010280797
66	0x3a7fc93b	0.00097574637
67	0xbbbd3a71	-0.005774789
68	0xbbd4b85a	-0.006491703
69	0xbb99c4e3	-0.00469266
70	0xbbf29e8d	-0.0074041546
71	0xbc07bb0b	-0.008284341
72	0xb8839d68	-6.275886e-05
73	0x3b497f73	0.0030746132
74	0x3af36699	0.0018570005
75	0xba47d4c5	-0.00076229527
76	0x3b16fa64	0.0023037428
77	0xbc071d6f	-0.008246764
78	0xbba4e57a	-0.0050322386
79	0x385eda7b	5.31324e-05
80	0x3cd12df0	0.0255346
81	0xbbb71933	-0.005587721
82	0xbae069e1	-0.0017121398
83	0x3aa0b631	0.0012261329
84	0x3b8a646c	0.004223397
85	0x3a926599	0.0011169194
86	0xb8e40f03	-0.00010874683
87	0xbda95fe3	-0.08270242
88	0xbbb7f30a	-0.0056136893
89	0xbbd28327	-0.006424326
90	0x3acdde89	0.001570658
91	0xbbf5b540	-0.0074984133
92	0x3b1fc453	0.0024378493
93	0xbbd786df	-0.006577357
94	0x3a9b950b	0.001186998
95	0xbc751fa1	-0.014961154
96	0xbbc53a41	-0.0060189073
97	0x3b61cb51	0.0034453461
98	0xbb953b30	-0.004554175
99	0xbbe88fa1	-0.0070972
100	0x3b74c6d8	0.0037349965
101	0xbbdb7c13	-0.0066981404
102	0x3b3739c5	0.0027958017
103	0x399035fa	0.00027506036
104	0x3882f504	6.244521e-05
105	0x3b6aad2f	0.0035808792
106	0xbcec8088	-0.028869882
107	0xbbec73df	-0.0072159613
108	0xb8c1f76d	-9.249044e-05
109	0x3b13ff4e	0.0022582593
110	0xbbd3e1c1	-0.006466121
111	0xbb8558e0	-0.0040694326
112	0xbb263b6f	-0.0025365015
113	0xb8cd2cbe	-9.7834956e-05
114	0x3b7e8238	0.003883494
115	0x3a46bf50	0.00075816084
116	0xbacb1320	-0.0015493371
117	0xbbcc1407	-0.0062279734
118	0x3a7c19c1	0.0009616875
119	0xb9a632c2	-0.00031699805
120	0xbbeeb1b3	-0.007284367
121	0xbd9777eb	-0.073959194
122	0xb9c64200	-0.00037814677
123	0xbb377da8	-0.002799848
124	0xb8fdc74a	-0.000121011006
125	0xbb0bce88	-0.002133282
126	0x3b96411a	0.0045853974
127	0x3a5ec19f	0.000849748
128	0x3a8aeb8a	0.001059876
129	0x3d115974	0.0354857
130	0xba2b4510	-0.00065334234
131	0xba3922b2	-0.000706236
132	0x39d844fa	0.00041250122
133	0xba71471d	-0.0009204017
134	0x3ce161e9	0.027512508
135	0xbc30dd38	-0.01079493
136	0xbc08c734	-0.008348275
137	0xb9389f64	-0.00017606985
138	0x3b55b746	0.003261046
139	0xbc15ed71	-0.009150849
140	0xbc0e211b	-0.008674885
141	0xbbe21328	-0.0068992563
142	0xbb28da0a	-0.0025764727
143	0xbbaa6ba2	-0.005200819
144	0xbb1f76ef	-0.0024332365
145	0xbc09d060	-0.008411497
146	0x3af2f9d7	0.0018537593
147	0xba6404d0	-0.0008698227
148	0xbc4436f0	-0.011975989
149	0xbc289971	-0.0102904895
150	0xbc1114c1	-0.008855046
151	0xba02a567	-0.00049837533
152	0xbc0cfe0c	-0.008605491
153	0x3a547c1a	0.0008105651
154	0xbb60006b	-0.0034179937
155	0xbbfe159a	-0.00775404
156	0x3b440399	0.002990937
157	0xbac6b818	-0.0015161065
158	0xbc290b2a	-0.010317603
159	0x3b36581a	0.0027823509
160	0xbbfa60dc	-0.007640941
161	0xbb8d9f5b	-0.004321975
162	0x3a0fcbd1	0.0005485388
163	0xbc142493	-0.009041923
164	0x3a868014	0.0010261559
165	0xbaaf9e0d	-0.0013398543
166	0xbc09647e	-0.008385776
167	0xbc3d722c	-0.011562865
168	0x3d73f94d	0.059563924
169	0xbc2791cf	-0.010227635
170	0xbbb5b1f8	-0.005544897
171	0x3b2bfcf5	0.0026243303
172	0x392e1a42	0.00016603715
173	0xbc84b17f	-0.016197918
174	0xbc0c5e46	-0.008567398
175	0xbb109443	-0.0022061027
176	0xbc117de6	-0.008880114
177	0xbbfad18a	-0.0076543735
178	0xbc5310fe	-0.012882469
179	0xba8f88df	-0.0010950825
180	0xbb8a6349	-0.0042232615
181	0xbbe72e06	-0.007055047
182	0xbc23b030	-0.009990737
183	0x3ac69bbc	0.0015152614
184	0x3afc2ca1	0.0019239375
185	0x3ac66496	0.0015136178
186	0xbbecf2fb	-0.007231114
187	0xba2718c9	-0.0006374238
188	0xbc134a5e	-0.0089898985
189	0x397c4863	0.00024059559
190	0xbab1f02a	-0.0013575603
191	0xbc0a59d3	-0.008444267
192	0xbbcb17b9	-0.0061978963
193	0xba3c88cf	-0.0007192017
194	0xb9e66292	-0.0004394246
195	0xbc07fccd	-0.0083000185
196	0xbc0a4e1c	-0.008441474
197	0xbba23f09	-0.004951362
198	0xbbe95500	-0.0071207285
199	0xbc174906	-0.009233719
200	0xbaf45d63	-0.0018643554
201	0x3ad8bd0c	0.0016535833
202	0xbb89d807	-0.0042066607
203	0xba7fab48	-0.0009753001
204	0x3b6be864	0.003599667
205	0xbc0d79f1	-0.00863503
206	0xbc28e43e	-0.010308323
207	0xbab434a8	-0.0013748603
208	0xbb116ab9	-0.0022188856
209	0xbc0a1e61	-0.008430094
210	0xbb3b6e68	-0.0028599743
211	0xbaa0a434	-0.0012255968
212	0xbbe3a5ea	-0.0069472687
213	0xba8e155f	-0.0010840109
214	0x3abbca77	0.0014327307
215	0x3ccfac40	0.02535069
216	0xbc2299f7	-0.009924403
217	0xbc21779f	-0.00985518
218	0x3ad21d9d	0.0016030554
219	0xbb2e8639	-0.0026630296
220	0xb8f10eb4	-0.00011494514
221	0xbc30649b	-0.010766174
222	0xb9b4a35c	-0.00034453988
223	0x3b0bb9f2	0.002132055
224	0xbc01132b	-0.007878105
225	0x39e137fd	0.0004295706
226	0xbc05cf3b	-0.008167083
227	0xbc113e6a	-0.008864978
228	0xbbd9bfd2	-0.006645181
229	0xbc2bc627	-0.010484255
230	0x3b81a8f8	0.00395691
231	0xb8aa7c00	-8.1293285e-05
232	0x3be4c326	0.0069812713
233	0xbbceeecf	-0.0063150893
234	0xbc2b11c8	-0.010441251
235	0xbbff4f90	-0.007791467
236	0xba3c59db	-0.00071850204
237	0xba5b67e7	-0.00083696697
238	0xbbfd1370	-0.0077232644
239	0xbb81c56d	-0.0039603026
240	0xbb156c1b	-0.0022800032
241	0x392782a9	0.00015975036
242	0x3b080f96	0.0020761243
243	0xbb7857b5	-0.0037894074
244	0xb8d9a110	-0.000103773666
245	0xbc12e899	-0.008966588
246	0xba79c34e	-0.0009527699
247	0xb8ee939b	-0.00011376218
248	0xbc0717bd	-0.008245406
249	0xbc1e4c38	-0.009661727
250	0x3920ab02	0.00015322494
251	0x3b183cc1	0.0023229572
252	0xbaa4330b	-0.0012527419
253	0xbb443b73	-0.002994266
254	0xbc027cf9	-0.007964366
255	0xbae55fb8	-0.001749984

policy_model.2.bias f4 [8]
0	0xbcb3acba	-0.021932948
1	0x3c125bba	0.008933002
2	0x3d1981d3	0.037477326
3	0x3c34ae02	0.011027815
4	0xbc497833	-0.012296724
5	0xbb30a359	-0.0026952832
6	0x3cd7860a	0.026309032
7	0xbd60a09a	-0.05484066
