results/short_race/second_iteration_training/model791.pt (torch, 276107 bytes, 13 tensors)

features_model.0.weight f4 [128, 4]
00000000: 88c1 f2ba 86d9 0a3e 4477 9d3d 99a3 9dbe
00000010: 7b52 023d 1016 92bd 1eb8 6fb7 f623 033d
00000020: 8d73 233e 4994 8c3c 2db7 09bd a874 923e
00000030: 2665 3b3e 343f c2bd 69e8 67bd 7cc6 cfbd
00000040: 2f3d 3f3d 123c bdba 3b59 493d 0dd3 20bd
00000050: c33c 473d 98b3 673d c486 753e 6887 4abe
00000060: 8c51 9bbc 1700 10bd 5813 da3d d1ff a13e
00000070: 16db cc3b ad27 a0bc ce65 953d 1a35 9e3e
00000080: 150c 3ebe 1d4c 5b3d 709c fd3d 2e9e 9c3b
00000090: 8c79 8fbc beb1 183e da27 653d 3e53 b6be
000000a0: e8c7 473d 791f 593e fa27 3e3e 691a de3d
000000b0: 4f56 1d3e fbbd e6bd 21a7 303e e52d 7d3d
000000c0: 9600 0f3e a0e5 953e 46fc 0e3d 41b6 cdbd
000000d0: b29a 25be 0ece 0ebd 0c4c 18be 7253 993c
000000e0: dff7 e7bd 5fa9 6b3e d22a 0cbd 2b4c 0d3e
000000f0: c016 54be 470f e1bc 2523 98be a0bb 593d
00000100: 5751 f93d 7e64 a0bc 3a7d d33c d3d9 00be
00000110: 67b0 61bd 4df0 76be bf4d fdbd 3f01 59bd
00000120: 5440 07be 50f5 683d a142 a7bd 7a4f e5bd
00000130: 33b8 96bd 7555 0abe 8f32 84be be4a 4cbe
00000140: 4d11 af3d daca a5bd b7ea fbbd 2092 363d
00000150: dc5a 73be 179c 2abe eb70 403e 409d 80bd
00000160: 019b 483d 6d3b 2f3e 1a56 a3bd 3e45 0ebd
00000170: 2a5b 67be fa59 b7bd 9237 dcbd 78d1 893d
00000180: 39bf 203d 52b8 073e c7f1 103e 4548 a2be
00000190: 7eca c0be f024 56be 8127 9b3d ade8 b3bd
000001a0: b26d 763e aa61 af3e 0e3c cbbc f810 363e
000001b0: 2c38 b0bd e521 a3bd 4c62 d7bd fd34 d1bc
000001c0: d5b9 113c 6c0e d3bc ddad 92bd 9b70 cd3e
000001d0: aec0 cb3d 3873 b03d 65f8 e9bd 0e82 8bbd
000001e0: 14e7 303e deb1 f53d 0953 323e 9a2d d03d
000001f0: a9d6 e23d 3b2f 923d bc4f ea3d 09c0 473e
00000200: d525 4b3e 49e3 90be 67ba 743d b070 e13d
00000210: d1fe 3c3e ca62 8bbc 5f6d 073e 1732 8dbc
00000220: 55cc 813c 7774 d83c 4a23 743e 4ef0 923e
00000230: ae56 b43d ec87 0cbe df6c 4f3b 3065 3dbe
00000240: e9a9 a0bd ac44 ebbd 47bf cd3d 27b6 a3bc
00000250: e925 91bd c0f8 c2bd 518e 0abb f24b b33d
00000260: 2c2f 3fbe 9b06 b73c c5df 973d 3dfa 573e
00000270: 4fc3 253d 2aa6 a43b 677d 0b3e 7386 c33e
00000280: 862c 9bbc 83e0 b7bc baa9 92bd b73e ad3e
00000290: 1863 32bd 1092 8cbd 6ba6 ce3c 6fef 73be
000002a0: 7a5f 9a3d f3eb 6dbd 3475 dcbc 22de fcbd
000002b0: 467c fabd 57d9 bc3d 51da 083e c377 683c
000002c0: 5a29 8eba b86d 413e 4e8d 423d 4849 42bd
000002d0: d30e 21bd 10fe a6bd 858a 91bd d235 113e
000002e0: 1300 cb3d 8d62 053c 1885 c93e 9267 cebd
000002f0: bbfd 29bb fecf 233c 5362 fd3d b7ce 803c
00000300: c80c 55be 9b24 98b9 e766 16be a2a6 3a3c
00000310: 4ede 6f3e 9c81 04be 455b 5e3d f3dc 073e
00000320: 332a 52be 554c a4bd 4706 d23c 2c85 b93d
00000330: f310 99be b484 eb3d 529f 3f3e da8c b73c
00000340: 781a 4d3e ffea a63e 1ad2 7bbd 6feb 4cbd
00000350: 535e 613e 90cf 83bd 08fa 0bbd f2eb 08bd
00000360: e033 5b3d d02e 21b8 0811 e13d f390 263d
00000370: 5e89 013e e8b6 50bc 414f 4e3e 8089 d43e
00000380: 1f85 103e 3735 263d c3b3 f93b e449 c8bd
00000390: c137 4dbd 9ca3 d73d a928 093e b845 013c
000003a0: ab51 94bd 623f a43c 8e79 6fbd 115a f73c
000003b0: ce93 053e 8155 9b3d a203 163e 0d54 853e
000003c0: c25d 99bd 961e da3c 7226 9d3c 7c6c 693e
000003d0: 9297 103c 02eb bbbc bfe3 0ebe e040 943e
000003e0: a65a 2dbc c243 b83d 147d 813d 803b abbe
000003f0: cf28 50be 6089 113e 7aa4 febc b976 febd
-0.0018520812 0.13559541 0.07688764 -0.30788878 0.03181694 -0.07133114 -1.4288378e-05 0.032016717
0.15962048 0.017160552 -0.033621956 0.28604627 0.18300304 -0.09484711 -0.056618128 -0.1014528
0.04668921 -0.0014437458 0.049157362 -0.039263774 0.04864193 0.05656776 0.2397719 -0.19778216
-0.018959783 -0.035156336 0.10648221 0.31640485 0.006251703 -0.019550169 0.07294808 0.30899888
-0.18559296 0.053539384 0.12383354 0.0047795987 -0.017514013 0.14911553 0.05594621 -0.35610384
0.04877463 0.21203412 0.18569937 0.10844881 0.15364955 -0.11266705 0.17251255 0.061811347
0.13965067 0.29276752 0.034908555 -0.10044528 -0.16172293 -0.034864478 -0.1487276 0.018716548
-0.113265745 0.23013829 -0.034220524 0.13798587 -0.20711803 -0.027473105 -0.29714313 0.05315745
0.121737175 -0.019579168 0.025816549 -0.12583093 -0.05509987 -0.24115105 -0.123683445 -0.052979704
-0.13208133 0.056874573 -0.08167005 -0.111967996 -0.07359352 -0.13509162 -0.25819823 -0.19950387
0.08548222 -0.080953315 -0.12300628 0.04457295 -0.23765129 -0.16661106 0.18793075 -0.06279993
0.04897595 0.17112513 -0.07975407 -0.034734003 -0.2259337 -0.089527085 -0.10752787 0.06729406
0.039244864 0.13253906 0.1415473 -0.31695762 -0.3765449 -0.20912528 0.07575894 -0.08784614
0.24065283 0.342542 -0.02480891 0.1777991 -0.08604464 -0.07965449 -0.105167955 -0.025537962
0.008894403 -0.025763713 -0.07162068 0.40124974 0.0994886 0.08615726 -0.114243306 -0.06811915
0.1727565 0.11996816 0.17414488 0.10164948 0.110760994 0.07137915 0.114409894 0.1950685
0.1983865 -0.28298405 0.05974808 0.110078216 0.1845658 -0.01701488 0.13225316 -0.017235799
0.015844503 0.026422722 0.23841587 0.28698963 0.08805595 -0.13723725 0.0031650586 -0.18495631
-0.07844908 -0.114877075 0.10046249 -0.019984318 -0.07087309 -0.095201015 -0.0021141956 0.0875472
-0.18670338 0.022342017 0.074157275 0.21091552 0.040469464 0.005024691 0.13622056 0.38188514
-0.018942129 -0.022445923 -0.07161279 0.3383691 -0.043551534 -0.06863797 0.025225839 -0.23821805
0.07537742 -0.058086347 -0.026911356 -0.12347056 -0.122307345 0.09221142 0.13364531 0.01418871
-0.0010846064 0.1888951 0.04749804 -0.047433168 -0.039320778 -0.08153927 -0.07106499 0.14180687
0.099121235 0.008141172 0.39359355 -0.10078348 -0.0025938589 0.00999832 0.123722695 0.01572357
-0.20805657 -0.00029018972 -0.14687692 0.011392267 0.23424646 -0.12940067 0.05428626 0.13267879
-0.2052391 -0.08022372 0.025637759 0.09058604 -0.29895744 0.114999205 0.1871312 0.02240603
0.20029628 0.32601163 -0.061479665 -0.050029214 0.22008638 -0.06436074 -0.034173995 -0.03342814
0.05351627 -3.842899e-05 0.109895766 0.040665578 0.12650058 -0.012738921 0.2014742 0.41511154
0.14113282 0.040578093 0.007620306 -0.097797185 -0.050102 0.10529253 0.13394417 0.007890157
-0.072421394 0.020049755 -0.058465533 0.030194314 0.13044664 0.07584668 0.14649823 0.26040688
-0.07488586 0.026625913 0.019183371 0.2279529 0.0088252 -0.022939209 -0.13954066 0.28955746
-0.010580694 0.08997299 0.06322685 -0.33443832 -0.20328067 0.1421256 -0.031084288 -0.12424988

features_model.0.bias f4 [128]
00000000: f614 b73d d785 0a3c 5d9c b63d c905 0bbd
00000010: ed14 263e 7dd6 aa3d 4d16 e73d be44 023e
00000020: 416d 503c 2974 c73d 7fba 0b3e 68bd 9c3a
00000030: 1cd7 9a3d 4646 32bd ccb7 0c3c 708c 9d3d
00000040: 78c6 bc3d d43b b9bc 2f0f 78bd 63d4 83bb
00000050: a168 d03c a056 e1bd a25e bc3d a76d a3bc
00000060: 6af1 113e fd01 24bd 636a 1d3d a528 183c
00000070: fb78 1b3e da40 f63d 938d de3d ee36 f83d
00000080: a5c2 173c 2a36 b03d fd7f 0e3e ea97 3a3d
00000090: 4004 563d aa8d f0bc 57e3 d73d 94a6 033e
000000a0: ad38 2e3e 1c5d 0b3d a91f c03d ddcb b93c
000000b0: 56b5 7a3d b160 dbbc b966 893d cdcb 9c3d
000000c0: 502b f0bc 2b89 853d dc52 5ebd 7022 3a3d
000000d0: 3744 aa3d 4a64 a93d 4070 183e d7d2 8d3d
000000e0: 4eb1 c33d df3b 0c3d 6d8c 6fbc 3e45 013e
000000f0: 7f66 d83d 39e4 50bd e6db ed3d cfc4 683d
00000100: 5832 543d 427f 013e 6926 9d3d 86c6 e13d
00000110: 2c66 b63d 186b a23c 29ae 99bd 2e5b 98bd
00000120: b391 a1bc 8bb2 2dbc 28fd dd3d d18b 50bd
00000130: 6b9d 58bc 45a2 a63d 9d25 d33d f2ff 413d
00000140: bca6 883d 4de2 91bc 7218 da3d 4b49 3e3d
00000150: 7b14 f9bc e50f b33c a53c 3a3e e395 c13d
00000160: f4e8 c43d 8ee6 85bc 1b1e 52bc 46f7 433d
00000170: 9b47 7abc f38e c43b 9782 113d 1b56 e03d
00000180: 83e5 44bd 1bc3 8dbc 325a 3b3d 2c29 943d
00000190: 988c d4bc 97cd 183e d9f1 413e 1cd3 4c3d
000001a0: b57e a13d 6c32 1e3e 3034 113e 6d93 a03d
000001b0: cb24 69bc 53e6 d3bc 0555 a13d b731 fa3d
000001c0: d29f 2bbd c19b b23d f989 d13d 5327 fd3d
000001d0: 5072 233e 5bd3 6fbb b488 683d fb50 cdbc
000001e0: 4285 64bd 6821 2d3e 60b0 bb3d d767 4a3d
000001f0: 70d3 dd3d 5ea5 d23d 7e8d cf3d 1b87 843b
0.08939545 0.0084547615 0.08916543 -0.033941064 0.1621892 0.08341692 0.112835504 0.12721536
0.012721361 0.09738953 0.13645361 0.0011958303 0.0756056 -0.04352405 0.008588742 0.07692802
0.092175424 -0.022611536 -0.060561355 -0.004023121 0.025440516 -0.110028505 0.09197737 -0.019949747
0.14252248 -0.04004096 0.038431536 0.009287034 0.15182869 0.12024088 0.10866847 0.12119852
0.0092627155 0.08604081 0.13916011 0.045555033 0.052250147 -0.029364426 0.105414085 0.12856513
0.17013808 0.034024343 0.09381039 0.022680217 0.06120809 -0.026779504 0.06709046 0.076560594
-0.029317528 0.06520303 -0.05427824 0.045443 0.08313792 0.08271082 0.1488657 0.0692498
0.095553026 0.034236785 -0.014620882 0.1262407 0.105664246 -0.0509989 0.11614208 0.056828316
0.051805824 0.12646201 0.07673342 0.110241935 0.089062065 0.019826457 -0.075039215 -0.07439266
-0.019722795 -0.01060165 0.10839301 -0.05091459 -0.013221125 0.08136419 0.103099085 0.04736323
0.06672427 -0.017808104 0.10649194 0.046456616 -0.030405274 0.021858165 0.18187197 0.09452417
0.09614745 -0.016345289 -0.0128245605 0.04784324 -0.015275861 0.005998486 0.03552493 0.10953923
-0.048070442 -0.017304948 0.045740314 0.072344154 -0.025945947 0.14922176 0.18939914 0.050006017
0.078854956 0.15448922 0.14180064 0.07840619 -0.0142299635 -0.025866663 0.07877544 0.122165136
-0.041900463 0.08721114 0.10231394 0.12361016 0.15961576 -0.0036594484 0.056770995 -0.025063029
-0.055791147 0.16907275 0.091645 0.049415436 0.10831344 0.102854475 0.10134409 0.004044426

features_model.2.weight f4 [128, 128]
00000000: 4108 923e 4a99 81bd 64a2 d6bc cd53 c43d
00000010: 5c5a 463e d9a0 c03d 19de ba3d cec0 253d
00000020: 7f3c 3c3d f4ed f23d cbef bd3d 52c4 18bc
00000030: f315 073c 4295 083d 8242 2dbd 45ed 003e
00000040: 7870 12be 6961 993d 3717 60bd b51f f6bd
00000050: 9765 c93d 45c1 223d 933b 9b3d d562 4dbd
00000060: a894 1a3e 2519 09be 8a89 cfbc f3a5 873e
00000070: 72a8 333e 6308 80bd 692f 123d 2e5a de3d
00000080: 6af9 433e 2382 8cbc 695b e13d aa42 20bc
00000090: a785 d2bd 3fc5 5cbe 98df d8bc f59d 093e
000000a0: a05b ad3e 5acd 06bd 95d8 343e 719d 203e
000000b0: fe91 343e 3be0 253e 38ab 3dbd cb06 ca3c
000000c0: 82e5 2b3e 01b0 973e 0035 283e 11f1 8b3e
000000d0: 3f46 acbd f2b1 31bd 480b eebc 12f0 2fbe
000000e0: 70bd 52bd 1c4b 1dbd 0eb2 70bd ca2a 103e
000000f0: a4e4 7d3e 43c6 a93e 5f3a 2e3e 1c26 0bbe
00000100: d89a 963e 5a89 2b3e 309a 353d df17 863d
00000110: f941 1cbc 35eb 1e3e ad8a d13d f8be 6abe
00000120: 8967 5dbe 2d48 69bd 9260 babb 060e 42bd
00000130: 1235 febc 2a8c 373d 0ba2 e23c bf18 a1be
00000140: 8402 c63d 9690 763d 169b 96bd a2b6 c03d
00000150: cb7c 743e e63b 483e dcfe 67bd 82d6 95bd
00000160: 6559 3b3d 9a81 6c3d 689e 70be b64d bcbd
00000170: 4d01 333e 17e0 5cbd 66b8 20bd 3eb1 b1bd
00000180: 1e8f d1bc 7403 e03d 8d11 5d3e 010a afbd
00000190: 29d8 d13d b05d 163e 98f5 153e 8daa b93e
000001a0: 03f0 893e 972d d13d dcd0 99bc 01c5 1abd
000001b0: 1029 f9bd fa2c 283e b05a 473d f1ec 943e
000001c0: 7795 c8bd 24d0 36be 0992 41bd e5b3 033e
000001d0: af68 243e 10ba 09be 002c 263d 83b1 1fbe
000001e0: ad80 8dbd f4f6 2c3e 196e a5bd 0344 683d
000001f0: f378 713d e4a4 533e 5fa4 3c3e 700c aabd
00000200: 0f7b 6fbd 4a09 ab3d fa9e 9a3d 30b9 ed3b
00000210: 9d05 76bd aec7 903d 1df8 293e 979b c1bd
00000220: 2e7c b73d 1dfa 84be 9362 38be ee87 dc3d
00000230: fa0f 66bc 366c 113d eddc 143e 2fa1 a8bc
00000240: 8bff febc ba58 3b3d e512 633d 7a0d a9bd
00000250: b70a b3bc d669 15be ee5a 1fbe 03d2 d83d
00000260: ffdf a7bd f216 b2bd 4a1d 35be 062f 87bc
00000270: 8bf9 ad3e 3145 3cbe 34bf b8be 27a0 c7bd
00000280: e472 7f3d 848f 243c b0ef babd 00dd 60bd
00000290: 134b a33d 933c 853c f8f4 543e 6861 dc3c
000002a0: f8df 3e3e 37fd 41be bfac 813c a889 e83d
000002b0: 446e d13c 6bfd 0bbd 716e 183d e9fc 8a3e
000002c0: 5142 0ebe 0111 173d ef00 523d e5b0 6cbd
000002d0: 9966 313c 34c8 af3d 45df b13c dc04 c03d
000002e0: 7ff0 413c e30a c13d 826f bbbd 6d38 273d
000002f0: 3d8c 8d3e 6862 91bc a880 78be 6d0a a63e
00000300: fa44 993d 0aed 653d f5be 433d 29ae 75bd
00000310: e8c5 a8bb d8d4 7d3e 9810 85be b0ee debc
00000320: cded ae3d 5174 c03d f23e 22be cad8 103e
00000330: 46db f93a f2c0 c1bc 6870 94bd c798 eb3d
00000340: b4e2 093d 9a4b 123e 1ed4 213d ec8a 8e3e
00000350: bcb6 973d 05d5 103c ed36 20be b8a2 3c3d
00000360: d32f 6d3e a40b 5f3b 0bfc ccbc c1b6 113c
00000370: db25 323d 5fcf 063d 2e9e 153e c880 12be
00000380: 5a54 933c 6c1e b5bd 2c92 373e 8ad9 05be
00000390: 7b8f 5a3d 0727 21bd 3922 b1be ca84 9e3c
000003a0: 7c4d abbd 5d83 683c 52b0 08be ba93 5d3e
000003b0: fa77 d2bd d447 82bc e29a bebc 47d7 4c3e
000003c0: e58c 58bd 63dd 55be 98fe 813d 88d8 49bd
000003d0: 88b3 5a3e f46d e93d 7dd6 1d3e c670 b5bd
000003e0: f6fa 0bbc 98ea 153e 5b28 4f3e 1022 113c
000003f0: 064c 12be a018 2abe 9c4f 77bd 12c8 b43d
0.28521922 -0.06328066 -0.02620048 0.09586296 0.19370407 0.09405679 0.09124393 0.040467076
0.04595613 0.11861792 0.092742525 -0.00932415 0.008244979 0.03334547 -0.042299755 0.12590511
-0.14300716 0.07489283 -0.05470964 -0.120177664 0.0983383 0.039735097 0.07579722 -0.05014308
0.1509577 -0.13388498 -0.025334138 0.26493797 0.17544726 -0.062516 0.035689745 0.10857044
0.19138113 -0.017151898 0.11003763 -0.009781519 -0.102793984 -0.21559618 -0.026473805 0.13439162
0.33858967 -0.032910682 0.17660744 0.15685059 0.17633817 0.16198818 -0.046305865 0.024661442
0.16786769 0.29626468 0.16426468 0.27332357 -0.08411836 -0.043382592 -0.029058114 -0.17181423
-0.051450193 -0.038401708 -0.058763556 0.14078823 0.2479425 0.33159074 0.17014454 -0.13588756
0.2941501 0.16751614 0.044336498 0.06547522 -0.0095372135 0.15519412 0.102315284 -0.22924411
-0.21621527 -0.056953598 -0.0056877816 -0.047376655 -0.031031165 0.044811405 0.027665159 -0.31464192
0.096684486 0.06019648 -0.07353799 0.094098344 0.2387573 0.195541 -0.056639537 -0.07316305
0.04573955 0.057740785 -0.23497927 -0.0919451 0.17480965 -0.053924646 -0.039238356 -0.086763844
-0.025580939 0.10938159 0.21588726 -0.0854683 0.102463074 0.14684176 0.14644468 0.36262932
0.26940927 0.10213774 -0.01877635 -0.037785534 -0.12166035 0.16423407 0.04867047 0.29087022
-0.09794133 -0.17852837 -0.04725841 0.12861593 0.16055559 -0.13449883 0.040569305 -0.15595059
-0.069093086 0.1689108 -0.0807764 0.056705486 0.058953237 0.2066837 0.18422078 -0.083031535
-0.058466967 0.08351381 0.075498536 0.007254742 -0.060063947 0.07069336 0.16598554 -0.094535045
0.08959232 -0.2597207 -0.18006353 0.10768114 -0.014041895 0.03550359 0.14537401 -0.02058467
-0.031127712 0.045738913 0.05543794 -0.082545236 -0.021855695 -0.14591154 -0.1556203 0.105869316
-0.08197021 -0.08695783 -0.17686954 -0.016501915 0.3397945 -0.1838577 -0.36083376 -0.097473435
0.062365428 0.010043982 -0.09127748 -0.054898262 0.07973304 0.016264236 0.20796573 0.026901916
0.18640125 -0.1894425 0.015829442 0.11354381 0.025565274 -0.034177225 0.0372147 0.2714608
-0.13892485 0.03688145 0.05127042 -0.057785887 0.010827684 0.085831076 0.021712909 0.09375927
0.011837124 0.094259046 -0.09152128 0.040825296 0.27646056 -0.01774712 -0.24267828 0.3242983
0.07483859 0.05613426 0.047789533 -0.059980545 -0.0051505454 0.24788225 -0.25989223 -0.027213424
0.08541451 0.093971856 -0.15844324 0.14145198 0.0019062541 -0.023651574 -0.07248002 0.11503749
0.033663467 0.14286652 0.03950893 0.27840364 0.07407901 0.00883985 -0.15645953 0.04605362
0.23162775 0.0034034038 -0.025022527 0.00889367 0.043493133 0.03291261 0.14611122 -0.14306939
0.017984558 -0.08843693 0.17926854 -0.13071266 0.05335949 -0.03934386 -0.34596422 0.019350428
-0.08364388 0.014191476 -0.13348511 0.21638384 -0.1027679 -0.015903391 -0.023267213 0.20003997
-0.052868742 -0.20885234 0.06347388 -0.049278766 0.21357548 0.11397925 0.15413852 -0.088594005
-0.0085437205 0.14640272 0.20230238 0.008858219 -0.14286813 -0.16610956 -0.060378656 0.08827223

features_model.2.bias f4 [128]
00000000: f4b9 ca3d ca4e 6b3d 5424 763b 37e2 76bd
00000010: c5f5 743d 3b82 eb3d cf04 a3bc 0000 0000
00000020: 961a d13d f72c fe3d 7217 fbbc 9fab e73d
00000030: 61c7 87bc 69f6 babc 214a d7bb a6af 2f3e
00000040: 0654 a4bb fe77 6a3d 2d9d d9bc 69cc 073e
00000050: 6334 02bc 8173 013e 546e 97bc 4707 46bd
00000060: be4a 103e f2a4 df3d ba35 adbb 068e 39bc
00000070: 42e3 ebbb d08b 85bb da8c efbc da6a db3d
00000080: 5509 ab3d ede7 023e 929a 193e 4abe d13d
00000090: eea3 07bd 4a46 963c ab32 c63d 8370 29bc
000000a0: 9983 0f3e 76ed 2e3c 0ed7 12bd b921 ddbb
000000b0: 4be6 a33d d636 cfbc 39ec 853c 2950 4dbc
000000c0: 5462 fbbc 5ef9 b73d 46dc 7ebc a8ca 59bc
000000d0: 4aef 9dbc 0f66 bb3d 296a 3abc 13e8 d63d
000000e0: 5de7 c73d b249 b5bc 5c67 9d3d 3e8e e2bc
000000f0: d821 d7bc c2dc 063d 0862 44bb 4716 d838
00000100: 0576 26bc b0b9 12bd 5a5b a8bb 9f71 173e
00000110: 68bb 033e 4e61 d53d a4cf 853c c39b 9cbb
00000120: 6efb f2bc eb23 dfbc fb04 ba3d a895 8d3d
00000130: d499 e03d 6c57 4cb9 a129 003e 4c22 9dbc
00000140: 0000 0000 a138 a73a 491e d1bc 8e2a bb3d
00000150: 3c9b 6cbc 0ea0 7d3d 0982 56bc 49f7 303e
00000160: dfce c23d 82ed 3abb ba41 04bd e5af d83c
00000170: c4f7 f93d ce3c 10bd 818c adbc 1178 a33d
00000180: 33b8 2ebc a93a 9bbc 6f37 263c c118 1b3e
00000190: 3a41 3abd 4a0f 21bd 0000 0000 45ce 1bbd
000001a0: fd51 c13d a75a febb f88b 023e 7913 62bd
000001b0: 7975 11ba 7a7d 00bd 3e39 e33d d877 41bd
000001c0: fe5d ddbc 829b 83bc 5bc0 483d c458 343e
000001d0: ef5a bf3d e978 f73d f083 58bc 86e9 45bd
000001e0: 7e64 f33b 8316 a1bc df58 76bc 77c6 533d
000001f0: 99a3 4dbc 417e 533d 0000 0000 8137 42bc
0.09898749 0.057448186 0.0037558274 -0.06027433 0.059804697 0.11499449 -0.019899754 0.0
0.10210149 0.1241092 -0.030650828 0.11312031 -0.016574563 -0.022822576 -0.006570116 0.17156848
-0.005014899 0.05724334 -0.026564205 0.1326157 -0.00794706 0.12641717 -0.018485226 -0.048346784
0.14091012 0.10920133 -0.0052859457 -0.011325365 -0.007198722 -0.004075505 -0.029241968 0.1071374
0.08351389 0.12783785 0.1500037 0.10241373 -0.03311532 0.018344063 0.09677633 -0.010341766
0.14015044 0.010676732 -0.035849623 -0.006748405 0.08002909 -0.025294703 0.016347991 -0.012531319
-0.030686535 0.0898311 -0.015555447 -0.013292946 -0.019279141 0.091503255 -0.01137785 0.104934834
0.09760926 -0.022129867 0.0768573 -0.027655717 -0.026261255 0.032925375 -0.0029965658 0.00010303832
-0.010159974 -0.035821617 -0.005137843 0.14789437 0.12864459 0.1041895 0.016334362 -0.0047793104
-0.029660907 -0.027238807 0.09082981 0.0691331 0.109668404 -0.00019487523 0.1251588 -0.019181393
0.0 0.0012757966 -0.025527136 0.09138976 -0.014441308 0.06192022 -0.013092526 0.17281832
0.09512114 -0.0028522913 -0.032289244 0.02645106 0.12205461 -0.035214238 -0.021185162 0.07981885
-0.010664034 -0.01894887 0.010145052 0.15146162 -0.04547236 -0.03932122 0.0 -0.03803851
0.09439466 -0.0077622714 0.12748706 -0.05519435 -0.0005548816 -0.031369664 0.110949025 -0.047233433
-0.027022358 -0.016065363 0.04901157 0.17611986 0.09343516 0.12083609 -0.01321505 -0.04831841
0.007427751 -0.019664055 -0.015035837 0.051702943 -0.012551212 0.051634077 0.0 -0.0118540535

features_model.4.weight f4 [128, 128]
00000000: defa 023e 3b03 44b9 a490 6f3d 7bad 72bd
00000010: a7a1 98bc cb99 62be c963 83be 63d7 923b
00000020: 41ff 9bbd 15f1 713c 5a68 76bd da07 2dbe
00000030: 9f26 54bd 05c9 4fbd 9233 2abc 140f 28bd
00000040: 7a0d 0f3e 8571 c53d 17f0 64be 5e44 7f3d
00000050: 21cd 653d a014 93be b4a5 19be bc9b b33d
00000060: 6c3a cfbd e8fb 963d 3158 bd3e 4efa 95bc
00000070: 5d75 e43d f46c e83d 7ce5 efbc ab06 21bd
00000080: df02 003d 00ff 5abe 8d43 383e ce76 493e
00000090: bbd6 3fbe cdba 7abd dab3 f7bc 652d 113d
000000a0: be23 10bd 6e23 ac3c ea6f ab3e a26a 09be
000000b0: 68d3 8e3d 6c8f 343e f31c 07bd a7cf 253e
000000c0: dd89 60be 6b8a ad3c d177 553d b03e 5a3d
000000d0: 3707 0dbd 5f6d 19be 6be5 94bd 0b45 dd3d
000000e0: dfea 7ebd 6681 a1be 6d91 323e 3471 4c3d
000000f0: f1c5 18be d9ef 5cbd f36f 1b3d 0fd9 13bd
00000100: 66fc 14be a64a b6bd 164f 1b3d f3aa 8bbd
00000110: 141b 983d 9984 393d c21d c53d 2d25 213e
00000120: 792c 08be 6e95 afbd 8ac3 09bd 2ae2 763d
00000130: da4f a4be 9312 ec3c 901d bdbd 14bb 0fbe
00000140: ffde 593e eabc 403e 8407 22bc 7a62 41bc
00000150: 0334 b53c 8e62 fcbd 64e3 993c 8170 763d
00000160: f283 2e3a c8ab 05be 8a1f 5e3d 1df7 133d
00000170: 48fd 18be ceb3 dabd c242 4cbd 3836 ce3d
00000180: de3d 143d 0ac2 ad3d df0c 13bc 4167 e23b
00000190: c8a9 33bd 03e4 4abd 278c e3bd 38a6 a63d
000001a0: afe7 06bd e02d 47be cdb2 51be af8a 05bd
000001b0: 1a55 04be d09f 05be bec6 693e f341 173e
000001c0: e47c 993b 523e 983d ea73 12bd 2741 383d
000001d0: bed9 02be 0930 d23d 2ef5 153e 3abf b9bd
000001e0: c6c9 dc3d 6de3 f4bd 98d2 113e 1b6c 66be
000001f0: 02ec 24be db93 0ebe 246a 0fbe 8b82 24bd
00000200: 530f 29bd 4853 dfbd d86e ee3d 3d83 bdbd
00000210: 8067 03be 60b9 33bd da2e 2a3e 4a11 18be
00000220: d8ce 5cbe 6f9a c8bd 11c1 063d 1506 36be
00000230: 57e9 46bd 88ad 0c3e 7ec7 093d cde1 7a3c
00000240: ca27 1ebe 7d8e 59bd 0554 923e 3e32 a3bd
00000250: 20b1 f93d 878b a33d 848d 96bd 2e32 5a3e
00000260: 9074 b63d 7fc1 1f3d 9369 f9bd e0bb 0abd
00000270: b8b5 40be b7d5 283e 541c 403d 365d a9bd
00000280: 903e 33bd 51d9 06be 0505 673d 9fe4 adbc
00000290: e682 843e 396a 1ebd 8a7e 323d 6a24 91be
000002a0: a409 58bc 8ad2 98bc c77a a53d 94ed 423e
000002b0: 5b0a d53e 25f7 243d e3f2 fdbc 6e2d 95bd
000002c0: 6a50 f23d 6921 61be fe0f 1dbe 80c1 b8be
000002d0: 2c85 853d 7a71 2abe 59b9 033d 1ace 593e
000002e0: 99cb 203e e823 fabb e58b 80bd 2fba c3bd
000002f0: e63b 6b3e 17a8 853e 11d8 a03d 8594 cfbd
00000300: 78c5 8b3d d1ba d2bc 9b39 2cbb 559f bc3d
00000310: c9e0 463e be33 30be d6aa 103e 7950 953d
00000320: cae3 21bd 497e ac3d 9b35 52bd e82a b53d
00000330: cb02 d1bd 802e bdbd 15b5 b73d 85bb 08be
00000340: 9431 bf3d e49b 70ba 5b0b 2bbc 1c51 1ebd
00000350: e694 7f3c 3149 12be 560e 7bbc 323e 7abe
00000360: cf37 0e3e f276 573e 3f96 183d fe01 203e
00000370: 5ef4 ae3d 07d9 273c 9953 8abd 71ce f9bb
00000380: c103 0abc 41e9 0d3e 285a 83bc f4d4 4abd
00000390: b696 5d3e 0281 073d ff87 4cbe 5f19 67bc
000003a0: 03fb f53d 7d5e 12bd 24ee 54bd 6073 26be
000003b0: 2c9b e5bd 791f 2e3d a3cb 02bd 3a36 e73c
000003c0: 78bf ba3d f3ad 03be 54b8 be3d 0c41 cc3d
000003d0: 035a a5bc 0436 51bd e725 233e e370 e9bd
000003e0: c677 3d3e 003c 3c3d 737e 81bc 41df 8cbd
000003f0: fdde 01be 0476 d8bd 20e7 0cbd d09a 563e
0.1279101 -0.0001869322 0.05848755 -0.059247475 -0.01863177 -0.2212898 -0.25662068 0.0044812425
-0.07617045 0.014766951 -0.06015811 -0.16897526 -0.051794644 -0.050728817 -0.010388272 -0.041030005
0.13969985 0.09640793 -0.22357212 0.06232106 0.05610383 -0.28726673 -0.15004617 0.08769938
-0.10118565 0.07372266 0.36981347 -0.018307831 0.11155198 0.11348906 -0.029284231 -0.039313
0.031252738 -0.21386337 0.17994519 0.19674227 -0.18734257 -0.061213303 -0.030237127 0.035443682
-0.035190336 0.021012988 0.3348382 -0.13419583 0.06973916 0.17632836 -0.032986593 0.16192494
-0.2192759 0.021184167 0.05211622 0.05328244 -0.03443071 -0.14983128 -0.072703205 0.108041845
-0.06223571 -0.31544036 0.17438288 0.049912646 -0.14919259 -0.053939674 0.03794856 -0.036095675
-0.14549407 -0.08900957 0.03791722 -0.06819715 0.0742704 0.04529247 0.096248165 0.15736838
-0.13298215 -0.08573423 -0.033633746 0.06027428 -0.32092172 0.02881745 -0.09234154 -0.14036208
0.21276473 0.18822065 -0.009889487 -0.011803264 0.022119528 -0.12323485 0.018785186 0.060165886
0.00066572346 -0.1305381 0.054229297 0.036124337 -0.14940369 -0.10678826 -0.049868353 0.10068935
0.036191814 0.08484276 -0.008975237 0.0069092815 -0.043863088 -0.049533855 -0.11110716 0.081371725
-0.032935794 -0.19451094 -0.20478363 -0.032602962 -0.12923089 -0.13049245 0.2282972 0.14771251
0.0046840776 0.07433762 -0.035755076 0.04498401 -0.12778375 0.10263068 0.1464431 -0.09069677
0.10780673 -0.119574405 0.14240491 -0.22502176 -0.16105655 -0.1392359 -0.14005333 -0.040163558
-0.04127438 -0.109045565 0.116422355 -0.09253547 -0.12832451 -0.04387796 0.16619435 -0.14850345
-0.2156328 -0.09795081 0.032898966 -0.17775758 -0.048562374 0.13738072 0.033637516 0.015312624
-0.15444866 -0.053114403 0.28579727 -0.07968567 0.12191987 0.07985597 -0.07351211 0.21308205
0.08908951 0.03900289 -0.1217834 -0.033870578 -0.1881932 0.16487776 0.046902016 -0.08269732
-0.043760836 -0.13168837 0.05640127 -0.02122718 0.25881118 -0.03867552 0.04357771 -0.28348094
-0.013185892 -0.01865508 0.080800585 0.19035941 0.41609463 0.040274758 -0.030999606 -0.07284056
0.11831744 -0.21985401 -0.15338132 -0.3608513 0.06519541 -0.1664485 0.032159183 0.21270028
0.15702666 -0.007633675 -0.06276683 -0.09556996 0.22972068 0.26104805 0.078537114 -0.1013575
0.068247736 -0.025723847 -0.0026279453 0.09210078 0.19421686 -0.17207238 0.14127669 0.072907396
-0.039523877 0.084225245 -0.051320653 0.08846074 -0.10205611 -0.09237385 0.089700855 -0.13352783
0.09335628 -0.0009178503 -0.010439719 -0.03865157 0.015599465 -0.14285733 -0.015323242 -0.24437788
0.13888477 0.21041468 0.03725266 0.1562576 0.08542703 0.010244614 -0.06754226 -0.0076234867
-0.008423747 0.1385851 -0.0160342 -0.049519494 0.21639523 0.033082016 -0.19973753 -0.01410517
0.12010767 -0.035734642 -0.05198492 -0.1625495 -0.11211237 0.042510483 -0.031932484 0.0282241
0.09118551 -0.12859325 0.093125015 0.09973344 -0.020184522 -0.051076904 0.15932427 -0.113984846
0.18502721 0.045955658 -0.015807366 -0.0687852 -0.1268272 -0.10569385 -0.034400105 0.20957494

features_model.4.bias f4 [128]
00000000: 632c f8bc f833 9dbc 4b2c c4bc 99de f5bc
00000010: a38d 0c3e 3e80 c5bc 6adf f4bc f6af 95bc
00000020: 622d a6bc e4e4 71bc cd6a 63bc ebd8 bf3d
00000030: cc9e 64bc 1c43 933d ff52 933c cfa3 fdbc
00000040: 9ab5 7ebc fd49 49ba 4e99 f6bb 51a5 e83d
00000050: e63b dbbb 99ad 993d 7b4c 8abc ea88 0dbc
00000060: 2906 a23d 8478 983c 99a4 d1bc 71ec e43c
00000070: b4f9 a4bc 5462 f93d ded5 833d 9d77 11bb
00000080: e503 52bc 850f 973d 3a79 27bc 1317 b13d
00000090: cc52 3f3b 0000 0000 7393 dc3d d33c aabc
000000a0: 931a 95bc 4c7b 31bc b946 323c b826 43ba
000000b0: 71f8 8dbc 4f04 38bc 67a0 46bc c8c6 a93d
000000c0: 3c6c b83d c8df 473e aa7d 02ba 9fd0 07bd
000000d0: 653c bdbc 93cc cb3b 55b6 c3bc 2329 62bc
000000e0: 0000 0000 02ba dabb 531d b1bc c39b 0e3d
000000f0: 6eca 6aba 6cd4 17bc 967f f83d 2f60 d6bc
00000100: 35c8 243e d205 533c 8030 d83d b2c2 363c
00000110: 5fb6 35bb 6370 663d 4376 8a3d facf a3bc
00000120: 9b8e 98bc 2a62 abbc dbd8 a8bc fbef 4e3d
00000130: b6bb 9f3a 6e2d 1f3d a2cc 4a3d ddb8 afbc
00000140: 6ca7 443c e615 a6bb 0d87 ec3d e6e0 cabc
00000150: e877 0fbd 9c86 90bc 2ba8 e63d 2d69 023e
00000160: 22d3 2ebd afcc e6bc 86b5 9abc f39a cb3b
00000170: cac6 1c3e 6ce0 debc 0fd8 083e b832 09bd
00000180: 3f04 083e 5664 b83d f6a3 0d3e a97c 2c3e
00000190: 8927 2abd 7993 debc b585 a4bb 6581 0c3d
000001a0: e78d 0d3e cdf7 eb3d 8fd5 38bb b6f4 b9bc
000001b0: 8a78 243e a992 b5bc 8310 d0bc b462 1a3d
000001c0: c62b fc3b f588 4bbc b7e9 f63d ab57 f13c
000001d0: 28c0 e4bc 2ed8 c03d dc4b aabc 82e6 113e
000001e0: 2b85 2bbb ded1 8e3d 4bb5 a9bc 0000 0000
000001f0: 36c3 2a3e 5570 f03d 59b8 423b ef71 953d
-0.030294603 -0.01918982 -0.023946902 -0.03001337 0.13725905 -0.024109002 -0.029891688 -0.018272381
-0.020285312 -0.014764044 -0.013880444 0.09367546 -0.013953876 0.071905345 0.017983912 -0.0309619
-0.015546227 -0.00076785666 -0.0075255996 0.113596566 -0.00669049 0.07503814 -0.016882172 -0.0086386
0.07911331 0.018612154 -0.025591182 0.027944775 -0.020138599 0.12176958 0.06437276 -0.002219654
-0.012818311 0.07376007 -0.010221774 0.08646979 0.0029193638 0.0 0.10770311 -0.020780956
-0.018201148 -0.010832619 0.010881119 -0.0007444429 -0.01733038 -0.011231496 -0.012123204 0.08289868
0.09005019 0.1951896 -0.0004977832 -0.03315794 -0.023100087 0.0062194555 -0.023890654 -0.013803753
0.0 -0.006675006 -0.021620428 0.034816515 -0.0008956556 -0.009266954 0.1213371 -0.02616891
0.16091998 0.012879806 0.10556126 0.011154817 -0.002772711 0.056259524 0.06760838 -0.019996632
-0.018622687 -0.020920832 -0.020611217 0.050521832 0.001218668 0.038861685 0.04951156 -0.021450454
0.012002807 -0.0050685285 0.115491964 -0.024765443 -0.03502646 -0.017642312 0.11262544 0.12735434
-0.04268182 -0.028173773 -0.018885385 0.0062135397 0.15310207 -0.027206622 0.1336367 -0.033495635
0.1328287 0.090035126 0.13832077 0.16844429 -0.04154161 -0.02716993 -0.005020822 0.034303088
0.13823663 0.115218736 -0.0028203463 -0.022699695 0.16061607 -0.02216466 -0.025398498 0.037691787
0.007695648 -0.01242279 0.12056296 0.029460749 -0.027923658 0.09416233 -0.020788126 0.14248088
-0.0026171904 0.06973623 -0.02071633 0.0 0.1667603 0.11740176 0.002971193 0.07297122

policy_model.0.weight f4 [128, 128]
00000000: 5095 f93a 4691 223b de44 e9ba d9a7 c2ba
00000010: 2c66 0fba 290a 0cbb 964e 29bb 7190 a8ba
00000020: ec6a e7ba f07b d83a 02c1 97ba b450 f2ba
00000030: 1859 0fbb 8802 8b39 7091 28bb e239 d6ba
00000040: 7570 3fbb b963 e039 764f 9cba 4a5e 65bb
00000050: 6f8f 413b 4401 96bb 953f 19bb aef4 e338
00000060: b8a6 1e38 b1dc a7ba 95f6 9eba 8ba7 bcba
00000070: ece0 f1ba 2520 af3a a658 aebb 8961 dbb8
00000080: 70e4 d2b8 b300 71bb d5f3 de39 4f02 8dbb
00000090: 38be b9b8 9c86 70ba cfb9 a6bb 59f2 3ebb
000000a0: d340 56b9 c343 82ba d400 40ba d2b9 1d3b
000000b0: fd5b 3d39 144c 9c39 a937 d63a ec06 68ba
000000c0: c9f1 30ba 0546 96ba f137 f8ba 24ee 08bb
000000d0: 32d7 9fba 6641 963a ce8f f5ba 7e2f 373a
000000e0: c4f8 30ba fb8e 60bb 11bf faba 307a 1cbb
000000f0: 4811 eaba f206 d8ba 670c 40ba 3af1 4aba
00000100: 95c9 8c3a 4a68 ef3a 7079 3a3b 8515 1ebb
00000110: f0e7 8738 5982 eabb 5821 b6bb 5bf5 bdba
00000120: 7b71 f93a 47da 763a 2f40 28bb 54a9 a33a
00000130: 4143 a7b8 d37c fab9 e7e8 be3a aa29 e6ba
00000140: 2408 703a eaf4 5d39 92df eeb9 7f56 85ba
00000150: 43a4 0ebb e789 0c3b 78fe 08bc de37 d0bb
00000160: da49 e4ba 5682 433b 9288 ddba 4371 39bb
00000170: 9cfc c73a ae1f 38bb e1e0 80ba ceb4 5a3a
00000180: 2224 83ba dcad b9bb 7d6f f53a 3744 3b39
00000190: 9920 5f39 6a03 eaba 6ef8 24ba 57ed 2039
000001a0: 464a b0ba 5f16 e7ba 1cf7 b93a 4e8c 1bbb
000001b0: 93da 023a c53a cdb9 1f09 a33a 6a95 34bb
000001c0: d2ab 90b9 a159 56bb ddad a839 21ec 29bb
000001d0: 58e8 f6ba 419c e5bb 8a8a c4ba 8b64 97bb
000001e0: 0663 0cbb d377 e1bb 937b 8237 a571 2739
000001f0: 089e c6bb 6488 91bb 7677 35b9 d0c8 ecba
00000200: 9c6b 5bbd 78c0 923b 9db3 583c 4a67 4a3c
00000210: 3f34 163d 2fa9 7b3c f806 b13c 7606 12bc
00000220: b585 8b3c aa27 86bc 981b d2ba 7020 6d3d
00000230: 9c00 443d 6b96 283d 42a9 8c3d 35e1 813c
00000240: 2fef 0d3d db73 633c e3cc 173a 0a6a 863d
00000250: 7ed8 ec3b ba0d a83d 82e3 403c ad56 c63b
00000260: 5929 9e3d 5033 e93c 1afb 153d c585 413d
00000270: 73d6 d13b c639 093d a99d 953d b978 e53c
00000280: 375f bb3b 8a9a 013d d6ba a93b 9463 9d3d
00000290: c4a4 9cbc 5497 0cba 1bfa 513d e422 0f3b
000002a0: b4f2 1fbc 986c 813c 43de 143d 8906 0cbc
000002b0: ff2a 243b 1bc2 923c 055d b8bc cefd 943d
000002c0: ec6e c43c 1567 043a 211a 163c 3f50 143d
000002d0: 0685 8b3c 8207 b53c c4ac 6d3c cadd d5b9
000002e0: 8a44 1239 e0fd 4839 4153 a43c 3bcd 6c3d
000002f0: f5fd 3f3a 260b 023c 2c1c 7aba e77c 593c
00000300: e216 1fbd 84fe ed3c 69d8 8a3d 81af 21bc
00000310: c1b8 003c 0542 853d 62cc 8e3d 4722 633d
00000320: 082f ae3c 2ae8 9abc 36d5 5e3c 0a2a 403d
00000330: f135 9e3a 507f af3d d628 a6bc b5bf ae3b
00000340: a053 8b3c 1e24 12bd 88b8 c5bc 1921 e539
00000350: 03e6 c33c 0521 883c bf7b 6a3d c45a 563d
00000360: 0715 1b3c a526 653c ae87 043d f778 ec3c
00000370: edc5 c2bb 85d9 0cba a054 8b3b 3405 c6bc
00000380: 91ef 1b3d db50 8d3d 82e3 cabc cfaa 69ba
00000390: af9a 873b fde8 fe3c 0b8f 723d 2a6c 8d3d
000003a0: 758b 8dbc d569 663d 529a 183d a40b 463d
000003b0: ae32 1bbd bea0 c63b 11f0 433c 91b8 de3a
000003c0: 24f5 8c3d 8da2 273c 1850 ce3c d37b fa3c
000003d0: 3ed0 863b 06e0 8b3d 0fd0 453c 561d 6c3d
000003e0: 9933 dbba a50b 913d be4d 033d 7225 3fba
000003f0: 7d5e 313d 75cc 8a3d 8a95 d63b 32f2 a63d
0.0019041691 0.0024805828 -0.0017797013 -0.0014851048 -0.0005470242 -0.002136836 -0.0025834194 -0.001286043
-0.0017655767 0.0016516428 -0.0011577907 -0.0018487186 -0.0021873172 0.00026514032 -0.0025721453 -0.0016344155
-0.0029211317 0.00042798909 -0.0011925537 -0.0034998828 0.0029534956 -0.0045777876 -0.0023383845 0.000108697786
3.7825404e-05 -0.001280686 -0.001212793 -0.0014393193 -0.0018453873 0.001336102 -0.0053206263 -0.00010460901
-0.0001005613 -0.0036774098 0.0004252481 -0.0043032537 -8.8569184e-05 -0.0009175332 -0.005088068 -0.002913615
-0.0002043278 -0.0009938407 -0.0007324342 0.0024067056 0.00018058713 0.0002981132 0.0016343492 -0.0008851129
-0.0006749896 -0.0011464959 -0.001893757 -0.0020893896 -0.001219487 0.0011463582 -0.0018734874 0.0006987973
-0.0006750936 -0.003426491 -0.0019130429 -0.002387654 -0.0017857933 -0.0016481562 -0.0007326067 -0.0007741634
0.0010741228 0.0018265333 0.002845373 -0.0024121713 6.480503e-05 -0.007156652 -0.005558174 -0.0014492677
0.0019031012 0.0009416681 -0.0025673022 0.0012486377 -7.9757076e-05 -0.00047776717 0.001456526 -0.0017560024
0.00091564865 0.0002116744 -0.0004556147 -0.0010172873 -0.0021765388 0.00214445 -0.008361451 -0.006354316
-0.0017417029 0.0029832325 -0.0016901663 -0.002829627 0.0015257779 -0.0028095054 -0.0009832644 0.0008342982
-0.0010005275 -0.0056664776 0.0018725243 0.00017859122 0.00021279081 -0.0017853801 -0.00062931224 0.00015347205
-0.001344987 -0.0017630568 0.0014188024 -0.002373475 0.00049916765 -0.00039144434 0.0012438631 -0.0027554878
-0.00027593836 -0.0032707232 0.00032172995 -0.0025928097 -0.0018837554 -0.0070071523 -0.0014994901 -0.00462014
-0.0021421327 -0.0068807392 1.5554751e-05 0.00015968697 -0.0060613193 -0.004441308 -0.00017306008 -0.0018065218
-0.05356942 0.0044785105 0.013226417 0.012353728 0.03667092 0.015360161 0.021609768 -0.008912673
0.01703153 -0.016376335 -0.0016029952 0.057892263 0.047852144 0.041159075 0.06868221 0.015854457
0.03465193 0.013882603 0.00057907234 0.06563194 0.0072279563 0.08205743 0.011772992 0.006052813
0.0772273 0.02846685 0.036616422 0.047246713 0.006403738 0.033502363 0.07305462 0.028011667
0.0057181376 0.03164152 0.0051797433 0.07685009 -0.019121535 -0.0005363126 0.05126391 0.0021840865
-0.009762455 0.015798852 0.036344778 -0.00854648 0.0025050042 0.017914822 -0.022505293 0.07274972
0.023978673 0.0005050761 0.009161503 0.03620934 0.017031204 0.022098307 0.014506523 -0.00040791772
0.00013949178 0.00019168062 0.02005923 0.05781291 0.00073239143 0.007937228 -0.0009540941 0.013274408
-0.038840182 0.029052027 0.06779558 -0.009868504 0.007856549 0.06506733 0.06972577 0.05545261
0.02126266 -0.018909533 0.013600638 0.04691509 0.0012070519 0.08569205 -0.020283144 0.005332912
0.017007649 -0.035678975 -0.024135843 0.00043702943 0.02391339 0.016617307 0.05724692 0.052332655
0.0094654625 0.013986264 0.032355957 0.028866274 -0.0059440047 -0.0005372989 0.0042520314 -0.024172403
0.038070265 0.069001876 -0.024766687 -0.0008913697 0.004138313 0.031116957 0.059218448 0.06905396
-0.017278412 0.056253273 0.037256546 0.048350945 -0.03789013 0.0060616424 0.011959092 0.0016992261
0.06882694 0.010231626 0.025184676 0.030576622 0.00411418 0.068298385 0.012073531 0.057645164
-0.0016723751 0.07082299 0.032056563 -0.00072916516 0.043303 0.06777278 0.006548588 0.08151664

policy_model.0.bias f4 [128]
00000000: c7a6 95ba 2958 8e3d 7361 c4ba de70 3d39
00000010: 38ad b537 c461 1cb9 9c8c b6bb f4bb 27bc
00000020: 74db d23a 568b c4ba c5bc c4ba b7c7 6abc
00000030: f2c9 8abc d730 663c ac2f 8839 a860 b439
00000040: aeea e23b f988 8dbc f320 c4ba 3b16 bfba
00000050: 3635 3dbc 4f4a 06bc 2923 f93b e2d1 c7b9
00000060: a8d3 79bc eeb8 c4ba a4bc 42bc 261a 62bc
00000070: 19df 00bc 1567 c4ba 58a4 0ebc 0938 d0bb
00000080: 7742 60bc 5b5f ddbb 15b0 c4ba fb1c d5bb
00000090: 46e1 5eba e12d 9dba 8d73 90bc 7aa4 63bc
000000a0: 858a 873d 1837 6fbc 880b cc3b 9f86 c4ba
000000b0: 921f a8ba 9d1c 0c3d 01e3 84bc 380b 25bc
000000c0: 1ed6 18bc a14f 253b 8901 2abc ebc0 b3ba
000000d0: 1d50 76bb 51ec 833b 13c1 53bc 0000 0000
000000e0: 0000 0000 fc61 09bb 0a50 8cbc 1836 a7ba
000000f0: fe56 87bc d62d c3ba 2838 c4ba 21b0 783b
00000100: 64b4 7ebb 69b4 c4ba bbf0 e5ba 9d3b 7ebc
00000110: 4afd 0abc fd31 8cbb df95 00bc afe2 febb
00000120: fd62 83ba 76ae a9bb e95e 823a 5275 76bb
00000130: 0c4a c4ba 3787 82bc dc5d 77bc 1d9e c4ba
00000140: 48ca f23c daff 86bc 44ae 65bc 14b0 0bba
00000150: a1c9 ab3b 1274 98ba 7c9c 5bba 8307 d23d
00000160: 2981 26bc 920e 92bc 8456 c4ba e106 6bbb
00000170: 72ef a1b9 64d5 e9bb 58cf fbba 968e 14bc
00000180: 0625 8dbc 648c c4ba b693 7fbc e5fd 80bc
00000190: ee0e 1e3b 0895 25bc f66c 42bb ab4e a7bb
000001a0: e90f d1bb 2424 be3b c02a 3e3c d129 30bc
000001b0: b980 a7ba cf94 c4ba 635c dabb 940b 2ebc
000001c0: da86 2fbc 8659 e7b8 3d57 34ba 58f6 d8ba
000001d0: abae 05bc 61df 76bc 6681 a0ba c198 c2ba
000001e0: e8a4 54bc 22ad 2b3d ced0 a8ba 8c96 4b3b
000001f0: e2ef 6abb 4368 6bbb 709c c83b e6bc 48bb
-0.0011417501 0.06950409 -0.0014982655 0.00018066491 2.1657543e-05 -0.0001491374 -0.005570961 -0.010237683
0.0016087131 -0.0014995139 -0.0015009871 -0.014329842 -0.016941998 0.01404973 0.0002597546 0.0003440429
0.0069249487 -0.017277228 -0.0014963433 -0.0014578769 -0.011548331 -0.0081964275 0.0076030684 -0.00038112613
-0.015248217 -0.0015008727 -0.011885796 -0.01380018 -0.007865691 -0.0014984334 -0.008706175 -0.006354336
-0.013687721 -0.006755752 -0.001500609 -0.006503699 -0.0008502196 -0.0011991822 -0.017633224 -0.013894195
0.066182174 -0.014600538 0.0062269606 -0.0014993733 -0.0012826791 0.034206975 -0.016221525 -0.010073476
-0.009328393 0.0025224464 -0.010376343 -0.001371411 -0.0037584372 0.004025974 -0.01292445 0.0
0.0 -0.0020962944 -0.01712801 -0.001275721 -0.016520973 -0.001489098 -0.0014970349 0.0037946778
-0.0038864845 -0.001500738 -0.0017543057 -0.015517143 -0.00848324 -0.00427842 -0.007848232 -0.0077784876
-0.0010024008 -0.005178268 0.0009946498 -0.003760655 -0.0014975681 -0.015933616 -0.015098061 -0.0015000735
0.02963747 -0.016479421 -0.014018599 -0.0005328667 0.005242542 -0.0011631271 -0.0008377505 0.10255339
-0.01016263 -0.017829213 -0.0014979397 -0.0035862254 -0.00030886714 -0.007136034 -0.0019211574 -0.009067198
-0.017229568 -0.0014995453 -0.015599182 -0.015746066 0.0024117786 -0.010106333 -0.0029666997 -0.0051058135
-0.0063800705 0.005802648 0.011606872 -0.010752157 -0.0012779451 -0.0014997962 -0.0066638454 -0.010622878
-0.010713303 -0.000110316134 -0.00068794546 -0.0016552908 -0.00815932 -0.015067906 -0.0012245595 -0.001484655
-0.01297877 0.04191316 -0.0012879611 0.0031065075 -0.0035848548 -0.00359203 0.0061221644 -0.003063017

policy_model.2.weight f4 [8, 128]
00000000: daf4 ecba fef4 2abd 1218 e23a baf7 513a
00000010: b3fd 00bb f7a8 4e3a b385 7cbc 5a8c d0bb
00000020: 7a05 b63b d176 2ab9 e80b eeba cee0 b8bb
00000030: c7d1 afbb 6805 713b 489c 203b bd5b 9f3a
00000040: e50b 723b 4e92 e2bb d230 833a 73d5 29bb
00000050: 7733 b9bb b5bb efbb ea06 7f3c 1b31 393a
00000060: b614 f8bb 3444 d73a d2e5 2abb d05e dbbb
00000070: 758e 81bc 0a85 5aba 5b2a 05bc 3aeb ee39
00000080: a680 11bc 1dbc 1ebc 0e06 e63a de67 f7bb
00000090: 05f3 97ba 6e14 8f3a 2f64 e5bb 7005 09bc
000000a0: b362 76bd ed7a dbbb 7157 633b 04f9 c9ba
000000b0: 8bd7 a73a 981a 99bd 79f6 f9bb d9b3 3bbb
000000c0: 183d f1bb 555a 993b a89b f3bb f235 b5bb
000000d0: 3c32 913b 57cd 943b 0ec2 acbb 4779 6cb9
000000e0: b87e e23a 8e05 a63a a7f5 dabb 02a1 cdb7
000000f0: 75b3 d5bb ff1e f3b9 af07 2cba 6f25 883b
00000100: 1215 ffbb a1c0 863a 3bc9 7f3a 713a bdbb
00000110: 5ab8 d4bb e3c4 99bb 8d9e f2bb 0bbb 07bc
00000120: 689d 83b8 737f 493b 9966 f33a c5d4 47ba
00000130: 64fa 163b 6f1d 07bc 7ae5 a4bb 7bda 5e38
00000140: 8b8a d73c 3319 b7bb e169 e0ba 31b6 a03a
00000150: 6c64 8a3b 9965 923a 030f e4b8 561d a9bd
00000160: 0af3 b7bb 2783 d2bb 89de cd3a 40b5 f5bb
00000170: 53c4 1f3b df86 d7bb 0b95 9b3a a11f 75bc
00000180: 413a c5bb 51cb 613b 303b 95bb a18f e8bb
00000190: d8c6 743b 137c dbbb c539 373b fa35 9039
000001a0: 04f5 8238 2fad 6a3b d815 ebbc df73 ecbb
000001b0: 6df7 c1b8 4eff 133b c1e1 d3bb e058 85bb
000001c0: 6f3b 26bb be2c cdb8 3882 7e3b 50bf 463a
000001d0: 2013 cbba 0714 ccbb c119 7c3a c232 a6b9
000001e0: b3b1 eebb db22 97bd 0042 c6b9 a87d 37bb
000001f0: 4ac7 fdb8 88ce 0bbb 1a41 963b 9fc1 5e3a
00000200: 8aeb 8a3a 7625 0f3d 1045 2bba b222 39ba
00000210: fa44 d839 1d47 71ba e961 e13c 38dd 30bc
00000220: b428 0abc 649f 38b9 46b7 553b 71ed 15bc
00000230: 1b21 0ebc 2813 e2bb 0ada 28bb a26b aabb
00000240: ef76 1fbb 60d0 09bc d7f9 f23a d004 64ba
00000250: f036 44bc 7199 28bc c114 11bc 67a5 02ba
00000260: 0cfe 0cbc 1a7c 543a 6b00 60bb 9a15 febb
00000270: 9903 443b 18b8 c6ba 2a0b 29bc 1a58 363b
00000280: dc60 fabb 5b9f 8dbb d1cb 0f3a 9324 14bc
00000290: 1480 863a 0d9e afba 7e64 09bc 2c72 3dbc
000002a0: 4102 723d cf91 27bc f8b1 b5bb f5fc 2b3b
000002b0: 421a 2e39 214e 8bbc 465e 0cbc 4394 10bb
000002c0: e67d 11bc d45e 00bc fe10 53bc df88 8fba
000002d0: 4963 8abb 062e e7bb 30b0 23bc bc9b c63a
000002e0: a12c fc3a 9664 c63a fbf2 ecbb c918 27ba
000002f0: 5e4a 13bc 6348 7c39 2af0 b1ba d359 0abc
00000300: b917 cbbb cf88 3cba 9262 e6b9 cdfc 07bc
00000310: 1c4e 0abc 093f a2bb 0055 e9bb 0649 17bc
00000320: 635d f4ba 0cbd d83a 07d8 89bb 48ab 7fba
00000330: 64e8 6b3b f179 0dbc 3ee4 28bc a834 b4ba
00000340: 9ef2 a7bb 611e 0abc 686e 3bbb 34a4 a0ba
00000350: eaa5 e3bb 5f15 8eba 77ca bb3a ecfd ca3c
00000360: f799 22bc 9f77 21bc 9d1d d23a 3986 2ebb
00000370: b40e f1b8 9b64 30bc 5ca3 b4b9 f2b9 0b3b
00000380: 2b13 01bc fd37 e139 3bcf 05bc 6a3e 11bc
00000390: d2bf d9bb 27c6 2bbc f8a8 813b 007c aab8
000003a0: 26c3 e43b cfee cebb 9dd1 44bc 904f ffbb
000003b0: db59 3cba e767 5bba 7013 fdbb 6dc5 81bb
000003c0: 1b6c 15bb a982 2739 960f 083b b557 78bb
000003d0: 10a1 d9b8 99e8 12bc 4ec3 79ba 9b93 eeb8
000003e0: bd17 07bc 7f62 2bbc 02ab 2039 c13c 183b
000003f0: 0b33 a4ba 733b 44bb f97c 02bc b85f e5ba
-0.0018078343 -0.04173755 0.0017249605 0.00080096314 -0.0019682467 0.0007883454 -0.015412736 -0.0063643875
0.005554852 -0.00016256726 -0.0018161507 -0.005642033 -0.0053655836 0.0036776904 0.0024507213 0.0012158077
0.003693336 -0.0069144135 0.0010009056 -0.002591458 -0.005651887 -0.0073160776 0.015565613 0.0007064507
-0.0075708283 0.0016423524 -0.0026076925 -0.006694652 -0.015815 -0.00083358644 -0.008127774 0.00045570155
-0.00888077 -0.009688404 0.0017549412 -0.0075502237 -0.0011592811 0.0010916123 -0.007000468 -0.008363113
-0.06015272 -0.0066980035 0.003468957 -0.0015409295 0.0012805326 -0.074757755 -0.007628259 -0.0028641133
-0.0073620193 0.004679958 -0.007434327 -0.0055301124 0.004431037 0.00454108 -0.0052721566 -0.00022551893
0.0017280197 0.001266645 -0.006682116 -2.451288e-05 -0.006521637 -0.00046371666 -0.0006562424 0.004154853
-0.007784494 0.0010280797 0.00097574637 -0.005774789 -0.006491703 -0.00469266 -0.0074041546 -0.008284341
-6.275886e-05 0.0030746132 0.0018570005 -0.00076229527 0.0023037428 -0.008246764 -0.0050322386 5.31324e-05
0.02631118 -0.005587721 -0.0017121398 0.0012261329 0.004223397 0.0011169194 -0.00010874683 -0.082575485
-0.0056136893 -0.006424326 0.001570658 -0.0074984133 0.0024378493 -0.006577357 0.001186998 -0.014961154
-0.0060189073 0.0034453461 -0.004554175 -0.0070972 0.0037349965 -0.0066981404 0.0027958017 0.00027506036
6.244521e-05 0.0035808792 -0.02869694 -0.0072159613 -9.249044e-05 0.0022582593 -0.006466121 -0.0040694326
-0.0025365015 -9.7834956e-05 0.003883494 0.00075816084 -0.0015493371 -0.0062279734 0.0009616875 -0.00031699805
-0.007284367 -0.07379695 -0.00037814677 -0.002799848 -0.000121011006 -0.002133282 0.0045853974 0.000849748
0.001059876 0.034947835 -0.00065334234 -0.000706236 0.00041250122 -0.0009204017 0.027512508 -0.01079493
-0.008432556 -0.00017606985 0.003261046 -0.009150849 -0.008674885 -0.0068992563 -0.0025764727 -0.005200819
-0.0024332365 -0.008411497 0.0018537593 -0.0008698227 -0.011975989 -0.0102904895 -0.008855046 -0.00049837533
-0.008605491 0.0008105651 -0.0034179937 -0.00775404 0.002990937 -0.0015161065 -0.010317603 0.0027823509
-0.007640941 -0.004321975 0.0005485388 -0.009041923 0.0010261559 -0.0013398543 -0.008385776 -0.011562865
0.05908418 -0.010227635 -0.005544897 0.0026243303 0.00016603715 -0.017005028 -0.008567398 -0.0022061027
-0.008880114 -0.007835109 -0.012882469 -0.0010950825 -0.0042232615 -0.007055047 -0.009990737 0.0015152614
0.0019239375 0.0015136178 -0.007231114 -0.0006374238 -0.0089898985 0.00024059559 -0.0013575603 -0.008444267
-0.0061978963 -0.0007192017 -0.0004394246 -0.0083000185 -0.008441474 -0.004951362 -0.0071207285 -0.009233719
-0.0018643554 0.0016535833 -0.0042066607 -0.0009753001 0.003599667 -0.00863503 -0.010308323 -0.0013748603
-0.005125358 -0.008430094 -0.0028599743 -0.0012255968 -0.0069472687 -0.0010840109 0.0014327307 0.024779283
-0.009924403 -0.00985518 0.0016030554 -0.0026630296 -0.00011494514 -0.010766174 -0.00034453988 0.002132055
-0.007878105 0.0004295706 -0.008167083 -0.008864978 -0.006645181 -0.010484255 0.00395691 -8.1293285e-05
0.0069812713 -0.0063150893 -0.012012866 -0.007791467 -0.00071850204 -0.00083696697 -0.0077232644 -0.0039603026
-0.0022800032 0.00015975036 0.0020761243 -0.0037894074 -0.000103773666 -0.008966588 -0.0009527699 -0.00011376218
-0.008245406 -0.010460495 0.00015322494 0.0023229572 -0.0012527419 -0.002994266 -0.007964366 -0.001749984

policy_model.2.bias f4 [8]
00000000: 7c74 b3bc fc53 0d3c 44c0 163d b10e 3b3c
00000010: 3b7f 47bc 4fb1 32bb eff7 dc3c 583d 61bd
-0.02190613 0.0086259805 0.036804453 0.011417077 -0.01217633 -0.0027266329 0.026973693 -0.054990143
