results/short_race/second_iteration_training/model343.pt (torch, 276107 bytes, 13 tensors)

features_model.0.weight f4 [128, 4]
-0.062665954 0.15693413 0.06903579 -0.22160949 0.023559792 -0.06762554 -0.0023166556 0.05840026
0.1768964 0.016184596 -0.038086683 0.1891223 0.17551224 -0.074707426 -0.05746601 -0.0696832
0.0485439 -0.012021658 0.03422197 -0.09663128 0.0683519 0.045725398 0.23507454 -0.17630361
-0.20404191 0.0075460877 0.057083014 0.15863846 -0.056346692 0.07982446 0.04647439 0.15895735
-0.18559296 0.042866405 0.123470455 0.0046745855 -0.08141765 0.15218963 0.040576264 -0.27985248
0.045740053 0.15134065 0.18076937 0.06623092 0.14930469 -0.105422646 0.16356087 0.079120554
0.16034338 0.23320618 0.028782906 -0.123996854 -0.15707359 -0.057930768 -0.14555493 0.004431544
-0.11748913 0.20904343 -0.03567755 0.13798587 -0.20745435 -0.035470314 -0.30121097 0.030342514
0.12034903 -0.008148197 0.015364696 -0.13424535 -0.057527345 -0.23363775 -0.12482995 -0.034343265
-0.13208133 0.052503623 -0.081806175 -0.11823043 -0.08311139 -0.11778507 -0.2577766 -0.17164837
0.08222482 -0.099736035 -0.12765458 0.012821631 -0.24716271 -0.15894204 0.19288272 -0.005991504
0.058121413 0.122546144 -0.09452485 -0.050556213 -0.22567102 -0.09481931 -0.106344834 0.06427589
0.046709742 0.13554382 0.12663911 -0.25103295 -0.3818071 -0.20572478 0.07800427 -0.06906063
0.24378768 0.30542624 -0.029496502 0.16494107 -0.08578178 -0.07862568 -0.10485133 -0.026840992
-0.0058022966 0.072176486 -0.12975407 0.25032902 0.10806561 0.062217694 -0.12249952 -0.06332614
0.17741978 0.10904681 0.1700501 0.07511682 0.11982524 0.07580744 0.11248714 0.15609607
0.18905044 -0.25482756 0.05351228 0.11285597 0.1856977 -0.026989648 0.12348556 -0.03974998
0.03366541 0.050459802 0.23610534 0.16619064 0.07126947 -0.10156838 -0.009918413 -0.16478488
-0.092389055 -0.09058566 0.07992051 -0.026374465 -0.074770555 -0.092676446 -0.00044129236 0.11998376
-0.20621634 0.050132837 0.07735413 0.12169484 0.062856786 0.011353206 0.12558597 0.26626575
-0.07562362 0.081066206 -0.13205414 0.20079596 -0.048225477 -0.03791052 0.013732897 -0.2230992
0.06903642 -0.045522045 -0.0491116 -0.14399761 -0.122307345 0.06580636 0.12770136 0.015155228
-0.032483168 0.15193823 0.05021878 -0.047433168 -0.040743023 -0.104617216 -0.06858223 0.1235503
0.10314215 -0.0030287392 0.38721383 -0.11161981 0.0064693424 -0.008164294 0.121013 -0.0095662875
-0.20805202 -0.0035778321 -0.14643864 0.0032230152 0.23255454 -0.1262812 0.048031207 0.110129155
-0.20070803 -0.069754444 0.03117879 0.14648648 -0.29895744 0.09853572 0.1806188 0.02159704
0.20290019 0.27949467 -0.07058195 -0.059499126 0.2193261 -0.057161212 -0.050896067 -0.04071894
0.06369072 -0.007047093 0.09474974 -0.010503666 0.14887726 -0.00279825 0.19761385 0.321757
0.14990819 0.022413362 0.0021055525 -0.09778946 -0.057737466 0.0947883 0.13007481 0.007985956
-0.072421394 0.020049755 -0.058465533 0.030194314 0.13631704 0.08448845 0.14326961 0.20610622
-0.12756684 0.06899173 0.014108954 0.15094122 0.028199071 -0.06738231 -0.13728309 0.20966385
-0.09354659 0.1013465 0.052369677 -0.27614093 -0.20328067 0.102118015 -0.031266905 -0.10345298
00000000: 0257 80bd 57b3 203e a362 8d3d 99ed 62be
00000010: 7700 c13c 427f 8abd 08d3 17bb 1c35 6f3d
00000020: 5424 353e 8f95 843c c800 1cbd 47a9 413e
00000030: 7bb9 333e 3500 99bd 7b61 6bbd 11b6 8ebd
00000040: f8d5 463d 7df6 44bc 562c 0c3d 9fe6 c5bd
00000050: 15fc 8b3d 8e4a 3b3d 61b7 703e ef88 34be
00000060: 5df0 50be 2c45 f73b e1cf 693d 1f72 223e
00000070: cacb 66bd 027b a33d ee5b 3e3d b7c5 223e
00000080: 150c 3ebe af94 2f3d 14de fc3d 442d 993b
00000090: 4cbe a6bd 99d7 1b3e 4c33 263d d348 8fbe
000000a0: ec59 3b3d 0bf9 1a3e 9b1b 393e 14a4 873d
000000b0: 54e3 183e d4e7 d7bd 807c 273e f509 a23d
000000c0: 0e31 243e 9acd 6e3e 21ca eb3c 10f2 fdbd
000000d0: e6d7 20be d048 6dbd 5a0c 15be 7c36 913b
000000e0: 249e f0bd 7b0f 563e 9f22 12bd 2b4c 0d3e
000000f0: ea6e 54be 5249 11bd 5338 9abe dd90 f83c
00000100: 8d79 f63d 0480 05bc 35bc 7b3c 9d77 09be
00000110: cba1 6bbd bc3e 6fbe d8a6 ffbd 86ab 0cbd
00000120: 5440 07be 0a0e 573d ff89 a7bd cc22 f2bd
00000130: 4e36 aabd 4c39 f1bd 4bfb 83be 97c4 2fbe
00000140: 7d65 a83d 6842 ccbd e2b7 02be d111 523c
00000150: 3918 7dbe b4c1 22be 0c83 453e 6154 c4bb
00000160: b810 6e3d 79f9 fa3d 3f96 c1bd 0814 4fbd
00000170: 4e16 67be a030 c2bd 52cb d9bd 14a3 833d
00000180: b752 3f3d 00cc 0a3e afad 013e 6487 80be
00000190: 387c c3be 84a9 52be b4c0 9f3d a96f 8dbd
000001a0: 7aa3 793e d460 9c3e a6a2 f1bc 50e6 283e
000001b0: 5cae afbd 8006 a1bd 4bbc d6bd a4e1 dbbc
000001c0: 3121 bebb 44d1 933d 40de 04be 202b 803e
000001d0: 8151 dd3d fbd7 7e3d 07e1 fabd 23b1 81bd
000001e0: 88ad 353e ef53 df3d 9d21 2e3e d9d6 993d
000001f0: ef66 f53d ee40 9b3d a85f e63d a6d7 1f3e
00000200: 7096 413e c278 82be b12f 5b3d 0821 e73d
00000210: 8a27 3e3e 6519 ddbc ffe5 fc3d e0d0 22bd
00000220: bee4 093d f0ae 4e3d 99c5 713e e12d 2a3e
00000230: baf5 913d 1503 d0bd d780 22bc 5ebd 28be
00000240: 7936 bdbd f984 b9bd 5dad a33d 430f d8bc
00000250: 4e21 99bd 26cd bdbd 425d e7b9 0cba f53d
00000260: 602a 53be 1758 4d3d d86b 9e3d 253b f93d
00000270: 0fbb 803d cc02 3a3c 9c99 003e fc53 883e
00000280: 8ee0 9abd 0a06 a63d 3339 07be 759d 4d3e
00000290: 1488 45bd 1048 1bbd f2ff 603c 1e74 64be
000002a0: f762 8d3d 5375 3abd 3f29 49bd 1c74 13be
000002b0: 467c fabd 7cc5 863d 25c4 023e a24d 783c
000002c0: 120d 05bd b295 1b3e 35b2 4d3d 4849 42bd
000002d0: 28e2 26bd 8d41 d6bd d774 8cbd f107 fd3d
000002e0: 313c d33d d07d 46bb e440 c63e ed98 e4bd
000002f0: c7fc d33b 88c3 05bc aad5 f73d ebbb 1cbc
00000300: 970b 55be 107a 6abb 03f4 15be 3939 533b
00000310: c722 6e3e dc4f 01be 5fbc 443d 658b e13d
00000320: 6886 4dbe 6bdb 8ebd a96a ff3c 8d00 163e
00000330: f310 99be 18cd c93d 22f4 383e 47ec b03c
00000340: 11c5 4f3e ed19 8f3e 458d 90bd 5bb5 73bd
00000350: 0597 603e e021 6abd 6578 50bd e7c8 26bd
00000360: 4870 823d 4deb e6bb 270c c23d 9117 2cbc
00000370: 4873 183e d862 37bb 495b 4a3e 55bd a43e
00000380: 8881 193e 3a9c b73c 4ffd 093b d745 c8bd
00000390: 1f7e 6cbd 5e20 c23d 5532 053e 87d7 023c
000003a0: ab51 94bd 623f a43c 8e79 6fbd 115a f73c
000003b0: b296 0b3e 4808 ad3d 45b5 123e 820d 533e
000003c0: e2a0 02be 894b 8d3d 3e29 673c 5690 1a3e
000003d0: bd01 e73c bdff 89bd f093 0cbe 1fb2 563e
000003e0: 5b95 bfbd c18e cf3d 9681 563d 5862 8dbe
000003f0: cf28 50be 4023 d13d ba11 00bd 28df d3bd

features_model.0.bias f4 [128]
-0.0040007723 -0.012155179 0.004112542 -0.028033368 0.06557411 0.031326372 -0.018796913 0.0003791126
-0.0051511936 -0.023892151 0.018746043 -0.00045870946 0.0127583025 -0.03749307 -0.022909837 0.0068455436
0.05411153 -0.02577383 -0.05470951 -0.0017347534 -0.03147624 -0.04702565 0.01743231 -0.021523876
0.007384893 -0.022135079 0.008150165 -0.0006431415 0.017804211 0.039264716 0.0496809 0.04419256
-0.001982002 0.034377888 -0.0026049505 0.027899142 0.00609595 -0.014830522 -0.0107191615 0.018354215
0.036794595 0.01314473 0.04338251 -0.024778971 -0.010158458 -0.027891755 0.045734126 0.024537481
-0.02500694 0.039964806 -0.022367122 -0.0001685568 0.03946838 0.040892545 0.056164254 -0.0119859
0.030256689 0.0021434482 -0.0146208815 0.031925768 -0.012652932 -0.045472864 0.0055023218 -0.014295303
-0.029468877 -0.01152492 -0.02052803 0.008672262 0.020025741 -0.010322394 -0.06830636 -0.03029924
-0.029993957 -0.029588737 -0.040569417 -0.037015766 0.010495175 0.059256922 -0.006894313 0.018482102
-0.036043044 -0.031289406 0.018472316 -0.019130953 -0.041608572 -0.011756718 0.043221947 0.055624712
0.043279942 -0.02476395 -0.018715829 -0.000975343 -0.022890866 -0.023418957 -7.291522e-05 0.024370303
-0.043713994 0.000559888 -0.009873127 -0.00046322437 -0.023638852 0.010394881 0.08199784 -0.01595162
-0.02004582 0.0072803674 -0.029033918 -0.013161613 -0.0142299635 -0.0182522 -0.031252913 -0.016529953
-0.027358117 0.04786264 0.04099832 0.006019761 0.026682096 -0.003074818 -0.0025169349 -0.020909743
-0.02339076 0.03378144 0.043877475 -0.0010173621 -0.021374226 -0.008252528 0.008548071 0.004365575
00000000: e918 83bb 8426 47bc 81c2 863b 3ca6 e5bc
00000010: b84b 863d 1550 003d fcfb 99bc a2c3 c639
00000020: 58cb a8bb 79b9 c3bc 4d91 993c f17e f0b9
00000030: 3308 513c 5592 19bd 69ad bbbc 9550 e03b
00000040: 0da4 5d3d a423 d3bc 1417 60bd aa60 e3ba
00000050: 3bed 00bd f89d 40bd 34ce 8e3c d752 b0bc
00000060: f9fc f13b a054 b5bc 4588 053c 7f98 28ba
00000070: 23da 913c 0ad4 203d 337e 4b3d 4203 353d
00000080: 7ae4 01bb d4cf 0c3d d1b7 2abb be8c e43c
00000090: 89c0 c73b b8fb 72bc 6c9f 2fbc 945b 963c
000000a0: eeb5 163d fe5c 573c dcb1 313d 45fd cabc
000000b0: a96f 26bc 407d e4bc b553 3b3d d402 c93c
000000c0: 5bdb ccbc 23b2 233d 413b b7bc 9fbe 30b9
000000d0: 99a9 213d f17e 273d 7d0c 663d 8260 44bc
000000e0: e0dc f73c 1879 0c3b 6c8c 6fbc 98c4 023d
000000f0: 3e4e 4fbc c141 3abd d24c b43b d936 6abc
00000100: b768 f1bc 05d3 3cbc 662a a8bc 1a16 0e3c
00000110: 060d a43c 421f 29bc 34e4 8bbd 1d36 f8bc
00000120: e3b5 f5bc 1464 f2bc 1e2c 26bd d89d 17bd
00000130: f4f3 2b3c 63b7 723d b0e9 e1bb c767 973c
00000140: dfa1 13bd 5229 00bd 4153 973c 84b8 9cbc
00000150: c06d 2abd 409f 40bc 7f09 313d bdd6 633d
00000160: 4f46 313d c4dd cabc f051 99bc 29ae 7fba
00000170: a085 bbbc 1dd9 bfbc 10ea 98b8 3ba4 c73c
00000180: 720d 33bd 73c5 123a e5c2 21bc ecdc f2b9
00000190: 44a6 c1bc 4a4f 2a3c 7cee a73d f9ac 82bc
000001a0: 2237 a4bc 2690 ee3b 8ad8 edbc cea3 57bc
000001b0: cb24 69bc a385 95bc 0e03 00bd d369 87bc
000001c0: 211e e0bc 9e0b 443d dbed 273d 6a41 c53b
000001d0: 6994 da3c e382 49bb 29f3 24bb e94a abbc
000001e0: fb9d bfbc 685e 0a3d deb8 333d 0259 85ba
000001f0: 0019 afbc 9c35 07bc 350d 0c3c 190d 8f3b

features_model.2.weight f4 [128, 128]
0.17723307 -0.06345434 -0.06692702 0.11398097 0.17575598 0.054193344 -0.06446674 -0.13516988
0.0091487765 0.0080131795 -0.019386437 -0.008233229 -0.026130674 0.04246838 -0.1108374 0.10580974
-0.1328628 0.084762834 -0.05470964 -0.09564413 0.104801975 0.051563274 -0.0020114884 -0.05153736
0.046243384 -0.12186107 -0.051524356 0.27621642 -0.003990157 -0.107068025 0.0037061183 0.0567037
0.19507481 -0.018749429 -0.00065305404 0.009810631 -0.097492784 -0.22330205 -0.2023878 0.031586014
0.15781085 0.0067597693 0.1923536 0.08693011 0.082326755 0.15357052 -0.042623498 -0.007982516
0.16859254 0.29330012 0.14454724 0.18967727 -0.12287323 -0.039984535 -0.0734157 -0.22166726
-0.061254174 -0.11272891 -0.058763556 0.0888719 0.10971322 0.30065116 0.034984164 -0.23768438
0.21018542 0.042918257 -0.095567115 -0.059413314 -0.08322062 0.08415322 0.09481769 -0.2108207
-0.21994282 -0.13825648 -0.11291016 -0.034044843 -0.031012041 0.048097476 -0.09494836 -0.31028688
0.048510335 0.092180125 -0.1111756 0.03363405 0.19951285 0.19493431 -0.13413882 -0.07355118
0.05730138 0.053293195 -0.233918 -0.081163846 0.17559806 -0.06077572 -0.032837432 -0.11955448
-0.07159626 0.124535345 0.20753966 -0.18524669 0.13095565 -0.0063016326 0.08767931 0.2849571
0.17231703 -0.010608222 -0.17760435 -0.13682787 -0.12166035 0.16795166 -0.0495908 0.18298273
-0.086937584 -0.18697421 -0.045458302 -0.022970045 0.03744783 -0.13212478 -0.04488314 -0.14955755
-0.047058664 0.009082668 -0.07297484 0.052239913 -0.042005662 0.056076184 0.08338532 -0.07358195
-0.0633979 0.07475362 0.06725772 0.017355915 -0.06497555 0.08288664 0.08327215 -0.15740371
0.10112218 -0.2608974 -0.16654934 0.104338475 0.0059837247 0.026309598 0.1396077 -0.038451064
-0.017922036 0.036072582 0.057685126 -0.087458 -0.023188604 -0.15670256 -0.13037644 0.091173366
-0.069034636 -0.09907222 -0.15775624 -0.028138772 0.26454467 -0.16706267 -0.3488782 -0.098269224
0.056019377 0.017678602 -0.1212203 -0.055166785 0.063593335 -0.0031487145 0.16639638 -0.014750773
0.112985775 -0.18975826 0.01838378 0.1144779 0.010849055 -0.052551705 0.046845213 0.25312707
-0.14047045 0.03265621 0.028348917 -0.03795535 0.034802757 0.09165293 0.013134605 0.07244908
0.024480138 0.10836956 -0.09152128 0.03918583 0.22139876 -0.05002311 -0.23620014 0.3082736
0.058458317 0.004833085 0.005908642 -0.075650096 0.022370296 0.23272866 -0.2676107 -0.032693148
0.068816885 0.093971856 -0.17704166 0.13466278 0.0032406978 -0.012780615 -0.09804235 0.12002954
0.0043838737 0.16073297 0.054194164 0.29312122 0.039414313 -0.00708913 -0.16944759 0.06184513
0.24048805 -0.009067478 -0.04106855 -0.004030494 0.028808696 0.021477176 0.14006172 -0.14382777
-0.019789027 -0.09929275 0.1686241 -0.10917608 0.051378213 -0.08982966 -0.3333411 0.017100006
-0.06056744 -0.046666477 -0.19328472 0.22351211 -0.1027679 -0.029890437 -0.01624841 0.14685854
-0.06075859 -0.20100646 0.056125153 -0.10060978 0.17960036 0.1056995 0.1382605 -0.093321085
-0.0098551335 0.07319057 0.20910679 -0.011499345 -0.17306587 -0.23579232 -0.0321661 0.07290424
00000000: 967c 353e 59f4 81bd 0911 89bd db6e e93d
00000010: 60f9 333e d7f9 5d3d 2307 84bd f969 0abe
00000020: c0e4 153c b649 033c 4ed0 9ebc aae4 06bc
00000030: ff0f d6bc 53f3 2d3d b8fe e2bd c7b2 d83d
00000040: 300d 08be 2398 ad3d 3717 60bd 12e1 c3bd
00000050: 6ba2 d63d 0334 533d 2dd3 03bb d718 53bd
00000060: b469 3d3d 4c92 f9bd 340b 53bd 3d6c 8d3e
00000070: ddbf 82bb 7b46 dbbd 59e2 723b 2442 683d
00000080: b1c1 473e 6798 99bc b731 2bba c5bc 203c
00000090: 4caa c7bd 4ba9 64be bf3e 4fbe 5660 013d
000000a0: 2b99 213e 0e81 dd3b 58f8 443e 6a08 b23d
000000b0: ee9a a83d 9741 1d3e fa95 2ebd 19c9 02bc
000000c0: 86a3 2c3e 6f2b 963e 3104 143e c23a 423e
000000d0: f6a4 fbbd d3c6 23bd f85a 96bd befc 62be
000000e0: a8e5 7abd 6ade e6bd 0eb2 70bd 7902 b63d
000000f0: 53b1 e03d f3ee 993e 8e4b 0f3d 8963 73be
00000100: d93a 573e 0ecb 2f3d b1b8 c3bd 605b 73bd
00000110: 936f aabd 8658 ac3d c72f c23d 62e1 57be
00000120: b138 61be 1b93 0dbe 713d e7bd 9b72 0bbd
00000130: f70c febc dc01 453d 4974 c2bd ecdd 9ebe
00000140: c6b2 463d efc8 bc3d 08b0 e3bd dcc3 093d
00000150: 194d 4c3e dc9c 473e b05b 09be 00a2 96bd
00000160: dab4 6a3d f749 5a3d 3388 6fbe 3b39 a6bd
00000170: facf 333e f6ef 78bd 8b80 06bd fbd8 f4bd
00000180: 0fa1 92bd 630c ff3d 4785 543e 4fb1 3dbe
00000190: 3d19 063e ed7d cebb 3691 b33d e6e5 913e
000001a0: e073 303e 1cce 2dbc eadd 35be 9b1c 0cbe
000001b0: 1029 f9bd 85fb 2b3e b91f 4bbd d35f 3b3e
000001c0: 550c b2bd 2b76 3fbe 7c32 3abd ad2b bcbc
000001d0: e562 193d b84b 07be 62d7 37bd 9d25 19be
000001e0: 96c0 40bd 79cf 143c d573 95bd 85f9 553d
000001f0: 210e 2cbd 24b0 653d ecc5 aa3d 22b2 96bd
00000200: c2d6 81bd 6d18 993d 6abe 893d fe2d 8e3c
00000210: e711 85bd 79c0 a93d 978a aa3d 702e 21be
00000220: 2519 cf3d 5894 85be e98b 2abe 69af d53d
00000230: 1f13 c43b 3a87 d73c 52f5 0e3e dd7e 1dbd
00000240: 3cd1 92bc d8c0 133d 3d47 6c3d 2e1d b3bd
00000250: 07f6 bdbc a376 20be 6781 05be 1ab9 ba3d
00000260: 0862 8dbd 60e6 cabd da8a 21be 4883 e6bc
00000270: 6672 873e 7a12 2bbe 2aa0 b2be 6041 c9bd
00000280: 9374 653d b7d2 903c 5942 f8bd 91f6 61bd
00000290: 393d 823d aa5a 4ebb d063 2a3e 3aad 71bc
000002a0: 1665 e73d fd4f 42be 9599 963c 6473 ea3d
000002b0: 3cc0 313c 7540 57bd c4e0 3f3d df99 813e
000002c0: 7cd7 0fbe 85c2 053d fd3b e83c 1277 1bbd
000002d0: 568d 0e3d 88b4 bb3d 8732 573c 2f60 943d
000002e0: 928a c83c dcf0 dd3d 826f bbbd 5281 203d
000002f0: 5bb6 623e 08e5 4cbd 73de 71be 0ad6 9d3e
00000300: fd71 6f3d db5e 9e3b 489d c13b 70ee 9abd
00000310: e941 b73c 6c50 6e3e 4504 89be 40e9 05bd
00000320: deef 8c3d 5174 c03d 694a 35be 0ae5 093e
00000330: e361 543b c965 51bc 6dca c8bd 0cd2 f53d
00000340: 99a6 8f3b 2f97 243e b3fa 5d3d fc13 963e
00000350: e770 213d ef4b e8bb ab83 2dbe 5251 7d3d
00000360: 8042 763e c28f 14bc 7f37 28bd 3c12 84bb
00000370: 3700 ec3c e7f0 af3c 576c 0f3e 9647 13be
00000380: 991c a2bc ff59 cbbd ccab 2c3e b597 dfbd
00000390: f671 523d 9df8 b7bd afab aabe 5015 8c3c
000003a0: 9015 78bd 5925 3fbd 6eec 45be 5ce0 643e
000003b0: fa77 d2bd cadc f4bc 631b 85bc 1662 163e
000003c0: 00de 78bd a3d4 4dbe 7de3 653d 800c cebd
000003d0: 28e9 373e fb78 d83d 2994 0d3e 201f bfbd
000003e0: 6d77 21bc f0e4 953d 1720 563e c067 3cbc
000003f0: 2e38 31be 8b73 71be 9ac0 03bd d14e 953d

features_model.2.bias f4 [128]
-0.0071872184 0.018572073 -0.008046964 -0.039879933 -0.01668013 0.015606694 -0.006989556 0.0
0.019977814 0.00017698536 -0.021558193 0.029136367 -0.0046878164 -0.012496009 -0.006570116 0.014096552
-0.005014899 0.0335055 -0.008392653 0.08278104 -0.0041559734 0.01596504 -0.006543366 -0.045119293
0.0061656004 -0.015144863 -0.010498195 -0.011325365 -0.01838494 -0.01573939 -0.018945895 -0.017160013
-0.0040826118 0.07091564 -0.008858956 0.060127784 -0.021156615 -0.019761829 -0.008847203 -0.009785515
-0.01000955 -0.0016417264 -0.029356543 -0.00558791 0.021705672 -0.018219033 0.016961994 -0.012531319
-0.03385366 0.04476553 -0.007137777 -0.0018031038 -0.019279141 0.051147763 -0.01136402 -0.003463403
0.054237597 -0.022753326 0.03351834 -0.011062345 -0.017914081 0.044353064 -0.0020731138 0.002623581
-0.010159974 -0.02216196 -0.00068455894 -0.018905658 -0.0034850019 0.05870151 -0.002613553 0.0023605719
-0.021574669 -0.013641106 0.009600387 -0.020284953 0.010956138 0.0029725747 0.06977673 -0.019181393
0.0 -0.011323175 -0.014445979 -0.009428298 -0.0081255 0.005137944 -0.020222249 -4.5060624e-06
0.031072956 -0.0028522913 -0.036624122 0.0035678633 0.039605234 -0.02227686 -0.017210878 0.008363022
-0.00987586 -0.01894887 -0.011556257 -0.00031803263 -0.040246505 -0.033792555 0.0 -0.0367938
0.013007593 -0.0077622714 -0.0016732581 -0.036188345 0.004410256 -0.015943622 0.057249635 -0.04100259
-0.021112606 -0.017799456 -0.015092411 0.0025736934 -0.008037783 0.003887547 -0.008278021 -0.030060166
0.007264111 -0.0184706 -0.019024465 -0.011316222 0.00026375777 0.046144355 0.0 -0.01276607
00000000: c282 ebbb 7624 983c 6ad7 03bc 2459 23bd
00000010: c5a4 88bc 38b3 7f3c a508 e5bb 0000 0000
00000020: 83a8 a33c 2595 3939 cf9a b0bc 64af ee3c
00000030: 419c 99bb 0fbc 4cbc 214a d7bb 39f5 663c
00000040: 0654 a4bb 103d 093d 5781 09bc 1b89 a93d
00000050: d52e 88bb 1ec9 823c bb69 d6bb 02cf 38bd
00000060: ce08 ca3b 2922 78bc 9f00 2cbc 068e 39bc
00000070: 049c 96bc e5ef 80bc 6c34 9bbc 2893 8cbc
00000080: 6ec7 85bb 383c 913d 2825 11bc 8d48 763d
00000090: a350 adbc 8fe3 a1bc dcf3 10bc 6d53 20bc
000000a0: 18ff 23bc 322f d7ba 227d f0bc c91a b7bb
000000b0: 18d0 b13c 1540 95bc e1f3 8a3c 2950 4dbc
000000c0: 23aa 0abd 0f5c 373d 03e4 e9bb 2056 ecba
000000d0: 4aef 9dbc 5180 513d 2830 3abc 43fa 62bb
000000e0: 3e28 5e3d 2f65 babc 874a 093d d63e 35bc
000000f0: 8dc0 92bc 8fab 353d 14dd 07bb 63f0 2b3b
00000100: 0576 26bc 008d b5bc f973 33ba 0ae0 9abc
00000110: a164 64bb ff70 703d 2548 2bbb d3b3 1a3b
00000120: 5cbd b0bc f27e 5fbc f14a 1d3c a12c a6bc
00000130: 6081 333c 87cf 423b 1ae7 8e3d 4c22 9dbc
00000140: 0000 0000 d784 39bc d4ae 6cbc 2679 1abc
00000150: d120 05bc 335c a83b 21a9 a5bc c832 97b6
00000160: b68c fe3c 82ed 3abb 2d03 16bd d0d2 693b
00000170: 1939 223d f67d b6bc d4fd 8cbc 0e05 093c
00000180: 5cce 21bc a93a 9bbc 7456 3dbc 9ebd a6b9
00000190: 85d9 24bd 106a 0abd 0000 0000 18b5 16bd
000001a0: cd1d 553c a75a febb 3a51 dbba 3b3a 14bd
000001b0: e983 903b 339c 82bc 987e 6a3d 55f2 27bd
000001c0: 58f4 acbc 2ad0 91bc 2946 77bc 69ab 283b
000001d0: e8b0 03bc 37c6 7e3b 89a0 07bc bd40 f6bc
000001e0: c807 ee3b a84f 97bc 32d9 9bbc ad67 39bc
000001f0: f848 8a39 dd01 3d3d 0000 0000 c728 51bc

features_model.4.weight f4 [128, 128]
0.14226091 0.0108753275 0.06570638 -0.055814307 -0.009134234 -0.2212898 -0.25507808 0.0044812425
-0.062041894 0.034205414 -0.05830333 -0.15120468 -0.049578473 -0.049964525 -0.010388272 -0.02267386
0.13969985 0.10501544 -0.21920362 0.07577448 0.057863154 -0.2856289 -0.15004617 0.08769938
-0.10118565 0.08645527 0.37604472 -0.018307831 0.11431582 0.12042761 -0.026224192 -0.024495855
0.0484746 -0.19950163 0.19332422 0.21099599 -0.18734257 -0.059055317 -0.01623792 0.035443682
-0.016498541 0.02325078 0.3348382 -0.13415678 0.076699436 0.17809413 -0.02743718 0.16192494
-0.21929206 0.031474248 0.05423683 0.05328244 -0.03443071 -0.13929391 -0.07270351 0.11038729
-0.050205886 -0.31544036 0.17237169 0.05200772 -0.14696085 -0.046492096 0.03794856 -0.036095675
-0.14549407 -0.08764644 0.03791722 -0.055470254 0.08720546 0.059080683 0.10450981 0.15736838
-0.1316805 -0.08577043 -0.021511363 0.06027428 -0.30480546 0.030593565 -0.08302404 -0.14036208
0.21276473 0.19581422 -0.007218653 0.005067342 0.022193005 -0.12323485 0.018201647 0.060165886
0.01338196 -0.1305381 0.061218977 0.04086779 -0.13310567 -0.10425852 -0.04531739 0.10068935
0.036191814 0.08484276 0.0010993398 0.0069092815 -0.043863088 -0.04459095 -0.11110716 0.08897221
-0.033012334 -0.19451094 -0.18694378 -0.031062845 -0.12923089 -0.12896688 0.24256134 0.14771251
0.0066169715 0.07433762 -0.02403975 0.05561123 -0.12778375 0.11448078 0.1464431 -0.08955843
0.10780673 -0.1191216 0.15002084 -0.2265763 -0.16105655 -0.13198636 -0.14005333 -0.040163558
-0.04099931 -0.11982376 0.11385444 -0.086863026 -0.13424669 -0.055800147 0.1654978 -0.14850345
-0.21561919 -0.06884798 0.03222327 -0.18357791 -0.056118112 0.13729872 0.033637516 0.017579027
-0.15444866 -0.065772325 0.28291377 -0.08596636 0.11906184 0.08400561 -0.07087613 0.21687213
0.07291945 0.097327895 -0.11897425 -0.033870578 -0.19182764 0.16333912 0.048813652 -0.08742551
-0.03364008 -0.13884632 0.030421108 -0.026874855 0.26308864 -0.043371074 -0.0029950244 -0.28308174
0.006640397 -0.019992538 0.080800585 0.1903892 0.40951124 0.03983334 -0.034751978 -0.07284056
0.12402967 -0.22679414 -0.15442578 -0.3608513 0.06519541 -0.17778975 0.032159183 0.20789821
0.15048315 -0.007633675 -0.08075144 -0.097920135 0.22732723 0.25435585 0.078537114 -0.1013575
0.068247736 -0.026989816 -0.0026279453 0.09031529 0.17216904 -0.17995471 0.14000304 0.072907396
-0.039019335 0.08667566 -0.053119924 0.067515895 -0.1033098 -0.093859896 0.08083081 -0.13352783
0.09335628 -0.0011154767 -0.0132168615 -0.035792567 0.015608438 -0.1314289 -0.034324635 -0.19370715
0.13614282 0.21041468 0.039107945 0.15249273 0.07820451 0.009445942 -0.06902717 0.0025706799
-0.008423747 0.1385851 -0.0129541345 -0.06783741 0.21781313 0.035272572 -0.19973753 -0.0110070035
0.11664074 -0.035734642 -0.0061877826 -0.16278881 -0.11211237 0.04056775 -0.038526468 0.029923188
0.0879332 -0.12859325 0.08543822 0.08082 -0.01741462 -0.074971505 0.15932427 -0.11212321
0.18502721 0.05289567 -0.013922308 -0.07279745 -0.1268272 -0.11089133 -0.034400105 0.20957494
00000000: d8ac 113e 6e2e 323c 1191 863d 8b9d 64bd
00000010: c1a7 15bc cb99 62be 9899 82be 63d7 923b
00000020: a41f 7ebd fa1a 0c3d 79cf 6ebd 66d5 1abe
00000030: cc12 4bbd 9aa7 4cbd 9233 2abc 88be b9bc
00000040: 7a0d 0f3e 5612 d73d ea76 60be a72f 9b3d
00000050: ea01 6d3d f43d 92be b4a5 19be bc9b b33d
00000060: 6c3a cfbd 760f b13d ef88 c03e 4efa 95bc
00000070: 6a1e ea3d c0a2 f63d 1ed4 d6bc 88ab c8bc
00000080: 4d8d 463d 284a 4cbe c9f6 453e 550f 583e
00000090: bbd6 3fbe fde3 71bd 6305 85bc 652d 113d
000000a0: f327 87bc 6b78 be3c ea6f ab3e 6560 09be
000000b0: 9814 9d3d 4f5e 363e f0c3 e0bc a7cf 253e
000000c0: 198e 60be 24eb 003d 7027 5e3d b03e 5a3d
000000d0: 3707 0dbd 10a3 0ebe 94e5 94bd bb12 e23d
000000e0: b0a4 4dbd 6681 a1be 3482 303e 0c06 553d
000000f0: e87c 16be 7f6e 3ebd f36f 1b3d 0fd9 13bd
00000100: 66fc 14be fa7f b3bd 164f 1b3d c734 63bd
00000110: c798 b23d 96fe 713d 3d09 d63d 2d25 213e
00000120: 41d7 06be 68a8 afbd 9938 b0bc 2ae2 763d
00000130: 760f 9cbe 5b9f fa3c 8208 aabd 14bb 0fbe
00000140: ffde 593e 8683 483e 738a ecbb f20b a63b
00000150: 1bce b53c 8e62 fcbd 9f1b 953c 8170 763d
00000160: 0240 5b3c c8ab 05be c0c0 7a3d fc64 273d
00000170: da4c 08be 7e85 d5bd ba9e 39bd 3836 ce3d
00000180: de3d 143d 0ac2 ad3d b917 903a 4167 e23b
00000190: c8a9 33bd 00a5 36bd 278c e3bd 1037 b63d
000001a0: f137 07bd e02d 47be 316e 3fbe 8277 febc
000001b0: 1a55 04be e50f 04be 0062 783e f341 173e
000001c0: 2ed3 d83b 523e 983d 03ef c4bc 9ac8 633d
000001d0: bed9 02be e674 ea3d 2ef5 153e 696a b7bd
000001e0: c6c9 dc3d 07f6 f3bd 109f 193e 9e03 68be
000001f0: 02ec 24be 6f27 07be 246a 0fbe 8b82 24bd
00000200: e4ee 27bd 2966 f5bd 842c e93d 3ee5 b1bd
00000210: f777 09be b28e 64bd 4178 293e 4a11 18be
00000220: 47cb 5cbe 2b00 8dbd 8cfc 033d d9fb 3bbe
00000230: 1bdc 65bd 0998 0c3e 7ec7 093d e401 903c
00000240: ca27 1ebe a4b3 86bd 13da 903e 220f b0bd
00000250: b2d6 f33d 220b ac3d 8127 91bd ba13 5e3e
00000260: cb56 953d d953 c73d c6a8 f3bd e0bb 0abd
00000270: 776e 44be 5f42 273e d3f0 473d 250c b3bd
00000280: 2eca 09bd bb2d 0ebe b035 f93c a828 dcbc
00000290: 8eb3 863e dea5 31bd 2c48 44bb 17f0 90be
000002a0: b097 d93b 64c7 a3bc c77a a53d 63f5 423e
000002b0: 75ab d13e 4928 233d 1758 0ebd 6e2d 95bd
000002c0: 4503 fe3d b93c 68be cb21 1ebe 80c1 b8be
000002d0: 2c85 853d 840e 36be 59b9 033d 45e3 543e
000002e0: 4118 1a3e e823 fabb 0361 a5bd 5a8a c8bd
000002f0: 78c8 683e ee3a 823e 11d8 a03d 8594 cfbd
00000300: 78c5 8b3d bf19 ddbc 9b39 2cbb 39f7 b83d
00000310: 154d 303e 0c46 38be f55c 0f3e 7950 953d
00000320: bdd2 1fbd 0283 b13d 4794 59bd c645 8a3d
00000330: 1794 d3bd 9e39 c0bd a08a a53d 85bb 08be
00000340: 9431 bf3d 3035 92ba 898b 58bc 3a9b 12bd
00000350: 89ba 7f3c 4c95 06be fd97 0cbd 2b5b 46be
00000360: 0669 0b3e f276 573e a72f 203d 0e27 1c3e
00000370: b029 a03d 27c3 1a3c 1e5e 8dbd da78 283b
00000380: c103 0abc 41e9 0d3e 943d 54bc 57ee 8abd
00000390: 680a 5f3e f979 103d ff87 4cbe b856 34bc
000003a0: 57e1 ee3d 7d5e 12bd e2c2 cabb 1cb2 26be
000003b0: 2c9b e5bd 5e2a 263d eecd 1dbd 7921 f53c
000003c0: 5216 b43d f3ad 03be 3cfa ae3d f584 a53d
000003d0: 1ba9 8ebc a98a 99bd e725 233e dba0 e5bd
000003e0: c677 3d3e 21a9 583d 641a 64bc d416 95bd
000003f0: fdde 01be fe1a e3bd 20e7 0cbd d09a 563e

features_model.4.bias f4 [128]
-0.021772068 -0.016610028 -0.01862838 -0.021164754 0.019396406 -0.013766632 -0.015762944 -0.012675445
-0.018968383 -0.009140956 -0.007982935 0.05679818 -0.009486121 0.037153497 0.009636593 -0.028389847
-0.011398187 -0.00076784304 -0.0075255996 0.052370265 -0.004546798 0.05863115 -0.010266859 -0.0086386
0.049403206 -0.005520931 -0.01268846 0.0059884735 -0.02527764 -0.0065967403 0.030442996 -2.7127317e-05
-0.01518487 0.053585712 -0.013649703 0.045533556 0.0029193638 0.0 0.012747223 -0.02440334
-0.011221895 -0.010832507 0.010881119 -0.0007444429 -0.015595397 -0.011231496 -0.0074887243 0.042211346
-0.025790157 0.0 -0.010217828 -0.020416081 -0.01703918 0.0062194555 -0.022016188 -0.017595906
0.0 -0.028968437 -0.026038388 0.012549375 -0.0008956556 -0.01837996 -0.00941755 -0.025686724
0.046743058 0.012950421 0.07181377 0.011593106 -0.0021977723 0.029035067 0.030578546 -0.01626075
-0.012438651 -0.020920832 -0.01349359 0.014974867 0.001218668 0.03330263 0.0035937678 -0.016289428
0.021986997 -0.002243376 0.016390258 -0.02109146 -0.018307878 -0.01733002 0.03977598 0.07196452
-0.021202711 -0.026847782 -0.0146791255 0.010125157 0.0037667702 -0.026202314 0.00437149 -0.027010368
-0.0050384034 0.040005278 -0.010152723 0.008148852 -0.025234431 -0.026014484 0.006617902 0.018284306
0.017692577 -0.006760001 -0.0028203463 -0.011792248 0.0005518977 -0.025948621 -0.013690197 -0.008984817
0.006655013 -0.0087668225 -0.019517167 0.014363871 -0.021256493 0.046326317 -0.017269766 0.077588044
-0.0026171904 0.04025046 0.0095216315 0.0 0.05961398 0.064796865 -0.012763213 0.038955342
00000000: 565b b2bc c111 88bc 8b9a 98bc b561 adbc
00000010: 36e5 9e3c 718d 61bc 4a21 81bc abac 4fbc
00000020: 9563 9bbc f3c3 15bc dbca 02bc 35a5 683d
00000030: ad6b 1bbc 442e 183d cde2 1d3c d391 e8bc
00000040: 76bf 3abc 1349 49ba 4e99 f6bb 3482 563d
00000050: 4efd 94bb 3727 703d 5436 28bc ea88 0dbc
00000060: 045b 4a3d ede8 b4bb 42e3 4fbc f53a c43b
00000070: 0e13 cfbc 7829 d8bb 9763 f93c 788f e3b7
00000080: f6c9 78bc b17c 5b3d 01a3 5fbc 6581 3a3d
00000090: cc52 3f3b 0000 0000 bad9 503c 83e9 c7bc
000000a0: 0adc 37bc d47a 31bc b946 323c b826 43ba
000000b0: d683 7fbc 4f04 38bc f963 f5bb cee5 2c3d
000000c0: e145 d3bc 0000 0000 ad68 27bc a03f a7bc
000000d0: c095 8bbc 93cc cb3b 4b5b b4bc 4a25 90bc
000000e0: 0000 0000 374f edbc 754e d5bc e59b 4d3c
000000f0: 6eca 6aba 9291 96bc 114c 1abc f76c d2bc
00000100: a675 3f3d 012e 543c 1913 933d 03f1 3d3c
00000110: 8008 10bb f3da ed3c dc7f fa3c 4435 85bc
00000120: 7ccb 4bbc 2a62 abbc 3814 5dbc 2559 753c
00000130: b6bb 9f3a 5768 083d 6b85 6b3b 6871 85bc
00000140: 131e b43c 9b05 13bb dd44 863c ffc7 acbc
00000150: 67fa 95bc b0f7 8dbc 23ec 223d 2262 933d
00000160: 4fb1 adbc e1ef dbbc b780 70bc fde3 253c
00000170: ebdb 763b 3ca6 d6bc b73e 8f3b d944 ddbc
00000180: 3119 a5bb 93dc 233d 9b57 26bc c382 053c
00000190: 70b8 cebc 541c d5bc fcda d83b f8c8 953c
000001a0: 06f0 903c 0083 ddbb 8fd5 38bb 4634 41bc
000001b0: 3aad 103a 3492 d4bc d94c 60bc 0e35 13bc
000001c0: 4c12 da3b b8a2 0fbc 77e2 9fbc 7156 6b3c
000001d0: 1922 aebc aac0 3d3d 5379 8dbc 7be6 9e3d
000001e0: 2b85 2bbb abdd 243d 9e00 1c3c 0000 0000
000001f0: ca2d 743d 38b4 843d cc1c 51bc a38f 1f3d

policy_model.0.weight f4 [128, 128]
0.0019041691 0.0024805828 -0.0017797013 -0.0014851048 -0.0005470242 -0.002136836 -0.0025834194 -0.001286043
-0.0017655767 0.0016516428 -0.0011577907 -0.0018487186 -0.0021873172 0.00026514032 -0.0025721453 -0.0016344155
-0.0029211317 0.00042798909 -0.0011925537 -0.0034998828 0.0029534956 -0.0045777876 -0.0023383845 0.000108697786
3.7825404e-05 -0.001280686 -0.001212793 -0.0014393193 -0.0018453873 0.001336102 -0.0053206263 -0.00010460901
-0.0001005613 -0.0036774098 0.0004252481 -0.0043032537 -8.8569184e-05 -0.0009175332 -0.005088068 -0.002913615
-0.0002043278 -0.0009938407 -0.0007324342 0.0024067056 0.00018058713 0.0002981132 0.0016343492 -0.0008851129
-0.0006749896 -0.0011464959 -0.001893757 -0.0020893896 -0.001219487 0.0011463582 -0.0018734874 0.0006987973
-0.0006750936 -0.003426491 -0.0019130429 -0.002387654 -0.0017857933 -0.0016481562 -0.0007326067 -0.0007741634
0.0010741228 0.0018265333 0.002845373 -0.0024121713 6.480503e-05 -0.007156652 -0.005558174 -0.0014492677
0.0019031012 0.0009416681 -0.0025673022 0.0012486377 -7.9757076e-05 -0.00047776717 0.001456526 -0.0017560024
0.00091564865 0.0002116744 -0.0004556147 -0.0010172873 -0.0021765388 0.00214445 -0.008361451 -0.006354316
-0.0017417029 0.0029832325 -0.0016901663 -0.002829627 0.0015257779 -0.0028095054 -0.0009832644 0.0008342982
-0.0010005275 -0.0056664776 0.0018725243 0.00017859122 0.00021279081 -0.0017853801 -0.00062931224 0.00015347205
-0.001344987 -0.0017630568 0.0014188024 -0.002373475 0.00049916765 -0.00039144434 0.0012438631 -0.0027554878
-0.00027593836 -0.0032707232 0.00032172995 -0.0025928097 -0.0018837554 -0.0070071523 -0.0014994901 -0.00462014
-0.0021421327 -0.0068807392 1.5554751e-05 0.00015968697 -0.0060613193 -0.004441308 -0.00017306008 -0.0018065218
-0.05342119 -0.010502547 -0.0088022975 -0.009636282 0.042396266 -0.002557954 -0.0010540007 -0.0099183135
0.015845424 -0.01755942 -0.012666056 0.035238925 0.022135409 0.020210199 0.040836304 0.004232393
0.019028675 0.013882603 0.00057907234 0.050949518 0.0012575317 0.060693614 -0.011796225 0.006052813
0.05308086 0.007712582 0.005588237 0.030302906 -0.0087796 -0.01730598 0.05123546 0.028725391
-0.0069628176 0.0015715593 -0.0072389757 0.055354934 -0.019121535 -0.0005363126 0.04643621 -0.008193874
-0.013813357 0.015798852 0.036344778 -0.00854648 0.0016226969 0.017914822 -0.024277834 0.053091206
0.0073455153 -0.00087390986 0.0065257517 0.010937496 -0.0061561954 0.022098307 -0.007365193 -0.0089168055
0.00013949178 -0.017070042 0.0059985924 0.03656242 0.00073239143 0.00589265 -0.00040959468 -0.003859111
-0.04989608 0.029069971 0.040777266 -0.009858166 0.001011041 0.042865742 0.052771218 0.026105165
-0.0017792763 -0.018909533 -0.009785763 0.045666594 0.0012070519 0.060056303 -0.020112107 0.00412394
0.021738026 -0.03954489 -0.019608099 -0.009038258 0.0023899958 -0.0070686047 0.041786924 0.03447368
-0.018157717 -0.005388875 0.029542416 0.004081431 0.01946641 -0.016884284 0.0011703845 -0.02523708
0.025335303 0.050136454 -0.0027515527 -0.0109290145 -0.013651272 0.007913857 0.030554483 0.050215866
-0.0072221286 0.04696329 0.037256546 0.008608381 -0.020450342 -0.0068153483 -0.014392506 -0.012663198
0.042829376 0.0054317815 -0.0007743015 0.004001777 -0.0129053835 0.052671447 0.011477206 0.033254027
-0.0016723751 0.052967902 0.016539851 -0.00072916516 0.044060092 0.04781702 -0.01558298 0.06128276
00000000: 5095 f93a 4691 223b de44 e9ba d9a7 c2ba
00000010: 2c66 0fba 290a 0cbb 964e 29bb 7190 a8ba
00000020: ec6a e7ba f07b d83a 02c1 97ba b450 f2ba
00000030: 1859 0fbb 8802 8b39 7091 28bb e239 d6ba
00000040: 7570 3fbb b963 e039 764f 9cba 4a5e 65bb
00000050: 6f8f 413b 4401 96bb 953f 19bb aef4 e338
00000060: b8a6 1e38 b1dc a7ba 95f6 9eba 8ba7 bcba
00000070: ece0 f1ba 2520 af3a a658 aebb 8961 dbb8
00000080: 70e4 d2b8 b300 71bb d5f3 de39 4f02 8dbb
00000090: 38be b9b8 9c86 70ba cfb9 a6bb 59f2 3ebb
000000a0: d340 56b9 c343 82ba d400 40ba d2b9 1d3b
000000b0: fd5b 3d39 144c 9c39 a937 d63a ec06 68ba
000000c0: c9f1 30ba 0546 96ba f137 f8ba 24ee 08bb
000000d0: 32d7 9fba 6641 963a ce8f f5ba 7e2f 373a
000000e0: c4f8 30ba fb8e 60bb 11bf faba 307a 1cbb
000000f0: 4811 eaba f206 d8ba 670c 40ba 3af1 4aba
00000100: 95c9 8c3a 4a68 ef3a 7079 3a3b 8515 1ebb
00000110: f0e7 8738 5982 eabb 5821 b6bb 5bf5 bdba
00000120: 7b71 f93a 47da 763a 2f40 28bb 54a9 a33a
00000130: 4143 a7b8 d37c fab9 e7e8 be3a aa29 e6ba
00000140: 2408 703a eaf4 5d39 92df eeb9 7f56 85ba
00000150: 43a4 0ebb e789 0c3b 78fe 08bc de37 d0bb
00000160: da49 e4ba 5682 433b 9288 ddba 4371 39bb
00000170: 9cfc c73a ae1f 38bb e1e0 80ba ceb4 5a3a
00000180: 2224 83ba dcad b9bb 7d6f f53a 3744 3b39
00000190: 9920 5f39 6a03 eaba 6ef8 24ba 57ed 2039
000001a0: 464a b0ba 5f16 e7ba 1cf7 b93a 4e8c 1bbb
000001b0: 93da 023a c53a cdb9 1f09 a33a 6a95 34bb
000001c0: d2ab 90b9 a159 56bb ddad a839 21ec 29bb
000001d0: 58e8 f6ba 419c e5bb 8a8a c4ba 8b64 97bb
000001e0: 0663 0cbb d377 e1bb 937b 8237 a571 2739
000001f0: 089e c6bb 6488 91bb 7677 35b9 d0c8 ecba
00000200: 2dd0 5abd e012 2cbc 8337 10bc 7fe1 1dbc
00000210: b5a7 2d3d 59a3 27bb 6526 8aba 6c80 22bc
00000220: 43ce 813c c6d8 8fbc 4a85 4fbc b156 103d
00000230: 5155 b53c dc8f a53c f843 273d e3af 8a3b
00000240: 06e2 9b3c db73 633c e3cc 173a 71b0 503d
00000250: c3d3 a43a de99 783d f444 41bc ad56 c63b
00000260: 516b 593d d4b9 fc3b 881d b73b cd3d f83c
00000270: 50d8 0fbc 45c5 8dbc 46dc 513d 8351 eb3c
00000280: 5928 e4bb c8fc cd3a ee34 edbb dbbb 623d
00000290: c4a4 9cbc 5497 0cba e533 3e3d 993f 06bc
000002a0: 6b51 62bc 986c 813c 43de 143d 8906 0cbc
000002b0: acb0 d43a 1bc2 923c 4fe2 c6bc 2a76 593d
000002c0: a6b2 f03b 1917 65ba f9d5 d53b 2f33 333c
000002d0: e9b9 c9bb 8207 b53c b857 f1bb cb17 12bc
000002e0: 8a44 1239 79d6 8bbc d78f c43b 7ac2 153d
000002f0: f5fd 3f3a 2217 c13b debe d6b9 24e9 7cbb
00000300: d55f 4cbd 2624 ee3c 1006 273d 2584 21bc
00000310: e884 843a fd93 2f3d a226 583d 80da d53c
00000320: 9b36 e9ba 2ae8 9abc 7754 20bc e50c 3b3d
00000330: f135 9e3a 99fd 753d 25c2 a4bc 1e22 873b
00000340: f213 b23c d3f9 21bd 2aa1 a0bc 3415 14bc
00000350: 7aa1 1c3b c19f e7bb c428 2b3d 4634 0d3d
00000360: 7ebf 94bc 2995 b0bb f002 f23c 86bd 853b
00000370: 0578 9f3c e950 8abc 9667 993a febd cebc
00000380: fb8b cf3c e25b 4d3d 6553 34bb 9c0f 33bc
00000390: 96a9 5fbc 1fa9 013c 654d fa3c 27af 4d3d
000003a0: 9ba7 ecbb 945c 403d 529a 183d 2b0a 0d3c
000003b0: 7a87 a7bc 4953 dfbb 8cce 6bbc 4d79 4fbc
000003c0: db6d 2f3d 16fd b13b 7efa 4aba 5721 833b
000003d0: 1a71 53bc 04be 573d e40a 3c3c 6035 083d
000003e0: 9933 dbba dff4 583d 957e 873c 7225 3fba
000003f0: 5b78 343d c8db 433d c14f 7fbc a203 7b3d

policy_model.0.bias f4 [128]
-0.0011417501 0.0441688 -0.0014982655 0.00018066491 2.1657543e-05 -0.0001491374 -0.005513143 -0.0069825123
0.0016087131 -0.0014995139 -0.0015009871 -0.0126380455 -0.014672631 0.01404973 0.00026945322 0.0003440429
0.0069249487 -0.015155156 -0.0014963433 -0.0014578769 -0.008678939 -0.004674999 0.0076030684 -0.00038112613
-0.012907955 -0.0015008727 -0.011440567 -0.011262856 -0.0076878974 -0.0014984334 -0.005800005 -0.006354336
-0.011376901 0.0011753273 -0.001500609 -0.0012140581 -0.0008502196 -0.0011991822 -0.015395007 -0.012326447
0.036424864 -0.011305188 0.0062269606 -0.0014993733 -0.0012826791 0.019758217 -0.013942175 -0.007656593
-0.005913141 0.0025421355 -0.007960626 -0.001371411 -0.0037584372 0.004025974 -0.009903315 0.0
0.0 -0.0020962944 -0.013322718 -0.001275721 -0.013867421 -0.001489098 -0.0014970349 0.0037946778
0.004299235 -0.001500738 -0.0017543057 -0.01288754 -0.0043728487 -0.00427842 -0.004212125 -0.0043531433
-0.0010024008 -0.005178268 0.0010029093 -0.003760655 -0.0014975681 -0.013178498 -0.012609897 -0.0015000735
-0.0024704118 -0.014000735 -0.013550576 -0.0005328667 0.005242542 -0.0011631271 -0.0008377505 0.08101747
-0.008065965 -0.015227464 -0.0014979397 -0.0035862254 -0.00030886714 -0.00532539 -0.0019211574 -0.005172214
-0.014708383 -0.0014995453 -0.013321709 -0.013307484 0.0024169623 -0.0076055536 -0.0029666997 -0.0051058135
-0.0063800705 0.005802648 0.023662098 -0.0076908777 -0.0012779451 -0.0014997962 -0.00040298386 -0.008332167
-0.008326619 -0.000110316134 -0.00068794546 -0.0016552908 -0.0016612519 -0.011192085 -0.0012245595 -0.001484655
-0.009747599 0.026147211 -0.0012879611 0.0031071573 -0.0035848548 -0.00359203 0.0061221644 -0.003063017
00000000: c7a6 95ba 58ea 343d 7361 c4ba de70 3d39
00000010: 38ad b537 c461 1cb9 98a7 b4bb 8fcd e4bb
00000020: 74db d23a 568b c4ba c5bc c4ba ce0f 4fbc
00000030: 7a65 70bc d730 663c 6645 8d39 a860 b439
00000040: aeea e23b 554d 78bc f320 c4ba 3b16 bfba
00000050: 1c32 0ebc bc30 99bb 2923 f93b e2d1 c7b9
00000060: e37b 53bc eeb8 c4ba 3771 3bbc d887 38bc
00000070: c2ea fbbb 1567 c4ba f80d bebb 0938 d0bb
00000080: 2e66 3abc 710d 9a3a 15b0 c4ba 0821 9fba
00000090: 46e1 5eba e12d 9dba 573b 7cbc def4 49bc
000000a0: 3d32 153d 6539 39bc 880b cc3b 9f86 c4ba
000000b0: 921f a8ba fcdb a13c b86d 64bc 28e4 fabb
000000c0: 06c3 c1bb f599 263b 496d 02bc ebc0 b3ba
000000d0: 1d50 76bb 51ec 833b 8441 22bc 0000 0000
000000e0: 0000 0000 fc61 09bb 8847 5abc 1836 a7ba
000000f0: 2e34 63bc d62d c3ba 2838 c4ba 21b0 783b
00000100: 99e0 8c3b 69b4 c4ba bbf0 e5ba 4326 53bc
00000110: 1d4a 8fbb fd31 8cbb de05 8abb d0a4 8ebb
00000120: fd62 83ba 76ae a9bb 0d74 833a 5275 76bb
00000130: 0c4a c4ba a0ea 57bc be99 4ebc 1d9e c4ba
00000140: a2e6 21bb 5763 65bc 3c03 5ebc 14b0 0bba
00000150: a1c9 ab3b 1274 98ba 7c9c 5bba 7dec a53d
00000160: 1c27 04bc 9d7c 79bc 8456 c4ba e106 6bbb
00000170: 72ef a1b9 9c80 aebb 58cf fbba ad7b a9bb
00000180: 6efb 70bc 648c c4ba 4c43 5abc a207 5abc
00000190: e665 1e3b 0238 f9bb f66c 42bb ab4e a7bb
000001a0: e90f d1bb 2424 be3b 04d7 c13c c203 fcbb
000001b0: b980 a7ba cf94 c4ba 9447 d3b9 a483 08bc
000001c0: 5f6c 08bc 8659 e7b8 3d57 34ba 58f6 d8ba
000001d0: 5dbe d9ba 025f 37bc 6681 a0ba c198 c2ba
000001e0: 65b4 1fbc ad32 d63c ced0 a8ba 73a1 4b3b
000001f0: e2ef 6abb 4368 6bbb 709c c83b e6bc 48bb

policy_model.2.weight f4 [8, 128]
-0.0018078343 -0.021565838 0.0017249605 0.00080096314 -0.0019682467 0.0007883454 -0.015382122 -0.007076348
0.005554852 -0.00016256726 -0.0018161507 -0.0062663015 -0.005951114 0.0036776904 0.0024513556 0.0012158077
0.003693336 -0.0075610555 0.0010009056 -0.002591458 -0.0063991835 -0.008095754 0.015565613 0.0007064507
-0.0081544975 0.0016423524 -0.0028368807 -0.007442338 -0.015816143 -0.00083358644 -0.008828819 0.00045570155
-0.009726013 -0.010609547 0.0017549412 -0.008341983 -0.0011592811 0.0010916123 -0.007660528 -0.009163144
-0.038760208 -0.007350794 0.003468957 -0.0015409295 0.0012805326 -0.053183243 -0.008271387 -0.0035227484
-0.008213633 0.00468005 -0.008153085 -0.0055301124 0.004431037 0.00454108 -0.0058555617 -0.00022551893
0.0017280197 0.001266645 -0.0074240444 -2.451288e-05 -0.0069902474 -0.00046371666 -0.0006562424 0.004154853
-0.008718149 0.0010280797 0.00097574637 -0.006290717 -0.007660857 -0.00469266 -0.008519238 -0.009209797
-6.275886e-05 0.0030746132 0.0018570037 -0.00076229527 0.0023037428 -0.008784145 -0.0055328687 5.31324e-05
0.0015261496 -0.00601691 -0.0019414525 0.0012261329 0.004223397 0.0011169194 -0.00010874683 -0.062179346
-0.0063044853 -0.0069303378 0.001570658 -0.0074984133 0.0024378493 -0.0072724433 0.001186998 -0.016155321
-0.006461049 0.0034453461 -0.0051316097 -0.0075805984 0.0037350035 -0.007404909 0.0027958017 0.00027506036
6.244521e-05 0.0035808792 -0.0019352514 -0.008187899 -9.249044e-05 0.0022582593 -0.0073821396 -0.0049017095
-0.003169573 -9.7834956e-05 0.003883494 0.00075816084 -0.00032364565 -0.006927255 0.0009616875 -0.00031699805
-0.007924674 -0.052441847 -0.00037814677 -0.002799682 -0.000121011006 -0.002133282 0.0045853974 0.000849748
0.001059876 0.0139676 -0.00065334234 -0.000706236 0.00041250122 -0.0009204017 0.027505472 -0.010795893
-0.008432556 -0.00017606985 0.003261046 -0.008941623 -0.008616765 -0.0068992563 -0.0025765738 -0.005200819
-0.0024332365 -0.008314263 0.0018537593 -0.0008698227 -0.011834298 -0.010206918 -0.008855046 -0.00049837533
-0.008531164 0.0008105651 -0.0033907304 -0.0076886294 0.002998851 -0.0015161065 -0.010184192 0.0027823509
-0.007561778 -0.005757687 0.0005485388 -0.009711859 0.0010261559 -0.0013398543 -0.008323752 -0.011261291
0.03621196 -0.010190328 -0.005544897 0.0026243303 0.00016603715 -0.03474504 -0.00852451 -0.0021001466
-0.008741581 -0.007835936 -0.012731173 -0.0010950825 -0.0042232615 -0.007055047 -0.010021754 0.0015152614
0.0019239375 0.0015136178 -0.0072541647 -0.0006374238 -0.0088908775 0.00024059559 -0.0013575603 -0.008444267
-0.00789579 -0.0007192017 -0.0004394246 -0.008234 -0.008753363 -0.004951362 -0.0075166267 -0.009238202
-0.0018643554 0.0016535833 -0.0042066583 -0.0009753001 0.003599667 -0.00850076 -0.01021901 -0.0013748603
-9.567265e-05 -0.008338002 -0.0028266206 -0.0012255968 -0.0069472687 -0.0010840109 0.0014327307 0.0076739104
-0.009730566 -0.009744531 0.0016030554 -0.0026630296 -0.00011494514 -0.0105201155 -0.00034453988 0.0019474303
-0.007790375 0.0004295706 -0.0081301965 -0.008744267 -0.0066452506 -0.0103124045 0.00395691 -8.1293285e-05
0.0069812713 -0.0063150893 -0.025835047 -0.0075451555 -0.00071850204 -0.00083696697 -0.008982126 -0.0037812595
-0.0021483204 0.00015975036 0.0020761243 -0.0037894074 0.002397707 -0.00899508 -0.0009527699 -0.00011376218
-0.0081960615 -0.028645596 0.00015322494 0.002322901 -0.0012527419 -0.002994266 -0.007964366 -0.001749984
00000000: daf4 ecba d7aa b0bc 1218 e23a baf7 513a
00000010: b3fd 00bb f7a8 4e3a 4c05 7cbc b6e0 e7bb
00000020: 7a05 b63b d176 2ab9 e80b eeba 8c55 cdbb
00000030: 9001 c3bb 6805 713b eca6 203b bd5b 9f3a
00000040: e50b 723b bbc2 f7bb d230 833a 73d5 29bb
00000050: 3eb0 d1bb 0ea4 04bc ea06 7f3c 1b31 393a
00000060: 719a 05bc 3444 d73a f6ea 39bb dbde f3bb
00000070: db90 81bc 0a85 5aba c0a6 10bc 3aeb ee39
00000080: db59 1fbc aad3 2dbc 0e06 e63a d0ac 08bc
00000090: 05f3 97ba 6e14 8f3a 2b05 fbbb 0321 16bc
000000a0: 06c3 1ebd eede f0bb 7157 633b 04f9 c9ba
000000b0: 8bd7 a73a acd6 59bd b684 07bc e9dd 66bb
000000c0: 7992 06bc 1b5b 993b 8494 05bc f235 b5bb
000000d0: 3c32 913b 57cd 943b 03e0 bfbb 4779 6cb9
000000e0: b87e e23a 8e05 a63a 6645 f3bb 02a1 cdb7
000000f0: 720e e5bb ff1e f3b9 af07 2cba 6f25 883b
00000100: 91d6 0ebc a1c0 863a 3bc9 7f3a 5c22 cebb
00000110: ed07 fbbb e3c4 99bb 4694 0bbc b0e4 16bc
00000120: 689d 83b8 737f 493b b466 f33a c5d4 47ba
00000130: 64fa 163b 60eb 0fbc 114d b5bb 7bda 5e38
00000140: 1509 c83a 8029 c5bb 5678 feba 31b6 a03a
00000150: 6c64 8a3b 9965 923a 030f e4b8 c5af 7ebd
00000160: db95 cebb e317 e3bb 89de cd3a 40b5 f5bb
00000170: 53c4 1f3b ad4d eebb 0b95 9b3a 2a58 84bc
00000180: 35b7 d3bb 51cb 613b 1027 a8bb ab66 f8bb
00000190: f6c6 743b e1a4 f2bb c539 373b fa35 9039
000001a0: 04f5 8238 2fad 6a3b 43a8 fdba 8a26 06bc
000001b0: 6df7 c1b8 4eff 133b e0e5 f1bb 859e a0bb
000001c0: 9cb8 4fbb be2c cdb8 3882 7e3b 50bf 463a
000001d0: fcae a9b9 07fe e2bb c119 7c3a c232 a6b9
000001e0: 7ed6 01bc 43cd 56bd 0042 c6b9 df7a 37bb
000001f0: 4ac7 fdb8 88ce 0bbb 1a41 963b 9fc1 5e3a
00000200: 8aeb 8a3a 5cd8 643c 1045 2bba b222 39ba
00000210: fa44 d839 1d47 71ba 2853 e13c 42e1 30bc
00000220: b428 0abc 649f 38b9 46b7 553b e37f 12bc
00000230: 552d 0dbc 2813 e2bb bcdb 28bb a26b aabb
00000240: ef76 1fbb 8c38 08bc d7f9 f23a d004 64ba
00000250: a5e4 41bc eb3a 27bc c114 11bc 67a5 02ba
00000260: 4cc6 0bbc 1a7c 543a 0437 5ebb e6f0 fbbb
00000270: 5f88 443b 18b8 c6ba 99db 26bc 1a58 363b
00000280: cbc8 f7bb fbaa bcbb d1cb 0f3a 7d1e 1fbc
00000290: 1480 863a 0d9e afba 5960 08bc 4781 38bc
000002a0: fe52 143d 55f5 26bc f8b1 b5bb f5fc 2b3b
000002b0: 421a 2e39 d150 0ebd 63aa 0bbc 9da2 09bb
000002c0: d938 0fbc 4c62 00bc 6996 50bc df88 8fba
000002d0: 4963 8abb 062e e7bb 4832 24bc bc9b c63a
000002e0: a12c fc3a 9664 c63a 58b4 edbb c918 27ba
000002f0: 0bab 11bc 6348 7c39 2af0 b1ba d359 0abc
00000300: 585d 01bc cf88 3cba 9262 e6b9 e6e7 06bc
00000310: 446a 0fbc 093f a2bb 094e f6bb d45b 17bc
00000320: 635d f4ba 0cbd d83a 02d8 89bb 48ab 7fba
00000330: 64e8 6b3b c646 0bbc a26d 27bc a834 b4ba
00000340: dda3 c8b8 1d9c 08bc d33e 39bb 34a4 a0ba
00000350: eaa5 e3bb 5f15 8eba 77ca bb3a 6d75 fb3b
00000360: f46c 1fbc 86a7 1fbc 9d1d d23a 3986 2ebb
00000370: b40e f1b8 905c 2cbc 5ca3 b4b9 eb40 ff3a
00000380: 6746 ffbb fd37 e139 8434 05bc 1d44 0fbc
00000390: 67c0 d9bb 5cf5 28bc f8a8 813b 007c aab8
000003a0: 26c3 e43b cfee cebb 05a4 d3bc 5a3d f7bb
000003b0: db59 3cba e767 5bba c429 13bc 02cf 77bb
000003c0: d6ca 0cbb a982 2739 960f 083b b557 78bb
000003d0: d922 1d3b 1a60 13bc 4ec3 79ba 9b93 eeb8
000003e0: c648 06bc 2baa eabc 02ab 2039 d03b 183b
000003f0: 0b33 a4ba 733b 44bb f97c 02bc b85f e5ba

policy_model.2.bias f4 [8]
-0.018171208 -0.005749824 0.033235274 0.0069398805 -0.006221812 0.00020894202 0.017612876 -0.027978493
00000000: c9db 94bc 0569 bcbb b621 083d f067 e33b
00000010: 58e0 cbbb 7217 5b39 e148 903c 2733 e5bc
