results/short_race/second_iteration_training/model348.pt (torch, 276107 bytes, 13 tensors)

features_model.0.weight f4 [128, 4]
00000000: 0d57 73bd 0b30 233e 8369 8d3d c276 62be
00000010: 0841 d13c bc19 8fbd 4a31 c6ba e531 783d
00000020: f445 373e 863c 713c e020 18bd 2f2c 413e
00000030: 47a9 343e c935 9bbd 61dd 69bd 930f 8bbd
00000040: 9854 573d f71f 55bc d10f 103d 981d c4bd
00000050: f65b 8c3d 512c 423d 9eab 703e 39e8 31be
00000060: 5df0 50be eafe 203c 221a 6d3d 977a 203e
00000070: c068 69bd acea a53d af55 3f3d a9d2 223e
00000080: 150c 3ebe 65f9 313d 11ec fc3d 6da9 9a3b
00000090: 73e2 a7bd e098 1f3e baa4 253d 0ee1 8ebe
000000a0: 5c03 3a3d 62f2 1b3e 8c99 393e eb22 833d
000000b0: 342b 1b3e ac26 dcbd 933a 283e 56ce a73d
000000c0: 84fe 223e fe2c 6f3e 013a ec3c 85fb fcbd
000000d0: bbe0 26be ab48 6bbd 52a0 15be f24a a53b
000000e0: b9a8 edbd bf02 553e 9a2d 12bd 2b4c 0d3e
000000f0: f56f 51be 6aad 1abd 6747 9abe 251e f73c
00000100: ee28 fc3d 1701 52bc a88d 843c 45d3 05be
00000110: 0f38 6bbd 7491 6fbe e991 febd b6bb 0bbd
00000120: 5440 07be 3884 553d 8a89 a7bd 3f2f f3bd
00000130: 5ddc aabd 4266 f1bd abc4 83be d07f 2fbe
00000140: b55f ab3d fdb4 cdbd 4b33 02be 04f0 5f3c
00000150: b884 7fbe 7324 21be c238 453e 3b44 e5bb
00000160: 51fd 703d d906 003e 3c12 c1bd 2d02 59bd
00000170: 4a95 69be 09fe bfbd 0fb4 d9bd 63ad 823d
00000180: fcd3 3f3d 2455 0f3e 1324 023e 3561 7fbe
00000190: 3aa4 c4be a6fc 51be cd35 9f3d db10 8ebd
000001a0: ff5a 7b3e 8699 9c3e 56f8 f3bc 314b 283e
000001b0: 35c6 b0bd 6199 a0bd 9592 d6bd 2f2b dfbc
000001c0: 8ec7 f0bb 7a1c 963d d081 04be e2e2 7f3e
000001d0: 6c93 de3d 4e18 813d 1a88 fabd 4744 7cbd
000001e0: fe63 363e 1342 df3d 0650 2e3e 68d3 9a3d
000001f0: 4246 f63d 4ed7 9a3d 669a e63d 1b55 203e
00000200: 00d4 433e 593f 83be c9d0 613d 7511 e83d
00000210: 4e90 403e 48b7 e6bc d08e fe3d a298 1bbd
00000220: 9c60 0f3d 94f6 4a3d 9e85 723e 2e96 2a3e
00000230: 3404 9a3d c576 d6bd 80b5 f7bb a6ae 26be
00000240: 10ba b1bd 84c5 bdbd 1135 a63d 7d66 cfbc
00000250: 4bcf 9bbd 4dd6 bcbd ff86 e7b9 a218 f53d
00000260: 602a 53be 5266 463d 882e 9e3d 6114 fa3d
00000270: 35b6 873d f250 2a3c 5ee1 013e a5bc 893e
00000280: 1762 94bd 40f5 ac3d 48cd 06be 0f7d 4c3e
00000290: 1893 42bd 1baa 13bd 0ee9 823c d72a 67be
000002a0: 9694 953d d005 41bd e1a8 40bd 0b60 12be
000002b0: 467c fabd 06bb 8d3d e935 033e a44d 783c
000002c0: de12 02bd 4fc2 193e 9ed0 4c3d 4849 42bd
000002d0: a2b0 2dbd 5081 d5bd ea40 8dbd 1f4b fc3d
000002e0: b0d5 d83d 6fe4 adbb 3598 c63e f154 e1bd
000002f0: 1d78 e53b 8273 0bbc 0f8f f73d bedd 13bc
00000300: 970b 55be 24ce c3bb 0d04 16be 768a df3b
00000310: 4918 703e b291 02be 8e1b 473d 17f9 e23d
00000320: c293 54be 10c5 8bbd ed15 fd3c 9c31 163e
00000330: f310 99be abbc d13d 1b79 393e 71e4 b03c
00000340: f6f9 503e 406b 8f3e 2776 90bd ab9e 6cbd
00000350: c9d6 633e 5e66 72bd 2316 48bd a3b9 1ebd
00000360: 3805 8a3d 9c42 f8bb 67d2 c33d 404f 1dbc
00000370: 211f 1a3e 63d9 22bb bb20 4b3e b0aa a43e
00000380: 99cc 1b3e 0508 9e3c 5f11 083b 4ae2 c1bd
00000390: 4a01 67bd aba4 c53d 1084 053e 26cf 023c
000003a0: ab51 94bd 623f a43c 8e79 6fbd 115a f73c
000003b0: 161d 0d3e 644f ab3d 3e14 133e ca5e 543e
000003c0: e2a0 02be 581a 8f3d 40b5 6c3c dbce 1a3e
000003d0: a3e9 da3c ae93 87bd eb17 0dbe 70ea 563e
000003e0: e23a c0bd 40b0 d83d dd41 573d 87c6 8bbe
000003f0: cf28 50be 4d66 ca3d 2db2 ffbc eddd d3bd
-0.05940919 0.15936296 0.069048904 -0.22115615 0.025543705 -0.0698733 -0.001512089 0.060594458
0.17897779 0.014723903 -0.037140727 0.18864511 0.17642699 -0.07578618 -0.05709589 -0.0679008
0.05257091 -0.013008109 0.035171334 -0.09575957 0.06853478 0.047405545 0.23502967 -0.17373742
-0.20404191 0.009826401 0.05788625 0.15671764 -0.056984663 0.08101401 0.046712574 0.15900673
-0.18559296 0.04345073 0.123497136 0.004719904 -0.08197489 0.15585661 0.0404403 -0.27906078
0.04541336 0.1522918 0.1812498 0.064031444 0.151532 -0.107495636 0.16428594 0.08193652
0.15917403 0.23357007 0.028836252 -0.12352661 -0.16296665 -0.05744235 -0.14611939 0.0050443346
-0.11604447 0.20801829 -0.03568802 0.13798587 -0.20452864 -0.037763037 -0.301326 0.030165741
0.12312494 -0.012817643 0.016180828 -0.13068874 -0.05742651 -0.2339533 -0.12430174 -0.034114562
-0.13208133 0.052128047 -0.0818053 -0.11874246 -0.08342812 -0.11787082 -0.25735983 -0.171386
0.08367864 -0.100442864 -0.12714879 0.013668064 -0.24952972 -0.1573656 0.19259933 -0.006996659
0.05883533 0.12502612 -0.09427306 -0.05298059 -0.22810856 -0.09374625 -0.106300466 0.06380727
0.046833023 0.13997322 0.12709074 -0.24939425 -0.38406545 -0.20506534 0.077739336 -0.06936809
0.24546431 0.3058588 -0.029781502 0.16434933 -0.08631555 -0.07841755 -0.10477177 -0.027242271
-0.0073480075 0.0732965 -0.12940145 0.24988893 0.10867962 0.06303464 -0.122329906 -0.06158855
0.17811581 0.109012745 0.17022714 0.07559854 0.12025119 0.07560597 0.11259918 0.15657465
0.1912384 -0.25634268 0.055130754 0.11331455 0.18805048 -0.028163567 0.12429583 -0.03798736
0.035004243 0.04955156 0.23683783 0.16658852 0.07520333 -0.10471872 -0.0075594783 -0.1627756
-0.08678067 -0.09266189 0.0811559 -0.025317425 -0.07607897 -0.09220562 -0.00044160333 0.11967589
-0.20621634 0.048437424 0.07723719 0.12210918 0.0662655 0.010395275 0.12683627 0.26901737
-0.07245272 0.08445215 -0.13164246 0.19969581 -0.04750356 -0.036050897 0.01598027 -0.22574936
0.07303731 -0.047124684 -0.047036055 -0.1429445 -0.122307345 0.069204375 0.12813534 0.01515523
-0.031756274 0.15015529 0.05000364 -0.047433168 -0.04240478 -0.10425055 -0.06897147 0.12319016
0.10587633 -0.0053067724 0.38788 -0.110025294 0.007002844 -0.008511426 0.12087833 -0.009025035
-0.20805202 -0.0059755016 -0.14649983 0.0068219258 0.23446764 -0.12750891 0.048610263 0.11082666
-0.2075949 -0.06824696 0.030894244 0.14667362 -0.29895744 0.10241064 0.18112604 0.021593304
0.20407853 0.28011513 -0.07053786 -0.057768505 0.22249903 -0.059179656 -0.048849236 -0.038751256
0.06739277 -0.0075763 0.095616154 -0.009601414 0.15050937 -0.002484881 0.19836704 0.32161474
0.15214767 0.019290933 0.0020762307 -0.09466989 -0.056397714 0.096505485 0.13038659 0.007983958
-0.072421394 0.020049755 -0.058465533 0.030194314 0.13780627 0.08364752 0.1436319 0.20739284
-0.12756684 0.069874465 0.01444751 0.15117972 0.026722735 -0.066199645 -0.13778655 0.20987868
-0.09386231 0.10580492 0.052553046 -0.27299902 -0.20328067 0.098827936 -0.03121289 -0.10345063

features_model.0.bias f4 [128]
00000000: 18c3 ecb9 57f2 17bc b397 b63b 45a8 dbbc
00000010: 8421 8b3d c549 ff3c 2a2e aabc a925 573b
00000020: 6d3a 59bb 82b2 9dbc 1a69 ca3c 1491 2c3b
00000030: 1f29 733c 328c 17bd 2c8d c2bc 4c92 f93b
00000040: 5bfa 713d ca7a cbbc ac24 5ebd ae70 90ba
00000050: 27a4 f8bc 78dd 43bd 7b63 e13c 6f97 adbc
00000060: 9eac 633c 5a9b b4bc 04be 6f3c b446 ecb8
00000070: a778 ac3c 8116 2a3d 1ef4 573d e962 3c3d
00000080: 7b27 e538 9396 173d cec8 a2ba 05e7 003d
00000090: 9ab6 f83b 1b40 6cbc e41e 75bc 20b6 c93c
000000a0: e330 253d 69a7 303c b9b3 3e3d f56c 94bc
000000b0: 99d3 4abc 5ff4 e0bc 754a 433d 9fb0 be3c
000000c0: 2a16 bdbc bc27 263d a776 b8bc 70d0 063c
000000d0: 4fc0 3e3d cedc 3c3d 3464 6b3d 800b 44bc
000000e0: aebc ff3c 2967 d23b 6d8c 6fbc 19e2 103d
000000f0: 7139 2bbc 1987 3ebd 3d61 1b3c ab02 a1bc
00000100: 0a48 bebc 46e1 39bc 4820 90bc d956 4d3c
00000110: 23c3 e53c 2612 80bc ea5b 93bd 5ed5 f6bc
00000120: 4a13 f0bc 97c9 1dbd 60c7 24bd 9171 16bd
00000130: 1aae ec3a 0c14 7b3d 8623 ecba 0f96 b63c
00000140: 5253 11bd 9ba8 05bd d5f5 a33c f162 25bc
00000150: 1059 2bbd f3ba 31bc 73c7 3d3d b1be 6f3d
00000160: 13de 3e3d 3958 cbbc 8f35 99bc f5f3 a63a
00000170: 1f9b b8bc 3450 b9bc c8e8 1b3b e1cd db3c
00000180: e24d 38bd d4c9 9e3a 65a5 08bc 2c73 983b
00000190: 43ce c1bc 11d8 443c e929 ac3d 4bc4 abbc
000001a0: da2e 65bc c0fe ea3b b4e1 f3bc 718f babb
000001b0: cb24 69bc c48d 90bc 3532 c3bc e39f 8bbc
000001c0: 0648 d9bc 08e7 4e3d 83f1 313d ef5d 2e3c
000001d0: c5b8 f63c 7af4 cdbb 06c4 0cbc 0054 a2bc
000001e0: 405b bfbc 8bb4 063d 020e 423d c395 90ba
000001f0: a6a7 a1bc 7e0b 43bc 39ac 4f3c 0972 e93b
-0.00045158784 -0.009274087 0.005572283 -0.026813636 0.06793502 0.031163106 -0.020773966 0.0032828844
-0.0033146397 -0.019250158 0.02470832 0.002633159 0.014841347 -0.036998935 -0.023748957 0.007616317
0.05907665 -0.024838824 -0.05423419 -0.0011019909 -0.030351711 -0.04781863 0.027513256 -0.021190373
0.013896136 -0.022046734 0.014632706 -0.000112665264 0.021053625 0.041525368 0.052723043 0.045992766
0.00010926925 0.037008833 -0.0012419464 0.031470317 0.007590127 -0.014419581 -0.014960978 0.024622977
0.040329825 0.010782101 0.046558116 -0.018118361 -0.01237955 -0.027460275 0.04767843 0.023277579
-0.023081858 0.040565237 -0.022517515 0.008228406 0.04657012 0.046109013 0.057468608 -0.011965632
0.0312179 0.006420989 -0.014620882 0.035371874 -0.010450707 -0.046515558 0.009483633 -0.019654592
-0.02322771 -0.011345213 -0.017593518 0.012532913 0.02804715 -0.015633654 -0.071952656 -0.030131038
-0.029306073 -0.03852233 -0.0402292 -0.0367294 0.0018057257 0.061298415 -0.0018015958 0.02228835
-0.03547985 -0.032631498 0.020014683 -0.01009439 -0.041832983 -0.010847795 0.046332788 0.058531467
0.046598505 -0.024822341 -0.018702297 0.00127375 -0.022534905 -0.022621252 0.0023789871 0.02683157
-0.04499615 0.0012114593 -0.008340214 0.0046524014 -0.023657924 0.012014405 0.08406431 -0.020967623
-0.013988221 0.007171482 -0.02977071 -0.005693369 -0.0142299635 -0.017645724 -0.023827652 -0.017044013
-0.026523601 0.050513297 0.043443214 0.010642513 0.030117402 -0.0062852474 -0.0085916575 -0.019815445
-0.023358941 0.032887023 0.04737664 -0.0011030961 -0.019733261 -0.011904595 0.012675338 0.0071241898

features_model.2.weight f4 [128, 128]
00000000: 967c 353e 928e 81bd aa39 88bd d5df e93d
00000010: d38d 353e c0f1 5e3d 280e 83bd 2fea 09be
00000020: c0e4 153c b649 033c 7cc2 9ebc 1a7a 02bc
00000030: 655c d5bc d1fa 2d3d b8fe e2bd d76e d93d
00000040: bf86 07be 8306 ae3d 3717 60bd 6871 c3bd
00000050: e903 d73d 0311 543d e1d2 03bb 5728 53bd
00000060: b469 3d3d 3916 f9bd 2938 52bd 8286 8d3e
00000070: 9a8a 86bb bbf0 dabd a375 843b 1714 6a3d
00000080: 2808 483e e2ee 96bc e77e 0aba 08f3 263c
00000090: 7c01 c7bd 4a91 64be 44d2 4ebe 3f3c 043d
000000a0: bbb2 213e 8348 f63b 8773 453e 6a08 b23d
000000b0: ee9a a83d 1557 1d3e a0d6 2bbd a0eb f0bb
000000c0: 2281 2c3e 5551 963e 6bf5 133e c23a 423e
000000d0: 3c56 fbbd 1d81 22bd 12b5 94bd 1b9f 62be
000000e0: 7ebc 79bd 6ade e6bd 0eb2 70bd c1f8 b63d
000000f0: 0dbd e13d 94eb 993e 8e4b 0f3d 8963 73be
00000100: d93a 573e 0ecb 2f3d a3a8 c3bd 605b 73bd
00000110: fc6c aabd 8658 ac3d 450c c23d d09d 57be
00000120: 260d 61be 1b93 0dbe 71ea e6bd 2896 0abd
00000130: 2630 febc bcd6 473d 4974 c2bd 6ebe 9ebe
00000140: 54e9 463d 34ee bc3d ae95 e3bd dcc3 093d
00000150: d7f3 4b3e efcf 473e 2ba0 08be 80b0 95bd
00000160: 4cd7 6c3d 01d9 5a3d e257 6fbe 8da2 a5bd
00000170: 32fe 333e eb72 78bd 4df3 05bd 3c44 f4bd
00000180: d940 93bd 1e93 ff3d 6db6 543e 4fb1 3dbe
00000190: a980 063e a504 c7bb 8a27 b43d e6e5 913e
000001a0: e073 303e 1b47 2cbc 6dfb 35be 9b1c 0cbe
000001b0: 1029 f9bd 7120 2c3e b91f 4bbd 54ee 3b3e
000001c0: 8b91 b1bd 5c0e 3fbe b07b 38bd d8c7 bbbc
000001d0: b367 1c3d 35af 06be 62d7 37bd b1e6 18be
000001e0: 1d1e 40bd da4e 133c 017d 94bd 7087 573d
000001f0: 210e 2cbd d96f 653d ecc5 aa3d 4e08 96bd
00000200: bad6 81bd abe8 9b3d c4a8 8d3d cded 973c
00000210: 0ec0 82bd 426c a63d 7622 a93d 5f7c 20be
00000220: 2f1d cf3d 4f94 85be 6d89 2abe 98cd d83d
00000230: 7fb5 c43b 7b21 c53c 52f5 0e3e 1a8c 2fbd
00000240: c3e5 89bc 9427 173d 3d47 6c3d 3c47 b3bd
00000250: b358 b3bc 21d7 20be 3a42 05be 8843 b73d
00000260: a260 8ebd 5fb1 ccbd b522 21be dec0 e6bc
00000270: 65be 873e 62c4 2bbe e092 b2be 9ad1 c7bd
00000280: 1362 6b3d 49f9 9b3c 793e f7bd 5833 5ebd
00000290: e2ac 823d b1ae 15bb 2f2a 2b3e 8ce1 3abc
000002a0: fc76 e73d dd3e 43be 242d 9d3c 6473 ea3d
000002b0: 3cc0 313c 658a 52bd 4a31 443d 9bfd 813e
000002c0: 7c07 10be 0a5d 0c3d b2d0 d83c 1277 1bbd
000002d0: 484b 0f3d 9eab be3d a4cd 763c 910f 993d
000002e0: de54 cc3c dcf0 dd3d 826f bbbd f1ce 233d
000002f0: f056 633e 7e40 45bd d663 72be 0ad6 9d3e
00000300: fd71 6f3d db5e 9e3b 7327 ca3b 34ee 9abd
00000310: 1575 b73c 6c50 6e3e 8d8f 88be 8723 03bd
00000320: e938 8f3d 5174 c03d e926 35be 91c1 0a3e
00000330: 789e 073b 7f6c 44bc 6dca c8bd 40bd f83d
00000340: 46cd c53b 3553 243e f145 5b3d fc13 963e
00000350: eefd 203d c1ac cdbb befe 2bbe e968 803d
00000360: 1d51 763e 9f38 febb a025 26bd 4803 96bb
00000370: be02 f43c 0932 bc3c d999 103e 259f 11be
00000380: 0718 a7bc 7f9c cdbd 676f 2e3e b597 dfbd
00000390: ff51 503d 3046 b7bd eff6 aabe 5015 8c3c
000003a0: 9015 78bd b15b 3ebd 6cad 44be 5ce0 643e
000003b0: fa77 d2bd 76a3 eebc 631b 85bc 7027 193e
000003c0: 1ef7 74bd 514d 4cbe 1622 6b3d 1c0b cebd
000003d0: 5c73 3a3e c957 d83d 2994 0d3e 405a bcbd
000003e0: 79db 15bc f8e2 903d e642 573e 05e9 45bc
000003f0: 2e38 31be 0ce7 6fbe 9ac0 03bd 7850 923d
0.17723307 -0.06326021 -0.066516235 0.11419646 0.17729883 0.05442977 -0.063991845 -0.1346824
0.0091487765 0.0080131795 -0.019379847 -0.007963682 -0.026045034 0.042475525 -0.1108374 0.10616844
-0.13234995 0.08497336 -0.05470964 -0.09543115 0.10498793 0.051774036 -0.0020114707 -0.051552143
0.046243384 -0.12162442 -0.05132309 0.27641684 -0.004105878 -0.10690447 0.0040423437 0.057148065
0.19534361 -0.018424455 -0.0005283192 0.010189779 -0.0971708 -0.22321048 -0.20197397 0.032284018
0.15790837 0.0075159683 0.19282351 0.08693011 0.082326755 0.1536525 -0.04195273 -0.0073523074
0.16846135 0.29358926 0.14449088 0.18967727 -0.12272307 -0.039673913 -0.07261099 -0.22131006
-0.060970776 -0.11272891 -0.058763556 0.08934165 0.11022387 0.30062544 0.034984164 -0.23768438
0.21018542 0.042918257 -0.09553649 -0.059413314 -0.08321568 0.08415322 0.094749965 -0.21056294
-0.21977672 -0.13825648 -0.11275185 -0.033834606 -0.031028818 0.04878877 -0.09494836 -0.3100466
0.048562363 0.09225121 -0.111125335 0.03363405 0.19917236 0.19512914 -0.13342349 -0.07309055
0.05782251 0.053429607 -0.23373368 -0.08087645 0.17577437 -0.06065647 -0.032702733 -0.11927077
-0.07190103 0.12479232 0.20772715 -0.18524669 0.13135017 -0.0060735517 0.08796604 0.2849571
0.17231703 -0.010515 -0.17771693 -0.13682787 -0.12166035 0.1680925 -0.0495908 0.18352634
-0.08670338 -0.18657821 -0.045039833 -0.022922441 0.038184833 -0.13152774 -0.04488314 -0.14931752
-0.04690372 0.008990968 -0.07250405 0.052619398 -0.042005662 0.05601487 0.08338532 -0.07325803
-0.06339784 0.07612737 0.06916955 0.01854601 -0.06384288 0.08126117 0.08258526 -0.15672444
0.10112988 -0.26089713 -0.16653986 0.10586089 0.0060030813 0.024063816 0.1396077 -0.04285822
-0.016833192 0.03690298 0.057685126 -0.08753821 -0.021892881 -0.15707065 -0.13013545 0.089484274
-0.06952025 -0.09994768 -0.15735896 -0.028168138 0.26512447 -0.16774133 -0.34877682 -0.09756775
0.057466578 0.019039767 -0.120724626 -0.054248184 0.06380631 -0.002283972 0.1671531 -0.011406314
0.11301991 -0.19066949 0.019186564 0.1144779 0.010849055 -0.051401515 0.04789857 0.25388798
-0.14065355 0.034268416 0.026466701 -0.03795535 0.034983903 0.09310077 0.015063677 0.07473672
0.024942812 0.10836956 -0.09152128 0.039992277 0.22201133 -0.048157208 -0.23670897 0.3082736
0.058458317 0.004833085 0.0061692535 -0.07564965 0.022394696 0.23272866 -0.2667202 -0.032016303
0.069932766 0.093971856 -0.17690624 0.13550402 0.002069382 -0.011988758 -0.09804235 0.121454716
0.0060364334 0.16047366 0.0535335 0.29312122 0.039304666 -0.0062766974 -0.16796395 0.0627001
0.2405438 -0.0077582146 -0.040563226 -0.004578028 0.029786464 0.022973077 0.14121188 -0.14220865
-0.0203972 -0.10039615 0.17034684 -0.10917608 0.050859448 -0.08948934 -0.3339152 0.017100006
-0.06056744 -0.046474162 -0.1920678 0.22351211 -0.1027679 -0.029130679 -0.01624841 0.1495645
-0.05980598 -0.19951369 0.057405554 -0.10060713 0.18208069 0.10563619 0.1382605 -0.09196901
-0.009146565 0.07074541 0.21021613 -0.012079482 -0.17306587 -0.23427981 -0.0321661 0.071442544

features_model.2.bias f4 [128]
00000000: 3490 c0bb 3f19 9b3c ba40 d0bb d4c1 24bd
00000010: ac32 6fbc 03a8 6f3c 587a aabb 0000 0000
00000020: 3287 b13c 5b53 f93a 63d0 acbc 4343 0e3d
00000030: d176 7fba cdca 68bc 214a d7bb 8e18 ac3c
00000040: 0654 a4bb 93da 1d3d 2b37 c6bb 6ebb ab3d
00000050: 191b 56bb ba28 a53c 76eb dcbb 46c1 37bd
00000060: 4e3e 983b b506 79bc 99c1 23bc 068e 39bc
00000070: 8ac6 8bbc 7b1f 70bc 00d7 98bc cfbe 88bc
00000080: fa62 383a 90b7 963d 1e55 0dbc 0241 803d
00000090: c5a3 abbc 3de9 9cbc 71e3 d0bb 51ae 36bc
000000a0: 03bf 9abb 86c5 59bb cd4d f5bc b109 a7bb
000000b0: f5a6 d93c 4797 8dbc a4c8 bc3c 2950 4dbc
000000c0: f071 0abd 4334 3f3d 412f c9bb b6c9 12ba
000000d0: 4aef 9dbc df4e 5a3d dbf4 39bc 47d5 53bb
000000e0: 2bb4 6b3d 874d bcbc 922d 1d3d 1466 2dbc
000000f0: c1fa 8cbc d5a2 343d 14dd 07bb fd54 1c3b
00000100: 0576 26bc be0a aebc 4ee5 a73a 92ae 93bc
00000110: e210 413b f4ca 793d d425 cd37 3475 4cbb
00000120: 7d89 adbc f61d 50bc b501 0e3c 48df c2bc
00000130: 03a6 6f3c b422 7d3b a46b 8f3d 4c22 9dbc
00000140: 0000 0000 1009 26bc 95bb 5abc a6a6 0cbc
00000150: 6460 00bc 070b 1d3b a61f acbc 6a26 39bb
00000160: f1ea 0f3d 82ed 3abb 771b 13bd cef7 fa3b
00000170: 093d 303d e389 afbc 625c 82bc 0bba 373b
00000180: 5495 1fbc a93a 9bbc cee7 36bc 5e5e ab3b
00000190: 3b3f 25bd 6923 0abd 0000 0000 c624 1dbd
000001a0: 3dfd 663c a75a febb de77 8dba f8e9 11bd
000001b0: 4744 453b 844b 7bbc 28f6 703d c802 26bd
000001c0: e704 a4bc 2ad0 91bc 2216 7bbc 1eb0 273b
000001d0: 1797 05bc fc4c f23b f3a0 07bc 22b0 f4bc
000001e0: c807 ee3b e497 97bc 6a6c 97bc 1802 03bc
000001f0: d26d c7bb 5ddb 4d3d 0000 0000 f337 51bc
-0.0058765654 0.018932937 -0.0063553723 -0.04022391 -0.014599483 0.014627459 -0.005202573 0.0
0.021670911 0.0019022034 -0.02109546 0.034732115 -0.0009745183 -0.014208508 -0.006570116 0.021007802
-0.005014899 0.038538527 -0.006049057 0.08385359 -0.003266996 0.020161022 -0.0067419363 -0.044862054
0.004646099 -0.015199353 -0.009994888 -0.011325365 -0.017062444 -0.014655943 -0.018657207 -0.016692547
0.00070337916 0.073592305 -0.008626251 0.06262399 -0.020952115 -0.019154185 -0.0063747694 -0.011149959
-0.0047224774 -0.0033229305 -0.029944325 -0.005097591 0.02656887 -0.017284049 0.023044892 -0.012531319
-0.033800066 0.0466807 -0.0061396663 -0.0005599515 -0.019279141 0.053297874 -0.011349882 -0.0032323168
0.05754487 -0.022986187 0.038373537 -0.010583419 -0.017209413 0.0441006 -0.0020731138 0.0023854368
-0.010159974 -0.021245357 0.0012809427 -0.018027578 0.0029459526 0.060984567 2.445552e-05 -0.0031197788
-0.021183724 -0.012702456 0.008667399 -0.02378811 0.014626983 0.003862542 0.07002953 -0.019181393
0.0 -0.010133997 -0.013350387 -0.008584654 -0.007835481 0.0023962872 -0.021011185 -0.0028251656
0.035136167 -0.0028522913 -0.035914864 0.007658935 0.043026958 -0.021428054 -0.015913192 0.0028034474
-0.009740192 -0.01894887 -0.011163665 0.0052297553 -0.040343504 -0.033725176 0.0 -0.038365148
0.014098463 -0.0077622714 -0.001079317 -0.03562352 0.003010051 -0.015337829 0.058828503 -0.040529996
-0.020021869 -0.017799456 -0.015325101 0.0025587152 -0.008153698 0.007394431 -0.008278119 -0.029869143
0.007264111 -0.018505044 -0.018484313 -0.007996105 -0.0060860896 0.05025803 0.0 -0.012769687

features_model.4.weight f4 [128, 128]
00000000: da71 113e eb37 303c 098b 863d fbfe 65bd
00000010: 026f 16bc cb99 62be 1a98 82be 63d7 923b
00000020: bb6c 7fbd 494b 083d 37fb 6ebd 5f87 1bbe
00000030: 6912 4bbd b1db 4dbd 9233 2abc 12b5 b3bc
00000040: 7a0d 0f3e f0ca d63d cb8d 60be 4f23 9a3d
00000050: d93a 6d3d 909c 92be b4a5 19be bc9b b33d
00000060: 6c3a cfbd 760f b13d 9785 c03e 4efa 95bc
00000070: 6a1e ea3d a43b f63d 3bd8 d8bc 88ab c8bc
00000080: c766 443d 20f2 4cbe c9f6 453e a76a 573e
00000090: bbd6 3fbe fde3 71bd 6305 85bc 652d 113d
000000a0: 8d79 8dbc 70f2 b73c ea6f ab3e 6469 09be
000000b0: 4d22 9d3d b63e 363e fc86 e1bc a7cf 253e
000000c0: 5f8a 60be 8a7a fe3c 0d4b 5e3d b03e 5a3d
000000d0: 3707 0dbd 70fa 0ebe 6ce5 94bd 1f8a df3d
000000e0: adb1 4fbd 6681 a1be 3482 303e 50b9 543d
000000f0: 7c7b 16be 407d 3fbd f36f 1b3d 0fd9 13bd
00000100: 66fc 14be 2c80 b3bd 164f 1b3d c734 63bd
00000110: c798 b23d 7595 6e3d 48aa d53d 2d25 213e
00000120: 2ded 06be 678b afbd 9938 b0bc 2ae2 763d
00000130: 5a4f 9cbe c7af fa3c e518 aabd 14bb 0fbe
00000140: ffde 593e 7d34 483e 189d ecbb 6989 983b
00000150: fc46 b53c 8e62 fcbd 9f1b 953c 8170 763d
00000160: d48e 513c c8ab 05be 2fb2 7a3d 0d42 273d
00000170: ad1d 09be 7aac d5bd 70f7 39bd 3836 ce3d
00000180: de3d 143d 0ac2 ad3d 3100 1b3a 4167 e23b
00000190: c8a9 33bd faee 36bd 278c e3bd 6ac5 b53d
000001a0: f137 07bd e02d 47be 2b5c 40be 9ba8 febc
000001b0: 1a55 04be a90a 04be 37dd 773e f341 173e
000001c0: 2ed3 d83b 523e 983d 9938 c8bc ce1d 643d
000001d0: bed9 02be e674 ea3d 2ef5 153e 8f83 b7bd
000001e0: c6c9 dc3d d909 f4bd 315d 193e f38e 66be
000001f0: 02ec 24be ff49 07be 246a 0fbe 8b82 24bd
00000200: b440 28bd 4255 f7bd 75b6 e83d acf9 b0bd
00000210: fa12 0abe b28e 64bd 7e98 293e 4a11 18be
00000220: bb29 5ebe cb0b 8dbd 4814 033d 2b3f 3ebe
00000230: dcad 68bd ca9d 0c3e 7ec7 093d 3b5f 963c
00000240: ca27 1ebe c1a1 8abd 6bb5 903e aefe b1bd
00000250: 2d1e f53d 0d0b ac3d 2e75 8fbd 8857 5e3e
00000260: cb56 953d d953 c73d ceff f1bd e0bb 0abd
00000270: 90a4 44be 2c2c 273e 966a 493d 250c b3bd
00000280: a4c6 09bd e3e1 0ebe b035 f93c fd21 e3bc
00000290: 3c16 873e 1875 31bd 2c48 44bb 745e 91be
000002a0: 1699 db3b 801b a4bc c77a a53d 9fed 423e
000002b0: 27c3 d13e a60e 223d 083e 10bd 6e2d 95bd
000002c0: bbbf fe3d 822b 69be 07e4 1dbe 80c1 b8be
000002d0: 2c85 853d a3d3 36be 59b9 033d 45e3 543e
000002e0: e6bd 193e e823 fabb 4713 a5bd dc4b c8bd
000002f0: a1de 683e d121 823e 11d8 a03d 8594 cfbd
00000300: 78c5 8b3d 6aff debc 9b39 2cbb 39f7 b83d
00000310: 154d 303e 6b5e 38be b575 0f3e 7950 953d
00000320: 842a 1fbd 13f3 b23d e5ff 54bd c645 8a3d
00000330: d022 d3bd 9f16 c0bd 755f a43d 85bb 08be
00000340: 9431 bf3d bdaa 7dba 28a2 59bc c232 10bd
00000350: 89ba 7f3c 2d55 06be bf6b 0abd 2ee2 47be
00000360: f6a1 0b3e f276 573e 970b 223d eacd 1b3e
00000370: 3296 9e3d d48b 193c c6ca 8cbd da78 283b
00000380: c103 0abc 41e9 0d3e 8b55 4fbc 57ee 8abd
00000390: ade5 5e3e d186 103d ff87 4cbe e04b 2fbc
000003a0: 57e1 ee3d 7d5e 12bd ddbe cabb 4ebb 26be
000003b0: 2c9b e5bd 958f 263d 89e6 23bd 4ce3 f43c
000003c0: 4c1f b43d f3ad 03be 63f3 ae3d f584 a53d
000003d0: 1ba9 8ebc a98a 99bd e725 233e 20f5 e4bd
000003e0: c677 3d3e 52ad 5a3d d890 5ebc 8d19 95bd
000003f0: fdde 01be 57f4 e4bd 20e7 0cbd d09a 563e
0.14203587 0.010755519 0.065694876 -0.05615137 -0.00918174 -0.2212898 -0.2550667 0.0044812425
-0.062359553 0.033274923 -0.058345046 -0.15188359 -0.049578104 -0.050258342 -0.010388272 -0.021936927
0.13969985 0.10487926 -0.2192909 0.07526266 0.05791745 -0.28635073 -0.15004617 0.08769938
-0.10118565 0.08645527 0.3760192 -0.018307831 0.11431582 0.12023094 -0.026470294 -0.024495855
0.04794958 -0.20014238 0.19332422 0.21036778 -0.18734257 -0.059055317 -0.01623792 0.035443682
-0.017269874 0.02245447 0.3348382 -0.1341911 0.07672558 0.1779736 -0.027530186 0.16192494
-0.21927784 0.03106429 0.054270793 0.05328244 -0.03443071 -0.13962722 -0.07270321 0.109150164
-0.050706554 -0.31544036 0.17237169 0.05193454 -0.14695543 -0.046750307 0.03794856 -0.036095675
-0.14549407 -0.08764681 0.03791722 -0.055470254 0.08720546 0.058248002 0.10432869 0.15736838
-0.13176413 -0.08571511 -0.021511363 0.06027428 -0.3052929 0.030601395 -0.083055295 -0.14036208
0.21276473 0.19551273 -0.0072208755 0.0046550524 0.022128575 -0.12323485 0.018201647 0.060165886
0.012790401 -0.1305381 0.061205085 0.040834475 -0.13390227 -0.10433288 -0.04540199 0.10068935
0.036191814 0.08484276 0.0005912809 0.0069092815 -0.043863088 -0.0446615 -0.11110716 0.08875544
-0.033012334 -0.19451094 -0.1878516 -0.031086257 -0.12923089 -0.12894692 0.2420548 0.14771251
0.0066169715 0.07433762 -0.02444105 0.055692486 -0.12778375 0.11448078 0.1464431 -0.0896064
0.10780673 -0.11915941 0.14976956 -0.22515468 -0.16105655 -0.13211821 -0.14005333 -0.040163558
-0.04107733 -0.120768085 0.11362926 -0.08641371 -0.13483801 -0.055800147 0.16562077 -0.14850345
-0.21695606 -0.06887015 0.032001764 -0.18578784 -0.05680643 0.13732067 0.033637516 0.018355956
-0.15444866 -0.06769133 0.2826341 -0.086911544 0.11968646 0.08400545 -0.07004772 0.21713078
0.07291945 0.097327895 -0.11816369 -0.033870578 -0.192034 0.16325444 0.049173914 -0.08742551
-0.033636704 -0.13953356 0.030421108 -0.027726168 0.2638415 -0.04332456 -0.0029950244 -0.28392375
0.006701599 -0.020032644 0.080800585 0.19035958 0.40969202 0.03956475 -0.035215408 -0.07284056
0.124389134 -0.22770503 -0.15419017 -0.3608513 0.06519541 -0.1785417 0.032159183 0.20789821
0.15013847 -0.007633675 -0.080603175 -0.09780094 0.22741176 0.25416425 0.078537114 -0.1013575
0.068247736 -0.0272214 -0.0026279453 0.09031529 0.17216904 -0.18004768 0.14009745 0.072907396
-0.038858905 0.08737769 -0.052001853 0.067515895 -0.10309374 -0.09379315 0.080260195 -0.13352783
0.09335628 -0.0009676626 -0.01328329 -0.035204656 0.015608438 -0.1311843 -0.03379416 -0.19519874
0.13636002 0.21041468 0.039561834 0.15215269 0.07743491 0.0093717165 -0.068746135 0.0025706799
-0.008423747 0.1385851 -0.012654672 -0.06783741 0.21767302 0.03528482 -0.19973753 -0.010699242
0.11664074 -0.035734642 -0.0061873035 -0.16282389 -0.11211237 0.040664274 -0.040014777 0.02989354
0.08795032 -0.12859325 0.08542516 0.08082 -0.01741462 -0.074971505 0.15932427 -0.111795664
0.18502721 0.053387947 -0.013584338 -0.07280264 -0.1268272 -0.111794166 -0.034400105 0.20957494

features_model.4.bias f4 [128]
00000000: 188d b7bc 160a 83bc db52 92bc 38e7 a1bc
00000010: 9302 d73c f567 55bc 018f 76bc 2046 4ebc
00000020: a9c2 91bc 8aae 0dbc 6219 fdbb 72e5 823d
00000030: efef f1bb f941 373d 7ae5 7e3c 9b2f e0bc
00000040: 4d7f 28bc e349 49ba 4e99 f6bb 74ba 6c3d
00000050: 076d 6ebb b34c 803d 6103 1cbc ea88 0dbc
00000060: c007 603d c308 f4ba 5e62 1dbc 7550 363c
00000070: a95d c7bc e192 d7bb 4f89 0f3d 379f f83a
00000080: 7713 69bc 253f 6c3d e988 53bc ae58 4e3d
00000090: cc52 3f3b 0000 0000 a0a8 8b3c 72fc c1bc
000000a0: 3282 2bbc 407b 31bc b946 323c b826 43ba
000000b0: 7da1 5dbc 4f04 38bc 2543 eabb 75a3 443d
000000c0: e145 d3bc 0000 0000 baf8 14bc 6b2d 96bc
000000d0: 5769 85bc 93cc cb3b 2fc3 adbc 03db 8abc
000000e0: 0000 0000 f59e e8bc 9586 cdbc c01c 943c
000000f0: 6eca 6aba 4028 93bc 114c 1abc 3b67 ccbc
00000100: d2b2 4e3d 5515 543c 9d6e 973d 0af1 3d3c
00000110: 8008 10bb fb4f 0d3d e04c 143d 5cc5 77bc
00000120: f149 3fbc 2a62 abbc 604d 53bc 1d6a 6d3c
00000130: b6bb 9f3a 90ab 1f3d 1383 6b3b 5737 84bc
00000140: cba7 da3c f4d1 84ba 0afb 863c c2e8 a7bc
00000150: d11f 8fbc c9b9 86bc 43f2 383d b60f 983d
00000160: 6f2f a9bc cea9 d4bc 5a62 61bc 88a0 843c
00000170: d2a1 723b af31 d0bc 61ba 0b3c bc5c d8bc
00000180: 072e a5bb b6c7 343d 9b57 26bc cc21 3b3c
00000190: b292 c6bc 9867 ccbc 9138 463c d259 c43c
000001a0: c4ff 823c 2fac ddbb 8fd5 38bb 7941 2dbc
000001b0: 3aad 103a ccb1 cdbc 473f 54bc 84be 09bc
000001c0: fb21 473c 1701 fabb 77e2 9fbc 31c7 a53c
000001d0: b6df a9bc 456a 4e3d 9f4e 87bc 370b a93d
000001e0: 2b85 2bbb e20e 2f3d 674a 733c 0000 0000
000001f0: e7af 7e3d a634 8f3d ba36 27bc ba97 303d
-0.022406146 -0.01599602 -0.017861774 -0.019763574 0.026246345 -0.013025274 -0.015048743 -0.012589961
-0.017793017 -0.00864757 -0.007723973 0.063914195 -0.0073833386 0.04474065 0.015557641 -0.02736645
-0.010284257 -0.00076785515 -0.0075255996 0.057795003 -0.0036380903 0.06264629 -0.00952229 -0.0086386
0.05469489 -0.0018618334 -0.009605972 0.011127581 -0.024336653 -0.0065787886 0.035043057 0.0018968348
-0.014225832 0.057677407 -0.01291106 0.05037754 0.0029193638 0.0 0.01704818 -0.023679946
-0.010468053 -0.010832608 0.010881119 -0.0007444429 -0.013527271 -0.011231496 -0.0071491175 0.048007447
-0.025790157 0.0 -0.009092504 -0.018332204 -0.016285582 0.0062194555 -0.021211235 -0.016950136
0.0 -0.02839611 -0.025088588 0.018080115 -0.0008956556 -0.017963529 -0.00941755 -0.024951568
0.050463505 0.012944539 0.07394145 0.011593113 -0.0021977723 0.034500103 0.036206126 -0.015122738
-0.011675344 -0.020920832 -0.012896866 0.014490631 0.001218668 0.038981974 0.003593628 -0.01613967
0.026691338 -0.0010133372 0.016477127 -0.02049673 -0.017471226 -0.016446011 0.045152914 0.074248716
-0.0206525 -0.025959875 -0.013756359 0.016189829 0.0037022722 -0.025414316 0.008528323 -0.026411407
-0.0050408873 0.04413577 -0.010152723 0.011421632 -0.024239872 -0.024951741 0.012098447 0.02396861
0.0159911 -0.0067649106 -0.0028203463 -0.010574692 0.0005518977 -0.025109194 -0.01295454 -0.008407239
0.012154098 -0.0076295245 -0.019517167 0.020236583 -0.020736557 0.050394315 -0.016516982 0.08254092
-0.0026171904 0.042738803 0.014849282 0.0 0.062179472 0.06992464 -0.010205919 0.043113448

policy_model.0.weight f4 [128, 128]
00000000: 5095 f93a 4691 223b de44 e9ba d9a7 c2ba
00000010: 2c66 0fba 290a 0cbb 964e 29bb 7190 a8ba
00000020: ec6a e7ba f07b d83a 02c1 97ba b450 f2ba
00000030: 1859 0fbb 8802 8b39 7091 28bb e239 d6ba
00000040: 7570 3fbb b963 e039 764f 9cba 4a5e 65bb
00000050: 6f8f 413b 4401 96bb 953f 19bb aef4 e338
00000060: b8a6 1e38 b1dc a7ba 95f6 9eba 8ba7 bcba
00000070: ece0 f1ba 2520 af3a a658 aebb 8961 dbb8
00000080: 70e4 d2b8 b300 71bb d5f3 de39 4f02 8dbb
00000090: 38be b9b8 9c86 70ba cfb9 a6bb 59f2 3ebb
000000a0: d340 56b9 c343 82ba d400 40ba d2b9 1d3b
000000b0: fd5b 3d39 144c 9c39 a937 d63a ec06 68ba
000000c0: c9f1 30ba 0546 96ba f137 f8ba 24ee 08bb
000000d0: 32d7 9fba 6641 963a ce8f f5ba 7e2f 373a
000000e0: c4f8 30ba fb8e 60bb 11bf faba 307a 1cbb
000000f0: 4811 eaba f206 d8ba 670c 40ba 3af1 4aba
00000100: 95c9 8c3a 4a68 ef3a 7079 3a3b 8515 1ebb
00000110: f0e7 8738 5982 eabb 5821 b6bb 5bf5 bdba
00000120: 7b71 f93a 47da 763a 2f40 28bb 54a9 a33a
00000130: 4143 a7b8 d37c fab9 e7e8 be3a aa29 e6ba
00000140: 2408 703a eaf4 5d39 92df eeb9 7f56 85ba
00000150: 43a4 0ebb e789 0c3b 78fe 08bc de37 d0bb
00000160: da49 e4ba 5682 433b 9288 ddba 4371 39bb
00000170: 9cfc c73a ae1f 38bb e1e0 80ba ceb4 5a3a
00000180: 2224 83ba dcad b9bb 7d6f f53a 3744 3b39
00000190: 9920 5f39 6a03 eaba 6ef8 24ba 57ed 2039
000001a0: 464a b0ba 5f16 e7ba 1cf7 b93a 4e8c 1bbb
000001b0: 93da 023a c53a cdb9 1f09 a33a 6a95 34bb
000001c0: d2ab 90b9 a159 56bb ddad a839 21ec 29bb
000001d0: 58e8 f6ba 419c e5bb 8a8a c4ba 8b64 97bb
000001e0: 0663 0cbb d377 e1bb 937b 8237 a571 2739
000001f0: 089e c6bb 6488 91bb 7677 35b9 d0c8 ecba
00000200: 1e36 5abd 59f2 26bc 458e cabb a4e5 e5bb
00000210: 9f83 1c3d 7ffa 27ba fe18 953a d6d5 21bc
00000220: 688f 893c 3338 93bc 460c 4fbc 35d5 0b3d
00000230: 0f5b cb3c 07c6 993c 9d2d 273d 3e28 c23b
00000240: 59ca 9b3c db73 633c e3cc 173a 992d 463d
00000250: 3c64 243b e15f 713d 6b78 17bc ad56 c63b
00000260: 4347 513d ec76 093c 08ba 073c 2a42 ec3c
00000270: 4c7f e5bb 532e 8fbc 4d95 4d3d 222f f23c
00000280: 42e3 a8bb 6427 3f3b de80 adbb 2c68 5d3d
00000290: c4a4 9cbc 5497 0cba 4de8 2f3d 364a e4bb
000002a0: c943 4abc 986c 813c 43de 143d 8906 0cbc
000002b0: 8185 023b 1bc2 923c e616 c3bc aaaf 513d
000002c0: a6b2 f03b 1917 65ba 4a07 e83b 1f5d 5c3c
000002d0: 1131 6abb 8207 b53c f2b4 a6bb 15d1 f7bb
000002e0: 8a44 1239 78af 70bc 13af 083c 719b 163d
000002f0: f5fd 3f3a 83f1 c03b debe d6b9 f829 06bb
00000300: a496 55bd 672b ee3c f8f2 243d 2584 21bc
00000310: e884 843a 17b2 2a3d 7769 523d ff2f eb3c
00000320: 0862 493a 2ae8 9abc 22f1 f6bb 9628 373d
00000330: f135 9e3a 6fa5 6d3d 25c2 a4bc ae48 813b
00000340: e209 813c aa40 23bd 6445 a1bc 9fdf 00bc
00000350: 9499 853b 4c1d 9bbb 999b 233d 7cde 063d
00000360: b181 80bc 72de 58bb 61b0 fe3c 0434 813b
00000370: 6d15 a83c dded 7abc d3c7 25bb f6bf cbbc
00000380: e08a cf3c fbed 463d 6553 34bb d044 8fbc
00000390: b198 43bc 9c20 2e3c 761c 003d af6b 463d
000003a0: d1ca dbbb 835b 403d 529a 183d 9108 483c
000003b0: 7a87 a7bc a216 bcbb 1866 3ebc f0e3 39bc
000003c0: 3664 313d dc6f 033c 7efa 4aba 2778 a83b
000003d0: cc19 33bc 56a6 4e3d 1ba9 403c cbdb 033d
000003e0: 9933 dbba d42f 513d 9f44 463c 7225 3fba
000003f0: 3802 213d 69d5 403d e686 72bc f2cf 753d
0.0019041691 0.0024805828 -0.0017797013 -0.0014851048 -0.0005470242 -0.002136836 -0.0025834194 -0.001286043
-0.0017655767 0.0016516428 -0.0011577907 -0.0018487186 -0.0021873172 0.00026514032 -0.0025721453 -0.0016344155
-0.0029211317 0.00042798909 -0.0011925537 -0.0034998828 0.0029534956 -0.0045777876 -0.0023383845 0.000108697786
3.7825404e-05 -0.001280686 -0.001212793 -0.0014393193 -0.0018453873 0.001336102 -0.0053206263 -0.00010460901
-0.0001005613 -0.0036774098 0.0004252481 -0.0043032537 -8.8569184e-05 -0.0009175332 -0.005088068 -0.002913615
-0.0002043278 -0.0009938407 -0.0007324342 0.0024067056 0.00018058713 0.0002981132 0.0016343492 -0.0008851129
-0.0006749896 -0.0011464959 -0.001893757 -0.0020893896 -0.001219487 0.0011463582 -0.0018734874 0.0006987973
-0.0006750936 -0.003426491 -0.0019130429 -0.002387654 -0.0017857933 -0.0016481562 -0.0007326067 -0.0007741634
0.0010741228 0.0018265333 0.002845373 -0.0024121713 6.480503e-05 -0.007156652 -0.005558174 -0.0014492677
0.0019031012 0.0009416681 -0.0025673022 0.0012486377 -7.9757076e-05 -0.00047776717 0.001456526 -0.0017560024
0.00091564865 0.0002116744 -0.0004556147 -0.0010172873 -0.0021765388 0.00214445 -0.008361451 -0.006354316
-0.0017417029 0.0029832325 -0.0016901663 -0.002829627 0.0015257779 -0.0028095054 -0.0009832644 0.0008342982
-0.0010005275 -0.0056664776 0.0018725243 0.00017859122 0.00021279081 -0.0017853801 -0.00062931224 0.00015347205
-0.001344987 -0.0017630568 0.0014188024 -0.002373475 0.00049916765 -0.00039144434 0.0012438631 -0.0027554878
-0.00027593836 -0.0032707232 0.00032172995 -0.0025928097 -0.0018837554 -0.0070071523 -0.0014994901 -0.00462014
-0.0021421327 -0.0068807392 1.5554751e-05 0.00015968697 -0.0060613193 -0.004441308 -0.00017306008 -0.0018065218
-0.053274266 -0.010189616 -0.0061815106 -0.0070159007 0.03821146 -0.0006407871 0.0011375246 -0.009877643
0.016792014 -0.017971134 -0.012637204 0.034138877 0.024823694 0.018771185 0.040814985 0.0059252074
0.019017385 0.013882603 0.00057907234 0.04838333 0.0025084158 0.058929328 -0.0092450185 0.006052813
0.05109335 0.00839017 0.008284099 0.028840143 -0.0070037004 -0.017478144 0.050191212 0.02956349
-0.0051540444 0.0029167766 -0.005294903 0.054054424 -0.019121535 -0.0005363126 0.04294615 -0.0069668544
-0.012345263 0.015798852 0.036344778 -0.00854648 0.0019916 0.017914822 -0.02381463 0.051192917
0.0073455153 -0.00087390986 0.007080947 0.013449936 -0.0035734812 0.022098307 -0.0050874883 -0.0075627663
0.00013949178 -0.0146902725 0.008342522 0.036769334 0.00073239143 0.0058881654 -0.00040959468 -0.0020471793
-0.052145615 0.02907343 0.040270776 -0.009858166 0.001011041 0.041673746 0.05137011 0.02870941
0.00076821493 -0.018909533 -0.0075360695 0.04471644 0.0012070519 0.058019098 -0.020112107 0.0039454317
0.015751783 -0.03985659 -0.019686408 -0.007865815 0.004077146 -0.004733717 0.03994331 0.03292702
-0.015686842 -0.0033091572 0.031089963 0.0039429683 0.02051803 -0.0153155 -0.0025296106 -0.024871808
0.025334775 0.0485668 -0.0027515527 -0.017488867 -0.01193826 0.010627892 0.031277142 0.04844254
-0.006707527 0.046962272 0.037256546 0.012209074 -0.020450342 -0.0057400027 -0.011621021 -0.011345848
0.04330846 0.008022275 -0.0007743015 0.0051412764 -0.010931443 0.0504516 0.011759068 0.032192033
-0.0016723751 0.051071003 0.0121013215 -0.00072916516 0.039308757 0.047078524 -0.01480267 0.060012765

policy_model.0.bias f4 [128]
00000000: c7a6 95ba 1a33 3c3d 7361 c4ba de70 3d39
00000010: 38ad b537 c461 1cb9 3bcb b7bb 4eb6 cfbb
00000020: 74db d23a 568b c4ba c5bc c4ba 672b 4abc
00000030: e566 72bc d730 663c 0dd0 8839 a860 b439
00000040: aeea e23b 3f41 79bc f320 c4ba 3b16 bfba
00000050: 6fc6 04bc 93b9 88bb 2923 f93b e2d1 c7b9
00000060: 73f4 56bc eeb8 c4ba a526 31bc 4087 36bc
00000070: 3d83 00bc 1567 c4ba 93d4 aebb 0938 d0bb
00000080: 91ba 37bc f011 0e3b 15b0 c4ba bbe5 f0b9
00000090: 46e1 5eba e12d 9dba 6291 7cbc 45f8 44bc
000000a0: abe8 1c3d 36ef 37bc 880b cc3b 9f86 c4ba
000000b0: 921f a8ba 356f d33c 4845 64bc b20f 00bc
000000c0: 17a4 b1bb f599 263b ac24 f4bb ebc0 b3ba
000000d0: 1d50 76bb 51ec 833b da2c 1ebc 0000 0000
000000e0: 0000 0000 fc61 09bb d093 57bc 1836 a7ba
000000f0: 7b02 6cbc d62d c3ba 2838 c4ba 21b0 783b
00000100: 62af b03b 69b4 c4ba bbf0 e5ba 6d84 59bc
00000110: b583 58bb fd31 8cbb c72f 4cbb 21e5 70bb
00000120: fd62 83ba 76ae a9bb 0e81 823a 5275 76bb
00000130: 0c4a c4ba d96f 61bc 7b80 54bc 1d9e c4ba
00000140: a2e6 21bb 9efa 6cbc de2b 54bc 14b0 0bba
00000150: a1c9 ab3b 1274 98ba 7c9c 5bba c0d8 af3d
00000160: 9474 fcbb 4c09 81bc 8456 c4ba e106 6bbb
00000170: 72ef a1b9 8608 a3bb 58cf fbba c9d6 92bb
00000180: 27ab 76bc 648c c4ba aa7f 5abc 0525 63bc
00000190: e665 1e3b efd7 eebb f66c 42bb ab4e a7bb
000001a0: e90f d1bb 2424 be3b df68 af3c d3c6 edbb
000001b0: b980 a7ba cf94 c4ba f3b6 8b3a 9a7e 09bc
000001c0: df25 0dbc 8659 e7b8 3d57 34ba 58f6 d8ba
000001d0: 5dbe d9ba a0e3 33bc 6681 a0ba c198 c2ba
000001e0: f8bb 1cbc 1721 043d ced0 a8ba e097 4b3b
000001f0: e2ef 6abb 4368 6bbb 709c c83b e6bc 48bb
-0.0011417501 0.04594717 -0.0014982655 0.00018066491 2.1657543e-05 -0.0001491374 -0.0056089438 -0.006338871
0.0016087131 -0.0014995139 -0.0015009871 -0.0123394495 -0.01479504 0.01404973 0.0002609495 0.0003440429
0.0069249487 -0.01521331 -0.0014963433 -0.0014578769 -0.008103951 -0.004172513 0.0076030684 -0.00038112613
-0.013119805 -0.0015008727 -0.010812436 -0.011140645 -0.00784379 -0.0014984334 -0.0053353994 -0.006354336
-0.0112139145 0.0021678172 -0.001500609 -0.0004594753 -0.0008502196 -0.0011991822 -0.015415521 -0.012022083
0.038307827 -0.011226466 0.0062269606 -0.0014993733 -0.0012826791 0.025809864 -0.013932534 -0.007816242
-0.0054211724 0.0025421355 -0.0074506607 -0.001371411 -0.0037584372 0.004025974 -0.009654248 0.0
0.0 -0.0020962944 -0.0131578 -0.001275721 -0.014404888 -0.001489098 -0.0014970349 0.0037946778
0.005392001 -0.001500738 -0.0017543057 -0.013276202 -0.0033037488 -0.00427842 -0.0031156407 -0.0036757665
-0.0010024008 -0.005178268 0.0009956674 -0.003760655 -0.0014975681 -0.013759577 -0.012970085 -0.0015000735
-0.0024704118 -0.014464049 -0.012949912 -0.0005328667 0.005242542 -0.0011631271 -0.0008377505 0.08586264
-0.007704327 -0.015751503 -0.0014979397 -0.0035862254 -0.00030886714 -0.0049753813 -0.0019211574 -0.004481171
-0.015055454 -0.0014995453 -0.013336102 -0.013863807 0.0024169623 -0.007288925 -0.0029666997 -0.0051058135
-0.0063800705 0.005802648 0.021412311 -0.0072563677 -0.0012779451 -0.0014997962 0.0010659382 -0.008392001
-0.008614986 -0.000110316134 -0.00068794546 -0.0016552908 -0.0016612519 -0.010979563 -0.0012245595 -0.001484655
-0.0095663 0.03225812 -0.0012879611 0.0031065866 -0.0035848548 -0.00359203 0.0061221644 -0.003063017

policy_model.2.weight f4 [8, 128]
00000000: daf4 ecba e817 b7bc 1218 e23a baf7 513a
00000010: b3fd 00bb f7a8 4e3a a272 7cbc 95bf dbbb
00000020: 7a05 b63b d176 2ab9 e80b eeba 7ea3 c2bb
00000030: 1250 b9bb 6805 713b 969d 203b bd5b 9f3a
00000040: e50b 723b a3f2 ecbb d230 833a 73d5 29bb
00000050: 8056 c4bb 1e2f fbbb ea06 7f3c 1b31 393a
00000060: dba5 00bc 3444 d73a f2c7 32bb 3a71 e7bb
00000070: be8e 81bc 0a85 5aba b673 0abc 3aeb ee39
00000080: 425c 18bc e875 21bc 0e06 e63a b09c ffbb
00000090: 05f3 97ba 6e14 8f3a 4823 f0bb 0305 0fbc
000000a0: a2c4 22bd 63b7 e5bb 7157 633b 04f9 c9ba
000000b0: 8bd7 a73a 71cc 58bd e743 02bc 9108 51bb
000000c0: cdcf fdbb 1b5b 993b aed0 febb f235 b5bb
000000d0: 3c32 913b 57cd 943b 95f3 b5bb 4779 6cb9
000000e0: b87e e23a 8e05 a63a 6da7 e6bb 02a1 cdb7
000000f0: d640 ddbb ff1e f3b9 af07 2cba 6f25 883b
00000100: 0061 04bc a1c0 863a 3bc9 7f3a 57b9 c5bb
00000110: 15b7 e4bb e3c4 99bb 7e88 00bc 4750 0ebc
00000120: 689d 83b8 737f 493b 9966 f33a c5d4 47ba
00000130: 64fa 163b 1d60 0bbc c6ed acbb 7bda 5e38
00000140: 1509 c83a 5b03 bebb 8bd4 efba 31b6 a03a
00000150: 6c64 8a3b 9965 923a 030f e4b8 b090 80bd
00000160: b3f4 c2bb cb7a dabb 89de cd3a 40b5 f5bb
00000170: 53c4 1f3b 9242 e2bb 0b95 9b3a f0fa 7cbc
00000180: 0b73 ccbb 51cb 613b a9c2 9ebb 5545 f0bb
00000190: f6c6 743b ccc0 e6bb c539 373b fa35 9039
000001a0: 04f5 8238 2fad 6a3b 26db 9eba 0e3e fbbb
000001b0: 6df7 c1b8 4eff 133b 575f debb 4956 92bb
000001c0: 439b 3abb be2c cdb8 3882 7e3b 50bf 463a
000001d0: fcae a9b9 d825 d7bb c119 7c3a c232 a6b9
000001e0: db9e f8bb 7a19 56bd 0042 c6b9 537d 37bb
000001f0: 4ac7 fdb8 88ce 0bbb 1a41 963b 9fc1 5e3a
00000200: 8aeb 8a3a 41f3 4f3c 1045 2bba b222 39ba
00000210: fa44 d839 1d47 71ba 455f e13c 8a56 37bc
00000220: b428 0abc 649f 38b9 46b7 553b 9e42 18bc
00000230: 9899 10bc 2813 e2bb 3dda 28bb a26b aabb
00000240: ef76 1fbb 2572 0cbc d7f9 f23a d004 64ba
00000250: ff44 49bc 64a1 2fbc c114 11bc 67a5 02ba
00000260: 8136 0fbc 1a7c 543a 8ddc 61bb 3dd7 02bc
00000270: f313 443b 18b8 c6ba 28df 2dbc 1a58 363b
00000280: b213 01bc 4939 e0bb d1cb 0f3a d010 2abc
00000290: 1480 863a 0d9e afba eb31 0cbc 66c8 3fbc
000002a0: a714 0f3d 2359 2cbc f8b1 b5bb f5fc 2b3b
000002b0: 421a 2e39 ab4f 19bd 687f 0fbc b4ec 1bbb
000002c0: 03fb 17bc 4c62 00bc 6517 57bc df88 8fba
000002d0: 4963 8abb 062e e7bb 91de 28bc bc9b c63a
000002e0: a12c fc3a 9664 c63a 5121 fabb c918 27ba
000002f0: cb73 14bc 6348 7c39 2af0 b1ba d359 0abc
00000300: 80a4 11bc cf88 3cba 9262 e6b9 ccdc 09bc
00000310: 1034 1dbc 093f a2bb 383d 08bc cf5a 21bc
00000320: 635d f4ba 0cbd d83a 07d8 89bb 48ab 7fba
00000330: 64e8 6b3b a44e 0ebc 6f5f 2abc a834 b4ba
00000340: dda3 c8b8 432a 0bbc 85c2 3cbb 34a4 a0ba
00000350: eaa5 e3bb 5f15 8eba 77ca bb3a 8dc8 c53b
00000360: f6da 25bc c08b 22bc 9d1d d23a 3986 2ebb
00000370: b40e f1b8 57eb 32bc 5ca3 b4b9 913c 963a
00000380: 4a59 02bc fd37 e139 38a9 08bc 2112 12bc
00000390: 67c0 d9bb ad80 2fbc f8a8 813b 007c aab8
000003a0: 26c3 e43b cfee cebb 71f0 eabc 05f1 04bc
000003b0: db59 3cba e767 5bba 3833 22bc 2df3 87bb
000003c0: 591d 1ebb a982 2739 960f 083b b557 78bb
000003d0: d922 1d3b bb52 19bc 4ec3 79ba 9b93 eeb8
000003e0: c557 0cbc a154 00bd 02ab 2039 a63c 183b
000003f0: 0b33 a4ba 733b 44bb f97c 02bc b85f e5ba
-0.0018078343 -0.022350267 0.0017249605 0.00080096314 -0.0019682467 0.0007883454 -0.01540819 -0.006706188
0.005554852 -0.00016256726 -0.0018161507 -0.0059399 -0.005655297 0.0036776904 0.002450799 0.0012158077
0.003693336 -0.007231073 0.0010009056 -0.002591458 -0.005991757 -0.007665529 0.015565613 0.0007064507
-0.007852043 0.0016423524 -0.0027279821 -0.007063058 -0.015815135 -0.00083358644 -0.008450439 0.00045570155
-0.00929934 -0.009854771 0.0017549412 -0.007800661 -0.0011592811 0.0010916123 -0.0073284246 -0.008729222
-0.039738305 -0.007010387 0.003468957 -0.0015409295 0.0012805326 -0.052929346 -0.0079507595 -0.0031895975
-0.007745719 0.00468005 -0.0077763414 -0.0055301124 0.004431037 0.00454108 -0.005552719 -0.00022551893
0.0017280197 0.001266645 -0.0070390017 -2.451288e-05 -0.006752114 -0.00046371666 -0.0006562424 0.004154853
-0.008079767 0.0010280797 0.00097574637 -0.006034057 -0.006979833 -0.00469266 -0.007845042 -0.008686132
-6.275886e-05 0.0030746132 0.0018570005 -0.00076229527 0.0023037428 -0.008506802 -0.0052773682 5.31324e-05
0.0015261496 -0.00579874 -0.0018297596 0.0012261329 0.004223397 0.0011169194 -0.00010874683 -0.06277597
-0.0059495806 -0.00666747 0.001570658 -0.0074984133 0.0024378493 -0.0069049085 0.001186998 -0.015440688
-0.0062393 0.0034453461 -0.0048449826 -0.007332484 0.0037350035 -0.007042026 0.0027958017 0.00027506036
6.244521e-05 0.0035808792 -0.0012119755 -0.0076673096 -9.249044e-05 0.0022582593 -0.0067862677 -0.0044658524
-0.002847389 -9.7834956e-05 0.003883494 0.00075816084 -0.00032364565 -0.0065657906 0.0009616875 -0.00031699805
-0.0075872964 -0.05227039 -0.00037814677 -0.0027998283 -0.000121011006 -0.002133282 0.0045853974 0.000849748
0.001059876 0.012692274 -0.00065334234 -0.000706236 0.00041250122 -0.0009204017 0.027511248 -0.011190066
-0.008432556 -0.00017606985 0.003261046 -0.0092932265 -0.008825682 -0.0068992563 -0.0025764846 -0.005200819
-0.0024332365 -0.008572136 0.0018537593 -0.0008698227 -0.012284516 -0.010719631 -0.008855046 -0.00049837533
-0.008741022 0.0008105651 -0.0034463734 -0.007985887 0.0029919117 -0.0015161065 -0.010612287 0.0027823509
-0.007878231 -0.0068427664 0.0005485388 -0.010379985 0.0010261559 -0.0013398543 -0.008556823 -0.011705494
0.034931805 -0.010519299 -0.005544897 0.0026243303 0.00016603715 -0.037429493 -0.008758403 -0.002379221
-0.009276154 -0.007835936 -0.013128136 -0.0010950825 -0.0042232615 -0.007055047 -0.01030697 0.0015152614
0.0019239375 0.0015136178 -0.007633366 -0.0006374238 -0.00906081 0.00024059559 -0.0013575603 -0.008444267
-0.0088893175 -0.0007192017 -0.0004394246 -0.0084144585 -0.009594932 -0.004951362 -0.008315377 -0.009848311
-0.0018643554 0.0016535833 -0.0042066607 -0.0009753001 0.003599667 -0.008685742 -0.01039873 -0.0013748603
-9.567265e-05 -0.008493963 -0.0028802466 -0.0012255968 -0.0069472687 -0.0010840109 0.0014327307 0.0060358704
-0.010123005 -0.009921014 0.0016030554 -0.0026630296 -0.00011494514 -0.010920367 -0.00034453988 0.0011462142
-0.0079558585 0.0004295706 -0.008341126 -0.008915455 -0.0066452506 -0.010711831 0.00395691 -8.1293285e-05
0.0069812713 -0.0063150893 -0.028679105 -0.008114104 -0.00071850204 -0.00083696697 -0.009899907 -0.004148862
-0.002412638 0.00015975036 0.0020761243 -0.0037894074 0.002397707 -0.009358103 -0.0009527699 -0.00011376218
-0.008565848 -0.03133071 0.00015322494 0.0023229509 -0.0012527419 -0.002994266 -0.007964366 -0.001749984

policy_model.2.bias f4 [8]
00000000: e374 98bc 2177 d3bb c320 0c3d c301 d03b
00000010: c190 ddbb 4069 3d3b a9dd 903c cd5d f8bc
-0.018610423 -0.0064534103 0.03421093 0.0063478663 -0.006761641 0.0028901845 0.01768382 -0.030318165
