results/short_race/second_iteration_training/model335.pt (torch, 276107 bytes, 13 tensors)

features_model.0.weight f4 [128, 4]
-0.062168952 0.15683468 0.06887346 -0.22218014 0.023191791 -0.06712221 -0.0037463573 0.061157167
0.17715348 0.018755276 -0.04180758 0.18673375 0.17549829 -0.07521265 -0.05738958 -0.06735739
0.04902785 -0.0098992195 0.031655647 -0.09773129 0.06903144 0.04326078 0.23529571 -0.17875618
-0.20404191 0.010627404 0.055345897 0.15672927 -0.056679726 0.08035742 0.045154724 0.158509
-0.18559296 0.043031584 0.12337654 0.00460013 -0.08009561 0.15227328 0.04085502 -0.28072584
0.04494932 0.1555719 0.1798517 0.06831422 0.14918274 -0.10459078 0.16189192 0.07981727
0.15972826 0.23361763 0.028492406 -0.124569476 -0.16157648 -0.05990872 -0.14386827 0.0039835516
-0.11705224 0.20922409 -0.03567042 0.13798587 -0.21013394 -0.037598375 -0.29844704 0.03252973
0.12092994 -0.0074897264 0.015040313 -0.13204493 -0.058153722 -0.23318163 -0.12497219 -0.03224237
-0.13208133 0.052703746 -0.081833296 -0.11794016 -0.083695166 -0.117245756 -0.25780442 -0.1689835
0.0818391 -0.100282095 -0.12817663 0.013310599 -0.24780148 -0.15947771 0.19404767 -0.0049591237
0.057349715 0.12477009 -0.095859006 -0.047412947 -0.22639495 -0.09602366 -0.105557375 0.0651818
0.049086157 0.13406081 0.12652698 -0.2489736 -0.38310316 -0.20661204 0.07916912 -0.0681509
0.24445976 0.30514807 -0.029449847 0.16527659 -0.08604243 -0.079243414 -0.10441981 -0.025684336
0.00069429574 0.07500206 -0.13261367 0.24866536 0.10821065 0.062284473 -0.12352696 -0.063468784
0.17736378 0.10937048 0.16945115 0.07548213 0.119561024 0.076121405 0.11217207 0.15600866
0.18930116 -0.2514579 0.051437903 0.11652426 0.18617022 -0.026107296 0.121310875 -0.040280472
0.033610225 0.054792862 0.23400381 0.1630698 0.07158847 -0.097724125 -0.012564999 -0.1588379
-0.091578774 -0.087615274 0.07898139 -0.021254562 -0.07511264 -0.093431436 0.00041373787 0.12156182
-0.20621634 0.05051555 0.077552624 0.12063999 0.063115254 0.0137496935 0.12129917 0.26454294
-0.075383104 0.08057795 -0.13566251 0.20044364 -0.050359033 -0.033367634 0.009912472 -0.21784258
0.06956819 -0.042328432 -0.052267093 -0.13922468 -0.122307345 0.06680795 0.12685095 0.01515508
-0.032433975 0.15047012 0.051193137 -0.047433168 -0.041139483 -0.106222995 -0.06754723 0.12401366
0.103746995 -0.00085107196 0.38507235 -0.112462744 0.007303064 -0.0078088176 0.12019344 -0.0116987135
-0.20805274 -0.00781469 -0.14544933 -0.003786572 0.23340435 -0.12536308 0.046581496 0.10935622
-0.20226511 -0.07152169 0.032598365 0.14758343 -0.29895744 0.09950621 0.17958112 0.02169538
0.20305273 0.2800158 -0.07169116 -0.06087129 0.21955986 -0.05395832 -0.05475047 -0.037588097
0.064323135 -0.004869705 0.092417605 -0.011424211 0.14956702 -0.001861153 0.1946393 0.31888035
0.15042742 0.019644855 0.0023456123 -0.09928229 -0.05762443 0.095236674 0.1296648 0.008038903
-0.072421394 0.020049917 -0.058465533 0.030194314 0.13640842 0.08487026 0.1424353 0.20528506
-0.12756684 0.06954883 0.011994415 0.15043476 0.028060932 -0.06931495 -0.13572173 0.20840141
-0.09239685 0.10296269 0.05268034 -0.27622175 -0.20328067 0.10189074 -0.030729141 -0.103527166
00000000: dfa4 7ebd 4599 203e 870d 8d3d 3183 63be
00000010: b6fc bd3c 5f77 89bd 7285 75bb f07f 7a3d
00000020: b967 353e aaa4 993c 6d3e 2bbd 2237 3f3e
00000030: d3b5 333e 1709 9abd 5611 6bbd acf2 89bd
00000040: 6dd1 483d 5630 22bc 5aa9 013d 5827 c8bd
00000050: 5b60 8d3d 3732 313d 5cf1 703e dc0b 37be
00000060: 5df0 50be 901e 2e3c 61b2 623d a37d 203e
00000070: 0029 68bd 6e92 a43d 29f4 383d 2f50 223e
00000080: 150c 3ebe e341 303d d7ac fc3d b0bc 963b
00000090: 2b09 a4bd 87ed 1b3e 9857 273d 4cbb 8fbe
000000a0: c71c 383d 3d4e 1f3e 0b2b 383e 53e8 8b3d
000000b0: 5cc3 183e b133 d6bd ffc6 253e 3d77 a33d
000000c0: ce8f 233e 7639 6f3e e868 e93c 481e ffbd
000000d0: 4e74 25be d962 75bd 3452 13be 7488 823b
000000e0: 16b9 efbd d73e 563e 251b 12bd 2b4c 0d3e
000000f0: 5a2d 57be c100 1abd 0dce 98be e53d 053d
00000100: 1eaa f73d 616c f5bb a56b 763c c936 07be
00000110: 9932 6ebd 2ac7 6ebe 6bf1 ffbd 9310 04bd
00000120: 5440 07be e2df 573d 3798 a7bd 9c8a f1bd
00000130: 5f68 abbd 8b1e f0bd f1fe 83be 030a 2dbe
00000140: 429b a73d b360 cdbd bc40 03be b314 5a3c
00000150: acbf 7dbe 204e 23be 6fb4 463e 2580 a2bb
00000160: 89e7 6a3d 7687 ff3d ba51 c4bd 1434 42bd
00000170: 14d4 67be 0da8 c4bd 772e d8bd 097e 853d
00000180: 910e 493d 3d47 093e 4a90 013e eff2 7ebe
00000190: 1926 c4be 1b92 53be 6b23 a23d b392 8bbd
000001a0: a953 7a3e 5e3c 9c3e ce40 f1bc 443e 293e
000001b0: 0337 b0bd 5f4a a2bd 0eda d5bd f567 d2bc
000001c0: 6601 363a ae9a 993d e1cb 07be 22a2 7e3e
000001d0: 8c9d dd3d 011e 7f3d b4fb fcbd ecfb 81bd
000001e0: da9e 353e a1fd df3d 9a84 2d3e 6096 9a3d
000001f0: 69dc f43d 8ae5 9b3d 78ba e53d bcc0 1f3e
00000200: 2ad8 413e 17bf 80be 8db0 523d 45a4 ee3d
00000210: 68a3 3e3e f8de d5bc d671 f83d 23fd 24bd
00000220: e0aa 093d 7b6e 603d b29e 6f3e c5fb 263e
00000230: fa9c 923d 9623 c8bd 6ddd 4dbc 67a6 22be
00000240: a78d bbbd a36f b3bd ffc0 a13d 0c1e aebc
00000250: a8d4 99bd fb58 bfbd f5ea d839 67f5 f83d
00000260: 602a 53be 65e9 4e3d e9d3 9e3d 1912 f73d
00000270: 9242 813d 6546 613c b36b f83d 2c72 873e
00000280: 7562 9abd 0d06 a53d 1deb 0abe 1941 4d3e
00000290: 4645 4ebd 80ac 08bd ec67 223c 2012 5fbe
000002a0: c479 8e3d 9460 2dbd 0516 56bd ea90 0ebe
000002b0: 467c fabd 9bd2 883d 37e5 013e 034d 783c
000002c0: 7dd9 04bd d714 1a3e e5af 513d 4849 42bd
000002d0: e081 28bd 718b d9bd 3456 8abd e0fa fd3d
000002e0: 4e79 d43d 791a 5fba 3428 c53e de52 e6bd
000002f0: 8b4e ef3b 1ce1 ffbb fa27 f63d f6ab 3fbc
00000300: c70b 55be 2f09 00bc abf0 14be 2328 78bb
00000310: 8d01 6f3e 2e5f 00be 3dcc 3e3d 27f6 df3d
00000320: 961e 4fbe f779 92bd dd85 053d 1c20 173e
00000330: f310 99be e9c9 cb3d 1de4 373e 82ba b13c
00000340: 0eed 4f3e 3b5e 8f3e d1d2 92bd 2c54 79bd
00000350: 4dd4 603e 6603 5dbd 0742 60bd faf5 19bd
00000360: d9bb 833d 0c92 9fbb 7145 bd3d 9d2c 3bbc
00000370: 1928 193e eff1 f3ba 864f 473e 4944 a33e
00000380: a509 1a3e 3fee a03c d8b8 193b 8354 cbbd
00000390: 9807 6cbd 720b c33d d9c6 043e 9ab5 033c
000003a0: ab51 94bd b93f a43c 8e79 6fbd 115a f73c
000003b0: a6ae 0b3e 75d0 ad3d 8fda 113e 3f36 523e
000003c0: e2a0 02be 9e6f 8e3d 3984 443c 920b 1a3e
000003d0: 0ae0 e53c fff4 8dbd a3fa 0abe 2e67 553e
000003e0: 8f3a bdbd 1ade d23d 57c7 573d f06c 8dbe
000003f0: cf28 50be 18ac d03d aebb fbbc 0d06 d4bd

features_model.0.bias f4 [128]
-0.0034386688 -0.014495447 0.002258354 -0.02798684 0.06357398 0.03350438 -0.02051594 2.5176036e-05
-0.0051158634 -0.022136351 0.019158231 -0.00278662 0.012587845 -0.03514918 -0.022717878 0.008807288
0.05255585 -0.026628073 -0.054978967 -0.00250433 -0.031135624 -0.045739744 0.018127639 -0.02028589
0.009243736 -0.020969655 0.010604817 -0.00025387353 0.02006018 0.040733885 0.050118607 0.044288475
-0.0066799144 0.033156596 -0.004800892 0.023063231 0.0011400247 -0.014161399 -0.011577834 0.018566497
0.038162023 0.006128904 0.038542803 -0.024462001 -0.010527609 -0.025742168 0.04298076 0.024068693
-0.018009992 0.038667664 -0.020374656 -0.0003556746 0.04067502 0.036592342 0.05389831 -0.013466232
0.032468144 0.0024284509 -0.014620751 0.031872835 -0.012730421 -0.04304605 0.0064214636 -0.014142222
-0.027007675 -0.012412805 -0.019649899 0.008487334 0.021530451 -0.011340645 -0.06340402 -0.028753545
-0.029423611 -0.02898532 -0.040324185 -0.03653436 0.0061004935 0.057476044 -0.007100148 0.01575272
-0.032817427 -0.030769626 0.019437468 -0.018602215 -0.039906938 -0.0140831405 0.043588866 0.053731106
0.041839257 -0.02307219 -0.019023074 -0.0027045265 -0.023156386 -0.021027569 -0.0013161248 0.025352651
-0.04072077 0.0007723962 -0.010745718 0.0024265046 -0.024589935 0.009758568 0.081842616 -0.017304726
-0.018992854 0.0074790115 -0.031417403 -0.010799531 -0.0142299635 -0.018106073 -0.030277211 -0.019089937
-0.027842168 0.046211757 0.037687685 0.0065392093 0.02641886 -0.005826801 -0.0028052367 -0.02155663
-0.023540579 0.03387356 0.040485457 -0.00550066 -0.02183405 -0.010639362 0.009235173 -0.0010275405
00000000: 4a5b 61bb 507e 6dbc e500 143b a844 e5bc
00000010: 1333 823d e43b 093d 0b11 a8bc 2031 d337
00000020: f9a2 a7bb 4b57 b5bc b9f1 9c3c ba9f 36bb
00000030: 403d 4e3c 96f8 0fbd d81a babc 714c 103c
00000040: ce44 573d 1e23 dabc a031 61bd af1f 24bb
00000050: 2310 ffbc 9959 3bbd 6a80 943c 982e a6bc
00000060: 0a73 173c 8ec8 abbc d4bf 2d3c 541a 85b9
00000070: 3f55 a43c 93d8 263d 2b49 4d3d d567 353d
00000080: 2fe3 dabb 36cf 073d cd50 9dbb 1aef bc3c
00000090: e26c 953a 3605 68bc f5b0 3dbc c418 983c
000000a0: c84f 1c3d f9d4 c83b 0fdf 1d3d 8964 c8bc
000000b0: fe7b 2cbc 3de1 d2bc 980c 303d b52b c53c
000000c0: b189 93bc fc61 1e3d c0e8 a6bc d679 bab9
000000d0: da9a 263d dae1 153d 79c4 5c3d 79a1 5cbc
000000e0: 51fd 043d a526 1f3b e08b 6fbc 178d 023d
000000f0: 4193 50bc 0e51 30bd 246b d23b c7b4 67bc
00000100: 333f ddbc 145f 4bbc d3f8 a0bc 750e 0b3c
00000110: a160 b03c 1dce 39bc f8d9 81bd 8e8c ebbc
00000120: c909 f1bc 9f72 edbc f92a 25bd 0ea5 15bd
00000130: a6e6 c73b 006c 6b3d 5ca8 e8bb d90b 813c
00000140: 916b 06bd 9510 fcbc 533b 9f3c ac63 98bc
00000150: 7575 23bd f9bc 66bc 3d8a 323d 2615 5c3d
00000160: a45f 2b3d e401 bdbc 47d6 9bbc 6d3e 31bb
00000170: 76b2 bdbc 0242 acbc d281 acba 5db0 cf3c
00000180: d2ca 26bd a27a 4a3a cf0e 30bc fe05 1f3b
00000190: d570 c9bc 67e2 1f3c 1a9d a73d a4c2 8dbc
000001a0: e796 9bbc 7f12 f53b 89af 00bd 84f0 30bc
000001b0: cb24 69bc 3053 94bc ea07 f8bc 8062 9cbc
000001c0: 4215 e4bc 8a48 3d3d 675e 1a3d dd46 d63b
000001d0: 5d6c d83c c0ee bebb 10d8 37bb 8897 b0bc
000001e0: 2cd8 c0bc 01bf 0a3d 14d4 253d e13e b4bb
000001f0: 52dd b2bc b850 2ebc 204f 173c 8aae 86ba

features_model.2.weight f4 [128, 128]
0.17723307 -0.06358326 -0.067155436 0.11351766 0.17293507 0.053107657 -0.06250285 -0.13766633
0.009148842 0.0080131795 -0.019376185 -0.008489516 -0.026194293 0.042450815 -0.1108374 0.10593394
-0.1338459 0.084395126 -0.05470964 -0.09646568 0.10443797 0.05165563 -0.0020120458 -0.05106799
0.046243384 -0.1218325 -0.051692493 0.2759005 -0.0055506895 -0.107002445 0.0035886234 0.056362655
0.19476847 -0.019204771 -0.0010797763 0.009056297 -0.09775069 -0.22299886 -0.20443484 0.032116037
0.15580744 0.0050677313 0.19133301 0.08693011 0.082326755 0.1536347 -0.04331324 -0.008443847
0.16833845 0.29298824 0.14567257 0.18967727 -0.12299543 -0.040481567 -0.07417666 -0.22140716
-0.061741624 -0.11272891 -0.058763556 0.08851496 0.10731458 0.30094692 0.034984164 -0.23768438
0.21018542 0.042918324 -0.09749658 -0.059413314 -0.08322573 0.08415322 0.094925135 -0.21130466
-0.21992499 -0.13825648 -0.113758884 -0.034453657 -0.0310036 0.04720731 -0.09494836 -0.3108012
0.048685275 0.09158374 -0.1110984 0.03363405 0.20093395 0.19487484 -0.13460639 -0.0741918
0.05602229 0.053223576 -0.23399596 -0.08134361 0.17550799 -0.060974184 -0.033367995 -0.11989158
-0.070003584 0.12440327 0.20741521 -0.18524669 0.13030231 -0.007407931 0.0877457 0.2849571
0.17231703 -0.008482083 -0.17821324 -0.13682787 -0.12166035 0.16773793 -0.0495908 0.18366951
-0.087334745 -0.18736175 -0.046049986 -0.023092749 0.037055716 -0.13189226 -0.04488314 -0.14984366
-0.04758116 0.009125027 -0.0737274 0.05259639 -0.042005662 0.05709694 0.08338532 -0.0733737
-0.0634002 0.07408771 0.06717423 0.01698531 -0.0677502 0.08091349 0.08100102 -0.16042703
0.10091871 -0.26090723 -0.16654934 0.10378136 0.0058203754 0.02225347 0.1396077 -0.047014486
-0.018610513 0.034783494 0.057685126 -0.08942758 -0.023740178 -0.15891567 -0.13025792 0.08797722
-0.07077876 -0.101826034 -0.15813568 -0.030286463 0.2643468 -0.16763844 -0.34959835 -0.09895185
0.055258308 0.017365525 -0.12187441 -0.056436058 0.061547574 -0.004611525 0.16303444 -0.015676567
0.11186294 -0.19376181 0.017143548 0.1144779 0.010849055 -0.05342919 0.045774758 0.25143704
-0.14256507 0.03220063 0.025126483 -0.03795535 0.03454623 0.09136054 0.012159029 0.07199796
0.02419636 0.10836956 -0.09152128 0.038511705 0.21898106 -0.049950685 -0.23852849 0.3082736
0.058458317 0.004833085 0.004468185 -0.07566189 0.022370296 0.23272866 -0.26745263 -0.034163155
0.06763646 0.093971856 -0.1780508 0.13346356 0.0037893956 -0.013850936 -0.09804235 0.119888805
0.0053375387 0.15994236 0.053978473 0.29312122 0.037944052 -0.008537577 -0.17002259 0.061557204
0.23892239 -0.009676351 -0.04276892 -0.0066011273 0.027576867 0.021102175 0.13942224 -0.14343062
-0.021667164 -0.10215427 0.16827194 -0.10917608 0.048506293 -0.09171704 -0.3341583 0.017100006
-0.06056744 -0.04779763 -0.19361211 0.22351211 -0.1027679 -0.031159833 -0.01624841 0.14598115
-0.06192024 -0.20129104 0.054913394 -0.10002637 0.18004122 0.10425573 0.1382605 -0.09409303
-0.010871495 0.08300879 0.2082261 -0.014172184 -0.17306587 -0.23798835 -0.0321661 0.069388464
00000000: 967c 353e f137 82bd ca88 89bd f27b e83d
00000010: e415 313e 6a87 593d 7f01 80bd 67f8 0cbe
00000020: 06e5 153c b649 033c ceba 9ebc 9c17 0bbc
00000030: 6a95 d6bc e8e0 2d3d b8fe e2bd e5f3 d83d
00000040: e60e 09be 5ad7 ac3d 3717 60bd cc8f c5bd
00000050: 93e3 d53d db94 533d 87dc 03bb ab2c 51bd
00000060: b469 3d3d 5183 f9bd 82bb 53bd d542 8d3e
00000070: 8fe2 b5bb 1924 dbbd 1c2f 6b3b 87dc 663d
00000080: 6371 473e 5353 9dbc 4887 8dba dd60 143c
00000090: 8431 c8bd d059 64be 5e57 51be 1b8c 033d
000000a0: fc8b 1f3e 360f a63b cdec 433e 6a08 b23d
000000b0: ee9a a83d 6a52 1d3e 3969 31bd 1058 0abc
000000c0: ea60 2c3e 8e02 963e 312b 153e c23a 423e
000000d0: 07e5 fbbd 00d0 25bd efe9 97bd 8fb8 62be
000000e0: c9e4 7cbd 6ade e6bd 0eb2 70bd 5547 b53d
000000f0: bfc7 db3d b715 9a3e 8e4b 0f3d 8963 73be
00000100: d93a 573e 20cb 2f3d 49ac c7bd 605b 73bd
00000110: 4072 aabd 8658 ac3d 1c68 c23d 4060 58be
00000120: 0434 61be 1b93 0dbe 6bfa e8bd 471f 0dbd
00000130: 43fb fdbc 745c 413d 4974 c2bd 5621 9fbe
00000140: 366a 473d 4290 bb3d 8f87 e3bd dcc3 093d
00000150: a1c1 4d3e 458d 473e 42d6 09be dff1 97bd
00000160: a177 653d f700 5a3d a39c 6fbe 7b97 a6bd
00000170: 5eb8 333e 11c0 79bd e1ac 08bd b789 f5bd
00000180: 0a5e 8fbd 24c7 fe3d a764 543e 4fb1 3dbe
00000190: f86d 053e 3bbe f2bb 04b4 b33d e6e5 913e
000001a0: e073 303e 6ff8 0abc 887d 36be 9b1c 0cbe
000001b0: 1029 f9bd 7ec3 2b3e b91f 4bbd dc13 3c3e
000001c0: 8fdc b2bd c2db 3fbe e99e 3cbd 012d bdbc
000001d0: bcc7 173d c40e 07be 62d7 37bd 9e70 19be
000001e0: 76e4 42bd 2381 153c 64fe 96bd 506f 573d
000001f0: 210e 2cbd 7bde 693d ecc5 aa3d f344 96bd
00000200: f7d7 81bd 4cbb 973d a592 893d c724 8b3c
00000210: 9ec0 8abd f9b5 a53d dde3 a53d fc46 24be
00000220: 78ae ce3d a295 85be e98b 2abe 528b d43d
00000230: d9b8 be3b e94c b63c 52f5 0e3e 4392 40bd
00000240: 1375 98bc 2379 0e3d 3d47 6c3d cf25 b7bd
00000250: c37a c2bc caba 22be 5562 05be 672d b43d
00000260: 74f4 90bd 2b8a d0bd 52ee 21be 511b f8bc
00000270: 7758 873e 69a9 2bbe 8efe b2be 44a7 cabd
00000280: 8956 623d 2542 8e3c 4a99 f9bd 7f29 67bd
00000290: 4f19 7c3d 471c 97bb 80f2 263e 256c 80bc
000002a0: 6618 e53d 7f69 46be a070 8c3c 6473 ea3d
000002b0: 3cc0 313c 91d8 5abd 507e 3b3d 5bbc 803e
000002c0: 94fc 11be cfe4 033d 0ed6 cd3c 1277 1bbd
000002d0: 5980 0d3d 3c1b bb3d aa36 473c ab73 933d
000002e0: 7237 c63c dcf0 dd3d 826f bbbd 73be 1d3d
000002f0: 923c 603e 1799 4cbd d040 74be 0ad6 9d3e
00000300: fd71 6f3d db5e 9e3b da69 923b 9ff4 9abd
00000310: e941 b73c 6c50 6e3e 8def 88be aaee 0bbd
00000320: fc84 8a3d 5174 c03d f352 36be acaa 083e
00000330: 8257 783b 09ef 62bc 6dca c8bd 4388 f53d
00000340: 85e6 ae3b eec7 233e 8818 5d3d fc13 963e
00000350: 396b 1b3d 32e1 0bbc 671a 2ebe 6823 7c3d
00000360: 12a8 743e 8f89 1ebc 772e 2fbd 454e d8bb
00000370: e2e8 e13c 78de ac3c b4c4 0e3e 7adf 12be
00000380: 567f b1bc 4236 d1bd 7b4f 2c3e b597 dfbd
00000390: 89ae 463d 25d6 bbbd cc16 abbe 5015 8c3c
000003a0: 9015 78bd 73c7 43bd 4142 46be 5ce0 643e
000003b0: fa77 d2bd e842 ffbc 631b 85bc 157c 153e
000003c0: 14a0 7dbd 3d1f 4ebe deec 603d a0da ccbd
000003d0: ba5c 383e 0784 d53d 2994 0d3e d9b3 c0bd
000003e0: 5b1e 32bc 8300 aa3d 3939 553e 7332 68bc
000003f0: 2e38 31be 38b3 73be 9ac0 03bd 8a1b 8e3d

features_model.2.bias f4 [128]
-0.007818641 0.015009395 -0.0087177185 -0.03921113 -0.017281463 0.016209913 -0.0066470043 0.0
0.019547435 0.00051882653 -0.02079831 0.030116143 -0.0066652335 -0.012070536 -0.006570116 0.014895764
-0.005014899 0.031454597 -0.010212135 0.08077034 -0.004182223 0.015522714 -0.0038202081 -0.04303297
0.0057233376 -0.014669847 -0.010353374 -0.011325365 -0.018822651 -0.017162375 -0.018335205 -0.016408788
-0.007200261 0.06791223 -0.009004633 0.057178173 -0.020456988 -0.018328806 -0.008847203 -0.0077753826
-0.009691415 -0.0018457893 -0.026886184 -0.0038006539 0.018391173 -0.018555837 0.012798866 -0.012531319
-0.031846173 0.041913167 -0.0073171654 -0.00071682665 -0.019279141 0.04875618 -0.011438061 -0.0046091136
0.05140993 -0.022795431 0.024950441 -0.011387523 -0.01813392 0.042809017 -0.0020731138 0.0036686
-0.010125473 -0.021772943 0.00011775659 -0.018467857 0.00011238607 0.055910844 -0.005439905 0.0007350189
-0.021120831 -0.0139864385 0.0126127275 -0.021387273 0.012773315 0.0031322136 0.06790585 -0.019181393
0.0 -0.012360717 -0.014184753 -0.007933792 -0.008287322 0.0077283364 -0.020758387 0.00056431344
0.027516507 -0.0028522913 -0.035748977 0.0011555746 0.035577532 -0.02214714 -0.019074827 0.0065381853
-0.010167628 -0.01894887 -0.011208171 -0.0027149532 -0.03795951 -0.031401806 0.0 -0.032634184
0.012622289 -0.0077622714 -0.002549776 -0.035136282 0.0045916634 -0.015913889 0.05540647 -0.039599195
-0.021170562 -0.017799456 -0.014409058 0.0025109136 -0.0081061255 0.0043892693 -0.008274934 -0.029073523
0.007264111 -0.016389493 -0.0177384 -0.013337162 -0.0018522369 0.042835776 0.0 -0.012504693
00000000: c219 00bc f7e9 753c c3d4 0ebc da9b 20bd
00000010: db91 8dbc a7ca 843c 1dcf d9bb 0000 0000
00000020: f121 a03c dc01 083a 3861 aabc 21b6 f63c
00000030: 0868 dabb 7fc3 45bc 214a d7bb 5d0d 743c
00000040: 0654 a4bb 89d6 003d cc50 27bc ec6a a53d
00000050: 080b 89bb fb52 7e3c 755c 7abb 5743 30bd
00000060: d68a bb3b cc59 70bc 33a1 29bc 068e 39bc
00000070: f631 9abc 1c98 8cbc b633 96bc b96b 86bc
00000080: 2bf0 ebbb 9115 8b3d 2b88 13bc a933 6a3d
00000090: 6a95 a7bc 4b26 96bc dcf3 10bc a3c8 febb
000000a0: bec8 1ebc 69ee f1ba 6a40 dcbc 6414 79bb
000000b0: 16a9 963c 6902 98bc 56b2 513c 2950 4dbc
000000c0: 2271 02bd 24ad 2b3d d5c4 efbb 6ce9 3bba
000000d0: 4aef 9dbc 8fb4 473d b466 3bbc 0c08 97bb
000000e0: 3893 523d 7cbd babc de64 cc3c bc92 3abc
000000f0: 968d 94bc 8258 2f3d 14dd 07bb e56c 703b
00000100: 50e5 25bc 2c5d b2bc 16f4 f638 e749 97bc
00000110: d0b0 eb38 c502 653d 3b41 b2bb 49ae 403a
00000120: 9805 adbc 6027 65bc 9da5 4e3c 5d34 afbc
00000130: 2b47 513c d345 4d3b 3912 8b3d 4c22 9dbc
00000140: 0000 0000 9b84 4abc 2b67 68bc bcfc 01bc
00000150: 8cc7 07bc fc3d fd3b 7e0d aabc 6fee 133a
00000160: 4c6a e13c 82ed 3abb 856d 12bd a676 973a
00000170: bfb9 113d eb6d b5bc d042 9cbc 463e d63b
00000180: 1f96 26bc a93a 9bbc 7aa2 37bc 5bed 31bb
00000190: 6e7b 1bbd 2e9f 00bd 0000 0000 6cab 05bd
000001a0: b8cd 4e3c a75a febb 251a 27bb 10eb 0fbd
000001b0: aa75 963b d85d 82bc e5f1 623d c432 22bd
000001c0: e36d adbc 2ad0 91bc f813 6cbc 248e 243b
000001d0: 8ecf 04bc dcd3 8f3b 9793 07bc 992b eebc
000001e0: c807 ee3b 4243 86bc 1f50 91bc 1d84 5abc
000001f0: c2c6 f2ba 9174 2f3d 0000 0000 7ce0 4cbc

features_model.4.weight f4 [128, 128]
0.14169851 0.0103692915 0.0644681 -0.05514908 -0.009506008 -0.2212898 -0.2551262 0.0044812425
-0.061796244 0.033337932 -0.058053665 -0.15098345 -0.049719974 -0.04871979 -0.010388272 -0.030406231
0.13969985 0.10580082 -0.219055 0.077044345 0.057168342 -0.28243694 -0.15004617 0.08769938
-0.10118565 0.08645527 0.3761003 -0.018307831 0.11431582 0.12062621 -0.02559244 -0.024495855
0.049882203 -0.19795986 0.19332422 0.2117032 -0.18734257 -0.059055317 -0.01623792 0.035443682
-0.017779903 0.025483366 0.3348382 -0.13391708 0.0765112 0.1783645 -0.027276598 0.16192494
-0.21942052 0.032853007 0.053882398 0.05328244 -0.03443071 -0.1382118 -0.072706245 0.11630568
-0.048962377 -0.31544036 0.17237169 0.05240554 -0.1469708 -0.04575067 0.03794856 -0.036095675
-0.14549407 -0.08764227 0.03791722 -0.055470254 0.08720546 0.0618761 0.10474164 0.15736838
-0.1313132 -0.08643344 -0.021511363 0.06027428 -0.30309153 0.030562697 -0.08280932 -0.14036208
0.21276473 0.19617091 -0.0075700646 0.0012170267 0.022594327 -0.12323485 0.018201647 0.060165886
0.015284076 -0.1305381 0.060131866 0.041036047 -0.13144717 -0.10431014 -0.04524644 0.10068935
0.036191814 0.08484276 0.002450478 0.0069092815 -0.043863088 -0.044669494 -0.11110716 0.089464866
-0.033012334 -0.19451094 -0.18754344 -0.031301856 -0.12923089 -0.12917171 0.24382941 0.14771251
0.0066169715 0.07433762 -0.023364078 0.0545566 -0.12778375 0.11448078 0.1464431 -0.08987404
0.10780673 -0.120061204 0.15052123 -0.23249775 -0.16105655 -0.13179076 -0.14005333 -0.040163558
-0.039327934 -0.119321495 0.11510168 -0.08510112 -0.13330644 -0.055800147 0.16666843 -0.14850345
-0.21565428 -0.06869959 0.03327059 -0.18389025 -0.055595927 0.13721572 0.033637516 0.017579421
-0.15444866 -0.06693086 0.28380498 -0.085657045 0.12012731 0.084005475 -0.069406085 0.21820545
0.07291945 0.097327895 -0.11746416 -0.033870578 -0.19101565 0.16444822 0.05040089 -0.08742536
-0.03364007 -0.13817614 0.030421108 -0.026388578 0.26448455 -0.044075813 -0.0029950244 -0.28310648
0.006763268 -0.019946795 0.080800585 0.19044241 0.4112287 0.040922616 -0.03402233 -0.07284056
0.12540285 -0.22677128 -0.15298185 -0.3608513 0.06519541 -0.17741828 0.032159194 0.20789821
0.15132083 -0.007633675 -0.079989634 -0.096876726 0.2284135 0.25511354 0.078537114 -0.1013575
0.068247736 -0.02642452 -0.0026279453 0.09031529 0.17216904 -0.17923471 0.14141266 0.072907396
-0.03777657 0.088290416 -0.04996384 0.067515895 -0.103747964 -0.09270881 0.081101075 -0.13352783
0.09335628 0.00050414726 -0.0120756 -0.034701932 0.015608473 -0.13266051 -0.034118243 -0.194884
0.13795325 0.21041468 0.040935263 0.15325615 0.07924239 0.0105652595 -0.0676758 0.00257069
-0.008423747 0.1385851 -0.010856358 -0.06783741 0.21799749 0.036449123 -0.19973753 -0.010013176
0.11664074 -0.035734642 -0.0062028104 -0.16178888 -0.11211237 0.041541845 -0.038762964 0.030644355
0.08899448 -0.12859325 0.085462734 0.08082 -0.01741462 -0.074971505 0.15932427 -0.11073819
0.18502721 0.054296356 -0.0125921955 -0.0711461 -0.1268272 -0.110715576 -0.034400105 0.20957494
00000000: 6a19 113e f6e3 293c da07 843d 00e4 61bd
00000010: 16bf 1bbc cb99 62be e79f 82be 63d7 923b
00000020: 0f1e 7dbd 5b8d 083d aec9 6dbd 689b 1abe
00000030: 2ca7 4bbd 678e 47bd 9233 2abc 7d16 f9bc
00000040: 7a0d 0f3e 1aae d83d f44f 60be 6dc9 9d3d
00000050: 5a29 6a3d 939b 90be b4a5 19be bc9b b33d
00000060: 6c3a cfbd 760f b13d 3890 c03e 4efa 95bc
00000070: 6a1e ea3d e00a f73d 3da7 d1bc 88ab c8bc
00000080: 4851 4c3d fdb5 4abe c9f6 453e b9c8 583e
00000090: bbd6 3fbe fde3 71bd 6305 85bc 652d 113d
000000a0: 29a7 91bc 7ec2 d03c ea6f ab3e 8f21 09be
000000b0: e7b1 9c3d 2fa5 363e 2c73 dfbc a7cf 253e
000000c0: c6af 60be e090 063d cab3 5c3d b03e 5a3d
000000d0: 3707 0dbd 6587 0dbe 03e7 94bd ac31 ee3d
000000e0: c68c 48bd 6681 a1be 3482 303e 31a7 563d
000000f0: 837f 16be 0e65 3bbd f36f 1b3d 0fd9 13bd
00000100: 66fc 14be ca7d b3bd 164f 1b3d c734 63bd
00000110: c798 b23d cb71 7d3d c982 d63d 2d25 213e
00000120: f876 06be 0404 b1bd 9938 b0bc 2ae2 763d
00000130: d02e 9bbe 9f5e fa3c ef97 a9bd 14bb 0fbe
00000140: ffde 593e 07e1 483e 4e0e f8bb a484 9f3a
00000150: bd17 b93c 8e62 fcbd 9f1b 953c 8170 763d
00000160: 106a 7a3c c8ab 05be d54c 763d 6a15 283d
00000170: 169a 06be 8ea0 d5bd 5554 39bd 3836 ce3d
00000180: de3d 143d 0ac2 ad3d 3398 203b 4167 e23b
00000190: c8a9 33bd 5cf7 36bd 278c e3bd 5b39 b73d
000001a0: f137 07bd e02d 47be 630b 40be 6036 00bd
000001b0: 1a55 04be 9745 04be 6bae 793e f341 173e
000001c0: 2ed3 d83b 523e 983d 0666 bfbc be76 5f3d
000001d0: bed9 02be e674 ea3d 2ef5 153e e10f b8bd
000001e0: c6c9 dc3d a6e2 f5bd 3d22 1a3e e413 6ebe
000001f0: 02ec 24be 28f4 06be 246a 0fbe 8b82 24bd
00000200: 5416 21bd d45e f4bd 6eba eb3d 7f49 aebd
00000210: 7c81 08be b28e 64bd 21ab 2a3e 4a11 18be
00000220: 7ad4 5cbe 5fb2 8cbd be46 083d ba4d 3cbe
00000230: 8eb8 63bd 4782 0c3e 7ec7 093d b802 903c
00000240: ca27 1ebe 0c13 89bd e34e 913e f66c afbd
00000250: 4f05 f63d 100b ac3d c724 8ebd 4071 5f3e
00000260: cb56 953d d953 c73d 0d91 f0bd e0bb 0abd
00000270: 9b99 43be 1d65 283e 2a71 4e3d 110c b3bd
00000280: 2cca 09bd 0c7e 0dbe b035 f93c dc2c d8bc
00000290: 856a 873e d788 34bd 2c48 44bb 55f3 90be
000002a0: 679e dd3b 7667 a3bc c77a a53d 5603 433e
000002b0: 918c d23e 799e 273d 005b 0bbd 6e2d 95bd
000002c0: 9b69 003e bb36 68be 46a7 1cbe 80c1 b8be
000002d0: 2c85 853d 23ad 35be 5cb9 033d 45e3 543e
000002e0: d9f3 1a3e e823 fabb 9bd1 a3bd 4e67 c6bd
000002f0: 3be5 693e 3e9e 823e 11d8 a03d 8594 cfbd
00000300: 78c5 8b3d 3c78 d8bc 9b39 2cbb 39f7 b83d
00000310: 154d 303e 4e89 37be 7bce 103e 7950 953d
00000320: 9bbb 1abd 9bd1 b43d e2a6 4cbd c645 8a3d
00000330: d079 d4bd 1ede bdbd 5218 a63d 85bb 08be
00000340: 9431 bf3d c028 043a bdd8 45bc 9d23 0ebd
00000350: aeba 7f3c 28d8 07be 92bf 0bbd ac8f 47be
00000360: 9e43 0d3e f276 573e bcab 273d 2eef 1c3e
00000370: d649 a23d e919 2d3c 9c99 8abd 0579 283b
00000380: c103 0abc 41e9 0d3e dede 31bc 57ee 8abd
00000390: bc3a 5f3e ad4b 153d ff87 4cbe 4e0e 24bc
000003a0: 57e1 ee3d 7d5e 12bd f240 cbbb fcab 25be
000003b0: 2c9b e5bd c827 2a3d eac5 1ebd df09 fb3c
000003c0: bd42 b63d f3ad 03be 1607 af3d f584 a53d
000003d0: 1ba9 8ebc a98a 99bd e725 233e b4ca e2bd
000003e0: c677 3d3e db65 5e3d 7f4f 4ebc 0cb5 91bd
000003f0: fdde 01be d9be e2bd 20e7 0cbd d09a 563e

features_model.4.bias f4 [128]
-0.020517642 -0.015588072 -0.019059 -0.021044748 0.01769121 -0.013763849 -0.01585083 -0.010880169
-0.018463016 -0.0067540808 -0.0076615624 0.051726636 -0.011401065 0.03256295 0.0072984747 -0.027861116
-0.012473654 -0.0007674596 -0.0075255996 0.048272047 -0.0045726164 0.055825587 -0.010042424 -0.008638583
0.044859413 -0.006655529 -0.013582587 0.004635697 -0.025104394 -0.0052360133 0.0276201 -0.0008775687
-0.014786514 0.04818774 -0.013283222 0.042262644 0.0029193638 0.0 0.0119361635 -0.023428103
-0.011210153 -0.010829342 0.010881119 -0.0007444429 -0.014823556 -0.011231496 -0.0073580183 0.03869672
-0.025790157 0.0 -0.010236495 -0.02113309 -0.01707097 0.0062194555 -0.021959689 -0.016972309
0.0 -0.029220117 -0.025759578 0.010588577 -0.0008956556 -0.016741203 -0.00941755 -0.025446411
0.043654546 0.01324127 0.068207875 0.011592855 -0.0021977723 0.026303 0.027789889 -0.016569396
-0.012416009 -0.020920813 -0.013299313 0.01710894 0.001218668 0.03036593 0.0035981596 -0.01490302
0.020968432 -0.0005294306 0.015418172 -0.020366374 -0.018419867 -0.01708453 0.035655707 0.06799699
-0.021700526 -0.026763894 -0.015015509 0.006520792 0.0054240567 -0.026158111 0.0029591864 -0.027361754
-0.0049605113 0.035923123 -0.010152723 0.009607052 -0.025866887 -0.026394902 0.004927796 0.017187815
0.017801678 -0.0066060093 -0.0028203463 -0.013784875 0.0005518977 -0.02521316 -0.013855878 -0.007851802
0.0052471193 -0.008690959 -0.019517167 0.012017922 -0.020648286 0.042722736 -0.01694472 0.068790555
-0.0026171904 0.037474938 0.0059399763 0.0 0.057968464 0.06053071 -0.013380059 0.036292966
00000000: 9d14 a8bc 1d65 7fbc 9f21 9cbc 0966 acbc
00000010: 28ed 903c c481 61bc 9ad9 81bc bd42 32bc
00000020: c03f 97bc 5651 ddbb d80d fbbb 4fdf 533d
00000030: 88cb 3abc ba60 053d 0b28 ef3b ff3c e4bc
00000040: 4c5e 4cbc 582f 49ba 4e99 f6bb e9b8 453d
00000050: e3d5 95bb 5fa9 643d fb88 24bc d888 0dbc
00000060: 81be 373d a016 dabb 8089 5ebc 0ce7 973b
00000070: bba7 cdbc dd92 abbb 8c43 e23c a30c 66ba
00000080: 2343 72bc 8260 453d dfa1 59bc 981b 2d3d
00000090: cc52 3f3b 0000 0000 e68f 433c 4bec bfbc
000000a0: caaa 37bc 8d6d 31bc b946 323c b826 43ba
000000b0: 80de 72bc 4f04 38bc 881b f1bb 7480 1e3d
000000c0: e145 d3bc 0000 0000 f9b6 27bc 4d1f adbc
000000d0: 6bd8 8bbc 93cc cb3b cee4 b3bc 8309 8bbc
000000e0: 0000 0000 075f efbc c005 d3bc b67b 2d3c
000000f0: 6eca 6aba d924 89bc 114c 1abc fe74 d0bc
00000100: 1ccf 323d e9f1 583c 92b0 8b3d f5ef 3d3c
00000110: 8008 10bb 6479 d73c 9fa7 e33c 8bbc 87bc
00000120: 846c 4bbc 2062 abbc 5de5 59bc 0c28 8c3c
00000130: b6bb 9f3a f9c1 f83c 1acf 6b3b cc2b 74bc
00000140: fdc5 ab3c 7cc9 0aba 809c 7c3c 62d7 a6bc
00000150: 43e5 96bc dbf4 8bbc b80b 123d 0242 8b3d
00000160: 4dc5 b1bc f43f dbbc 9c03 76bc 5eac d53b
00000170: 49bc b13b 8949 d6bc e9ee 413b c225 e0bc
00000180: c98b a2bb 2024 133d 9b57 26bc e666 1d3c
00000190: cbe6 d3bc 1f3a d8bc 5979 a13b 76cd 8c3c
000001a0: d3d4 913c 3977 d8bb 8fd5 38bb f5d9 61bc
000001b0: 3aad 103a d48b cebc c403 63bc d8a4 00bc
000001c0: 07f0 ab3b 8664 0ebc 77e2 9fbc d1e6 443c
000001d0: 9826 a9bc 09fe 2e3d a7cf 8abc 10e2 8c3d
000001e0: 2b85 2bbb 527f 193d 22a4 c23b 0000 0000
000001f0: 5770 6d3d 0def 773d 0938 5bbc efa7 143d

policy_model.0.weight f4 [128, 128]
0.0019041691 0.0024805828 -0.0017797013 -0.0014851048 -0.0005470242 -0.002136836 -0.0025834194 -0.001286043
-0.0017655767 0.0016516428 -0.0011577907 -0.0018487186 -0.0021873172 0.00026514032 -0.0025721453 -0.0016344155
-0.0029211317 0.00042798909 -0.0011925537 -0.0034998828 0.0029534956 -0.0045777876 -0.0023383845 0.000108697786
3.7825404e-05 -0.001280686 -0.001212793 -0.0014393193 -0.0018453873 0.001336102 -0.0053206263 -0.00010460901
-0.0001005613 -0.0036774098 0.0004252481 -0.0043032537 -8.8569184e-05 -0.0009175332 -0.005088068 -0.002913615
-0.0002043278 -0.0009938407 -0.0007324342 0.0024067056 0.00018058713 0.0002981132 0.0016343492 -0.0008851129
-0.0006749896 -0.0011464959 -0.001893757 -0.0020893896 -0.001219487 0.0011463582 -0.0018734874 0.0006987973
-0.0006750936 -0.003426491 -0.0019130429 -0.002387654 -0.0017857933 -0.0016481562 -0.0007326067 -0.0007741634
0.0010741228 0.0018265333 0.002845373 -0.0024121713 6.480503e-05 -0.007156652 -0.005558174 -0.0014492677
0.0019031012 0.0009416681 -0.0025673022 0.0012486377 -7.9757076e-05 -0.00047776717 0.001456526 -0.0017560024
0.00091564865 0.0002116744 -0.0004556147 -0.0010172873 -0.0021765388 0.00214445 -0.008361451 -0.006354316
-0.0017417029 0.0029832325 -0.0016901663 -0.002829627 0.0015257779 -0.0028095054 -0.0009832644 0.0008342982
-0.0010005275 -0.0056664776 0.0018725243 0.00017859122 0.00021279081 -0.0017853801 -0.00062931224 0.00015347205
-0.001344987 -0.0017630568 0.0014188024 -0.002373475 0.00049916765 -0.00039144434 0.0012438631 -0.0027554878
-0.00027593836 -0.0032707232 0.00032172995 -0.0025928097 -0.0018837554 -0.0070071523 -0.0014994901 -0.00462014
-0.0021421327 -0.0068807392 1.5554751e-05 0.00015968697 -0.0060613193 -0.004441308 -0.00017306008 -0.0018065218
-0.050693586 -0.011750925 -0.008715977 -0.009253293 0.041510474 -0.0025808234 -0.0010035263 -0.009652277
0.015818477 -0.017945368 -0.012597745 0.03504086 0.023164354 0.020038694 0.04119882 0.0043332563
0.018722028 0.013882603 0.00057907234 0.05059921 0.0011564784 0.06047338 -0.011652835 0.006052813
0.05266266 0.007999572 0.0063485694 0.030637797 -0.008677177 -0.017194163 0.051560476 0.028959157
-0.006719462 0.002399202 -0.007500438 0.05547158 -0.019121535 -0.0005363126 0.045502868 -0.008387279
-0.014482845 0.015798908 0.036344778 -0.00854648 0.001109035 0.017914822 -0.026296463 0.052706614
0.0073455153 -0.00087390986 0.0066012093 0.011532958 -0.00610164 0.022098307 -0.0071279365 -0.009026466
0.00013949178 -0.017134206 0.005888635 0.036966756 0.00073239143 0.0057666595 -0.00040959468 -0.0042439383
-0.050467703 0.028968014 0.04105099 -0.009858179 0.001011041 0.04299761 0.05299155 0.026552264
-0.001736842 -0.018909533 -0.009906831 0.050933108 0.0012070519 0.06021087 -0.020112164 0.0038171196
0.02211273 -0.040526442 -0.017860381 -0.00945139 0.0022035332 -0.007135648 0.041551884 0.03415427
-0.017982436 -0.0055305157 0.029408988 0.004291537 0.02082403 -0.01726812 0.001050415 -0.025915697
0.025352027 0.05010275 -0.0027515518 -0.013350111 -0.01402709 0.008539285 0.031069223 0.050628223
-0.005245061 0.046995286 0.037256546 0.009973021 -0.020450342 -0.0070439805 -0.014510111 -0.012508779
0.043610495 0.0061769094 -0.0007743015 0.005111381 -0.013015771 0.0522258 0.011385326 0.033166394
-0.0016723751 0.052659143 0.014903679 -0.00072916516 0.043043803 0.047863197 -0.015677653 0.061384108
00000000: 5095 f93a 4691 223b de44 e9ba d9a7 c2ba
00000010: 2c66 0fba 290a 0cbb 964e 29bb 7190 a8ba
00000020: ec6a e7ba f07b d83a 02c1 97ba b450 f2ba
00000030: 1859 0fbb 8802 8b39 7091 28bb e239 d6ba
00000040: 7570 3fbb b963 e039 764f 9cba 4a5e 65bb
00000050: 6f8f 413b 4401 96bb 953f 19bb aef4 e338
00000060: b8a6 1e38 b1dc a7ba 95f6 9eba 8ba7 bcba
00000070: ece0 f1ba 2520 af3a a658 aebb 8961 dbb8
00000080: 70e4 d2b8 b300 71bb d5f3 de39 4f02 8dbb
00000090: 38be b9b8 9c86 70ba cfb9 a6bb 59f2 3ebb
000000a0: d340 56b9 c343 82ba d400 40ba d2b9 1d3b
000000b0: fd5b 3d39 144c 9c39 a937 d63a ec06 68ba
000000c0: c9f1 30ba 0546 96ba f137 f8ba 24ee 08bb
000000d0: 32d7 9fba 6641 963a ce8f f5ba 7e2f 373a
000000e0: c4f8 30ba fb8e 60bb 11bf faba 307a 1cbb
000000f0: 4811 eaba f206 d8ba 670c 40ba 3af1 4aba
00000100: 95c9 8c3a 4a68 ef3a 7079 3a3b 8515 1ebb
00000110: f0e7 8738 5982 eabb 5821 b6bb 5bf5 bdba
00000120: 7b71 f93a 47da 763a 2f40 28bb 54a9 a33a
00000130: 4143 a7b8 d37c fab9 e7e8 be3a aa29 e6ba
00000140: 2408 703a eaf4 5d39 92df eeb9 7f56 85ba
00000150: 43a4 0ebb e789 0c3b 78fe 08bc de37 d0bb
00000160: da49 e4ba 5682 433b 9288 ddba 4371 39bb
00000170: 9cfc c73a ae1f 38bb e1e0 80ba ceb4 5a3a
00000180: 2224 83ba dcad b9bb 7d6f f53a 3744 3b39
00000190: 9920 5f39 6a03 eaba 6ef8 24ba 57ed 2039
000001a0: 464a b0ba 5f16 e7ba 1cf7 b93a 4e8c 1bbb
000001b0: 93da 023a c53a cdb9 1f09 a33a 6a95 34bb
000001c0: d2ab 90b9 a159 56bb ddad a839 21ec 29bb
000001d0: 58e8 f6ba 419c e5bb 8a8a c4ba 8b64 97bb
000001e0: 0663 0cbb d377 e1bb 937b 8237 a571 2739
000001f0: 089e c6bb 6488 91bb 7677 35b9 d0c8 ecba
00000200: 14a4 4fbd f486 40bc 75cd 0ebc 209b 17bc
00000210: e306 2a3d 0823 29bb c188 83ba 9624 1ebc
00000220: c095 813c 2a02 93bc c666 4ebc 0187 0f3d
00000230: 2cc3 bd3c 3028 a43c 18c0 283d fdfd 8d3b
00000240: f05e 993c db73 633c e3cc 173a 1e41 4f3d
00000250: fa94 973a efb2 773d 88eb 3ebc ad56 c63b
00000260: cdb4 573d a310 033c a907 d03b 1efc fa3c
00000270: b82a 0ebc c6da 8cbc 1431 533d c13b ed3c
00000280: ef2e dcbb ee3b 1d3b 3cc6 f5bb 2b36 633d
00000290: c4a4 9cbc 5497 0cba 3761 3a3d cc6a 09bc
000002a0: 7449 6dbc b66c 813c 43de 143d 8906 0cbc
000002b0: 0a5d 913a 1bc2 923c ae6b d7bc e4e2 573d
000002c0: a6b2 f03b 1917 65ba f54e d83b bbf4 3c3c
000002d0: 44f0 c7bb 8207 b53c 7791 e9bb bee3 13bc
000002e0: 8a44 1239 095d 8cbc 73f5 c03b 746a 173d
000002f0: f5fd 3f3a 3ff6 bc3b debe d6b9 bc10 8bbb
00000300: 39b7 4ebd 544e ed3c 1525 283d 3384 21bc
00000310: e884 843a 431e 303d ab0d 593d 2284 d93c
00000320: bfa6 e3ba 2ae8 9abc 4350 22bc 3c9f 503d
00000330: f135 9e3a ac9f 763d 44c2 a4bc a428 7a3b
00000340: c225 b53c 0eff 25bd ef4f 92bc 01da 1abc
00000350: 2769 103b 27d2 e9bb 4f32 2a3d 59e5 0b3d
00000360: e74f 93bc 5439 b5bb 1eeb f03c 06a0 8c3b
00000370: 2897 aa3c df75 8dbc 14ae 893a 284d d4bc
00000380: 0eaf cf3c 8b38 4d3d 6153 34bb 6dba 5abc
00000390: e1d1 65bc 5be8 0b3c e284 fe3c 8a5f 4f3d
000003a0: c3de abbb 217e 403d 529a 183d e265 233c
000003b0: 7a87 a7bc 31d1 e6bb d1bb 6dbc 9ff1 4cbc
000003c0: eba0 323d ac67 ca3b 7efa 4aba 5f7d a73b
000003d0: 1a40 55bc b8ea 553d 8589 3a3c 7cd9 073d
000003e0: 9933 dbba 1db1 573d 8f2e 743c 7225 3fba
000003f0: b34e 303d 330c 443d 6c6e 80bc e76d 7b3d

policy_model.0.bias f4 [128]
-0.0011417501 0.043814078 -0.0014982655 0.00018066491 2.1657543e-05 -0.0001491374 -0.0068062707 -0.0064603607
0.0016087131 -0.0014995139 -0.0015009871 -0.011908443 -0.012374426 0.01404973 0.0005362066 0.0003440429
0.0069249487 -0.013421575 -0.0014963433 -0.0014578769 -0.007833943 -0.0041917623 0.0076030684 -0.00038112613
-0.010633005 -0.0015008727 -0.009344881 -0.009601903 -0.0050273566 -0.0014984334 -0.005007786 -0.006354336
-0.009682337 -0.0006170341 -0.001500609 -0.001691849 -0.0008502196 -0.0011991822 -0.013199641 -0.011775451
0.03642796 -0.010454988 0.0062269606 -0.0014993733 -0.0012826791 0.015289912 -0.0118107 -0.0053864787
-0.0054085013 0.0025421355 -0.0074378257 -0.001371411 -0.0037584372 0.004025974 -0.009098014 0.0
0.0 -0.0020962944 -0.012471569 -0.001275721 -0.011415196 -0.001489098 -0.0014970349 0.0037946778
0.0026386841 -0.001500738 -0.0017543057 -0.010391153 -0.004146927 -0.00427842 -0.0041081607 -0.0041523264
-0.0010024008 -0.005178268 0.0012300846 -0.003760655 -0.0014975681 -0.010553041 -0.010297061 -0.0015000735
-0.0024704118 -0.011739818 -0.011518563 -0.0005328667 0.005242542 -0.0011631271 -0.0008377505 0.079753526
-0.0075408807 -0.012701177 -0.0014979397 -0.0035862254 -0.00030886714 -0.004665971 -0.0019211574 -0.00398127
-0.012356438 -0.0014995453 -0.010983204 -0.010806037 0.0024169623 -0.0070761847 -0.0029666997 -0.0051058135
-0.0063800705 0.005802648 0.017901326 -0.0065870886 -0.0012779451 -0.0014997962 -0.0023567036 -0.006812905
-0.00588784 -0.000110316134 -0.00068794546 -0.0016552908 -0.0016612519 -0.010427558 -0.0012245595 -0.001484655
-0.009106868 0.021915436 -0.0012879611 0.003125058 -0.0035848548 -0.00359203 0.0061221644 -0.003063017
00000000: c7a6 95ba 6476 333d 7361 c4ba de70 3d39
00000010: 38ad b537 c461 1cb9 2307 dfbb 6fb1 d3bb
00000020: 74db d23a 568b c4ba c5bc c4ba a11b 43bc
00000030: 1bbe 4abc d730 663c 3790 0c3a a860 b439
00000040: aeea e23b 2ae6 5bbc f320 c4ba 3b16 bfba
00000050: f059 00bc 0d5b 89bb 2923 f93b e2d1 c7b9
00000060: 0e36 2ebc eeb8 c4ba 461b 19bc 4d51 1dbc
00000070: 86bc a4bb 1567 c4ba 5b18 a4bb 0938 d0bb
00000080: aaa2 1ebc 75c0 21ba 15b0 c4ba 08c1 ddba
00000090: 46e1 5eba e12d 9dba 4f43 58bc d2ed 40bc
000000a0: 7c35 153d 664b 2bbc 880b cc3b 9f86 c4ba
000000b0: 921f a8ba 8a82 7a3c ab81 41bc 0f81 b0bb
000000c0: cc39 b1bb f599 263b 01b9 f3bb ebc0 b3ba
000000d0: 1d50 76bb 51ec 833b d60f 15bc 0000 0000
000000e0: 0000 0000 fc61 09bb 8d55 4cbc 1836 a7ba
000000f0: cd06 3bbc d62d c3ba 2838 c4ba 21b0 783b
00000100: c6ed 2c3b 69b4 c4ba bbf0 e5ba a83f 2abc
00000110: f2e2 87bb fd31 8cbb c09d 86bb 3d10 88bb
00000120: fd62 83ba 76ae a9bb ca3a a13a 5275 76bb
00000130: 0c4a c4ba a9e6 2cbc 01b5 28bc 1d9e c4ba
00000140: a2e6 21bb 5e58 40bc 5bb8 3cbc 14b0 0bba
00000150: a1c9 ab3b 1274 98ba 7c9c 5bba d155 a33d
00000160: 7e19 f7bb 9918 50bc 8456 c4ba e106 6bbb
00000170: 72ef a1b9 00e5 98bb 58cf fbba 5075 82bb
00000180: a872 4abc 648c c4ba e5f2 33bc ce0b 31bc
00000190: e665 1e3b 57df e7bb f66c 42bb ab4e a7bb
000001a0: e90f d1bb 2424 be3b cda5 923c 81d8 d7bb
000001b0: b980 a7ba cf94 c4ba ed72 1abb ca3e dfbb
000001c0: c8ee c0bb 8659 e7b8 3d57 34ba 58f6 d8ba
000001d0: 5dbe d9ba 59d8 2abc 6681 a0ba c198 c2ba
000001e0: f934 15bc 0088 b33c ced0 a8ba c6cd 4c3b
000001f0: e2ef 6abb 4368 6bbb 709c c83b e6bc 48bb

policy_model.2.weight f4 [8, 128]
-0.0018078343 -0.020480264 0.0017249605 0.00080096314 -0.0019682467 0.0007883454 -0.015352383 -0.0067888787
0.005554852 -0.00016256726 -0.0018161507 -0.0060434164 -0.0057687634 0.0036776904 0.0024688076 0.0012158077
0.003693336 -0.0073340177 0.0010009056 -0.002591458 -0.006203849 -0.007922875 0.015565613 0.0007064507
-0.0079642795 0.0016423524 -0.002752727 -0.0072188047 -0.015679944 -0.00083358644 -0.008615246 0.00045570155
-0.009445947 -0.010369818 0.0017549412 -0.0082278205 -0.0011592811 0.0010916123 -0.007469299 -0.008911389
-0.03753139 -0.0071127266 0.003468957 -0.0015409295 0.0012805326 -0.051802177 -0.0080773635 -0.003321782
-0.008024281 0.00468005 -0.007910199 -0.0055301124 0.004431037 0.00454108 -0.0056404085 -0.00022551893
0.0017280197 0.001266645 -0.007128527 -2.451288e-05 -0.0068266126 -0.00046371666 -0.0006562424 0.004154853
-0.008705097 0.0010280797 0.00097574637 -0.006104512 -0.0074233287 -0.00469266 -0.008298474 -0.009022456
-6.275886e-05 0.0030746132 0.0018570997 -0.00076229527 0.0023037428 -0.008569952 -0.0053724847 5.31324e-05
0.0015261496 -0.005874583 -0.001863461 0.0012261329 0.004223397 0.0011169194 -0.00010874683 -0.06088479
-0.0060461373 -0.0067433496 0.001570658 -0.0074984133 0.0024378493 -0.00703967 0.001186998 -0.015616956
-0.0063142413 0.0034453461 -0.004951407 -0.007398182 0.0037350035 -0.0071158335 0.0027958017 0.00027506036
6.244521e-05 0.0035808792 -0.0018240782 -0.007906292 -9.249044e-05 0.0022582593 -0.007343463 -0.004682583
-0.0029652948 -9.7834956e-05 0.003883494 0.00075816084 -0.00032364565 -0.0066550616 0.0009616875 -0.00031699805
-0.007671771 -0.050996147 -0.00037814677 -0.0027950848 -0.000121011006 -0.002133282 0.0045853974 0.000849748
0.001059876 0.013362618 -0.00065334234 -0.000706236 0.00041250122 -0.0009204017 0.02746614 -0.009756942
-0.008432556 -0.00017606985 0.003261046 -0.0079544 -0.007910592 -0.0068992563 -0.0025793705 -0.005200819
-0.0024332365 -0.007460885 0.0018537593 -0.0008698227 -0.01064445 -0.008959306 -0.008855046 -0.00049837533
-0.0078099673 0.0008105651 -0.0030118425 -0.006841121 0.0033570302 -0.0015161065 -0.0090326555 0.0027823509
-0.006585662 -0.0036727195 0.0005485388 -0.008328402 0.0010261559 -0.0013398543 -0.0075854836 -0.010114856
0.035702243 -0.009267991 -0.005544897 0.0026243303 0.00016603715 -0.034348693 -0.0077724294 -0.0012613279
-0.007414281 -0.007835936 -0.011674548 -0.0010950825 -0.0042232615 -0.007055047 -0.009204505 0.0015152614
0.0019239375 0.0015136178 -0.006200332 -0.0006374238 -0.008262123 0.00024059559 -0.0013575603 -0.008444267
-0.0064641996 -0.0007192017 -0.0004394246 -0.0075362152 -0.0070229815 -0.004951362 -0.005796427 -0.007869762
-0.0018643554 0.0016535833 -0.0042065564 -0.0009753001 0.003599667 -0.0077634533 -0.009584328 -0.0013748603
-9.567265e-05 -0.0077767065 -0.0024719771 -0.0012255968 -0.0069472687 -0.0010840109 0.0014327307 0.0074226502
-0.008681847 -0.00905642 0.0016030554 -0.0026630296 -0.00011494514 -0.009461091 -0.00034453988 0.0040468285
-0.0072131036 0.0004295706 -0.0074144113 -0.008078293 -0.0066452506 -0.0092325555 0.00395691 -8.1293285e-05
0.0069812713 -0.0063150893 -0.024259577 -0.006027082 -0.00071850204 -0.00083696697 -0.0076186084 -0.0028608607
-0.0012872366 0.00015975036 0.0020761243 -0.0037894074 0.002397707 -0.008009075 -0.0009527699 -0.00011376218
-0.007216745 -0.028307095 0.00015322494 0.002321343 -0.0012527419 -0.002994266 -0.007964366 -0.001749984
00000000: daf4 ecba 3ac6 a7bc 1218 e23a baf7 513a
00000010: b3fd 00bb f7a8 4e3a 9088 7bbc 3e75 debb
00000020: 7a05 b63b d176 2ab9 e80b eeba da07 c6bb
00000030: e507 bdbb 6805 713b b8cb 213b bd5b 9f3a
00000040: e50b 723b 3352 f0bb d230 833a 73d5 29bb
00000050: a849 cbbb f2ce 01bc ea06 7f3c 1b31 393a
00000060: 9c7c 02bc 3444 d73a 1867 34bb b98b ecbb
00000070: 3a73 80bc 0a85 5aba f626 0dbc 3aeb ee39
00000080: 2cc3 1abc 2be6 29bc 0e06 e63a fbcd 06bc
00000090: 05f3 97ba 6e14 8f3a 05c1 f4bb 1301 12bc
000000a0: 84ba 19bd e011 e9bb 7157 633b 04f9 c9ba
000000b0: 8bd7 a73a 852e 54bd eb56 04bc 41b2 59bb
000000c0: 4678 03bc 1b5b 993b c899 01bc f235 b5bb
000000d0: 3c32 913b 57cd 943b 2dd3 b8bb 4779 6cb9
000000e0: b87e e23a 8e05 a63a 6b96 e9bb 02a1 cdb7
000000f0: c7b1 dfbb ff1e f3b9 af07 2cba 6f25 883b
00000100: d39f 0ebc a1c0 863a 3bc9 7f3a 5c08 c8bb
00000110: 653f f3bb e3c4 99bb 53f6 07bc ecd2 13bc
00000120: 689d 83b8 737f 493b ed69 f33a c5d4 47ba
00000130: 64fa 163b fc68 0cbc ab0b b0bb 7bda 5e38
00000140: 1509 c83a 937f c0bb 603f f4ba 31b6 a03a
00000150: 6c64 8a3b 9965 923a 030f e4b8 5462 79bd
00000160: ad1e c6bb 51f7 dcbb 89de cd3a 40b5 f5bb
00000170: 53c4 1f3b 08ad e6bb 0b95 9b3a 43de 7fbc
00000180: b2e7 cebb 51cb 613b 6a3f a2bb 736c f2bb
00000190: f6c6 743b f02b e9bb c539 373b fa35 9039
000001a0: 04f5 8238 2fad 6a3b e815 efba 6489 01bc
000001b0: 6df7 c1b8 4eff 133b 6fa1 f0bb 5a70 99bb
000001c0: 6455 42bb be2c cdb8 3882 7e3b 50bf 463a
000001d0: fcae a9b9 b412 dabb c119 7c3a c232 a6b9
000001e0: 7b63 fbbb 56e1 50bd 0042 c6b9 be2d 37bb
000001f0: 4ac7 fdb8 88ce 0bbb 1a41 963b 9fc1 5e3a
00000200: 8aeb 8a3a e2ee 5a3c 1045 2bba b222 39ba
00000210: fa44 d839 1d47 71ba ac00 e13c 95db 1fbc
00000220: b428 0abc 649f 38b9 46b7 553b 2c53 02bc
00000230: 6d9b 01bc 2813 e2bb a80a 29bb a26b aabb
00000240: ef76 1fbb 717a f4bb d7f9 f23a d004 64ba
00000250: 0f66 2ebc 0eca 12bc c114 11bc 67a5 02ba
00000260: c1ea ffbb 1a7c 543a 5562 45bb 7b2b e0bb
00000270: 9f01 5c3b 18b8 c6ba b4fd 13bc 1a58 363b
00000280: 89cc d7bb 02b2 70bb d1cb 0f3a da73 08bc
00000290: 1480 863a 0d9e afba a68f f8bb c8b8 25bc
000002a0: 843c 123d c6d8 17bc f8b1 b5bb f5fc 2b3b
000002b0: 421a 2e39 37b1 0cbd ddaf febb 2453 a5ba
000002c0: 7ff3 f2bb 4c62 00bc 9a46 3fbc df88 8fba
000002d0: 4963 8abb 062e e7bb 7ece 16bc bc9b c63a
000002e0: a12c fc3a 9664 c63a 282c cbbb c918 27ba
000002f0: db5d 07bc 6348 7c39 2af0 b1ba d359 0abc
00000300: a3d1 d3bb cf88 3cba 9262 e6b9 5bf2 f6bb
00000310: 0a21 e6bb 093f a2bb f4ef bdbb 2df0 00bc
00000320: 635d f4ba 0cbd d83a 27d7 89bb 48ab 7fba
00000330: 64e8 6b3b 9164 febb 9607 1dbc a834 b4ba
00000340: dda3 c8b8 bed3 febb e500 22bb 34a4 a0ba
00000350: eaa5 e3bb 5f15 8eba 77ca bb3a b439 f33b
00000360: 4e3e 0ebc 6161 14bc 9d1d d23a 3986 2ebb
00000370: b40e f1b8 b102 1bbc 5ca3 b4b9 429b 843b
00000380: e65b ecbb fd37 e139 97f4 f2bb d15a 04bc
00000390: 67c0 d9bb 2544 17bc f8a8 813b 007c aab8
000003a0: 26c3 e43b cfee cebb 05bc c6bc d47e c5bb
000003b0: db59 3cba e767 5bba 85a5 f9bb 477d 3bbb
000003c0: 7eb8 a8ba a982 2739 960f 083b b557 78bb
000003d0: d922 1d3b 7f38 03bc 4ec3 79ba 9b93 eeb8
000003e0: 727a ecbb 48e4 e7bc 02ab 2039 ac21 183b
000003f0: 0b33 a4ba 733b 44bb f97c 02bc b85f e5ba

policy_model.2.bias f4 [8]
-0.017491342 -0.004107889 0.03313032 0.0059551243 -0.0055203293 -0.00068260805 0.01604899 -0.027040444
00000000: 014a 8fbc 789b 86bb a9b3 073d 3423 c33b
00000010: e1e3 b4bb 0df1 32ba 2c79 833c ec83 ddbc
