results/short_race/second_iteration_training/model827.pt (torch, 276107 bytes, 13 tensors)

features_model.0.weight f4 [128, 4]
000000 c5 ea ce 3b 68 0b 5d 3e 44 77 9d 3d 7c 7f a1 be
       0.006314608 0.21586382 0.07688764 -0.31542575
000010 2a 9e 08 3d 54 a1 9c bd 3e a5 71 b7 03 f9 ea 3c
       0.033353962 -0.076479584 -1.4403193e-05 0.028683191
000020 31 5a 1c 3e 5a ad d8 3c 2d b7 09 bd 67 34 97 3e
       0.1526878 0.026449848 -0.033621956 0.29532167
000030 65 58 40 3e 92 9f cf bd 72 e8 67 bd 78 36 d2 bd
       0.1878372 -0.101378575 -0.05661816 -0.10264295
000040 31 80 1d 3d 3d 8e 11 3c 44 59 49 3d 0c bd f4 bc
       0.03845233 0.00888401 0.049157396 -0.0298753
000050 26 34 25 3d f5 de 80 3d c4 86 75 3e 0c f1 48 be
       0.040332936 0.06292526 0.2397719 -0.19623202
000060 bc 57 ec bb 93 c0 c4 bc 92 13 da 3d 1d fd a6 3e
       -0.007212607 -0.024017608 0.10648264 0.32614985
000070 99 89 52 3b e7 cc 03 bc d9 65 95 3d b0 a7 a3 3e
       0.0032125472 -0.008044458 0.072948165 0.31963873
000080 15 0c 3e be 0b 3e 26 3e 70 9c fd 3d 2e 9e 9c 3b
       -0.18559296 0.16234605 0.12383354 0.0047795987
000090 ab 6e b7 3b dc cf 6b 3e db 27 65 3d 0b 5d ba be
       0.0055979094 0.23028511 0.055946212 -0.3639911
0000a0 bc 56 66 3d c5 fe 84 3e fa 27 3e 3e d4 3b 2a 3e
       0.05623506 0.25975624 0.18569937 0.16624385
0000b0 53 0e 24 3e 84 3b f4 bd 21 a7 30 3e 35 54 5e 3d
       0.1602109 -0.11925414 0.17251255 0.054279525
0000c0 b5 ca 02 3e 49 72 b0 3e 46 fc 0e 3d 33 c5 a8 bd
       0.12772639 0.34462193 0.034908555 -0.08240738
0000d0 e1 92 25 be 61 e4 22 bd 0c 4c 18 be 8a e5 87 3c
       -0.16169311 -0.03976858 -0.1487276 0.016588945
0000e0 a6 71 62 bd 14 92 af 3e d2 2a 0c bd 2b 4c 0d 3e
       -0.055284165 0.34291136 -0.034220524 0.13798587
0000f0 df bc 53 be 14 5d 89 bc 25 23 98 be c2 b2 81 3d
       -0.20677517 -0.016768016 -0.29714313 0.063329235
000100 98 e9 f6 3d 84 0b 8d bc 45 7d d3 3c d7 d2 ff bd
       0.12056273 -0.017217405 0.02581657 -0.124913864
000110 e1 fb 4b bd 04 08 7a be bf 4d fd bd 36 56 5f bd
       -0.049800757 -0.2441712 -0.123683445 -0.054525577
000120 54 40 07 be 50 f5 68 3d a1 42 a7 bd 7a 4f e5 bd
       -0.13208133 0.056874573 -0.08167005 -0.111967996
000130 da e8 93 bd 26 d3 0e be 8f 32 84 be 49 71 4b be
       -0.07222147 -0.13947734 -0.25819823 -0.19867434
000140 79 61 a9 3d fd b3 a2 bd b7 ea fb bd ee 3b 4e 3d
       0.082705446 -0.07944486 -0.12300628 0.050350122
000150 69 ff 71 be de d9 31 be eb 70 40 3e 15 d5 81 bd
       -0.23632587 -0.17368266 0.18793075 -0.0633947
000160 89 4d 4b 3d fe cb 6a 3e 1a 56 a3 bd 55 7b d6 bc
       0.04963449 0.2292938 -0.07975407 -0.026181856
000170 49 9e 67 be 4d e4 b5 bd 92 37 dc bd 6c 04 95 3d
       -0.22618975 -0.088814355 -0.10752787 0.07276234
000180 76 34 e8 3c fa 33 30 3e c7 f1 10 3e 1f c4 a0 be
       0.028345328 0.17207327 0.1415473 -0.3139963
000190 3e 7d c0 be b6 81 58 be 81 27 9b 3d d5 16 b3 bd
       -0.37595552 -0.21143231 0.07575894 -0.08744589
0001a0 5e 4c 6f 3e 92 4d bf 3e 0e 3c cb bc 40 73 40 3e
       0.23368976 0.3736387 -0.02480891 0.18793964
0001b0 3e 00 b0 bd ea 08 a3 bd 4c 62 d7 bd ca fc c0 bc
       -0.08593796 -0.079606846 -0.105167955 -0.02355804
0001c0 34 ca ac 3b f9 ee 80 bc ce ad 92 bd cf de d1 3e
       0.005273128 -0.015738951 -0.07162057 0.40990302
0001d0 3e 65 bd 3d 9b 1d d3 3d 65 f8 e9 bd 09 4c 82 bd
       0.09247826 0.10308381 -0.114243306 -0.06362159
0001e0 25 d3 29 3e 65 ec 05 3e 09 53 32 3e 11 43 f7 3d
       0.16584451 0.13078459 0.17414488 0.12073339
0001f0 0d b5 cc 3d d1 0f 96 3d bc 4f ea 3d 05 02 70 3e
       0.0999547 0.073272355 0.114409894 0.2343827
000200 72 6a 51 3e ed 54 93 be 63 ba 74 3d f9 f6 d9 3d
       0.20450762 -0.2877573 0.059748065 0.106428094
000210 6c 0d 3b 3e 4e 34 45 bc 5f 6d 07 3e 52 01 80 bc
       0.18266839 -0.012036396 0.13225316 -0.01562563
000220 81 d2 4f 3c 65 b5 1a 3d 4a 23 74 3e 88 a1 98 3e
       0.012684465 0.037770648 0.23841587 0.2981074
000230 5c 62 be 3d 18 ee 10 be 57 6c 4f 3b d7 d4 3d be
       0.09296104 -0.14153326 0.003165027 -0.18538223
000240 51 26 a1 bd d0 d3 dd bd 54 bf cd 3d 14 67 6e bc
       -0.078686364 -0.10831416 0.100462586 -0.014550943
000250 a2 d7 90 bd ea 55 c4 bd a3 8e 0a bb 4b 38 b4 3d
       -0.07072379 -0.09586699 -0.0021142147 0.087997995
000260 04 3b 17 be f5 c4 1f 3d c5 df 97 3d 7c c3 67 3e
       -0.14768606 0.039006192 0.074157275 0.22633165
000270 41 57 01 3d 87 88 81 3c 67 7d 0b 3e 87 3c c9 3e
       0.031577352 0.015812172 0.13622056 0.3930399
000280 6a fe 90 b7 03 35 5d bc b1 a9 92 bd 94 66 b1 3e
       -1.7284608e-05 -0.0135014085 -0.07161272 0.34648573
000290 05 ab 0f bd c5 6f 94 bd 4f a6 ce 3c 2b 6b 72 be
       -0.035075206 -0.07247881 0.025225786 -0.23673694
0002a0 29 6a 94 3d dc b2 54 bd 2c 75 dc bc 6e e7 f2 bd
       0.07246811 -0.051928386 -0.02691134 -0.11860548
0002b0 46 7c fa bd 22 9f 32 3e 51 da 08 3e c3 77 68 3c
       -0.122307345 0.17443517 0.13364531 0.01418871
0002c0 dd 9c e8 3c 96 b6 9a 3e 4e 8d 42 3d d5 a3 e8 bc
       0.02839511 0.30217427 0.04749804 -0.028398434
0002d0 b6 57 1f bd 85 3c aa bd 85 8a 91 bd ce e3 13 3e
       -0.038902007 -0.083123244 -0.07106499 0.1444237
0002e0 59 88 c3 3d 7d 84 2a 3c 18 85 c9 3e 23 eb cb bd
       0.095474906 0.010407564 0.39359355 -0.09956958
0002f0 a6 83 f1 bb 28 bd d4 3c 53 62 fd 3d 0a ef fc 3c
       -0.00737043 0.025969103 0.123722695 0.030875701
000300 c8 0c 55 be 9b 24 98 b9 e7 66 16 be a2 a6 3a 3c
       -0.20805657 -0.00029018972 -0.14687692 0.011392267
000310 6a 8f 71 3e 97 95 01 be 4d 5b 5e 3d 75 c0 05 3e
       0.23589864 -0.1265472 0.05428629 0.13061698
000320 06 70 51 be 1c 76 a5 bd 47 06 d2 3c d8 ab b3 3d
       -0.2045289 -0.08079168 0.025637759 0.08773011
000330 f3 10 99 be 1c ea 46 3e 52 9f 3f 3e da 8c b7 3c
       -0.29895744 0.19425243 0.1871312 0.02240603
000340 fa 3b 45 3e 6a 15 b9 3e 1a d2 7b bd 44 7c 22 bd
       0.1926116 0.3614915 -0.061479665 -0.03966929
000350 e3 d9 60 3e 28 d9 7a bd ff f9 0b bd ca 36 03 bd
       0.21958117 -0.061242253 -0.03417396 -0.032034673
000360 66 14 36 3d 8b 72 24 3c 11 11 e1 3d dc fe 51 3d
       0.044453047 0.010037075 0.10989583 0.051268443
000370 0e 57 f6 3d 71 8c d2 bb 41 4f 4e 3e a3 39 d7 3e
       0.12028323 -0.0064254333 0.2014742 0.4203616
000380 54 ae 09 3e 06 ea 42 3d d4 b3 f9 3b bc d3 c2 bd
       0.13445407 0.047586463 0.007620314 -0.095130414
000390 2a 10 90 bb a8 02 50 3e a9 28 09 3e b8 45 01 3c
       -0.004396458 0.20313513 0.13394417 0.007890157
0003a0 ab 51 94 bd 62 3f a4 3c 8e 79 6f bd 11 5a f7 3c
       -0.072421394 0.020049755 -0.058465533 0.030194314
0003b0 b2 7d f4 3d df 53 a3 3d a2 03 16 3e 44 f5 9b 3e
       0.11938037 0.079749815 0.14649823 0.3046056
0003c0 2a 4f b0 bc f9 ec 2f 3d 72 26 9d 3c 84 04 7b 3e
       -0.021522123 0.042950604 0.019183371 0.24513441
0003d0 89 1a 33 3c cd 55 92 bc bf e3 0e be 9c 0b 99 3e
       0.010931619 -0.017863179 -0.13954066 0.2989167
0003e0 c2 d9 02 bc 27 e3 0c 3e 1a 7d 81 3d bc 58 aa be
       -0.007986488 0.13758527 0.06322689 -0.33270824
0003f0 cf 28 50 be fc fe 80 3e 7a a4 fe bc 00 81 21 be
       -0.20328067 0.25194538 -0.031084288 -0.15771866

features_model.0.bias f4 [128]
000000 0c d7 3a 3e 3e 1d d9 3b b5 a5 05 3e 81 37 09 bd
       0.18246096 0.0066258004 0.13051493 -0.0335002
000010 15 a8 50 3e 9d 57 f3 3d e1 b1 25 3e a6 2d 36 3e
       0.20376618 0.11881945 0.16181137 0.17790851
000020 96 97 10 3e 61 c8 42 3e 64 b7 6c 3e 58 48 0e bc
       0.14120325 0.19021751 0.23116833 -0.00868424
000030 00 95 17 3e c0 d4 31 bd 1e 4f 0a 3e 7c f9 0c 3e
       0.14802933 -0.043415785 0.13506743 0.13767046
000040 65 88 bf 3d 1a 00 c6 bc 2f 0f 78 bd 8a ad b0 bb
       0.09352187 -0.02416997 -0.060561355 -0.005391781
000050 9c 6a 20 3d bb ed e4 bd 0b 59 2a 3e 1e 07 55 bc
       0.03916417 -0.11178156 0.1663553 -0.013002185
000060 ad b7 55 3e 4a 56 2c bd b9 91 a2 3d ff 1b 70 3c
       0.20870848 -0.04207448 0.07937951 0.014655112
000070 08 b7 48 3e 45 05 2c 3e d9 cd 21 3e b8 a9 4c 3e
       0.19601071 0.16798885 0.15801181 0.19986618
000080 a1 4a d5 ba ed 2c bb 3d 9e ea 4c 3e 63 42 1b 3d
       -0.0016272851 0.09139428 0.20011374 0.03790511
000090 2c 84 8b 3d 25 85 e9 bc ba 09 43 3e 4e 62 37 3e
       0.06812319 -0.028505871 0.19046679 0.17908594
0000a0 5d b3 5d 3e fb dc fe 3c f1 ec df 3d f2 c5 fc 3d
       0.21650453 0.031111231 0.10933865 0.123424426
0000b0 ab cc 2e 3e b6 6a a5 bc 3f 4c a1 3d 75 27 23 3e
       0.17070262 -0.020192485 0.07875871 0.1593302
0000c0 50 2b f0 bc f4 a4 6a 3d 2c 9e 6f bd e8 2b 10 3e
       -0.029317528 0.057286218 -0.058500454 0.14079249
0000d0 14 82 05 3e 9b 69 a6 3d c5 a8 48 3e 61 75 d0 3d
       0.13037902 0.081256114 0.1959563 0.10178638
0000e0 81 bc 07 3e 07 d1 12 3e 6d 8c 6f bc 35 1b 51 3e
       0.13255502 0.1433755 -0.014620882 0.20420535
0000f0 80 17 45 3e 6b de 29 bd 73 bb 47 3e d5 0d 34 3e
       0.19247246 -0.04147188 0.195051 0.17583402
000100 b9 4e 21 3e d5 ce 76 3e d8 00 1e 3e ee be 4e 3e
       0.15752687 0.24102338 0.1543001 0.20190021
000110 20 39 33 3e 14 80 12 3e 62 c5 8e bd ea 90 9a bd
       0.1750226 0.1430667 -0.069712415 -0.075471714
000120 78 f5 65 bc c8 02 d7 3d 4d b2 2f 3e e5 44 54 bd
       -0.014035575 0.10498577 0.1715786 -0.051823515
000130 6b 9d 58 bc 37 4c b6 3d d2 13 49 3e 89 f7 20 3d
       -0.013221125 0.089012556 0.19636467 0.039298568
000140 eb 8e 00 3e 06 ee 86 bc 2a a0 27 3e 66 6e 01 3e
       0.12554519 -0.01647092 0.16369691 0.1263977
000150 e0 85 a8 bc 63 be fb 3c f9 e7 7c 3e 89 76 f2 3d
       -0.02057165 0.030730432 0.24697866 0.11839015
000160 ac f7 02 3e 73 0b 8d bc 52 7b 8a bc 69 ea 78 3d
       0.12789792 -0.017217373 -0.016904507 0.060770426
000170 f4 9e 3f bc 7f 2c 9b 3c ed 3c 3d 3d fa be 20 3e
       -0.011695612 0.018942116 0.04620068 0.15697852
000180 fc 48 3a bd 15 05 aa bc a4 93 66 3d 13 bb 1e 3e
       -0.04547976 -0.020754376 0.056293145 0.1550105
000190 33 fa d8 bc f9 e8 51 3e 1d 39 81 3e 33 23 33 3e
       -0.026486492 0.20499028 0.25238886 0.17493896
0001a0 80 79 29 3e cf 00 55 3e 3d 67 45 3e 3a 66 43 3e
       0.16550255 0.2080109 0.19277664 0.19081965
0001b0 cb 24 69 bc fb 7d df bc f8 d7 33 3e 0b 6d 31 3e
       -0.0142299635 -0.027281752 0.17562854 0.17326753
0001c0 42 b6 32 bd f8 87 b1 3d 3c d5 f1 3d 77 70 57 3e
       -0.043630846 0.08668512 0.11808249 0.21038996
0001d0 0f 2a 61 3e 54 1b 4b bb 59 29 37 3e 84 03 f6 bc
       0.219887 -0.003099163 0.17886867 -0.030030973
0001e0 35 e3 6a bd ee d6 89 3e 94 62 c9 3d bc d5 98 3d
       -0.057345588 0.2692179 0.098332554 0.074626416
0001f0 6f 26 51 3e 16 03 21 3e 63 19 56 3e de 1e 88 bb
       0.20424818 0.15723833 0.20908122 -0.0041540703

features_model.2.weight f4 [128, 128]
000000 2b 90 c2 3e 2e cc 88 bd 11 82 4d bc 45 4a b2 3d
       0.38000616 -0.06679569 -0.012543217 0.08705572
000010 a1 b8 67 3e 3e 4d 05 3e e9 cc da 3d 23 b8 78 3d
       0.22629024 0.13017747 0.10683615 0.06072248
000020 65 ab 43 3e 0c f8 5c 3e 98 2e 34 3e 21 c8 70 bc
       0.1910835 0.21578997 0.17595899 -0.014696152
000030 10 fe 54 3d 7d f4 f3 3c 05 fd 8c 3d 06 af 12 3e
       0.052000105 0.029779667 0.06884197 0.14324579
000040 29 ed 0e be fd 46 91 3d 37 17 60 bd 81 46 ff bd
       -0.13957657 0.07093618 -0.05470964 -0.124646194
000050 a6 0e c2 3d 39 17 0f 3d 29 92 17 3e 3f 8c 58 bd
       0.0947545 0.034934256 0.1480185 -0.052868124
000060 30 33 5a 3e fa 28 0d be f0 26 1d ba e2 28 86 3e
       0.21308589 -0.13785163 -0.0005994877 0.26203066
000070 25 6f 46 3e fd 3f e5 bc 8b 31 76 3d f3 26 1b 3e
       0.19378336 -0.027984614 0.06010584 0.15151577
000080 74 eb 3e 3e 57 4e 7c bc 52 65 18 3e 63 d9 83 bc
       0.18644506 -0.015399537 0.148824 -0.016094869
000090 fa 35 d5 bd b9 74 5f be 88 ff 5a 3d 96 bd 21 3e
       -0.10410686 -0.2182187 0.05346635 0.15794978
0000a0 d5 a3 b8 3e fa 6f 12 bd 70 d6 35 3e 43 3e 90 3e
       0.36062494 -0.03575132 0.17757583 0.28172502
0000b0 ce 1b 95 3e eb 54 24 3e ca 94 1f bd 95 db bf 3d
       0.29122776 0.16048019 -0.038960256 0.09368054
0000c0 82 e5 2b 3e c1 a9 95 3e f5 e2 24 3e 9f 9a c3 3e
       0.16786769 0.29231074 0.16102202 0.38203904
0000d0 47 97 4e bd 13 4f 3e bd 86 dd 91 3a 88 e3 26 be
       -0.050437238 -0.04646213 0.0011128641 -0.16297734
0000e0 60 b5 1e bd a9 d3 a3 3d 0e b2 70 bd 93 b1 39 3e
       -0.03874719 0.07999355 -0.058763556 0.18134145
0000f0 ae 40 aa 3e 7d 53 ab 3e 40 8e 82 3e b9 65 13 bc
       0.33252472 0.33462134 0.25499153 -0.008996421
000100 96 79 d2 3e f9 9b 8f 3e ed 94 f0 3d cc f2 21 3e
       0.41108388 0.28048685 0.11747155 0.15815276
000110 b9 78 6a 3d 9b 67 88 3e ff a3 d4 3d e9 bf 70 be
       0.057244036 0.26641545 0.10382842 -0.23510708
000120 95 b9 5f be a5 81 22 3d f3 81 8c 3c 77 9a 56 bd
       -0.21848138 0.03967442 0.017151808 -0.052393403
000130 12 35 fe bc 13 c9 5d 3d ea 21 06 3e fb 58 a3 be
       -0.031031165 0.054146837 0.13098875 -0.31903824
000140 82 fb f2 3d b0 ac 42 3d 5e 97 f6 bc bf 73 26 3e
       0.118643776 0.04752797 -0.030101474 0.16255091
000150 15 2d 76 3e 9e 9b 46 3e 68 47 7d bc c9 47 86 bd
       0.24040635 0.19395301 -0.015458919 -0.06556661
000160 e9 69 88 3d 37 00 62 3d 02 5b 73 be 23 c0 c0 bd
       0.06660826 0.055175986 -0.23765185 -0.09411647
000170 79 36 30 3e 0d f3 5f bd 63 f7 2b bd 80 20 87 bd
       0.1720828 -0.05467515 -0.041983973 -0.06597996
000180 39 47 c5 bc d9 80 d7 3d ff ba 5a 3e 09 53 31 3c
       -0.024081813 0.105226226 0.21360396 0.01082302
000190 d3 33 c8 3d b2 61 33 3e 41 e7 3d 3e 49 66 f2 3e
       0.0977551 0.17517737 0.18545248 0.47343662
0001a0 42 e7 b7 3e b5 af fd 3d 81 4e 81 3a c6 aa a0 3d
       0.35918623 0.12387029 0.0009865315 0.078450724
0001b0 10 29 f9 bd fe 0e 25 3e 88 3a 12 3e cd 68 9e 3e
       -0.12166035 0.16119 0.1428014 0.30939332
0001c0 d6 84 d2 bd 25 6c 33 be e4 65 40 bd 9f 1e 51 3e
       -0.10279243 -0.17521723 -0.04697217 0.20421837
0001d0 e2 23 5d 3e eb 61 09 be 84 c8 1d 3e be 78 25 be
       0.2159572 -0.13416259 0.15408522 -0.1615934
0001e0 e7 2c 9e bd 26 f2 8b 3e 30 22 a1 bd 5a 28 6c 3d
       -0.07723408 0.27333182 -0.07867849 0.05765567
0001f0 6c c0 22 3e 69 b4 68 3e f0 e8 94 3e 73 7a b1 bd
       0.15893716 0.22725071 0.29083967 -0.086659335
000200 72 07 1c 3d ca aa 9d 3d ef c5 a9 3d 08 f1 38 bb
       0.038093038 0.07698591 0.08289706 -0.0028219838
000210 25 ad 42 bd 9d 87 ae 3d 50 60 35 3e 02 ab a1 bd
       -0.047528405 0.0852196 0.17712522 -0.07893945
000220 b3 49 71 3e 63 44 2f be 06 31 95 bd 44 95 cc 3d
       0.2356327 -0.17115931 -0.07284741 0.09989408
000230 ba 1d 9c 3c 44 10 ea 3c b5 67 97 3e ce 89 5a bc
       0.019057143 0.02857221 0.2957131 -0.013338519
000240 4c a6 0b bd ae 99 1a 3d e5 12 63 3d 88 46 bb bd
       -0.03409414 0.037744217 0.05543794 -0.09144312
000250 07 d5 e6 bc 26 d5 1e be c4 30 a7 bd 79 2a ca 3d
       -0.028177751 -0.15510997 -0.08163598 0.09871382
000260 c4 24 33 bd 19 5a c3 bd e2 23 24 be 9b 61 c7 bc
       -0.043736234 -0.09538669 -0.16029313 -0.024338534
000270 d7 f8 b4 3e 86 f2 26 be 49 63 b1 be 66 60 89 bd
       0.353461 -0.16303453 -0.3464606 -0.0670784
000280 bc ed 5d 3d dc 53 06 3c ac b2 81 bd 29 6d 83 bd
       0.0541818 0.008198705 -0.06332907 -0.06417305
000290 7f ef 95 3d 49 96 15 3c 09 ce 93 3e ad c6 31 3d
       0.07321071 0.009130069 0.2886813 0.043402363
0002a0 cd f7 4f 3e 9a 6d 4a be 74 2d 34 3c 7e 8c 7b 3e
       0.20309372 -0.19768372 0.010997165 0.24565312
0002b0 63 ea 2b 3e 27 70 21 bd ae 33 1d 3d 34 06 9c 3e
       0.1678863 -0.039413597 0.038379364 0.30473483
0002c0 51 42 0e be 7e 73 f7 3c 13 75 2f 3d d4 d3 8d 3d
       -0.13892485 0.030206438 0.04283626 0.06925169
0002d0 a2 7d 15 3d db 9e a3 3d d1 ad 16 3d a5 21 cb 3d
       0.036496766 0.07989284 0.036786858 0.099185266
0002e0 5a 30 87 3c cf 5d 6a 3e 82 6f bb bd af 9b 8d 3d
       0.016502548 0.22887348 -0.09152128 0.0691446
0002f0 03 29 b9 3e 44 18 82 bc 41 12 3d be 0e 7d f0 3e
       0.36164102 -0.015880711 -0.18463995 0.4697041
000300 f8 37 61 3e 75 82 3f 3e f2 30 e3 3d b8 e1 82 3d
       0.21994007 0.18702109 0.1109332 0.06390709
000310 ab fd 92 3d 70 a1 cb 3e 99 95 84 be 15 1c 15 bd
       0.071772896 0.39771605 -0.25895384 -0.036403734
000320 63 62 a1 3d 67 0d 6d 3e 47 b2 0e be 8a fa 07 3e
       0.07880094 0.23149644 -0.13935195 0.13279167
000330 46 db f9 3a dc de b3 bc 6e fb 3b 3d 08 d1 dc 3d
       0.0019062541 -0.021956854 0.04589408 0.10782057
000340 0c 9f 47 3d f4 cf 01 3e d6 2a 84 3d 3a 7c b4 3e
       0.048735663 0.12676984 0.06453483 0.35251027
000350 5e 41 97 3d 79 d3 35 3b 1b 7b 01 be 1b 71 42 3d
       0.07385515 0.0027744456 -0.12644617 0.047471147
000360 01 cc 71 3e ee 5a 1b bb 4e 07 03 bd 26 2b e5 3a
       0.23612978 -0.0023705321 -0.03198939 0.0017484173
000370 47 6a 14 3d 39 27 f7 3c 8c 3f 0e 3e 4b 92 07 be
       0.036234166 0.03017007 0.13891429 -0.132394
000380 d4 fc 8f 3c 74 d1 c6 bd 61 69 31 3e 2a c1 3b 3b
       0.017576613 -0.09707919 0.17325355 0.002864907
000390 23 c3 33 3d b7 5b 84 bc 9b 01 a4 be bc de 28 3e
       0.04388727 -0.016157014 -0.32032475 0.16491216
0003a0 94 55 62 3d e0 41 f8 3c 36 0d f2 bd 8c fc b6 3e
       0.055257395 0.03030485 -0.11818926 0.35739553
0003b0 fa 77 d2 bd f3 83 c0 bc 80 91 ee 3d f4 0e 5b 3e
       -0.1027679 -0.023500418 0.11648846 0.21392423
0003c0 a4 2f 7b bd 63 d8 55 be 24 57 6f 3d 8b 85 e6 3c
       -0.06132473 -0.20883326 0.058432713 0.02813985
0003d0 5c c3 80 3e 8a 6f e9 3d f8 24 99 3e 12 02 c7 bd
       0.25149047 0.113982275 0.29911017 -0.09717192
0003e0 61 be a4 bc 6e 38 86 3e 48 65 4b 3e 52 99 8c 3b
       -0.020110311 0.26214927 0.19862854 0.004290738
0003f0 99 b9 b1 bb fd 03 19 be fe 05 99 3d 2a 04 a3 3d
       -0.0054237363 -0.14942928 0.07471846 0.079597786

features_model.2.bias f4 [128]
000000 39 ee 0d 3e d2 eb 9a 3d fb 58 c0 3b e9 04 79 bd
       0.13860406 0.075645104 0.0058699823 -0.0607957
000010 c1 13 b6 3d b9 f1 35 3e a4 43 98 bc 00 00 00 00
       0.088904865 0.17767991 -0.018586941 0.0
000020 44 32 03 3e a1 5e 27 3e cc 2e e9 bc 73 50 06 3e
       0.12812144 0.16344692 -0.028464697 0.13116626
000030 22 57 7e bc 69 f6 ba bc 21 4a d7 bb bd 7d 52 3e
       -0.015523704 -0.022822576 -0.006570116 0.20555778
000040 06 54 a4 bb 62 ab 72 3d 00 0b cc bc 24 d2 13 3e
       -0.005014899 0.059245475 -0.024907589 0.14435631
000050 13 64 c3 bb 2e 7e 2b 3e 75 6e 97 bc 43 13 3b bd
       -0.0059628575 0.16747352 -0.018485287 -0.045672666
000060 72 7a 4d 3e 22 5b 12 3e 02 69 eb ba 06 8e 39 bc
       0.2006624 0.14292577 -0.0017960372 -0.011325365
000070 54 e4 e4 bb e8 32 cf ba 32 40 ea bc e3 27 1f 3e
       -0.0069852266 -0.0015808018 -0.028595064 0.1554256
000080 e4 aa e7 3d 5b 97 0b 3e b5 ac 4a 3e cb 4c e1 3d
       0.11311892 0.13631956 0.19792445 0.11000975
000090 4e 6f 09 bd ad 0d d5 3d d9 9a 1a 3e 20 15 4a bb
       -0.033553414 0.10402999 0.15098132 -0.0030835345
0000a0 6a 35 37 3e f7 37 e1 3d 0e d7 12 bd b3 2e dd bb
       0.1789147 0.109970026 -0.035849623 -0.0067499517
0000b0 eb f6 bf 3d 81 c2 c5 bc bd 4c 6b 3c 29 50 4d bc
       0.09373268 -0.024140598 0.014361558 -0.012531319
0000c0 65 48 da bc d2 54 cf 3d dc 80 64 bc a8 ca 59 bc
       -0.026645849 0.101236 -0.013946738 -0.013292946
0000d0 4a ef 9d bc ac 00 cd 3d 29 6a 3a bc b4 61 27 3e
       -0.019279141 0.10009894 -0.01137785 0.16345865
0000e0 8f 73 d9 3d 90 ba 52 bc 84 d0 a8 3d 28 eb cc bc
       0.10617744 -0.012861863 0.08242896 -0.025014475
0000f0 0a f5 c7 bc 8f 73 05 3d 12 90 56 bb 47 16 d8 38
       -0.024408836 0.03258091 -0.0032739681 0.00010303832
000100 05 76 26 bc 0a bf 1b bd 3d 43 d9 bb a9 96 30 3e
       -0.010159974 -0.038023986 -0.00663033 0.17244972
000110 09 c1 21 3e 6a 5e ed 3d 65 21 ba 3c 54 5b a7 bb
       0.15796293 0.11590274 0.022721002 -0.0051073227
000120 f8 ba de bc e2 81 d2 bc 5a 5a 09 3e 1f f6 0a 3e
       -0.027188763 -0.025696699 0.13413373 0.1357045
000130 24 e5 0e 3e 99 d0 4c 3b 8d 9e 10 3e 4c 22 9d bc
       0.13954598 0.0031252264 0.14122982 -0.019181393
000140 00 00 00 00 6f c6 6c 3c 3c e4 c8 bc 37 43 05 3e
       0.0 0.014451607 -0.024522893 0.13013922
000150 85 6c 6e bc 00 59 05 3e 7f a4 38 bc 14 bd 5e 3e
       -0.01455224 0.13022232 -0.011269688 0.21751815
000160 f0 ec e1 3d 82 ed 3a bb 4a e1 3c bc 3c d7 e4 3c
       0.1103152 -0.0028522913 -0.0115283225 0.027934663
000170 f7 af 0c 3e 8b 9b 08 bd 87 8b 9f bc 62 75 05 3e
       0.13739 -0.033351462 -0.019475712 0.13033059
000180 33 b8 2e bc a9 3a 9b bc 06 21 3b 3d f9 55 54 3e
       -0.010664034 -0.01894887 0.04568579 0.20735921
000190 b0 4c 3b bd c1 0f 19 bd 00 00 00 00 d2 cf 80 bc
       -0.04572743 -0.03736854 0.0 -0.015724096
0001a0 c6 34 05 3e a7 5a fe bb 5f 29 23 3e e9 0d 56 bd
       0.13008413 -0.0077622714 0.1593375 -0.05225936
0001b0 79 75 11 ba 78 38 df bc 48 60 f4 3d f0 72 41 bd
       -0.0005548816 -0.027248606 0.11932427 -0.047228754
0001c0 57 f1 d3 bc b8 9d 42 bc 4e 59 ec 3d 7a 27 6e 3e
       -0.025871916 -0.011878423 0.11540471 0.23257247
0001d0 4c e0 20 3e b8 18 1f 3e f0 83 58 bc de 29 3d bd
       0.15710562 0.15536773 -0.01321505 -0.046182506
0001e0 e8 bd f3 3b 58 ae 8b bc c0 e8 72 bc ae f6 8e 3d
       0.00743841 -0.017050907 -0.014826 0.06980644
0001f0 78 5b 53 bc d6 27 3f 3d 00 00 00 00 81 37 42 bc
       -0.012900226 0.04666885 0.0 -0.0118540535

features_model.4.weight f4 [128, 128]
000000 de fa 02 3e 3b 03 44 b9 a4 90 6f 3d 7b ad 72 bd
       0.1279101 -0.0001869322 0.05848755 -0.059247475
000010 a7 a1 98 bc cb 99 62 be c9 63 83 be 63 d7 92 3b
       -0.01863177 -0.2212898 -0.25662068 0.0044812425
000020 41 ff 9b bd 15 f1 71 3c 5a 68 76 bd da 07 2d be
       -0.07617045 0.014766951 -0.06015811 -0.16897526
000030 9f 26 54 bd 05 c9 4f bd 92 33 2a bc 14 0f 28 bd
       -0.051794644 -0.050728817 -0.010388272 -0.041030005
000040 7a 0d 0f 3e 85 71 c5 3d 17 f0 64 be 5e 44 7f 3d
       0.13969985 0.09640793 -0.22357212 0.06232106
000050 21 cd 65 3d a0 14 93 be b4 a5 19 be bc 9b b3 3d
       0.05610383 -0.28726673 -0.15004617 0.08769938
000060 6c 3a cf bd e8 fb 96 3d 31 58 bd 3e 4e fa 95 bc
       -0.10118565 0.07372266 0.36981347 -0.018307831
000070 5d 75 e4 3d f4 6c e8 3d 7c e5 ef bc ab 06 21 bd
       0.11155198 0.11348906 -0.029284231 -0.039313
000080 df 02 00 3d 00 ff 5a be 8d 43 38 3e ce 76 49 3e
       0.031252738 -0.21386337 0.17994519 0.19674227
000090 bb d6 3f be cd ba 7a bd da b3 f7 bc 65 2d 11 3d
       -0.18734257 -0.061213303 -0.030237127 0.035443682
0000a0 be 23 10 bd 6e 23 ac 3c ea 6f ab 3e a2 6a 09 be
       -0.035190336 0.021012988 0.3348382 -0.13419583
0000b0 68 d3 8e 3d 6c 8f 34 3e f3 1c 07 bd a7 cf 25 3e
       0.06973916 0.17632836 -0.032986593 0.16192494
0000c0 dd 89 60 be 6b 8a ad 3c d1 77 55 3d b0 3e 5a 3d
       -0.2192759 0.021184167 0.05211622 0.05328244
0000d0 37 07 0d bd 5f 6d 19 be 6b e5 94 bd 0b 45 dd 3d
       -0.03443071 -0.14983128 -0.072703205 0.108041845
0000e0 df ea 7e bd 66 81 a1 be 6d 91 32 3e 34 71 4c 3d
       -0.06223571 -0.31544036 0.17438288 0.049912646
0000f0 f1 c5 18 be d9 ef 5c bd f3 6f 1b 3d 0f d9 13 bd
       -0.14919259 -0.053939674 0.03794856 -0.036095675
000100 66 fc 14 be a6 4a b6 bd 16 4f 1b 3d f3 aa 8b bd
       -0.14549407 -0.08900957 0.03791722 -0.06819715
000110 14 1b 98 3d 99 84 39 3d c2 1d c5 3d 2d 25 21 3e
       0.0742704 0.04529247 0.096248165 0.15736838
000120 79 2c 08 be 6e 95 af bd 8a c3 09 bd 2a e2 76 3d
       -0.13298215 -0.08573423 -0.033633746 0.06027428
000130 da 4f a4 be 93 12 ec 3c 90 1d bd bd 14 bb 0f be
       -0.32092172 0.02881745 -0.09234154 -0.14036208
000140 ff de 59 3e ea bc 40 3e 84 07 22 bc 7a 62 41 bc
       0.21276473 0.18822065 -0.009889487 -0.011803264
000150 03 34 b5 3c 8e 62 fc bd 64 e3 99 3c 81 70 76 3d
       0.022119528 -0.12323485 0.018785186 0.060165886
000160 f2 83 2e 3a c8 ab 05 be 8a 1f 5e 3d 1d f7 13 3d
       0.00066572346 -0.1305381 0.054229297 0.036124337
000170 48 fd 18 be ce b3 da bd c2 42 4c bd 38 36 ce 3d
       -0.14940369 -0.10678826 -0.049868353 0.10068935
000180 de 3d 14 3d 0a c2 ad 3d df 0c 13 bc 41 67 e2 3b
       0.036191814 0.08484276 -0.008975237 0.0069092815
000190 c8 a9 33 bd 03 e4 4a bd 27 8c e3 bd 38 a6 a6 3d
       -0.043863088 -0.049533855 -0.11110716 0.081371725
0001a0 af e7 06 bd e0 2d 47 be cd b2 51 be af 8a 05 bd
       -0.032935794 -0.19451094 -0.20478363 -0.032602962
0001b0 1a 55 04 be d0 9f 05 be be c6 69 3e f3 41 17 3e
       -0.12923089 -0.13049245 0.2282972 0.14771251
0001c0 e4 7c 99 3b 52 3e 98 3d ea 73 12 bd 27 41 38 3d
       0.0046840776 0.07433762 -0.035755076 0.04498401
0001d0 be d9 02 be 09 30 d2 3d 2e f5 15 3e 3a bf b9 bd
       -0.12778375 0.10263068 0.1464431 -0.09069677
0001e0 c6 c9 dc 3d 6d e3 f4 bd 98 d2 11 3e 1b 6c 66 be
       0.10780673 -0.119574405 0.14240491 -0.22502176
0001f0 02 ec 24 be db 93 0e be 24 6a 0f be 8b 82 24 bd
       -0.16105655 -0.1392359 -0.14005333 -0.040163558
000200 b8 7f 19 bd e3 40 d7 bd 66 74 f6 3d e4 4e b5 bd
       -0.037475318 -0.10510423 0.1203392 -0.08852938
000210 22 fd 01 be 74 50 0a bd 0c 04 2e 3e 4a 11 18 be
       -0.12694219 -0.033768132 0.16993731 -0.14850345
000220 7c 5e 5b be 18 b1 bb bd ac 97 1b 3d 9e f8 33 be
       -0.21422762 -0.09164637 0.037986442 -0.17575309
000230 00 6e 32 bd 88 ad 0c 3e 7e c7 09 3d 6b 1f 99 3c
       -0.043561935 0.13738072 0.033637516 0.018691739
000240 ca 27 1e be 25 2a 48 bd 14 79 94 3e 65 6f 9a bd
       -0.15444866 -0.048868317 0.28998625 -0.07540778
000250 8c 4a 00 3e 0a a6 b7 3d 84 8d 96 bd b4 58 60 3e
       0.12528437 0.08967216 -0.07351211 0.21908838
000260 35 e6 cc 3d 98 8c 33 3d 74 6d f2 bd e0 bb 0a bd
       0.10004846 0.043835253 -0.11837283 -0.033870578
000270 04 80 3c be d0 d5 2c 3e 23 4c 4f 3d 6c 82 a0 bd
       -0.18408209 0.16878438 0.05060972 -0.07837376
000280 25 5a 2c bd a8 b9 02 be ee 5a 78 3d 19 d9 89 bc
       -0.042078156 -0.12766135 0.060633592 -0.016827153
000290 61 18 86 3e ae 9b 09 bd 88 aa 48 3d a2 48 90 be
       0.26190475 -0.033595733 0.048990756 -0.28180414
0002a0 a5 9e 0b bc f2 5a 0d bc c7 7a a5 3d 94 ed 42 3e
       -0.0085217105 -0.00862764 0.080800585 0.19035941
0002b0 be 28 d7 3e 69 9c 36 3d 80 d9 dc bc 6e 2d 95 bd
       0.4202327 0.044582758 -0.02695918 -0.07284056
0002c0 06 3b fc 3d b7 fc 5d be 0f 5f 18 be 80 c1 b8 be
       0.12315945 -0.21678434 -0.14880012 -0.3608513
0002d0 2c 85 85 3d 75 10 26 be 59 b9 03 3d 96 75 66 3e
       0.06519541 -0.16217215 0.032159183 0.22505793
0002e0 36 ac 24 3e e8 23 fa bb d5 32 6e bd bd 2e ba bd
       0.16081318 -0.007633675 -0.058153946 -0.09090946
0002f0 47 31 6f 3e df 30 88 3e 11 d8 a0 3d 85 94 cf bd
       0.23358642 0.26599786 0.078537114 -0.1013575
000300 78 c5 8b 3d ef b3 a5 bc 9b 39 2c bb b8 58 c1 3d
       0.068247736 -0.0202274 -0.0026279453 0.0944075
000310 ba a0 48 3e a3 0b 2c be 9b f9 15 3e 79 50 95 3d
       0.19592562 -0.16801314 0.14645998 0.072907396
000320 d3 c1 13 bd 3b 87 b9 3d ff 3d 40 bd 33 7c cb 3d
       -0.036073517 0.09058996 -0.046934124 0.099357985
000330 20 3c cb bd db 86 b5 bd cc 3a c0 3d 85 bb 08 be
       -0.09923577 -0.08863612 0.093862146 -0.13352783
000340 94 31 bf 3d df de 31 3b 0b 73 a2 bb 83 10 0c bd
       0.09335628 0.0027140898 -0.004957562 -0.034195434
000350 e6 94 7f 3c 9d a7 10 be bb e2 28 bc 3a 9e 6f be
       0.015599465 -0.1412644 -0.010307963 -0.23400202
000360 30 42 12 3e f2 76 57 3e fa 91 1f 3d 79 b5 23 3e
       0.14283061 0.21041468 0.038957573 0.15987195
000370 88 ac b5 3d 0f 0b 64 3c b1 d3 81 bd 19 39 d4 3b
       0.08870798 0.013918652 -0.06339205 0.006476533
000380 c1 03 0a bc 41 e9 0d 3e b9 b3 44 bc 00 b6 22 bd
       -0.008423747 0.1385851 -0.01200574 -0.03972435
000390 4a 97 5d 3e 2e af 0e 3d ff 87 4c be 5b 0a 5e bc
       0.21639743 0.034835033 -0.19973753 -0.013552274
0003a0 0c d9 05 3e 7d 5e 12 bd 1a 16 3b bd a5 00 23 be
       0.13071078 -0.035734642 -0.045675375 -0.15918215
0003b0 2c 9b e5 bd fd 8b 3f 3d ac b0 e7 bc ad 9d 02 3d
       -0.11211237 0.046764363 -0.028282486 0.031888653
0003c0 a9 f2 c1 3d 95 e2 ec bd a7 0d c9 3d 97 cf d7 3d
       0.09470112 -0.115666546 0.09817057 0.105376415
0003d0 ca 25 95 b8 5a c4 46 bd e7 25 23 3e 82 f3 e2 bd
       -7.1119124e-05 -0.0485271 0.15932427 -0.11081602
0003e0 c6 77 3d 3e 0f db 4e 3d fa c3 46 bc b5 97 85 bd
       0.18502721 0.05050188 -0.012131685 -0.065230764
0003f0 fd de 01 be 3c ea ce bd 20 e7 0c bd d0 9a 56 3e
       -0.1268272 -0.101032704 -0.034400105 0.20957494

features_model.4.bias f4 [128]
000000 63 2c f8 bc 40 63 8a bc 12 87 b0 bc 29 4c e5 bc
       -0.030294603 -0.01689303 -0.021548782 -0.027990418
000010 bc 27 1a 3e 44 61 bc bc bf cb eb bc 0a c1 a1 bc
       0.1505422 -0.022995599 -0.028783677 -0.019745369
000020 32 6e 94 bc 9f ef 81 bc 2f 8c 8f bc 96 84 c8 3d
       -0.018118951 -0.01586133 -0.0175229 0.09790914
000030 aa d0 3d bc ce ce 9c 3d af 79 a0 3c 47 1a f4 bc
       -0.011585394 0.07656632 0.019589273 -0.029797686
000040 8b 7c 3c bc fd 49 49 ba 4e 99 f6 bb 2b 9d f7 3d
       -0.011504303 -0.00076785666 -0.0075255996 0.12090524
000050 89 3c 07 bb b7 1c 9a 3d 74 7e 74 bc ea 88 0d bc
       -0.0020635447 0.07525008 -0.014922727 -0.0086386
000060 02 78 aa 3d 9d ef dd 3c 84 f2 c5 bc 3d 40 0b 3d
       0.08323671 0.027091796 -0.024163492 0.03399681
000070 58 f2 95 bc e4 cf 03 3e 37 18 8f 3d 80 14 fd ba
       -0.018304035 0.12872273 0.069870405 -0.0019308478
000080 79 9f 36 bc 4c 49 9f 3d 36 4f fe bb 33 5b bd 3d
       -0.01114642 0.07777652 -0.0077609075 0.092459105
000090 cc 52 3f 3b 00 00 00 00 e7 32 f4 3d f9 4e a4 bc
       0.0029193638 0.0 0.11923771 -0.020057188
0000a0 a2 12 94 bc 4c 7b 31 bc 8c f9 91 3d b8 26 43 ba
       -0.018075291 -0.010832619 0.071276754 -0.0007444429
0000b0 0c 06 8e bc 4f 04 38 bc 67 a0 46 bc 6c 98 b4 3d
       -0.017336868 -0.011231496 -0.012123204 0.08818135
0000c0 6b c1 fe 3d 71 1f 5c 3e e1 a6 39 3d 39 94 00 bd
       0.12439235 0.21496369 0.045325164 -0.031391356
0000d0 ab ca aa bc 93 cc cb 3b 0d 2b b1 bc 9c a9 54 bc
       -0.020848593 0.0062194555 -0.021626974 -0.012979891
0000e0 00 00 00 00 ea e8 b5 3b a9 39 9d bc 6e cc 1f 3d
       0.0 0.005551447 -0.019192534 0.03901332
0000f0 6e ca 6a ba 07 d0 e2 3c a6 cb 2a 3e 21 87 c3 bc
       -0.0008956556 0.027687086 0.16679248 -0.023868145
000100 96 13 38 3e d2 05 53 3c b5 f0 e0 3d b2 c2 36 3c
       0.17976221 0.012879806 0.10983411 0.011154817
000110 5f b6 35 bb 1d 94 76 3d bd b9 94 3d 74 12 91 bc
       -0.002772711 0.060199846 0.07261989 -0.017708994
000120 69 a9 8a bc 2a 62 ab bc ae 26 99 bc 0f db ad 3d
       -0.016926484 -0.020920832 -0.018695202 0.08489048
000130 b6 bb 9f 3a 7c 01 24 3d 39 56 d4 3d dc 75 c5 bc
       0.001218668 0.040040478 0.10368008 -0.024104051
000140 f6 be 5b 3c 2d f4 a8 3c 68 c9 10 3e be 5d c3 bc
       0.013412228 0.020624245 0.1413933 -0.02384841
000150 0e c7 08 bd 03 06 72 bc b9 d5 f6 3d 32 cf 09 3e
       -0.03339296 -0.014771941 0.12052483 0.13457945
000160 74 59 28 bd f1 62 d5 bc f6 b0 9a bc c5 e8 0a 3c
       -0.041100934 -0.026048156 -0.01888321 0.008478348
000170 70 05 2e 3e 10 a7 d2 bc 53 37 19 3e b8 32 09 bd
       0.16994262 -0.025714427 0.14962511 -0.033495635
000180 0b 18 29 3e 0d 04 c7 3d f6 b7 20 3e 27 af 39 3e
       0.16513078 0.097175695 0.15695176 0.18133222
000190 f0 13 27 bd 7a 90 c8 bc b2 d2 61 bb 17 0e 21 3d
       -0.0407905 -0.024482954 -0.003445786 0.039320078
0001a0 70 6c 2b 3e 96 04 1c 3e 8f d5 38 bb 7a d9 9f bc
       0.16740584 0.15236124 -0.0028203463 -0.01951288
0001b0 86 5b 40 3e fa 08 a0 bc ff af c0 bc 42 eb 61 3d
       0.18784913 -0.01953553 -0.023521421 0.055156
0001c0 43 8e 1a 3c f5 88 4b bc 0d df 2f 3e fb 2d 0a 3d
       0.009433332 -0.01242279 0.17174931 0.033735257
0001d0 84 49 e7 bc b9 4a ce 3d aa 81 ac bc c6 39 1a 3e
       -0.028233297 0.10072846 -0.021057922 0.15061101
0001e0 2b 85 2b bb 98 63 98 3d ce 27 98 bc 00 00 00 00
       -0.0026171904 0.07440871 -0.018573668 0.0
0001f0 62 12 36 3e 03 c2 fc 3d f4 1e 2b 3c 89 e1 9f 3d
       0.1778045 0.12341692 0.0104443915 0.07806689

policy_model.0.weight f4 [128, 128]
000000 50 95 f9 3a 46 91 22 3b de 44 e9 ba d9 a7 c2 ba
       0.0019041691 0.0024805828 -0.0017797013 -0.0014851048
000010 2c 66 0f ba 29 0a 0c bb 96 4e 29 bb 71 90 a8 ba
       -0.0005470242 -0.002136836 -0.0025834194 -0.001286043
000020 ec 6a e7 ba f0 7b d8 3a 02 c1 97 ba b4 50 f2 ba
       -0.0017655767 0.0016516428 -0.0011577907 -0.0018487186
000030 18 59 0f bb 88 02 8b 39 70 91 28 bb e2 39 d6 ba
       -0.0021873172 0.00026514032 -0.0025721453 -0.0016344155
000040 75 70 3f bb b9 63 e0 39 76 4f 9c ba 4a 5e 65 bb
       -0.0029211317 0.00042798909 -0.0011925537 -0.0034998828
000050 6f 8f 41 3b 44 01 96 bb 95 3f 19 bb ae f4 e3 38
       0.0029534956 -0.0045777876 -0.0023383845 0.000108697786
000060 b8 a6 1e 38 b1 dc a7 ba 95 f6 9e ba 8b a7 bc ba
       3.7825404e-05 -0.001280686 -0.001212793 -0.0014393193
000070 ec e0 f1 ba 25 20 af 3a a6 58 ae bb 89 61 db b8
       -0.0018453873 0.001336102 -0.0053206263 -0.00010460901
000080 70 e4 d2 b8 b3 00 71 bb d5 f3 de 39 4f 02 8d bb
       -0.0001005613 -0.0036774098 0.0004252481 -0.0043032537
000090 38 be b9 b8 9c 86 70 ba cf b9 a6 bb 59 f2 3e bb
       -8.8569184e-05 -0.0009175332 -0.005088068 -0.002913615
0000a0 d3 40 56 b9 c3 43 82 ba d4 00 40 ba d2 b9 1d 3b
       -0.0002043278 -0.0009938407 -0.0007324342 0.0024067056
0000b0 fd 5b 3d 39 14 4c 9c 39 a9 37 d6 3a ec 06 68 ba
       0.00018058713 0.0002981132 0.0016343492 -0.0008851129
0000c0 c9 f1 30 ba 05 46 96 ba f1 37 f8 ba 24 ee 08 bb
       -0.0006749896 -0.0011464959 -0.001893757 -0.0020893896
0000d0 32 d7 9f ba 66 41 96 3a ce 8f f5 ba 7e 2f 37 3a
       -0.001219487 0.0011463582 -0.0018734874 0.0006987973
0000e0 c4 f8 30 ba fb 8e 60 bb 11 bf fa ba 30 7a 1c bb
       -0.0006750936 -0.003426491 -0.0019130429 -0.002387654
0000f0 48 11 ea ba f2 06 d8 ba 67 0c 40 ba 3a f1 4a ba
       -0.0017857933 -0.0016481562 -0.0007326067 -0.0007741634
000100 95 c9 8c 3a 4a 68 ef 3a 70 79 3a 3b 85 15 1e bb
       0.0010741228 0.0018265333 0.002845373 -0.0024121713
000110 f0 e7 87 38 59 82 ea bb 58 21 b6 bb 5b f5 bd ba
       6.480503e-05 -0.007156652 -0.005558174 -0.0014492677
000120 7b 71 f9 3a 47 da 76 3a 2f 40 28 bb 54 a9 a3 3a
       0.0019031012 0.0009416681 -0.0025673022 0.0012486377
000130 41 43 a7 b8 d3 7c fa b9 e7 e8 be 3a aa 29 e6 ba
       -7.9757076e-05 -0.00047776717 0.001456526 -0.0017560024
000140 24 08 70 3a ea f4 5d 39 92 df ee b9 7f 56 85 ba
       0.00091564865 0.0002116744 -0.0004556147 -0.0010172873
000150 43 a4 0e bb e7 89 0c 3b 78 fe 08 bc de 37 d0 bb
       -0.0021765388 0.00214445 -0.008361451 -0.006354316
000160 da 49 e4 ba 56 82 43 3b 92 88 dd ba 43 71 39 bb
       -0.0017417029 0.0029832325 -0.0016901663 -0.002829627
000170 9c fc c7 3a ae 1f 38 bb e1 e0 80 ba ce b4 5a 3a
       0.0015257779 -0.0028095054 -0.0009832644 0.0008342982
000180 22 24 83 ba dc ad b9 bb 7d 6f f5 3a 37 44 3b 39
       -0.0010005275 -0.0056664776 0.0018725243 0.00017859122
000190 99 20 5f 39 6a 03 ea ba 6e f8 24 ba 57 ed 20 39
       0.00021279081 -0.0017853801 -0.00062931224 0.00015347205
0001a0 46 4a b0 ba 5f 16 e7 ba 1c f7 b9 3a 4e 8c 1b bb
       -0.001344987 -0.0017630568 0.0014188024 -0.002373475
0001b0 93 da 02 3a c5 3a cd b9 1f 09 a3 3a 6a 95 34 bb
       0.00049916765 -0.00039144434 0.0012438631 -0.0027554878
0001c0 d2 ab 90 b9 a1 59 56 bb dd ad a8 39 21 ec 29 bb
       -0.00027593836 -0.0032707232 0.00032172995 -0.0025928097
0001d0 58 e8 f6 ba 41 9c e5 bb 8a 8a c4 ba 8b 64 97 bb
       -0.0018837554 -0.0070071523 -0.0014994901 -0.00462014
0001e0 06 63 0c bb d3 77 e1 bb 93 7b 82 37 a5 71 27 39
       -0.0021421327 -0.0068807392 1.5554751e-05 0.00015968697
0001f0 08 9e c6 bb 64 88 91 bb 76 77 35 b9 d0 c8 ec ba
       -0.0060613193 -0.004441308 -0.00017306008 -0.0018065218
000200 9c 6b 5b bd 9f 04 a2 3b a5 04 5f 3c 5d 45 4f 3c
       -0.05356942 0.0049443985 0.013611947 0.012650815
000210 12 cd 1a 3d e7 f0 80 3c 8c 35 b4 3c b4 f9 10 bc
       0.037793227 0.015739871 0.02199819 -0.008848596
000220 a1 be 91 3c 5e 47 84 bc 99 7d 2f b9 fb 19 6f 3d
       0.017791094 -0.016147312 -0.0001673609 0.058374386
000230 8e 7a 45 3d 71 7b 2b 3d 36 4c 8d 3d 7b 3c 84 3c
       0.04821258 0.04186577 0.06899302 0.01614212
000240 0d 68 11 3d db 73 63 3c e3 cc 17 3a 5a f0 87 3d
       0.03549962 0.013882603 0.00057907234 0.0663764
000250 f8 85 06 3c 6d 80 a8 3d 6e e3 45 3c ad 56 c6 3b
       0.008210652 0.0822762 0.012078149 0.006052813
000260 f6 25 9f 3d 52 24 f3 3c c5 20 17 3d 2f 8e 44 3d
       0.07770912 0.029680405 0.036896486 0.04798716
000270 4d 36 da 3b 30 dc 0f 3d 63 c8 96 3d 37 ca e5 3c
       0.006659305 0.035122097 0.073624395 0.028050525
000280 dd cd c5 3b 77 7c 03 3d 16 70 b8 3b 66 75 9e 3d
       0.0060365037 0.03210112 0.005628596 0.07737236
000290 c4 a4 9c bc 54 97 0c ba 4f f4 55 3d cc 6b 27 3b
       -0.019121535 -0.0005363126 0.052234944 0.002554643
0002a0 31 53 1f bc 98 6c 81 3c 23 73 b0 3d 89 06 0c bc
       -0.009724424 0.015798852 0.086157106 -0.00854648
0002b0 d3 3f 24 3b 1b c2 92 3c 05 5d b8 bc 7a e3 95 3d
       0.0025062456 0.017914822 -0.022505293 0.07318778
0002c0 43 fd ed 3c eb b8 72 3b 70 34 62 3c 45 b5 15 3d
       0.029051429 0.003703649 0.013806447 0.036549825
0002d0 7e 8c 8e 3c 82 07 b5 3c 9b 60 72 3c ea 36 d8 37
       0.017400976 0.022098307 0.01479354 2.5774778e-05
0002e0 8a 44 12 39 7e 12 da 3a a0 7b a9 3c 55 05 6f 3d
       0.00013949178 0.0016637591 0.020688832 0.058354694
0002f0 f5 fd 3f 3a 4a a3 39 3c d9 46 ae 3b 94 73 60 3c
       0.00073239143 0.011330435 0.0053185043 0.013699431
000300 ae 89 18 bd 84 fe ed 3c a2 da 8b 3d 81 af 21 bc
       -0.037240677 0.029052027 0.0682881 -0.009868504
000310 c1 b8 00 3c a7 2d 86 3d 37 a3 8f 3d 78 e7 64 3d
       0.007856549 0.06551676 0.07013553 0.05588481
000320 b3 8e b0 3c 2a e8 9a bc 67 a8 63 3c e8 77 66 3d
       0.02155242 -0.018909533 0.013895131 0.056266695
000330 f1 35 9e 3a 83 0f b0 3d 69 c2 f2 bb 3b 17 b5 3b
       0.0012070519 0.085967086 -0.0074084294 0.005526451
000340 0c ca 8e 3c eb 59 e2 bc 32 cc 9b bc a7 c4 30 3a
       0.017430328 -0.027630767 -0.019018266 0.00067431707
000350 cf 4c c7 3c 41 64 8c 3c f7 ff 6d 3d eb 24 59 3d
       0.024328617 0.017137649 0.058105435 0.053013723
000360 e4 66 20 3c 09 dd 6d 3c 99 87 04 3d e9 89 ef 3c
       0.009790156 0.014518031 0.03235588 0.029240565
000370 5d 4f 00 bb 15 b4 86 b9 fc bb c2 3b 34 05 c6 bc
       -0.0019578554 -0.00025692643 0.0059428196 -0.024172403
000380 9b 57 2f 3d d3 89 8e 3d c6 10 b0 bc 6a ad fd 39
       0.042808156 0.06959882 -0.021492373 0.00048385124
000390 bc 2e 91 3b 39 15 01 3d 99 0d 74 3d b9 d4 8e 3d
       0.00443062 0.03151438 0.05958328 0.069741674
0003a0 59 54 50 bc 30 94 7d 3d 52 9a 18 3d 05 a7 47 3d
       -0.012715423 0.0619089 0.037256546 0.048743267
0003b0 62 db 0a bd 66 a1 d4 3b c2 eb 48 3c df a5 95 3b
       -0.033900626 0.0064889668 0.01226324 0.0045668925
0003c0 57 82 8d 3d 8d a2 27 3c 0b c1 02 3d 7a 2b 00 3d
       0.06909626 0.010231626 0.03192238 0.031291462
0003d0 b3 74 93 3b 2d fb 8c 3d ea d1 45 3c dc b3 6e 3d
       0.0044999956 0.068838455 0.012073973 0.058276996
0003e0 99 33 db ba df e0 91 3d 8a 83 05 3d 72 25 3f ba
       -0.0016723751 0.07122969 0.03259615 -0.00072916516
0003f0 7d f5 34 3d c3 ac 8b 3d ca 35 ef 3b 60 f9 a7 3d
       0.04417943 0.06820061 0.0073001133 0.082018614

policy_model.0.bias f4 [128]
000000 c7 a6 95 ba 74 36 8f 3d 73 61 c4 ba de 70 3d 39
       -0.0011417501 0.06992808 -0.0014982655 0.00018066491
000010 38 ad b5 37 c4 61 1c b9 9c 8c b6 bb f4 bb 27 bc
       2.1657543e-05 -0.0001491374 -0.005570961 -0.010237683
000020 95 26 ca 3a 56 8b c4 ba c5 bc c4 ba b7 c7 6a bc
       0.0015422875 -0.0014995139 -0.0015009871 -0.014329842
000030 f2 c9 8a bc d7 30 66 3c ac 2f 88 39 a8 60 b4 39
       -0.016941998 0.01404973 0.0002597546 0.0003440429
000040 ae ea e2 3b f9 88 8d bc f3 20 c4 ba 3b 16 bf ba
       0.0069249487 -0.017277228 -0.0014963433 -0.0014578769
000050 36 35 3d bc 4f 4a 06 bc 29 23 f9 3b e2 d1 c7 b9
       -0.011548331 -0.0081964275 0.0076030684 -0.00038112613
000060 a8 d3 79 bc ee b8 c4 ba a4 bc 42 bc 26 1a 62 bc
       -0.015248217 -0.0015008727 -0.011885796 -0.01380018
000070 19 df 00 bc 15 67 c4 ba 58 a4 0e bc 09 38 d0 bb
       -0.007865691 -0.0014984334 -0.008706175 -0.006354336
000080 77 42 60 bc 5b 5f dd bb 15 b0 c4 ba fb 1c d5 bb
       -0.013687721 -0.006755752 -0.001500609 -0.006503699
000090 46 e1 5e ba e1 2d 9d ba 8d 73 90 bc 7a a4 63 bc
       -0.0008502196 -0.0011991822 -0.017633224 -0.013894195
0000a0 32 d0 88 3d 18 37 6f bc 88 0b cc 3b 9f 86 c4 ba
       0.06680335 -0.014600538 0.0062269606 -0.0014993733
0000b0 92 1f a8 ba 27 75 0b 3d 01 e3 84 bc 38 0b 25 bc
       -0.0012826791 0.034047272 -0.016221525 -0.010073476
0000c0 1e d6 18 bc 5f 2c 1e 3b 89 01 2a bc eb c0 b3 ba
       -0.009328393 0.0024135334 -0.010376343 -0.001371411
0000d0 1d 50 76 bb 51 ec 83 3b 13 c1 53 bc 00 00 00 00
       -0.0037584372 0.004025974 -0.01292445 0.0
0000e0 00 00 00 00 fc 61 09 bb 0a 50 8c bc 18 36 a7 ba
       0.0 -0.0020962944 -0.01712801 -0.001275721
0000f0 fe 56 87 bc d6 2d c3 ba 28 38 c4 ba 21 b0 78 3b
       -0.016520973 -0.001489098 -0.0014970349 0.0037946778
000100 64 b4 7e bb 69 b4 c4 ba bb f0 e5 ba 9d 3b 7e bc
       -0.0038864845 -0.001500738 -0.0017543057 -0.015517143
000110 4a fd 0a bc fd 31 8c bb df 95 00 bc af e2 fe bb
       -0.00848324 -0.00427842 -0.007848232 -0.0077784876
000120 fd 62 83 ba 76 ae a9 bb e9 5e 82 3a 52 75 76 bb
       -0.0010024008 -0.005178268 0.0009946498 -0.003760655
000130 0c 4a c4 ba 37 87 82 bc dc 5d 77 bc 1d 9e c4 ba
       -0.0014975681 -0.015933616 -0.015098061 -0.0015000735
000140 96 78 d7 3c da ff 86 bc 44 ae 65 bc 14 b0 0b ba
       0.026302617 -0.016479421 -0.014018599 -0.0005328667
000150 a1 c9 ab 3b 12 74 98 ba 7c 9c 5b ba e7 8b d3 3d
       0.005242542 -0.0011631271 -0.0008377505 0.10329419
000160 29 81 26 bc 92 0e 92 bc 84 56 c4 ba e1 06 6b bb
       -0.01016263 -0.017829213 -0.0014979397 -0.0035862254
000170 72 ef a1 b9 64 d5 e9 bb 58 cf fb ba 96 8e 14 bc
       -0.00030886714 -0.007136034 -0.0019211574 -0.009067198
000180 06 25 8d bc 64 8c c4 ba b6 93 7f bc e5 fd 80 bc
       -0.017229568 -0.0014995453 -0.015599182 -0.015746066
000190 14 0b 1e 3b 08 95 25 bc f6 6c 42 bb ab 4e a7 bb
       0.002411549 -0.010106333 -0.0029666997 -0.0051058135
0001a0 e9 0f d1 bb 24 24 be 3b f7 3d 33 3c d1 29 30 bc
       -0.0063800705 0.005802648 0.010940067 -0.010752157
0001b0 b9 80 a7 ba cf 94 c4 ba 63 5c da bb 94 0b 2e bc
       -0.0012779451 -0.0014997962 -0.0066638454 -0.010622878
0001c0 da 86 2f bc 86 59 e7 b8 3d 57 34 ba 58 f6 d8 ba
       -0.010713303 -0.000110316134 -0.00068794546 -0.0016552908
0001d0 ab ae 05 bc 61 df 76 bc 66 81 a0 ba c1 98 c2 ba
       -0.00815932 -0.015067906 -0.0012245595 -0.001484655
0001e0 e8 a4 54 bc fe 52 2b 3d ce d0 a8 ba 8c 96 4b 3b
       -0.01297877 0.041827194 -0.0012879611 0.0031065075
0001f0 e2 ef 6a bb 43 68 6b bb 70 9c c8 3b e6 bc 48 bb
       -0.0035848548 -0.00359203 0.0061221644 -0.003063017

policy_model.2.weight f4 [8, 128]
000000 da f4 ec ba b6 7a 2b bd 12 18 e2 3a ba f7 51 3a
       -0.0018078343 -0.041865073 0.0017249605 0.00080096314
000010 b3 fd 00 bb f7 a8 4e 3a b3 85 7c bc 5a 8c d0 bb
       -0.0019682467 0.0007883454 -0.015412736 -0.0063643875
000020 78 08 b6 3b d1 76 2a b9 e8 0b ee ba ce e0 b8 bb
       0.005555209 -0.00016256726 -0.0018161507 -0.005642033
000030 c7 d1 af bb 68 05 71 3b 48 9c 20 3b bd 5b 9f 3a
       -0.0053655836 0.0036776904 0.0024507213 0.0012158077
000040 e5 0b 72 3b 4e 92 e2 bb d2 30 83 3a 73 d5 29 bb
       0.003693336 -0.0069144135 0.0010009056 -0.002591458
000050 77 33 b9 bb b5 bb ef bb ea 06 7f 3c 1b 31 39 3a
       -0.005651887 -0.0073160776 0.015565613 0.0007064507
000060 b6 14 f8 bb 34 44 d7 3a d2 e5 2a bb d0 5e db bb
       -0.0075708283 0.0016423524 -0.0026076925 -0.006694652
000070 75 8e 81 bc 0a 85 5a ba 5b 2a 05 bc 3a eb ee 39
       -0.015815 -0.00083358644 -0.008127774 0.00045570155
000080 a6 80 11 bc 1d bc 1e bc 0e 06 e6 3a de 67 f7 bb
       -0.00888077 -0.009688404 0.0017549412 -0.0075502237
000090 05 f3 97 ba 6e 14 8f 3a 2f 64 e5 bb 70 05 09 bc
       -0.0011592811 0.0010916123 -0.007000468 -0.008363113
0000a0 17 f3 76 bd ed 7a db bb 71 57 63 3b 04 f9 c9 ba
       -0.060290422 -0.0066980035 0.003468957 -0.0015409295
0000b0 8b d7 a7 3a f2 6c 99 bd 79 f6 f9 bb d9 b3 3b bb
       0.0012805326 -0.07491483 -0.007628259 -0.0028641133
0000c0 18 3d f1 bb 31 6f 99 3b a8 9b f3 bb f2 35 b5 bb
       -0.0073620193 0.0046824445 -0.007434327 -0.0055301124
0000d0 3c 32 91 3b 57 cd 94 3b 0e c2 ac bb 47 79 6c b9
       0.004431037 0.00454108 -0.0052721566 -0.00022551893
0000e0 b8 7e e2 3a 8e 05 a6 3a a7 f5 da bb 02 a1 cd b7
       0.0017280197 0.001266645 -0.006682116 -2.451288e-05
0000f0 75 b3 d5 bb ff 1e f3 b9 af 07 2c ba 6f 25 88 3b
       -0.006521637 -0.00046371666 -0.0006562424 0.004154853
000100 12 15 ff bb a1 c0 86 3a 3b c9 7f 3a 71 3a bd bb
       -0.007784494 0.0010280797 0.00097574637 -0.005774789
000110 5a b8 d4 bb e3 c4 99 bb 8d 9e f2 bb 0b bb 07 bc
       -0.006491703 -0.00469266 -0.0074041546 -0.008284341
000120 68 9d 83 b8 73 7f 49 3b 99 66 f3 3a c5 d4 47 ba
       -6.275886e-05 0.0030746132 0.0018570005 -0.00076229527
000130 64 fa 16 3b 6f 1d 07 bc 7a e5 a4 bb 7b da 5e 38
       0.0023037428 -0.008246764 -0.0050322386 5.31324e-05
000140 c3 40 d1 3c 33 19 b7 bb e1 69 e0 ba 31 b6 a0 3a
       0.025543576 -0.005587721 -0.0017121398 0.0012261329
000150 6c 64 8a 3b 99 65 92 3a 03 0f e4 b8 e4 5e a9 bd
       0.004223397 0.0011169194 -0.00010874683 -0.08270052
000160 0a f3 b7 bb 27 83 d2 bb 89 de cd 3a 40 b5 f5 bb
       -0.0056136893 -0.006424326 0.001570658 -0.0074984133
000170 53 c4 1f 3b df 86 d7 bb 0b 95 9b 3a a1 1f 75 bc
       0.0024378493 -0.006577357 0.001186998 -0.014961154
000180 41 3a c5 bb 51 cb 61 3b 30 3b 95 bb a1 8f e8 bb
       -0.0060189073 0.0034453461 -0.004554175 -0.0070972
000190 d8 c6 74 3b 13 7c db bb c5 39 37 3b fa 35 90 39
       0.0037349965 -0.0066981404 0.0027958017 0.00027506036
0001a0 04 f5 82 38 2f ad 6a 3b a3 7d ec bc df 73 ec bb
       6.244521e-05 0.0035808792 -0.028868502 -0.0072159613
0001b0 6d f7 c1 b8 4e ff 13 3b c1 e1 d3 bb e0 58 85 bb
       -9.249044e-05 0.0022582593 -0.006466121 -0.0040694326
0001c0 6f 3b 26 bb be 2c cd b8 38 82 7e 3b 50 bf 46 3a
       -0.0025365015 -9.7834956e-05 0.003883494 0.00075816084
0001d0 20 13 cb ba 07 14 cc bb c1 19 7c 3a c2 32 a6 b9
       -0.0015493371 -0.0062279734 0.0009616875 -0.00031699805
0001e0 b3 b1 ee bb ba 76 97 bd 00 42 c6 b9 a8 7d 37 bb
       -0.007284367 -0.07395692 -0.00037814677 -0.002799848
0001f0 4a c7 fd b8 88 ce 0b bb 1a 41 96 3b 9f c1 5e 3a
       -0.000121011006 -0.002133282 0.0045853974 0.000849748
000200 8a eb 8a 3a f0 c2 11 3d 10 45 2b ba b2 22 39 ba
       0.001059876 0.035586298 -0.00065334234 -0.000706236
000210 fa 44 d8 39 1d 47 71 ba e9 61 e1 3c 38 dd 30 bc
       0.00041250122 -0.0009204017 0.027512508 -0.01079493
000220 bf 8c 08 bc 64 9f 38 b9 46 b7 55 3b 71 ed 15 bc
       -0.008334338 -0.00017606985 0.003261046 -0.009150849
000230 1b 21 0e bc 28 13 e2 bb 0a da 28 bb a2 6b aa bb
       -0.008674885 -0.0068992563 -0.0025764727 -0.005200819
000240 ef 76 1f bb 60 d0 09 bc d7 f9 f2 3a d0 04 64 ba
       -0.0024332365 -0.008411497 0.0018537593 -0.0008698227
000250 f0 36 44 bc 71 99 28 bc c1 14 11 bc 67 a5 02 ba
       -0.011975989 -0.0102904895 -0.008855046 -0.00049837533
000260 0c fe 0c bc 1a 7c 54 3a 6b 00 60 bb 9a 15 fe bb
       -0.008605491 0.0008105651 -0.0034179937 -0.00775404
000270 99 03 44 3b 18 b8 c6 ba 2a 0b 29 bc 1a 58 36 3b
       0.002990937 -0.0015161065 -0.010317603 0.0027823509
000280 dc 60 fa bb 5b 9f 8d bb d1 cb 0f 3a 93 24 14 bc
       -0.007640941 -0.004321975 0.0005485388 -0.009041923
000290 14 80 86 3a 0d 9e af ba 7e 64 09 bc 2c 72 3d bc
       0.0010261559 -0.0013398543 -0.008385776 -0.011562865
0002a0 22 5b 74 3d cf 91 27 bc f8 b1 b5 bb f5 fc 2b 3b
       0.059657224 -0.010227635 -0.005544897 0.0026243303
0002b0 42 1a 2e 39 af 87 83 bc 46 5e 0c bc 43 94 10 bb
       0.00016603715 -0.01605591 -0.008567398 -0.0022061027
0002c0 e6 7d 11 bc 68 4d ea bb fe 10 53 bc df 88 8f ba
       -0.008880114 -0.007150341 -0.012882469 -0.0010950825
0002d0 49 63 8a bb 06 2e e7 bb 30 b0 23 bc bc 9b c6 3a
       -0.0042232615 -0.007055047 -0.009990737 0.0015152614
0002e0 a1 2c fc 3a 96 64 c6 3a fb f2 ec bb c9 18 27 ba
       0.0019239375 0.0015136178 -0.007231114 -0.0006374238
0002f0 5e 4a 13 bc 63 48 7c 39 2a f0 b1 ba d3 59 0a bc
       -0.0089898985 0.00024059559 -0.0013575603 -0.008444267
000300 b9 17 cb bb cf 88 3c ba 92 62 e6 b9 cd fc 07 bc
       -0.0061978963 -0.0007192017 -0.0004394246 -0.0083000185
000310 1c 4e 0a bc 09 3f a2 bb 00 55 e9 bb 06 49 17 bc
       -0.008441474 -0.004951362 -0.0071207285 -0.009233719
000320 63 5d f4 ba 0c bd d8 3a 07 d8 89 bb 48 ab 7f ba
       -0.0018643554 0.0016535833 -0.0042066607 -0.0009753001
000330 64 e8 6b 3b f1 79 0d bc 3e e4 28 bc a8 34 b4 ba
       0.003599667 -0.00863503 -0.010308323 -0.0013748603
000340 eb e0 e5 ba 61 1e 0a bc 68 6e 3b bb 34 a4 a0 ba
       -0.0017538344 -0.008430094 -0.0028599743 -0.0012255968
000350 ea a5 e3 bb 5f 15 8e ba 77 ca bb 3a 23 8e d0 3c
       -0.0069472687 -0.0010840109 0.0014327307 0.025458401
000360 f7 99 22 bc 9f 77 21 bc 9d 1d d2 3a 39 86 2e bb
       -0.009924403 -0.00985518 0.0016030554 -0.0026630296
000370 b4 0e f1 b8 9b 64 30 bc 5c a3 b4 b9 f2 b9 0b 3b
       -0.00011494514 -0.010766174 -0.00034453988 0.002132055
000380 2b 13 01 bc fd 37 e1 39 3b cf 05 bc 6a 3e 11 bc
       -0.007878105 0.0004295706 -0.008167083 -0.008864978
000390 d2 bf d9 bb 27 c6 2b bc f8 a8 81 3b 00 7c aa b8
       -0.006645181 -0.010484255 0.00395691 -8.1293285e-05
0003a0 26 c3 e4 3b cf ee ce bb cd a8 27 bc 90 4f ff bb
       0.0069812713 -0.0063150893 -0.010233116 -0.007791467
0003b0 db 59 3c ba e7 67 5b ba 70 13 fd bb 6d c5 81 bb
       -0.00071850204 -0.00083696697 -0.0077232644 -0.0039603026
0003c0 1b 6c 15 bb a9 82 27 39 96 0f 08 3b b5 57 78 bb
       -0.0022800032 0.00015975036 0.0020761243 -0.0037894074
0003d0 10 a1 d9 b8 99 e8 12 bc 4e c3 79 ba 9b 93 ee b8
       -0.000103773666 -0.008966588 -0.0009527699 -0.00011376218
0003e0 bd 17 07 bc 81 f7 1b bc 02 ab 20 39 c1 3c 18 3b
       -0.008245406 -0.009519459 0.00015322494 0.0023229572
0003f0 0b 33 a4 ba 73 3b 44 bb f9 7c 02 bc b8 5f e5 ba
       -0.0012527419 -0.002994266 -0.007964366 -0.001749984

policy_model.2.bias f4 [8]
000000 2a ac b3 bc b1 f4 12 3c f8 e9 19 3d ff 1b 33 3c
       -0.02193268 0.008969472 0.037576646 0.010931968
000010 f5 6a 49 bc 8c b8 2f bb cb 1a d7 3c 97 cf 60 bd
       -0.012293567 -0.002681288 0.026257893 -0.054885473
