results/short_race/second_iteration_training/model307.pt (torch, 276107 bytes, 13 tensors)

features_model.0.weight f4 [128, 4]
000000 49 de 74 bd 6d 3a 21 3e 63 cc 91 3d 40 e2 62 be
       -0.0597823 0.15744944 0.07119062 -0.2215662
000010 bf 3a b2 3c e4 27 8c bd a0 d1 af 3a 4b 92 86 3d
       0.021756528 -0.06843546 0.0013413914 0.06570872
000020 91 5b 30 3e 13 13 01 3d c3 3a 46 bd 00 a5 36 3e
       0.1722243 0.03151233 -0.048395883 0.1783638
000030 1e 3a 36 3e 5f aa a5 bd 99 4d 4f bd ec 94 8b bd
       0.17795607 -0.08089136 -0.050611112 -0.06815514
000040 1e 49 32 3d e9 30 71 3b 9a 1c a5 3c b4 0c d2 bd
       0.04352676 0.0036802834 0.02015524 -0.10256329
000050 de 0e 8f 3d 9e 9f 39 3d 32 d5 6a 3e a7 c2 32 be
       0.069852576 0.04531824 0.2293289 -0.17457066
000060 5d f0 50 be 57 f1 98 3c 60 ee 80 3d 39 fd 20 3e
       -0.20404191 0.018669767 0.062954664 0.15721597
000070 3d 46 71 bd 55 69 b4 3d 12 f1 2c 3d 90 44 18 3e
       -0.058904875 0.08809153 0.04222209 0.14869905
000080 15 0c 3e be 3e 41 47 3d 8f 43 ed 3d 6e 89 20 bb
       -0.18559296 0.048646204 0.115851514 -0.0024495977
000090 b3 34 a8 bd bb 43 18 3e 40 df 30 3d e4 cd 90 be
       -0.082131766 0.14869587 0.043181658 -0.28282082
0000a0 ba 47 25 3d ec b3 1b 3e 50 b4 38 3e bf b6 86 3d
       0.040351607 0.15205353 0.18037534 0.06577825
0000b0 9b 15 19 3e 4b 34 dd bd 63 b0 28 3e 50 97 9e 3d
       0.14949648 -0.1080099 0.16473536 0.07743704
0000c0 66 5e 23 3e 89 01 6f 3e 6f 68 fa 3c c4 63 ff bd
       0.15953979 0.2334043 0.030567376 -0.12470201
0000d0 aa 3d 2d be 6a 5b 5d bd 40 56 10 be 3a e7 96 3b
       -0.16918054 -0.054042257 -0.14095402 0.004605201
0000e0 41 17 f1 bd da 7e 5a 3e 28 18 09 bd 2b 4c 0d 3e
       -0.117720135 0.21337453 -0.033470303 0.13798587
0000f0 7c 42 6c be f8 80 fc bc 46 d8 97 be 12 d9 04 3d
       -0.23072237 -0.030823216 -0.2965719 0.032433577
000100 15 a9 f1 3d 2d c7 16 bb 28 f3 08 3c d7 f9 05 be
       0.11799828 -0.0023006902 0.008358754 -0.13083588
000110 13 28 61 bd 2e 86 72 be 87 3f ee bd 52 91 00 bd
       -0.05496986 -0.23683998 -0.11633211 -0.03138859
000120 54 40 07 be 2c 7d 50 3d fa a5 a7 bd f6 8d f6 bd
       -0.13208133 0.050900623 -0.081859544 -0.12038796
000130 40 b3 a6 bd b1 b2 f9 bd cf 2e 7f be 2e 94 2d be
       -0.08139658 -0.12192286 -0.249202 -0.16951057
000140 dc 02 a5 3d 64 18 d8 bd 18 cf f5 bd 54 b2 3f 3c
       0.08057186 -0.10551527 -0.120023906 0.011700232
000150 3a 07 77 be e2 25 2c be c9 d2 51 3e ca d4 9b bb
       -0.2412385 -0.16811326 0.20490564 -0.004755591
000160 f3 f9 47 3d 6b f1 00 3e 54 39 c7 bd b2 e1 37 bd
       0.048822355 0.12592094 -0.09727731 -0.044892974
000170 18 63 58 be bb db d9 bd 59 14 bf bd 4d 2c 7e 3d
       -0.21131551 -0.106376134 -0.09330053 0.062053967
000180 20 ff 33 3d 18 85 02 3e bb 3e 03 3e 7e ed 7b be
       0.043944478 0.12746084 0.12816899 -0.24602315
000190 b5 2e bf be e5 37 5b be 8d aa b9 3d 06 a9 8c bd
       -0.37340322 -0.21408041 0.09065733 -0.06868176
0001a0 23 59 78 3e ee c5 98 3e 0a 53 ec bc 10 5c 28 3e
       0.24252753 0.29838508 -0.02884819 0.16441369
0001b0 36 fc a7 bd 44 71 af bd fd 6e c3 bd 81 34 ce bc
       -0.08202402 -0.085665256 -0.09542654 -0.02517152
0001c0 18 58 4b bc 03 ee a9 3d 2a 05 08 be bc f5 73 3e
       -0.01241114 0.0829735 -0.1328322 0.23824209
0001d0 63 61 df 3d d8 ec 6c 3d 6a e8 f1 bd 42 a3 84 bd
       0.10907247 0.05784306 -0.118119076 -0.064764515
0001e0 eb 57 33 3e 03 65 e2 3d d8 1f 2a 3e 12 65 8d 3d
       0.17514007 0.11054423 0.1661371 0.06904043
0001f0 ab 2f f6 3d 6d 92 99 3d f6 8b e1 3d 0d 76 19 3e
       0.12020811 0.074986316 0.110130236 0.14986439
000200 b0 79 41 3e bd 31 81 be 92 b3 5f 3d 59 39 f5 3d
       0.18894076 -0.2523326 0.05461461 0.11973829
000210 1d 63 3c 3e 1c d4 c0 bc 8d c0 e8 3d d6 4e 27 bd
       0.18397184 -0.023538642 0.11364851 -0.04084667
000220 36 23 05 3d 9d 55 68 3d 61 60 6d 3e 02 39 21 3e
       0.032504283 0.056722272 0.23181297 0.15744403
000230 e4 90 88 3d 30 3f c6 bd af 8d 79 bc a7 a4 1a be
       0.06668261 -0.09680021 -0.015231534 -0.15101872
000240 53 3b c5 bd af 0f a9 bd ef 3a a7 3d 1a 19 95 bc
       -0.09630456 -0.082549445 0.081655376 -0.018200446
000250 12 32 97 bd 21 75 cb bd 16 66 3a 3c 45 68 fb 3d
       -0.07382597 -0.0993445 0.011376878 0.12275747
000260 60 2a 53 be cf be 46 3d 0a 19 aa 3d 02 ee 01 3e
       -0.20621634 0.048521813 0.08305557 0.12688449
000270 8f 6a 7e 3d 0f 3c 59 3c de f4 f5 3d fa fe 81 3e
       0.06211334 0.013258948 0.12009595 0.25389844
000280 d1 24 9c bd 3a d8 b5 3d dd a2 09 be 13 c1 43 3e
       -0.0762421 0.088791326 -0.13441034 0.1911662
000290 40 a8 4c bd 28 bf 05 bd 10 b4 24 3c 7d d7 58 be
       -0.049965143 -0.032653004 0.010052696 -0.21175952
0002a0 a1 ce 8c 3d 33 42 1d bd 0e 82 59 bd 72 af 0b be
       0.06875349 -0.03839321 -0.053102545 -0.13641146
0002b0 44 85 fa bd 8e 68 88 3d 8c 96 fd 3d 2c d3 05 3c
       -0.1223245 0.06660567 0.1238223 0.008168023
0002c0 ad d4 05 bd fe e8 1b 3e ee 66 50 3d 48 49 42 bd
       -0.032673527 0.15225598 0.05087941 -0.047433168
0002d0 3e d2 1c bd 88 df e5 bd 66 a8 6b bd 3d b6 fc 3d
       -0.03828644 -0.11224276 -0.057533644 0.12339447
0002e0 d0 a7 c9 3d a9 35 1a 3c e3 1a bf 3e 93 5f ea bd
       0.09846461 0.009412208 0.373252 -0.114440106
0002f0 1b a0 95 3b c7 a5 d7 ba b1 38 e5 3d c5 cf 80 bc
       0.004566205 -0.0016452604 0.11192454 -0.015724072
000300 cb 0e 55 be a4 95 c9 bb 11 ae 13 be ab 22 32 bc
       -0.20806424 -0.0061518718 -0.1442187 -0.010872523
000310 49 18 6c 3e a4 38 f6 bd ba 4c 1a 3d 9e 1f df 3d
       0.23056139 -0.12022522 0.03767083 0.108947024
000320 2b dd 50 be c2 21 8e bd c3 7b 38 3d 91 c8 1a 3e
       -0.20396869 -0.069400325 0.045039903 0.15115573
000330 f3 10 99 be 5b 27 ce 3d 8d 09 33 3e 5f e1 84 3c
       -0.29895744 0.100661 0.17484112 0.016220747
000340 2c 81 4b 3e 8f 30 8c 3e 03 ec 8d bd 6d 3b 8a bd
       0.19873494 0.27380797 -0.06929781 -0.06749616
000350 45 6c 5e 3e e2 74 57 bd 5b dc 6a bd d7 0d 18 bd
       0.21720989 -0.052601703 -0.057339054 -0.037122574
000360 90 a6 68 3d 91 81 83 3b 90 25 a5 3d 5c a5 56 bc
       0.05679947 0.0040132483 0.08063805 -0.013100948
000370 47 2b 13 3e 4f 49 cb 3b b5 ed 3e 3e 9e f6 a1 3e
       0.14371978 0.0062038074 0.18645366 0.31633466
000380 4b cc 17 3e b3 ba b8 3c 67 d8 48 b9 06 b4 c9 bd
       0.14824025 0.022549963 -0.00019154102 -0.0984879
000390 cb b1 71 bd 68 6d c4 3d f2 23 01 3e 25 94 ac 3b
       -0.059007447 0.0959118 0.12611368 0.0052666836
0003a0 ab 51 94 bd 6e 83 b8 3c ca fa 6f bd 11 5a f7 3c
       -0.072421394 0.022523608 -0.05858878 0.030194314
0003b0 fe fd 0b 3e 7d 5e aa 3d 1b f3 11 3e 56 ed 4a 3e
       0.13671109 0.083188035 0.14252894 0.19817099
0003c0 e2 a0 02 be 28 71 9a 3d d7 d4 0f 3c 59 72 12 3e
       -0.12756684 0.07541114 0.008778772 0.14301433
0003d0 49 7d 01 3d b1 3a 93 bd a9 5f 03 be b8 53 59 3e
       0.03161362 -0.07188929 -0.1282946 0.21223342
0003e0 00 88 b6 bd c2 93 e3 3d 8e 16 5a 3d f2 99 89 be
       -0.08912659 0.11112167 0.053244166 -0.26875263
0003f0 cf 28 50 be a9 a0 ca 3d dc 8e 13 bd 38 d9 db bd
       -0.20328067 0.09893925 -0.036024913 -0.107347906

features_model.0.bias f4 [128]
000000 11 9f 81 bb f6 8e 5f bc 5e 68 44 bc b2 d4 c3 bc
       -0.00395573 -0.013644924 -0.011987774 -0.023905132
000010 66 bc 33 3d 65 56 e3 3c a3 02 a0 bc fd 7f 03 bc
       0.043880843 0.027751157 -0.019532507 -0.00802612
000020 1e ca 22 bc 45 b6 ae bc 99 70 82 3c de 72 f3 bb
       -0.009935884 -0.021327147 0.015922831 -0.0074294647
000030 bc d3 4c 3c 47 d9 f5 bc a5 c1 97 bc d3 57 44 3c
       0.012501653 -0.030010832 -0.018524954 0.01198383
000040 36 e3 29 3d d9 5f ae bc 2a e1 57 bd 67 4a 0a 3b
       0.04147645 -0.021285938 -0.052704968 0.0021101476
000050 89 f2 dd bc 6d 75 04 bd 1e a2 72 3c e4 ab d8 bb
       -0.027093189 -0.03233855 0.01480916 -0.006612288
000060 32 07 d5 3b db 08 1a bc c1 ed 35 3c 16 b5 08 3c
       0.006501102 -0.009401525 0.011104048 0.0083439555
000070 13 39 3f 3c e1 bb 20 3d ac d2 2d 3d c3 e5 21 3d
       0.011671322 0.039241675 0.04243724 0.03952576
000080 61 ad 45 bc da b4 b6 3c 2a f8 30 bc 93 c8 09 3c
       -0.0120652625 0.022303034 -0.010801354 0.008409637
000090 0c d6 29 bc e9 d8 85 bb c1 72 a7 bb 50 bc 4c 3c
       -0.010365974 -0.0040846956 -0.0051101153 0.012496069
0000a0 a8 ee f1 3c 4f c3 5f b9 cf 34 d2 3c 48 ed e6 bc
       0.029532745 -0.00021339695 0.025659947 -0.028189316
0000b0 da 50 08 bc 43 dc 83 bc 6b 00 f3 3c f9 ed 66 3c
       -0.008320058 -0.01609624 0.029663285 0.014094823
0000c0 42 07 86 bc 06 40 dc 3c d5 92 5d bc a3 28 99 bb
       -0.016360883 0.026885998 -0.013523777 -0.0046740337
0000d0 7d 86 25 3d 6b 9e c4 3c 6f da 18 3d d4 17 be bc
       0.04041146 0.02400132 0.03731769 -0.023204722
0000e0 6b c4 ce 3c 90 dd ed 38 0f 15 4f bc 35 81 e8 3c
       0.025240144 0.0001134231 -0.012639298 0.028381923
0000f0 4b f1 a4 bc 48 b4 1a bd 5b d8 2c bb 39 a3 38 bc
       -0.020134589 -0.037769586 -0.0026374075 -0.011269384
000100 bd 58 e6 bc 4a f1 fe bb ed de dc bc 3a 13 e9 3b
       -0.028118486 -0.0077802287 -0.026961768 0.0071128877
000110 84 36 71 3c 98 82 24 bc 60 32 64 bd 91 2f a1 bc
       0.01472247 -0.010040902 -0.055712104 -0.019676002
000120 a7 d2 a2 bc bc ed c4 bc a7 52 af bc ab a1 f7 bc
       -0.019875837 -0.024039142 -0.021401716 -0.030228456
000130 4d 98 34 3b 69 45 40 3d 8d 28 27 bc bf f9 fc 3b
       0.0027556599 0.046941195 -0.010202539 0.0077202017
000140 cb fa e6 bc 89 66 eb bc 1e 9b 85 3c 25 28 a0 bc
       -0.02819576 -0.028735416 0.016309317 -0.019550392
000150 59 1e e8 bc 30 fa fb bb 8a a3 1c 3d e6 5f 32 3d
       -0.028334783 -0.007689737 0.0382419 0.043548487
000160 44 65 15 3d df 08 38 bc 1d 79 2f bc 62 2a 58 bb
       0.036473528 -0.011232584 -0.010710028 -0.0032984246
000170 f3 8b 81 bc 08 bb 62 bc af 81 11 39 a9 41 a7 3c
       -0.015813803 -0.013838537 0.00013876588 0.020417051
000180 a3 56 f1 bc 89 5f f9 3b 3a 76 c4 bb d6 2a a5 39
       -0.029460257 0.0076102656 -0.005995539 0.00031503168
000190 5d bd c0 bc b7 e4 be 3b e0 05 a7 3d fe bb 85 bc
       -0.023527795 0.005825605 0.081554174 -0.016324993
0001a0 c3 57 91 bc ee 3d 91 ba 72 41 e0 bc d4 a3 2b bc
       -0.017742043 -0.0011081079 -0.027374957 -0.010476071
0001b0 cb 24 69 bc b5 0c 26 bc bb fa fa bc 01 93 cb bc
       -0.0142299635 -0.0101348655 -0.030637136 -0.02485037
0001c0 be 33 b4 bc 5e e0 05 3d f6 86 9e 3c 63 20 4e 3c
       -0.021997329 0.032684676 0.019351464 0.012580964
0001d0 ce c3 8b 3c 65 5f 54 bc 33 bd 1a 3b ca d3 85 bc
       0.01706114 -0.012962197 0.0023611307 -0.01633634
0001e0 6f 62 a9 bc 4b de 1d 3d 7d f1 cd 3c cf fe 81 bc
       -0.02067682 0.038542073 0.025139565 -0.015868573
0001f0 85 fe a6 bc c3 6f 58 bc 1b e1 3a 3c f9 f1 25 bc
       -0.020385036 -0.01321024 0.011406208 -0.010128492

features_model.2.weight f4 [128, 128]
000000 96 7c 35 3e 55 53 74 bd 02 18 80 bd f2 1c f0 3d
       0.17723307 -0.059649784 -0.06254579 0.11724271
000010 84 93 38 3e f0 ee 65 3d 3f bf 42 bd 3d f3 03 be
       0.18025023 0.05613607 -0.047545668 -0.12885757
000020 06 6e 2b 3c d0 49 03 3c 99 1c a1 bc 68 d7 73 bb
       0.010463243 0.008013204 -0.019666957 -0.003720725
000030 18 cf d5 bc 87 b0 1d 3d b5 fe e2 bd 1b 57 cb 3d
       -0.026099727 0.038498428 -0.11083738 0.099287234
000040 10 d6 04 be 2c d8 b1 3d 37 17 60 bd 2f 2b c7 bd
       -0.12972283 0.0868381 -0.05470964 -0.097250335
000050 65 53 dd 3d ab 99 55 3d 78 5f 01 bb 25 2f 58 bd
       0.10806922 0.052148502 -0.0019740742 -0.052779336
000060 0d 6b 3c 3d 75 ce fa bd 88 1f 52 bd 68 12 8d 3e
       0.04600053 -0.1224641 -0.0512996 0.27553105
000070 2c ba d8 3b 38 37 d4 bd b0 44 d4 3b 57 09 74 3d
       0.0066139903 -0.10362095 0.0064779148 0.05957922
000080 03 ef 4b 3e 5b 83 71 bc 55 4f bb 3a 31 d3 47 3c
       0.19915394 -0.01474079 0.001429061 0.012196348
000090 07 e8 c6 bd 11 80 61 be fc 0a 44 be cc b3 1f 3d
       -0.097122245 -0.2202151 -0.19144815 0.038989827
0000a0 cc 57 2d 3e 6a a9 7b 3b 24 34 47 3e 45 08 b2 3d
       0.16928023 0.003840054 0.19453484 0.086929835
0000b0 ef 9a a8 3d d8 75 20 3e 5e 65 1a bd 40 d0 a0 bb
       0.08232676 0.15669954 -0.037694328 -0.004907638
0000c0 7a fb 2a 3e e3 6f 98 3e f7 4d 15 3e e5 39 42 3e
       0.16697493 0.29772863 0.14580522 0.18967398
0000d0 d4 af fb bd f5 51 14 bd e8 99 8a bd ec bc 5c be
       -0.12289396 -0.036210973 -0.067676365 -0.21556443
0000e0 a0 c3 6d bd 23 df e6 bd 06 b2 70 bd 25 fd bb 3d
       -0.05804789 -0.11273029 -0.058763526 0.09179143
0000f0 44 e7 ef 3d f0 69 9c 3e 90 4b 0f 3d 89 63 73 be
       0.11714032 0.30549574 0.03498417 -0.23768438
000100 d9 3a 57 3e 24 0a 36 3d f9 cf b0 bd df 63 73 bd
       0.21018542 0.044443265 -0.08633418 -0.059421416
000110 d7 a1 aa bd 8a 58 ac 3d 25 ba c8 3d fa c2 55 be
       -0.0833165 0.08415325 0.09801129 -0.20875159
000120 62 c1 5d be 79 93 0d be da 67 cf bd 9f 9d 02 bd
       -0.21655801 -0.13825788 -0.1012723 -0.0318886
000130 e7 20 fe bc d5 a1 54 3d 49 74 c2 bd d9 40 9d be
       -0.031021548 0.051912148 -0.09494836 -0.30713537
000140 f2 c6 56 3d d9 74 ba 3d f0 4a df bd 40 c4 09 3d
       0.052435823 0.09104318 -0.10902965 0.033634424
000150 16 cb 51 3e 04 21 4a 3e b4 e9 04 be ea cd 8f bd
       0.20487627 0.19739157 -0.12979776 -0.07021697
000160 4d 85 6b 3d 7f 66 6a 3d 48 4c 6e be 44 ed a7 bd
       0.057500172 0.057226654 -0.23271286 -0.08199552
000170 71 d3 36 3e ce 40 69 bd de 4c fd bc bd 34 ec bd
       0.17854096 -0.05694657 -0.030920442 -0.115334965
000180 d5 e7 86 bd 5b 13 fb 3d eb 18 59 3e 86 b0 3d be
       -0.06587187 0.12259551 0.21200912 -0.1852437
000190 40 a0 05 3e cd af 6e 39 d2 fd b9 3d e6 e5 91 3e
       0.13049412 0.0002276294 0.090816155 0.2849571
0001a0 e0 73 30 3e 01 97 fd ba 35 e9 2d be 9b 1c 0c be
       0.17231703 -0.0019347371 -0.16983493 -0.13682787
0001b0 10 29 f9 bd b5 57 2d 3e ae 1f 4b bd 15 97 41 3e
       -0.12166035 0.16927989 -0.04959076 0.1890529
0001c0 57 c7 ac bd 10 53 3a be e7 15 2b bd 90 29 85 bc
       -0.084364586 -0.18195748 -0.041768935 -0.01625517
0001d0 ff 24 32 3d 47 ad 02 be 50 d9 37 bd b4 12 15 be
       0.043492313 -0.12761413 -0.04488498 -0.14557916
0001e0 2b 2a 3b bd 6d 7b 02 3c 1c f7 8d bd 33 1c 5b 3d
       -0.04569451 0.007963997 -0.06931898 0.05349369
0001f0 17 0e 2c bd ab 12 87 3d 74 bf aa 3d e7 0a 9b bd
       -0.042005625 0.065953575 0.08337298 -0.07570439
000200 c4 1b 82 bd 76 48 95 3d e0 80 95 3d 8c 43 a2 3c
       -0.06352952 0.072892115 0.072999716 0.0198076
000210 0d 52 6d bd 47 7f bb 3d 0d 1f 8e 3d 63 31 27 be
       -0.057939578 0.091551356 0.06939516 -0.16327433
000220 78 ae ce 3d 47 87 85 be 2d 95 2a be cb cf d7 3d
       0.10091871 -0.2607977 -0.16658469 0.1053768
000230 25 68 f1 3b 20 fb 93 3c 52 f5 0e 3e 4b a6 81 bd
       0.0073671513 0.018064082 0.1396077 -0.06330546
000240 61 75 53 bc 59 50 fc 3c 3d 47 6c 3d 0b db c4 bd
       -0.012906403 0.030800031 0.057685126 -0.09612092
000250 08 12 c0 bc f5 08 29 be fe 7d 05 be b0 12 a7 3d
       -0.023446098 -0.16507323 -0.13036343 0.08157861
000260 e8 9a 96 bd 8f 58 dd bd e8 95 1f be b4 fa 20 bd
       -0.07353765 -0.10807907 -0.15584528 -0.03930159
000270 55 2e 85 3e 21 ba 21 be b2 5c ae be 08 5c bb bd
       0.2601191 -0.15793659 -0.34055096 -0.09148413
000280 11 ae 62 3d 79 c1 b3 3c 73 7a f7 bd 4d eb 65 bd
       0.055341784 0.02194284 -0.12083902 -0.056132603
000290 ef de 62 3d 47 32 4e bc 06 cd 23 3e 90 3c 70 bc
       0.055388387 -0.012585229 0.15996179 -0.014662877
0002a0 88 ef db 3d d7 34 4c be 66 3e 9e 3c 64 73 ea 3d
       0.10739046 -0.19942032 0.019316863 0.1144779
0002b0 3c c0 31 3c 52 ea 6e bd fb 99 52 3d 19 d3 80 3e
       0.010849055 -0.058328934 0.05141638 0.25161055
0002c0 12 90 12 be d0 1d 0c 3d 56 fa a3 3c 12 77 1b bd
       -0.14312771 0.03420812 0.02001683 -0.03795535
0002d0 8b 7b 15 3d 19 53 c3 3d 42 83 91 3c e0 69 9a 3d
       0.036494773 0.09537334 0.017762784 0.07539725
0002e0 bb 74 fd 3c dc f0 dd 3d 82 6f bb bd fb 3f 3a 3d
       0.03093945 0.10836956 -0.09152128 0.045471173
0002f0 69 7d 5d 3e b7 d3 53 bd 07 1e 74 be 0a d6 9d 3e
       0.21629871 -0.05171558 -0.2383958 0.3082736
000300 fd 71 6f 3d db 5e 9e 3b b7 dc 54 3a 98 f6 9a bd
       0.058458317 0.004833085 0.0008120047 -0.07566565
000310 0e 7f b7 3c 6c 50 6e 3e c1 ca 88 be 9f cc 18 bd
       0.022399452 0.23272866 -0.2671719 -0.037304517
000320 c1 d8 7f 3d 51 74 c0 3d b9 90 3a be 97 6f 05 3e
       0.062462572 0.093971856 -0.1821927 0.1303085
000330 d7 18 7f 3b b0 a5 02 bc 6d ca c8 bd 7d 33 fc 3d
       0.0038924718 -0.007974073 -0.09804235 0.12314508
000340 cf 94 af 3b cf d7 22 3e ae ad 79 3d cf 14 96 3e
       0.0053583155 0.15902637 0.06095665 0.2931275
000350 e4 c6 00 3d f7 52 6c bc 63 02 25 be da 92 8c 3d
       0.031439677 -0.014424077 -0.16114192 0.06863947
000360 0e 2d 77 3e 8c ea 33 bc da bf 4d bd 28 8b 5c bc
       0.24138281 -0.010981213 -0.050231792 -0.013460912
000370 7c 62 b9 3c fb 14 ab 3c fe 62 0c 3e f6 02 0d be
       0.022629969 0.020884028 0.13709638 -0.13770661
000380 48 1c e7 bc 52 78 dd bd 07 73 2c 3e b5 97 df bd
       -0.028211728 -0.10813965 0.16840754 -0.10917608
000390 76 94 33 3d 73 1b bc bd 12 66 a6 be 50 15 8c 3c
       0.043842755 -0.09184923 -0.32499748 0.017100006
0003a0 90 15 78 bd 91 2a 5b bd 60 70 49 be 5c e0 64 3e
       -0.06056744 -0.05350739 -0.19671774 0.22351211
0003b0 fa 77 d2 bd a5 7b 19 bd 63 1b 85 bc e6 ac 12 3e
       -0.1027679 -0.037471432 -0.01624841 0.14323768
0003c0 5e 54 84 bd a8 a2 47 be 73 f4 60 3d 0a 09 d2 bd
       -0.06461404 -0.19495642 0.054920625 -0.1025563
0003d0 17 bd 3e 3e 38 bf d5 3d 29 94 0d 3e 73 c2 c0 bd
       0.1862682 0.10436863 0.1382605 -0.09412088
0003e0 59 bc 58 bc 26 40 b0 3d 94 a4 59 3e 97 fc 9c bc
       -0.013228499 0.08605985 0.21254188 -0.019163413
0003f0 2e 38 31 be 51 0a 77 be 9a c0 03 bd 4f 7c 82 3d
       -0.17306587 -0.24125029 -0.0321661 0.06371366

features_model.2.bias f4 [128]
000000 cf 89 91 bb d2 0c ef 3b fb 2b af bb c9 bb f7 bc
       -0.004441477 0.0072952295 -0.005345819 -0.03024091
000010 d6 08 27 bc f6 ce 85 3c 41 43 9e b9 00 00 00 00
       -0.010194978 0.016334038 -0.00030186216 0.0
000020 1d b5 59 3c b6 09 15 ba 87 64 55 bc 17 bc ad 3c
       0.01328781 -0.0005685346 -0.013024456 0.021207852
000030 30 2e c3 bb c4 12 21 bc 21 4a d7 bb 8b 28 be 3b
       -0.0059564337 -0.009831134 -0.006570116 0.005803173
000040 06 54 a4 bb b6 15 b7 3c 6e 76 de bb 3e e1 8c 3d
       -0.005014899 0.02234922 -0.0067890203 0.06878899
000050 17 4c 80 39 96 22 4c 3c b3 5f 7f bb 6f d3 13 bd
       0.00024470754 0.012459418 -0.0038966953 -0.03609031
000060 63 a2 f3 3b a1 d4 4a bc 74 1c 72 bb 06 8e 39 bc
       0.0074351295 -0.012379796 -0.003694323 -0.011325365
000070 20 b6 7d bc 17 07 2e bc 1c 14 1a bc 74 da 81 bc
       -0.0154853165 -0.010621808 -0.0094042085 -0.015851237
000080 f1 c3 6f bb 7f 5c 5f 3d 5c a0 10 bc 3b 17 2b 3d
       -0.0036585296 0.05453157 -0.008827295 0.0417702
000090 61 29 69 bc d1 2b c2 bc dc f3 10 bc 78 92 0e bc
       -0.014231057 -0.023702534 -0.008847203 -0.008701913
0000a0 2e 28 fb bb f6 af 52 bc 3b 18 cf bc 9b b2 2a 3b
       -0.007664702 -0.012859335 -0.025280109 0.0026046399
0000b0 c0 3a 52 3c 3d 5d 39 bc e8 f0 89 3b 29 50 4d bc
       0.01283139 -0.011313734 0.0042096265 -0.012531319
0000c0 05 ea a0 bc ac dc f4 3c b1 c2 11 39 f0 22 f8 ba
       -0.01964284 0.02989038 0.00013900806 -0.0018931311
0000d0 4a ef 9d bc e1 ce 1f 3d e4 e4 e2 bb 1a 1e 9e bb
       -0.019279141 0.039015654 -0.0069242585 -0.0048253657
0000e0 e7 a7 1d 3d 54 45 c2 bc a4 33 67 3c ec 8c ca bb
       0.038490202 -0.023714699 0.014111433 -0.00618135
0000f0 2b 1d 3a bc bb fa 04 3d 14 dd 07 bb 85 0c d3 3b
       -0.011359493 0.032465678 -0.0020731138 0.0064407014
000100 a9 2c 0a bc 3d bd 94 bc c4 51 f1 39 40 eb 99 bc
       -0.008433499 -0.018156642 0.00046028022 -0.018788934
000110 1f 08 1b bb 47 d4 29 3d dd 75 a8 bb 8d 28 8d 3a
       -0.0023655964 0.04146221 -0.0051410035 0.0010769531
000120 91 d0 3e bc f1 b7 0c bc fe 9a 69 3c 0f f1 a9 bc
       -0.011646406 -0.008588777 0.014258144 -0.020744829
000130 1f a8 01 3c e2 ef 29 3c ea 05 65 3d 4c 22 9d bc
       0.007913618 0.010372134 0.055913843 -0.019181393
000140 00 00 00 00 a4 9a 00 bc 6f a6 ed bb 32 9b 98 3b
       0.0 -0.007849369 -0.0072525064 0.0046571726
000150 ef 69 f5 bb 11 71 32 3c 89 9a bc bc e4 12 0e bb
       -0.007489435 0.010891215 -0.023022907 -0.002167874
000160 b2 96 8d 3c 82 ed 3a bb e5 9f d1 bc bd f8 62 bb
       0.017283771 -0.0028522913 -0.025588939 -0.0034633123
000170 3c 0c d3 3c ca 07 6e bc 79 e6 86 bc bc f8 e3 3b
       0.02576267 -0.014528224 -0.01646732 0.0069571417
000180 ef 8c 25 bc a9 3a 9b bc b8 d5 ef ba 5f 19 9d bb
       -0.010104402 -0.01894887 -0.0018297946 -0.0047942842
000190 5f b0 f7 bc c4 16 ac bc 00 00 00 00 18 fc c9 bc
       -0.030235467 -0.02100695 0.0 -0.02465634
0001a0 a2 3e 65 3c a7 5a fe bb 7d 3e a5 bb 66 c6 ca bc
       0.013991984 -0.0077622714 -0.0050428496 -0.024752807
0001b0 d7 d7 8b 3b 14 d0 09 bc 46 52 2b 3d 3d 26 05 bd
       0.0042676735 -0.008411426 0.04182651 -0.03250717
0001c0 6b f1 71 bc 2a d0 91 bc 1d 4c 96 bc cb 34 42 3b
       -0.014767031 -0.017799456 -0.01834684 0.0029633518
0001d0 c3 71 1b bc 8a 7a 59 3a b6 6f f9 bb ef e0 99 bc
       -0.009487572 0.0008296153 -0.007612194 -0.018784015
0001e0 c8 07 ee 3b 54 1f 80 bb 5e a2 ff bb ec 40 4b bc
       0.007264111 -0.0039099846 -0.007801338 -0.012405615
0001f0 dd a1 46 3a b1 ff 00 3d 00 00 00 00 eb 51 47 bc
       0.000757722 0.031493846 0.0 -0.012165527

features_model.4.weight f4 [128, 128]
000000 11 9a 10 3e eb e7 24 3c 7f 5c 83 3d 0c 62 63 bd
       0.14121272 0.010065059 0.064141266 -0.055513427
000010 a8 68 1e bc cb 99 62 be ea 9f 82 be 63 d7 92 3b
       -0.009668507 -0.2212898 -0.2551263 0.0044812425
000020 49 de 7e bd 62 48 01 3d 0b d3 6d bd f0 a8 1b be
       -0.062223706 0.03156317 -0.058062594 -0.15201163
000030 d2 c7 4b bd 9c 1f 48 bd 92 33 2a bc 95 ca f9 bc
       -0.04975111 -0.04885827 -0.010388272 -0.030492106
000040 7a 0d 0f 3e 20 ae d8 3d 2a 6b 60 be 59 cf 9c 3d
       0.13969985 0.10580087 -0.2191588 0.07656736
000050 02 cf 69 3d ce c4 90 be b4 a5 19 be bc 9b b3 3d
       0.057082184 -0.2827515 -0.15004617 0.08769938
000060 6c 3a cf bd 76 0f b1 3d 17 8b c0 3e 4e fa 95 bc
       -0.10118565 0.08645527 0.37606117 -0.018307831
000070 6a 1e ea 3d c8 84 f6 3d 55 8f d3 bc 88 ab c8 bc
       0.11431582 0.12037045 -0.025825182 -0.024495855
000080 46 81 4a 3d 3c 57 4b be c9 f6 45 3e 0c f7 57 3e
       0.04943969 -0.19857496 0.19332422 0.21090335
000090 bb d6 3f be fd e3 71 bd 63 05 85 bc 65 2d 11 3d
       -0.18734257 -0.059055317 -0.01623792 0.035443682
0000a0 69 ca 9e bc 45 29 cb 3c ea 6f ab 3e 8f 21 09 be
       -0.019383626 0.024799952 0.3348382 -0.13391708
0000b0 db a6 9c 3d aa 84 36 3e 63 52 e0 bc a7 cf 25 3e
       0.07649013 0.17824045 -0.027383035 0.16192494
0000c0 37 b4 60 be c1 60 05 3d 5e 86 5c 3d b0 3e 5a 3d
       -0.21943747 0.032562975 0.05383908 0.05328244
0000d0 37 07 0d bd 94 c7 0d be 03 e7 94 bd d3 69 ed 3d
       -0.03443071 -0.13845664 -0.072706245 0.1159245
0000e0 5f 70 4a bd 66 81 a1 be 3c 82 30 3e 45 8c 56 3d
       -0.04942357 -0.31544036 0.1723718 0.052379865
0000f0 83 7f 16 be 3f 47 3c bd f3 6f 1b 3d 0f d9 13 bd
       -0.1469708 -0.045966383 0.03794856 -0.036095675
000100 66 fc 14 be ca 7d b3 bd 16 4f 1b 3d a1 34 63 bd
       -0.14549407 -0.08764227 0.03791722 -0.055470113
000110 c7 98 b2 3d 63 f2 7a 3d b6 0c d6 3d 2d 25 21 3e
       0.08720546 0.061266314 0.10451643 0.15736838
000120 aa 83 06 be 02 30 b1 bd 99 38 b0 bc 2a e2 76 3d
       -0.13136163 -0.08651735 -0.021511363 0.06027428
000130 f6 58 9b be 9f 5e fa 3c ea 97 a9 bd 14 bb 0f be
       -0.3034131 0.030562697 -0.082809284 -0.14036208
000140 ff de 59 3e 28 7d 48 3e 01 3b fb bb b6 fd 15 ba
       0.21276473 0.19578993 -0.007666946 -0.0005721705
000150 c7 17 b9 3c 8e 62 fc bd 9f 1b 95 3c 81 70 76 3d
       0.022594346 -0.12323485 0.018201647 0.060165886
000160 16 01 73 3c c8 ab 05 be 47 0b 75 3d 99 03 28 3d
       0.014831802 -0.1305381 0.059825208 0.041019056
000170 22 73 07 be d0 e6 d5 bd 8a d2 39 bd 38 36 ce 3d
       -0.13227513 -0.104444146 -0.0453668 0.10068935
000180 f0 3d 14 3d 0a c2 ad 3d be 1f 02 3b 41 67 e2 3b
       0.03619188 0.08484276 0.0019855346 0.0069092815
000190 c8 a9 33 bd 6e 85 37 bd 27 8c e3 bd 9f c6 b6 3d
       -0.043863088 -0.044804983 -0.11110716 0.08924603
0001a0 f1 37 07 bd e0 2d 47 be 8d b8 41 be db a0 00 bd
       -0.033012334 -0.19451094 -0.18918057 -0.031403404
0001b0 1a 55 04 be 00 4c 04 be 4b 35 79 3e f3 41 17 3e
       -0.12923089 -0.12919617 0.24336736 0.14771251
0001c0 2e d3 d8 3b 52 3e 98 3d a7 17 c3 bc 69 e8 5e 3d
       0.0066169715 0.07433762 -0.02381499 0.054420862
0001d0 be d9 02 be e6 74 ea 3d 2e f5 15 3e c7 63 b8 bd
       -0.12778375 0.11448078 0.1464431 -0.09003406
0001e0 c6 c9 dc 3d 6b 81 f6 bd 31 db 19 3e e4 13 6e be
       0.10780673 -0.12036403 0.15025021 -0.23249775
0001f0 02 ec 24 be 98 1b 07 be 24 6a 0f be 8b 82 24 bd
       -0.16105655 -0.1319412 -0.14005333 -0.040163558
000200 f5 04 1c bd 67 48 ec bd b3 b3 ef 3d 46 96 a8 bd
       -0.038090665 -0.11537247 0.11704197 -0.082317874
000210 3d 7b 05 be f1 ce 63 bd d8 ac 2c 3e 4a 11 18 be
       -0.13035293 -0.055617277 0.1686281 -0.14850345
000220 68 39 58 be 74 b5 8b bd d3 a2 14 3d 35 d6 35 be
       -0.21115649 -0.06821719 0.036288094 -0.17757495
000230 01 cb 5c bd a2 2e 13 3e 7e c7 09 3d 0b 7b 97 3c
       -0.053904537 0.14373258 0.033637516 0.018491289
000240 ca 27 1e be 2a 02 82 bd fd 1a 93 3e 76 b1 9e bd
       -0.15444866 -0.06348069 0.28731528 -0.07748692
000250 2c 31 f5 3d 62 1a b2 3d 62 49 87 bd a6 3f 5f 3e
       0.119722694 0.08696438 -0.066057935 0.21801624
000260 54 54 95 3d 59 99 c7 3d 4f 17 ed bd e0 bb 0a bd
       0.07291475 0.097460456 -0.115767114 -0.033870578
000270 f9 d7 40 be 9b 82 2b 3e 6d 2c 5c 3d 2f c1 b2 bd
       -0.18832387 0.16749041 0.053753305 -0.08728253
000280 6b af 05 bd 6a f1 04 be b0 35 f9 3c 94 14 a1 bc
       -0.032637995 -0.12982717 0.030421108 -0.019663133
000290 f2 ba 89 3e 51 41 3d bd 2c 48 44 bb 96 d3 8f be
       0.2690044 -0.04620487 -0.0029950244 -0.28091115
0002a0 d6 da f8 3b da 0e 8a bc e1 e3 a5 3d 4d 8b 44 3e
       0.0075944467 -0.016852785 0.08100105 0.19193764
0002b0 5f 0c d4 3e 62 90 32 3d 11 14 fb bc 6e 2d 95 bd
       0.41415688 0.043594725 -0.030649217 -0.07284056
0002c0 d9 63 00 3e 90 de 61 be 1b 2c 1a be 80 c1 b8 be
       0.12538089 -0.22057557 -0.15055887 -0.3608513
0002d0 2c 85 85 3d 1a 6d 31 be e7 cd 07 3d f1 2d 55 3e
       0.06519541 -0.17326775 0.03315535 0.20818307
0002e0 3d 2a 22 3e e8 23 fa bb 6e fc b0 bd 01 aa c0 bd
       0.15836425 -0.007633675 -0.08641897 -0.09407426
0002f0 5c 43 6c 3e f1 41 84 3e 11 d8 a0 3d 85 94 cf bd
       0.2307257 0.2583156 0.078537114 -0.1013575
000300 78 c5 8b 3d 35 d3 c3 bc 9b 39 2c bb af 45 b9 3d
       0.068247736 -0.023904422 -0.0026279453 0.09046494
000310 f4 4c 30 3e d0 39 30 be c9 04 14 3e 2d 50 95 3d
       0.17216855 -0.17209554 0.1445495 0.07290683
000320 3e dd 0f bd 2f 6e b6 3d 4c d1 4b bd c6 45 8a 3d
       -0.035123102 0.089077346 -0.049760148 0.067515895
000330 f0 0b cc bd d0 55 ba bd 5f 8c b3 3d 85 bb 08 be
       -0.099632144 -0.09098399 0.08767008 -0.13352783
000340 94 31 bf 3d e4 a8 42 3b 22 9a 2c bc 35 a4 08 bd
       0.09335628 0.0029702717 -0.010534795 -0.033359725
000350 0f 23 8a 3c 6b c6 07 be 41 57 04 bd c3 55 49 be
       0.01686242 -0.13259284 -0.032309774 -0.19661622
000360 c7 c8 13 3e f2 76 57 3e 6c 26 2e 3d 3e f7 20 3e
       0.14432059 0.21041468 0.04251711 0.15719315
000370 26 2f b1 3d 24 14 59 3c e7 f4 85 bd c5 a4 47 3b
       0.08651571 0.013249431 -0.06540852 0.00304632
000380 8a 06 09 bc 41 e9 0d 3e b0 8b ef bb 4f ee 8a bd
       -0.008363375 0.1385851 -0.007310353 -0.06783735
000390 79 4a 5f 3e bf 5a 1e 3d ff 87 4c be 68 66 e5 bb
       0.21805753 0.03866076 -0.19973753 -0.007000733
0003a0 50 66 ee 3d 7d 5e 12 bd 6f db d3 bb f0 47 23 be
       0.11640608 -0.035734642 -0.0064653675 -0.1594541
0003b0 da 9c e5 bd d7 c3 30 3d fa fd 0a bd 82 52 02 3d
       -0.11211558 0.043155517 -0.033933617 0.031816967
0003c0 b9 ef b9 3d f3 ad 03 be 95 c6 b0 3d ce 83 a5 3d
       0.090789266 -0.12859325 0.086316265 0.080817804
0003d0 1b a9 8e bc de 8c 99 bd e7 25 23 3e 79 8f df bd
       -0.01741462 -0.074975714 0.15932427 -0.10916037
0003e0 c6 77 3d 3e 85 24 5e 3d 90 89 1e bc 3e 69 8d bd
       0.18502721 0.054234046 -0.009676352 -0.06904839
0003f0 fd de 01 be 8f c0 db bd 20 e7 0c bd d0 9a 56 3e
       -0.1268272 -0.10730087 -0.034400105 0.20957494

features_model.4.bias f4 [128]
000000 a6 ab ad bc b1 75 21 bc 25 5c 42 bc 44 62 82 bc
       -0.021200012 -0.00985472 -0.011862789 -0.015915997
000010 db 6f 7a 3c ad 10 d7 bb f0 13 15 bc ef 09 fd ba
       0.0152854575 -0.006563267 -0.009098992 -0.0019305329
000020 d6 f8 86 bc 97 d2 84 39 07 7f 94 bb d7 6c 12 3d
       -0.016476076 0.00025333904 -0.0045317444 0.03574833
000030 12 53 e5 bb 7b af 84 3c 0a 29 9c 3b c2 a0 a2 bc
       -0.006998428 0.016196957 0.0047656344 -0.019852046
000040 8a 07 fc bb 11 69 e9 b9 4e 99 f6 bb 17 66 0e 3d
       -0.0076913284 -0.00044519504 -0.0075255996 0.03476533
000050 f1 01 09 3b ca 73 42 3d 76 d9 03 bb af 87 04 bc
       0.0020905698 0.047473706 -0.002011863 -0.00808899
000060 14 e0 0a 3d 74 e2 ab bb 97 75 23 bc cd 84 8d 3b
       0.033905104 -0.005245501 -0.009976766 0.0043188096
000070 dd 42 8f bc f2 20 ad bb ea ea 9f 3c e4 2f 9a 3b
       -0.017487938 -0.0052834684 0.019521195 0.004705416
000080 6c e0 db bb f4 f6 fd 3c 9e d1 a9 bb 1c 14 0a 3d
       -0.006710103 0.031001545 -0.005182459 0.033710584
000090 cc 52 3f 3b 00 00 00 00 5d 87 38 3c 9f 3d 80 bc
       0.0029193638 0.0 0.011262742 -0.015654383
0000a0 62 f4 9c bb c2 18 26 bc c4 46 32 3c ae 26 43 ba
       -0.004789875 -0.010137739 0.01088113 -0.00074444234
0000b0 cc 68 61 bc fd ed 37 bc b8 d6 e9 ba 5b f5 ed 3c
       -0.013757896 -0.011226174 -0.001784048 0.029047659
0000c0 e1 45 d3 bc 00 00 00 00 fc 45 9d bb fd ab 8c bc
       -0.025790157 0.0 -0.0047996026 -0.017171854
0000d0 c8 30 23 bc 93 cc cb 3b fe b1 6d bc 30 39 1a bc
       -0.009960361 0.0062194555 -0.014507769 -0.009413049
0000e0 00 00 00 00 3e 14 b3 bc 5e cc 96 bc f6 3a 0c 3c
       0.0 -0.021860238 -0.018407997 0.008558979
0000f0 6e ca 6a ba 27 4f 06 bc 11 4c 1a bc 8f 9b a5 bc
       -0.0008956556 -0.008197582 -0.00941755 -0.020215778
000100 4f 71 11 3d 6f ce 2d 3c 57 d7 4d 3d ef 47 56 3c
       0.03550845 0.0106083 0.050254192 0.013078674
000110 80 08 10 bb 12 42 ab 3c 15 e2 9d 3c 56 75 4e bc
       -0.0021977723 0.020905528 0.019272843 -0.012601217
000120 ae f9 96 bb 39 42 aa bc 68 55 b8 bb e7 8b 81 3c
       -0.004607401 -0.02078353 -0.0056254156 0.015813781
000130 b6 bb 9f 3a 18 b8 9c 3c 70 8b 75 3b 7b 88 22 bc
       0.001218668 0.019130751 0.0037467144 -0.009920235
000140 07 19 62 3c ff f7 aa ba 0b 44 a9 3c 22 d2 4e bc
       0.013799912 -0.0013043879 0.020662328 -0.012623342
000150 7b c2 3a bc 64 65 22 bc d6 ae cc 3c 7b 3e 59 3d
       -0.011398907 -0.009911869 0.024985712 0.0530381
000160 58 30 75 bc e3 88 a7 bc 1c 0b 4e bc fe dd 88 ba
       -0.014965139 -0.020451015 -0.012575891 -0.0010442135
000170 e1 77 81 3b 8c 1b 9b bc 2c f7 06 3b 26 5b 89 bc
       0.0039510583 -0.018934034 0.0020594103 -0.016767096
000180 86 eb 80 bb b8 a0 bc 3c 8b a8 23 bc 6d 73 a2 3b
       -0.0039343266 0.023025855 -0.009988914 0.0049576075
000190 e9 9f 9a bc 32 30 a0 bc e9 06 8a b9 4f fe 41 3c
       -0.01887508 -0.019554231 -0.0002632656 0.011840417
0001a0 a7 93 5e 3c 6b 93 04 bb 8f d5 38 bb 80 5c 58 bc
       0.013585008 -0.002022947 -0.0028203463 -0.0132056475
0001b0 3a ad 10 3a a5 f5 86 bc 2f 54 ca bb 35 3a d8 3a
       0.0005518977 -0.016474554 -0.0061745862 0.0016496839
0001c0 3b d4 a2 3b ed ad cd ba 77 e2 9f bc 3a 3f ed 3b
       0.0049691475 -0.0015692093 -0.019517167 0.007240203
0001d0 56 16 4c bc 2b bd 04 3d f9 9a 30 bc 16 86 3a 3d
       -0.012456497 0.032406967 -0.010779136 0.04553803
0001e0 2b 85 2b bb 82 f2 e1 3c a0 45 c5 3a 00 00 00 00
       -0.0026171904 0.027581457 0.0015050657 0.0
0001f0 73 e1 62 3d 77 b3 42 3d 95 2b 29 bc ca 81 eb 3c
       0.055390786 0.047534432 -0.010325332 0.028748412

policy_model.0.weight f4 [128, 128]
000000 50 95 f9 3a 46 91 22 3b de 44 e9 ba d9 a7 c2 ba
       0.0019041691 0.0024805828 -0.0017797013 -0.0014851048
000010 2c 66 0f ba 29 0a 0c bb 96 4e 29 bb 71 90 a8 ba
       -0.0005470242 -0.002136836 -0.0025834194 -0.001286043
000020 ec 6a e7 ba f0 7b d8 3a 02 c1 97 ba b4 50 f2 ba
       -0.0017655767 0.0016516428 -0.0011577907 -0.0018487186
000030 18 59 0f bb 88 02 8b 39 70 91 28 bb e2 39 d6 ba
       -0.0021873172 0.00026514032 -0.0025721453 -0.0016344155
000040 75 70 3f bb b9 63 e0 39 76 4f 9c ba 4a 5e 65 bb
       -0.0029211317 0.00042798909 -0.0011925537 -0.0034998828
000050 6f 8f 41 3b 44 01 96 bb 95 3f 19 bb ae f4 e3 38
       0.0029534956 -0.0045777876 -0.0023383845 0.000108697786
000060 b8 a6 1e 38 b1 dc a7 ba 95 f6 9e ba 8b a7 bc ba
       3.7825404e-05 -0.001280686 -0.001212793 -0.0014393193
000070 ec e0 f1 ba 25 20 af 3a a6 58 ae bb 89 61 db b8
       -0.0018453873 0.001336102 -0.0053206263 -0.00010460901
000080 70 e4 d2 b8 b3 00 71 bb d5 f3 de 39 4f 02 8d bb
       -0.0001005613 -0.0036774098 0.0004252481 -0.0043032537
000090 38 be b9 b8 9c 86 70 ba cf b9 a6 bb 59 f2 3e bb
       -8.8569184e-05 -0.0009175332 -0.005088068 -0.002913615
0000a0 d3 40 56 b9 c3 43 82 ba d4 00 40 ba d2 b9 1d 3b
       -0.0002043278 -0.0009938407 -0.0007324342 0.0024067056
0000b0 fd 5b 3d 39 14 4c 9c 39 a9 37 d6 3a ec 06 68 ba
       0.00018058713 0.0002981132 0.0016343492 -0.0008851129
0000c0 c9 f1 30 ba 05 46 96 ba f1 37 f8 ba 24 ee 08 bb
       -0.0006749896 -0.0011464959 -0.001893757 -0.0020893896
0000d0 32 d7 9f ba 66 41 96 3a ce 8f f5 ba 7e 2f 37 3a
       -0.001219487 0.0011463582 -0.0018734874 0.0006987973
0000e0 c4 f8 30 ba fb 8e 60 bb 11 bf fa ba 30 7a 1c bb
       -0.0006750936 -0.003426491 -0.0019130429 -0.002387654
0000f0 48 11 ea ba f2 06 d8 ba 67 0c 40 ba 3a f1 4a ba
       -0.0017857933 -0.0016481562 -0.0007326067 -0.0007741634
000100 95 c9 8c 3a 4a 68 ef 3a 70 79 3a 3b 85 15 1e bb
       0.0010741228 0.0018265333 0.002845373 -0.0024121713
000110 f0 e7 87 38 59 82 ea bb 58 21 b6 bb 5b f5 bd ba
       6.480503e-05 -0.007156652 -0.005558174 -0.0014492677
000120 7b 71 f9 3a 47 da 76 3a 2f 40 28 bb 54 a9 a3 3a
       0.0019031012 0.0009416681 -0.0025673022 0.0012486377
000130 41 43 a7 b8 d3 7c fa b9 e7 e8 be 3a aa 29 e6 ba
       -7.9757076e-05 -0.00047776717 0.001456526 -0.0017560024
000140 24 08 70 3a ea f4 5d 39 92 df ee b9 7f 56 85 ba
       0.00091564865 0.0002116744 -0.0004556147 -0.0010172873
000150 43 a4 0e bb e7 89 0c 3b 78 fe 08 bc de 37 d0 bb
       -0.0021765388 0.00214445 -0.008361451 -0.006354316
000160 da 49 e4 ba 56 82 43 3b 92 88 dd ba 43 71 39 bb
       -0.0017417029 0.0029832325 -0.0016901663 -0.002829627
000170 9c fc c7 3a ae 1f 38 bb e1 e0 80 ba ce b4 5a 3a
       0.0015257779 -0.0028095054 -0.0009832644 0.0008342982
000180 22 24 83 ba dc ad b9 bb 7d 6f f5 3a 37 44 3b 39
       -0.0010005275 -0.0056664776 0.0018725243 0.00017859122
000190 99 20 5f 39 6a 03 ea ba 6e f8 24 ba 57 ed 20 39
       0.00021279081 -0.0017853801 -0.00062931224 0.00015347205
0001a0 46 4a b0 ba 5f 16 e7 ba 1c f7 b9 3a 4e 8c 1b bb
       -0.001344987 -0.0017630568 0.0014188024 -0.002373475
0001b0 93 da 02 3a c5 3a cd b9 1f 09 a3 3a 6a 95 34 bb
       0.00049916765 -0.00039144434 0.0012438631 -0.0027554878
0001c0 d2 ab 90 b9 a1 59 56 bb dd ad a8 39 21 ec 29 bb
       -0.00027593836 -0.0032707232 0.00032172995 -0.0025928097
0001d0 58 e8 f6 ba 41 9c e5 bb 8a 8a c4 ba 8b 64 97 bb
       -0.0018837554 -0.0070071523 -0.0014994901 -0.00462014
0001e0 06 63 0c bb d3 77 e1 bb 93 7b 82 37 a5 71 27 39
       -0.0021421327 -0.0068807392 1.5554751e-05 0.00015968697
0001f0 08 9e c6 bb 64 88 91 bb 76 77 35 b9 d0 c8 ec ba
       -0.0060613193 -0.004441308 -0.00017306008 -0.0018065218
000200 2b 90 4d bd 50 ce db bb 26 18 99 bb 15 de 39 bb
       -0.050186317 -0.006707944 -0.004672068 -0.002836113
000210 b6 da 3f 3d fd 3f 80 3a df fc 2b 3b 3b 38 c3 bb
       0.04683944 0.0009784695 0.0026243252 -0.005957631
000220 a1 ed 8b 3c 83 98 51 bc 1d 48 22 bc 2b 79 27 3d
       0.017081084 -0.012792709 -0.009904888 0.04088704
000230 cd c9 00 3d 42 7e e4 3c dc 5e 40 3d 26 01 d2 3b
       0.031442452 0.027892236 0.046965465 0.0064088283
000240 51 13 c9 3c 78 64 63 3c e3 cc 17 3a a4 ee 5f 3d
       0.024545344 0.013878934 0.00057907234 0.054670945
000250 bb fd 9f 3b 7c 7d 86 3d fe 85 03 bc 76 69 c1 3b
       0.004882542 0.06566903 -0.008027552 0.0059024645
000260 0b ee 65 3d 38 e2 7e 3c 23 8d 75 3c 83 70 16 3d
       0.05613522 0.015556864 0.014987263 0.036728393
000270 c9 c9 9f bb b0 8d 8c bc 8a d5 6f 3d f6 99 34 3d
       -0.0048763496 -0.017157406 0.058553256 0.04409214
000280 bc 89 7a bb 54 ad 25 3c b4 d3 7a bb 4c 10 7a 3d
       -0.0038229069 0.010112125 -0.0038273158 0.0610507
000290 c4 a4 9c bc 54 97 0c ba 3a 78 48 3d 80 4f 8c bb
       -0.019121535 -0.0005363126 0.048942782 -0.004281938
0002a0 0b 8e 2e bc 9c c0 85 3c 45 de 14 3d 89 06 0c bc
       -0.010653983 0.016327195 0.036344785 -0.00854648
0002b0 69 a4 43 3b bb ab 92 3c 28 cc 9c bc 4f e1 67 3d
       0.0029852635 0.017904153 -0.019140318 0.056611355
0002c0 a6 b2 f0 3b 19 17 65 ba c9 13 18 3c ce b4 8f 3c
       0.0073455153 -0.00087390986 0.009282061 0.01754227
0002d0 5b 6f 1c bb 82 07 b5 3c 78 4b 50 bb 79 7a a6 bb
       -0.0023870084 0.022098307 -0.0031783264 -0.005080518
0002e0 8a 44 12 39 0e 57 61 bc c6 2d 05 3c c0 71 36 3d
       0.00013949178 -0.013753666 0.008128589 0.044542074
0002f0 f5 fd 3f 3a 03 9c fb 3b de be d6 b9 a8 be 58 ba
       0.00073239143 0.00767851 -0.00040959468 -0.0008268156
000300 b1 01 51 bd bd 16 fe 3c 6e 89 42 3d 76 d2 28 bc
       -0.051027004 0.031016702 0.047494344 -0.010304084
000310 e8 84 84 3a fb ec 4a 3d 69 44 69 3d 75 a7 02 3d
       0.001011041 0.04954241 0.056950007 0.03189798
000320 5e 39 b2 3a 9b 75 9a bc 73 36 c0 bb c8 e5 48 3d
       0.0013597419 -0.018854907 -0.005865866 0.04904726
000330 f1 35 9e 3a 86 df 8a 3d f0 de a1 bc d3 1d d6 3b
       0.0012070519 0.06780915 -0.019759625 0.006534317
000340 b6 19 f6 3c 5b 33 02 bd 9e b4 76 bc e8 e2 b7 bb
       0.030041557 -0.031787258 -0.015057711 -0.005611766
000350 ec 28 b8 3b 77 1c 7e bb 9c a3 39 3d c6 0c 1a 3d
       0.0056201126 -0.003877429 0.045322046 0.037609838
000360 fa bd 58 bc df ad 0d bb 51 a3 ff 3c a6 d2 2a 3c
       -0.013228888 -0.0021618528 0.031205805 0.010426199
000370 fc 63 99 3c 6f 39 4f bc 48 e4 94 3c c4 d8 a0 bc
       0.018724434 -0.012647971 0.01817526 -0.019634612
000380 c9 b6 d1 3c 50 fe 61 3d 5c dc 26 bb eb 6e f7 bc
       0.025599854 0.055174172 -0.0025460934 -0.030204257
000390 12 2f 1d bc 83 6f 40 3c e2 84 1d 3d 2d 6d 6d 3d
       -0.009593742 0.011745336 0.038456805 0.057965446
0003a0 79 ed 9f 39 b3 6b 4b 3d 52 9a 18 3d f8 f1 79 3c
       0.00030503774 0.049663257 0.037256546 0.015255444
0003b0 7a 87 a7 bc f5 4d 56 bb b5 52 24 bc 0e 8a 03 bc
       -0.020450342 -0.0032700275 -0.0100294845 -0.00802852
0003c0 1d 6e 58 3d 71 87 0c 3c 7e fa 4a ba 30 e8 45 3c
       0.052839387 0.008577214 -0.0007743015 0.012079284
0003d0 4c 48 16 bc e9 68 69 3d 4f bd 64 3c 10 ed 13 3d
       -0.00917251 0.056984816 0.01396115 0.036114752
0003e0 99 33 db ba ac 4c 66 3d 36 60 18 3c 72 25 3f ba
       -0.0016723751 0.056225464 0.009300282 -0.00072916516
0003f0 d6 6b 41 3d ef f3 5a 3d 73 95 3c bc 20 21 89 3d
       0.04722198 0.05345529 -0.011510241 0.06695771

policy_model.0.bias f4 [128]
000000 c7 a6 95 ba 57 2f 51 3d 73 61 c4 ba de 70 3d 39
       -0.0011417501 0.051070537 -0.0014982655 0.00018066491
000010 38 ad b5 37 c4 61 1c b9 17 99 9b 3b 71 96 df b8
       2.1657543e-05 -0.0001491374 0.0047484743 -0.000106614905
000020 74 db d2 3a 56 8b c4 ba c5 bc c4 ba 2d 71 a3 bb
       0.0016087131 -0.0014995139 -0.0015009871 -0.004987857
000030 39 fc 9a bb d7 30 66 3c a1 9e 04 3b a8 60 b4 39
       -0.0047297743 0.01404973 0.0020236152 0.0003440429
000040 ae ea e2 3b 6e 88 b8 bb f3 20 c4 ba 3b 16 bf ba
       0.0069249487 -0.005631498 -0.0014963433 -0.0014578769
000050 64 e6 e1 ba 64 18 1d 3b 29 23 f9 3b 2d d1 c7 b9
       -0.00172348 0.0023970837 0.0076030684 -0.00038112086
000060 63 c7 3f bb ee b8 c4 ba 0b 39 1d bb ac 6c 1c bb
       -0.002926313 -0.0015008727 -0.00239903 -0.0023868484
000070 98 2d 88 3b 15 67 c4 ba f0 79 f3 3a 09 38 d0 bb
       0.004155826 -0.0014984334 0.0018575769 -0.006354336
000080 de 6a 08 bb cf b2 9b 3a 15 b0 c4 ba 4f 80 5a 3b
       -0.002081565 0.0011878851 -0.001500609 0.0033340638
000090 46 e1 5e ba e1 2d 9d ba de ce c1 bb cd c2 c2 bb
       -0.0008502196 -0.0011991822 -0.005914553 -0.005943632
0000a0 50 2b 20 3d 87 9f 73 bb 88 0b cc 3b 9f 86 c4 ba
       0.039103806 -0.0037173943 0.0062269606 -0.0014993733
0000b0 92 1f a8 ba cd cc 9f 39 cc 95 7c bb b7 89 1b 3b
       -0.0012826791 0.00030479432 -0.0038541434 0.0023733207
0000c0 bd c9 86 3a f5 99 26 3b 3a 16 a3 ba eb c0 b3 ba
       0.0010283511 0.0025421355 -0.0012442537 -0.001371411
0000d0 1d 50 76 bb 51 ec 83 3b a3 4e e2 ba 00 00 00 00
       -0.0037584372 0.004025974 -0.0017265867 0.0
0000e0 00 00 00 00 fc 61 09 bb 62 9a c0 bb 18 36 a7 ba
       0.0 -0.0020962944 -0.005877779 -0.001275721
0000f0 1d c8 5d bb d6 2d c3 ba 28 38 c4 ba 21 b0 78 3b
       -0.00338412 -0.001489098 -0.0014970349 0.0037946778
000100 7b 42 b0 3b 69 b4 c4 ba bb f0 e5 ba 90 65 14 bb
       0.005379019 -0.001500738 -0.0017543057 -0.0022643544
000110 f8 cf 28 ba fd 31 8c bb 37 8a e3 39 f7 75 eb 3a
       -0.0006439681 -0.00427842 0.00043399792 0.0017964233
000120 fd 62 83 ba 76 ae a9 bb 25 48 55 3b 52 75 76 bb
       -0.0010024008 -0.005178268 0.0032544222 -0.003760655
000130 0c 4a c4 ba 3e c3 23 bb 95 09 39 bb 1d 9e c4 ba
       -0.0014975681 -0.00249882 -0.002823447 -0.0015000735
000140 a2 e6 21 bb 1d 07 7f bb 1d bf aa bb 14 b0 0b ba
       -0.0024704118 -0.0038914152 -0.0052107708 -0.0005328667
000150 a1 c9 ab 3b 12 74 98 ba 7c 9c 5b ba 55 05 9c 3d
       0.005242542 -0.0011631271 -0.0008377505 0.076182045
000160 f6 44 aa ba 51 d0 96 bb 84 56 c4 ba e1 06 6b bb
       -0.0012990523 -0.00460247 -0.0014979397 -0.0035862254
000170 72 ef a1 b9 41 63 f4 3a 58 cf fb ba 0f db 99 3a
       -0.00030886714 0.0018645303 -0.0019211574 0.0011738258
000180 63 13 94 bb 64 8c c4 ba 5b c2 58 bb 7e f6 41 bb
       -0.0045189126 -0.0014995453 -0.003307483 -0.0029596384
000190 e6 65 1e 3b 16 b9 26 ba f6 6c 42 bb ab 4e a7 bb
       0.0024169623 -0.00063599774 -0.0029666997 -0.0051058135
0001a0 e9 0f d1 bb 24 24 be 3b 88 96 50 3c c8 fb 51 ba
       -0.0063800705 0.005802648 0.012731202 -0.00080102356
0001b0 b9 80 a7 ba cf 94 c4 ba 24 68 ee 3a d0 f6 95 39
       -0.0012779451 -0.0014997962 0.0018188995 0.00028603384
0001c0 c6 c9 17 3b 86 59 e7 b8 3d 57 34 ba 58 f6 d8 ba
       0.0023161038 -0.000110316134 -0.00068794546 -0.0016552908
0001d0 5d be d9 ba 47 18 6e bb 66 81 a0 ba c1 98 c2 ba
       -0.0016612519 -0.0036330388 -0.0012245595 -0.001484655
0001e0 1b d3 1a bb 88 e6 d9 3b ce d0 a8 ba be 53 2a 3b
       -0.0023624364 0.006649796 -0.0012879611 0.0025989856
0001f0 e2 ef 6a bb 43 68 6b bb 70 9c c8 3b e6 bc 48 bb
       -0.0035848548 -0.00359203 0.0061221644 -0.003063017
