results/short_race/second_iteration_training/model832.pt (torch, 276107 bytes, 13 tensors)

features_model.0.weight f4 [128, 4]
0.007010916 0.21251957 0.07688764 -0.3154191 0.03333527 -0.07640134 -1.4403193e-05 0.02868062
0.15276416 0.026320355 -0.033621956 0.29532334 0.18778464 -0.10138001 -0.05661816 -0.10264502
0.038547907 0.008720465 0.049157396 -0.029873315 0.04041011 0.06271462 0.2397719 -0.19623002
-0.006949201 -0.024149891 0.10648264 0.32615086 0.003400277 -0.008184652 0.072948165 0.31963924
-0.18559296 0.1582123 0.12383354 0.0047795987 0.0065994435 0.22707476 0.055946212 -0.36398458
0.056665204 0.25657508 0.18569937 0.1662456 0.1601303 -0.11894904 0.17251255 0.054277577
0.12787464 0.3428548 0.034908555 -0.082391724 -0.16169311 -0.039769925 -0.1487276 0.016588101
-0.054912165 0.33897996 -0.034220524 0.13798587 -0.20677517 -0.016999597 -0.29714313 0.063329116
0.120564215 -0.017224763 0.02581657 -0.12491331 -0.04979688 -0.2440924 -0.123683445 -0.054526735
-0.13208133 0.056874573 -0.08167005 -0.111967996 -0.072220914 -0.13934761 -0.25819823 -0.19867508
0.082731515 -0.07960094 -0.12300628 0.05035018 -0.23632574 -0.17368345 0.18793075 -0.06339516
0.049877245 0.22682023 -0.07975407 -0.026174229 -0.22618969 -0.08889669 -0.10752787 0.07276163
0.028483488 0.17069548 0.1415473 -0.31398943 -0.37595552 -0.2113496 0.07575894 -0.08744635
0.23376752 0.37477595 -0.02480891 0.1879469 -0.08593793 -0.07964475 -0.105167955 -0.023558723
0.0054256027 -0.015854307 -0.07162057 0.40990326 0.0925599 0.1024628 -0.114243306 -0.06361771
0.16592556 0.13024649 0.17414488 0.12073759 0.10007861 0.07259793 0.114409894 0.23438755
0.20445715 -0.28756186 0.059748065 0.10642623 0.18267499 -0.012051233 0.13225316 -0.015624735
0.012852526 0.037572812 0.23841587 0.2981076 0.09291949 -0.14137329 0.003165027 -0.18538333
-0.0786873 -0.10845172 0.100462586 -0.014549819 -0.070723735 -0.095867656 -0.0021142147 0.08799754
-0.14768577 0.038635183 0.074157275 0.22633171 0.03168124 0.015652625 0.13622056 0.3930414
0.000461962 -0.013623702 -0.07161272 0.34648606 -0.03506823 -0.07239988 0.025225786 -0.23673807
0.07250123 -0.05198005 -0.02691134 -0.11860461 -0.122307345 0.17081553 0.13364531 0.01418871
0.029598458 0.2985976 0.04749804 -0.028390221 -0.03890194 -0.08312527 -0.07106499 0.14442252
0.095497325 0.010364396 0.39359355 -0.0995684 -0.0071249963 0.025588272 0.123722695 0.03087728
-0.20805657 -0.00029018972 -0.14687692 0.011392267 0.23586689 -0.12645671 0.05428629 0.13061713
-0.20452867 -0.080792055 0.025637759 0.087729774 -0.29895744 0.19077809 0.1871312 0.02240603
0.1926983 0.36035204 -0.061479665 -0.039661482 0.2195739 -0.061225347 -0.03417396 -0.032033917
0.04456612 0.009866678 0.10989583 0.05127086 0.12034666 -0.006497878 0.2014742 0.42036253
0.13451482 0.047384072 0.007620314 -0.095128186 -0.00054774794 0.19916663 0.13394417 0.007890157
-0.072421394 0.020049755 -0.058465533 0.030194314 0.1195032 0.07897684 0.14649823 0.30461097
-0.019401707 0.042604845 0.019183371 0.24513447 0.011036407 -0.017863179 -0.13954066 0.2989167
-0.007739514 0.13577446 0.06322689 -0.33270293 -0.20328067 0.24831003 -0.031084288 -0.15772139
00000000: d3bb e53b bb9e 593e 4477 9d3d 9d7e a1be
00000010: 908a 083d 4e78 9cbd 3ea5 71b7 9ff3 ea3c
00000020: 356e 1c3e c99d d73c 2db7 09bd 9f34 973e
00000030: 9e4a 403e 53a0 cfbd 72e8 67bd 8d37 d2bd
00000040: 69e4 1d3d 48e0 0e3c 4459 493d e2b8 f4bc
00000050: 1285 253d 8670 803d c486 753e 86f0 48be
00000060: 20b6 e3bb fed5 c5bc 9213 da3d 3ffd a63e
00000070: 2fd7 5e3b eb18 06bc d965 953d c1a7 a33e
00000080: 150c 3ebe 6802 223e 709c fd3d 2e9e 9c3b
00000090: 2540 d83b 4986 683e db27 653d 305c babe
000000a0: c619 683d cf5d 833e fa27 3e3e 493c 2a3e
000000b0: 33f9 233e 8e9b f3bd 21a7 303e 2a52 5e3d
000000c0: 92f1 023e aa8a af3e 46fc 0e3d febc a8bd
000000d0: e192 25be cae5 22bd 0c4c 18be c5e3 873c
000000e0: 94eb 60bd c88e ad3e d22a 0cbd 2b4c 0d3e
000000f0: dfbc 53be bd42 8bbc 2523 98be b2b2 813d
00000100: 5fea f63d f21a 8dbc 457d d33c 8dd2 ffbd
00000110: d0f7 4bbd 5cf3 79be bf4d fdbd 6d57 5fbd
00000120: 5440 07be 50f5 683d a142 a7bd 7a4f e5bd
00000130: 8fe8 93bd 24b1 0ebe 8f32 84be 7b71 4bbe
00000140: 246f a93d d105 a3bd b7ea fbbd fe3b 4e3d
00000150: 60ff 71be 13da 31be eb70 403e 52d5 81bd
00000160: 154c 4c3d 9043 683e 1a56 a3bd 566b d6bc
00000170: 459e 67be 780f b6bd 9237 dcbd 0d04 953d
00000180: 3456 e93c ccca 2e3e c7f1 103e 39c3 a0be
00000190: 3e7d c0be 086c 58be 8127 9b3d 1217 b3bd
000001a0: c160 6f3e a2e2 bf3e 0e3c cbbc 2775 403e
000001b0: 3a00 b0bd c91c a3bd 4c62 d7bd 39fe c0bc
000001c0: 41c9 b13b e4e0 81bc cead 92bd d7de d13e
000001d0: 0b90 bd3d 04d8 d13d 65f8 e9bd 004a 82bd
000001e0: 64e8 293e 565f 053e 0953 323e 4545 f73d
000001f0: 04f6 cc3d 39ae 943d bc4f ea3d 4a03 703e
00000200: 375d 513e 4f3b 93be 63ba 743d fff5 d93d
00000210: 270f 3b3e 8972 45bc 5f6d 073e e3fe 7fbc
00000220: 6793 523c f3e5 193d 4a23 743e 8fa1 983e
00000230: 934c be3d 29c4 10be 576c 4f3b 21d5 3dbe
00000240: cf26 a1bd ef1b debd 54bf cd3d 5d62 6ebc
00000250: 9bd7 90bd 4356 c4bd a38e 0abb 0e38 b43d
00000260: f03a 17be ed3f 1e3d c5df 973d 80c3 673e
00000270: 30c4 013d ef39 803c 677d 0b3e b93c c93e
00000280: 7d33 f239 f335 5fbc b1a9 92bd 9f66 b13e
00000290: b4a3 0fbd 6346 94bd 4fa6 ce3c 776b 72be
000002a0: 867b 943d 08e9 54bd 2c75 dcbc f9e6 f2bd
000002b0: 467c fabd 44ea 2e3e 51da 083e c377 683c
000002c0: 7778 f23c c9e1 983e 4e8d 423d 9c92 e8bc
000002d0: a457 1fbd 953d aabd 858a 91bd 7fe3 133e
000002e0: 1a94 c33d 6dcf 293c 1885 c93e 84ea cbbd
000002f0: cd78 e9bb 7f9e d13c 5362 fd3d 59f2 fc3c
00000300: c80c 55be 9b24 98b9 e766 16be a2a6 3a3c
00000310: 1787 713e de7d 01be 4d5b 5e3d 7fc0 053e
00000320: f76f 51be 4e76 a5bd 4706 d23c abab b33d
00000330: f310 99be 555b 433e 529f 3f3e da8c b73c
00000340: b452 453e 1080 b83e 1ad2 7bbd 1474 22bd
00000350: fbd7 603e 6ec7 7abd fff9 0bbd ff35 03bd
00000360: f78a 363d d9a7 213c 1111 e13d 6501 523d
00000370: 4f78 f63d 27ec d4bb 414f 4e3e c239 d73e
00000380: 41be 093e cd15 423d d4b3 f93b 91d2 c2bd
00000390: be96 0fba 56f2 4b3e a928 093e b845 013c
000003a0: ab51 94bd 623f a43c 8e79 6fbd 115a f73c
000003b0: 18be f43d 9cbe a13d a203 163e f8f5 9b3e
000003c0: 54f0 9ebc 6b82 2e3d 7226 9d3c 8804 7b3e
000003d0: 0cd2 343c cd55 92bc bfe3 0ebe 9c0b 993e
000003e0: c09b fdbb 7608 0b3e 1a7d 813d 0a58 aabe
000003f0: cf28 50be fc44 7e3e 7aa4 febc b781 21be

features_model.0.bias f4 [128]
0.20007713 0.004186159 0.13927661 -0.03353766 0.21294506 0.12879005 0.17157915 0.18814568
0.16198492 0.20732407 0.24779151 -0.013963293 0.16452897 -0.043414943 0.1553803 0.14989051
0.09391215 -0.02610649 -0.060561355 -0.009147685 0.04316272 -0.11178111 0.18223977 -0.010722068
0.22303076 -0.04459861 0.084824905 0.015958166 0.20500274 0.17981105 0.17016141 0.21411008
-0.0060156994 0.09242038 0.21228702 0.033206902 0.073073 -0.028505402 0.20605214 0.18918863
0.22559209 0.02800954 0.11271379 0.14303924 0.18944582 -0.020191127 0.082108766 0.17546102
-0.029317528 0.053718105 -0.05850017 0.16009995 0.14243378 0.0806936 0.20575957 0.10882648
0.14134665 0.16361108 -0.014620882 0.2176979 0.20759727 -0.041441206 0.2108812 0.19504032
0.17620024 0.257681 0.16846046 0.21885464 0.19259664 0.16322428 -0.06971241 -0.075469024
-0.011322147 0.12622271 0.18363737 -0.054594412 -0.013221125 0.091405556 0.21385607 0.03691196
0.13681448 -0.016557876 0.1779138 0.14347172 -0.020571679 0.034529436 0.2596513 0.124404505
0.13698117 -0.01724661 -0.020682873 0.06557239 -0.010298152 0.023191597 0.04885732 0.16709204
-0.04547987 -0.023965249 0.059217293 0.17161345 -0.026485471 0.21608332 0.2668475 0.19534841
0.18222414 0.21827033 0.20271622 0.20903607 -0.0142299635 -0.029009463 0.19350596 0.18329072
-0.04587092 0.086348735 0.1214262 0.22537296 0.23189244 -0.003099152 0.1988529 -0.033455644
-0.057403833 0.28510222 0.0997761 0.079734474 0.22170727 0.16824979 0.22653072 -0.009268954
00000000: 05e1 4c3e 0c2c 893b 879e 0e3e c95e 09bd
00000010: 450e 5a3e 8ae1 033e 72b2 2f3e 43a9 403e
00000020: 60df 253e c34c 543e 0fbd 7d3e 4cc6 64bc
00000030: 487a 283e ded3 31bd 031c 1f3e e67c 193e
00000040: 0355 c03d 47dd d5bc 2f0f 78bd 2ce0 15bc
00000050: 64cb 303d 7fed e4bd 109d 3a3e 9dab 2fbc
00000060: 2d62 643e 08ad 36bd aeb8 ad3d b3ba 823c
00000070: 3dec 513e 6320 383e cb3e 2e3e ac3f 5b3e
00000080: 581f c5bb e546 bd3d c561 593e f603 083d
00000090: 4ca7 953d 2984 e9bc 55ff 523e aaba 413e
000000a0: 9d01 673e 4374 e53c 7dd6 e63d e178 123e
000000b0: 16fe 413e dd67 a5bc a428 a83d 0eac 333e
000000c0: 502b f0bc 8407 5c3d e09d 6fbd 3ef1 233e
000000d0: 29da 113e b042 a53d a3b2 523e 6be0 de3d
000000e0: 2dbd 103e aa89 273e 6d8c 6fbc 33ec 5e3e
000000f0: 6194 543e 41be 29bd 3ef1 573e a6b8 473e
00000100: d66d 343e c4ee 833e e680 2c3e 6e1b 603e
00000110: 0e38 453e 4424 273e 61c5 8ebd 818f 9abd
00000120: 8780 39bc 8740 013e 6f0b 3c3e 649e 5fbd
00000130: 6b9d 58bc d632 bb3d 16fd 5a3e ff30 173d
00000140: 1819 0c3e 62a4 87bc 092f 363e 40ea 123e
00000150: f085 a8bc bd6e 0d3d 04f1 843e cac7 fe3d
00000160: cb44 0c3e c348 8dbc 216f a9bc d14a 863d
00000170: 95b9 28bc 4efc bd3c 9d1e 483d 2d1a 2b3e
00000180: 1a49 3abd c552 c4bc d58d 723d 70bb 2f3e
00000190: 0ff8 d8bc f244 5d3e 3ca0 883e 6a09 483e
000001a0: f798 3a3e 4282 5f3e d794 4f3e 8d0d 563e
000001b0: cb24 69bc 41a5 edbc 6d26 463e 90b0 3b3e
000001c0: 25e3 3bbd 9bd7 b03d 4dae f83d 2bc8 663e
000001d0: 3675 6d3e 241b 4bbb 18a0 4b3e c908 09bd
000001e0: 4820 6bbd ebf8 913e 6957 cc3d d44b a33d
000001f0: 3b07 633e ac49 2c3e abf7 673e d0dc 17bc

features_model.2.weight f4 [128, 128]
0.39242116 -0.066511974 -0.0097404225 0.08708926 0.23387486 0.13811284 0.11011547 0.06469441
0.20773157 0.22802581 0.1868921 -0.014559596 0.057303898 0.029779654 0.07901832 0.14857624
-0.13677749 0.071057186 -0.05470964 -0.1244426 0.09542761 0.034934256 0.15795138 -0.05279183
0.22323787 -0.13782421 0.001319725 0.26252857 0.19716766 -0.02057083 0.06504655 0.15890001
0.1866458 -0.013549322 0.15515484 -0.015486099 -0.10306614 -0.2182187 0.066063195 0.16193227
0.36484236 -0.034712307 0.17997237 0.29671195 0.30275878 0.16048019 -0.035811737 0.10726008
0.16786769 0.292906 0.16102202 0.39599106 -0.046731617 -0.04527959 0.007959499 -0.1612227
-0.034527954 0.09430269 -0.058763556 0.18787088 0.3450077 0.33462134 0.26799285 0.0045154653
0.4234452 0.29601583 0.1271599 0.17073388 0.06486878 0.27697462 0.10382842 -0.23510827
-0.21835549 0.04796464 0.021978434 -0.05236974 -0.031031165 0.05762368 0.14546306 -0.31819087
0.12265079 0.04755686 -0.020889135 0.16939959 0.24040635 0.19449405 -0.008955873 -0.062260177
0.07284654 0.05518055 -0.23753838 -0.09330472 0.1722153 -0.0540308 -0.040965553 -0.061386857
-0.024081802 0.10531066 0.21420935 0.02160429 0.0977551 0.18073298 0.19319531 0.48418108
0.36777794 0.12815545 0.0047117933 0.09202572 -0.12166035 0.16130239 0.15205404 0.3126284
-0.10269064 -0.17345028 -0.045260835 0.21670154 0.22520757 -0.13416259 0.16494392 -0.1615511
-0.0772275 0.2877472 -0.07619635 0.05912477 0.16904847 0.23185347 0.30338115 -0.08647259
0.05194859 0.077146664 0.08482567 -0.0028068526 -0.04346257 0.089636765 0.17997535 -0.075492114
0.25313428 -0.15801284 -0.059510518 0.0999709 0.024126973 0.028569022 0.3068356 -0.009746904
-0.032731418 0.03780857 0.05543794 -0.09134466 -0.027791362 -0.15511414 -0.07026446 0.09875758
-0.03552611 -0.09537549 -0.15848003 -0.024059441 0.35633138 -0.15702343 -0.34242946 -0.06057819
0.05429721 0.00923622 -0.058218487 -0.06386533 0.07379931 0.009126525 0.3018139 0.04650338
0.206696 -0.19725707 0.012151776 0.2615583 0.1806942 -0.039416395 0.03992942 0.31344742
-0.13892485 0.030561848 0.042832382 0.08438218 0.04021127 0.08055094 0.04108473 0.10046957
0.019067608 0.24426857 -0.09152128 0.07478169 0.37470037 -0.015880667 -0.17271645 0.48412699
0.23336616 0.20363668 0.120358326 0.07872235 0.081293754 0.40924975 -0.25895384 -0.03640827
0.07887573 0.24088311 -0.1350019 0.13280101 0.0019062541 -0.020251032 0.0618104 0.10829375
0.051735274 0.1267772 0.071470775 0.3607105 0.07385485 0.0030950205 -0.12072321 0.049336955
0.23876204 -0.002370341 -0.031926263 0.0021987457 0.03631151 0.030567275 0.13949953 -0.1293593
0.01757631 -0.09703766 0.1736419 0.0154842995 0.04388262 -0.011174498 -0.31360212 0.17669457
0.065707415 0.03392518 -0.114963785 0.3721416 -0.1027679 -0.023437738 0.12753119 0.21653338
-0.06127115 -0.20777896 0.05936749 0.041396514 0.25897774 0.113982275 0.31093225 -0.097150795
-0.020111192 0.27774647 0.19984864 0.005172553 0.0062657977 -0.14534757 0.088762924 0.079698496
00000000: 6deb c83e 6e37 88bd 4b96 1fbc db5b b23d
00000010: e47c 6f3e 746d 0d3e 3884 e13d 817e 843d
00000020: 96b7 543e 997f 693e a560 3f3e 5f8b 6ebc
00000030: 7eb7 6a3d 76f4 f33c 5bd4 a13d 5f24 183e
00000040: 660f 0cbe 6e86 913d 3717 60bd c3db febd
00000050: 8d6f c33d 3917 0f3d 02be 213e 3f3c 58bd
00000060: 7898 643e ca21 0dbe 9ffa ac3a 256a 863e
00000070: 52e6 493e 2884 a8bc 2037 853d afb6 223e
00000080: 1420 3f3e fafd 5dbc e9e0 1e3e 68b9 7dbc
00000090: 5714 d3bd b974 5fbe 244c 873d 93d1 253e
000000a0: 9ecc ba3e 7e2e 0ebd ad4a 383e a1ea 973e
000000b0: 3303 9b3e eb54 243e 54af 12bd 2cab db3d
000000c0: 82e5 2b3e c6f7 953e f5e2 243e 57bf ca3e
000000d0: a769 3fbd 1777 39bd 8f68 023c 9017 25be
000000e0: 2f6d 0dbd c521 c13d 0eb2 70bd 3961 403e
000000f0: d9a4 b03e 7d53 ab3e 5c36 893e 78f6 933b
00000100: cfcd d83e 638f 973e 3436 023e ddd4 2e3e
00000110: ecd9 843d 9ecf 8d3e ffa3 d43d 39c0 70be
00000120: 9598 5fbe 9276 443d 1e0c b43c a781 56bd
00000130: 1235 febc cf06 6c3d 45f4 143e eae9 a2be
00000140: 5630 fb3d fbca 423d b11f abbc 1677 2d3e
00000150: 152d 763e 7329 473e a7bb 12bc 8704 7fbd
00000160: 9130 953d 0005 623d 433d 73be 8c16 bfbd
00000170: 3559 303e 664f 5dbd 7fcb 27bd c970 7bbd
00000180: 3347 c5bc 1ead d73d b259 5b3e 7bfb b03c
00000190: d333 c83d 1112 393e fed4 453e 95e6 f73e
000001a0: 644d bc3e 2f3b 033e 6365 9a3b fb77 bc3d
000001b0: 1029 f9bd 742c 253e 0eb4 1b3e d410 a03e
000001c0: 784f d2bd f39c 31be 6d63 39bd 02e7 5d3e
000001d0: d09c 663e eb61 09be 0fe7 283e a76d 25be
000001e0: 7429 9ebd 9a53 933e d50c 9cbd d12c 723d
000001f0: 0b1b 2d3e ff6a 6d3e c654 9b3e 8b18 b1bd
00000200: 0bc8 543d 12ff 9d3d 15b9 ad3d 2cf3 37bb
00000210: cf05 32bd 7b93 b73d 754b 383e 9c9b 9abd
00000220: d19a 813e 1ece 21be 4dc1 73bd 8bbd cc3d
00000230: eea5 c53c 9509 ea3c 8e19 9d3e 7ab1 1fbc
00000240: 6111 06bd 29dd 1a3d e512 633d e912 bbbd
00000250: b6aa e3bc 3ed6 1ebe d0e6 8fbd 6a41 ca3d
00000260: d483 11bd 3a54 c3bd 9748 22be 4e18 c5bc
00000270: 1171 b63e c0ca 20be ea52 afbe d620 78bd
00000280: c066 5e3d 8453 173c 8276 6ebd d3cb 82bd
00000290: 1824 973d 6c87 153c 5a87 9a3e 547a 3e3d
000002a0: 1ea8 533e c2fd 49be 3e18 473c f8ea 853e
000002b0: e607 393e 1673 21bd 088d 233d 2e7c a03e
000002c0: 5142 0ebe d75c fa3c 0271 2f3d 90d0 ac3d
000002d0: 93b4 243d e4f7 a43d 7648 283d fdc2 cd3d
000002e0: ac33 9c3c 8a21 7a3e 826f bbbd 2527 993d
000002f0: bad8 bf3e 2c18 82bc 95dc 30be 7edf f73e
00000300: 8af7 6e3e 2286 503e 6d7e f63d 2f39 a13d
00000310: 577d a63d 2f89 d13e 9995 84be d720 15bd
00000320: 9989 a13d 10aa 763e f03d 0abe fdfc 073e
00000330: 46db f93a 7ee5 a5bc e72c 7d3d 1dc9 dd3d
00000340: 5ee8 533d e2d1 013e 455f 923d 0caf b83e
00000350: 3641 973d d4d5 4a3b bb3d f7bd 8c15 4a3d
00000360: 097e 743e b957 1bbb 1dc5 02bd d518 103b
00000370: 61bb 143d 3968 fa3c f7d8 0e3e c476 04be
00000380: 32fc 8f3c aebb c6bd 2fcf 313e dcb1 7d3c
00000390: 43be 333d 3e15 37bc 7590 a0be 6cef 343e
000003a0: 9c91 863d 21f5 0a3d 2272 ebbd 5889 be3e
000003b0: fa77 d2bd 8000 c0bc 8997 023e edba 5d3e
000003c0: 75f7 7abd 02c4 54be 532b 733d 648f 293d
000003d0: bb98 843e 8a6f e93d 8332 9f3e fff6 c6bd
000003e0: 3ac0 a4bc c934 8e3e 1fa5 4c3e 857e a93b
000003f0: 5251 cd3b fed5 14be 56c9 b53d f738 a33d

features_model.2.bias f4 [128]
0.14595136 0.080090955 0.006346031 -0.060796514 0.09480794 0.18906584 -0.018632801 0.0
0.13326803 0.17080623 -0.028463138 0.13462032 -0.015534511 -0.022822576 -0.006570116 0.21163751
-0.005014899 0.05973788 -0.024908723 0.14657266 -0.0059610973 0.1756532 -0.018485287 -0.04567272
0.21134017 0.14916778 0.0002526843 -0.011325365 -0.0069903196 -0.001188848 -0.02859474 0.1641662
0.118729495 0.13809447 0.20664436 0.1114553 -0.03355466 0.11976268 0.16045292 -0.0031453215
0.18592916 0.12592177 -0.035849623 -0.0067499517 0.09621518 -0.024140537 0.01357202 -0.012531319
-0.026643805 0.10337414 -0.013946565 -0.013292946 -0.019279141 0.10172948 -0.01137785 0.17367816
0.10784313 0.0024307792 0.083712496 -0.02501318 -0.024407595 0.03257465 -0.0032739681 0.00010303832
-0.010159974 -0.038024653 -0.0066311667 0.17697619 0.16338922 0.117999 0.024159992 -0.0051073236
-0.027187826 -0.025696225 0.14255996 0.14742686 0.14515829 0.0031267875 0.14459595 -0.019181393
0.0 0.01735438 -0.024521898 0.13736348 -0.014567612 0.1428613 -0.011268332 0.22528002
0.11347854 -0.0028522913 -0.0055962065 0.027673295 0.14071815 -0.03335046 -0.01947427 0.14000629
-0.010664034 -0.01894887 0.053039066 0.216996 -0.04572743 -0.037366774 0.0 -0.009246035
0.1372255 -0.0077622714 0.16540714 -0.052257583 -0.0005548816 -0.027246376 0.12103603 -0.04722895
-0.025870783 -0.0118758725 0.12755935 0.24221574 0.16849478 0.16191524 -0.01321505 -0.04618156
0.00743841 -0.017050402 -0.014825519 0.07335009 -0.012900335 0.045999546 0.0 -0.0118540535
00000000: 4674 153e ba06 a43d 5ef2 cf3b c405 79bd
00000010: aa2a c23d 7a9a 413e d1a3 98bc 0000 0000
00000020: 6a77 083e d4e7 2e3e 872b e9bc e9d9 093e
00000030: 7684 7ebc 69f6 babc 214a d7bb 81b7 583e
00000040: 0654 a4bb b5af 743d 610d ccbc 2517 163e
00000050: 4f55 c3bb 6fde 333e 756e 97bc 5113 3bbd
00000060: 8f69 583e 70bf 183e b67a 8439 068e 39bc
00000070: 0d0f e5bb 1fd3 9bba 843f eabc 2f1b 283e
00000080: 7328 f33d a368 0d3e 949a 533e ad42 e43d
00000090: 9c70 09bd 2346 f53d c54d 243e bd21 4ebb
000000a0: 3764 3e3e a3f1 003e 0ed7 12bd b32e ddbb
000000b0: 770c c53d 60c2 c5bc 2e5d 5e3c 2950 4dbc
000000c0: 1c44 dabc d2b5 d33d 2280 64bc a8ca 59bc
000000d0: 4aef 9dbc 8c57 d03d 296a 3abc b0d8 313e
000000e0: dcdc dc3d b54d 1f3b 7571 ab3d 71e8 ccbc
000000f0: 70f2 c7bc ff6c 053d 1290 56bb 4716 d838
00000100: 0576 26bc bdbf 1bbd 424a d9bb 3f39 353e
00000110: 814f 273e 76a9 f13d 2deb c53c 565b a7bb
00000120: 01b9 debc e480 d2bc 3dfb 113e 11f7 163e
00000130: 60a4 143e caea 4c3b f610 143e 4c22 9dbc
00000140: 0000 0000 c62a 8e3c 26e2 c8bc 03a9 0c3e
00000150: feac 6ebc 3c4a 123e cf9e 38bc ceaf 663e
00000160: 7067 e83d 82ed 3abb 6260 b7bb 1bb3 e23c
00000170: 6b18 103e 7e9a 08bd 8188 9fbc cf5d 0f3e
00000180: 33b8 2ebc a93a 9bbc 7e3f 593d 3334 5e3e
00000190: b04c 3bbd e70d 19bd 0000 0000 ae7c 17bc
000001a0: d784 0c3e a75a febb 7d60 293e 0c0c 56bd
000001b0: 7975 11ba cb33 dfbc bde1 f73d 2573 41bd
000001c0: f7ee d3bc 0593 42bc eb9e 023e 6707 783e
000001d0: e589 2c3e 1ccd 253e f083 58bc e028 3dbd
000001e0: e8bd f33b 49ad 8bbc bce6 72bc 9238 963d
000001f0: ed5b 53bc 056a 3c3d 0000 0000 8137 42bc

features_model.4.weight f4 [128, 128]
0.1279101 -0.0001869322 0.05848755 -0.059247475 -0.01863177 -0.2212898 -0.25662068 0.0044812425
-0.07617045 0.014766951 -0.06015811 -0.16897526 -0.051794644 -0.050728817 -0.010388272 -0.041030005
0.13969985 0.09640793 -0.22357212 0.06232106 0.05610383 -0.28726673 -0.15004617 0.08769938
-0.10118565 0.07372266 0.36981347 -0.018307831 0.11155198 0.11348906 -0.029284231 -0.039313
0.031252738 -0.21386337 0.17994519 0.19674227 -0.18734257 -0.061213303 -0.030237127 0.035443682
-0.035190336 0.021012988 0.3348382 -0.13419583 0.06973916 0.17632836 -0.032986593 0.16192494
-0.2192759 0.021184167 0.05211622 0.05328244 -0.03443071 -0.14983128 -0.072703205 0.108041845
-0.06223571 -0.31544036 0.17438288 0.049912646 -0.14919259 -0.053939674 0.03794856 -0.036095675
-0.14549407 -0.08900957 0.03791722 -0.06819715 0.0742704 0.04529247 0.096248165 0.15736838
-0.13298215 -0.08573423 -0.033633746 0.06027428 -0.32092172 0.02881745 -0.09234154 -0.14036208
0.21276473 0.18822065 -0.009889487 -0.011803264 0.022119528 -0.12323485 0.018785186 0.060165886
0.00066572346 -0.1305381 0.054229297 0.036124337 -0.14940369 -0.10678826 -0.049868353 0.10068935
0.036191814 0.08484276 -0.008975237 0.0069092815 -0.043863088 -0.049533855 -0.11110716 0.081371725
-0.032935794 -0.19451094 -0.20478363 -0.032602962 -0.12923089 -0.13049245 0.2282972 0.14771251
0.0046840776 0.07433762 -0.035755076 0.04498401 -0.12778375 0.10263068 0.1464431 -0.09069677
0.10780673 -0.119574405 0.14240491 -0.22502176 -0.16105655 -0.1392359 -0.14005333 -0.040163558
-0.03747516 -0.10510323 0.12034144 -0.08852705 -0.12694214 -0.03376464 0.16994004 -0.14850345
-0.21422753 -0.09164624 0.037989758 -0.17575286 -0.043558564 0.13738072 0.033637516 0.018692007
-0.15444866 -0.048865724 0.2899889 -0.07540606 0.125287 0.08967368 -0.07351211 0.21909231
0.100049786 0.043835394 -0.118371226 -0.033870578 -0.18407957 0.1687866 0.050611928 -0.07837321
-0.042077925 -0.12765966 0.060633976 -0.016824955 0.2619064 -0.033595182 0.048991084 -0.28180167
-0.008521507 -0.008627056 0.080800585 0.19035941 0.42023486 0.044585556 -0.02695657 -0.07284056
0.12316294 -0.21678287 -0.14879718 -0.3608513 0.06519541 -0.16217007 0.032159183 0.22505881
0.1608151 -0.007633675 -0.05815099 -0.09090624 0.23358898 0.2660008 0.078537114 -0.1013575
0.068247736 -0.020224081 -0.0026279453 0.094407745 0.19592576 -0.16801116 0.14646251 0.072907396
-0.03607121 0.09059411 -0.046933904 0.09935928 -0.09923557 -0.08863342 0.093864165 -0.13352783
0.09335628 0.0027159394 -0.0049539353 -0.03419522 0.015599465 -0.1412636 -0.010304451 -0.23399982
0.14283204 0.21041468 0.038958073 0.15987422 0.08870861 0.013920993 -0.06338945 0.0064794635
-0.008423747 0.1385851 -0.012004806 -0.03972313 0.21639743 0.034836072 -0.19973753 -0.013552274
0.13071144 -0.035734642 -0.04567508 -0.15917984 -0.11211237 0.04676747 -0.02828122 0.031891316
0.09470361 -0.11562952 0.09817112 0.10537715 -7.037644e-05 -0.048526973 0.15932427 -0.11081382
0.18502721 0.050505128 -0.012129681 -0.06522913 -0.1268272 -0.101029836 -0.034400105 0.20957494
00000000: defa 023e 3b03 44b9 a490 6f3d 7bad 72bd
00000010: a7a1 98bc cb99 62be c963 83be 63d7 923b
00000020: 41ff 9bbd 15f1 713c 5a68 76bd da07 2dbe
00000030: 9f26 54bd 05c9 4fbd 9233 2abc 140f 28bd
00000040: 7a0d 0f3e 8571 c53d 17f0 64be 5e44 7f3d
00000050: 21cd 653d a014 93be b4a5 19be bc9b b33d
00000060: 6c3a cfbd e8fb 963d 3158 bd3e 4efa 95bc
00000070: 5d75 e43d f46c e83d 7ce5 efbc ab06 21bd
00000080: df02 003d 00ff 5abe 8d43 383e ce76 493e
00000090: bbd6 3fbe cdba 7abd dab3 f7bc 652d 113d
000000a0: be23 10bd 6e23 ac3c ea6f ab3e a26a 09be
000000b0: 68d3 8e3d 6c8f 343e f31c 07bd a7cf 253e
000000c0: dd89 60be 6b8a ad3c d177 553d b03e 5a3d
000000d0: 3707 0dbd 5f6d 19be 6be5 94bd 0b45 dd3d
000000e0: dfea 7ebd 6681 a1be 6d91 323e 3471 4c3d
000000f0: f1c5 18be d9ef 5cbd f36f 1b3d 0fd9 13bd
00000100: 66fc 14be a64a b6bd 164f 1b3d f3aa 8bbd
00000110: 141b 983d 9984 393d c21d c53d 2d25 213e
00000120: 792c 08be 6e95 afbd 8ac3 09bd 2ae2 763d
00000130: da4f a4be 9312 ec3c 901d bdbd 14bb 0fbe
00000140: ffde 593e eabc 403e 8407 22bc 7a62 41bc
00000150: 0334 b53c 8e62 fcbd 64e3 993c 8170 763d
00000160: f283 2e3a c8ab 05be 8a1f 5e3d 1df7 133d
00000170: 48fd 18be ceb3 dabd c242 4cbd 3836 ce3d
00000180: de3d 143d 0ac2 ad3d df0c 13bc 4167 e23b
00000190: c8a9 33bd 03e4 4abd 278c e3bd 38a6 a63d
000001a0: afe7 06bd e02d 47be cdb2 51be af8a 05bd
000001b0: 1a55 04be d09f 05be bec6 693e f341 173e
000001c0: e47c 993b 523e 983d ea73 12bd 2741 383d
000001d0: bed9 02be 0930 d23d 2ef5 153e 3abf b9bd
000001e0: c6c9 dc3d 6de3 f4bd 98d2 113e 1b6c 66be
000001f0: 02ec 24be db93 0ebe 246a 0fbe 8b82 24bd
00000200: 8e7f 19bd 5d40 d7bd 9375 f63d ac4d b5bd
00000210: 1ffd 01be cb4c 0abd c304 2e3e 4a11 18be
00000220: 765e 5bbe 06b1 bbbd 269b 1b3d 8ff8 33be
00000230: 776a 32bd 88ad 0c3e 7ec7 093d fb1f 993c
00000240: ca27 1ebe 6d27 48bd 6d79 943e 7e6e 9abd
00000250: 3c4b 003e d6a6 b73d 848d 96bd bc59 603e
00000260: e7e6 cc3d be8c 333d 9d6c f2bd e0bb 0abd
00000270: 5b7f 3cbe 65d6 2c3e 744e 4f3d 2282 a0bd
00000280: e759 2cbd 37b9 02be 555b 783d 7dd4 89bc
00000290: 9818 863e 1a9b 09bd e0aa 483d 4f48 90be
000002a0: ca9d 0bbc 7f58 0dbc c77a a53d 94ed 423e
000002b0: 0629 d73e 589f 363d 06d4 dcbc 6e2d 95bd
000002c0: da3c fc3d 54fc 5dbe 4a5e 18be 80c1 b8be
000002d0: 2c85 853d e90f 26be 59b9 033d d175 663e
000002e0: b7ac 243e e823 fabb bc2f 6ebd 0d2d babd
000002f0: f331 6f3e 4231 883e 11d8 a03d 8594 cfbd
00000300: 78c5 8b3d f9ac a5bc 9b39 2cbb d958 c13d
00000310: c3a0 483e 1e0b 2cbe 45fa 153e 7950 953d
00000320: 68bf 13bd 6889 b93d c43d 40bd e17c cb3d
00000330: 053c cbbd 7085 b5bd db3b c03d 85bb 08be
00000340: 9431 bf3d e7fd 313b 9f54 a2bb 4910 0cbd
00000350: e694 7f3c 68a7 10be 00d4 28bc a69d 6fbe
00000360: 9042 123e f276 573e 8092 1f3d 11b6 233e
00000370: dcac b53d e014 643c 54d2 81bd ae51 d43b
00000380: c103 0abc 41e9 0d3e ceaf 44bc b9b4 22bd
00000390: 4a97 5d3e 45b0 0e3d ff87 4cbe 5b0a 5ebc
000003a0: 38d9 053e 7d5e 12bd cb15 3bbd 0a00 23be
000003b0: 2c9b e5bd 3f8f 3f3d 04ae e7bc 78a0 023d
000003c0: f7f3 c13d 2bcf ecbd f10d c93d facf d73d
000003d0: 1097 93b8 38c4 46bd e725 233e 5bf2 e2bd
000003e0: c677 3d3e 77de 4e3d 92bb 46bc da96 85bd
000003f0: fdde 01be bbe8 cebd 20e7 0cbd d09a 563e

features_model.4.bias f4 [128]
-0.030294603 -0.016891599 -0.021547 -0.027989022 0.15259284 -0.022994727 -0.028823454 -0.019746337
-0.01818612 -0.015862325 -0.017526194 0.09852096 -0.011583625 0.077298254 0.019596448 -0.029796423
-0.010836169 -0.00076785666 -0.0075255996 0.12221546 0.000105301115 0.07525041 -0.014921545 -0.0086386
0.08379012 0.02880547 -0.024214119 0.034935836 -0.0183028 0.13029762 0.07071898 -0.0019308031
-0.011183827 0.07833581 -0.0077594724 0.093389474 0.0029193638 0.0 0.12108242 -0.020082256
-0.018075094 -0.010832619 0.090555675 -0.0007444429 -0.017336868 -0.011231496 -0.012123204 0.088953696
0.12977624 0.21824807 0.05387328 -0.03139001 -0.020847261 0.0062194555 -0.021625804 -0.01297903
0.0 0.008013878 -0.019191045 0.039610602 -0.0008956556 0.035512224 0.17346643 -0.02387051
0.18268529 0.012879806 0.110528335 0.011154817 -0.002772711 0.060738556 0.07333722 -0.017742155
-0.016925499 -0.020920832 -0.01869415 0.091373414 0.001218668 0.040040933 0.11242092 -0.02410567
0.013645017 0.026602251 0.1454893 -0.023847459 -0.03339411 -0.0147704305 0.12203487 0.1359098
-0.041099764 -0.026046738 -0.01888321 0.008662243 0.17283803 -0.025768403 0.15214333 -0.033495635
0.16980086 0.09836885 0.16013575 0.18336163 -0.04079613 -0.02448118 -0.0034446588 0.040050723
0.17188467 0.15770279 -0.0028203463 -0.019510943 0.1918922 -0.019534152 -0.02352013 0.058439896
0.0094342595 -0.01242279 0.1792355 0.03440196 -0.028353201 0.10183266 -0.021058004 0.15211809
-0.0026171904 0.075135596 -0.018573215 0.0 0.17954943 0.1244008 0.011876431 0.07882495
00000000: 632c f8bc 4060 8abc 5683 b0bc 3c49 e5bc
00000010: 4c41 1c3e 705f bcbc 2a1f ecbc 12c3 a1bc
00000020: 0ffb 94bc b5f1 81bc 1893 8fbc 5bc5 c93d
00000030: 3fc9 3dbc 8c4e 9e3d bb88 a03c a117 f4bc
00000040: 308a 31bc fd49 49ba 4e99 f6bb 194c fa3d
00000050: 1bd5 dc38 e31c 9a3d 7f79 74bc ea88 0dbc
00000060: 289a ab3d 73f9 eb3c b05c c6bc e118 0f3d
00000070: c1ef 95bc bd6c 053e 1dd5 903d 0013 fdba
00000080: 5f3c 37bc 866e a03d 2c43 febb fb42 bf3d
00000090: cc52 3f3b 0000 0000 0ffa f73d 8b83 a4bc
000000a0: 3812 94bc 4c7b 31bc 4175 b93d b826 43ba
000000b0: 0c06 8ebc 4f04 38bc 67a0 46bc 5b2d b63d
000000c0: 10e4 043e 6c7c 5f3e 3aaa 5c3d d092 00bd
000000d0: e0c7 aabc 93cc cb3b 9928 b1bc ffa5 54bc
000000e0: 0000 0000 a44c 033c 8a36 9dbc ba3e 223d
000000f0: 6eca 6aba 4475 113d 2fa1 313e 168c c3bc
00000100: da11 3b3e d205 533c ae5c e23d b2c2 363c
00000110: 5fb6 35bb fec8 783d d331 963d ff57 91bc
00000120: 58a7 8abc 2a62 abbc 7924 99bc fc21 bb3d
00000130: b6bb 9f3a f601 243d f03c e63d 4179 c5bc
00000140: 598f 5f3c f7ec d93c 26fb 143e bf5b c3bc
00000150: 43c8 08bd adff 71bc 6bed f93d f02b 0b3e
00000160: 3a58 28bd f85f d5bc f6b0 9abc 15ec 0d3c
00000170: 74fc 303e 4218 d3bc 76cb 1b3e b832 09bd
00000180: 47e0 2d3e 9c75 c93d a0fa 233e 27c3 3b3e
00000190: d819 27bd c18c c8bc c9bf 61bb 3a0c 243d
000001a0: 8902 303e d77c 213e 8fd5 38bb 6ad5 9fbc
000001b0: 647f 443e 1606 a0bc 4aad c0bc ac5e 6f3d
000001c0: 2792 1a3c f588 4bbc 8389 373e 12e9 0c3d
000001d0: f944 e8bc a48d d03d d681 acbc d8c4 1b3e
000001e0: 2b85 2bbb b1e0 993d db26 98bc 0000 0000
000001f0: cedb 373e d9c5 fe3d 5d95 423c fa6e a13d

policy_model.0.weight f4 [128, 128]
0.0019041691 0.0024805828 -0.0017797013 -0.0014851048 -0.0005470242 -0.002136836 -0.0025834194 -0.001286043
-0.0017655767 0.0016516428 -0.0011577907 -0.0018487186 -0.0021873172 0.00026514032 -0.0025721453 -0.0016344155
-0.0029211317 0.00042798909 -0.0011925537 -0.0034998828 0.0029534956 -0.0045777876 -0.0023383845 0.000108697786
3.7825404e-05 -0.001280686 -0.001212793 -0.0014393193 -0.0018453873 0.001336102 -0.0053206263 -0.00010460901
-0.0001005613 -0.0036774098 0.0004252481 -0.0043032537 -8.8569184e-05 -0.0009175332 -0.005088068 -0.002913615
-0.0002043278 -0.0009938407 -0.0007324342 0.0024067056 0.00018058713 0.0002981132 0.0016343492 -0.0008851129
-0.0006749896 -0.0011464959 -0.001893757 -0.0020893896 -0.001219487 0.0011463582 -0.0018734874 0.0006987973
-0.0006750936 -0.003426491 -0.0019130429 -0.002387654 -0.0017857933 -0.0016481562 -0.0007326067 -0.0007741634
0.0010741228 0.0018265333 0.002845373 -0.0024121713 6.480503e-05 -0.007156652 -0.005558174 -0.0014492677
0.0019031012 0.0009416681 -0.0025673022 0.0012486377 -7.9757076e-05 -0.00047776717 0.001456526 -0.0017560024
0.00091564865 0.0002116744 -0.0004556147 -0.0010172873 -0.0021765388 0.00214445 -0.008361451 -0.006354316
-0.0017417029 0.0029832325 -0.0016901663 -0.002829627 0.0015257779 -0.0028095054 -0.0009832644 0.0008342982
-0.0010005275 -0.0056664776 0.0018725243 0.00017859122 0.00021279081 -0.0017853801 -0.00062931224 0.00015347205
-0.001344987 -0.0017630568 0.0014188024 -0.002373475 0.00049916765 -0.00039144434 0.0012438631 -0.0027554878
-0.00027593836 -0.0032707232 0.00032172995 -0.0025928097 -0.0018837554 -0.0070071523 -0.0014994901 -0.00462014
-0.0021421327 -0.0068807392 1.5554751e-05 0.00015968697 -0.0060613193 -0.004441308 -0.00017306008 -0.0018065218
-0.05356942 0.0049448367 0.013612296 0.012651072 0.037796907 0.015740238 0.021998549 -0.008848545
0.017791757 -0.016147114 -0.00016620378 0.05837567 0.048212945 0.041867655 0.06899358 0.016142383
0.035502028 0.013882603 0.00057907234 0.06637857 0.0082147615 0.08227638 0.012078439 0.006052813
0.07771031 0.029683957 0.036896884 0.047989257 0.006659574 0.03512693 0.07362591 0.028050525
0.0060368064 0.03210238 0.005629021 0.07737392 -0.019121535 -0.0005363126 0.05223813 0.002555
-0.009724361 0.015798852 0.086280964 -0.00854648 0.0025062456 0.017914822 -0.022505293 0.07318898
0.029066324 0.003712793 0.01382198 0.036550157 0.01740129 0.022098307 0.014793801 2.6178328e-05
0.00013949178 0.0016680314 0.02068944 0.058356002 0.00073239143 0.011343019 0.0053367387 0.013699903
-0.037235882 0.029052027 0.06828947 -0.009868504 0.007856549 0.06551804 0.07013676 0.055885244
0.021552697 -0.018909533 0.013895421 0.05629617 0.0012070519 0.085967444 -0.0073636808 0.0055265874
0.017431654 -0.027602011 -0.01900397 0.0006745376 0.024329014 0.017138071 0.058108155 0.05301578
0.009790467 0.014518471 0.03235588 0.029241497 -0.001947117 -0.00025664316 0.005948261 -0.024172403
0.042821076 0.069600515 -0.021482911 0.000488004 0.0044309064 0.03151475 0.059583634 0.06974362
-0.012702027 0.06192503 0.037256546 0.04874362 -0.033889536 0.006489356 0.012263559 0.004574918
0.069096476 0.010231626 0.03194328 0.03129326 0.0045001744 0.06884018 0.012073973 0.058279037
-0.0016723751 0.071230896 0.032596644 -0.00072916516 0.044182245 0.068201944 0.007302501 0.082019955
00000000: 5095 f93a 4691 223b de44 e9ba d9a7 c2ba
00000010: 2c66 0fba 290a 0cbb 964e 29bb 7190 a8ba
00000020: ec6a e7ba f07b d83a 02c1 97ba b450 f2ba
00000030: 1859 0fbb 8802 8b39 7091 28bb e239 d6ba
00000040: 7570 3fbb b963 e039 764f 9cba 4a5e 65bb
00000050: 6f8f 413b 4401 96bb 953f 19bb aef4 e338
00000060: b8a6 1e38 b1dc a7ba 95f6 9eba 8ba7 bcba
00000070: ece0 f1ba 2520 af3a a658 aebb 8961 dbb8
00000080: 70e4 d2b8 b300 71bb d5f3 de39 4f02 8dbb
00000090: 38be b9b8 9c86 70ba cfb9 a6bb 59f2 3ebb
000000a0: d340 56b9 c343 82ba d400 40ba d2b9 1d3b
000000b0: fd5b 3d39 144c 9c39 a937 d63a ec06 68ba
000000c0: c9f1 30ba 0546 96ba f137 f8ba 24ee 08bb
000000d0: 32d7 9fba 6641 963a ce8f f5ba 7e2f 373a
000000e0: c4f8 30ba fb8e 60bb 11bf faba 307a 1cbb
000000f0: 4811 eaba f206 d8ba 670c 40ba 3af1 4aba
00000100: 95c9 8c3a 4a68 ef3a 7079 3a3b 8515 1ebb
00000110: f0e7 8738 5982 eabb 5821 b6bb 5bf5 bdba
00000120: 7b71 f93a 47da 763a 2f40 28bb 54a9 a33a
00000130: 4143 a7b8 d37c fab9 e7e8 be3a aa29 e6ba
00000140: 2408 703a eaf4 5d39 92df eeb9 7f56 85ba
00000150: 43a4 0ebb e789 0c3b 78fe 08bc de37 d0bb
00000160: da49 e4ba 5682 433b 9288 ddba 4371 39bb
00000170: 9cfc c73a ae1f 38bb e1e0 80ba ceb4 5a3a
00000180: 2224 83ba dcad b9bb 7d6f f53a 3744 3b39
00000190: 9920 5f39 6a03 eaba 6ef8 24ba 57ed 2039
000001a0: 464a b0ba 5f16 e7ba 1cf7 b93a 4e8c 1bbb
000001b0: 93da 023a c53a cdb9 1f09 a33a 6a95 34bb
000001c0: d2ab 90b9 a159 56bb ddad a839 21ec 29bb
000001d0: 58e8 f6ba 419c e5bb 8a8a c4ba 8b64 97bb
000001e0: 0663 0cbb d377 e1bb 937b 8237 a571 2739
000001f0: 089e c6bb 6488 91bb 7677 35b9 d0c8 ecba
00000200: 9c6b 5bbd 4c08 a23b 1c06 5f3c 7146 4f3c
00000210: eed0 1a3d acf1 803c 4d36 b43c 7df9 10bc
00000220: 05c0 913c f446 84bc fd46 2eb9 541b 6f3d
00000230: f07a 453d 6b7d 2b3d 824c 8d3d 083d 843c
00000240: 936a 113d db73 633c e3cc 173a 7df1 873d
00000250: 3597 063c 8580 a83d a5e4 453c ad56 c63b
00000260: 9526 9f3d c52b f33c 3021 173d 6290 443d
00000270: 8e38 da3b 41e1 0f3d 2ec9 963d 37ca e53c
00000280: 67d0 c53b c97d 033d a773 b83b 3876 9e3d
00000290: c4a4 9cbc 5497 0cba a6f7 553d c971 273b
000002a0: ed52 1fbc 986c 813c 13b4 b03d 8906 0cbc
000002b0: d33f 243b 1bc2 923c 055d b8bc 1be4 953d
000002c0: 801c ee3c 5552 733b 9675 623c 9eb5 153d
000002d0: 268d 8e3c 8207 b53c b361 723c 8899 db37
000002e0: 8a44 1239 d9a1 da3a e77c a93c b406 6f3d
000002f0: f5fd 3f3a 12d8 393c cfdf ae3b 8f75 603c
00000300: a784 18bd 84fe ed3c 5adb 8b3d 81af 21bc
00000310: c1b8 003c 522e 863d dda3 8f3d ede7 643d
00000320: 488f b03c 2ae8 9abc 9fa9 633c d096 663d
00000330: f135 9e3a b30f b03d 084b f1bb 6018 b53b
00000340: d4cc 8e3c 9d1d e2bc 37ae 9bbc 74d3 303a
00000350: a44d c73c 2465 8c3c d102 6e3d 1327 593d
00000360: 3268 203c e2de 6d3c 9987 043d dd8b ef3c
00000370: 6836 ffba 108e 86b9 a1e9 c23b 3405 c6bc
00000380: 2765 2f3d b78a 8e3d eefc afbc cada ff39
00000390: 2331 913b 9c15 013d f80d 743d bed5 8e3d
000003a0: 2a1c 50bc 1aa5 7d3d 529a 183d 64a7 473d
000003b0: c1cf 0abd aaa4 d43b 18ed 483c 32e9 953b
000003c0: 7482 8d3d 8da2 273c f5d6 023d 5d2d 003d
000003d0: 3376 933b 15fc 8c3d ead1 453c 00b6 6e3d
000003e0: 9933 dbba 81e1 913d 0f84 053d 7225 3fba
000003f0: 71f8 343d 76ad 8b3d d149 ef3b 14fa a73d

policy_model.0.bias f4 [128]
-0.0011417501 0.069928885 -0.0014982655 0.00018066491 2.1657543e-05 -0.0001491374 -0.005570961 -0.010237683
0.0015422486 -0.0014995139 -0.0015009871 -0.014329842 -0.016941998 0.01404973 0.0002597546 0.0003440429
0.0069249487 -0.017277228 -0.0014963433 -0.0014578769 -0.011548331 -0.0081964275 0.0076030684 -0.00038112613
-0.015248217 -0.0015008727 -0.011885796 -0.01380018 -0.007865691 -0.0014984334 -0.008706175 -0.006354336
-0.013687721 -0.006755752 -0.001500609 -0.006503699 -0.0008502196 -0.0011991822 -0.017633224 -0.013894195
0.0668047 -0.014600538 0.0062269606 -0.0014993733 -0.0012826791 0.034045324 -0.016221525 -0.010073476
-0.009328393 0.0024171988 -0.010376343 -0.001371411 -0.0037584372 0.004025974 -0.01292445 0.0
0.0 -0.0020962944 -0.01712801 -0.001275721 -0.016520973 -0.001489098 -0.0014970349 0.0037946778
-0.0038864845 -0.001500738 -0.0017543057 -0.015517143 -0.00848324 -0.00427842 -0.007848232 -0.0077784876
-0.0010024008 -0.005178268 0.0009946498 -0.003760655 -0.0014975681 -0.015933616 -0.015098061 -0.0015000735
0.026293656 -0.016479421 -0.014018599 -0.0005328667 0.005242542 -0.0011631271 -0.0008377505 0.10329561
-0.01016263 -0.017829213 -0.0014979397 -0.0035862254 -0.00030886714 -0.007136034 -0.0019211574 -0.009067198
-0.017229568 -0.0014995453 -0.015599182 -0.015746066 0.0024115331 -0.010106333 -0.0029666997 -0.0051058135
-0.0063800705 0.005802648 0.010937827 -0.010752157 -0.0012779451 -0.0014997962 -0.0066638454 -0.010622878
-0.010713303 -0.000110316134 -0.00068794546 -0.0016552908 -0.00815932 -0.015067906 -0.0012245595 -0.001484655
-0.01297877 0.04182542 -0.0012879611 0.0031065075 -0.0035848548 -0.00359203 0.0061221565 -0.003063017
00000000: c7a6 95ba e036 8f3d 7361 c4ba de70 3d39
00000010: 38ad b537 c461 1cb9 9c8c b6bb f4bb 27bc
00000020: 4725 ca3a 568b c4ba c5bc c4ba b7c7 6abc
00000030: f2c9 8abc d730 663c ac2f 8839 a860 b439
00000040: aeea e23b f988 8dbc f320 c4ba 3b16 bfba
00000050: 3635 3dbc 4f4a 06bc 2923 f93b e2d1 c7b9
00000060: a8d3 79bc eeb8 c4ba a4bc 42bc 261a 62bc
00000070: 19df 00bc 1567 c4ba 58a4 0ebc 0938 d0bb
00000080: 7742 60bc 5b5f ddbb 15b0 c4ba fb1c d5bb
00000090: 46e1 5eba e12d 9dba 8d73 90bc 7aa4 63bc
000000a0: e7d0 883d 1837 6fbc 880b cc3b 9f86 c4ba
000000b0: 921f a8ba 1c73 0b3d 01e3 84bc 380b 25bc
000000c0: 1ed6 18bc de69 1e3b 8901 2abc ebc0 b3ba
000000d0: 1d50 76bb 51ec 833b 13c1 53bc 0000 0000
000000e0: 0000 0000 fc61 09bb 0a50 8cbc 1836 a7ba
000000f0: fe56 87bc d62d c3ba 2838 c4ba 21b0 783b
00000100: 64b4 7ebb 69b4 c4ba bbf0 e5ba 9d3b 7ebc
00000110: 4afd 0abc fd31 8cbb df95 00bc afe2 febb
00000120: fd62 83ba 76ae a9bb e95e 823a 5275 76bb
00000130: 0c4a c4ba 3787 82bc dc5d 77bc 1d9e c4ba
00000140: cb65 d73c daff 86bc 44ae 65bc 14b0 0bba
00000150: a1c9 ab3b 1274 98ba 7c9c 5bba a68c d33d
00000160: 2981 26bc 920e 92bc 8456 c4ba e106 6bbb
00000170: 72ef a1b9 64d5 e9bb 58cf fbba 968e 14bc
00000180: 0625 8dbc 648c c4ba b693 7fbc e5fd 80bc
00000190: d00a 1e3b 0895 25bc f66c 42bb ab4e a7bb
000001a0: e90f d1bb 2424 be3b 9234 333c d129 30bc
000001b0: b980 a7ba cf94 c4ba 635c dabb 940b 2ebc
000001c0: da86 2fbc 8659 e7b8 3d57 34ba 58f6 d8ba
000001d0: abae 05bc 61df 76bc 6681 a0ba c198 c2ba
000001e0: e8a4 54bc 2251 2b3d ced0 a8ba 8c96 4b3b
000001f0: e2ef 6abb 4368 6bbb 5f9c c83b e6bc 48bb

policy_model.2.weight f4 [8, 128]
-0.0018078343 -0.041865073 0.0017249605 0.00080096314 -0.0019682467 0.0007883454 -0.015412736 -0.0063643875
0.005555209 -0.00016256726 -0.0018161507 -0.005642033 -0.0053655836 0.0036776904 0.0024507213 0.0012158077
0.003693336 -0.0069144135 0.0010009056 -0.002591458 -0.005651887 -0.0073160776 0.015565613 0.0007064507
-0.0075708283 0.0016423524 -0.0026076925 -0.006694652 -0.015815 -0.00083358644 -0.008127774 0.00045570155
-0.00888077 -0.009688404 0.0017549412 -0.0075502237 -0.0011592811 0.0010916123 -0.007000468 -0.008363113
-0.060290422 -0.0066980035 0.003468957 -0.0015409295 0.0012805326 -0.07491483 -0.007628259 -0.0028641133
-0.0073620193 0.00468245 -0.007434327 -0.0055301124 0.004431037 0.00454108 -0.0052721566 -0.00022551893
0.0017280197 0.001266645 -0.006682116 -2.451288e-05 -0.006521637 -0.00046371666 -0.0006562424 0.004154853
-0.007784494 0.0010280797 0.00097574637 -0.005774789 -0.006491703 -0.00469266 -0.0074041546 -0.008284341
-6.275886e-05 0.0030746132 0.0018570005 -0.00076229527 0.0023037428 -0.008246764 -0.0050322386 5.31324e-05
0.02554361 -0.005587721 -0.0017121398 0.0012261329 0.004223397 0.0011169194 -0.00010874683 -0.08270052
-0.0056136893 -0.006424326 0.001570658 -0.0074984133 0.0024378493 -0.006577357 0.001186998 -0.014961154
-0.0060189073 0.0034453461 -0.004554175 -0.0070972 0.0037349965 -0.0066981404 0.0027958017 0.00027506036
6.244521e-05 0.0035808792 -0.028868502 -0.0072159613 -9.249044e-05 0.0022582593 -0.006466121 -0.0040694326
-0.0025365015 -9.7834956e-05 0.003883494 0.00075816084 -0.0015493371 -0.0062279734 0.0009616875 -0.00031699805
-0.007284367 -0.07395692 -0.00037814677 -0.002799848 -0.000121011006 -0.002133282 0.0045853974 0.000849748
0.001059876 0.035597313 -0.00065334234 -0.000706236 0.00041250122 -0.0009204017 0.027512508 -0.01079493
-0.0083342865 -0.00017606985 0.003261046 -0.009150849 -0.008674885 -0.0068992563 -0.0025764727 -0.005200819
-0.0024332365 -0.008411497 0.0018537593 -0.0008698227 -0.011975989 -0.0102904895 -0.008855046 -0.00049837533
-0.008605491 0.0008105651 -0.0034179937 -0.00775404 0.002990937 -0.0015161065 -0.010317603 0.0027823509
-0.007640941 -0.004321975 0.0005485388 -0.009041923 0.0010261559 -0.0013398543 -0.008385776 -0.011562865
0.059668228 -0.010227635 -0.005544897 0.0026243303 0.00016603715 -0.016041934 -0.008567398 -0.0022061027
-0.008880114 -0.00710124 -0.012882469 -0.0010950825 -0.0042232615 -0.007055047 -0.009990737 0.0015152614
0.0019239375 0.0015136178 -0.007231114 -0.0006374238 -0.0089898985 0.00024059559 -0.0013575603 -0.008444267
-0.0061978963 -0.0007192017 -0.0004394246 -0.0083000185 -0.008441474 -0.004951362 -0.0071207285 -0.009233719
-0.0018643554 0.0016535833 -0.0042066607 -0.0009753001 0.003599667 -0.00863503 -0.010308323 -0.0013748603
-0.0017142936 -0.008430094 -0.0028599743 -0.0012255968 -0.0069472687 -0.0010840109 0.0014327307 0.025469773
-0.009924403 -0.00985518 0.0016030554 -0.0026630296 -0.00011494514 -0.010766174 -0.00034453988 0.002132055
-0.007878105 0.0004295706 -0.008167083 -0.008864978 -0.006645181 -0.010484255 0.00395691 -8.1293285e-05
0.0069812713 -0.0063150893 -0.010219084 -0.007791467 -0.00071850204 -0.00083696697 -0.0077232644 -0.0039603026
-0.0022800032 0.00015975036 0.0020761243 -0.0037894074 -0.000103773666 -0.008966588 -0.0009527699 -0.00011376218
-0.008245406 -0.009505297 0.00015322494 0.0023229572 -0.0012527419 -0.002994266 -0.007964352 -0.001749984
00000000: daf4 ecba b67a 2bbd 1218 e23a baf7 513a
00000010: b3fd 00bb f7a8 4e3a b385 7cbc 5a8c d0bb
00000020: 7808 b63b d176 2ab9 e80b eeba cee0 b8bb
00000030: c7d1 afbb 6805 713b 489c 203b bd5b 9f3a
00000040: e50b 723b 4e92 e2bb d230 833a 73d5 29bb
00000050: 7733 b9bb b5bb efbb ea06 7f3c 1b31 393a
00000060: b614 f8bb 3444 d73a d2e5 2abb d05e dbbb
00000070: 758e 81bc 0a85 5aba 5b2a 05bc 3aeb ee39
00000080: a680 11bc 1dbc 1ebc 0e06 e63a de67 f7bb
00000090: 05f3 97ba 6e14 8f3a 2f64 e5bb 7005 09bc
000000a0: 17f3 76bd ed7a dbbb 7157 633b 04f9 c9ba
000000b0: 8bd7 a73a f26c 99bd 79f6 f9bb d9b3 3bbb
000000c0: 183d f1bb 3d6f 993b a89b f3bb f235 b5bb
000000d0: 3c32 913b 57cd 943b 0ec2 acbb 4779 6cb9
000000e0: b87e e23a 8e05 a63a a7f5 dabb 02a1 cdb7
000000f0: 75b3 d5bb ff1e f3b9 af07 2cba 6f25 883b
00000100: 1215 ffbb a1c0 863a 3bc9 7f3a 713a bdbb
00000110: 5ab8 d4bb e3c4 99bb 8d9e f2bb 0bbb 07bc
00000120: 689d 83b8 737f 493b 9966 f33a c5d4 47ba
00000130: 64fa 163b 6f1d 07bc 7ae5 a4bb 7bda 5e38
00000140: d540 d13c 3319 b7bb e169 e0ba 31b6 a03a
00000150: 6c64 8a3b 9965 923a 030f e4b8 e45e a9bd
00000160: 0af3 b7bb 2783 d2bb 89de cd3a 40b5 f5bb
00000170: 53c4 1f3b df86 d7bb 0b95 9b3a a11f 75bc
00000180: 413a c5bb 51cb 613b 303b 95bb a18f e8bb
00000190: d8c6 743b 137c dbbb c539 373b fa35 9039
000001a0: 04f5 8238 2fad 6a3b a37d ecbc df73 ecbb
000001b0: 6df7 c1b8 4eff 133b c1e1 d3bb e058 85bb
000001c0: 6f3b 26bb be2c cdb8 3882 7e3b 50bf 463a
000001d0: 2013 cbba 0714 ccbb c119 7c3a c232 a6b9
000001e0: b3b1 eebb ba76 97bd 0042 c6b9 a87d 37bb
000001f0: 4ac7 fdb8 88ce 0bbb 1a41 963b 9fc1 5e3a
00000200: 8aeb 8a3a 7dce 113d 1045 2bba b222 39ba
00000210: fa44 d839 1d47 71ba e961 e13c 38dd 30bc
00000220: 888c 08bc 649f 38b9 46b7 553b 71ed 15bc
00000230: 1b21 0ebc 2813 e2bb 0ada 28bb a26b aabb
00000240: ef76 1fbb 60d0 09bc d7f9 f23a d004 64ba
00000250: f036 44bc 7199 28bc c114 11bc 67a5 02ba
00000260: 0cfe 0cbc 1a7c 543a 6b00 60bb 9a15 febb
00000270: 9903 443b 18b8 c6ba 2a0b 29bc 1a58 363b
00000280: dc60 fabb 5b9f 8dbb d1cb 0f3a 9324 14bc
00000290: 1480 863a 0d9e afba 7e64 09bc 2c72 3dbc
000002a0: ac66 743d cf91 27bc f8b1 b5bb f5fc 2b3b
000002b0: 421a 2e39 606a 83bc 465e 0cbc 4394 10bb
000002c0: e67d 11bc 85b1 e8bb fe10 53bc df88 8fba
000002d0: 4963 8abb 062e e7bb 30b0 23bc bc9b c63a
000002e0: a12c fc3a 9664 c63a fbf2 ecbb c918 27ba
000002f0: 5e4a 13bc 6348 7c39 2af0 b1ba d359 0abc
00000300: b917 cbbb cf88 3cba 9262 e6b9 cdfc 07bc
00000310: 1c4e 0abc 093f a2bb 0055 e9bb 0649 17bc
00000320: 635d f4ba 0cbd d83a 07d8 89bb 48ab 7fba
00000330: 64e8 6b3b f179 0dbc 3ee4 28bc a834 b4ba
00000340: 26b2 e0ba 611e 0abc 686e 3bbb 34a4 a0ba
00000350: eaa5 e3bb 5f15 8eba 77ca bb3a fca5 d03c
00000360: f799 22bc 9f77 21bc 9d1d d23a 3986 2ebb
00000370: b40e f1b8 9b64 30bc 5ca3 b4b9 f2b9 0b3b
00000380: 2b13 01bc fd37 e139 3bcf 05bc 6a3e 11bc
00000390: d2bf d9bb 27c6 2bbc f8a8 813b 007c aab8
000003a0: 26c3 e43b cfee cebb f26d 27bc 904f ffbb
000003b0: db59 3cba e767 5bba 7013 fdbb 6dc5 81bb
000003c0: 1b6c 15bb a982 2739 960f 083b b557 78bb
000003d0: 10a1 d9b8 99e8 12bc 4ec3 79ba 9b93 eeb8
000003e0: bd17 07bc 1bbc 1bbc 02ab 2039 c13c 183b
000003f0: 0b33 a4ba 733b 44bb ea7c 02bc b85f e5ba

policy_model.2.bias f4 [8]
-0.02193268 0.008971887 0.037578512 0.010931601 -0.012293561 -0.0026811934 0.02625415 -0.05488564
00000000: 2aac b3bc d2fe 123c edeb 193d 751a 333c
00000010: ef6a 49bc f6b6 2fbb f112 d73c c4cf 60bd
