results/short_race/second_iteration_training/model320.pt (torch, 276107 bytes, 13 tensors)

features_model.0.weight f4 [128, 4]
000000 e6 37 84 bd f5 34 20 3e 67 35 8e 3d 8b 99 62 be
       -0.06455974 0.15645202 0.069437794 -0.22128884
000010 a1 95 b2 3c 06 0f 85 bd ae d7 9b bb 05 5e 88 3d
       0.021799864 -0.06497006 -0.0047559356 0.06658558
000020 b8 b7 33 3e f5 f5 c5 3c 35 b5 2e bd 96 7c 3b 3e
       0.17550552 0.024165133 -0.04265328 0.18309245
000030 72 04 33 3e 0c 33 9c bd a8 39 67 bd ed df 83 bd
       0.17482165 -0.07626924 -0.05645147 -0.06439195
000040 fc f9 3c 3d ce 36 14 bc bd 7d 02 3d 41 eb cd bd
       0.04613684 -0.00904627 0.031858195 -0.10054637
000050 fa 43 8a 3d e5 1e 2a 3d 5f 26 73 3e d8 92 37 be
       0.06751247 0.04153337 0.23745106 -0.1792711
000060 5d f0 50 be 9c 89 08 3b 76 e0 6c 3d 2b 32 2a 3e
       -0.20404191 0.0020833975 0.05783125 0.166207
000070 e8 ee 69 bd 7c 6f a9 3d 39 f0 37 3d 02 0f 1e 3e
       -0.057112604 0.08273217 0.04490683 0.15435413
000080 15 0c 3e be 61 06 2e 3d 96 f1 fc 3d 01 57 84 3b
       -0.18559296 0.042486552 0.12350766 0.004038692
000090 02 19 a5 bd 99 08 1b 3e 7f a8 2b 3d ac 0f 8f be
       -0.080614105 0.15139998 0.041908737 -0.27941644
0000a0 8d f9 30 3d 1c c4 18 3e f0 78 38 3e 0d 19 8d 3d
       0.04320674 0.1491856 0.18014884 0.06889544
0000b0 8c 3d 17 3e 62 7d d5 bd de b1 25 3e f5 14 a4 3d
       0.14769572 -0.104243055 0.16181132 0.0801181
0000c0 76 9b 23 3e 20 e7 6d 3e 93 0b ed 3c 69 00 01 be
       0.15977272 0.23232698 0.028936183 -0.12597813
0000d0 17 39 2d be 85 0c 68 bd 80 ad 14 be cd 82 2c 3c
       -0.1691631 -0.056652565 -0.1451931 0.010529232
0000e0 2a d8 ef bd cd f9 58 3e 34 bf 11 bd 2b 4c 0d 3e
       -0.11711152 0.21189041 -0.035582736 0.13798587
0000f0 72 0c 64 be 25 2e 1c bd 1e 3a 99 be 54 c1 27 3d
       -0.22270373 -0.038129944 -0.29927152 0.040955856
000100 91 b3 f2 3d 28 85 0f bc 91 fc 85 3c c1 84 03 be
       0.11850656 -0.008759774 0.016355785 -0.1284361
000110 9b 4e 6f bd 0f 85 6e be d1 f9 fe bd d2 86 f0 bc
       -0.058424573 -0.23292945 -0.124499924 -0.029361162
000120 54 40 07 be 62 93 50 3d a6 bd a7 bd 2d 8b f6 bd
       -0.13208133 0.050921805 -0.081904694 -0.120382644
000130 f9 59 ab bd e5 10 f1 bd 63 b8 83 be d5 d5 2a be
       -0.0836677 -0.117708005 -0.25726613 -0.16683133
000140 6e 02 a3 3d 91 a3 ce bd a7 b1 02 be 76 a0 70 3c
       0.07959448 -0.100897916 -0.12763081 0.014686694
000150 f2 ce 7b be c4 fc 26 be 25 94 47 3e 43 7b 77 bb
       -0.24590662 -0.1630736 0.19490106 -0.0037762679
000160 c9 a9 59 3d ed 8a fb 3d f6 0e c3 bd 74 dd 3d bd
       0.053140435 0.12282357 -0.09524338 -0.046353772
000170 56 55 66 be 74 66 c7 bd b1 e9 d6 bd c4 1d 8b 3d
       -0.2249349 -0.09736338 -0.10493792 0.06792787
000180 65 b3 3e 3d 99 8b 06 3e 8e 1a 02 3e 87 f1 7a be
       0.046557803 0.1313919 0.12705442 -0.24506198
000190 c7 12 c3 be f6 e0 55 be 0c d8 a3 3d 7d 25 86 bd
       -0.38100263 -0.20886597 0.08000192 -0.06550119
0001a0 94 5d 78 3e dd ba 9b 3e b1 2b e9 bc f1 55 2a 3e
       0.24254447 0.30416003 -0.028463216 0.16634347
0001b0 e0 1f af bd 7e 73 a4 bd 0a 2d d5 bd e1 1d bd bc
       -0.085510015 -0.08029841 -0.10408981 -0.023085536
0001c0 13 16 8a bb 06 d5 9d 3d c4 79 08 be f0 d3 7a 3e
       -0.0042140572 0.077066466 -0.133277 0.2449491
0001d0 5c b6 db 3d 7a 1e 7a 3d 0f b8 fb bd 4b c2 7f bd
       0.10728142 0.06106422 -0.12290966 -0.06244115
0001e0 7d 35 34 3e 5f 16 df 3d 9b b8 2d 3e e3 a6 99 3d
       0.17598529 0.10892939 0.16964953 0.07502534
0001f0 f3 9e f3 3d eb a4 9d 3d 95 47 e5 3d 96 5a 1c 3e
       0.118955515 0.07697471 0.11195294 0.15268931
000200 d7 44 40 3e c4 91 7f be fe 50 52 3d 0a c5 f2 3d
       0.1877626 -0.24957949 0.05134677 0.118539885
000210 a5 6c 3c 3e 18 c1 c2 bc 68 f7 f7 3d 0d ac 2a bd
       0.1840082 -0.023773715 0.12107736 -0.041667987
000220 50 12 08 3d 5e 8f 6a 3d 6c 67 6f 3e 19 97 23 3e
       0.03322059 0.05726563 0.23379296 0.15975608
000230 20 96 87 3d f8 7a c1 bd bd 68 42 bc 80 d9 1d be
       0.06620431 -0.094472826 -0.011865792 -0.15415001
000240 35 c8 c4 bd 1a 3c af bd 3a 77 a2 3d 8c fd 98 bc
       -0.09608499 -0.08556385 0.07932897 -0.018675588
000250 db c7 99 bd 2f 81 c1 bd 6f 78 8f 3a 4a 34 ff 3d
       -0.075088225 -0.09448468 0.0010945926 0.12461145
000260 60 2a 53 be 4b 15 55 3d df 14 9f 3d 0a b7 f6 3d
       -0.20621634 0.05202226 0.07767653 0.12046631
000270 ab 88 7b 3d 90 fb 8a 3c d1 3c f7 3d 4e 2e 84 3e
       0.061409634 0.016965657 0.12072147 0.25816578
000280 6b 4b 9a bd 41 a1 ae 3d 95 be 0a be 3e 12 47 3e
       -0.07533916 0.085268505 -0.13549264 0.19440553
000290 0b 6d 53 bd 75 97 04 bd c2 20 37 3c 6e 6b 5b be
       -0.051617663 -0.032371003 0.011177244 -0.214277
0002a0 1f 1d 88 3d 50 8a 24 bd b5 30 4e bd f5 ff 0b be
       0.066461794 -0.040170968 -0.05033942 -0.13671859
0002b0 4d 7c fa bd cc 19 82 3d cb be 01 3e b1 f8 76 3c
       -0.1223074 0.063525766 0.12670438 0.015073941
0002c0 1a 45 06 bd e8 3d 1d 3e b2 3f 51 3d 48 49 42 bd
       -0.032780744 0.15355647 0.051086135 -0.047433168
0002d0 16 46 25 bd c5 5a dc bd 50 48 89 bd 44 c3 00 3e
       -0.040350042 -0.107595004 -0.06703246 0.12574488
0002e0 6f 8d d0 3d 4f 8b 63 ba a8 eb c4 3e f2 91 e6 bd
       0.10183226 -0.00086801214 0.3846104 -0.112583056
0002f0 e2 37 f5 3b 84 3e e2 bb e3 e0 f4 3d b2 ae 86 bc
       0.0074834684 -0.006904425 0.11956956 -0.016440723
000300 99 0e 55 be 4b 8a 01 bc 15 d9 12 be c5 e2 2b bb
       -0.2080635 -0.007906507 -0.14340623 -0.0026227694
000310 5a 14 6d 3e b6 b8 fd bd 21 03 3f 3d 58 2b db 3d
       0.23152295 -0.123887464 0.046633843 0.107016265
000320 8e e4 53 be a4 1a 8e bd e3 32 06 3d 37 2f 1e 3e
       -0.20692655 -0.06938675 0.032763373 0.15447699
000330 f3 10 99 be 3b 97 c4 3d a1 d3 37 3e 16 63 b0 3c
       -0.29895744 0.095991574 0.17951824 0.021531623
000340 c9 9b 4d 3e 3d a6 8d 3e 03 3b 8f bd 84 70 7d bd
       0.20078959 0.27665892 -0.069936775 -0.06187488
000350 a5 ce 5d 3e e6 12 52 bd 3b 14 5e bd cc 23 1b bd
       0.2166086 -0.051287554 -0.054218512 -0.037875935
000360 1c f5 7a 3d a3 52 3f bb d0 b5 bb 3d d1 41 78 bc
       0.06126891 -0.0029193542 0.09165537 -0.015152411
000370 22 90 17 3e 36 44 0d 3b 8d f1 45 3e 43 a7 a1 3e
       0.14801076 0.002155555 0.19330426 0.31572923
000380 76 cf 18 3e 25 b4 9f 3c e4 c3 a6 3b 34 77 c2 bd
       0.1492289 0.01949508 0.00508927 -0.094953924
000390 5d cc 6b bd 38 cc bf 3d 67 b5 04 3e 98 2e 03 3c
       -0.057567943 0.093651235 0.12959825 0.008006714
0003a0 ab 51 94 bd 1d fb a4 3c 1f 7a 6f bd 11 5a f7 3c
       -0.072421394 0.020139271 -0.058466073 0.030194314
0003b0 89 0e 0a 3e 9d 30 ae 3d 5c d4 11 3e 3c 7a 50 3e
       0.13482107 0.08505366 0.14241165 0.20359129
0003c0 e2 a0 02 be 11 f7 91 3d b1 96 40 3c fe c8 16 3e
       -0.12756684 0.07127202 0.011754678 0.1472511
0003d0 c3 33 f3 3c 97 0a 92 bd 25 24 0b be fe a4 57 3e
       0.029687768 -0.07130926 -0.13588007 0.21059033
0003e0 b6 b8 b5 bd ce a8 d4 3d 81 74 59 3d af 9c 8b be
       -0.088731214 0.103837594 0.053089622 -0.27267978
0003f0 cf 28 50 be 4a 74 cd 3d 8a 42 fd bc 7f 35 de bd
       -0.20328067 0.10031946 -0.030915517 -0.10850047

features_model.0.bias f4 [128]
000000 5d 78 d2 bb 72 75 8e bc 75 0c be bb c1 7b dd bc
       -0.00642304 -0.017389987 -0.005799825 -0.02703655
000010 d4 5a 6d 3d 9b d4 07 3d 88 d6 3d bc 10 69 a1 bb
       0.05794795 0.03316174 -0.011586793 -0.0049258545
000020 8b b8 bd bb b5 73 d5 bc d1 53 76 3c 0a 7c 1b bc
       -0.0057898215 -0.02605615 0.015034632 -0.009490022
000030 59 41 4b 3c d8 5a fc bc 7a d1 a5 bc cf 82 6f 3c
       0.012405717 -0.030805036 -0.020241488 0.01461859
000040 9b 98 4a 3d ac dc cc bc 40 e6 57 bd cd 2c 87 ba
       0.049461942 -0.025007568 -0.052709818 -0.0010313034
000050 a4 69 fe bc 3e 3d 20 bd 78 21 4d 3c 64 89 80 bc
       -0.031056233 -0.039120905 0.012520187 -0.015690513
000060 72 85 1a 3b e3 72 79 bc ae f7 f2 3b ba d8 2c 3b
       0.0023578075 -0.015225145 0.0074147796 0.0026374296
000070 54 d8 7b 3c c1 a4 1b 3d 9e 01 42 3d fa b8 22 3d
       0.015371401 0.03799892 0.047364824 0.03972719
000080 1c 75 4f bc 75 7d cf 3c fb 95 e1 bb b6 c7 43 3c
       -0.012662198 0.025328377 -0.006884334 0.01194947
000090 39 24 ba bb 34 c2 26 bc 8a be 07 bc 5f e7 18 3c
       -0.0056805876 -0.010178138 -0.008285174 0.009332507
0000a0 95 e3 06 3d e8 c3 5a 3b ce b3 f6 3c 19 10 f7 bc
       0.032931883 0.003338093 0.030115034 -0.030159043
0000b0 a2 d3 eb bb 99 34 b0 bc 5c 02 23 3d dc b0 a2 3c
       -0.0071968595 -0.021509456 0.039797172 0.019859724
0000c0 3d ab 65 bc 2b 9f 07 3d 0e f5 80 bc 91 b9 c0 bb
       -0.014017877 0.03311078 -0.015741851 -0.0058814962
0000d0 2b 07 1a 3d ad 71 d9 3c 03 a2 38 3d 1f 15 a7 bc
       0.037604492 0.026543463 0.04507638 -0.020395814
0000e0 e9 87 f4 3c da 59 6b 39 66 5f 6e bc dd 8c e6 3c
       0.029849963 0.00022444819 -0.014549112 0.02814334
0000f0 ee 47 8b bc 0e b0 19 bd 09 d4 17 bb e0 f1 f1 bb
       -0.017002072 -0.037521414 -0.0023167154 -0.00738357
000100 1b 6e fd bc 90 c1 1c bc 73 d3 df bc 6a ed 11 3c
       -0.030936291 -0.009567633 -0.027322507 0.008906702
000110 9b 53 7b 3c 94 64 d4 bb 64 7a 66 bd 5c 00 c3 bc
       0.015339757 -0.0064817164 -0.056269065 -0.023803882
000120 db e0 d3 bc 0c 81 ca bc a8 76 df bc 47 c8 0b bd
       -0.025864055 -0.024719737 -0.02727826 -0.034126546
000130 84 b2 78 3b 6c fc 66 3d e9 fe 5a bc 73 7e eb 3b
       0.00379482 0.056393072 -0.013366439 0.007186705
000140 51 5d f4 bc 9a 35 ec bc 16 31 88 3c ff af ba bc
       -0.029829653 -0.028834153 0.016624968 -0.022789
000150 65 65 0f bd 9d 62 4e bc ba 56 28 3d fc 76 4e 3d
       -0.035008807 -0.012596753 0.041098334 0.05040644
000160 fc b3 33 3d a1 ef 95 bc 7d f2 83 bc a6 36 2a bb
       0.04387282 -0.01830274 -0.016106838 -0.0025972514
000170 75 a5 a7 bc 4b 16 98 bc 2f ac 14 bb 95 c4 95 3c
       -0.020464638 -0.018565318 -0.0022685637 0.018282214
000180 b7 9a 10 bd c8 33 78 3b d2 e3 27 bc dd 18 ad bb
       -0.035303798 0.003787266 -0.010247188 -0.005282505
000190 73 bc d0 bc 99 41 d2 3b d2 c2 a3 3d 9b 80 8d bc
       -0.025480485 0.0064165113 0.079961434 -0.017273238
0001a0 ba fd be bc 81 f9 4c 3b b4 c2 02 bd 52 45 81 bc
       -0.023314346 0.0031276646 -0.031923965 -0.015780125
0001b0 cb 24 69 bc 72 10 72 bc 2e c8 15 bd cb 48 d8 bc
       -0.0142299635 -0.014774429 -0.03656786 -0.026401898
0001c0 df f9 d5 bc 57 a3 2d 3d da ac f2 3c e3 8f 1e 3c
       -0.026120124 0.0423921 0.029623438 0.00967786
0001d0 64 22 91 3c bf 59 ed bb a4 72 f3 b9 ba fc ad bc
       0.017716594 -0.0072433646 -0.00046433986 -0.021238673
0001e0 09 6b b8 bc 8d f9 08 3d a4 9d fb 3c 20 48 23 bc
       -0.022511976 0.033441115 0.030714817 -0.009965926
0001f0 0c 40 b5 bc d7 86 67 bc c1 15 13 3c 61 8c b3 bb
       -0.022125266 -0.014131269 0.0089773545 -0.005479381

features_model.2.weight f4 [128, 128]
000000 96 7c 35 3e 8d 5f 80 bd 90 4b 87 bd 91 ff e8 3d
       0.17723307 -0.06268225 -0.06606209 0.113768704
000010 84 c3 2f 3e 1e 09 58 3d 37 7b 46 bd 49 1a 09 be
       0.17164427 0.05274307 -0.04845735 -0.13388933
000020 6a 7c 16 3c b6 49 03 3c 8f a5 9e bc 0a 69 fd bb
       0.009184936 0.0080131795 -0.019366054 -0.007733469
000030 b7 58 d6 bc e3 ce 31 3d b8 fe e2 bd f3 37 e3 3d
       -0.02616535 0.043410193 -0.1108374 0.11094656
000040 89 07 09 be de 6f ad 3d 37 17 60 bd f6 09 c7 bd
       -0.1338178 0.084686026 -0.05470964 -0.09718697
000050 59 ce d6 3d f3 7b 54 3d 0d d7 03 bb 42 90 4c bd
       0.104885764 0.05187602 -0.0020117194 -0.049942262
000060 ce 66 3d 3d af 3e f9 bd 05 73 53 bd aa 3c 8d 3e
       0.04624062 -0.12170159 -0.051623363 0.27585346
000070 c9 b1 5c b9 ba ad d9 bd 03 60 84 3b 65 86 69 3d
       -0.00021047065 -0.10628839 0.004039766 0.057012934
000080 74 27 48 3e a4 ff 99 bc 19 cc 9e b9 fe 72 12 3c
       0.195463 -0.018798657 -0.00030288173 0.008938549
000090 5c 23 c8 bd b7 fb 62 be f5 77 4e be 51 a0 0d 3d
       -0.09772369 -0.22166334 -0.20162947 0.034576718
0000a0 b8 7b 25 3e 6e 86 65 3b be 92 43 3e 6a 08 b2 3d
       0.16160476 0.0035022753 0.19098946 0.08693011
0000b0 ee 9a a8 3d d0 62 1e 3e 73 e9 2f bd ea 06 06 bc
       0.082326755 0.15467381 -0.042947244 -0.008180359
0000c0 08 fa 2a 3e 97 68 96 3e 2a 62 18 3e c2 3a 42 3e
       0.16696942 0.2937667 0.14881197 0.18967727
0000d0 00 c3 fb bd 0c 3e 24 bd b9 60 96 bd 1c e4 60 be
       -0.12293053 -0.040098235 -0.07342667 -0.21962017
0000e0 07 d3 7a bd 6a de e6 bd 0e b2 70 bd 80 b3 b6 3d
       -0.061236408 -0.11272891 -0.058763556 0.08920956
0000f0 4a 38 e4 3d 03 e9 9a 3e 8e 4b 0f 3d 89 63 73 be
       0.11143549 0.302559 0.034984164 -0.23768438
000100 d9 3a 57 3e bc f7 2f 3d 80 19 be bd 6a 5b 73 bd
       0.21018542 0.042960867 -0.092822075 -0.05941335
000110 3f 7d aa bd 86 58 ac 3d 3c d4 c3 3d ff 51 58 be
       -0.0832467 0.08415322 0.09561965 -0.21125029
000120 66 33 60 be 1b 93 0d be 4a a2 dd bd e5 2b 0c bd
       -0.21894607 -0.13825648 -0.1082197 -0.03422155
000130 b4 f7 fd bc f9 22 42 3d 49 74 c2 bd b4 f6 9e be
       -0.031001903 0.047396634 -0.09494836 -0.31047595
000140 45 02 4e 3d c0 41 ba 3d 2d 69 e2 bd dc c3 09 3d
       0.050295133 0.09094572 -0.11055217 0.03363405
000150 65 90 50 3e ef 3e 48 3e 7e 8a 08 be a0 f9 96 bd
       0.20367582 0.19555257 -0.1333408 -0.07371831
000160 1e b4 62 3d 6d bd 5d 3d 7f 16 6f be 12 e7 a6 bd
       0.055347554 0.05413573 -0.23348425 -0.08149542
000170 96 7d 34 3e 04 80 76 bd 9d 7d 07 bd 82 d5 f3 bd
       0.17626032 -0.06018068 -0.03307878 -0.11905958
000180 26 af 88 bd 8e a6 fe 3d 87 7a 55 3e 4f b1 3d be
       -0.06674032 0.124341115 0.20847522 -0.18524669
000190 c3 c9 04 3e 5f 39 c7 bb d7 36 b4 3d e6 e5 91 3e
       0.12967591 -0.006079837 0.08799522 0.2849571
0001a0 e0 73 30 3e a2 e1 8e bb 2e 81 31 be 9b 1c 0c be
       0.17231703 -0.0043603936 -0.17334434 -0.13682787
0001b0 10 29 f9 bd b1 3d 2c 3e b9 1f 4b bd f4 e9 3e 3e
       -0.12166035 0.16820408 -0.0495908 0.18643934
0001c0 4b 2b b2 bd 71 3c 3f be c3 13 3b bd c8 cb ad bc
       -0.08699664 -0.186754 -0.045673143 -0.021215335
0001d0 7d 97 20 3d 8e 4d 06 be 62 d7 37 bd 3a c8 18 be
       0.03920697 -0.13115522 -0.04488314 -0.1492013
0001e0 dd 3e 43 bd cb 8e 11 3c aa e2 96 bd bf df 59 3d
       -0.047667373 0.008884142 -0.073674515 0.053191897
0001f0 21 0e 2c bd 25 1c 7b 3d e4 c5 aa 3d 23 83 95 bd
       -0.042005662 0.061306138 0.08338526 -0.07300403
000200 cd 1b 82 bd af 81 92 3d fb d4 8b 3d 67 b7 81 3c
       -0.06352959 0.071536414 0.06827732 0.015834523
000210 66 29 94 bd 71 73 a5 3d 7d 23 8c 3d 25 c1 25 be
       -0.072344586 0.08078659 0.06842706 -0.1618696
000220 78 ae ce 3d 13 cc 85 be 17 8c 2a be 49 d4 d0 3d
       0.10091871 -0.2613226 -0.16655003 0.1019674
000230 a3 89 bf 3b 6f 9c 91 3c 52 f5 0e 3e ca 6d 88 bd
       0.005845265 0.017774789 0.1396077 -0.066615656
000240 1a 65 a1 bc d5 b5 fb 3c 3d 47 6c 3d 6a d5 c1 bd
       -0.01970153 0.030726353 0.057685126 -0.094645336
000250 c9 b2 d4 bc 9d b6 27 be cb 69 05 be c3 e9 a9 3d
       -0.025964158 -0.16378255 -0.13028638 0.0829654
000260 9a 33 94 bd 4f 75 db bd dc fc 21 be 23 2e 16 bd
       -0.07236405 -0.10715734 -0.15819114 -0.036665093
000270 5b 73 86 3e 8f 0b 2a be ac 59 b2 be 57 bc c8 bd
       0.26259884 -0.16605972 -0.3483404 -0.09801548
000280 a5 d8 57 3d b8 d4 89 3c 26 cd f9 bd 89 ce 72 bd
       0.052696843 0.016825065 -0.12197332 -0.059279
000290 4b 4f 68 3d 2b 69 22 bc 18 31 26 3e 24 1f 8f bc
       0.056716245 -0.009912769 0.16229665 -0.017470904
0002a0 ff 4c e0 3d 47 3b 4d be fe 10 73 3c 64 73 ea 3d
       0.10952186 -0.20042144 0.014835594 0.1144779
0002b0 3c c0 31 3c b5 a8 6a bd 2e 9e 36 3d 70 1a 7f 3e
       0.010849055 -0.057289798 0.044584446 0.24912429
0002c0 1d a8 12 be c8 c1 f9 3c 84 70 a6 3c 12 77 1b bd
       -0.14321943 0.03048791 0.020317324 -0.03795535
0002d0 0c ea 0d 3d e9 57 b9 3d 0f 0e 32 3c 86 17 93 3d
       0.034647033 0.09049971 0.01086761 0.07182221
0002e0 a5 12 c6 3c dc f0 dd 3d 82 6f bb bd b9 1f 21 3d
       0.024178812 0.10836956 -0.09152128 0.039336894
0002f0 69 e0 5e 3e 7e c8 55 bd 43 41 75 be 0a d6 9d 3e
       0.21765293 -0.052193157 -0.23950677 0.3082736
000300 fd 71 6f 3d db 5e 9e 3b 26 b1 38 3b 9f f4 9a bd
       0.058458317 0.004833085 0.002818176 -0.07566189
000310 29 42 b7 3c 6c 50 6e 3e aa 59 89 be 02 1d 1c bd
       0.022370415 0.23272866 -0.2682622 -0.0381136
000320 8d cf 81 3d 51 74 c0 3d 90 ab 39 be 85 d9 04 3e
       0.06338415 0.093971856 -0.18131852 0.12973602
000330 d7 18 7f 3b c1 e2 7a bc 6d ca c8 bd ef 91 f3 3d
       0.0038924718 -0.015312851 -0.09804235 0.11893069
000340 97 ae 8d 3b 21 e4 21 3e 11 c2 62 3d fc 13 96 3e
       0.0043237912 0.1580968 0.055360857 0.29312122
000350 1b e4 0c 3d f9 1a 57 bc d1 6a 2c be b1 0c 7b 3d
       0.034397226 -0.013128989 -0.16837622 0.0612914
000360 1e c2 71 3e b7 55 4a bc bc 62 44 bd 5d fd 49 bc
       0.23609206 -0.012349538 -0.047945723 -0.012328473
000370 16 3b bf 3c 07 31 99 3c c1 3d 0b 3e 10 65 12 be
       0.023343604 0.018700136 0.13597776 -0.14296365
000380 26 1d d1 bc e0 c1 db bd 2a 00 2a 3e b5 97 df bd
       -0.025526594 -0.10730338 0.16601625 -0.10917608
000390 33 dc 32 3d 7e e1 bc bd 11 af aa be 50 15 8c 3c
       0.04366703 -0.09222697 -0.3333669 0.017100006
0003a0 90 15 78 bd 29 ef 53 bd 37 49 49 be 5c e0 64 3e
       -0.06056744 -0.051741753 -0.19656835 0.22351211
0003b0 fa 77 d2 bd 85 b4 12 bd 63 1b 85 bc 9b bd 12 3e
       -0.1027679 -0.035816688 -0.01624841 0.14330141
0003c0 83 34 86 bd 04 20 4e be 5d e9 53 3d e0 1e ce bd
       -0.065529846 -0.201294 0.051736224 -0.10064483
0003d0 7c 16 39 3e d4 f5 d3 3d 29 94 0d 3e 9b eb c5 bd
       0.18074983 0.10349622 0.1382605 -0.09664079
0003e0 e7 1c 67 bc 4e 78 b0 3d bf f1 53 3e 56 ec 98 bc
       -0.014106012 0.08616696 0.20697688 -0.018667381
0003f0 2e 38 31 be bf 22 77 be 9a c0 03 bd 2e f2 83 3d
       -0.17306587 -0.24134348 -0.0321661 0.064426765

features_model.2.bias f4 [128]
000000 0d 76 b2 bb bc eb d1 3b 42 5e 0c bc 63 41 0d bd
       -0.0054462017 0.0064062756 -0.008567395 -0.034486186
000010 f2 20 79 bc 5f 7f 84 3c 0c 96 94 bb 00 00 00 00
       -0.015205609 0.016174017 -0.0045344885 0.0
000020 53 7e 57 3c 2a 39 59 b9 8a 92 99 bc f7 b3 9e 3c
       0.013152677 -0.00020716028 -0.018746633 0.019372923
000030 e0 49 2b bc 09 96 68 bc 21 4a d7 bb 02 1d f2 3b
       -0.010454625 -0.014195927 -0.006570116 0.007388712
000040 06 54 a4 bb 27 62 cd 3c 2a 45 24 bc 39 51 98 3d
       -0.005014899 0.025071217 -0.010026256 0.07437367
000050 a7 8b fd ba 12 0a 5e 3c c4 0b 9d 39 6a 5b 1d bd
       -0.0019343988 0.013552206 0.0002995414 -0.038417257
000060 59 61 07 3c e8 c6 10 bc ee 89 01 bc 06 8e 39 bc
       0.008262956 -0.008836485 -0.00790642 -0.011325365
000070 22 c9 98 bc 63 4c 81 bc 1e 2c 6f bc 7a d6 80 bc
       -0.018650595 -0.015783494 -0.014597921 -0.01572727
000080 00 5d 17 bc f3 1f 74 3d 4b 0e 1a bc 6b ff 46 3d
       -0.0092384815 0.05960078 -0.009402822 0.04858343
000090 09 ed 88 bc 1f 0a b8 bc dc f3 10 bc cb a4 b9 bb
       -0.01671459 -0.022465764 -0.008847203 -0.005665397
0000a0 bd 91 42 bc b3 a6 13 bc d5 8e d9 bc c9 0b dc 39
       -0.011875567 -0.009011912 -0.026557365 0.0004197045
0000b0 e1 5f 4a 3c 72 29 86 bc 8b 54 72 3b 29 50 4d bc
       0.012351961 -0.016377185 0.003697666 -0.012531319
0000c0 27 93 d4 bc f2 e4 09 3d 1d 79 8f bb b4 fa 34 bb
       -0.025949074 0.033665605 -0.0043784515 -0.002761525
0000d0 4a ef 9d bc a2 f3 2e 3d d9 73 3a bc c2 3a 48 bb
       -0.019279141 0.042712815 -0.011380159 -0.00305526
0000e0 04 af 2d 3d 9e 68 bb bc 8d 39 88 3c 0b 15 24 bc
       0.042403236 -0.022877034 0.016629005 -0.010014783
0000f0 84 83 80 bc 46 24 1b 3d 14 dd 07 bb 88 52 89 3b
       -0.015687712 0.03787639 -0.0020731138 0.0041907467
000100 7a ae 1a bc 0f 81 a5 bc f2 5e 9a ba 41 21 98 bc
       -0.0094410125 -0.020203141 -0.0011777563 -0.018570544
000110 50 77 94 b9 1a f6 46 3d e2 f2 fa bb ce 51 b4 3b
       -0.00028317655 0.048574544 -0.0076583484 0.005502916
000120 a4 40 90 bc 86 67 52 bc 7d 7c 8a 3c 1b e2 92 bc
       -0.017608948 -0.012842065 0.016905064 -0.017930081
000130 c5 7c 48 3c c0 b7 cf 3b 9a bb 80 3d 4c 22 9d bc
       0.012236779 0.0063390434 0.06285782 -0.019181393
000140 00 00 00 00 64 37 2d bc 0a c0 3f bc ae eb 5f 39
       0.0 -0.010572288 -0.0117035005 0.00021354735
000150 18 e7 18 bc 34 19 3d 3c 51 18 b3 bc 52 6f 59 bb
       -0.009332441 0.011541653 -0.02186218 -0.0033177924
000160 c5 af a2 3c 82 ed 3a bb 40 81 02 bd 40 d5 5f bb
       0.019859204 -0.0028522913 -0.031861544 -0.0034154207
000170 5b c5 d7 3c 67 43 9b bc 2e 56 9b bc e4 7c b7 3b
       0.026339224 -0.018953038 -0.018961992 0.005599605
000180 5b 87 25 bc a9 3a 9b bc e7 83 0e bc 86 9d bb bb
       -0.010103072 -0.01894887 -0.00869844 -0.0057255654
000190 6e e8 09 bd 7a 85 d1 bc 00 00 00 00 6a d2 eb bc
       -0.033668928 -0.025576342 0.0 -0.028786857
0001a0 ff a6 46 3c a7 5a fe bb 51 74 58 bb 92 96 fa bc
       0.012124776 -0.0077622714 -0.0033028314 -0.030589376
0001b0 e4 91 ba 3b 9a 6d 3f bc 46 77 48 3d 69 ba 0f bd
       0.005693661 -0.011683846 0.048941873 -0.035089884
0001c0 69 f7 9d bc 2a d0 91 bc 11 a1 85 bc 85 18 24 3b
       -0.019283013 -0.017799456 -0.016312154 0.002503903
0001d0 d2 2f 20 bc 39 1f 19 bb b7 6f f9 bb 97 33 c7 bc
       -0.009777026 -0.0023364557 -0.0076121944 -0.024316592
0001e0 c8 07 ee 3b c7 3f 2d bc f6 8a 5a bc b0 40 8d bc
       0.007264111 -0.010574288 -0.013338795 -0.01724276
0001f0 15 6b c0 3b f9 4c 09 3d 00 00 00 00 01 12 49 bc
       0.00587214 0.033520672 0.0 -0.012272359

features_model.4.weight f4 [128, 128]
000000 11 9a 10 3e eb e7 24 3c 7f 5c 83 3d 0c 62 63 bd
       0.14121272 0.010065059 0.064141266 -0.055513427
000010 a8 68 1e bc cb 99 62 be ea 9f 82 be 63 d7 92 3b
       -0.009668507 -0.2212898 -0.2551263 0.0044812425
000020 49 de 7e bd 62 48 01 3d 11 d3 6d bd f0 a8 1b be
       -0.062223706 0.03156317 -0.058062617 -0.15201163
000030 d2 c7 4b bd b4 1f 48 bd 92 33 2a bc 95 ca f9 bc
       -0.04975111 -0.04885836 -0.010388272 -0.030492106
000040 7a 0d 0f 3e 1a ae d8 3d 2a 6b 60 be 50 cf 9c 3d
       0.13969985 0.10580082 -0.2191588 0.07656729
000050 02 cf 69 3d ce c4 90 be b4 a5 19 be bc 9b b3 3d
       0.057082184 -0.2827515 -0.15004617 0.08769938
000060 6c 3a cf bd 76 0f b1 3d 17 8b c0 3e 4e fa 95 bc
       -0.10118565 0.08645527 0.37606117 -0.018307831
000070 6a 1e ea 3d c8 84 f6 3d 5f 8f d3 bc 88 ab c8 bc
       0.11431582 0.12037045 -0.0258252 -0.024495855
000080 34 81 4a 3d 3f 57 4b be c9 f6 45 3e 0a f7 57 3e
       0.049439624 -0.198575 0.19332422 0.21090332
000090 bb d6 3f be fd e3 71 bd 63 05 85 bc 65 2d 11 3d
       -0.18734257 -0.059055317 -0.01623792 0.035443682
0000a0 69 ca 9e bc 45 29 cb 3c ea 6f ab 3e 8f 21 09 be
       -0.019383626 0.024799952 0.3348382 -0.13391708
0000b0 da a6 9c 3d aa 84 36 3e 6b 52 e0 bc a7 cf 25 3e
       0.07649012 0.17824045 -0.02738305 0.16192494
0000c0 37 b4 60 be b2 60 05 3d 5e 86 5c 3d b0 3e 5a 3d
       -0.21943747 0.03256292 0.05383908 0.05328244
0000d0 37 07 0d bd 94 c7 0d be 03 e7 94 bd d3 69 ed 3d
       -0.03443071 -0.13845664 -0.072706245 0.1159245
0000e0 77 70 4a bd 66 81 a1 be 34 82 30 3e 45 8c 56 3d
       -0.04942366 -0.31544036 0.17237169 0.052379865
0000f0 83 7f 16 be 42 47 3c bd f3 6f 1b 3d 0f d9 13 bd
       -0.1469708 -0.045966394 0.03794856 -0.036095675
000100 66 fc 14 be ca 7d b3 bd 16 4f 1b 3d c7 34 63 bd
       -0.14549407 -0.08764227 0.03791722 -0.055470254
000110 c7 98 b2 3d 41 f2 7a 3d b6 0c d6 3d 2d 25 21 3e
       0.08720546 0.061266188 0.10451643 0.15736838
000120 aa 83 06 be 02 30 b1 bd 99 38 b0 bc 2a e2 76 3d
       -0.13136163 -0.08651735 -0.021511363 0.06027428
000130 f6 58 9b be 9f 5e fa 3c ef 97 a9 bd 14 bb 0f be
       -0.3034131 0.030562697 -0.08280932 -0.14036208
000140 ff de 59 3e 28 7d 48 3e 01 3b fb bb b6 fd 15 ba
       0.21276473 0.19578993 -0.007666946 -0.0005721705
000150 bd 17 b9 3c 8e 62 fc bd 9f 1b 95 3c 81 70 76 3d
       0.022594327 -0.12323485 0.018201647 0.060165886
000160 dd 00 73 3c c8 ab 05 be 47 0b 75 3d 94 03 28 3d
       0.014831749 -0.1305381 0.059825208 0.041019037
000170 24 73 07 be d0 e6 d5 bd 8c d2 39 bd 38 36 ce 3d
       -0.13227516 -0.104444146 -0.04536681 0.10068935
000180 de 3d 14 3d 0a c2 ad 3d be 1f 02 3b 41 67 e2 3b
       0.036191814 0.08484276 0.0019855346 0.0069092815
000190 c8 a9 33 bd 6e 85 37 bd 27 8c e3 bd 9f c6 b6 3d
       -0.043863088 -0.044804983 -0.11110716 0.08924603
0001a0 f1 37 07 bd e0 2d 47 be 8d b8 41 be db a0 00 bd
       -0.033012334 -0.19451094 -0.18918057 -0.031403404
0001b0 1a 55 04 be 00 4c 04 be 4b 35 79 3e f3 41 17 3e
       -0.12923089 -0.12919617 0.24336736 0.14771251
0001c0 2e d3 d8 3b 52 3e 98 3d b9 17 c3 bc 69 e8 5e 3d
       0.0066169715 0.07433762 -0.023815023 0.054420862
0001d0 be d9 02 be e6 74 ea 3d 2e f5 15 3e c7 63 b8 bd
       -0.12778375 0.11448078 0.1464431 -0.09003406
0001e0 c6 c9 dc 3d 6b 81 f6 bd 31 db 19 3e e4 13 6e be
       0.10780673 -0.12036403 0.15025021 -0.23249775
0001f0 02 ec 24 be 98 1b 07 be 24 6a 0f be 8b 82 24 bd
       -0.16105655 -0.1319412 -0.14005333 -0.040163558
000200 de 2d 19 bd e1 71 f3 bd d1 eb eb 3d c5 1f ac bd
       -0.037397258 -0.11886955 0.11519588 -0.08404497
000210 70 2c 07 be 73 8c 64 bd 24 d1 2a 3e 4a 11 18 be
       -0.13200545 -0.055798005 0.16681343 -0.14850345
000220 80 73 5c be a1 5b 8b bd 11 f5 09 3d dd 42 3c be
       -0.21528435 -0.06804586 0.03368098 -0.18384881
000230 29 5e 66 bd 1f 03 0d 3e 7e c7 09 3d 54 c9 91 3c
       -0.056242142 0.13770722 0.033637516 0.017796196
000240 ca 27 1e be e5 3c 8a bd 87 4d 91 3e a3 93 b0 bd
       -0.15444866 -0.06749896 0.2837946 -0.086219095
000250 5a 05 f6 3d 5c e9 ab 3d 45 8c 89 bd 2a a4 5f 3e
       0.120127395 0.08394119 -0.067162074 0.21839967
000260 cb 56 95 3d a9 54 c7 3d 1a ee ee bd e0 bb 0a bd
       0.07291945 0.097329445 -0.11666508 -0.033870578
000270 c8 ca 43 be 9e af 28 3e db 4a 52 3d fe 08 b3 bd
       -0.19120324 0.16473243 0.05134092 -0.087419495
000280 5a be 09 bd 78 11 0e be b0 35 f9 3c a2 dc e4 bc
       -0.0336288 -0.13873851 0.030421108 -0.027937237
000290 c3 e8 87 3e ef 97 3a bd 2c 48 44 bb 84 74 91 be
       0.2654477 -0.04555505 -0.0029950244 -0.28409207
0002a0 19 06 02 3c a5 1e a2 bc e8 7b a5 3d 66 97 43 3e
       0.007936024 -0.019790003 0.08080274 0.19100723
0002b0 5f bd d2 3e 7a 55 29 3d ee 19 0d bd 6e 2d 95 bd
       0.41160104 0.041341282 -0.034448557 -0.07284056
0002c0 e4 de 00 3e 89 56 69 be 87 47 1c be 80 c1 b8 be
       0.12585026 -0.22786917 -0.1526166 -0.3608513
0002d0 2c 85 85 3d bc 85 36 be 02 c7 03 3d 00 e4 54 3e
       0.06519541 -0.17824453 0.03217221 0.207901
0002e0 ec e8 1a 3e e8 23 fa bb b2 23 a8 bd 7a c6 c6 bd
       0.15127915 -0.007633675 -0.08209933 -0.09705825
0002f0 9f c8 69 3e 3d cd 81 3e 11 d8 a0 3d 85 94 cf bd
       0.22830437 0.25351897 0.078537114 -0.1013575
000300 78 c5 8b 3d 91 1b db bc 9b 39 2c bb 25 f7 b8 3d
       0.068247736 -0.026746543 -0.0026279453 0.09031514
000310 15 4d 30 3e 3d 6e 39 be d4 43 11 3e 79 50 95 3d
       0.17216904 -0.18108459 0.1418603 0.072907396
000320 f0 fd 19 bd db 30 b8 3d 97 6e 3b bd c6 45 8a 3d
       -0.03759569 0.089936934 -0.045759764 0.067515895
000330 26 6a d4 bd f9 12 be bd 43 88 a1 3d 85 bb 08 be
       -0.10371809 -0.092809625 0.07887318 -0.13352783
000340 94 31 bf 3d e0 81 a2 3a 3a e6 43 bc 89 50 f8 bc
       0.09335628 0.0012398325 -0.011956746 -0.03031184
000350 3e 07 80 3c 54 89 08 be 25 88 0a bd bd 41 46 be
       0.015628453 -0.13333637 -0.033821244 -0.19361015
000360 67 d0 0d 3e f2 76 57 3e f1 7c 2c 3d 59 c6 1c 3e
       0.1384903 0.21041468 0.04211134 0.15310039
000370 5d 93 a3 3d 41 61 32 3c 3e fd 89 bd 1f db 28 3b
       0.07987092 0.010887445 -0.06737755 0.0025765372
000380 c9 00 0a bc 41 e9 0d 3e 00 68 19 bc 57 ee 8a bd
       -0.008423039 0.1385851 -0.009363174 -0.06783741
000390 57 5c 5f 3e 40 f9 16 3d ff 87 4c be 57 73 07 bc
       0.21812569 0.036858797 -0.19973753 -0.008267245
0003a0 ea e0 ee 3d 7d 5e 12 bd a1 61 cc bb e0 67 25 be
       0.11663993 -0.035734642 -0.006237224 -0.16152906
0003b0 2c 9b e5 bd 22 6a 28 3d 23 fa 24 bd cd ef ff 3c
       -0.11211237 0.04111684 -0.04027761 0.031242276
0003c0 9f 7f b6 3d f3 ad 03 be 88 97 af 3d f4 84 a5 3d
       0.089110605 -0.12859325 0.08573824 0.080819994
0003d0 1b a9 8e bc a9 8a 99 bd e7 25 23 3e fb d3 e1 bd
       -0.01741462 -0.074971505 0.15932427 -0.1102676
0003e0 c6 77 3d 3e f0 da 60 3d b1 1e 42 bc ac ee 90 bd
       0.18502721 0.054896295 -0.011848138 -0.07076773
0003f0 fd de 01 be 7c c7 e4 bd 20 e7 0c bd d0 9a 56 3e
       -0.1268272 -0.11170861 -0.034400105 0.20957494

features_model.4.bias f4 [128]
000000 bc ab ad bc 1e 93 51 bc 6c f7 81 bc e2 e1 97 bc
       -0.021200053 -0.012791423 -0.01586505 -0.018540327
000010 97 18 46 3c a1 ad 2f bc cb 23 52 bc 20 5e f7 bb
       0.012090824 -0.010722549 -0.0128259165 -0.0075490624
000020 03 c2 94 bc 1e f0 ab bb a1 ef 7f bb 13 f3 1b 3d
       -0.018158918 -0.00524713 -0.0039052742 0.03807361
000030 d8 22 36 bc 9b dc 9a 3c 5d 4b 8b 3a 1f 92 c9 bc
       -0.011116706 0.018904021 0.0010627318 -0.024605809
000040 e9 dd 38 bc 09 a4 11 ba 4e 99 f6 bb 92 83 1e 3d
       -0.011283376 -0.0005555754 -0.0075255996 0.038699694
000050 2d 03 d3 ba c7 01 45 3d f2 ca db bb cd 5b 0d bc
       -0.0016098969 0.048097398 -0.0067075426 -0.008627844
000060 f0 36 0c 3d 1b 5f 07 bc a5 71 5b bc 10 77 d5 b8
       0.03423208 -0.008262421 -0.013393794 -0.000101788086
000070 4c e3 b4 bc 91 94 ab bb 1c b5 99 3c 3b 00 ea 3a
       -0.02208104 -0.0052362164 0.018763117 0.0017852852
000080 00 8f 3d bc 7b b5 17 3d 73 a1 2a bc df 24 0a 3d
       -0.011569738 0.037038308 -0.010414469 0.03372657
000090 cc 52 3f 3b 00 00 00 00 ef 65 0d 3c 11 51 a2 bc
       0.0029193638 0.0 0.00863026 -0.019814046
0000a0 b3 ba 08 bc e2 af 22 bc b9 46 32 3c b8 26 43 ba
       -0.008345294 -0.009929629 0.010881119 -0.0007444429
0000b0 99 05 62 bc 3a 04 38 bc 44 f5 c6 bb c3 2a ec 3c
       -0.01379528 -0.011231476 -0.0060717184 0.028828984
0000c0 e1 45 d3 bc 00 00 00 00 ca d3 0d bc 7f 43 a5 bc
       -0.025790157 0.0 -0.0086564515 -0.020173786
0000d0 df ad 62 bc 93 cc cb 3b d0 f9 98 bc 55 d3 5e bc
       -0.013835399 0.0062194555 -0.018673807 -0.01360019
0000e0 00 00 00 00 c8 f6 d2 bc 86 c4 b9 bc ef 8d a0 3b
       0.0 -0.02575244 -0.022676717 0.0048997323
0000f0 6e ca 6a ba d0 96 55 bc 11 4c 1a bc 89 9f be bc
       -0.0008956556 -0.013036445 -0.00941755 -0.023269432
000100 fa 3b 1f 3d 2a 5d 35 3c 13 4b 6d 3d c1 16 3c 3c
       0.038875557 0.011069575 0.057932924 0.011480034
000110 80 08 10 bb a1 c2 98 3c 8f 7b a3 3c 89 64 80 bc
       -0.0021977723 0.018647494 0.019956378 -0.015672939
000120 ff b7 17 bc a9 41 ab bc 41 b1 23 bc 8d d0 76 3c
       -0.009260177 -0.020905333 -0.009990991 0.015064371
000130 b6 bb 9f 3a f0 27 af 3c f0 52 72 3b 34 5c 5d bc
       0.001218668 0.021381348 0.0036975704 -0.0135107525
000140 2f ac 63 3c ab 0c 26 3b b2 a3 94 3c 49 c8 89 bc
       0.013896032 0.002533714 0.018144462 -0.016819136
000150 ef d2 7a bc 22 dd 69 bc 0b 90 d0 3c 62 00 70 3d
       -0.01530908 -0.014273914 0.02545931 0.058594115
000160 0c 75 98 bc 72 70 c5 bc 78 30 70 bc 58 dc c6 b9
       -0.0186105 -0.02410147 -0.014659993 -0.00037929672
000170 e5 20 6c 3b 4d b0 bc bc 24 20 a7 3a 75 4f bb bc
       0.003603035 -0.023033286 0.0012750668 -0.022865037
000180 f8 65 90 bb 04 bd cf 3c a7 54 26 bc f0 80 ea 3b
       -0.004406687 0.025358684 -0.010152019 0.007156484
000190 bf ed bc bc a5 de c0 bc f2 50 1a bb ba 67 47 3c
       -0.023062585 -0.023543665 -0.0023546782 0.012170726
0001a0 0d 70 98 3c c6 dc d0 bb 8f d5 38 bb 89 0f 70 bc
       0.018608117 -0.0063739745 -0.0028203463 -0.014652141
0001b0 3a ad 10 3a 47 e1 b1 bc 3d e9 2e bc eb 26 83 bb
       0.0005518977 -0.021713866 -0.0106757255 -0.004002442
0001c0 78 2f 0e 3b 6f e4 d7 bb 77 e2 9f bc 02 31 c7 3b
       0.0021695774 -0.0065885107 -0.019517167 0.0060788402
0001d0 48 9f 8b bc 53 8d 09 3d 3c 88 79 bc 40 6f 5a 3d
       -0.017043725 0.033582043 -0.015230235 0.053328753
0001e0 2b 85 2b bb d8 db f8 3c e2 dd 01 3a 00 00 00 00
       -0.0026171904 0.030378267 0.00049540226 0.0
0001f0 9c 14 5c 3d 16 ee 49 3d 19 08 4e bc 4d 1b e7 3c
       0.053730592 0.049299322 -0.012575173 0.02821126

policy_model.0.weight f4 [128, 128]
000000 50 95 f9 3a 46 91 22 3b de 44 e9 ba d9 a7 c2 ba
       0.0019041691 0.0024805828 -0.0017797013 -0.0014851048
000010 2c 66 0f ba 29 0a 0c bb 96 4e 29 bb 71 90 a8 ba
       -0.0005470242 -0.002136836 -0.0025834194 -0.001286043
000020 ec 6a e7 ba f0 7b d8 3a 02 c1 97 ba b4 50 f2 ba
       -0.0017655767 0.0016516428 -0.0011577907 -0.0018487186
000030 18 59 0f bb 88 02 8b 39 70 91 28 bb e2 39 d6 ba
       -0.0021873172 0.00026514032 -0.0025721453 -0.0016344155
000040 75 70 3f bb b9 63 e0 39 76 4f 9c ba 4a 5e 65 bb
       -0.0029211317 0.00042798909 -0.0011925537 -0.0034998828
000050 6f 8f 41 3b 44 01 96 bb 95 3f 19 bb ae f4 e3 38
       0.0029534956 -0.0045777876 -0.0023383845 0.000108697786
000060 b8 a6 1e 38 b1 dc a7 ba 95 f6 9e ba 8b a7 bc ba
       3.7825404e-05 -0.001280686 -0.001212793 -0.0014393193
000070 ec e0 f1 ba 25 20 af 3a a6 58 ae bb 89 61 db b8
       -0.0018453873 0.001336102 -0.0053206263 -0.00010460901
000080 70 e4 d2 b8 b3 00 71 bb d5 f3 de 39 4f 02 8d bb
       -0.0001005613 -0.0036774098 0.0004252481 -0.0043032537
000090 38 be b9 b8 9c 86 70 ba cf b9 a6 bb 59 f2 3e bb
       -8.8569184e-05 -0.0009175332 -0.005088068 -0.002913615
0000a0 d3 40 56 b9 c3 43 82 ba d4 00 40 ba d2 b9 1d 3b
       -0.0002043278 -0.0009938407 -0.0007324342 0.0024067056
0000b0 fd 5b 3d 39 14 4c 9c 39 a9 37 d6 3a ec 06 68 ba
       0.00018058713 0.0002981132 0.0016343492 -0.0008851129
0000c0 c9 f1 30 ba 05 46 96 ba f1 37 f8 ba 24 ee 08 bb
       -0.0006749896 -0.0011464959 -0.001893757 -0.0020893896
0000d0 32 d7 9f ba 66 41 96 3a ce 8f f5 ba 7e 2f 37 3a
       -0.001219487 0.0011463582 -0.0018734874 0.0006987973
0000e0 c4 f8 30 ba fb 8e 60 bb 11 bf fa ba 30 7a 1c bb
       -0.0006750936 -0.003426491 -0.0019130429 -0.002387654
0000f0 48 11 ea ba f2 06 d8 ba 67 0c 40 ba 3a f1 4a ba
       -0.0017857933 -0.0016481562 -0.0007326067 -0.0007741634
000100 95 c9 8c 3a 4a 68 ef 3a 70 79 3a 3b 85 15 1e bb
       0.0010741228 0.0018265333 0.002845373 -0.0024121713
000110 f0 e7 87 38 59 82 ea bb 58 21 b6 bb 5b f5 bd ba
       6.480503e-05 -0.007156652 -0.005558174 -0.0014492677
000120 7b 71 f9 3a 47 da 76 3a 2f 40 28 bb 54 a9 a3 3a
       0.0019031012 0.0009416681 -0.0025673022 0.0012486377
000130 41 43 a7 b8 d3 7c fa b9 e7 e8 be 3a aa 29 e6 ba
       -7.9757076e-05 -0.00047776717 0.001456526 -0.0017560024
000140 24 08 70 3a ea f4 5d 39 92 df ee b9 7f 56 85 ba
       0.00091564865 0.0002116744 -0.0004556147 -0.0010172873
000150 43 a4 0e bb e7 89 0c 3b 78 fe 08 bc de 37 d0 bb
       -0.0021765388 0.00214445 -0.008361451 -0.006354316
000160 da 49 e4 ba 56 82 43 3b 92 88 dd ba 43 71 39 bb
       -0.0017417029 0.0029832325 -0.0016901663 -0.002829627
000170 9c fc c7 3a ae 1f 38 bb e1 e0 80 ba ce b4 5a 3a
       0.0015257779 -0.0028095054 -0.0009832644 0.0008342982
000180 22 24 83 ba dc ad b9 bb 7d 6f f5 3a 37 44 3b 39
       -0.0010005275 -0.0056664776 0.0018725243 0.00017859122
000190 99 20 5f 39 6a 03 ea ba 6e f8 24 ba 57 ed 20 39
       0.00021279081 -0.0017853801 -0.00062931224 0.00015347205
0001a0 46 4a b0 ba 5f 16 e7 ba 1c f7 b9 3a 4e 8c 1b bb
       -0.001344987 -0.0017630568 0.0014188024 -0.002373475
0001b0 93 da 02 3a c5 3a cd b9 1f 09 a3 3a 6a 95 34 bb
       0.00049916765 -0.00039144434 0.0012438631 -0.0027554878
0001c0 d2 ab 90 b9 a1 59 56 bb dd ad a8 39 21 ec 29 bb
       -0.00027593836 -0.0032707232 0.00032172995 -0.0025928097
0001d0 58 e8 f6 ba 41 9c e5 bb 8a 8a c4 ba 8b 64 97 bb
       -0.0018837554 -0.0070071523 -0.0014994901 -0.00462014
0001e0 06 63 0c bb d3 77 e1 bb 93 7b 82 37 a5 71 27 39
       -0.0021421327 -0.0068807392 1.5554751e-05 0.00015968697
0001f0 08 9e c6 bb 64 88 91 bb 76 77 35 b9 d0 c8 ec ba
       -0.0060613193 -0.004441308 -0.00017306008 -0.0018065218
000200 1f 90 4d bd 39 37 14 bc 8a c1 f6 bb b3 98 04 bc
       -0.050186273 -0.009046369 -0.007530396 -0.008093047
000210 b5 da 1a 3d 01 72 ab ba 13 34 88 38 30 06 01 bc
       0.03780623 -0.001308024 6.494685e-05 -0.00787501
000220 36 f4 86 3c c5 49 7b bc e5 78 36 bc d1 bb f0 3c
       0.01647387 -0.015337412 -0.011137222 0.029386433
000230 dd 60 c3 3c c6 27 6f 3c a2 b7 18 3d c6 66 a5 3b
       0.023849899 0.014596885 0.0372845 0.005047652
000240 4f c1 9e 3c bd 69 63 3c e3 cc 17 3a 62 96 3b 3d
       0.019379286 0.01388019 0.00057907234 0.045797713
000250 e1 3c 1d 3b bc dd 64 3d 1e de 2d bc b0 5c c6 3b
       0.0023992585 0.055875525 -0.010612039 0.0060535297
000260 44 c9 3f 3d c3 ba ff 3b 19 32 ce 3b 6c 11 df 3c
       0.0468228 0.007804246 0.006292593 0.027229987
000270 fc 31 ef bb 73 da 8c bc f7 2b 42 3d ec 61 fb 3c
       -0.00729966 -0.017194008 0.04740521 0.030686341
000280 9c eb b5 bb f0 78 4c bb b9 04 c0 bb 34 02 52 3d
       -0.0055517685 -0.0031200014 -0.005859938 0.051271632
000290 c4 a4 9c bc 54 97 0c ba 07 8e 2c 3d 50 71 d7 bb
       -0.019121535 -0.0005363126 0.042127635 -0.006574787
0002a0 87 2a 52 bc cf b3 81 3c 43 de 14 3d 89 06 0c bc
       -0.012827522 0.01583281 0.036344778 -0.00854648
0002b0 70 57 0c 3b 06 c2 92 3c 58 cd b8 bc c3 82 42 3d
       0.0021414421 0.017914783 -0.022558853 0.047487985
0002c0 a6 b2 f0 3b 19 17 65 ba 88 30 05 3c 0f 66 45 3c
       0.0073455153 -0.00087390986 0.0081292465 0.012048258
0002d0 90 88 a5 bb 82 07 b5 3c 39 5d c8 bb 17 33 f5 bb
       -0.00505168 0.022098307 -0.0061146286 -0.007482897
0002e0 8a 44 12 39 ce db 82 bc 95 fd d8 3b 18 8a 0b 3d
       0.00013949178 -0.015973952 0.006622026 0.034067243
0002f0 f5 fd 3f 3a d5 08 dc 3b de be d6 b9 9b 9b 4e bb
       0.00073239143 0.00671492 -0.00040959468 -0.0031525854
000300 dd e6 65 bd 59 f9 ed 3c 54 80 0d 3d 62 a5 21 bc
       -0.05612837 0.029049562 0.03454621 -0.0098660905
000310 e8 84 84 3a fd 73 20 3d 2a f2 43 3d a9 6a da 3c
       0.001011041 0.039173115 0.047838368 0.026662188
000320 6d 6f 85 ba 2a e9 9a bc df ae 0a bc ef 1a 4a 3d
       -0.0010180302 -0.01891001 -0.008464544 0.049342092
000330 f1 35 9e 3a 56 c9 65 3d 11 cc a4 bc d9 d0 ac 3b
       0.0012070519 0.056100212 -0.020116838 0.00527392
000340 95 c1 91 3c ec bd 13 bd d6 fd 9b bc 83 a4 01 bc
       0.017792502 -0.036069795 -0.019041937 -0.007912758
000350 9f 98 55 3b b7 98 d1 bb 47 58 17 3d 0f 16 ea 3c
       0.003259219 -0.006396379 0.036949422 0.028574971
000360 e0 b9 87 bc be d3 91 bb 20 53 f3 3c 5d 53 96 b9
       -0.016568124 -0.0044502905 0.029702723 -0.0002867234
000370 60 b9 9f 3c ee 70 74 bc 93 78 56 3a 67 d3 b8 bc
       0.019497573 -0.014919503 0.0008181419 -0.022561742
000380 bb 07 d1 3c a7 da 37 3d 7e 44 34 bb 70 86 d3 bc
       0.025516381 0.044886257 -0.0027506645 -0.02582094
000390 fd 10 3f bc 13 34 12 3c 7d 00 e9 3c 01 ae 3e 3d
       -0.011661765 0.008923548 0.028442616 0.04655266
0003a0 b2 1b 24 bb 27 17 40 3d 52 9a 18 3d d7 4a 22 3c
       -0.0025040922 0.04689708 0.037256546 0.0099055385
0003b0 7a 87 a7 bc 8d cb ac bb 48 b1 56 bc 9b 8f 26 bc
       -0.020450342 -0.0052732886 -0.013103791 -0.010166074
0003c0 48 cc 29 3d 99 0c db 3b 7e fa 4a ba 8e dc 96 b8
       0.041454583 0.0066848514 -0.0007743015 -7.193639e-05
0003d0 fa 8d 3c bc 24 c2 43 3d 12 6a 4e 3c ef 95 e3 3c
       -0.011508459 0.04779257 0.012598531 0.027781455
0003e0 99 33 db ba fb df 43 3d e0 4e 30 3c 72 25 3f ba
       -0.0016723751 0.047821026 0.010760993 -0.00072916516
0003f0 df 30 1f 3d d7 68 2f 3d e7 d3 83 bc 6d d7 68 3d
       0.038864966 0.042824592 -0.016092254 0.05684607

policy_model.0.bias f4 [128]
000000 c7 a6 95 ba 7c 14 29 3d 73 61 c4 ba de 70 3d 39
       -0.0011417501 0.0412793 -0.0014982655 0.00018066491
000010 38 ad b5 37 c4 61 1c b9 0e 4f 7d bb 1c a8 59 bb
       2.1657543e-05 -0.0001491374 -0.0038651857 -0.0033211773
000020 74 db d2 3a 56 8b c4 ba c5 bc c4 ba 15 bd 0f bc
       0.0016087131 -0.0014995139 -0.0015009871 -0.008773108
000030 65 d8 09 bc d7 30 66 3c ef 6d 30 3b a8 60 b4 39
       -0.008413409 0.01404973 0.0026920994 0.0003440429
000040 ae ea e2 3b ce 25 1c bc f3 20 c4 ba 3b 16 bf ba
       0.0069249487 -0.009530498 -0.0014963433 -0.0014578769
000050 5c bd a7 bb 5d ff 9b ba 29 23 f9 3b e2 d1 c7 b9
       -0.005119009 -0.0011901666 0.0076030684 -0.00038112613
000060 b6 d4 de bb ee b8 c4 ba 2a 63 dc bb fc d7 bf bb
       -0.0068002595 -0.0015008727 -0.0067256885 -0.0058546048
000070 f4 a1 a4 ba 15 67 c4 ba e0 40 ee ba 09 38 d0 bb
       -0.0012560473 -0.0014984334 -0.0018177293 -0.006354336
000080 9a 3c b9 bb 5b de 92 39 15 b0 c4 ba 7c 1f 87 39
       -0.005652976 0.00028012958 -0.001500609 0.00025772664
000090 46 e1 5e ba e1 2d 9d ba 3b b4 1d bc a5 cf 1c bc
       -0.0008502196 -0.0011991822 -0.00962549 -0.009570991
0000a0 8c 10 07 3d 10 87 f7 bb 88 0b cc 3b 9f 86 c4 ba
       0.032974765 -0.0075539425 0.0062269606 -0.0014993733
0000b0 92 1f a8 ba da 54 dc 3b 24 0e fe bb d5 0c d9 ba
       -0.0012826791 0.0067239823 -0.0077531505 -0.001655961
0000c0 ec 25 26 bb f5 99 26 3b 11 86 90 bb eb c0 b3 ba
       -0.0025352193 0.0025421355 -0.004410513 -0.001371411
0000d0 1d 50 76 bb 51 ec 83 3b b9 40 b8 bb 00 00 00 00
       -0.0037584372 0.004025974 -0.00562295 0.0
0000e0 00 00 00 00 fc 61 09 bb fd 91 19 bc 18 36 a7 ba
       0.0 -0.0020962944 -0.009373185 -0.001275721
0000f0 10 e6 f1 bb d6 2d c3 ba 28 38 c4 ba 21 b0 78 3b
       -0.007382162 -0.001489098 -0.0014970349 0.0037946778
000100 74 6d 3c 3b 69 b4 c4 ba bb f0 e5 ba 48 f7 c7 bb
       0.0028751763 -0.001500738 -0.0017543057 -0.0061024763
000110 d2 e1 42 bb fd 31 8c bb d6 c3 11 bb 92 9c d3 ba
       -0.002973665 -0.00427842 -0.0022241971 -0.0016144684
000120 fd 62 83 ba 76 ae a9 bb de 6c d2 3a 52 75 76 bb
       -0.0010024008 -0.005178268 0.0016054173 -0.003760655
000130 0c 4a c4 ba 88 4c dd bb 91 91 d1 bb 1d 9e c4 ba
       -0.0014975681 -0.006753508 -0.0063955267 -0.0015000735
000140 a2 e6 21 bb 60 b4 ff bb c9 7e 14 bc 14 b0 0b ba
       -0.0024704118 -0.007803485 -0.009063431 -0.0005328667
000150 a1 c9 ab 3b 12 74 98 ba 7c 9c 5b ba b3 60 98 3d
       0.005242542 -0.0011631271 -0.0008377505 0.07440319
000160 16 9b 95 bb 16 41 0e bc 84 56 c4 ba e1 06 6b bb
       -0.004565607 -0.00868251 -0.0014979397 -0.0035862254
000170 72 ef a1 b9 46 b6 f6 ba 58 cf fb ba 0e 0f d9 ba
       -0.00030886714 -0.0018822632 -0.0019211574 -0.0016560273
000180 0e 8a 09 bc 64 8c c4 ba 88 11 e2 bb 94 84 df bb
       -0.008394731 -0.0014995453 -0.0068990625 -0.0068212245
000190 e6 65 1e 3b 4a 9a 83 bb f6 6c 42 bb ab 4e a7 bb
       0.0024169623 -0.0040161954 -0.0029666997 -0.0051058135
0001a0 e9 0f d1 bb 24 24 be 3b c4 5e 70 3c cd 80 89 bb
       -0.0063800705 0.005802648 0.014671031 -0.0041962625
0001b0 b9 80 a7 ba cf 94 c4 ba d9 13 a4 ba 6c ae 6a bb
       -0.0012779451 -0.0014997962 -0.0012518122 -0.003580953
0001c0 d6 e9 02 bb 86 59 e7 b8 3d 57 34 ba 58 f6 d8 ba
       -0.0019975803 -0.000110316134 -0.00068794546 -0.0016552908
0001d0 5d be d9 ba d4 de e6 bb 66 81 a0 ba c1 98 c2 ba
       -0.0016612519 -0.007045606 -0.0012245595 -0.001484655
0001e0 4f bf cd bb 15 b1 53 3c ce d0 a8 ba 65 c1 64 3b
       -0.0062789093 0.012920638 -0.0012879611 0.0034905311
0001f0 e2 ef 6a bb 43 68 6b bb 70 9c c8 3b e6 bc 48 bb
       -0.0035848548 -0.00359203 0.0061221644 -0.003063017
