results/short_race/second_iteration_training/model807.pt (torch, 276107 bytes, 13 tensors)

features_model.0.weight f4 [128, 4]
00000000: 490e 5d3c a232 263e 4477 9d3d 57ef a0be
00000010: 8e96 023d 8b7d 96bd a8a4 71b7 c0ee f93c
00000020: ccc5 243e 83cb bd3c 2db7 09bd 0022 963e
00000030: a110 3b3e 5ca5 cbbd 72e8 67bd c323 cfbd
00000040: 45d5 463d 3a98 943b 4459 493d 72b2 01bd
00000050: 0d22 483d 04bd 6d3d c486 753e c6ba 4abe
00000060: 40ca e7b7 2c13 e5bc 9213 da3d 9948 a63e
00000070: 7f77 8d3c b04b 4abc d965 953d ebb8 a23e
00000080: 150c 3ebe dcac c63d 709c fd3d 2e9e 9c3b
00000090: 6222 893c 3acf 353e db27 653d d6b5 b9be
000000a0: 5de6 733d dbe9 533e fa27 3e3e 96c2 253e
000000b0: 9f6d 1b3e 0afd f0bd 21a7 303e 4f5e 643d
000000c0: 79e2 103e d9d3 9d3e 46fc 0e3d 3a77 c8bd
000000d0: 8b95 25be a67d 1cbd 0c4c 18be ffae 8e3c
000000e0: 19c0 bfbd 5576 8e3e d22a 0cbd 2b4c 0d3e
000000f0: d8bd 53be 6fac a9bc 2523 98be 634e 823d
00000100: dc11 f93d 98ad 97bc 457d d33c d67e 00be
00000110: 7804 5fbd 5d1b 79be bf4d fdbd 2057 5cbd
00000120: 5440 07be 50f5 683d a142 a7bd 7a4f e5bd
00000130: 47b9 95bd df33 0ebe 8f32 84be 7e4c 4bbe
00000140: 63e4 b03d 686b a2bd b7ea fbbd bde1 4c3d
00000150: d741 72be 1402 31be eb70 403e 6246 82bd
00000160: bf67 5d3d 2ef9 413e 1a56 a3bd b44c 05bd
00000170: 31a8 67be e448 b6bd 9237 dcbd 92dd 943d
00000180: 3923 2a3d 8dbe 113e c7f1 103e 8d1e a3be
00000190: fa90 c0be 8678 58be 8127 9b3d 8e38 b3bd
000001a0: 3849 773e 525c b33e 0e3c cbbc 6902 393e
000001b0: e329 b0bd 6ada a2bd 4c62 d7bd 7f3f bfbc
000001c0: 61a2 563c 0694 9dbc cead 92bd ed3a d13e
000001d0: 6a4f ce3d 0691 b73d 65f8 e9bd 3769 88bd
000001e0: 9cfb 313e 26c6 f53d 0953 323e 14ac ec3d
000001f0: 5ef5 e53d 9bb7 713d bc4f ea3d 8110 6a3e
00000200: 64b7 4a3e 23be 92be 63ba 743d 799f dc3d
00000210: 53f5 3c3e 021b 5fbc 5f6d 073e d68e 85bc
00000220: 5852 a43c e3f2 0a3d 4a23 743e 37fe 973e
00000230: 9970 b33d cb6c 10be 576c 4f3b fc2a 3dbe
00000240: ab0b a0bd 1174 e2bd 54bf cd3d 9dcf 7bbc
00000250: c20e 91bd 56b7 c3bd a38e 0abb 7fa3 b43d
00000260: d0c4 18be cc77 0a3d c5df 973d f448 673e
00000270: 322e 2f3d 5ead 413c 677d 0b3e 8b21 c83e
00000280: 5c9f e1b9 b837 85bc b1a9 92bd 6e38 b13e
00000290: 792a 2cbd 6fe4 92bd 4fa6 ce3c 54bf 71be
000002a0: b7af 9b3d a964 5fbd 2c75 dcbc 9110 f5bd
000002b0: 467c fabd 065d f63d 51da 083e c377 683c
000002c0: 5afe 1c3d 1915 753e 4e8d 423d 77cd 34bd
000002d0: c9d7 1fbd 8596 a6bd 858a 91bd 5bbf 143e
000002e0: 51ea ca3d cf05 0f3c 1885 c93e cef5 cdbd
000002f0: 6832 a23b ec69 9f3c 5362 fd3d b556 ee3c
00000300: c80c 55be 9b24 98b9 e766 16be a2a6 3a3c
00000310: d15b 6f3e 14a5 02be 4d5b 5e3d 788e 053e
00000320: b989 51be 84b1 a6bd 4706 d23c 1b6a b33d
00000330: f310 99be daa5 103e 529f 3f3e da8c b73c
00000340: 024a 4e3e 0304 ac3e 1ad2 7bbd 2097 41bd
00000350: 9c20 613e 0eb6 80bd fff9 0bbd 2c63 06bd
00000360: 4795 653d 6bd6 b93b 1111 e13d 49cf 493d
00000370: fb8e 023e 5b80 0abc 414f 4e3e 7e8e d63e
00000380: ce85 113e 5d54 2d3d d4b3 f93b 0c96 c6bd
00000390: 96c9 ffbb fc44 113e a928 093e b845 013c
000003a0: ab51 94bd 623f a43c 8e79 6fbd 115a f73c
000003b0: d675 073e 09d3 7d3d a203 163e 74bf 983e
000003c0: 02fc c0bc e4e6 1a3d 7226 9d3c bb89 7a3e
000003d0: 7cdb 2d3c 77ba 92bc bfe3 0ebe 2fea 983e
000003e0: 9d71 af3b 5d18 d53d 1a7d 813d 6085 acbe
000003f0: cf28 50be 6045 453e 7aa4 febc 210d 16be
0.013492175 0.16230252 0.07688764 -0.31432602 0.03188186 -0.07348164 -1.4403056e-05 0.030509353
0.16091079 0.023168331 -0.033621956 0.29322815 0.18268062 -0.09943649 -0.05661816 -0.10114243
0.048543233 0.0045347484 0.049157396 -0.03166432 0.0488606 0.058041587 0.2397719 -0.19797811
-2.7631526e-05 -0.027963243 0.10648264 0.32477263 0.017268894 -0.012347147 0.072948165 0.31781706
-0.18559296 0.09700939 0.12383354 0.0047795987 0.016740028 0.17754832 0.055946212 -0.36271542
0.059545863 0.20694678 0.18569937 0.1618751 0.15178536 -0.11767013 0.17251255 0.055754002
0.14148892 0.3082569 0.034908555 -0.09788366 -0.16170327 -0.038205765 -0.1487276 0.017417429
-0.093628116 0.27824655 -0.034220524 0.13798587 -0.20677888 -0.020712106 -0.29714313 0.06362607
0.121616095 -0.018515393 0.02581657 -0.12548384 -0.05444762 -0.24326845 -0.123683445 -0.053794026
-0.13208133 0.056874573 -0.08167005 -0.111967996 -0.073107295 -0.13886975 -0.25819823 -0.19853398
0.08637311 -0.07930642 -0.12300628 0.05001997 -0.23657928 -0.17285949 0.18793075 -0.06361081
0.054054018 0.18942711 -0.07975407 -0.032543853 -0.22622754 -0.089006215 -0.10752787 0.07268824
0.041537497 0.14232846 0.1415473 -0.31859246 -0.37610608 -0.21139726 0.07575894 -0.08751021
0.24149024 0.35031372 -0.02480891 0.18067326 -0.08601739 -0.079518154 -0.105167955 -0.023345707
0.013100238 -0.019235622 -0.07162057 0.4086527 0.10073741 0.08963208 -0.114243306 -0.06660693
0.17381138 0.120006844 0.17414488 0.11556259 0.11228441 0.05901299 0.114409894 0.22857858
0.1979652 -0.28660688 0.059748065 0.107726045 0.18452959 -0.013617279 0.13225316 -0.016303461
0.020058796 0.03392304 0.23841587 0.29686138 0.08761711 -0.14104001 0.003165027 -0.18473428
-0.078147255 -0.11057294 0.100462586 -0.015369323 -0.07082893 -0.09556453 -0.0021142147 0.08820247
-0.14918828 0.033805653 0.074157275 0.22586423 0.042768665 0.011821119 0.13622056 0.3908809
-0.00043034076 -0.01626192 -0.07161272 0.34613365 -0.042032693 -0.071724765 0.025225786 -0.23608142
0.07601874 -0.054539356 -0.02691134 -0.119660504 -0.122307345 0.120294616 0.13364531 0.01418871
0.038328506 0.2393383 0.04749804 -0.04414126 -0.039024148 -0.08134178 -0.07106499 0.14526121
0.099079736 0.008729412 0.39359355 -0.10056649 0.0049498565 0.019459687 0.123722695 0.02909408
-0.20805657 -0.00029018972 -0.14687692 0.011392267 0.23374869 -0.12758285 0.05428629 0.13042629
-0.20462693 -0.08139327 0.025637759 0.087604724 -0.29895744 0.14125767 0.1871312 0.02240603
0.20145419 0.3359681 -0.061479665 -0.047263265 0.21985096 -0.06284724 -0.03417396 -0.03280942
0.056050565 0.0056713126 0.10989583 0.04926995 0.12749855 -0.008453454 0.2014742 0.41905588
0.14211199 0.042316783 0.007620314 -0.09696588 -0.0078060133 0.14186472 0.13394417 0.007890157
-0.072421394 0.020049755 -0.058465533 0.030194314 0.13228545 0.061968837 0.14649823 0.29833567
-0.023557667 0.03781785 0.019183371 0.24466603 0.010611411 -0.017911179 -0.13954066 0.29866168
0.00535412 0.104050376 0.06322689 -0.33695507 -0.20328067 0.19264746 -0.031084288 -0.14653446

features_model.0.bias f4 [128]
00000000: 7d5a 073e 061d f33b 2511 e13d ddf2 0ebd
00000010: 5d0e 3b3e a69b c73d f7f0 0c3e b79d 1c3e
00000020: 6703 983d 4a83 103e 440f 3e3e d555 f5bb
00000030: 7922 db3d 1bcf 34bd 7eff 8c3d f60e d93d
00000040: 3f80 bf3d fb66 c5bc 2f0f 78bd 5268 8dbb
00000050: e209 143d 259f e4bd 5456 ff3d ddfb 63bc
00000060: 3077 303e 53e8 27bd 4325 603d d917 5a3c
00000070: 7428 323e 051b 103e 8673 073e 8696 293e
00000080: 0ed2 173b c25a b73d 3264 2d3e 157c 283d
00000090: 5763 7b3d d383 ebbc 4dbc 163e 5f26 1e3e
000000a0: ba03 463e 4a25 073d 96ad d13d e0b5 823d
000000b0: 31c6 ea3d 1c77 afbc 2518 943d c994 f03d
000000c0: 502b f0bc 0edf 773d 4c28 6ebd 0e4d aa3d
000000d0: 9eb6 d13d d4cf a93d 32d8 303e 91a9 ae3d
000000e0: f223 e63d 2328 a83d 6d8c 6fbc 192a 2f3e
000000f0: 9933 1a3e 506c 2bbd 687e 1c3e 5407 e83d
00000100: a7a2 ce3d 1a5b 443e a883 ee3d 8636 1d3e
00000110: b557 013e 551b a03d f51f 8fbd 6981 9ebd
00000120: 1165 72bc 2556 f83c 0f87 0f3e f513 55bd
00000130: 6b9d 58bc c825 ae3d 6872 143e a556 3a3d
00000140: af39 c63d 17a3 98bc a8c9 053e ac06 a33d
00000150: b5ca a8bc ec13 e33c 4de2 5c3e 32a9 d73d
00000160: 5142 df3d c76d 98bc 11aa 7dbc 4b8a 683d
00000170: f675 43bc 61a4 603c 6a82 2d3d c669 083e
00000180: 1159 39bd 1923 9fbc 9446 603d 58be dd3d
00000190: 1ade d9bc 2b98 353e 0dcc 5e3e 558b db3d
000001a0: bb94 f23d dd53 3a3e abe8 2b3e fb7f 0c3e
000001b0: cb24 69bc 7a17 dcbc 7b90 fd3d c9a6 173e
000001c0: 008f 34bd d665 b43d 589a e33d 7e46 2d3e
000001d0: 93d8 423e 4c32 61bb 0bb1 ea3d 9aac f7bc
000001e0: 5b58 70bd ab05 653e 843b c43d fda5 7e3d
000001f0: 006e 1c3e 4cd2 033e eddb 223e 8aa0 bbba
0.13218112 0.0074192313 0.10989598 -0.03489958 0.18267198 0.097464845 0.13763796 0.15294538
0.07422524 0.14112583 0.18560511 -0.0074870386 0.106999345 -0.044142824 0.06884669 0.10598557
0.09350633 -0.024096956 -0.060561355 -0.0043154145 0.036142237 -0.11163167 0.12467638 -0.013915029
0.17232966 -0.040993046 0.054723036 0.01331135 0.17398244 0.14072807 0.13227662 0.16561326
0.0023165974 0.089528576 0.16932753 0.04113396 0.061374035 -0.028749382 0.14720269 0.15444325
0.19337359 0.032994546 0.10238187 0.06382346 0.11463583 -0.0214191 0.07231168 0.117471285
-0.029317528 0.060515456 -0.0581439 0.08315478 0.102399096 0.08291593 0.17269972 0.08528436
0.11237325 0.082107805 -0.014620882 0.17105903 0.15058745 -0.04185134 0.15282595 0.11329523
0.10089617 0.19175377 0.11646205 0.1535283 0.12631114 0.07817713 -0.06988517 -0.07739527
-0.014794604 0.030314514 0.14016365 -0.052020986 -0.013221125 0.085033 0.14496768 0.045492787
0.09678971 -0.018632455 0.13065207 0.07960257 -0.02060447 0.02771946 0.21570702 0.10530318
0.10901321 -0.018607033 -0.0154824415 0.05677251 -0.01192998 0.013711066 0.0423607 0.133216
-0.045250956 -0.019425916 0.05475481 0.10827321 -0.026595164 0.17733829 0.21757527 0.10719935
0.11844774 0.18196054 0.16787975 0.13720696 -0.0142299635 -0.026866663 0.12381073 0.14809717
-0.044081688 0.08808486 0.11113423 0.16921422 0.19027929 -0.0034362255 0.114595495 -0.03023367
-0.058678012 0.22365443 0.09581664 0.062170018 0.15276337 0.1287319 0.15904208 -0.0014314812

features_model.2.weight f4 [128, 128]
00000000: 87e6 a73e 852e 85bd 522b 66bc e33d be3d
00000010: f5dd 583e e4e9 e63d d698 cc3d ce2a 553d
00000020: 2ea8 ef3d 5b21 273e 6c2d 073e 3a3c 31bc
00000030: e175 e23c d498 f43c 4906 723b 6064 073e
00000040: 2c40 0dbe 4737 923d 3717 60bd 606c ffbd
00000050: fa8f c73d 8f38 0f3d 0b77 da3d 3f78 58bd
00000060: 5358 373e 3c34 0dbe 0f50 3fbc 0afb 853e
00000070: 94a9 3e3e cc9a 31bd 6d9b 553d cb9a 0c3e
00000080: efc0 413e b3ee 48bc cca1 073e aacb 56bc
00000090: f6e8 d6bd 8f68 5fbe f93b 963c 4788 183e
000000a0: 46a5 b33e 6c4b 15bd e5dd 353e 4c4c 593e
000000b0: 9748 6d3e 025e 243e 94a3 1ebd 7b59 6e3d
000000c0: 82e5 2b3e 4cb9 973e cdf2 243e 1d47 a33e
000000d0: 7509 89bd 07dc 2bbd b30d 3dbc d383 27be
000000e0: 496a 29bd 7c23 5e3c 0eb2 70bd 3762 2d3e
000000f0: b93e 983e 5e46 ab3e 76a1 553e 0347 9abd
00000100: 5fe6 b13e 2fa7 6d3e 1bec b83d b048 de3d
00000110: cf99 983c d6d1 4e3e db87 d43d 8b72 6fbe
00000120: adae 5fbe 0ab3 b0bc 3493 d03b 3656 52bd
00000130: 1235 febc c6da 5a3d 8778 963d 8bf5 a0be
00000140: b132 e03d 04be 5a3d b480 57bd efed f93d
00000150: 4c18 763e 2348 463e 2b26 e6bc b295 84bd
00000160: 8217 683d 33ea 663d 4864 73be 5b03 c2bd
00000170: de42 303e f125 57bd 9a3b 27bd 2740 91bd
00000180: 9cdd c5bc e14d d73d a7fa 5c3e 51fa 2ebd
00000190: 77dc c73d ae0a 263e c580 2b3e 314a d23e
000001a0: b633 9e3e d0d3 e93d 199a f2bb fb5e 963c
000001b0: 1029 f9bd 8714 253e 5d7c b93d 33a7 9a3e
000001c0: ac03 d0bd fa5f 2fbe a9b8 3fbd f07c 2e3e
000001d0: d596 443e 9390 09be 2cf4 ba3d 9d80 22be
000001e0: 7196 98bd 1317 6b3e 9b2e 9fbd f9cf 643d
000001f0: f679 d63d f049 5e3e d0b0 723e 10c1 b1bd
00000200: 5a8b 96bc 7a36 a53d 500d a73d 7e2b 443b
00000210: 095a 5cbd 662b 9c3d 9e79 303e 5f91 afbd
00000220: 9e69 243e a9db 65be 7dbb 02be a033 d63d
00000230: cc77 53bb 9e82 013d f996 673e 3aef 92bc
00000240: 8d97 01bd 2d46 2a3d e512 633d 85f3 b2bd
00000250: c96d c7bc c6bf 1abe 9637 03be 1c0e d13d
00000260: 2814 8cbd 0a94 bbbd 9fd0 2ebe 39ad a9bc
00000270: 0a10 b23e 7086 33be fbef b4be ea7c a2bd
00000280: b6d2 703d 974b 2b3c a5d8 9abd 6386 72bd
00000290: 0556 9c3d 1887 4d3c 55e6 813e cbe0 163d
000002a0: 425f 483e cd41 46be 0a4f 613c 0f6b 323e
000002b0: 7a1c d23d ea66 16bd 1f37 1e3d c927 923e
000002c0: 5142 0ebe 51ff 0d3d 9322 3f3d b6a7 e13a
000002d0: 8a72 a53c 7a33 ac3d 5fcd f23c aeed c93d
000002e0: e63d 6e3c 69ed 223e 826f bbbd 3646 713d
000002f0: 573a a73e 4443 81bc 1305 63be 23be cd3e
00000300: 364b 1c3e 0aa9 0b3e 43df b03d feeb 593b
00000310: d299 c13c 0667 a83e a699 84be 6b20 03bd
00000320: 590b a83d 0bb2 253e a2d9 17be 2944 0c3e
00000330: 46db f93a 54ed b3bc 2651 7dbc 5ca3 e63d
00000340: 6f4b 2d3d c88e 0a3e bf80 473d 27f0 9b3e
00000350: 51f3 983d 3d41 bd3b 38a8 0cbe f588 433d
00000360: 0558 6f3e 48d7 6a3a 87cb eabc 6184 a63b
00000370: 33ae 223d 7061 053d 604f 123e 7b33 0bbe
00000380: 4d10 973c 4be0 bebd 4a61 353e 528b 77bd
00000390: 8b8b 453d ccea ddbc 22c9 abbe b186 c83d
000003a0: 228f f1bb 9465 bc3c c47c ffbd 1c57 963e
000003b0: fa77 d2bd 65f7 a2bc c63f 5a3d 165c 553e
000003c0: 1c02 6abd cf05 54be ba78 7b3d d5ba cabb
000003d0: 6034 6f3e d56f e93d 3724 6e3e 8a59 bdbd
000003e0: a315 6cbc 566e 5d3e 75fe 4d3e 9651 d23b
000003f0: 2c1d 8bbd 5b38 21be 6077 783c 4b30 ab3d
0.32793066 -0.065030135 -0.014048414 0.09289148 0.2117842 0.1127508 0.09990089 0.052042775
0.117019996 0.16321318 0.13200921 -0.010817582 0.0276441 0.02985803 0.0036930016 0.13221884
-0.13794011 0.071394496 -0.05470964 -0.12471843 0.09744258 0.034966048 0.10667237 -0.05284905
0.17904787 -0.13789457 -0.011676802 0.2616809 0.18619376 -0.043360516 0.05215018 0.13730924
0.18921255 -0.012263942 0.13245314 -0.013110081 -0.104936525 -0.2181723 0.018339144 0.14895736
0.3508703 -0.03644888 0.17760427 0.21220511 0.23172222 0.16051486 -0.03873022 0.058190804
0.16786769 0.29633558 0.16108246 0.31890193 -0.06691257 -0.04195788 -0.011538911 -0.1635888
-0.041361127 0.013558265 -0.058763556 0.16931997 0.29735354 0.33452123 0.20862374 -0.07533076
0.34746072 0.23208307 0.090294085 0.10853708 0.01862803 0.20197234 0.10377475 -0.23383538
-0.21843977 -0.021569747 0.006365204 -0.05135175 -0.031031165 0.053431295 0.073472075 -0.31437334
0.109471686 0.05340387 -0.052612975 0.12203585 0.24032706 0.19363455 -0.028094372 -0.064738646
0.056663044 0.056375694 -0.23768723 -0.09473296 0.17213008 -0.052526418 -0.040828325 -0.07092314
-0.024153523 0.10512901 0.21579991 -0.04271919 0.09758847 0.16215011 0.1674834 0.4107223
0.30898827 0.11417353 -0.007403624 0.018355837 -0.12166035 0.16121112 0.090569235 0.30205688
-0.1015695 -0.17126456 -0.046806965 0.17039847 0.19198163 -0.13434057 0.09128603 -0.15869375
-0.074505694 0.22958021 -0.07772561 0.0558624 0.10472481 0.21707892 0.23700261 -0.08679402
-0.018376995 0.08067031 0.08156836 0.002993315 -0.0537968 0.07625465 0.17233893 -0.08572649
0.16055915 -0.22447075 -0.12766834 0.104590654 -0.003226745 0.031618707 0.22616185 -0.017936338
-0.03163867 0.04157083 0.05543794 -0.08737854 -0.024344342 -0.15112218 -0.12814173 0.10207769
-0.06839782 -0.091590956 -0.1707177 -0.020712482 0.34777862 -0.17531753 -0.3533934 -0.07933982
0.0587947 0.010455034 -0.07560853 -0.059210192 0.076335944 0.012544416 0.25371042 0.036835473
0.19567588 -0.19361039 0.013751755 0.17423652 0.10259338 -0.03671924 0.038626786 0.2854598
-0.13892485 0.034667317 0.046663832 0.001721612 0.020196218 0.08408256 0.029638944 0.09859787
0.014541125 0.15910877 -0.09152128 0.05890485 0.32661697 -0.015779145 -0.22169904 0.40184125
0.15263066 0.13638702 0.08636334 0.0033252235 0.023632918 0.328911 -0.25898474 -0.032013338
0.082052894 0.16181199 -0.14829114 0.13697876 0.0019062541 -0.021963753 -0.015461242 0.11261627
0.042308267 0.13531029 0.048706766 0.3045666 0.07468284 0.0057755993 -0.13736045 0.047738034
0.2337342 0.0008958471 -0.028661503 0.0050816988 0.03971691 0.032563627 0.14288092 -0.13593857
0.01844039 -0.09320124 0.17712894 -0.0604356 0.04822878 -0.027089499 -0.3355189 0.09791315
-0.007371799 0.022997655 -0.12474969 0.29363334 -0.1027679 -0.019893358 0.053283475 0.20835909
-0.057130918 -0.20705341 0.06139443 -0.006186823 0.23359823 0.113982834 0.23256002 -0.09245594
-0.0144094555 0.21624121 0.20116599 0.006418417 -0.067926735 -0.15744154 0.01516518 0.083588205

features_model.2.bias f4 [128]
00000000: f605 f63d 16ef 883d 6019 b53b 6d53 76bd
00000010: 763a 993d 532e 173e d6ce 99bc 0000 0000
00000020: a5b5 ec3d e2a3 143e a55a f8bc 661a fb3d
00000030: 0a4b 85bc 69f6 babc 214a d7bb 44a0 423e
00000040: 0654 a4bb a6e1 6e3d 8257 d5bc e4be 0e3e
00000050: 07ea ecbb 5c1d 173e 756e 97bc a4f8 3bbd
00000060: 22f2 303e e80d 023e bdb0 8fbb 068e 39bc
00000070: bf27 dfbb cce3 24bb 53c4 eabc 202a 083e
00000080: 7deb ca3d 0bd0 073e 6cec 333e 77c3 da3d
00000090: 80a2 03bd 29bf 7f3d 3055 013e 4fed 18bc
000000a0: 3fe5 243e 2d65 863d 0ed7 12bd b32e ddbb
000000b0: eb09 b43d d12e c8bc 1554 6e3c 2950 4dbc
000000c0: 5824 e5bc ca5b c53d bd08 68bc a8ca 59bc
000000d0: 4aef 9dbc 9b15 c63d 296a 3abc 2dc7 0b3e
000000e0: 7680 d13d 12b6 b4bc 697e a33d 965e d4bc
000000f0: bde7 cebc 2cfd 043d 6b8a 56bb 4716 d838
00000100: 0576 26bc 0843 16bd 014f c2bb b205 253e
00000110: 92a8 133e 8c78 e33d 5a8e a73c 47fb a6bb
00000120: 6199 e5bc 0ab9 d4bc f233 e83d 5594 d63d
00000130: 5b77 003e d080 fc3a 5618 093e 4c22 9dbc
00000140: 0000 0000 6185 013c 43cb cebc 8646 e53d
00000150: 3c9b 6cbc a3d5 c93d 24a2 48bc 36c7 493e
00000160: 2c59 d43d 82ed 3abb ffed c7bc fb13 e43c
00000170: b44c 053e f353 0bbd 1fbb a6bc 30d1 dc3d
00000180: 33b8 2ebc a93a 9bbc 15b9 f03c 711d 3a3e
00000190: 7ffc 3abd 2cc4 1ebd 0000 0000 391f fabc
000001a0: cc1b e73d a75a febb 894d 143e 94b4 5cbd
000001b0: 7975 11ba 19c5 ebbc 52b4 ec3d 9196 40bd
000001c0: f9e3 d9bc 53bf 68bc 947e ac3d 7d42 543e
000001d0: 4942 023e ad67 0e3e f083 58bc 842e 40bd
000001e0: bdbd f33b 51c0 8fbc 071f 75bc 2e01 7c3d
000001f0: ca7a 4dbc dc85 483d 0000 0000 8137 42bc
0.12012856 0.06686227 0.0055267066 -0.060138155 0.07481854 0.14763765 -0.018775385 0.0
0.115580834 0.14515641 -0.03031666 0.122608945 -0.016271133 -0.022822576 -0.006570116 0.19006449
-0.005014899 0.058320664 -0.026042704 0.13940006 -0.0072300467 0.14757293 -0.018485287 -0.04589142
0.17279866 0.12700617 -0.0043850825 -0.011325365 -0.006810158 -0.0025160192 -0.028658068 0.1329732
0.09908197 0.13262956 0.17570657 0.10681813 -0.032137394 0.062438164 0.12630153 -0.0093339225
0.16103075 0.065622665 -0.035849623 -0.0067499517 0.08790954 -0.024436386 0.014546414 -0.012531319
-0.027971432 0.09636648 -0.01416224 -0.013292946 -0.019279141 0.0967209 -0.01137785 0.13650198
0.1022958 -0.022059474 0.07983095 -0.025924008 -0.025256986 0.032468006 -0.0032736312 0.00010303832
-0.010159974 -0.03668502 -0.005929828 0.16115454 0.14419773 0.11106977 0.02045362 -0.0050958726
-0.028027238 -0.02596714 0.11338033 0.10477511 0.1254553 0.0019264463 0.1338819 -0.019181393
0.0 0.007905335 -0.025243407 0.11195092 -0.014441308 0.09855201 -0.012245689 0.19704899
0.10368571 -0.0028522913 -0.024405478 0.027841559 0.13017541 -0.034015607 -0.020352898 0.10782087
-0.010664034 -0.01894887 0.029385129 0.18175294 -0.045650955 -0.038761303 0.0 -0.030532466
0.11284599 -0.0077622714 0.14482702 -0.05388315 -0.0005548816 -0.028780507 0.11557831 -0.04701859
-0.026597964 -0.0142057715 0.0842258 0.20728488 0.12720598 0.13906737 -0.01321505 -0.04691936
0.00743839 -0.017547758 -0.014961011 0.061524563 -0.012541482 0.048955783 0.0 -0.0118540535

features_model.4.weight f4 [128, 128]
00000000: defa 023e 3b03 44b9 a490 6f3d 7bad 72bd
00000010: a7a1 98bc cb99 62be c963 83be 63d7 923b
00000020: 41ff 9bbd 15f1 713c 5a68 76bd da07 2dbe
00000030: 9f26 54bd 05c9 4fbd 9233 2abc 140f 28bd
00000040: 7a0d 0f3e 8571 c53d 17f0 64be 5e44 7f3d
00000050: 21cd 653d a014 93be b4a5 19be bc9b b33d
00000060: 6c3a cfbd e8fb 963d 3158 bd3e 4efa 95bc
00000070: 5d75 e43d f46c e83d 7ce5 efbc ab06 21bd
00000080: df02 003d 00ff 5abe 8d43 383e ce76 493e
00000090: bbd6 3fbe cdba 7abd dab3 f7bc 652d 113d
000000a0: be23 10bd 6e23 ac3c ea6f ab3e a26a 09be
000000b0: 68d3 8e3d 6c8f 343e f31c 07bd a7cf 253e
000000c0: dd89 60be 6b8a ad3c d177 553d b03e 5a3d
000000d0: 3707 0dbd 5f6d 19be 6be5 94bd 0b45 dd3d
000000e0: dfea 7ebd 6681 a1be 6d91 323e 3471 4c3d
000000f0: f1c5 18be d9ef 5cbd f36f 1b3d 0fd9 13bd
00000100: 66fc 14be a64a b6bd 164f 1b3d f3aa 8bbd
00000110: 141b 983d 9984 393d c21d c53d 2d25 213e
00000120: 792c 08be 6e95 afbd 8ac3 09bd 2ae2 763d
00000130: da4f a4be 9312 ec3c 901d bdbd 14bb 0fbe
00000140: ffde 593e eabc 403e 8407 22bc 7a62 41bc
00000150: 0334 b53c 8e62 fcbd 64e3 993c 8170 763d
00000160: f283 2e3a c8ab 05be 8a1f 5e3d 1df7 133d
00000170: 48fd 18be ceb3 dabd c242 4cbd 3836 ce3d
00000180: de3d 143d 0ac2 ad3d df0c 13bc 4167 e23b
00000190: c8a9 33bd 03e4 4abd 278c e3bd 38a6 a63d
000001a0: afe7 06bd e02d 47be cdb2 51be af8a 05bd
000001b0: 1a55 04be d09f 05be bec6 693e f341 173e
000001c0: e47c 993b 523e 983d ea73 12bd 2741 383d
000001d0: bed9 02be 0930 d23d 2ef5 153e 3abf b9bd
000001e0: c6c9 dc3d 6de3 f4bd 98d2 113e 1b6c 66be
000001f0: 02ec 24be db93 0ebe 246a 0fbe 8b82 24bd
00000200: e8f3 19bd 449d d9bd c281 f23d c174 b9bd
00000210: eb11 02be eeb5 0fbd e5b5 2b3e 4a11 18be
00000220: 8178 5bbe 8a5e bcbd 8d2b 103d 443d 34be
00000230: aa2b 3ebd 88ad 0c3e 7ec7 093d cbf5 973c
00000240: ca27 1ebe 4239 51bd da4f 933e 53aa 9dbd
00000250: df4f fc3d 7a45 b63d 848d 96bd 87ec 5c3e
00000260: 91a8 cb3d 310d 333d 7a68 f5bd e0bb 0abd
00000270: 7ec0 3ebe 7ee3 2a3e 3278 473d 5a07 a1bd
00000280: 56c6 2cbd d442 04be 6e8f 773d ec54 99bc
00000290: 5540 853e ec33 0bbd abdf 473d 6e10 91be
000002a0: 12e6 0dbc ad79 13bc c77a a53d 94ed 423e
000002b0: 4e2d d63e 67c7 2c3d 4fe4 eebc 6e2d 95bd
000002c0: 7057 f63d 6654 5fbe e6f4 1abe 80c1 b8be
000002d0: 2c85 853d 84f6 27be 59b9 033d f7f8 653e
000002e0: 8cf5 223e e823 fabb 9791 78bd e0bb bfbd
000002f0: c4fd 6c3e b8e4 863e 11d8 a03d 8594 cfbd
00000300: 78c5 8b3d 9873 bdbc 9b39 2cbb 10ee c03d
00000310: a18b 483e 09d2 2dbe a5a6 133e 7950 953d
00000320: 6ab9 1bbd 0143 b23d 820d 41bd 4a39 ca3d
00000330: 7574 cbbd df1e babd a6ac bc3d 85bb 08be
00000340: 9431 bf3d 3ac8 8f3a b7a9 03bc 35a3 0cbd
00000350: e694 7f3c d70d 11be f081 58bc cd85 70be
00000360: 2ae4 103e f276 573e 956a 1d3d 2fbb 213e
00000370: e44a b43d 1b97 433c 3c54 86bd 9a42 4d3b
00000380: c103 0abc 41e9 0d3e 3d01 56bc 82fb 24bd
00000390: 2197 5d3e 3822 0b3d ff87 4cbe dd2c 5ebc
000003a0: 6e52 053e 7d5e 12bd 43eb 3dbd 87f7 24be
000003b0: 2c9b e5bd cd01 353d 1153 f1bc 087e f23c
000003c0: 7caa bd3d fabf 03be 4181 c83d b621 d73d
000003d0: 2c08 1aba 4d18 47bd e725 233e 7fab e6bd
000003e0: c677 3d3e 89c7 433d c51e 63bc 8092 88bd
000003f0: fdde 01be 42f3 d3bd 20e7 0cbd d09a 563e
0.1279101 -0.0001869322 0.05848755 -0.059247475 -0.01863177 -0.2212898 -0.25662068 0.0044812425
-0.07617045 0.014766951 -0.06015811 -0.16897526 -0.051794644 -0.050728817 -0.010388272 -0.041030005
0.13969985 0.09640793 -0.22357212 0.06232106 0.05610383 -0.28726673 -0.15004617 0.08769938
-0.10118565 0.07372266 0.36981347 -0.018307831 0.11155198 0.11348906 -0.029284231 -0.039313
0.031252738 -0.21386337 0.17994519 0.19674227 -0.18734257 -0.061213303 -0.030237127 0.035443682
-0.035190336 0.021012988 0.3348382 -0.13419583 0.06973916 0.17632836 -0.032986593 0.16192494
-0.2192759 0.021184167 0.05211622 0.05328244 -0.03443071 -0.14983128 -0.072703205 0.108041845
-0.06223571 -0.31544036 0.17438288 0.049912646 -0.14919259 -0.053939674 0.03794856 -0.036095675
-0.14549407 -0.08900957 0.03791722 -0.06819715 0.0742704 0.04529247 0.096248165 0.15736838
-0.13298215 -0.08573423 -0.033633746 0.06027428 -0.32092172 0.02881745 -0.09234154 -0.14036208
0.21276473 0.18822065 -0.009889487 -0.011803264 0.022119528 -0.12323485 0.018785186 0.060165886
0.00066572346 -0.1305381 0.054229297 0.036124337 -0.14940369 -0.10678826 -0.049868353 0.10068935
0.036191814 0.08484276 -0.008975237 0.0069092815 -0.043863088 -0.049533855 -0.11110716 0.081371725
-0.032935794 -0.19451094 -0.20478363 -0.032602962 -0.12923089 -0.13049245 0.2282972 0.14771251
0.0046840776 0.07433762 -0.035755076 0.04498401 -0.12778375 0.10263068 0.1464431 -0.09069677
0.10780673 -0.119574405 0.14240491 -0.22502176 -0.16105655 -0.1392359 -0.14005333 -0.040163558
-0.037586123 -0.10625699 0.118411556 -0.09055472 -0.12702148 -0.03508561 0.16768606 -0.14850345
-0.21432687 -0.091977194 0.035197783 -0.17601496 -0.04642836 0.13738072 0.033637516 0.01854982
-0.15444866 -0.051079996 0.2877186 -0.076985024 0.12319922 0.0889997 -0.07351211 0.21574603
0.09944261 0.043713752 -0.11982818 -0.033870578 -0.18628117 0.16688344 0.04869861 -0.0786273
-0.042181335 -0.12916118 0.06043952 -0.018717252 0.26025644 -0.033985063 0.04879729 -0.28332847
-0.00866081 -0.009001178 0.080800585 0.19035941 0.4183144 0.042182352 -0.0291616 -0.07284056
0.12028396 -0.21809539 -0.15132484 -0.3608513 0.06519541 -0.16402632 0.032159183 0.22458254
0.15913981 -0.007633675 -0.06068572 -0.09362006 0.23143679 0.26346374 0.078537114 -0.1013575
0.068247736 -0.023126408 -0.0026279453 0.09420407 0.19584514 -0.16974653 0.14419039 0.072907396
-0.03801862 0.08704186 -0.047132023 0.09874208 -0.09934322 -0.090879194 0.092126176 -0.13352783
0.09335628 0.0010969706 -0.008036069 -0.034335334 0.015599465 -0.14165436 -0.013214573 -0.23488541
0.14149538 0.21041468 0.038431723 0.15794061 0.08803347 0.011937882 -0.06559035 0.0031320215
-0.008423747 0.1385851 -0.013061819 -0.04027892 0.21639682 0.03396818 -0.19973753 -0.013560501
0.13019726 -0.035734642 -0.04636694 -0.16110049 -0.11211237 0.04419117 -0.029458554 0.029601112
0.09261033 -0.12866202 0.09790278 0.10504477 -0.00058758515 -0.04860716 0.15932427 -0.11263179
0.18502721 0.047797713 -0.0138623165 -0.06668568 -0.1268272 -0.10349132 -0.034400105 0.20957494

features_model.4.bias f4 [128]
00000000: 632c f8bc 54ce 92bc c9c3 bbbc ec4f edbc
00000010: a538 143e 26ee c1bc 46d4 f1bc 610f 9cbc
00000020: a649 9ebc e288 77bc a687 74bc 023d c53d
00000030: 9aa7 52bc 0219 993d c948 9b3c 2b01 fcbc
00000040: c4ba 57bc fd49 49ba 4e99 f6bb 7607 f23d
00000050: d703 b8bb b0ab 993d 59d0 80bc ea88 0dbc
00000060: dd4a a73d b3f8 c13c 09a4 c9bc 3deb 013d
00000070: 203b 9dbc a220 013e dcca 8a3d c650 0dbb
00000080: 2913 44bc 3d43 9c3d 3e22 11bc 07d1 b83d
00000090: cc52 3f3b 0000 0000 12ea e93d 84e6 a8bc
000000a0: e50d 95bc 4c7b 31bc ff74 8b3c b826 43ba
000000b0: f307 8ebc 4f04 38bc 67a0 46bc 519d b03d
000000c0: 7c64 e13d 165a 543e eec7 e73c cc72 04bd
000000d0: eb7e b3bc 93cc cb3b 5fc9 b8bc 458c 5dbc
000000e0: 0000 0000 76fe 5c3a 0b98 a5bc cd28 193d
000000f0: 6eca 6aba 5b94 1b3c b1de 173e 0d1a ccbc
00000100: 0dcb 2f3e d205 533c b1b1 dd3d b2c2 363c
00000110: 5fb6 35bb 2465 703d d8f0 903d 6ddb 9abc
00000120: 10d7 90bc 2a62 abbc 76ec 9fbc 6303 8d3d
00000130: b6bb 9f3a f9c0 213d 7a0f a43d 13a3 babc
00000140: 55ad 503c f5ae d03b c695 053e 8d2b c9bc
00000150: 1522 0cbd f7ad 82bc 43c5 f03d 8a1e 073e
00000160: e4ad 2bbd 865c ddbc a9b1 9abc 85bc f93b
00000170: e41d 283e fafa d7bc 031f 123e b832 09bd
00000180: ddcb 1b3e 5f9f c13d 258c 193e 42e3 333e
00000190: 1a4d 28bd 6896 d2bc eb13 8bbb 7f22 193d
000001a0: 3ef1 1e3e 5eac 0c3e 8fd5 38bb 9585 abbc
000001b0: a700 353e 4ada a8bc f9ca c7bc c561 483d
000001c0: faa2 0d3c f588 4bbc 0a5c 1a3e 0a3e 033d
000001d0: 1022 e6bc 334b c93d 4104 abbc 3532 173e
000001e0: 2b85 2bbb a8c4 943d 5835 a0bc 0000 0000
000001f0: 591d 313e 363a f83d d2b8 f83b cae8 9b3d
-0.030294603 -0.01792065 -0.022920506 -0.028968774 0.14474733 -0.023673128 -0.029520165 -0.019050302
-0.019322228 -0.015108319 -0.014924919 0.09630777 -0.012857342 0.07475473 0.018955605 -0.030762276
-0.013167087 -0.00076785666 -0.0075255996 0.11817829 -0.005615692 0.0750345 -0.015724348 -0.0086386
0.08168576 0.02367816 -0.02461435 0.03171848 -0.019193232 0.12610105 0.067769736 -0.0021563037
-0.011967459 0.07630012 -0.008858262 0.09024244 0.0029193638 0.0 0.114215985 -0.02061773
-0.018195102 -0.010832619 0.017023562 -0.0007444429 -0.017337775 -0.011231496 -0.012123204 0.08623756
0.11005494 0.2073749 0.028293576 -0.03233604 -0.021911105 0.0062194555 -0.022556959 -0.013522212
0.0 0.00084302516 -0.020214101 0.037392426 -0.0008956556 0.00949582 0.14831044 -0.024914766
0.17167301 0.012879806 0.108249076 0.011154817 -0.002772711 0.058690205 0.07077187 -0.018903458
-0.017680675 -0.020920832 -0.019521933 0.068854116 0.001218668 0.039490674 0.080107644 -0.022782838
0.012736638 0.0063685128 0.13045415 -0.0245569 -0.03421219 -0.015952094 0.11756375 0.13195243
-0.041913882 -0.027021658 -0.018883543 0.00762135 0.16417652 -0.026364792 0.14269643 -0.033495635
0.15214486 0.09454226 0.14994867 0.1756716 -0.041089155 -0.025706485 -0.0042443178 0.037386414
0.15521714 0.13737628 -0.0028203463 -0.02093772 0.1767603 -0.0206119 -0.024388777 0.048921365
0.008644814 -0.01242279 0.15074173 0.032041587 -0.028092414 0.09828796 -0.020876052 0.14765246
-0.0026171904 0.07264072 -0.019556686 0.0 0.17296351 0.12120478 0.0075903917 0.0761276

policy_model.0.weight f4 [128, 128]
00000000: 5095 f93a 4691 223b de44 e9ba d9a7 c2ba
00000010: 2c66 0fba 290a 0cbb 964e 29bb 7190 a8ba
00000020: ec6a e7ba f07b d83a 02c1 97ba b450 f2ba
00000030: 1859 0fbb 8802 8b39 7091 28bb e239 d6ba
00000040: 7570 3fbb b963 e039 764f 9cba 4a5e 65bb
00000050: 6f8f 413b 4401 96bb 953f 19bb aef4 e338
00000060: b8a6 1e38 b1dc a7ba 95f6 9eba 8ba7 bcba
00000070: ece0 f1ba 2520 af3a a658 aebb 8961 dbb8
00000080: 70e4 d2b8 b300 71bb d5f3 de39 4f02 8dbb
00000090: 38be b9b8 9c86 70ba cfb9 a6bb 59f2 3ebb
000000a0: d340 56b9 c343 82ba d400 40ba d2b9 1d3b
000000b0: fd5b 3d39 144c 9c39 a937 d63a ec06 68ba
000000c0: c9f1 30ba 0546 96ba f137 f8ba 24ee 08bb
000000d0: 32d7 9fba 6641 963a ce8f f5ba 7e2f 373a
000000e0: c4f8 30ba fb8e 60bb 11bf faba 307a 1cbb
000000f0: 4811 eaba f206 d8ba 670c 40ba 3af1 4aba
00000100: 95c9 8c3a 4a68 ef3a 7079 3a3b 8515 1ebb
00000110: f0e7 8738 5982 eabb 5821 b6bb 5bf5 bdba
00000120: 7b71 f93a 47da 763a 2f40 28bb 54a9 a33a
00000130: 4143 a7b8 d37c fab9 e7e8 be3a aa29 e6ba
00000140: 2408 703a eaf4 5d39 92df eeb9 7f56 85ba
00000150: 43a4 0ebb e789 0c3b 78fe 08bc de37 d0bb
00000160: da49 e4ba 5682 433b 9288 ddba 4371 39bb
00000170: 9cfc c73a ae1f 38bb e1e0 80ba ceb4 5a3a
00000180: 2224 83ba dcad b9bb 7d6f f53a 3744 3b39
00000190: 9920 5f39 6a03 eaba 6ef8 24ba 57ed 2039
000001a0: 464a b0ba 5f16 e7ba 1cf7 b93a 4e8c 1bbb
000001b0: 93da 023a c53a cdb9 1f09 a33a 6a95 34bb
000001c0: d2ab 90b9 a159 56bb ddad a839 21ec 29bb
000001d0: 58e8 f6ba 419c e5bb 8a8a c4ba 8b64 97bb
000001e0: 0663 0cbb d377 e1bb 937b 8237 a571 2739
000001f0: 089e c6bb 6488 91bb 7677 35b9 d0c8 ecba
00000200: 9c6b 5bbd c91e 933b 8c75 583c 4580 4a3c
00000210: 7235 173d 5c64 7b3c 6ff7 b03c 77f7 11bc
00000220: 45e7 8b3c 8ede 85bc 527d bcba 651e 6d3d
00000230: 39c1 433d 04b5 283d 9793 8c3d 1728 823c
00000240: 5917 0e3d db73 633c e3cc 173a 7a8f 863d
00000250: c549 f03b 60ff a73d 5c2b 413c ad56 c63b
00000260: ab23 9e3d ee4e ea3c decb 153d dd99 413d
00000270: 6a92 d13b d926 0a3d 97a6 953d 6c8a e53c
00000280: 5e32 bb3b d691 013d 9e82 aa3b 6a62 9d3d
00000290: c4a4 9cbc 5497 0cba 97af 523d e650 103b
000002a0: 1ae1 1fbc 986c 813c 2ede 4d3d 8906 0cbc
000002b0: c63f 243b 1bc2 923c 055d b8bc 1cfe 943d
000002c0: 5ffe cc3c c172 943a b8f4 1f3c 5825 143d
000002d0: a86d 8b3c 8207 b53c 5ffa 6d3c b523 c2b9
000002e0: 8a44 1239 4609 cd39 058b a43c 66da 6c3d
000002f0: f5fd 3f3a 6a5c 0a3c 220e ec39 a638 593c
00000300: 5390 1dbd 84fe ed3c 5ddb 8a3d 81af 21bc
00000310: c1b8 003c 7d34 853d c3be 8e3d 5d02 633d
00000320: d838 ae3c 2ae8 9abc 16af 5e3c be28 473d
00000330: f135 9e3a 4f61 af3d a683 91bc 7b7c af3b
00000340: b000 8b3c 2f6c 0cbd f515 bcbc 40af f539
00000350: 5fec c33c c954 883c 46ea 6a3d cea3 563d
00000360: 9bd7 1a3c 6e0d 663c 9b87 043d 925e ec3c
00000370: 8d1b aabb 8ae6 0dba 732d 973b 3405 c6bc
00000380: ea72 203d b266 8d3d acec c5bc 3fa1 16ba
00000390: 2811 883b 0cb0 fe3c 4951 723d a170 8d3d
000003a0: e5ef 84bc 68a7 6b3d 529a 183d 85ea 453d
000003b0: e56a 17bd 480d c73b d0b0 433c 98dc 113b
000003c0: 33e6 8c3d 8da2 273c ea9b da3c 56d0 fa3c
000003d0: ea0c 883b 72ea 8b3d 5cd1 453c ce56 6c3d
000003e0: 9933 dbba 450c 913d 034b 033d 7225 3fba
000003f0: 781b 323d f5cd 8a3d ff88 d83b 6bf2 a63d
0.0019041691 0.0024805828 -0.0017797013 -0.0014851048 -0.0005470242 -0.002136836 -0.0025834194 -0.001286043
-0.0017655767 0.0016516428 -0.0011577907 -0.0018487186 -0.0021873172 0.00026514032 -0.0025721453 -0.0016344155
-0.0029211317 0.00042798909 -0.0011925537 -0.0034998828 0.0029534956 -0.0045777876 -0.0023383845 0.000108697786
3.7825404e-05 -0.001280686 -0.001212793 -0.0014393193 -0.0018453873 0.001336102 -0.0053206263 -0.00010460901
-0.0001005613 -0.0036774098 0.0004252481 -0.0043032537 -8.8569184e-05 -0.0009175332 -0.005088068 -0.002913615
-0.0002043278 -0.0009938407 -0.0007324342 0.0024067056 0.00018058713 0.0002981132 0.0016343492 -0.0008851129
-0.0006749896 -0.0011464959 -0.001893757 -0.0020893896 -0.001219487 0.0011463582 -0.0018734874 0.0006987973
-0.0006750936 -0.003426491 -0.0019130429 -0.002387654 -0.0017857933 -0.0016481562 -0.0007326067 -0.0007741634
0.0010741228 0.0018265333 0.002845373 -0.0024121713 6.480503e-05 -0.007156652 -0.005558174 -0.0014492677
0.0019031012 0.0009416681 -0.0025673022 0.0012486377 -7.9757076e-05 -0.00047776717 0.001456526 -0.0017560024
0.00091564865 0.0002116744 -0.0004556147 -0.0010172873 -0.0021765388 0.00214445 -0.008361451 -0.006354316
-0.0017417029 0.0029832325 -0.0016901663 -0.002829627 0.0015257779 -0.0028095054 -0.0009832644 0.0008342982
-0.0010005275 -0.0056664776 0.0018725243 0.00017859122 0.00021279081 -0.0017853801 -0.00062931224 0.00015347205
-0.001344987 -0.0017630568 0.0014188024 -0.002373475 0.00049916765 -0.00039144434 0.0012438631 -0.0027554878
-0.00027593836 -0.0032707232 0.00032172995 -0.0025928097 -0.0018837554 -0.0070071523 -0.0014994901 -0.00462014
-0.0021421327 -0.0068807392 1.5554751e-05 0.00015968697 -0.0060613193 -0.004441308 -0.00017306008 -0.0018065218
-0.05356942 0.004489754 0.013211619 0.012359683 0.036916204 0.015343752 0.02160236 -0.008909098
0.017078051 -0.016341474 -0.001438061 0.057890315 0.047791693 0.041188255 0.06864088 0.015888257
0.034690235 0.013882603 0.00057907234 0.06570335 0.0073330128 0.08203006 0.011790123 0.006052813
0.07721647 0.02860209 0.036571376 0.047265876 0.0063956277 0.033728454 0.07307165 0.028020106
0.0057127913 0.03163322 0.005203559 0.076847866 -0.019121535 -0.0005363126 0.051436987 0.0022020875
-0.009758258 0.015798852 0.050260715 -0.00854648 0.0025062426 0.017914822 -0.022505293 0.0727503
0.025023637 0.0011325703 0.009762935 0.036168426 0.017020062 0.022098307 0.014525025 -0.00037029167
0.00013949178 0.00039107556 0.02008582 0.05782547 0.00073239143 0.008444885 0.00045023958 0.013258135
-0.038467716 0.029052027 0.067801215 -0.009868504 0.007856549 0.06504152 0.06969979 0.055422176
0.02126734 -0.018909533 0.013591548 0.04862284 0.0012070519 0.08563482 -0.01776297 0.0053554154
0.016968101 -0.03428286 -0.022959689 0.00046860613 0.023916421 0.016641991 0.057352327 0.05240231
0.009450818 0.014041288 0.032355886 0.028853688 -0.0051912726 -0.0005413076 0.0046135723 -0.024172403
0.03917209 0.06904353 -0.024160706 -0.00057460734 0.004152436 0.031089805 0.05915955 0.06906248
-0.016227672 0.057532698 0.037256546 0.04831936 -0.036967177 0.0060745813 0.011944011 0.0022256728
0.068798445 0.010231626 0.026685674 0.03061692 0.00415193 0.06831826 0.012073841 0.05769997
-0.0016723751 0.07082418 0.03205396 -0.00072916516 0.043483227 0.067775644 0.006608128 0.08151706

policy_model.0.bias f4 [128]
00000000: c7a6 95ba ac7f 8e3d 7361 c4ba de70 3d39
00000010: 38ad b537 c461 1cb9 9c8c b6bb f4bb 27bc
00000020: 74db d23a 568b c4ba c5bc c4ba b7c7 6abc
00000030: f2c9 8abc d730 663c ac2f 8839 a860 b439
00000040: aeea e23b f988 8dbc f320 c4ba 3b16 bfba
00000050: 3635 3dbc 4f4a 06bc 2923 f93b e2d1 c7b9
00000060: a8d3 79bc eeb8 c4ba a4bc 42bc 261a 62bc
00000070: 19df 00bc 1567 c4ba 58a4 0ebc 0938 d0bb
00000080: 7742 60bc 5b5f ddbb 15b0 c4ba fb1c d5bb
00000090: 46e1 5eba e12d 9dba 8d73 90bc 7aa4 63bc
000000a0: 65ef 873d 1837 6fbc 880b cc3b 9f86 c4ba
000000b0: 921f a8ba 3683 0b3d 01e3 84bc 380b 25bc
000000c0: 1ed6 18bc a14f 253b 8901 2abc ebc0 b3ba
000000d0: 1d50 76bb 51ec 833b 13c1 53bc 0000 0000
000000e0: 0000 0000 fc61 09bb 0a50 8cbc 1836 a7ba
000000f0: fe56 87bc d62d c3ba 2838 c4ba 21b0 783b
00000100: 64b4 7ebb 69b4 c4ba bbf0 e5ba 9d3b 7ebc
00000110: 4afd 0abc fd31 8cbb df95 00bc afe2 febb
00000120: fd62 83ba 76ae a9bb e95e 823a 5275 76bb
00000130: 0c4a c4ba 3787 82bc dc5d 77bc 1d9e c4ba
00000140: ce27 e73c daff 86bc 44ae 65bc 14b0 0bba
00000150: a1c9 ab3b 1274 98ba 7c9c 5bba c273 d23d
00000160: 2981 26bc 920e 92bc 8456 c4ba e106 6bbb
00000170: 72ef a1b9 64d5 e9bb 58cf fbba 968e 14bc
00000180: 0625 8dbc 648c c4ba b693 7fbc e5fd 80bc
00000190: ee0e 1e3b 0895 25bc f66c 42bb ab4e a7bb
000001a0: e90f d1bb 2424 be3b b43e 393c d129 30bc
000001b0: b980 a7ba cf94 c4ba 635c dabb 940b 2ebc
000001c0: da86 2fbc 8659 e7b8 3d57 34ba 58f6 d8ba
000001d0: abae 05bc 61df 76bc 6681 a0ba c198 c2ba
000001e0: e8a4 54bc 2f34 2b3d ced0 a8ba 8c96 4b3b
000001f0: e2ef 6abb 4368 6bbb 709c c83b e6bc 48bb
-0.0011417501 0.06957945 -0.0014982655 0.00018066491 2.1657543e-05 -0.0001491374 -0.005570961 -0.010237683
0.0016087131 -0.0014995139 -0.0015009871 -0.014329842 -0.016941998 0.01404973 0.0002597546 0.0003440429
0.0069249487 -0.017277228 -0.0014963433 -0.0014578769 -0.011548331 -0.0081964275 0.0076030684 -0.00038112613
-0.015248217 -0.0015008727 -0.011885796 -0.01380018 -0.007865691 -0.0014984334 -0.008706175 -0.006354336
-0.013687721 -0.006755752 -0.001500609 -0.006503699 -0.0008502196 -0.0011991822 -0.017633224 -0.013894195
0.06637458 -0.014600538 0.0062269606 -0.0014993733 -0.0012826791 0.03406068 -0.016221525 -0.010073476
-0.009328393 0.0025224464 -0.010376343 -0.001371411 -0.0037584372 0.004025974 -0.01292445 0.0
0.0 -0.0020962944 -0.01712801 -0.001275721 -0.016520973 -0.001489098 -0.0014970349 0.0037946778
-0.0038864845 -0.001500738 -0.0017543057 -0.015517143 -0.00848324 -0.00427842 -0.007848232 -0.0077784876
-0.0010024008 -0.005178268 0.0009946498 -0.003760655 -0.0014975681 -0.015933616 -0.015098061 -0.0015000735
0.028217223 -0.016479421 -0.014018599 -0.0005328667 0.005242542 -0.0011631271 -0.0008377505 0.10275985
-0.01016263 -0.017829213 -0.0014979397 -0.0035862254 -0.00030886714 -0.007136034 -0.0019211574 -0.009067198
-0.017229568 -0.0014995453 -0.015599182 -0.015746066 0.0024117786 -0.010106333 -0.0029666997 -0.0051058135
-0.0063800705 0.005802648 0.0113064535 -0.010752157 -0.0012779451 -0.0014997962 -0.0066638454 -0.010622878
-0.010713303 -0.000110316134 -0.00068794546 -0.0016552908 -0.00815932 -0.015067906 -0.0012245595 -0.001484655
-0.01297877 0.041797813 -0.0012879611 0.0031065075 -0.0035848548 -0.00359203 0.0061221644 -0.003063017

policy_model.2.weight f4 [8, 128]
00000000: daf4 ecba e66f 2bbd 1218 e23a baf7 513a
00000010: b3fd 00bb f7a8 4e3a b385 7cbc 5a8c d0bb
00000020: 7a05 b63b d176 2ab9 e80b eeba cee0 b8bb
00000030: c7d1 afbb 6805 713b 489c 203b bd5b 9f3a
00000040: e50b 723b 4e92 e2bb d230 833a 73d5 29bb
00000050: 7733 b9bb b5bb efbb ea06 7f3c 1b31 393a
00000060: b614 f8bb 3444 d73a d2e5 2abb d05e dbbb
00000070: 758e 81bc 0a85 5aba 5b2a 05bc 3aeb ee39
00000080: a680 11bc 1dbc 1ebc 0e06 e63a de67 f7bb
00000090: 05f3 97ba 6e14 8f3a 2f64 e5bb 7005 09bc
000000a0: 48e9 76bd ed7a dbbb 7157 633b 04f9 c9ba
000000b0: 8bd7 a73a b265 99bd 79f6 f9bb d9b3 3bbb
000000c0: 183d f1bb 555a 993b a89b f3bb f235 b5bb
000000d0: 3c32 913b 57cd 943b 0ec2 acbb 4779 6cb9
000000e0: b87e e23a 8e05 a63a a7f5 dabb 02a1 cdb7
000000f0: 75b3 d5bb ff1e f3b9 af07 2cba 6f25 883b
00000100: 1215 ffbb a1c0 863a 3bc9 7f3a 713a bdbb
00000110: 5ab8 d4bb e3c4 99bb 8d9e f2bb 0bbb 07bc
00000120: 689d 83b8 737f 493b 9966 f33a c5d4 47ba
00000130: 64fa 163b 6f1d 07bc 7ae5 a4bb 7bda 5e38
00000140: 1be9 d13c 3319 b7bb e169 e0ba 31b6 a03a
00000150: 6c64 8a3b 9965 923a 030f e4b8 6159 a9bd
00000160: 0af3 b7bb 2783 d2bb 89de cd3a 40b5 f5bb
00000170: 53c4 1f3b df86 d7bb 0b95 9b3a a11f 75bc
00000180: 413a c5bb 51cb 613b 303b 95bb a18f e8bb
00000190: d8c6 743b 137c dbbb c539 373b fa35 9039
000001a0: 04f5 8238 2fad 6a3b 6752 ecbc df73 ecbb
000001b0: 6df7 c1b8 4eff 133b c1e1 d3bb e058 85bb
000001c0: 6f3b 26bb be2c cdb8 3882 7e3b 50bf 463a
000001d0: 2013 cbba 0714 ccbb c119 7c3a c232 a6b9
000001e0: b3b1 eebb 596f 97bd 0042 c6b9 a87d 37bb
000001f0: 4ac7 fdb8 88ce 0bbb 1a41 963b 9fc1 5e3a
00000200: 8aeb 8a3a d35b 113d 1045 2bba b222 39ba
00000210: fa44 d839 1d47 71ba e961 e13c 38dd 30bc
00000220: b428 0abc 649f 38b9 46b7 553b 71ed 15bc
00000230: 1b21 0ebc 2813 e2bb 0ada 28bb a26b aabb
00000240: ef76 1fbb 60d0 09bc d7f9 f23a d004 64ba
00000250: f036 44bc 7199 28bc c114 11bc 67a5 02ba
00000260: 0cfe 0cbc 1a7c 543a 6b00 60bb 9a15 febb
00000270: 9903 443b 18b8 c6ba 2a0b 29bc 1a58 363b
00000280: dc60 fabb 5b9f 8dbb d1cb 0f3a 9324 14bc
00000290: 1480 863a 0d9e afba 7e64 09bc 2c72 3dbc
000002a0: f415 743d cf91 27bc f8b1 b5bb f5fc 2b3b
000002b0: 421a 2e39 af02 85bc 465e 0cbc 4394 10bb
000002c0: e67d 11bc d45e 00bc fe10 53bc df88 8fba
000002d0: 4963 8abb 062e e7bb 30b0 23bc bc9b c63a
000002e0: a12c fc3a 9664 c63a fbf2 ecbb c918 27ba
000002f0: 5e4a 13bc 6348 7c39 2af0 b1ba d359 0abc
00000300: b917 cbbb cf88 3cba 9262 e6b9 cdfc 07bc
00000310: 1c4e 0abc 093f a2bb 0055 e9bb 0649 17bc
00000320: 635d f4ba 0cbd d83a 07d8 89bb 48ab 7fba
00000330: 64e8 6b3b f179 0dbc 3ee4 28bc a834 b4ba
00000340: 7e33 25bb 611e 0abc 686e 3bbb 34a4 a0ba
00000350: eaa5 e3bb 5f15 8eba 77ca bb3a d99a cf3c
00000360: f799 22bc 9f77 21bc 9d1d d23a 3986 2ebb
00000370: b40e f1b8 9b64 30bc 5ca3 b4b9 f2b9 0b3b
00000380: 2b13 01bc fd37 e139 3bcf 05bc 6a3e 11bc
00000390: d2bf d9bb 27c6 2bbc f8a8 813b 007c aab8
000003a0: 26c3 e43b cfee cebb d0a9 2ebc 904f ffbb
000003b0: db59 3cba e767 5bba 7013 fdbb 6dc5 81bb
000003c0: 1b6c 15bb a982 2739 960f 083b b557 78bb
000003d0: 10a1 d9b8 99e8 12bc 4ec3 79ba 9b93 eeb8
000003e0: bd17 07bc e7e7 1ebc 02ab 2039 c13c 183b
000003f0: 0b33 a4ba 733b 44bb f97c 02bc b85f e5ba
-0.0018078343 -0.04185476 0.0017249605 0.00080096314 -0.0019682467 0.0007883454 -0.015412736 -0.0063643875
0.005554852 -0.00016256726 -0.0018161507 -0.005642033 -0.0053655836 0.0036776904 0.0024507213 0.0012158077
0.003693336 -0.0069144135 0.0010009056 -0.002591458 -0.005651887 -0.0073160776 0.015565613 0.0007064507
-0.0075708283 0.0016423524 -0.0026076925 -0.006694652 -0.015815 -0.00083358644 -0.008127774 0.00045570155
-0.00888077 -0.009688404 0.0017549412 -0.0075502237 -0.0011592811 0.0010916123 -0.007000468 -0.008363113
-0.060281068 -0.0066980035 0.003468957 -0.0015409295 0.0012805326 -0.074901 -0.007628259 -0.0028641133
-0.0073620193 0.004679958 -0.007434327 -0.0055301124 0.004431037 0.00454108 -0.0052721566 -0.00022551893
0.0017280197 0.001266645 -0.006682116 -2.451288e-05 -0.006521637 -0.00046371666 -0.0006562424 0.004154853
-0.007784494 0.0010280797 0.00097574637 -0.005774789 -0.006491703 -0.00469266 -0.0074041546 -0.008284341
-6.275886e-05 0.0030746132 0.0018570005 -0.00076229527 0.0023037428 -0.008246764 -0.0050322386 5.31324e-05
0.025623849 -0.005587721 -0.0017121398 0.0012261329 0.004223397 0.0011169194 -0.00010874683 -0.08269001
-0.0056136893 -0.006424326 0.001570658 -0.0074984133 0.0024378493 -0.006577357 0.001186998 -0.014961154
-0.0060189073 0.0034453461 -0.004554175 -0.0070972 0.0037349965 -0.0066981404 0.0027958017 0.00027506036
6.244521e-05 0.0035808792 -0.028847886 -0.0072159613 -9.249044e-05 0.0022582593 -0.006466121 -0.0040694326
-0.0025365015 -9.7834956e-05 0.003883494 0.00075816084 -0.0015493371 -0.0062279734 0.0009616875 -0.00031699805
-0.007284367 -0.07394285 -0.00037814677 -0.002799848 -0.000121011006 -0.002133282 0.0045853974 0.000849748
0.001059876 0.03548796 -0.00065334234 -0.000706236 0.00041250122 -0.0009204017 0.027512508 -0.01079493
-0.008432556 -0.00017606985 0.003261046 -0.009150849 -0.008674885 -0.0068992563 -0.0025764727 -0.005200819
-0.0024332365 -0.008411497 0.0018537593 -0.0008698227 -0.011975989 -0.0102904895 -0.008855046 -0.00049837533
-0.008605491 0.0008105651 -0.0034179937 -0.00775404 0.002990937 -0.0015161065 -0.010317603 0.0027823509
-0.007640941 -0.004321975 0.0005485388 -0.009041923 0.0010261559 -0.0013398543 -0.008385776 -0.011562865
0.05959125 -0.010227635 -0.005544897 0.0026243303 0.00016603715 -0.016236631 -0.008567398 -0.0022061027
-0.008880114 -0.007835109 -0.012882469 -0.0010950825 -0.0042232615 -0.007055047 -0.009990737 0.0015152614
0.0019239375 0.0015136178 -0.007231114 -0.0006374238 -0.0089898985 0.00024059559 -0.0013575603 -0.008444267
-0.0061978963 -0.0007192017 -0.0004394246 -0.0083000185 -0.008441474 -0.004951362 -0.0071207285 -0.009233719
-0.0018643554 0.0016535833 -0.0042066607 -0.0009753001 0.003599667 -0.00863503 -0.010308323 -0.0013748603
-0.0025207694 -0.008430094 -0.0028599743 -0.0012255968 -0.0069472687 -0.0010840109 0.0014327307 0.025342392
-0.009924403 -0.00985518 0.0016030554 -0.0026630296 -0.00011494514 -0.010766174 -0.00034453988 0.002132055
-0.007878105 0.0004295706 -0.008167083 -0.008864978 -0.006645181 -0.010484255 0.00395691 -8.1293285e-05
0.0069812713 -0.0063150893 -0.010660604 -0.007791467 -0.00071850204 -0.00083696697 -0.0077232644 -0.0039603026
-0.0022800032 0.00015975036 0.0020761243 -0.0037894074 -0.000103773666 -0.008966588 -0.0009527699 -0.00011376218
-0.008245406 -0.0096988445 0.00015322494 0.0023229572 -0.0012527419 -0.002994266 -0.007964366 -0.001749984

policy_model.2.bias f4 [8]
00000000: 6aa1 b3bc f253 123c 89a1 173d afd0 383c
00000010: a300 49bc f757 2ebb 5b01 da3c 7513 61bd
-0.021927554 0.008931147 0.037019286 0.011280223 -0.012268218 -0.0026602724 0.026611974 -0.054950196
