results/short_race/second_iteration_training/model805.pt (torch, 276107 bytes, 13 tensors)

features_model.0.weight f4 [128, 4]
0	0x3c639507	0.013890511
1	0x3e215c33	0.15757827
2	0x3d9d7744	0.07688764
3	0xbe9fe0fb	-0.31226334
4	0x3d01b348	0.031665117
5	0xbd9422e4	-0.07233217
6	0xb771a3de	-1.4402873e-05
7	0x3cfd60d1	0.030929955
8	0x3e266698	0.16250074
9	0x3cb93812	0.022609744
10	0xbd09b72d	-0.033621956
11	0x3e95cff1	0.2926021
12	0x3e3a3e34	0.18187791
13	0xbdca0307	-0.09863859
14	0xbd67e872	-0.05661816
15	0xbdcebdb7	-0.10094779
16	0x3d4e8bf2	0.05042643
17	0x3b6fc0f5	0.0036583517
18	0x3d495944	0.049157396
19	0xbd03c38f	-0.03216892
20	0x3d4e89f7	0.050424542
21	0x3d6b11b2	0.057389922
22	0x3e7586c4	0.2397719
23	0xbe4ae893	-0.19815283
24	0x3b81ffc0	0.0039672554
25	0xbcefd558	-0.029276535
26	0x3dda1392	0.10648264
27	0x3ea5e110	0.32398272
28	0x3cafed73	0.02147553
29	0xbc60b08f	-0.01371397
30	0x3d9565d9	0.072948165
31	0x3ea2490f	0.31696364
32	0xbe3e0c15	-0.18559296
33	0x3db7d2b2	0.08975734
34	0x3dfd9c70	0.12383354
35	0x3b9c9e2e	0.0047795987
36	0x3c8e9c31	0.017408462
37	0x3e30ef54	0.17278796
38	0x3d6527db	0.055946212
39	0xbeb8a583	-0.36063775
40	0x3d739aab	0.059473675
41	0x3e50137c	0.20319933
42	0x3e3e27fa	0.18569937
43	0x3e232c28	0.15934813
44	0x3e19fc04	0.15037543
45	0xbdef998d	-0.11699209
46	0x3e30a721	0.17251255
47	0x3d65bc5a	0.05608783
48	0x3e1325ac	0.1436984
49	0x3e9b8886	0.30377597
50	0x3d0efc46	0.034908555
51	0xbdcd1ddb	-0.1001546
52	0xbe2595ff	-0.161705
53	0xbd18d5b9	-0.037313197
54	0xbe184c0c	-0.1487276
55	0x3c917c7a	0.01775955
56	0xbdce681d	-0.10078452
57	0x3e8ab7ce	0.27093357
58	0xbd0c2ad2	-0.034220524
59	0x3e0d4c2b	0.13798587
60	0xbe53c04c	-0.20678824
61	0xbcb29c30	-0.021802992
62	0xbe982325	-0.29714313
63	0x3d818fa7	0.06326228
64	0x3df9a056	0.12188785
65	0xbc9c51d9	-0.019081997
66	0x3cd37d45	0.02581657
67	0xbe00b32d	-0.1256835
68	0xbd6250f9	-0.055253003
69	0xbe78ef11	-0.24309947
70	0xbdfd4dbf	-0.123683445
71	0xbd5bf940	-0.0537045
72	0xbe074054	-0.13208133
73	0x3d68f550	0.056874573
74	0xbda742a1	-0.08167005
75	0xbde54f7a	-0.111967996
76	0xbd969f59	-0.07354612
77	0xbe0ddd43	-0.13853936
78	0xbe84328f	-0.25819823
79	0xbe4b5e5d	-0.19860215
80	0x3db25bf1	0.08708943
81	0xbda21421	-0.079139955
82	0xbdfbeab7	-0.12300628
83	0x3d4c14aa	0.049824394
84	0xbe7259d4	-0.23667079
85	0xbe308a57	-0.17240272
86	0x3e4070eb	0.18793075
87	0xbd829601	-0.06376267
88	0x3d6229a1	0.05521548
89	0x3e3d335b	0.18476622
90	0xbda3561a	-0.07975407
91	0xbd09c035	-0.03363057
92	0xbe67a693	-0.22622137
93	0xbdb7a94d	-0.089678384
94	0xbddc3792	-0.10752787
95	0x3d942460	0.072335005
96	0x3d32c2ed	0.043642927
97	0x3e0e821a	0.13916817
98	0x3e10f1c7	0.1415473
99	0xbea321af	-0.31861636
100	0xbec0974c	-0.3761543
101	0xbe58c2a3	-0.21167998
102	0x3d9b2781	0.07575894
103	0xbdb38702	-0.08765985
104	0x3e78a7b5	0.24282725
105	0x3eb1eb9f	0.34750077
106	0xbccb3c0e	-0.02480891
107	0x3e37d8cf	0.179538
108	0xbdb033f5	-0.0860366
109	0xbda3e989	-0.08003528
110	0xbdd7624c	-0.105167955
111	0xbcc09d4e	-0.023512509
112	0x3c828938	0.015934572
113	0xbca7b347	-0.020471228
114	0xbd92adce	-0.07162057
115	0x3ed0dc39	0.40793017
116	0x3dd15c51	0.10222686
117	0x3db42e93	0.08797946
118	0xbde9f865	-0.114243306
119	0xbd88ec3c	-0.06685683
120	0x3e3389f0	0.17533088
121	0x3df2ff61	0.11865116
122	0x3e325309	0.17414488
123	0x3de9730d	0.11398897
124	0x3deabcb0	0.114617705
125	0x3d6bb86e	0.057548933
126	0x3dea4fbc	0.114409894
127	0x3e681062	0.226625
128	0x3e499776	0.19686684
129	0xbe92bb7f	-0.28658673
130	0x3d74ba63	0.059748065
131	0x3ddcd9fa	0.10783763
132	0x3e3d5c95	0.18492348
133	0xbc6c009b	-0.014404441
134	0x3e076d5f	0.13225316
135	0xbc878dc0	-0.016547084
136	0x3cb75796	0.022380631
137	0x3d08607f	0.03329515
138	0x3e74234a	0.23841587
139	0x3e97a639	0.29619005
140	0x3db1b2f7	0.08676713
141	0xbe106afc	-0.14103311
142	0x3b4f6c57	0.003165027
143	0xbe3d4447	-0.18483077
144	0xbd9fd965	-0.078051366
145	0xbde4c381	-0.11170102
146	0x3dcdbf54	0.100462586
147	0xbc8142e6	-0.01577897
148	0xbd911e70	-0.070858836
149	0xbdc3dca1	-0.09563566
150	0xbb0a8ea3	-0.0021142147
151	0x3db48d3d	0.088160016
152	0xbe1aca24	-0.15116173
153	0x3d07ffae	0.03320282
154	0x3d97dfc5	0.074157275
155	0x3e66a7f7	0.22525011
156	0x3d37781f	0.04479229
157	0x3c37693a	0.011194522
158	0x3e0b7d67	0.13622056
159	0x3ec7cc58	0.3902309
160	0xba132d59	-0.00056143623
161	0xbc8c5a33	-0.017132854
162	0xbd92a9b1	-0.07161272
163	0x3eb10339	0.3457277
164	0xbd30f783	-0.043204796
165	0xbd921f3c	-0.07134864
166	0x3ccea64f	0.025225786
167	0xbe71bd6a	-0.23607412
168	0x3d9d1f59	0.07671995
169	0xbd6405fb	-0.055669766
170	0xbcdc752c	-0.02691134
171	0xbdf60612	-0.120128766
172	0xbdfa7c46	-0.122307345
173	0x3dec0207	0.11523824
174	0x3e08da51	0.13364531
175	0x3c6877c3	0.01418871
176	0x3d1ce062	0.038299926
177	0x3e6d9b27	0.23203717
178	0x3d428d4e	0.04749804
179	0xbd414135	-0.047181327
180	0xbd1ff8e0	-0.039055705
181	0xbda522a1	-0.080632456
182	0xbd918a85	-0.07106499
183	0x3e14d614	0.1453479
184	0x3dcc71d3	0.09982648
185	0x3c0b0e57	0.008487306
186	0x3ec98518	0.39359355
187	0xbdce45aa	-0.10071881
188	0x3c126bc7	0.008936829
189	0x3c97579a	0.018474389
190	0x3dfd6253	0.123722695
191	0x3ce88a6c	0.028386317
192	0xbe550cc8	-0.20805657
193	0xb998249b	-0.00029018972
194	0xbe1666e7	-0.14687692
195	0x3c3aa6a2	0.011392267
196	0x3e6f0ea3	0.23345427
197	0xbe03625a	-0.12830487
198	0x3d5e5b4d	0.05428629
199	0x3e056561	0.13026954
200	0xbe518d03	-0.20463948
201	0xbda87ba3	-0.08226707
202	0x3cd20647	0.025637759
203	0x3db31a5e	0.087452635
204	0xbe9910f3	-0.29895744
205	0x3e0bb5f0	0.13643622
206	0x3e3f9f52	0.1871312
207	0x3cb78cda	0.02240603
208	0x3e4fdf3c	0.20300001
209	0x3eaa5101	0.33264926
210	0xbd7bd21a	-0.061479665
211	0xbd468a51	-0.048471753
212	0x3e614613	0.21999387
213	0xbd8274de	-0.06369947
214	0xbd0bf9ff	-0.03417396
215	0xbd07a5f0	-0.033117235
216	0x3d6e7913	0.058220934
217	0x3ba5b08f	0.005056448
218	0x3de11111	0.10989583
219	0x3d47b899	0.04876003
220	0x3e03ee53	0.12883882
221	0xbc10910f	-0.008823647
222	0x3e4e4f41	0.2014742
223	0x3ed65ba0	0.4186678
224	0x3e12f44d	0.14351006
225	0x3d2a5957	0.041589107
226	0x3bf9b3d4	0.007620314
227	0xbdc6fbb3	-0.097159766
228	0xbc0342eb	-0.00801156
229	0x3e0aacff	0.13542555
230	0x3e0928a9	0.13394417
231	0x3c0145b8	0.007890157
232	0xbd9451ab	-0.072421394
233	0x3ca43f62	0.020049755
234	0xbd6f798e	-0.058465533
235	0x3cf75a11	0.030194314
236	0x3e09fe20	0.13475847
237	0x3d75d9b1	0.06002206
238	0x3e1603a2	0.14649823
239	0x3e97a816	0.29620427
240	0xbcc61db7	-0.024184091
241	0x3d18567b	0.03719185
242	0x3c9d2672	0.019183371
243	0x3e79e86d	0.2440507
244	0x3c2da38d	0.010598076
245	0xbc93aaec	-0.018025838
246	0xbe0ee3bf	-0.13954066
247	0x3e98bc3b	0.29831108
248	0x3c160df0	0.009158596
249	0x3dcbcd8e	0.09951316
250	0x3d817d1a	0.06322689
251	0xbeac99b8	-0.33711028
252	0xbe5028cf	-0.20328067
253	0x3e3ee713	0.18642835
254	0xbcfea47a	-0.031084288
255	0xbe116d07	-0.14201747

features_model.0.bias f4 [128]
0	0x3e02ea64	0.12784725
1	0x3bed38fa	0.007239458
2	0x3ddda67a	0.108227685
3	0xbd100de5	-0.0351695
4	0x3e39606a	0.18103185
5	0x3dc4c738	0.096083105
6	0x3e0b3141	0.13593008
7	0x3e1acd04	0.1511727
8	0x3d8b3bbc	0.06798503
9	0x3e0c1a8f	0.13682006
10	0x3e39ea67	0.18155824
11	0xbbf384a0	-0.0074315816
12	0x3dd538be	0.10411213
13	0xbd3596d1	-0.044333283
14	0x3d80854a	0.06275423
15	0x3dd3b7c7	0.10337787
16	0x3dbf652e	0.0934547
17	0xbcc574a9	-0.02410348
18	0xbd780f2f	-0.060561355
19	0xbb9143dc	-0.0044331383
20	0x3d11f674	0.035635427
21	0xbde47a75	-0.11156169
22	0x3df92424	0.121650964
23	0xbc62e0ec	-0.013847571
24	0x3e2d91e0	0.16950178
25	0xbd270dad	-0.040784527
26	0x3d58f59a	0.0529686
27	0x3c5887e3	0.013215992
28	0x3e30978c	0.1724531
29	0x3e0e15d2	0.13875511
30	0x3e056105	0.13025291
31	0x3e269e51	0.1627133
32	0x3b2edbd3	0.0026681318
33	0x3db6c723	0.08924701
34	0x3e2af85c	0.16696304
35	0x3d2948d9	0.04132924
36	0x3d7a29da	0.06107507
37	0xbceb8ba3	-0.028753107
38	0x3e12e5f7	0.14345537
39	0x3e1c205d	0.1524672
40	0x3e4420d7	0.19153152
41	0x3d072e64	0.033003226
42	0x3dd09772	0.10185136
43	0x3d71900d	0.05897527
44	0x3de0b666	0.1097229
45	0xbcb3784c	-0.021907948
46	0x3d931148	0.071810305
47	0x3de9a1e1	0.11407829
48	0xbcf02b50	-0.029317528
49	0x3d796afa	0.060893036
50	0xbd6c4a43	-0.05768801
51	0x3da103f1	0.0786208
52	0x3dcdfe5f	0.10058283
53	0x3daa0296	0.083012745
54	0x3e2ee589	0.17079748
55	0x3dabf839	0.08396954
56	0x3de2fddf	0.11083578
57	0x3d9da9d2	0.07698406
58	0xbc6f8c6d	-0.014620882
59	0x3e2c3694	0.16817695
60	0x3e16670b	0.14687745
61	0xbd2ce7a9	-0.042213116
62	0x3e1915bb	0.14949696
63	0x3ddb92cb	0.10721358
64	0x3dc4932b	0.095983826
65	0x3e3f5da1	0.1868806
66	0x3de82cf5	0.113367
67	0x3e18e80b	0.14932267
68	0x3dfafc50	0.12255156
69	0x3d9404ef	0.072275035
70	0xbd8f96f0	-0.07011211
71	0xbd9f260a	-0.07770927
72	0xbc6ff06b	-0.014644722
73	0x3cc5c55a	0.024141956
74	0x3e0ced29	0.13762344
75	0xbd559e68	-0.05215302
76	0xbc589d6b	-0.013221125
77	0x3dadba30	0.08482778
78	0x3e0fd74e	0.14046976
79	0x3d3b3d62	0.045712836
80	0x3dc1a445	0.0945516
81	0xbc9b7ebb	-0.018981328
82	0x3e036541	0.12831594
83	0x3d9bc670	0.07606208
84	0xbcaa63d8	-0.020799562
85	0x3ce0a2cb	0.027421376
86	0x3e5a43ff	0.21315001
87	0x3dd5a3e9	0.10431654
88	0x3ddca9a8	0.10774547
89	0xbc99193e	-0.018688794
90	0xbc7ca2a4	-0.015419636
91	0x3d6718c6	0.05642011
92	0xbc4014b9	-0.011723691
93	0x3c54eaaa	0.012995401
94	0x3d2c7158	0.04210028
95	0x3e067a15	0.13132508
96	0xbd39234c	-0.045199677
97	0xbc9dea4a	-0.019276757
98	0x3d5fed87	0.054669883
99	0x3dd65040	0.10464525
100	0xbcd957c9	-0.026531117
101	0x3e33905c	0.17535537
102	0x3e5c1f71	0.21496369
103	0x3dce1f6f	0.10064589
104	0x3deab34f	0.11459982
105	0x3e385753	0.18002062
106	0x3e2a100d	0.16607685
107	0x3e076137	0.13220678
108	0xbc6924cb	-0.0142299635
109	0xbcdbc92e	-0.026829328
110	0x3df4ba68	0.11949617
111	0x3e15a878	0.14615047
112	0xbd34d1b0	-0.044145286
113	0x3db46e05	0.08810047
114	0x3de26a6c	0.110554546
115	0x3e298edf	0.16558407
116	0x3e405405	0.18782051
117	0xbb68435f	-0.0035440547
118	0x3ddeaefb	0.108732186
119	0xbcf92993	-0.030415332
120	0xbd70687e	-0.0586934
121	0x3e60a1a6	0.21936664
122	0x3dc3c2f2	0.09558667
123	0x3d7a86cf	0.06116372
124	0x3e180f08	0.14849484
125	0x3e01780f	0.12643455
126	0x3e1e2eb2	0.154475
127	0xba795e58	-0.00095126545

features_model.2.weight f4 [128, 128]
0	0x3ea53c9a	0.32272798
1	0xbd8462fc	-0.06464192
2	0xbc61da1a	-0.01378491
3	0x3dc08455	0.0940024
4	0x3e580bd9	0.2109827
5	0x3de4faba	0.11180635
6	0x3dcb5bb7	0.099296026
7	0x3d524102	0.051331528
8	0x3ddfbac2	0.10924293
9	0x3e219260	0.15778494
10	0x3e030888	0.12796223
11	0xbc251d30	-0.01007776
12	0x3cd4a1e5	0.025956104
13	0x3cf570b7	0.029960973
14	0xbb3e304f	-0.0029020493
15	0x3e069bdb	0.13145392
16	0xbe0c52f5	-0.1370352
17	0x3d929792	0.07157816
18	0xbd601737	-0.05470964
19	0xbdff3607	-0.12461477
20	0x3dc8ba8e	0.098012075
21	0x3d0fb173	0.03508134
22	0x3dd34951	0.10316718
23	0xbd5839dd	-0.052789558
24	0x3e346e9c	0.17620319
25	0xbe0d2094	-0.13781959
26	0xbc47e512	-0.012200611
27	0x3e860010	0.26171923
28	0x3e3df556	0.1855062
29	0xbd33f516	-0.043934904
30	0x3d55a7d5	0.05216201
31	0x3e0bbbde	0.13645884
32	0x3e4255e7	0.18978082
33	0xbc396a6f	-0.01131688
34	0x3e061127	0.1309248
35	0xbc4c012e	-0.012451453
36	0xbdd6e920	-0.10493684
37	0xbe5f585e	-0.21811053
38	0x3c76d4cc	0.015065383
39	0x3e17b7a1	0.14816143
40	0x3eb331f6	0.34999055
41	0xbd1559b8	-0.036462516
42	0x3e3665a5	0.17812212
43	0x3e523eec	0.20531815
44	0x3e670af5	0.22562774
45	0x3e246618	0.1605457
46	0xbd1b7670	-0.037954748
47	0x3d62d09c	0.055374727
48	0x3e2be582	0.16786769
49	0x3e981f4a	0.29711372
50	0x3e2507a4	0.16116196
51	0x3ea043c2	0.31301695
52	0xbd8b1759	-0.067915626
53	0xbd27b757	-0.04094633
54	0xbc47fff8	-0.012207024
55	0xbe275e4f	-0.1634457
56	0xbd26d124	-0.040726796
57	0x3be55cbc	0.00699958
58	0xbd70b20e	-0.058763556
59	0x3e2ca822	0.16861013
60	0x3e9681f9	0.29396036
61	0x3eab3522	0.33438975
62	0x3e511310	0.20417428
63	0xbda894d2	-0.0823151
64	0x3eae901a	0.34094316
65	0x3e689dc5	0.22716434
66	0x3db34544	0.08753446
67	0x3dd4faa7	0.10399371
68	0x3c7acccc	0.015307616
69	0x3e482b7a	0.19547835
70	0x3dd462de	0.1037042
71	0xbe6f1a1c	-0.23349804
72	0xbe5f9c52	-0.21836975
73	0xbcded7fc	-0.027202599
74	0x3bb28302	0.0054477463
75	0xbd512584	-0.05106117
76	0xbcfe3512	-0.031031165
77	0x3d5da2e2	0.054110415
78	0x3d8ae443	0.06781819
79	0xbea07961	-0.31342605
80	0x3dde810c	0.108644575
81	0x3d5f243d	0.05447792
82	0xbd5cd088	-0.05390981
83	0x3df2aeaf	0.118497245
84	0x3e75fcfc	0.24022287
85	0x3e464e8a	0.19365898
86	0xbcecff72	-0.0289304
87	0xbd82a2c8	-0.06378704
88	0x3d66dad7	0.056361046
89	0x3d67f0b0	0.05662602
90	0xbe7355a3	-0.23763137
91	0xbdc1ffaf	-0.09472596
92	0x3e305a0e	0.17221853
93	0xbd557097	-0.052109327
94	0xbd25bf27	-0.0404655
95	0xbd90f66e	-0.07078253
96	0xbcc6a32b	-0.024247726
97	0x3dd7749d	0.10520289
98	0x3e5d73ab	0.21626155
99	0xbd4387af	-0.04773682
100	0x3dc7f1db	0.09762927
101	0x3e24eb17	0.16105305
102	0x3e2a95b1	0.16658665
103	0x3ecf04dd	0.40433398
104	0x3e9bbcce	0.30417484
105	0x3de8230f	0.11334812
106	0xbc059348	-0.00815279
107	0x3c486d43	0.012233081
108	0xbdf92910	-0.12166035
109	0x3e252af8	0.16129673
110	0x3daf46ab	0.08558401
111	0x3e9a4b2c	0.30135477
112	0xbdcf5bd5	-0.101249374
113	0xbe2e4298	-0.17017591
114	0xbd3e40fe	-0.0464487
115	0x3e2b5285	0.16730697
116	0x3e427d48	0.18993104
117	0xbe09a07a	-0.13440123
118	0x3dadd01f	0.084869616
119	0xbe21e562	-0.15810159
120	0xbd975cbe	-0.07390736
121	0x3e669a07	0.22519694
122	0xbd9dbdcb	-0.07702216
123	0x3d6480db	0.05578695
124	0x3dcb9d2d	0.09942088
125	0x3e5d6abd	0.21622749
126	0x3e6d2727	0.23159467
127	0xbdb1a048	-0.08673149
128	0xbcbea99e	-0.02327424
129	0x3da85e21	0.08221079
130	0x3da792cf	0.081822984
131	0x3ba5479d	0.0050439374
132	0xbd5c0e17	-0.053724375
133	0x3d9bdf7e	0.07610987
134	0x3e30a7ee	0.1725156
135	0xbdb020b8	-0.085999906
136	0x3e1ca40e	0.15296957
137	0xbe6a6ea9	-0.22893776
138	0xbe0814ee	-0.13289234
139	0x3dd9cda4	0.10634926
140	0xbb8f56f2	-0.0043743784
141	0x3d07d7db	0.03316484
142	0x3e5ff0f8	0.21869266
143	0xbc8d38b7	-0.017238958
144	0xbcf80e13	-0.030280149
145	0x3d31a8f4	0.043374017
146	0x3d6312e5	0.05543794
147	0xbdaefed4	-0.08544698
148	0xbcbacb43	-0.022802
149	0xbe18b751	-0.1491368
150	0xbe06e88d	-0.13174649
151	0x3dd49bac	0.103812546
152	0xbd8f0f91	-0.06985391
153	0xbdb7bdb7	-0.08971732
154	0xbe2ef835	-0.17086871
155	0xbc9a995e	-0.01887196
156	0x3eb1f416	0.34756535
157	0xbe33a9bb	-0.17545216
158	0xbeb4d587	-0.35319158
159	0xbda37713	-0.07981696
160	0x3d788606	0.06067469
161	0x3c3bd2fe	0.011463879
162	0xbd9d097d	-0.07667825
163	0xbd6a34bb	-0.057179194
164	0x3d9fd1aa	0.07803662
165	0x3c69c91b	0.014269139
166	0x3e803fef	0.25048777
167	0x3d14b224	0.0363027
168	0x3e48053b	0.19533245
169	0xbe444e40	-0.19170475
170	0x3c7b8d68	0.015353538
171	0x3e2b34bb	0.16719334
172	0x3dc47630	0.09592855
173	0xbd10d177	-0.03535601
174	0x3d2090f4	0.039200738
175	0x3e9189cd	0.28425446
176	0xbe0e4251	-0.13892485
177	0x3d14cb54	0.03632672
178	0x3d477bf5	0.0487022
179	0xbba0bfed	-0.004905692
180	0x3ca08b00	0.01959753
181	0x3daf76d5	0.08567587
182	0x3cf1725b	0.029473474
183	0x3dca3c68	0.09874803
184	0x3c76ffbc	0.01507562
185	0x3e1bd8a4	0.1521936
186	0xbdbb6f82	-0.09152128
187	0x3d6fbe68	0.058531195
188	0x3ea58dec	0.3233484
189	0xbc80ad45	-0.015707621
190	0xbe658dad	-0.22417326
191	0x3eca2778	0.39483237
192	0x3e152350	0.14564252
193	0x3e065ee2	0.13122132
194	0x3dac217d	0.08404825
195	0xbb228bdc	-0.00248026
196	0x3ca17997	0.019711299
197	0x3ea4a31b	0.3215569
198	0xbe849efe	-0.2590255
199	0xbcf64a92	-0.030064855
200	0x3dab6b5e	0.08370088
201	0x3e1e031a	0.1543087
202	0xbe18666b	-0.1488282
203	0x3e0e3489	0.13887228
204	0x3af9db46	0.0019062541
205	0xbcaf23f1	-0.021379443
206	0xbcae4531	-0.021273227
207	0x3dea438f	0.11438667
208	0x3d2b0da0	0.04176104
209	0x3e0df490	0.13862824
210	0x3d452bef	0.0481376
211	0x3e99f60c	0.3007053
212	0x3d9a2de4	0.07528284
213	0x3bf05f09	0.007335548
214	0xbe0d2c57	-0.13786446
215	0x3d468cd8	0.048474163
216	0x3e6fe958	0.23428857
217	0x3b1a5aad	0.0023552582
218	0xbcdd3af3	-0.027005648
219	0x3bdf9dba	0.0068242224
220	0x3d29e32c	0.041476414
221	0x3d0910cb	0.03346328
222	0x3e143091	0.14471652
223	0xbe0aff01	-0.13573839
224	0x3c9c2ca3	0.019064253
225	0xbdbafd17	-0.09130304
226	0x3e371189	0.17877783
227	0xbd88f84e	-0.06687985
228	0x3d4dee04	0.050275818
229	0xbce4ad58	-0.027914688
230	0xbeabfa13	-0.3358923
231	0x3db9f0b6	0.09079115
232	0xbc64f1fd	-0.01397371
233	0x3cba1139	0.02271329
234	0xbe001511	-0.12508036
235	0x3e9302aa	0.2871297
236	0xbdd277fa	-0.1027679
237	0xbc9460d9	-0.018112587
238	0x3d3f3bf7	0.046688046
239	0x3e54d671	0.20784928
240	0xbd624eae	-0.055250816
241	0xbe53480c	-0.20632952
242	0x3d810e62	0.063015714
243	0xbc16c9c8	-0.009203382
244	0x3e6dd2d7	0.2322496
245	0x3de96f54	0.11398187
246	0x3e66e577	0.22548471
247	0xbdb977fb	-0.090560876
248	0xbc446e6e	-0.011989219
249	0x3e58d8e3	0.21176486
250	0x3e4f756a	0.20259634
251	0x3c01d9be	0.007925449
252	0xbd986f94	-0.07443157
253	0xbe2183a0	-0.15772867
254	0x3c14944c	0.00906856
255	0x3daf40c5	0.08557276

features_model.2.bias f4 [128]
0	0x3df2b60d	0.1185113
1	0x3d88518a	0.06656177
2	0x3bb412ff	0.0054954286
3	0xbd756ad2	-0.059916325
4	0x3d96dfb1	0.073668845
5	0x3e1486b5	0.14504512
6	0xbc9a5e0a	-0.01884367
7	0x00000000	0.0
8	0x3dea962c	0.11454424
9	0x3e136841	0.14395238
10	0xbcfb7200	-0.030694008
11	0x3df9990f	0.12187397
12	0xbc862a33	-0.016377544
13	0xbcbaf669	-0.022822576
14	0xbbd74a21	-0.006570116
15	0x3e413732	0.18868712
16	0xbba45406	-0.005014899
17	0x3d6e8eea	0.058241762
18	0xbcd70258	-0.026246235
19	0x3e0e66d1	0.13906409
20	0xbbf5b147	-0.0074979397
21	0x3e156fe3	0.14593463
22	0xbc976e75	-0.018485287
23	0xbd3c6b6e	-0.04600089
24	0x3e2e7126	0.1703535
25	0x3e00a0b3	0.12561302
26	0xbb8b9579	-0.004259762
27	0xbc398e06	-0.011325365
28	0xbbdaac0a	-0.0066733407
29	0xbb2818c8	-0.0025649536
30	0xbcea4bab	-0.028600534
31	0x3e062423	0.13099723
32	0x3dc86b89	0.09786136
33	0x3e07a2ed	0.13245745
34	0x3e31f532	0.17378691
35	0x3dda65a2	0.10663916
36	0xbd011ece	-0.03152352
37	0x3d716ca1	0.058941487
38	0x3dfe3769	0.124129124
39	0xbc37475c	-0.011186447
40	0x3e234b1c	0.1594662
41	0x3d7c007f	0.06152391
42	0xbd12d70e	-0.035849623
43	0xbbdd2ead	-0.006749949
44	0x3db33051	0.0874945
45	0xbcc8d512	-0.024515662
46	0x3c6e053e	0.014527617
47	0xbc4d5029	-0.012531319
48	0xbce84344	-0.028352387
49	0x3dc4a714	0.0960218
50	0xbc686e18	-0.014186405
51	0xbc59caa8	-0.013292946
52	0xbc9def4a	-0.019279141
53	0x3dc5c44f	0.096565835
54	0xbc3a6a29	-0.01137785
55	0x3e094b4c	0.1340763
56	0x3dd0e949	0.102007456
57	0xbcb4ba96	-0.022061627
58	0x3da3773a	0.07981725
59	0xbcd5aa32	-0.026082132
60	0xbcd0133c	-0.025399797
61	0x3d057134	0.032578662
62	0xbb5682f9	-0.0032731874
63	0x38d81647	0.00010303832
64	0xbc267605	-0.010159974
65	0xbd139c13	-0.036037516
66	0xbbbef2c4	-0.0058272798
67	0x3e2406d4	0.1601823
68	0x3e126916	0.142979
69	0x3de2ce60	0.11074519
70	0x3ca86500	0.020555973
71	0xbba67d19	-0.005080831
72	0xbce8090b	-0.028324625
73	0xbcd3b469	-0.025842862
74	0x3de5358c	0.11191854
75	0x3dd101ed	0.102054454
76	0x3dfe7260	0.12424159
77	0x3acea5fc	0.001576602
78	0x3e089c75	0.13340934
79	0xbc9d224c	-0.019181393
80	0x00000000	0.0
81	0x3bf43793	0.007452914
82	0xbccf856e	-0.025332179
83	0x3de20023	0.11035182
84	0xbc6c9b3c	-0.014441308
85	0x3dc4a88e	0.09602462
86	0xbc4b8d69	-0.0124238515
87	0x3e47e011	0.19519068
88	0x3dd3a6ab	0.10334524
89	0xbb3aed82	-0.0028522913
90	0xbccdee05	-0.02513791
91	0x3ce32468	0.02772732
92	0x3e04da27	0.12973844
93	0xbd0bc063	-0.03411902
94	0xbca812a3	-0.0205167
95	0x3dd9e8f5	0.10640136
96	0xbc2eb833	-0.010664034
97	0xbc9b3aa9	-0.01894887
98	0x3cea4203	0.02859593
99	0x3e37c327	0.17945538
100	0xbd3a9329	-0.0455505
101	0xbd205d97	-0.039151754
102	0x00000000	0.0
103	0xbd015840	-0.031578302
104	0x3de42aea	0.11140998
105	0xbbfe5aa7	-0.0077622714
106	0x3e1353ca	0.14387432
107	0xbd5ebb77	-0.054378
108	0xba117579	-0.0005548816
109	0xbcef0766	-0.029178333
110	0x3dec37ea	0.11534102
111	0xbd402334	-0.046908572
112	0xbcdab6af	-0.026698438
113	0xbc733356	-0.014843782
114	0x3da6f732	0.081526175
115	0x3e51f752	0.20504501
116	0x3dff1926	0.124559686
117	0x3e0cfed6	0.13769087
118	0xbc5883f0	-0.01321505
119	0xbd40fba0	-0.04711497
120	0x3bf3bd7f	0.007438361
121	0xbc90fc10	-0.017698318
122	0xbc73c14a	-0.014877627
123	0x3d79d26d	0.060991693
124	0xbc4c791a	-0.012480045
125	0x3d49aaeb	0.049235266
126	0x00000000	0.0
127	0xbc423781	-0.0118540535

features_model.4.weight f4 [128, 128]
0	0x3e02fade	0.1279101
1	0xb944033b	-0.0001869322
2	0x3d6f90a4	0.05848755
3	0xbd72ad7b	-0.059247475
4	0xbc98a1a7	-0.01863177
5	0xbe6299cb	-0.2212898
6	0xbe8363c9	-0.25662068
7	0x3b92d763	0.0044812425
8	0xbd9bff41	-0.07617045
9	0x3c71f115	0.014766951
10	0xbd76685a	-0.06015811
11	0xbe2d07da	-0.16897526
12	0xbd54269f	-0.051794644
13	0xbd4fc905	-0.050728817
14	0xbc2a3392	-0.010388272
15	0xbd280f14	-0.041030005
16	0x3e0f0d7a	0.13969985
17	0x3dc57185	0.09640793
18	0xbe64f017	-0.22357212
19	0x3d7f445e	0.06232106
20	0x3d65cd21	0.05610383
21	0xbe9314a0	-0.28726673
22	0xbe19a5b4	-0.15004617
23	0x3db39bbc	0.08769938
24	0xbdcf3a6c	-0.10118565
25	0x3d96fbe8	0.07372266
26	0x3ebd5831	0.36981347
27	0xbc95fa4e	-0.018307831
28	0x3de4755d	0.11155198
29	0x3de86cf4	0.11348906
30	0xbcefe57c	-0.029284231
31	0xbd2106ab	-0.039313
32	0x3d0002df	0.031252738
33	0xbe5aff00	-0.21386337
34	0x3e38438d	0.17994519
35	0x3e4976ce	0.19674227
36	0xbe3fd6bb	-0.18734257
37	0xbd7abacd	-0.061213303
38	0xbcf7b3da	-0.030237127
39	0x3d112d65	0.035443682
40	0xbd1023be	-0.035190336
41	0x3cac236e	0.021012988
42	0x3eab6fea	0.3348382
43	0xbe096aa2	-0.13419583
44	0x3d8ed368	0.06973916
45	0x3e348f6c	0.17632836
46	0xbd071cf3	-0.032986593
47	0x3e25cfa7	0.16192494
48	0xbe6089dd	-0.2192759
49	0x3cad8a6b	0.021184167
50	0x3d5577d1	0.05211622
51	0x3d5a3eb0	0.05328244
52	0xbd0d0737	-0.03443071
53	0xbe196d5f	-0.14983128
54	0xbd94e56b	-0.072703205
55	0x3ddd450b	0.108041845
56	0xbd7eeadf	-0.06223571
57	0xbea18166	-0.31544036
58	0x3e32916d	0.17438288
59	0x3d4c7134	0.049912646
60	0xbe18c5f1	-0.14919259
61	0xbd5cefd9	-0.053939674
62	0x3d1b6ff3	0.03794856
63	0xbd13d90f	-0.036095675
64	0xbe14fc66	-0.14549407
65	0xbdb64aa6	-0.08900957
66	0x3d1b4f16	0.03791722
67	0xbd8baaf3	-0.06819715
68	0x3d981b14	0.0742704
69	0x3d398499	0.04529247
70	0x3dc51dc2	0.096248165
71	0x3e21252d	0.15736838
72	0xbe082c79	-0.13298215
73	0xbdaf956e	-0.08573423
74	0xbd09c38a	-0.033633746
75	0x3d76e22a	0.06027428
76	0xbea44fda	-0.32092172
77	0x3cec1293	0.02881745
78	0xbdbd1d90	-0.09234154
79	0xbe0fbb14	-0.14036208
80	0x3e59deff	0.21276473
81	0x3e40bcea	0.18822065
82	0xbc220784	-0.009889487
83	0xbc41627a	-0.011803264
84	0x3cb53403	0.022119528
85	0xbdfc628e	-0.12323485
86	0x3c99e364	0.018785186
87	0x3d767081	0.060165886
88	0x3a2e83f2	0.00066572346
89	0xbe05abc8	-0.1305381
90	0x3d5e1f8a	0.054229297
91	0x3d13f71d	0.036124337
92	0xbe18fd48	-0.14940369
93	0xbddab3ce	-0.10678826
94	0xbd4c42c2	-0.049868353
95	0x3dce3638	0.10068935
96	0x3d143dde	0.036191814
97	0x3dadc20a	0.08484276
98	0xbc130cdf	-0.008975237
99	0x3be26741	0.0069092815
100	0xbd33a9c8	-0.043863088
101	0xbd4ae403	-0.049533855
102	0xbde38c27	-0.11110716
103	0x3da6a638	0.081371725
104	0xbd06e7af	-0.032935794
105	0xbe472de0	-0.19451094
106	0xbe51b2cd	-0.20478363
107	0xbd058aaf	-0.032602962
108	0xbe04551a	-0.12923089
109	0xbe059fd0	-0.13049245
110	0x3e69c6be	0.2282972
111	0x3e1741f3	0.14771251
112	0x3b997ce4	0.0046840776
113	0x3d983e52	0.07433762
114	0xbd1273ea	-0.035755076
115	0x3d384127	0.04498401
116	0xbe02d9be	-0.12778375
117	0x3dd23009	0.10263068
118	0x3e15f52e	0.1464431
119	0xbdb9bf3a	-0.09069677
120	0x3ddcc9c6	0.10780673
121	0xbdf4e36d	-0.119574405
122	0x3e11d298	0.14240491
123	0xbe666c1b	-0.22502176
124	0xbe24ec02	-0.16105655
125	0xbe0e93db	-0.1392359
126	0xbe0f6a24	-0.14005333
127	0xbd24828b	-0.040163558
128	0xbd1a49b9	-0.037667964
129	0xbddad3fd	-0.10684965
130	0x3df0ffb7	0.11767524
131	0xbdbb2885	-0.09138588
132	0xbe021c5d	-0.12706132
133	0xbd106b03	-0.035258304
134	0x3e2adf13	0.16686659
135	0xbe18114a	-0.14850345
136	0xbe5b8339	-0.21436776
137	0xbdbd3089	-0.09237773
138	0x3d0bf92c	0.034173176
139	0xbe3453aa	-0.1761004
140	0xbd4283c9	-0.04748896
141	0x3e0cad88	0.13738072
142	0x3d09c77e	0.033637516
143	0x3c9762fa	0.018479813
144	0xbe1e27ca	-0.15444866
145	0xbd547340	-0.051867723
146	0x3e92e313	0.2868887
147	0xbd9eeec2	-0.07760383
148	0x3dface4b	0.122463785
149	0x3db5df58	0.0888049
150	0xbd968d84	-0.07351211
151	0x3e5b9edf	0.21447323
152	0x3dcb35e1	0.09922386
153	0x3d32a0a3	0.043610226
154	0xbdf6bae9	-0.12047369
155	0xbd0abbe0	-0.033870578
156	0xbe3f9d26	-0.18712291
157	0x3e2a25f7	0.16616045
158	0x3d445add	0.047938216
159	0xbda136d4	-0.07871786
160	0xbd2ce766	-0.042212866
161	0xbe04de5a	-0.12975445
162	0x3d7731d3	0.06035025
163	0xbc9f1cca	-0.019422907
164	0x3e84d29a	0.25941926
165	0xbd0bd73b	-0.034140807
166	0x3d4766c4	0.04868199
167	0xbe912230	-0.28346395
168	0xbc0f81ff	-0.008759021
169	0xbc177d8b	-0.00924624
170	0x3da57ac7	0.080800585
171	0x3e42ed94	0.19035941
172	0x3ed5c9c9	0.41755512
173	0x3d2911a6	0.041276596
174	0xbcf5740d	-0.029962564
175	0xbd952d6e	-0.07284056
176	0x3df435b4	0.119243056
177	0xbe5fd1ff	-0.21857451
178	0xbe1bf39a	-0.15229645
179	0xbeb8c180	-0.3608513
180	0x3d85852c	0.06519541
181	0xbe28b2f2	-0.16474512
182	0x3d03b959	0.032159183
183	0x3e65b88e	0.22433683
184	0x3e224e37	0.15850149
185	0xbbfa23e8	-0.007633675
186	0xbd7c7de6	-0.061643504
187	0xbdc1c170	-0.094607234
188	0x3e6c2c32	0.23063734
189	0x3e866389	0.26247814
190	0x3da0d811	0.078537114
191	0xbdcf9485	-0.1013575
192	0x3d8bc578	0.068247736
193	0xbcc6f197	-0.02428512
194	0xbb2c399b	-0.0026279453
195	0x3dc0c830	0.09413183
196	0x3e4882a2	0.19581082
197	0xbe2e8095	-0.17041238
198	0x3e12b1da	0.14325657
199	0x3d955079	0.072907396
200	0xbd1ebb7f	-0.03875303
201	0x3daf7281	0.08566762
202	0xbd41c3bc	-0.047305807
203	0x3dc9b872	0.09849633
204	0xbdcb9291	-0.09940065
205	0xbdbbc872	-0.09169091
206	0x3dbb566e	0.091473445
207	0xbe08bb85	-0.13352783
208	0x3dbf3194	0.09335628
209	0x39e7ed18	0.00044236402
210	0xbc166998	-0.009180449
211	0xbd0d05bc	-0.034429297
212	0x3c7f94e6	0.015599465
213	0xbe111f1a	-0.1417202
214	0xbc6994b9	-0.01425665
215	0xbe70b3f4	-0.23506147
216	0x3e104d67	0.14092027
217	0x3e5776f2	0.21041468
218	0x3d1c3e89	0.038145576
219	0x3e21025b	0.15723555
220	0x3db399be	0.08769558
221	0x3c37734d	0.011196923
222	0xbd8803de	-0.066413626
223	0x3aa52b5e	0.0012601425
224	0xbc0a03c1	-0.008423747
225	0x3e0de941	0.1385851
226	0xbc600636	-0.013673356
227	0xbd25c88c	-0.04047446
228	0x3e5d96e8	0.21639597
229	0x3d09c565	0.033635516
230	0xbe4c87ff	-0.19973753
231	0xbc5e5a35	-0.013571312
232	0x3e050cfb	0.12993233
233	0xbd125e7d	-0.035734642
234	0xbd406605	-0.046972293
235	0xbe25acb6	-0.16179165
236	0xbde59b2c	-0.11211237
237	0x3d313a10	0.043268263
238	0xbcf51933	-0.029919242
239	0x3ceb46c5	0.028720269
240	0x3dbc1b00	0.09184837
241	0xbe03b91e	-0.12863585
242	0x3dc84651	0.09779037
243	0x3dd6e55b	0.10492965
244	0xba7af9c4	-0.0009573961
245	0xbd475176	-0.04866167
246	0x3e2325e7	0.15932427
247	0xbde80c15	-0.113304295
248	0x3e3d77c6	0.18502721
249	0x3d3f9e7d	0.046782006
250	0xbc6e62b0	-0.014549896
251	0xbd89d0fa	-0.06729312
252	0xbe01defd	-0.1268272
253	0xbdd5cb92	-0.104392186
254	0xbd0ce720	-0.034400105
255	0x3e569ad0	0.20957494

features_model.4.bias f4 [128]
0	0xbcf82c63	-0.030294603
1	0xbc94dc12	-0.018171344
2	0xbcbe7e70	-0.02325365
3	0xbcef209c	-0.029190354
4	0x3e13a00b	0.1441652
5	0xbcc35294	-0.023843087
6	0xbcf3ce48	-0.029761449
7	0xbc9a36fc	-0.018825047
8	0xbca06577	-0.019579632
9	0xbc73471b	-0.014848496
10	0xbc676b37	-0.014124683
11	0x3dc50ffd	0.0962219
12	0xbc5737a4	-0.013135824
13	0x3d98e9ad	0.07466445
14	0x3c9a7fef	0.018859832
15	0xbcfdf9c8	-0.031002894
16	0xbc59875c	-0.013276901
17	0xba4949fd	-0.00076785666
18	0xbbf6994e	-0.0075255996
19	0x3df1de24	0.11809948
20	0xbbbbd0ad	-0.005731663
21	0x3d99a468	0.07502061
22	0xbc8267e2	-0.015918676
23	0xbc0d88ea	-0.0086386
24	0x3da7189e	0.08158992
25	0x3cc112a1	0.023568453
26	0xbcca6379	-0.024705635
27	0x3d016d2b	0.03159825
28	0xbc9f0e60	-0.019416034
29	0x3e012329	0.12611069
30	0x3d8a932f	0.06766354
31	0xbb11c131	-0.0022240395
32	0xbc477d82	-0.0121759195
33	0x3d9c1439	0.07621045
34	0xbc15e60f	-0.0091490885
35	0x3db89b67	0.09014016
36	0x3b3f52cc	0.0029193638
37	0x00000000	0.0
38	0x3de8eeab	0.11373647
39	0xbcaa1d5a	-0.020765949
40	0xbc9520a4	-0.01820404
41	0xbc317b4c	-0.010832619
42	0x3c6a3375	0.014294495
43	0xba4326b8	-0.0007444429
44	0xbc8e07eb	-0.01733776
45	0xbc38044f	-0.011231496
46	0xbc46a067	-0.012123204
47	0x3db06a57	0.08614033
48	0x3ddec9d0	0.108783364
49	0x3e543d69	0.20726551
50	0x3ce426de	0.027850565
51	0xbd0544b8	-0.03253624
52	0xbcb5aac6	-0.022176158
53	0x3bcbcc93	0.0062194555
54	0xbcbacd2b	-0.02280291
55	0xbc5f1f94	-0.013618369
56	0x00000000	0.0
57	0x3a399dc5	0.00070806994
58	0xbca79e26	-0.020461153
59	0x3d18bf10	0.037291586
60	0xba6aca6e	-0.0008956556
61	0x3c15c7f9	0.0091419155
62	0x3e1614a3	0.1465631
63	0xbccd7ffa	-0.025085438
64	0x3e2ef654	0.17086154
65	0x3c5305d2	0.012879806
66	0x3ddd9234	0.10818902
67	0x3c36c2b2	0.011154817
68	0xbb35b65f	-0.002772711
69	0x3d700199	0.058595274
70	0x3d90bcfe	0.070672974
71	0xbc9c54cf	-0.019083409
72	0xbc926a22	-0.017872874
73	0xbcab622a	-0.020920832
74	0xbca1b4b8	-0.019739494
75	0x3d8a652a	0.06757577
76	0x3a9fbbb6	0.001218668
77	0x3d21587d	0.03939103
78	0x3d9fb221	0.07797647
79	0xbcb6e09e	-0.022323903
80	0x3c4fbcc9	0.012679287
81	0x3bba9a68	0.005694676
82	0x3e047d92	0.12938526
83	0xbcca9985	-0.024731407
84	0xbd0ce309	-0.034396205
85	0xbc85230c	-0.016252063
86	0x3df0a43e	0.11750077
87	0x3e070f33	0.13189392
88	0xbd2c6a4f	-0.04209357
89	0xbcdf4065	-0.027252385
90	0xbc9ab295	-0.018883983
91	0x3bf696d3	0.007525304
92	0x3e27f022	0.16400197
93	0xbcd9b54a	-0.026575703
94	0x3e116b29	0.14201035
95	0xbd0932b8	-0.033495635
96	0x3e1a8934	0.15091401
97	0x3dc16c42	0.09444477
98	0x3e197e5a	0.14989606
99	0x3e3349f9	0.17508687
100	0xbd28ad54	-0.041180924
101	0xbcd5479a	-0.026035119
102	0xbb908402	-0.004410268
103	0x3d18a257	0.037264194
104	0x3e1db86b	0.15402381
105	0x3e0b334f	0.13593791
106	0xbb38d58f	-0.0028203463
107	0xbcae3c82	-0.021269087
108	0x3e33e9a1	0.17569591
109	0xbcab2eb7	-0.020896299
110	0xbcc974da	-0.024591852
111	0x3d47c691	0.048773352
112	0x3c0a9c13	0.008460063
113	0xbc4b88f5	-0.01242279
114	0x3e184df7	0.14873491
115	0x3d02d70c	0.031943366
116	0xbce64a14	-0.028111495
117	0x3dc91b9d	0.0981972
118	0xbcaa7243	-0.020806437
119	0x3e171ffe	0.14758298
120	0xbb2b852b	-0.0026171904
121	0x3d949824	0.07255581
122	0xbca1f8f4	-0.01977203
123	0x00000000	0.0
124	0x3e309d81	0.17247583
125	0x3df80f79	0.12112326
126	0x3bf57308	0.0074905194
127	0x3d9bb27c	0.076024026

policy_model.0.weight f4 [128, 128]
0	0x3af99550	0.0019041691
1	0x3b229146	0.0024805828
2	0xbae944de	-0.0017797013
3	0xbac2a7d9	-0.0014851048
4	0xba0f662c	-0.0005470242
5	0xbb0c0a29	-0.002136836
6	0xbb294e96	-0.0025834194
7	0xbaa89071	-0.001286043
8	0xbae76aec	-0.0017655767
9	0x3ad87bf0	0.0016516428
10	0xba97c102	-0.0011577907
11	0xbaf250b4	-0.0018487186
12	0xbb0f5918	-0.0021873172
13	0x398b0288	0.00026514032
14	0xbb289170	-0.0025721453
15	0xbad639e2	-0.0016344155
16	0xbb3f7075	-0.0029211317
17	0x39e063b9	0.00042798909
18	0xba9c4f76	-0.0011925537
19	0xbb655e4a	-0.0034998828
20	0x3b418f6f	0.0029534956
21	0xbb960144	-0.0045777876
22	0xbb193f95	-0.0023383845
23	0x38e3f4ae	0.000108697786
24	0x381ea6b8	3.7825404e-05
25	0xbaa7dcb1	-0.001280686
26	0xba9ef695	-0.001212793
27	0xbabca78b	-0.0014393193
28	0xbaf1e0ec	-0.0018453873
29	0x3aaf2025	0.001336102
30	0xbbae58a6	-0.0053206263
31	0xb8db6189	-0.00010460901
32	0xb8d2e470	-0.0001005613
33	0xbb7100b3	-0.0036774098
34	0x39def3d5	0.0004252481
35	0xbb8d024f	-0.0043032537
36	0xb8b9be38	-8.8569184e-05
37	0xba70869c	-0.0009175332
38	0xbba6b9cf	-0.005088068
39	0xbb3ef259	-0.002913615
40	0xb95640d3	-0.0002043278
41	0xba8243c3	-0.0009938407
42	0xba4000d4	-0.0007324342
43	0x3b1db9d2	0.0024067056
44	0x393d5bfd	0.00018058713
45	0x399c4c14	0.0002981132
46	0x3ad637a9	0.0016343492
47	0xba6806ec	-0.0008851129
48	0xba30f1c9	-0.0006749896
49	0xba964605	-0.0011464959
50	0xbaf837f1	-0.001893757
51	0xbb08ee24	-0.0020893896
52	0xba9fd732	-0.001219487
53	0x3a964166	0.0011463582
54	0xbaf58fce	-0.0018734874
55	0x3a372f7e	0.0006987973
56	0xba30f8c4	-0.0006750936
57	0xbb608efb	-0.003426491
58	0xbafabf11	-0.0019130429
59	0xbb1c7a30	-0.002387654
60	0xbaea1148	-0.0017857933
61	0xbad806f2	-0.0016481562
62	0xba400c67	-0.0007326067
63	0xba4af13a	-0.0007741634
64	0x3a8cc995	0.0010741228
65	0x3aef684a	0.0018265333
66	0x3b3a7970	0.002845373
67	0xbb1e1585	-0.0024121713
68	0x3887e7f0	6.480503e-05
69	0xbbea8259	-0.007156652
70	0xbbb62158	-0.005558174
71	0xbabdf55b	-0.0014492677
72	0x3af9717b	0.0019031012
73	0x3a76da47	0.0009416681
74	0xbb28402f	-0.0025673022
75	0x3aa3a954	0.0012486377
76	0xb8a74341	-7.9757076e-05
77	0xb9fa7cd3	-0.00047776717
78	0x3abee8e7	0.001456526
79	0xbae629aa	-0.0017560024
80	0x3a700824	0.00091564865
81	0x395df4ea	0.0002116744
82	0xb9eedf92	-0.0004556147
83	0xba85567f	-0.0010172873
84	0xbb0ea443	-0.0021765388
85	0x3b0c89e7	0.00214445
86	0xbc08fe78	-0.008361451
87	0xbbd037de	-0.006354316
88	0xbae449da	-0.0017417029
89	0x3b438256	0.0029832325
90	0xbadd8892	-0.0016901663
91	0xbb397143	-0.002829627
92	0x3ac7fc9c	0.0015257779
93	0xbb381fae	-0.0028095054
94	0xba80e0e1	-0.0009832644
95	0x3a5ab4ce	0.0008342982
96	0xba832422	-0.0010005275
97	0xbbb9addc	-0.0056664776
98	0x3af56f7d	0.0018725243
99	0x393b4437	0.00017859122
100	0x395f2099	0.00021279081
101	0xbaea036a	-0.0017853801
102	0xba24f86e	-0.00062931224
103	0x3920ed57	0.00015347205
104	0xbab04a46	-0.001344987
105	0xbae7165f	-0.0017630568
106	0x3ab9f71c	0.0014188024
107	0xbb1b8c4e	-0.002373475
108	0x3a02da93	0.00049916765
109	0xb9cd3ac5	-0.00039144434
110	0x3aa3091f	0.0012438631
111	0xbb34956a	-0.0027554878
112	0xb990abd2	-0.00027593836
113	0xbb5659a1	-0.0032707232
114	0x39a8addd	0.00032172995
115	0xbb29ec21	-0.0025928097
116	0xbaf6e858	-0.0018837554
117	0xbbe59c41	-0.0070071523
118	0xbac48a8a	-0.0014994901
119	0xbb97648b	-0.00462014
120	0xbb0c6306	-0.0021421327
121	0xbbe177d3	-0.0068807392
122	0x37827b93	1.5554751e-05
123	0x392771a5	0.00015968697
124	0xbbc69e08	-0.0060613193
125	0xbb918864	-0.004441308
126	0xb9357776	-0.00017306008
127	0xbaecc8d0	-0.0018065218
128	0xbd5b6b9c	-0.05356942
129	0x3b911d82	0.0044285664
130	0x3c578fd5	0.013156851
131	0x3c4a0b43	0.012331787
132	0x3d17353c	0.036916003
133	0x3c7a785d	0.015287486
134	0x3cb09192	0.021553788
135	0xbc122406	-0.0089197215
136	0x3c8b0bcc	0.016973399
137	0xbc862398	-0.016374394
138	0xbad337e3	-0.0016114678
139	0x3d6d09e5	0.057870764
140	0x3d4398e1	0.04775322
141	0x3d2893c9	0.041156564
142	0x3d8c8855	0.06861941
143	0x3c81da77	0.015851242
144	0x3d0dda07	0.034631755
145	0x3c6373db	0.013882603
146	0x3a17cce3	0.00057907234
147	0x3d8686ca	0.06568678
148	0x3bee3517	0.0072695124
149	0x3da7f652	0.08201279
150	0x3c408356	0.011750063
151	0x3bc656ad	0.006052813
152	0x3d9e176d	0.07719312
153	0x3ce9e44a	0.02855124
154	0x3d15b22b	0.036546867
155	0x3d417e1b	0.047239404
156	0x3bd06430	0.0063595995
157	0x3d09ed29	0.03367344
158	0x3d959b45	0.07305006
159	0x3ce5787f	0.028011559
160	0x3bb9afab	0.005666693
161	0x3d017e14	0.031614378
162	0x3ba89081	0.0051441793
163	0x3d9d5bcd	0.07683525
164	0xbc9ca4c4	-0.019121535
165	0xba0c9754	-0.0005363126
166	0x3d52aa9e	0.051432244
167	0x3b0d27c4	0.0021538595
168	0xbc1fee9c	-0.009761479
169	0x3c816c98	0.015798852
170	0x3d289b70	0.04116386
171	0xbc0c0689	-0.00854648
172	0x3b243fbe	0.0025062407
173	0x3c92c21b	0.017914822
174	0xbcb85d05	-0.022505293
175	0x3d94f580	0.07273388
176	0x3ccbbae9	0.0248694
177	0x3a898933	0.0010493159
178	0x3c1d6322	0.009606155
179	0x3d13f7ba	0.036124922
180	0x3c8afd16	0.016966384
181	0x3cb50782	0.022098307
182	0x3c6d6036	0.0144882705
183	0xb9deca77	-0.00042493988
184	0x3912448a	0.00013949178
185	0x39a965ee	0.00032310135
186	0x3ca3d94a	0.020001072
187	0x3d6cbb8e	0.057796054
188	0x3a3ffdf5	0.00073239143
189	0x3c08f6b7	0.008359603
190	0x39883aa6	0.00025983638
191	0x3c588ee8	0.013217665
192	0xbd1db2af	-0.038500484
193	0x3cedfe84	0.029052027
194	0x3d8ad435	0.067787565
195	0xbc21af81	-0.009868504
196	0x3c00b8c1	0.007856549
197	0x3d852b58	0.06502408
198	0x3d8eb8ad	0.06968818
199	0x3d62ca69	0.055368815
200	0x3cade2ec	0.021226369
201	0xbc9ae82a	-0.018909533
202	0x3c5e05d5	0.013551195
203	0x3d460554	0.048344925
204	0x3a9e35f1	0.0012070519
205	0x3daf547a	0.085610345
206	0xbc9392af	-0.01801428
207	0x3baebe9e	0.005332782
208	0x3c8ae5fd	0.01695537
209	0xbd0e0871	-0.03467602
210	0xbcbdafff	-0.02315521
211	0x39e75907	0.00044126084
212	0x3cc37513	0.023859536
213	0x3c87bc5c	0.016569309
214	0x3d6adf74	0.057342008
215	0x3d569640	0.052389383
216	0x3c1a2771	0.009408818
217	0x3c64f03b	0.013973291
218	0x3d0487a3	0.032355916
219	0x3cec3568	0.02883406
220	0xbbaedd2a	-0.0053364234
221	0xba17b55e	-0.00057872187
222	0x3b96ec90	0.004605837
223	0xbcc60534	-0.024172403
224	0x3d1fc852	0.0390094
225	0x3d8d5fe4	0.06903055
226	0xbcc6948e	-0.024240758
227	0xba1ad2b0	-0.00059060287
228	0x3b870aca	0.004121159
229	0x3cfe3b57	0.031034155
230	0x3d722363	0.05911578
231	0x3d8d64e9	0.06904013
232	0xbc85edad	-0.016348684
233	0x3d6af2fb	0.05736063
234	0x3d189a52	0.037256546
235	0x3d45bdf3	0.048276853
236	0xbd17e6e9	-0.037085447
237	0x3bc52a74	0.0060170237
238	0x3c42fff2	0.011901842
239	0x3b098f42	0.002098993
240	0x3d8cd674	0.06876841
241	0x3c27a28d	0.010231626
242	0x3cd94890	0.026523858
243	0x3cfa7be6	0.030576658
244	0x3b86ab7d	0.0041097985
245	0x3d8be70e	0.068311796
246	0x3c45d171	0.0120738605
247	0x3d6c4e94	0.057692125
248	0xbadb3399	-0.0016723751
249	0x3d910928	0.070818245
250	0x3d031016	0.031997763
251	0xba3f2572	-0.00072916516
252	0x3d322060	0.043487906
253	0x3d8acbaf	0.06777131
254	0x3bd7a6e8	0.006581176
255	0x3da6eafc	0.081502885

policy_model.0.bias f4 [128]
0	0xba95a6c7	-0.0011417501
1	0x3d8e6f0e	0.06954776
2	0xbac46173	-0.0014982655
3	0x393d70de	0.00018066491
4	0x37b5ad38	2.1657543e-05
5	0xb91c61c4	-0.0001491374
6	0xbbb68c9c	-0.005570961
7	0xbc27bbf4	-0.010237683
8	0x3ad2db74	0.0016087131
9	0xbac48b56	-0.0014995139
10	0xbac4bcc5	-0.0015009871
11	0xbc6ac7b7	-0.014329842
12	0xbc8ac9f2	-0.016941998
13	0x3c6630d7	0.01404973
14	0x39882fac	0.0002597546
15	0x39b460a8	0.0003440429
16	0x3be2eaae	0.0069249487
17	0xbc8d88f9	-0.017277228
18	0xbac420f3	-0.0014963433
19	0xbabf163b	-0.0014578769
20	0xbc3d3536	-0.011548331
21	0xbc064a4f	-0.0081964275
22	0x3bf92329	0.0076030684
23	0xb9c7d1e2	-0.00038112613
24	0xbc79d3a8	-0.015248217
25	0xbac4b8ee	-0.0015008727
26	0xbc42bca4	-0.011885796
27	0xbc621a26	-0.01380018
28	0xbc00df19	-0.007865691
29	0xbac46715	-0.0014984334
30	0xbc0ea458	-0.008706175
31	0xbbd03809	-0.006354336
32	0xbc604277	-0.013687721
33	0xbbdd5f5b	-0.006755752
34	0xbac4b015	-0.001500609
35	0xbbd51cfb	-0.006503699
36	0xba5ee146	-0.0008502196
37	0xba9d2de1	-0.0011991822
38	0xbc90738d	-0.017633224
39	0xbc63a47a	-0.013894195
40	0x3d87d646	0.06632666
41	0xbc6f3718	-0.014600538
42	0x3bcc0b88	0.0062269606
43	0xbac4869f	-0.0014993733
44	0xbaa81f92	-0.0012826791
45	0x3d0b91db	0.034074645
46	0xbc84e301	-0.016221525
47	0xbc250b38	-0.010073476
48	0xbc18d61e	-0.009328393
49	0x3b254fa1	0.0025224464
50	0xbc2a0189	-0.010376343
51	0xbab3c0eb	-0.001371411
52	0xbb76501d	-0.0037584372
53	0x3b83ec51	0.004025974
54	0xbc53c113	-0.01292445
55	0x00000000	0.0
56	0x00000000	0.0
57	0xbb0961fc	-0.0020962944
58	0xbc8c500a	-0.01712801
59	0xbaa73618	-0.001275721
60	0xbc8756fe	-0.016520973
61	0xbac32dd6	-0.001489098
62	0xbac43828	-0.0014970349
63	0x3b78b021	0.0037946778
64	0xbb7eb464	-0.0038864845
65	0xbac4b469	-0.001500738
66	0xbae5f0bb	-0.0017543057
67	0xbc7e3b9d	-0.015517143
68	0xbc0afd4a	-0.00848324
69	0xbb8c31fd	-0.00427842
70	0xbc0095df	-0.007848232
71	0xbbfee2af	-0.0077784876
72	0xba8362fd	-0.0010024008
73	0xbba9ae76	-0.005178268
74	0x3a825ee9	0.0009946498
75	0xbb767552	-0.003760655
76	0xbac44a0c	-0.0014975681
77	0xbc828737	-0.015933616
78	0xbc775ddc	-0.015098061
79	0xbac49e1d	-0.0015000735
80	0x3cea6cbf	0.028616307
81	0xbc86ffda	-0.016479421
82	0xbc65ae44	-0.014018599
83	0xba0bb014	-0.0005328667
84	0x3babc9a1	0.005242542
85	0xba987412	-0.0011631271
86	0xba5b9c7c	-0.0008377505
87	0x3dd25322	0.102697626
88	0xbc268129	-0.01016263
89	0xbc920e92	-0.017829213
90	0xbac45684	-0.0014979397
91	0xbb6b06e1	-0.0035862254
92	0xb9a1ef72	-0.00030886714
93	0xbbe9d564	-0.007136034
94	0xbafbcf58	-0.0019211574
95	0xbc148e96	-0.009067198
96	0xbc8d2506	-0.017229568
97	0xbac48c64	-0.0014995453
98	0xbc7f93b6	-0.015599182
99	0xbc80fde5	-0.015746066
100	0x3b1e0eee	0.0024117786
101	0xbc259508	-0.010106333
102	0xbb426cf6	-0.0029666997
103	0xbba74eab	-0.0051058135
104	0xbbd10fe9	-0.0063800705
105	0x3bbe2424	0.005802648
106	0x3c39f81f	0.011350661
107	0xbc3029d1	-0.010752157
108	0xbaa780b9	-0.0012779451
109	0xbac494cf	-0.0014997962
110	0xbbda5c63	-0.0066638454
111	0xbc2e0b94	-0.010622878
112	0xbc2f86da	-0.010713303
113	0xb8e75986	-0.000110316134
114	0xba34573d	-0.00068794546
115	0xbad8f658	-0.0016552908
116	0xbc05aeab	-0.00815932
117	0xbc76df61	-0.015067906
118	0xbaa08166	-0.0012245595
119	0xbac298c1	-0.001484655
120	0xbc54a4e8	-0.01297877
121	0x3d2b3c22	0.041805394
122	0xbaa8d0ce	-0.0012879611
123	0x3b4b968c	0.0031065075
124	0xbb6aefe2	-0.0035848548
125	0xbb6b6843	-0.00359203
126	0x3bc89c70	0.0061221644
127	0xbb48bce6	-0.003063017

policy_model.2.weight f4 [8, 128]
0	0xbaecf4da	-0.0018078343
1	0xbd2b6964	-0.041848555
2	0x3ae21812	0.0017249605
3	0x3a51f7ba	0.00080096314
4	0xbb00fdb3	-0.0019682467
5	0x3a4ea8f7	0.0007883454
6	0xbc7c85b3	-0.015412736
7	0xbbd08c5a	-0.0063643875
8	0x3bb6057a	0.005554852
9	0xb92a76d1	-0.00016256726
10	0xbaee0be8	-0.0018161507
11	0xbbb8e0ce	-0.005642033
12	0xbbafd1c7	-0.0053655836
13	0x3b710568	0.0036776904
14	0x3b209c48	0.0024507213
15	0x3a9f5bbd	0.0012158077
16	0x3b720be5	0.003693336
17	0xbbe2924e	-0.0069144135
18	0x3a8330d2	0.0010009056
19	0xbb29d573	-0.002591458
20	0xbbb93377	-0.005651887
21	0xbbefbbb5	-0.0073160776
22	0x3c7f06ea	0.015565613
23	0x3a39311b	0.0007064507
24	0xbbf814b6	-0.0075708283
25	0x3ad74434	0.0016423524
26	0xbb2ae5d2	-0.0026076925
27	0xbbdb5ed0	-0.006694652
28	0xbc818e75	-0.015815
29	0xba5a850a	-0.00083358644
30	0xbc052a5b	-0.008127774
31	0x39eeeb3a	0.00045570155
32	0xbc1180a6	-0.00888077
33	0xbc1ebc1d	-0.009688404
34	0x3ae6060e	0.0017549412
35	0xbbf767de	-0.0075502237
36	0xba97f305	-0.0011592811
37	0x3a8f146e	0.0010916123
38	0xbbe5642f	-0.007000468
39	0xbc090570	-0.008363113
40	0xbd76e28d	-0.06027465
41	0xbbdb7aed	-0.0066980035
42	0x3b635771	0.003468957
43	0xbac9f904	-0.0015409295
44	0x3aa7d78b	0.0012805326
45	0xbd9961b8	-0.074893415
46	0xbbf9f679	-0.007628259
47	0xbb3bb3d9	-0.0028641133
48	0xbbf13d18	-0.0073620193
49	0x3b995a55	0.004679958
50	0xbbf39ba8	-0.007434327
51	0xbbb535f2	-0.0055301124
52	0x3b91323c	0.004431037
53	0x3b94cd57	0.00454108
54	0xbbacc20e	-0.0052721566
55	0xb96c7947	-0.00022551893
56	0x3ae27eb8	0.0017280197
57	0x3aa6058e	0.001266645
58	0xbbdaf5a7	-0.006682116
59	0xb7cda102	-2.451288e-05
60	0xbbd5b375	-0.006521637
61	0xb9f31eff	-0.00046371666
62	0xba2c07af	-0.0006562424
63	0x3b88256f	0.004154853
64	0xbbff1512	-0.007784494
65	0x3a86c0a1	0.0010280797
66	0x3a7fc93b	0.00097574637
67	0xbbbd3a71	-0.005774789
68	0xbbd4b85a	-0.006491703
69	0xbb99c4e3	-0.00469266
70	0xbbf29e8d	-0.0074041546
71	0xbc07bb0b	-0.008284341
72	0xb8839d68	-6.275886e-05
73	0x3b497f73	0.0030746132
74	0x3af36699	0.0018570005
75	0xba47d4c5	-0.00076229527
76	0x3b16fa64	0.0023037428
77	0xbc071d6f	-0.008246764
78	0xbba4e57a	-0.0050322386
79	0x385eda7b	5.31324e-05
80	0x3cd2392e	0.025662031
81	0xbbb71933	-0.005587721
82	0xbae069e1	-0.0017121398
83	0x3aa0b631	0.0012261329
84	0x3b8a646c	0.004223397
85	0x3a926599	0.0011169194
86	0xb8e40f03	-0.00010874683
87	0xbda9562b	-0.08268388
88	0xbbb7f30a	-0.0056136893
89	0xbbd28327	-0.006424326
90	0x3acdde89	0.001570658
91	0xbbf5b540	-0.0074984133
92	0x3b1fc453	0.0024378493
93	0xbbd786df	-0.006577357
94	0x3a9b950b	0.001186998
95	0xbc751fa1	-0.014961154
96	0xbbc53a41	-0.0060189073
97	0x3b61cb51	0.0034453461
98	0xbb953b30	-0.004554175
99	0xbbe88fa1	-0.0070972
100	0x3b74c6d8	0.0037349965
101	0xbbdb7c13	-0.0066981404
102	0x3b3739c5	0.0027958017
103	0x399035fa	0.00027506036
104	0x3882f504	6.244521e-05
105	0x3b6aad2f	0.0035808792
106	0xbcec406d	-0.028839314
107	0xbbec73df	-0.0072159613
108	0xb8c1f76d	-9.249044e-05
109	0x3b13ff4e	0.0022582593
110	0xbbd3e1c1	-0.006466121
111	0xbb8558e0	-0.0040694326
112	0xbb263b6f	-0.0025365015
113	0xb8cd2cbe	-9.7834956e-05
114	0x3b7e8238	0.003883494
115	0x3a46bf50	0.00075816084
116	0xbacb1320	-0.0015493371
117	0xbbcc1407	-0.0062279734
118	0x3a7c19c1	0.0009616875
119	0xb9a632c2	-0.00031699805
120	0xbbeeb1b3	-0.007284367
121	0xbd976b47	-0.073935084
122	0xb9c64200	-0.00037814677
123	0xbb377da8	-0.002799848
124	0xb8fdc74a	-0.000121011006
125	0xbb0bce88	-0.002133282
126	0x3b96411a	0.0045853974
127	0x3a5ec19f	0.000849748
128	0x3a8aeb8a	0.001059876
129	0x3d11784c	0.035515115
130	0xba2b4510	-0.00065334234
131	0xba3922b2	-0.000706236
132	0x39d844fa	0.00041250122
133	0xba71471d	-0.0009204017
134	0x3ce161e9	0.027512508
135	0xbc30dd38	-0.01079493
136	0xbc0a28b4	-0.008432556
137	0xb9389f64	-0.00017606985
138	0x3b55b746	0.003261046
139	0xbc15ed71	-0.009150849
140	0xbc0e211b	-0.008674885
141	0xbbe21328	-0.0068992563
142	0xbb28da0a	-0.0025764727
143	0xbbaa6ba2	-0.005200819
144	0xbb1f76ef	-0.0024332365
145	0xbc09d060	-0.008411497
146	0x3af2f9d7	0.0018537593
147	0xba6404d0	-0.0008698227
148	0xbc4436f0	-0.011975989
149	0xbc289971	-0.0102904895
150	0xbc1114c1	-0.008855046
151	0xba02a567	-0.00049837533
152	0xbc0cfe0c	-0.008605491
153	0x3a547c1a	0.0008105651
154	0xbb60006b	-0.0034179937
155	0xbbfe159a	-0.00775404
156	0x3b440399	0.002990937
157	0xbac6b818	-0.0015161065
158	0xbc290b2a	-0.010317603
159	0x3b36581a	0.0027823509
160	0xbbfa60dc	-0.007640941
161	0xbb8d9f5b	-0.004321975
162	0x3a0fcbd1	0.0005485388
163	0xbc142493	-0.009041923
164	0x3a868014	0.0010261559
165	0xbaaf9e0d	-0.0013398543
166	0xbc09647e	-0.008385776
167	0xbc3d722c	-0.011562865
168	0x3d743b79	0.05962703
169	0xbc2791cf	-0.010227635
170	0xbbb5b1f8	-0.005544897
171	0x3b2bfcf5	0.0026243303
172	0x392e1a42	0.00016603715
173	0xbc84da3b	-0.016217342
174	0xbc0c5e46	-0.008567398
175	0xbb109443	-0.0022061027
176	0xbc117de6	-0.008880114
177	0xbc005ed4	-0.007835109
178	0xbc5310fe	-0.012882469
179	0xba8f88df	-0.0010950825
180	0xbb8a6349	-0.0042232615
181	0xbbe72e06	-0.007055047
182	0xbc23b030	-0.009990737
183	0x3ac69bbc	0.0015152614
184	0x3afc2ca1	0.0019239375
185	0x3ac66496	0.0015136178
186	0xbbecf2fb	-0.007231114
187	0xba2718c9	-0.0006374238
188	0xbc134a5e	-0.0089898985
189	0x397c4863	0.00024059559
190	0xbab1f02a	-0.0013575603
191	0xbc0a59d3	-0.008444267
192	0xbbcb17b9	-0.0061978963
193	0xba3c88cf	-0.0007192017
194	0xb9e66292	-0.0004394246
195	0xbc07fccd	-0.0083000185
196	0xbc0a4e1c	-0.008441474
197	0xbba23f09	-0.004951362
198	0xbbe95500	-0.0071207285
199	0xbc174906	-0.009233719
200	0xbaf45d63	-0.0018643554
201	0x3ad8bd0c	0.0016535833
202	0xbb89d807	-0.0042066607
203	0xba7fab48	-0.0009753001
204	0x3b6be864	0.003599667
205	0xbc0d79f1	-0.00863503
206	0xbc28e43e	-0.010308323
207	0xbab434a8	-0.0013748603
208	0xbb25df4a	-0.0025310093
209	0xbc0a1e61	-0.008430094
210	0xbb3b6e68	-0.0028599743
211	0xbaa0a434	-0.0012255968
212	0xbbe3a5ea	-0.0069472687
213	0xba8e155f	-0.0010840109
214	0x3abbca77	0.0014327307
215	0x3ccfccfe	0.025366303
216	0xbc2299f7	-0.009924403
217	0xbc21779f	-0.00985518
218	0x3ad21d9d	0.0016030554
219	0xbb2e8639	-0.0026630296
220	0xb8f10eb4	-0.00011494514
221	0xbc30649b	-0.010766174
222	0xb9b4a35c	-0.00034453988
223	0x3b0bb9f2	0.002132055
224	0xbc01132b	-0.007878105
225	0x39e137fd	0.0004295706
226	0xbc05cf3b	-0.008167083
227	0xbc113e6a	-0.008864978
228	0xbbd9bfd2	-0.006645181
229	0xbc2bc627	-0.010484255
230	0x3b81a8f8	0.00395691
231	0xb8aa7c00	-8.1293285e-05
232	0x3be4c326	0.0069812713
233	0xbbceeecf	-0.0063150893
234	0xbc2f45ab	-0.0106977625
235	0xbbff4f90	-0.007791467
236	0xba3c59db	-0.00071850204
237	0xba5b67e7	-0.00083696697
238	0xbbfd1370	-0.0077232644
239	0xbb81c56d	-0.0039603026
240	0xbb156c1b	-0.0022800032
241	0x392782a9	0.00015975036
242	0x3b080f96	0.0020761243
243	0xbb7857b5	-0.0037894074
244	0xb8d9a110	-0.000103773666
245	0xbc12e899	-0.008966588
246	0xba79c34e	-0.0009527699
247	0xb8ee939b	-0.00011376218
248	0xbc0717bd	-0.008245406
249	0xbc1e92fc	-0.0096785985
250	0x3920ab02	0.00015322494
251	0x3b183cc1	0.0023229572
252	0xbaa4330b	-0.0012527419
253	0xbb443b73	-0.002994266
254	0xbc027cf9	-0.007964366
255	0xbae55fb8	-0.001749984

policy_model.2.bias f4 [8]
0	0xbcb39ce9	-0.021925407
1	0x3c12874e	0.008943392
2	0x3d17455d	0.036931384
3	0x3c39c411	0.01133825
4	0xbc48ba15	-0.012251397
5	0xbb2d2ab5	-0.002642316
6	0x3cda50b4	0.02664981
7	0xbd614d4f	-0.055005368
