results/short_race/second_iteration_training/model820.pt (torch, 276107 bytes, 13 tensors)

features_model.0.weight f4 [128, 4]
000000 eb 37 a5 3b db cc 4f 3e 44 77 9d 3d 38 91 a1 be
       0.0050420663 0.2029299 0.07688764 -0.31556106
000010 a3 ac 08 3d 30 98 9c bd 3e a5 71 b7 a0 66 eb 3c
       0.033367764 -0.07646215 -1.4403193e-05 0.028735459
000020 72 4c 1c 3e 70 66 d4 3c 2d b7 09 bd db 2f 97 3e
       0.15263537 0.025927752 -0.033621956 0.29528698
000030 5e 5e 40 3e ec 8a cf bd 72 e8 67 bd 7a 20 d2 bd
       0.18785998 -0.10133919 -0.05661816 -0.10260101
000040 d3 44 1d 3d a9 97 06 3c 44 59 49 3d bb 11 f5 bc
       0.038395714 0.00821487 0.049157396 -0.029915681
000050 14 1a 25 3d 92 8f 7e 3d c4 86 75 3e ca fb 48 be
       0.040308073 0.062148638 0.2397719 -0.196273
000060 ac fb fd bb f4 4f c9 bc 92 13 da 3d 78 fa a6 3e
       -0.007750949 -0.024574257 0.10648264 0.32612967
000070 96 28 3d 3b 5e 21 0d bc d9 65 95 3d 4b a6 a3 3e
       0.0028863302 -0.008613912 0.072948165 0.3196281
000080 15 0c 3e be 21 7e 16 3e 70 9c fd 3d 2e 9e 9c 3b
       -0.18559296 0.14696552 0.12383354 0.0047795987
000090 f4 0e 75 3b 56 dd 5e 3e db 27 65 3d 81 6e ba be
       0.0037392946 0.2176412 0.055946212 -0.36412433
0000a0 e9 ed 62 3d 64 2c 7d 3e fa 27 3e 3e ab 32 2a 3e
       0.05540267 0.24723965 0.18569937 0.16620891
0000b0 1d 20 24 3e c9 8a f4 bd 21 a7 30 3e c5 7d 5e 3d
       0.16027875 -0.11940534 0.17251255 0.054319162
0000c0 cd b5 02 3e d5 28 ad 3e 46 fc 0e 3d 0c 6c a9 bd
       0.12764664 0.33820215 0.034908555 -0.082725614
0000d0 f4 92 25 be bd c7 22 bd 0c 4c 18 be 71 09 88 3c
       -0.1616934 -0.039741267 -0.1487276 0.016606065
0000e0 52 61 79 bd ac c6 a7 3e d2 2a 0c bd 2b 4c 0d 3e
       -0.060883828 0.32768762 -0.034220524 0.13798587
0000f0 e4 bc 53 be 49 85 90 bc 25 23 98 be 16 b4 81 3d
       -0.20677525 -0.01764168 -0.29714313 0.06333177
000100 e9 f3 f6 3d 3b 34 8d bc 45 7d d3 3c b2 d8 ff bd
       0.12058241 -0.01723682 0.02581657 -0.12492503
000110 94 4e 4c bd 90 0f 7a be bf 4d fd bd 72 3d 5f bd
       -0.049879625 -0.24419999 -0.123683445 -0.05450196
000120 54 40 07 be 50 f5 68 3d a1 42 a7 bd 7a 4f e5 bd
       -0.13208133 0.056874573 -0.08167005 -0.111967996
000130 c7 ee 93 bd d7 e3 0e be 8f 32 84 be 44 6d 4b be
       -0.072232775 -0.13954102 -0.25819823 -0.198659
000140 71 5d a9 3d 32 80 a2 bd b7 ea fb bd a0 3a 4e 3d
       0.08269776 -0.079346076 -0.12300628 0.050348878
000150 3d 00 72 be a9 d5 31 be eb 70 40 3e 3f d0 81 bd
       -0.23632903 -0.17366661 0.18793075 -0.06338548
000160 a7 7c 49 3d 5c 46 61 3e 1a 56 a3 bd 89 c0 d7 bc
       0.049191143 0.21999496 -0.07975407 -0.026336925
000170 d1 9e 67 be 57 c2 b5 bd 92 37 dc bd ee 0b 95 3d
       -0.22619177 -0.08874958 -0.10752787 0.07277666
000180 d6 89 e7 3c 51 b2 2a 3e c7 f1 10 3e 87 d6 a0 be
       0.028263967 0.16669585 0.1415473 -0.3141367
000190 6c 7d c0 be a6 8b 58 be 81 27 9b 3d f9 11 b3 bd
       -0.3759569 -0.21147022 0.07575894 -0.087436624
0001a0 a0 41 6f 3e 25 ae bc 3e 0e 3c cb bc 88 4c 40 3e
       0.23364878 0.36851612 -0.02480891 0.18779194
0001b0 bd 00 b0 bd 1f f5 a2 bd 4c 62 d7 bd c9 df c0 bc
       -0.08593891 -0.079569094 -0.105167955 -0.02354421
0001c0 c0 f5 a2 3b 55 ca 84 bc ce ad 92 bd 05 de d1 3e
       0.0049731433 -0.01620976 -0.07162057 0.409897
0001d0 ee 51 bd 3d 35 50 ce 3d 65 f8 e9 bd 57 75 82 bd
       0.092441425 0.10073892 -0.114243306 -0.06370037
0001e0 89 c6 29 3e 46 21 04 3e 09 53 32 3e 73 16 f7 3d
       0.16579641 0.12903318 0.17414488 0.12064829
0001f0 28 8f cc 3d d5 07 91 3d bc 4f ea 3d 41 e8 6f 3e
       0.099882424 0.07081572 0.114409894 0.23428442
000200 69 6e 51 3e be 60 93 be 63 ba 74 3d c6 0a da 3d
       0.20452274 -0.28784746 0.059748065 0.10646586
000210 ec 11 3b 3e a6 6b 46 bc 5f 6d 07 3e 7f 27 80 bc
       0.18268555 -0.012110626 0.13225316 -0.015643833
000220 69 7d 4a 3c 9e 87 17 3d 4a 23 74 3e dd a0 98 3e
       0.012359002 0.03699457 0.23841587 0.2981023
000230 ea 67 be 3d 5e 05 11 be 57 6c 4f 3b ed ce 3d be
       0.09297164 -0.14162204 0.003165027 -0.18535967
000240 48 1c a1 bd 7a 01 de bd 54 bf cd 3d 05 c7 6e bc
       -0.07866722 -0.108401254 0.100462586 -0.014573817
000250 4c d8 90 bd bc 4e c4 bd a3 8e 0a bb 23 3d b4 3d
       -0.07072505 -0.0958533 -0.0021142147 0.088007234
000260 9e 3c 17 be 21 3e 1a 3d c5 df 97 3d fd c2 67 3e
       -0.14769217 0.037656907 0.074157275 0.22632976
000270 1c 19 01 3d 90 2f 78 3c 67 7d 0b 3e 81 38 c9 3e
       0.031518087 0.0151480585 0.13622056 0.39300922
000280 4a f4 89 ba c6 8b 65 bc b1 a9 92 bd 8e 65 b1 3e
       -0.0010525074 -0.014010375 -0.07161272 0.34647793
000290 d5 3f 10 bd 0c 84 94 bd 4f a6 ce 3c 37 65 72 be
       -0.035217125 -0.072517484 0.025225786 -0.23671423
0002a0 3e 66 94 3d 1c 9d 55 bd 2c 75 dc bc 8c f0 f2 bd
       0.07246064 -0.052151784 -0.02691134 -0.11862287
0002b0 46 7c fa bd 12 e2 24 3e 51 da 08 3e c3 77 68 3c
       -0.122307345 0.16101864 0.13364531 0.01418871
0002c0 dd 93 d5 3c 8e 7b 93 3e 4e 8d 42 3d 0f 02 ea bc
       0.026071483 0.28805202 0.04749804 -0.028565435
0002d0 2b 59 1f bd df 26 aa bd 85 8a 91 bd 12 ea 13 3e
       -0.038903397 -0.08308195 -0.07106499 0.1444476
0002e0 6d 89 c3 3d d2 9a 27 3c 18 85 c9 3e a1 f7 cb bd
       0.09547696 0.010229783 0.39359355 -0.09959341
0002f0 3b da fe bb 93 84 c9 3c 53 62 fd 3d d2 ab fc 3c
       -0.00777748 0.02459935 0.123722695 0.030843649
000300 c8 0c 55 be 9b 24 98 b9 e7 66 16 be a2 a6 3a 3c
       -0.20805657 -0.00029018972 -0.14687692 0.011392267
000310 48 9c 71 3e df a7 01 be 4d 5b 5e 3d 8d bf 05 3e
       0.23594773 -0.12661694 0.05428629 0.13061352
000320 48 71 51 be 21 72 a5 bd 47 06 d2 3c 5d af b3 3d
       -0.2045337 -0.08078409 0.025637759 0.08773682
000330 f3 10 99 be fc 4b 39 3e 52 9f 3f 3e da 8c b7 3c
       -0.29895744 0.18095392 0.1871312 0.02240603
000340 95 31 45 3e cc d3 b6 3e 1a d2 7b bd bd 22 23 bd
       0.19257195 0.35708463 -0.061479665 -0.03982805
000350 55 e0 60 3e f9 d3 7a bd ff f9 0b bd e2 46 03 bd
       0.21960576 -0.06123731 -0.03417396 -0.03205002
000360 50 cc 35 3d a4 d7 18 3c 11 11 e1 3d 68 cb 51 3d
       0.0443843 0.0093287565 0.10989583 0.051219374
000370 5c 48 f6 3d 94 9a dc bb 41 4f 4e 3e 35 37 d7 3e
       0.1202552 -0.0067322943 0.2014742 0.42034307
000380 94 ac 09 3e 48 9a 3f 3d d4 b3 f9 3b 60 eb c2 bd
       0.1344474 0.046777993 0.007620314 -0.095175505
000390 8b fe 46 bc b6 01 41 3e a9 28 09 3e b8 45 01 3c
       -0.012145649 0.18848309 0.13394417 0.007890157
0003a0 ab 51 94 bd 62 3f a4 3c 8e 79 6f bd 11 5a f7 3c
       -0.072421394 0.020049755 -0.058465533 0.030194314
0003b0 09 60 f4 3d c9 31 9d 3d a2 03 16 3e e7 e6 9b 3e
       0.1193238 0.076755114 0.14649823 0.30449602
0003c0 ac d4 d5 bc 7e 95 2a 3d 72 26 9d 3c 05 04 7b 3e
       -0.026102386 0.041646473 0.019183371 0.24513252
0003d0 25 49 31 3c c1 55 92 bc bf e3 0e be 7e 0b 99 3e
       0.010820662 -0.017863156 -0.13954066 0.2989158
0003e0 d9 bb 09 bc 90 f1 05 3e 1a 7d 81 3d bc 66 aa be
       -0.008406603 0.1308043 0.06322689 -0.33281505
0003f0 cf 28 50 be 79 34 73 3e 7a a4 fe bc 8f 72 21 be
       -0.20328067 0.23750485 -0.031084288 -0.15766357

features_model.0.bias f4 [128]
000000 c9 01 23 3e 27 ae 09 3c fc e3 f5 3d f0 f2 08 bd
       0.1591865 0.008403338 0.12006375 -0.03343481
000010 d5 a3 45 3e 9e 1f dc 3d 26 6c 19 3e 40 57 29 3e
       0.19300778 0.10748218 0.14982662 0.1653719
000020 15 bd e5 3d 28 9f 2b 3e 8f 97 56 3e 42 d7 b1 bb
       0.11217705 0.16759932 0.20956253 -0.005427272
000030 ab fd 01 3e a0 e6 31 bd 34 fa d9 3d 85 83 fb 3d
       0.12694423 -0.04343283 0.106434256 0.12280945
000040 79 75 bf 3d ce 81 bc bc 2f 0f 78 bd 8c 72 51 bb
       0.09348578 -0.023011114 -0.060561355 -0.0031959144
000050 07 10 15 3d 7f f2 e4 bd df 7d 15 3e 70 11 6b bc
       0.036392238 -0.11179065 0.14598797 -0.014347419
000060 03 42 43 3e c4 75 26 bd 3d ff 8c 3d a3 b8 61 3c
       0.1906815 -0.040639654 0.0688462 0.013776931
000070 6d 7b 3d 3e c9 bf 1d 3e c4 bc 13 3e 90 cc 3a 3e
       0.18504114 0.15405191 0.14427477 0.18242097
000080 ed 27 2e 3b 45 64 b9 3d 30 78 3d 3e a8 71 29 3d
       0.002657409 0.09052328 0.18502879 0.041368157
000090 a6 3a 82 3d 26 99 e9 bc 87 a0 2e 3e f4 b4 2a 3e
       0.063588426 -0.02851541 0.17053424 0.1667059
0000a0 4e 51 52 3e cd 29 09 3d 37 9a d8 3d e1 01 c6 3d
       0.20538828 0.03348713 0.10576289 0.09668327
0000b0 0b 89 14 3e b1 a4 a5 bc 40 2d 9a 3d 5e 53 0e 3e
       0.14505403 -0.020220133 0.07528162 0.1389899
0000c0 50 2b f0 bc be 64 75 3d 34 a4 6f bd 2f d3 ea 3d
       -0.029317528 0.05991053 -0.058506206 0.11466061
0000d0 10 0f ed 3d d2 2c a8 3d 0b 9c 3c 3e 08 59 bf 3d
       0.115751386 0.08211674 0.184189 0.09343153
0000e0 b9 6f fa 3d 81 7e ec 3d 6d 8c 6f bc 2d fe 3f 3e
       0.12228341 0.11547566 -0.014620882 0.18749304
0000f0 7f 21 31 3e b5 03 2a bd 50 df 32 3e eb d9 18 3e
       0.17297934 -0.04150744 0.17468 0.14926879
000100 46 1f 07 3e 6c 89 60 3e 61 95 0b 3e 2d e1 37 3e
       0.13195524 0.21927422 0.13631202 0.17956991
000110 87 6a 1b 3e 73 14 eb 3d c1 c5 8e bd 51 ad 9a bd
       0.15177356 0.1147851 -0.06971312 -0.07552589
000120 3f 1f 80 bc e1 b3 99 3d 02 4f 20 3e 16 ca 4d bd
       -0.0156399 0.07505012 0.15655139 -0.050241552
000130 6b 9d 58 bc b9 7d b1 3d 62 44 31 3e 26 ff 2e 3d
       -0.013221125 0.08666558 0.17311242 0.042723797
000140 b3 66 e4 3d e1 78 85 bc 7e 2c 16 3e 7a ca d4 3d
       0.11152401 -0.016292991 0.1466541 0.10390182
000150 81 84 a8 bc 30 d5 e7 3c 31 c9 6c 3e 6d 9b e4 3d
       -0.020570995 0.028299898 0.23123623 0.111624576
000160 ae 62 f1 3d 47 bc 8c bc c4 ae 71 bc c2 3d 6b 3d
       0.117864 -0.017179621 -0.01475114 0.057431944
000170 a7 4e 4d bc 78 bd 80 3c 62 23 33 3d 69 5d 14 3e
       -0.012530959 0.015715346 0.043734916 0.14488758
000180 a8 46 3a bd 57 a4 9a bc b2 dd 5d 3d b8 51 08 3e
       -0.04547754 -0.018877191 0.054166503 0.13312423
000190 c7 25 d9 bc 7b eb 43 3e d5 52 70 3e 5e bd 15 3e
       -0.026507271 0.19132797 0.23469098 0.14623019
0001a0 01 b7 12 3e c7 f3 47 3e 68 d2 38 3e 47 52 2a 3e
       0.14327623 0.19526587 0.18049014 0.16632949
0001b0 cb 24 69 bc 94 35 d7 bc 3e 1e 1b 3e 1c cc 24 3e
       -0.0142299635 -0.026270665 0.15148255 0.16093487
0001c0 f3 2a 2d bd 2c e6 b2 3d 3a 6a ea 3d 60 be 43 3e
       -0.042277288 0.08735308 0.11446042 0.19115591
0001d0 34 11 52 3e 1d 1f 4b bb 5c 8c 1a 3e f3 8e e4 bc
       0.20514375 -0.0030993887 0.15092605 -0.027900195
0001e0 ad 73 6a bd 12 89 7e 3e 34 9e c6 3d c6 ea 8c 3d
       -0.057239223 0.24856976 0.096981436 0.06880717
0001f0 8f fa 38 3e 86 30 13 3e 05 6b 3e 3e f6 3d 94 ba
       0.1806433 0.14373979 0.18595512 -0.001130997

features_model.2.weight f4 [128, 128]
000000 a8 43 b8 3e 25 28 89 bd c5 21 82 bc 5a 56 b2 3d
       0.35989118 -0.0669711 -0.015885243 0.087078765
000010 f0 63 5e 3e ee f9 f4 3d f3 74 d3 3d 6c 40 66 3d
       0.2171781 0.11961733 0.10325041 0.05621378
000020 a5 09 28 3e 44 6d 48 3e f3 22 22 3e cb d2 71 bc
       0.16409929 0.19572932 0.15833645 -0.01475973
000030 fa cc 29 3d 29 f5 f3 3c 67 cc 42 3d 37 d5 0c 3e
       0.041455247 0.029779987 0.047558215 0.1375321
000040 1d 27 12 be 68 25 91 3d 37 17 60 bd b0 88 ff bd
       -0.14272733 0.07087213 -0.05470964 -0.12477243
000050 d4 36 c1 3d 4e 17 0f 3d 39 a2 06 3e f3 b3 58 bd
       0.09434286 0.034934334 0.1314782 -0.052905988
000060 8f be 4a 3e 2e 2e 0d be 9d 8e d6 bb c4 ff 85 3e
       0.19799255 -0.13787147 -0.0065477625 0.26171696
000070 52 7f 42 3e 78 30 1c bd af 7a 59 3d 5b 7d 11 3e
       0.18993881 -0.03813216 0.053095516 0.14207976
000080 ff d0 3e 3e 9b 34 8f bc c9 72 10 3e ab 09 87 bc
       0.18634413 -0.017481139 0.14106287 -0.016484102
000090 39 ad d6 bd af 74 5f be d3 5a 19 3d 20 eb 1c 3e
       -0.10482258 -0.21821855 0.037440132 0.15324068
0000a0 47 28 b6 3e d4 62 15 bd 14 5f 33 3e 58 6b 83 3e
       0.35577604 -0.036471203 0.17516738 0.25667834
0000b0 5e 43 8a 3e f2 54 24 3e de f6 2e bd 54 fa 9c 3d
       0.27004522 0.16048029 -0.0427159 0.07664934
0000c0 82 e5 2b 3e 02 77 95 3e 03 e3 24 3e 7b b2 b7 3e
       0.16786769 0.29192358 0.16102223 0.35878357
0000d0 1b 04 70 bd 6e d4 42 bd d9 ac e6 bb 1a de 28 be
       -0.058597665 -0.04756587 -0.007039648 -0.16490975
0000e0 ce 49 34 bd ed d6 64 3d 0e b2 70 bd d4 1c 31 3e
       -0.044015698 0.05586903 -0.058763556 0.17296153
0000f0 7b 0a a2 3e 78 53 ab 3e 7a 87 71 3e 57 6a 04 bd
       0.3164862 0.3346212 0.23586836 -0.032327976
000100 ae 17 c7 3e 62 cd 84 3e 71 28 d7 3d 99 81 0d 3e
       0.38885254 0.25937945 0.105057605 0.13818969
000110 95 a0 2e 3d 82 ee 7a 3e e4 a3 d4 3d 7c b9 70 be
       0.04263361 0.24505046 0.10382822 -0.23508257
000120 db cb 5f be d1 e0 a2 3c 62 d7 3f 3c 1d 98 56 bd
       -0.21855108 0.019882591 0.011709066 -0.05239116
000130 12 35 fe bc 6c 87 4c 3d d8 c0 de 3d f0 af a3 be
       -0.031031165 0.049933836 0.10876626 -0.31970167
000140 2d 94 e9 3d 6d e3 42 3d 7d f9 2d bd dc 6b 17 3e
       0.114052154 0.04758017 -0.04247426 0.14787239
000150 02 2d 76 3e 78 42 46 3e 4d b3 c2 bc c8 7d 8e bd
       0.24040607 0.19361293 -0.023767138 -0.069575846
000160 ba 59 73 3d 72 0c 62 3d 06 6e 73 be 3f d3 c1 bd
       0.05941174 0.05518765 -0.2377244 -0.0946412
000170 ca 22 30 3e f7 97 61 bd 1f cf 2e bd cc 82 92 bd
       0.17200771 -0.055076566 -0.042677995 -0.07153854
000180 d4 47 c5 bc 10 63 d7 3d 3c 57 5a 3e 82 90 0d bc
       -0.024082102 0.105169415 0.2132234 -0.00864041
000190 a0 33 c8 3d 98 bf 2c 3e 59 c1 32 3e 7c 9e e7 3e
       0.09775472 0.16869962 0.17456569 0.452381
0001a0 1d e6 ae 3e 10 a6 f3 3d cd 0d 55 bb da 80 65 3d
       0.34159938 0.11896908 -0.0032509447 0.056031086
0001b0 10 29 f9 bd 3d fd 24 3e 17 de fe 3d 75 86 9c 3e
       -0.12166035 0.16112228 0.12444704 0.30571333
0001c0 9c 99 d2 bd 5d a7 35 be 65 de 46 bd 29 f6 40 3e
       -0.10283205 -0.17739625 -0.048551936 0.18843903
0001d0 ca 2d 51 3e 22 62 09 be 09 19 08 3e 6d 79 25 be
       0.20427623 -0.13416341 0.132908 -0.16159602
0001e0 9b 19 9e bd df 10 82 3e b0 92 a6 bd 08 2c 67 3d
       -0.077197276 0.25403497 -0.08133447 0.056438476
0001f0 22 26 0f 3e 56 78 63 3e 7a 63 8a 3e 56 bd b1 bd
       0.1397939 0.22213873 0.2702902 -0.08678691
000200 0a db 83 3c 1a 96 9d 3d ad 40 a5 3d 90 3c 34 bb
       0.016095657 0.07694645 0.080689766 -0.0027501918
000210 f1 6a 55 bd cc 36 a3 3d 46 54 32 3e 51 57 a9 bd
       -0.05210394 0.07969436 0.1741496 -0.082686074
000220 8a f7 54 3e 8f b2 44 be 61 cf c0 bd e4 9e cc 3d
       0.20797554 -0.1920874 -0.094145544 0.099912435
000230 59 53 1a 3c 2e 98 ea 3c 02 dc 8b 3e fa f0 8a bc
       0.009419286 0.028637018 0.2731629 -0.01696061
000240 c7 86 11 bd 9b c4 1a 3d e5 12 63 3d 54 39 bb bd
       -0.035528924 0.037785154 0.05543794 -0.09141794
000250 4b 4e e8 bc c9 be 1e be 1b f8 cc bd bc 43 ca 3d
       -0.028357645 -0.15502466 -0.1000826 0.098762006
000260 bd 2a 62 bd c6 34 c3 bd 10 ab 29 be 3f 21 c8 bc
       -0.05521654 -0.0953155 -0.16569161 -0.024429915
000270 96 5f b3 3e ec f5 2e be 5b 30 b4 be b0 99 99 bd
       0.35033864 -0.17085999 -0.35193142 -0.07500017
000280 dd f4 5d 3d 47 5b e8 3b ac ea 8d bd 4c ab 83 bd
       0.054188598 0.007090959 -0.06929526 -0.06429157
000290 e1 48 95 3d 54 c4 16 3c 50 8a 8b 3e 5c 69 23 3d
       0.07289291 0.009202082 0.27253962 0.0398954
0002a0 18 e9 4b 3e 33 a1 4a be dd d5 22 3c 23 0c 61 3e
       0.19913137 -0.19788055 0.009938684 0.21977286
0002b0 ef 6b 14 3e a7 34 21 bd f8 f7 15 3d 59 f8 96 3e
       0.14494298 -0.039356854 0.036613435 0.2948635
0002c0 51 42 0e be 77 fb f5 3c be c7 2f 3d e1 b3 36 3d
       -0.13892485 0.030027134 0.0429151 0.04460514
0002d0 26 bb ea 3c 3e 7c a2 3d 08 dc 02 3d 16 59 c8 3d
       0.028653692 0.079338536 0.03194812 0.09782617
0002e0 84 1e 5c 3c 56 6d 50 3e 82 6f bb bd de ee 7e 3d
       0.01343501 0.20354208 -0.09152128 0.06223952
0002f0 ac db b0 3e df 16 82 bc 5f 03 4e be 66 19 e4 3e
       0.34542596 -0.015880046 -0.20118473 0.44550627
000300 50 2a 49 3e fe d9 28 3e 8e 8e cb 3d d0 0a 26 3d
       0.19645047 0.16489407 0.099392995 0.040537655
000310 cf 0a 5d 3d 99 0a c0 3e 99 95 84 be 7e bb 14 bd
       0.053965386 0.37508085 -0.25895384 -0.03631162
000320 24 70 a1 3d 64 c0 56 3e 66 81 13 be 0d 0f 08 3e
       0.07882717 0.20971829 -0.1440483 0.13286991
000330 46 db f9 3a bd ff c3 bc 87 f4 b2 3c 85 2e dc 3d
       0.0019062541 -0.023925656 0.021845115 0.107510604
000340 71 29 3a 3d 53 f7 01 3e ee 69 64 3d f1 c0 ab 3e
       0.045449678 0.12692003 0.055765085 0.3354564
000350 71 44 97 3d fd 59 2d 3b f8 a1 08 be 3c 8b 39 3d
       0.07386101 0.0026451342 -0.13343036 0.0452988
000360 73 e3 6e 3e d0 5f 17 bb aa e7 02 bd b2 33 ca 3a
       0.23328952 -0.002309788 -0.031959213 0.0015426783
000370 02 88 14 3d 59 64 f5 3c 66 ec 0d 3e cb 2a 0b be
       0.03626252 0.029955076 0.1385971 -0.13590543
000380 b6 09 90 3c dd b4 c6 bd eb 38 31 3e 0a d9 9f bc
       0.017582756 -0.09702466 0.17306869 -0.019512672
000390 4a 26 34 3d 48 e2 b1 bc fc 9d a8 be a0 ea 11 3e
       0.043981828 -0.021714345 -0.32933033 0.14249659
0003a0 82 83 0c 3d d1 ce d7 3c 58 3f f9 bd bf cf aa 3e
       0.034305103 0.026343735 -0.12170285 0.33361623
0003b0 fa 77 d2 bd cf 34 c0 bc 7d a2 c2 3d a1 25 58 3e
       -0.1027679 -0.023462681 0.095036484 0.21108104
0003c0 eb f7 7a bd ac 21 57 be e8 2d 6c 3d 8e e2 42 3c
       -0.06127159 -0.21008939 0.057660967 0.011894835
0003d0 26 62 78 3e 8a 6f e9 3d 3b b2 8d 3e f9 df c6 bd
       0.2425619 0.113982275 0.27675042 -0.09710688
0003e0 40 d8 a3 bc 28 81 77 3e 20 28 4a 3e 55 50 6f 3b
       -0.020000577 0.24170363 0.19741869 0.0036516387
0003f0 38 9e dd bc 27 75 1d be 61 a7 55 3d 06 0d a3 3d
       -0.027052984 -0.15376721 0.052161578 0.079614684

features_model.2.bias f4 [128]
000000 89 93 04 3e 93 4e 90 3d 66 7c b7 3b 7f f3 78 bd
       0.12946905 0.07046237 0.0055995462 -0.06077909
000010 e4 87 a7 3d 39 12 27 3e 60 99 97 bc 00 00 00 00
       0.08180216 0.16315545 -0.018505752 0.0
000020 c7 81 f9 3d 53 f3 1d 3e fb 76 e9 bc 0e fb 01 3e
       0.12182956 0.15424852 -0.028499117 0.12693426
000030 a3 0f 7e bc 69 f6 ba bc 21 4a d7 bb b9 ae 4a 3e
       -0.015506658 -0.022822576 -0.006570116 0.19793214
000040 06 54 a4 bb 28 00 71 3d a0 45 cc bc ef 0d 11 3e
       -0.005014899 0.05883804 -0.024935544 0.14165471
000050 38 90 c4 bb 9f 3e 21 3e 75 6e 97 bc 14 12 3b bd
       -0.0059986375 0.15746544 -0.018485287 -0.045671538
000060 b9 92 3f 3e 01 5f 0a 3e 33 10 70 bb 06 8e 39 bc
       0.18708314 0.13512804 -0.003663075 -0.011325365
000070 1c 75 e4 bb 90 ef fb ba f1 4d ea bc c5 e1 13 3e
       -0.0069719683 -0.0019221175 -0.028601618 0.14441593
000080 3a 84 d9 3d 2a 6c 09 3e 9b 7a 3f 3e af c1 dd 3d
       0.10620923 0.13420168 0.18699114 0.10827958
000090 d6 54 09 bd 9e 3e ab 3d cf 41 0e 3e af 40 47 bb
       -0.03352817 0.08361553 0.13892291 -0.0030403545
0000a0 61 39 2e 3e cd fb b5 3d 0e d7 12 bd b3 2e dd bb
       0.17014076 0.08885918 -0.035849623 -0.0067499517
0000b0 5d cd b9 3d 09 c5 c5 bc 20 8a 77 3c 29 50 4d bc
       0.09072373 -0.024141805 0.015108615 -0.012531319
0000c0 81 9f da bc 1a 06 ca 3d cf 8f 64 bc a8 ca 59 bc
       -0.026687386 0.09864445 -0.013950302 -0.013292946
0000d0 4a ef 9d bc b8 0d c9 3d 29 6a 3a bc 60 12 1a 3e
       -0.019279141 0.0981707 -0.01137785 0.15046072
0000e0 bd 6a d5 3d be fc ac bc a1 ce a5 3d 42 22 cd bc
       0.10420749 -0.02111661 0.08096052 -0.02504075
0000f0 10 2a c8 bc 45 7f 05 3d 0f 90 56 bb 47 16 d8 38
       -0.02443412 0.032592077 -0.0032739674 0.00010303832
000100 05 76 26 bc c0 b0 1b bd 68 b4 d8 bb 92 d6 2a 3e
       -0.010159974 -0.03801036 -0.006613303 0.16683415
000110 17 dc 1a 3e 83 11 e8 3d a7 08 ad 3c ef 5a a7 bb
       0.1512302 0.11331465 0.02112229 -0.0051072757
000120 df e2 de bc 31 96 d2 bc 51 54 fd 3d 16 18 f7 3d
       -0.02720779 -0.025706382 0.12369598 0.12065141
000130 bd c6 07 3e 1e bc 4a 3b de 7e 0c 3e 4c 22 9d bc
       0.13259406 0.003093488 0.13720271 -0.019181393
000140 00 00 00 00 f2 b3 36 3c 31 0e c9 bc 05 1b f8 3d
       0.0 0.011151301 -0.0245429 0.121145286
000150 3c 9b 6c bc ea c5 e9 3d 18 18 39 bc 8c a2 54 3e
       -0.014441308 0.11414702 -0.011297248 0.20765132
000160 95 33 da 3d 82 ed 3a bb dd e0 95 bc f0 ef e6 3c
       0.1065437 -0.0028522913 -0.0182957 0.028190583
000170 b1 a3 08 3e dc b0 08 bd 2c c9 9f bc dd 46 f2 3d
       0.13343693 -0.03337179 -0.019505106 0.11829922
000180 33 b8 2e bc a9 3a 9b bc b2 35 17 3d 27 ba 47 3e
       -0.010664034 -0.01894887 0.036916442 0.19504605
000190 5c 4c 3b bd 89 35 19 bd 00 00 00 00 0d 10 be bc
       -0.04572712 -0.03740457 0.0 -0.023201013
0001a0 7e c1 f8 3d a7 5a fe bb c6 6a 1b 3e e5 33 56 bd
       0.12146281 -0.0077622714 0.1517745 -0.052295584
0001b0 79 75 11 ba 6f 97 df bc df 37 f0 3d b6 6e 41 bd
       -0.0005548816 -0.027293889 0.117294066 -0.047224723
0001c0 69 21 d4 bc 55 77 43 bc 74 c4 cc 3d e0 89 61 3e
       -0.025894837 -0.011930306 0.09998408 0.22025251
0001d0 02 0d 12 3e c7 d4 16 3e f0 83 58 bc 34 3e 3d bd
       0.14262775 0.14729606 -0.01321505 -0.0462019
0001e0 e8 bd f3 3b d3 c3 8b bc b8 11 73 bc 2b 32 86 3d
       0.00743841 -0.01706115 -0.014835767 0.065525375
0001f0 51 52 53 bc a3 49 43 3d 00 00 00 00 81 37 42 bc
       -0.012898044 0.047677647 0.0 -0.0118540535

features_model.4.weight f4 [128, 128]
000000 de fa 02 3e 3b 03 44 b9 a4 90 6f 3d 7b ad 72 bd
       0.1279101 -0.0001869322 0.05848755 -0.059247475
000010 a7 a1 98 bc cb 99 62 be c9 63 83 be 63 d7 92 3b
       -0.01863177 -0.2212898 -0.25662068 0.0044812425
000020 41 ff 9b bd 15 f1 71 3c 5a 68 76 bd da 07 2d be
       -0.07617045 0.014766951 -0.06015811 -0.16897526
000030 9f 26 54 bd 05 c9 4f bd 92 33 2a bc 14 0f 28 bd
       -0.051794644 -0.050728817 -0.010388272 -0.041030005
000040 7a 0d 0f 3e 85 71 c5 3d 17 f0 64 be 5e 44 7f 3d
       0.13969985 0.09640793 -0.22357212 0.06232106
000050 21 cd 65 3d a0 14 93 be b4 a5 19 be bc 9b b3 3d
       0.05610383 -0.28726673 -0.15004617 0.08769938
000060 6c 3a cf bd e8 fb 96 3d 31 58 bd 3e 4e fa 95 bc
       -0.10118565 0.07372266 0.36981347 -0.018307831
000070 5d 75 e4 3d f4 6c e8 3d 7c e5 ef bc ab 06 21 bd
       0.11155198 0.11348906 -0.029284231 -0.039313
000080 df 02 00 3d 00 ff 5a be 8d 43 38 3e ce 76 49 3e
       0.031252738 -0.21386337 0.17994519 0.19674227
000090 bb d6 3f be cd ba 7a bd da b3 f7 bc 65 2d 11 3d
       -0.18734257 -0.061213303 -0.030237127 0.035443682
0000a0 be 23 10 bd 6e 23 ac 3c ea 6f ab 3e a2 6a 09 be
       -0.035190336 0.021012988 0.3348382 -0.13419583
0000b0 68 d3 8e 3d 6c 8f 34 3e f3 1c 07 bd a7 cf 25 3e
       0.06973916 0.17632836 -0.032986593 0.16192494
0000c0 dd 89 60 be 6b 8a ad 3c d1 77 55 3d b0 3e 5a 3d
       -0.2192759 0.021184167 0.05211622 0.05328244
0000d0 37 07 0d bd 5f 6d 19 be 6b e5 94 bd 0b 45 dd 3d
       -0.03443071 -0.14983128 -0.072703205 0.108041845
0000e0 df ea 7e bd 66 81 a1 be 6d 91 32 3e 34 71 4c 3d
       -0.06223571 -0.31544036 0.17438288 0.049912646
0000f0 f1 c5 18 be d9 ef 5c bd f3 6f 1b 3d 0f d9 13 bd
       -0.14919259 -0.053939674 0.03794856 -0.036095675
000100 66 fc 14 be a6 4a b6 bd 16 4f 1b 3d f3 aa 8b bd
       -0.14549407 -0.08900957 0.03791722 -0.06819715
000110 14 1b 98 3d 99 84 39 3d c2 1d c5 3d 2d 25 21 3e
       0.0742704 0.04529247 0.096248165 0.15736838
000120 79 2c 08 be 6e 95 af bd 8a c3 09 bd 2a e2 76 3d
       -0.13298215 -0.08573423 -0.033633746 0.06027428
000130 da 4f a4 be 93 12 ec 3c 90 1d bd bd 14 bb 0f be
       -0.32092172 0.02881745 -0.09234154 -0.14036208
000140 ff de 59 3e ea bc 40 3e 84 07 22 bc 7a 62 41 bc
       0.21276473 0.18822065 -0.009889487 -0.011803264
000150 03 34 b5 3c 8e 62 fc bd 64 e3 99 3c 81 70 76 3d
       0.022119528 -0.12323485 0.018785186 0.060165886
000160 f2 83 2e 3a c8 ab 05 be 8a 1f 5e 3d 1d f7 13 3d
       0.00066572346 -0.1305381 0.054229297 0.036124337
000170 48 fd 18 be ce b3 da bd c2 42 4c bd 38 36 ce 3d
       -0.14940369 -0.10678826 -0.049868353 0.10068935
000180 de 3d 14 3d 0a c2 ad 3d df 0c 13 bc 41 67 e2 3b
       0.036191814 0.08484276 -0.008975237 0.0069092815
000190 c8 a9 33 bd 03 e4 4a bd 27 8c e3 bd 38 a6 a6 3d
       -0.043863088 -0.049533855 -0.11110716 0.081371725
0001a0 af e7 06 bd e0 2d 47 be cd b2 51 be af 8a 05 bd
       -0.032935794 -0.19451094 -0.20478363 -0.032602962
0001b0 1a 55 04 be d0 9f 05 be be c6 69 3e f3 41 17 3e
       -0.12923089 -0.13049245 0.2282972 0.14771251
0001c0 e4 7c 99 3b 52 3e 98 3d ea 73 12 bd 27 41 38 3d
       0.0046840776 0.07433762 -0.035755076 0.04498401
0001d0 be d9 02 be 09 30 d2 3d 2e f5 15 3e 3a bf b9 bd
       -0.12778375 0.10263068 0.1464431 -0.09069677
0001e0 c6 c9 dc 3d 6d e3 f4 bd 98 d2 11 3e 1b 6c 66 be
       0.10780673 -0.119574405 0.14240491 -0.22502176
0001f0 02 ec 24 be db 93 0e be 24 6a 0f be 8b 82 24 bd
       -0.16105655 -0.1392359 -0.14005333 -0.040163558
000200 02 83 19 bd ab 4b d7 bd 81 5c f6 3d bd 67 b5 bd
       -0.037478454 -0.105124794 0.120293625 -0.08857677
000210 99 fd 01 be d7 9a 0a bd 8b f5 2d 3e 4a 11 18 be
       -0.12694396 -0.033839073 0.16988198 -0.14850345
000220 16 5f 5b be 8d b2 bb bd 23 51 1b 3d e5 f9 33 be
       -0.21422991 -0.09164915 0.037919175 -0.17575796
000230 fb b5 32 bd 88 ad 0c 3e 7e c7 09 3d ed 13 99 3c
       -0.04363058 0.13738072 0.033637516 0.01868626
000240 ca 27 1e be 80 61 48 bd e6 71 94 3e e0 81 9a bd
       -0.15444866 -0.04892111 0.28993148 -0.07544303
000250 c3 3c 00 3e b9 95 b7 3d 84 8d 96 bd c9 43 60 3e
       0.12523179 0.08964104 -0.07351211 0.21900858
000260 2d d8 cc 3d 97 89 33 3d 6d 7e f2 bd e0 bb 0a bd
       0.1000217 0.043832388 -0.1184052 -0.033870578
000270 82 8d 3c be fd c9 2c 3e ed 1c 4f 3d 55 88 a0 bd
       -0.18413356 0.16873927 0.050564695 -0.07838503
000280 2d 5f 2c bd a8 c2 02 be ca 52 78 3d c2 36 8a bc
       -0.042082954 -0.12769568 0.06062583 -0.016871814
000290 0e 14 86 3e 64 a7 09 bd 92 a3 48 3d 3c 4f 90 be
       0.26187176 -0.0336069 0.048984118 -0.2818545
0002a0 ee af 0b bc b2 8c 0d bc c7 7a a5 3d 94 ed 42 3e
       -0.008525832 -0.008639501 0.080800585 0.19035941
0002b0 ec 22 d7 3e dd 60 36 3d 98 48 dd bc 6e 2d 95 bd
       0.4201883 0.04452597 -0.027012154 -0.07284056
0002c0 f2 15 fc 3d 9d 04 5e be c0 6e 18 be 80 c1 b8 be
       0.12308873 -0.21681447 -0.14885998 -0.3608513
0002d0 2c 85 85 3d 92 1b 26 be 59 b9 03 3d e7 70 66 3e
       0.06519541 -0.16221455 0.032159183 0.22504006
0002e0 12 a2 24 3e e8 23 fa bb b0 71 6e bd 46 51 ba bd
       0.1607745 -0.007633675 -0.05821389 -0.09097533
0002f0 a9 23 6f 3e 07 29 88 3e 11 d8 a0 3d 85 94 cf bd
       0.23353447 0.265938 0.078537114 -0.1013575
000300 78 c5 8b 3d 29 41 a6 bc 9b 39 2c bb 41 56 c1 3d
       0.068247736 -0.020294743 -0.0026279453 0.0944028
000310 db 9f 48 3e 3c 16 2c be 0d ec 15 3e 79 50 95 3d
       0.1959223 -0.16805357 0.14640827 0.072907396
000320 09 f3 13 bd 16 5b b9 3d a3 42 40 bd 74 6e cb 3d
       -0.03612045 0.090505764 -0.04693855 0.09933177
000330 3f 3e cb bd b1 a3 b5 bd 53 25 c0 3d 85 bb 08 be
       -0.09923982 -0.08869112 0.09382119 -0.13352783
000340 94 31 bf 3d 33 68 2f 3b 60 dd a4 bb 15 15 0c bd
       0.09335628 0.0026764988 -0.005031273 -0.034199793
000350 e6 94 7f 3c d7 ab 10 be 31 0e 2a bc 03 aa 6f be
       0.015599465 -0.14128052 -0.01037936 -0.23404698
000360 8c 3a 12 3e f2 76 57 3e 57 87 1f 3d 4b a9 23 3e
       0.14280146 0.21041468 0.03894743 0.15982549
000370 ec a5 b5 3d 5d 43 63 3c 8c ef 81 bd 43 45 d2 3b
       0.08869538 0.013871041 -0.06344518 0.006416948
000380 c1 03 0a bc 41 e9 0d 3e 7b 03 45 bc e4 cf 22 bd
       -0.008423747 0.1385851 -0.012024756 -0.03974904
000390 4a 97 5d 3e 11 99 0e 3d ff 87 4c be 7d 0a 5e bc
       0.21639743 0.034813944 -0.19973753 -0.013552305
0003a0 a0 d5 05 3e 7d 5e 12 bd 5b 1c 3b bd f3 0c 23 be
       0.13069773 -0.035734642 -0.04568134 -0.15922908
0003b0 2c 9b e5 bd ca 49 3f 3d af e6 e7 bc e2 64 02 3d
       -0.11211237 0.04670123 -0.02830824 0.03183449
0003c0 11 d8 c1 3d 45 6d ee bd cc 07 c9 3d cc c7 d7 3d
       0.094650395 -0.11641935 0.0981594 0.10536155
0003d0 9c cf b4 b8 ef c6 46 bd e7 25 23 3e cd 0a e3 bd
       -8.621739e-05 -0.04852956 0.15932427 -0.110860445
0003e0 c6 77 3d 3e d3 95 4e 3d e0 6e 47 bc de a8 85 bd
       0.18502721 0.050435852 -0.012172431 -0.065263495
0003f0 fd de 01 be e3 08 cf bd 20 e7 0c bd d0 9a 56 3e
       -0.1268272 -0.10109117 -0.034400105 0.20957494

features_model.4.bias f4 [128]
000000 63 2c f8 bc 2b a0 8a bc 26 d3 b0 bc 5d 87 e5 bc
       -0.030294603 -0.016922077 -0.021585058 -0.028018648
000010 2a 63 17 3e 5a 86 bc bc ce de eb bc e5 97 a1 bc
       0.14783922 -0.023013283 -0.028792765 -0.01972575
000020 45 59 94 bc 2e c5 81 bc 94 ff 8e bc 81 ea c6 3d
       -0.018108973 -0.015841093 -0.017455854 0.09712697
000030 1b 67 3e bc 2e ec 9a 3d 15 63 a0 3c 20 50 f4 bc
       -0.011621262 0.07564579 0.019578496 -0.029823363
000040 d1 b5 48 bc fd 49 49 ba 4e 99 f6 bb 3f 2f f4 3d
       -0.01225038 -0.00076785666 -0.0075255996 0.11923074
000050 22 11 8c bb 5c 19 9a 3d 3e e3 74 bc ea 88 0d bc
       -0.0042745033 0.07524368 -0.014946757 -0.0086386
000060 50 04 a9 3d 9e ea cc 3c 4f 6e c5 bc 91 70 06 3d
       0.08252776 0.025014218 -0.02410045 0.032822195
000070 13 27 96 bc 20 c9 01 3e 2f e4 8c 3d 06 33 fd ba
       -0.018329179 0.1267438 0.0687946 -0.0019317574
000080 f5 fb 36 bc 81 d7 9d 3d e7 43 ff bb ef ea ba 3d
       -0.01116847 0.0770712 -0.007790077 0.09126841
000090 cc 52 3f 3b 00 00 00 00 23 43 ef 3d 91 70 a4 bc
       0.0029193638 0.0 0.11682727 -0.020073207
0000a0 0d 1b 94 bc 4c 7b 31 bc ec d4 38 3d b8 26 43 ba
       -0.018079305 -0.010832619 0.045124933 -0.0007444429
0000b0 12 06 8e bc 4f 04 38 bc 67 a0 46 bc 3f 8c b2 3d
       -0.017336879 -0.011231496 -0.012123204 0.08718156
0000c0 b5 66 f0 3d 4e b8 57 3e 67 e7 0c 3d ba b0 00 bd
       0.1173834 0.210664 0.03440037 -0.03141854
0000d0 89 03 ab bc 93 cc cb 3b 08 5d b1 bc 01 f3 54 bc
       -0.02087571 0.0062194555 -0.021650806 -0.01299739
0000e0 00 00 00 00 80 0a 26 3b 0b 79 9d bc 38 c5 1c 3d
       0.0 0.0025335848 -0.019222757 0.03827402
0000f0 6e ca 6a ba 08 fa 91 3c 8e bd 21 3e cc a6 c3 bc
       -0.0008956556 0.01781942 0.15794966 -0.023883246
000100 7b 26 34 3e d2 05 53 3c 15 1d df 3d b2 c2 36 3c
       0.17592804 0.012879806 0.10894219 0.011154817
000110 5f b6 35 bb fd d0 73 3d 99 d6 92 3d 9b 49 91 bc
       -0.002772711 0.05952548 0.071698375 -0.017735293
000120 7b d3 8a bc 2a 62 ab bc 7f 53 99 bc bb e4 9c 3d
       -0.016946545 -0.020920832 -0.018716572 0.076608144
000130 b6 bb 9f 3a 82 f1 23 3d 43 fe bc 3d c1 30 c5 bc
       0.001218668 0.04002524 0.09228184 -0.0240711
000140 76 12 58 3c 23 ac 58 3c 24 4f 0b 3e 72 86 c3 bc
       0.013187995 0.013224634 0.13604409 -0.02386782
000150 dc d9 08 bd 06 87 72 bc b7 e5 f2 3d c8 0f 08 3e
       -0.033410892 -0.0148027 0.11860221 0.1328727
000160 80 72 28 bd 5d 9f d5 bc f6 b0 9a bc 15 53 07 3c
       -0.04112482 -0.026076967 -0.01888321 0.008259554
000170 80 2b 2a 3e bd 6c d2 bc 89 d5 15 3e b8 32 09 bd
       0.16618156 -0.025686616 0.14632238 -0.033495635
000180 4a c5 22 3e 24 e0 c3 3d 39 75 1c 3e 8a f0 36 3e
       0.15895572 0.09564236 0.15279092 0.17865196
000190 b4 e6 26 bd f3 db c8 bc 0f 53 63 bb 8a 5c 1d 3d
       -0.04074736 -0.024518942 -0.0034686958 0.03841833
0001a0 e6 67 25 3e 3f c2 14 3e 8f d5 38 bb fb 2b a0 bc
       0.16152915 0.14527224 -0.0028203463 -0.019552222
0001b0 90 e5 3a 3e d5 43 a0 bc eb e6 c0 bc d1 c2 50 3d
       0.18251634 -0.019563595 -0.02354761 0.05096704
0001c0 0b 3f 1a 3c f5 88 4b bc 17 b2 25 3e cd dc 06 3d
       0.009414445 -0.01242279 0.16181217 0.032925416
0001d0 b1 b7 e5 bc 51 67 cb 3d 46 7e ac bc 2d 42 18 3e
       -0.028041692 0.099318154 -0.021056306 0.14868994
0001e0 2b 85 2b bb b4 7e 96 3d 80 5c 98 bc 00 00 00 00
       -0.0026171904 0.073483855 -0.018598795 0.0
0001f0 a7 b5 33 3e 15 28 fa 3d be a5 0e 3c f4 e7 9d 3d
       0.17549764 0.12214676 0.008706508 0.07710257

policy_model.0.weight f4 [128, 128]
000000 50 95 f9 3a 46 91 22 3b de 44 e9 ba d9 a7 c2 ba
       0.0019041691 0.0024805828 -0.0017797013 -0.0014851048
000010 2c 66 0f ba 29 0a 0c bb 96 4e 29 bb 71 90 a8 ba
       -0.0005470242 -0.002136836 -0.0025834194 -0.001286043
000020 ec 6a e7 ba f0 7b d8 3a 02 c1 97 ba b4 50 f2 ba
       -0.0017655767 0.0016516428 -0.0011577907 -0.0018487186
000030 18 59 0f bb 88 02 8b 39 70 91 28 bb e2 39 d6 ba
       -0.0021873172 0.00026514032 -0.0025721453 -0.0016344155
000040 75 70 3f bb b9 63 e0 39 76 4f 9c ba 4a 5e 65 bb
       -0.0029211317 0.00042798909 -0.0011925537 -0.0034998828
000050 6f 8f 41 3b 44 01 96 bb 95 3f 19 bb ae f4 e3 38
       0.0029534956 -0.0045777876 -0.0023383845 0.000108697786
000060 b8 a6 1e 38 b1 dc a7 ba 95 f6 9e ba 8b a7 bc ba
       3.7825404e-05 -0.001280686 -0.001212793 -0.0014393193
000070 ec e0 f1 ba 25 20 af 3a a6 58 ae bb 89 61 db b8
       -0.0018453873 0.001336102 -0.0053206263 -0.00010460901
000080 70 e4 d2 b8 b3 00 71 bb d5 f3 de 39 4f 02 8d bb
       -0.0001005613 -0.0036774098 0.0004252481 -0.0043032537
000090 38 be b9 b8 9c 86 70 ba cf b9 a6 bb 59 f2 3e bb
       -8.8569184e-05 -0.0009175332 -0.005088068 -0.002913615
0000a0 d3 40 56 b9 c3 43 82 ba d4 00 40 ba d2 b9 1d 3b
       -0.0002043278 -0.0009938407 -0.0007324342 0.0024067056
0000b0 fd 5b 3d 39 14 4c 9c 39 a9 37 d6 3a ec 06 68 ba
       0.00018058713 0.0002981132 0.0016343492 -0.0008851129
0000c0 c9 f1 30 ba 05 46 96 ba f1 37 f8 ba 24 ee 08 bb
       -0.0006749896 -0.0011464959 -0.001893757 -0.0020893896
0000d0 32 d7 9f ba 66 41 96 3a ce 8f f5 ba 7e 2f 37 3a
       -0.001219487 0.0011463582 -0.0018734874 0.0006987973
0000e0 c4 f8 30 ba fb 8e 60 bb 11 bf fa ba 30 7a 1c bb
       -0.0006750936 -0.003426491 -0.0019130429 -0.002387654
0000f0 48 11 ea ba f2 06 d8 ba 67 0c 40 ba 3a f1 4a ba
       -0.0017857933 -0.0016481562 -0.0007326067 -0.0007741634
000100 95 c9 8c 3a 4a 68 ef 3a 70 79 3a 3b 85 15 1e bb
       0.0010741228 0.0018265333 0.002845373 -0.0024121713
000110 f0 e7 87 38 59 82 ea bb 58 21 b6 bb 5b f5 bd ba
       6.480503e-05 -0.007156652 -0.005558174 -0.0014492677
000120 7b 71 f9 3a 47 da 76 3a 2f 40 28 bb 54 a9 a3 3a
       0.0019031012 0.0009416681 -0.0025673022 0.0012486377
000130 41 43 a7 b8 d3 7c fa b9 e7 e8 be 3a aa 29 e6 ba
       -7.9757076e-05 -0.00047776717 0.001456526 -0.0017560024
000140 24 08 70 3a ea f4 5d 39 92 df ee b9 7f 56 85 ba
       0.00091564865 0.0002116744 -0.0004556147 -0.0010172873
000150 43 a4 0e bb e7 89 0c 3b 78 fe 08 bc de 37 d0 bb
       -0.0021765388 0.00214445 -0.008361451 -0.006354316
000160 da 49 e4 ba 56 82 43 3b 92 88 dd ba 43 71 39 bb
       -0.0017417029 0.0029832325 -0.0016901663 -0.002829627
000170 9c fc c7 3a ae 1f 38 bb e1 e0 80 ba ce b4 5a 3a
       0.0015257779 -0.0028095054 -0.0009832644 0.0008342982
000180 22 24 83 ba dc ad b9 bb 7d 6f f5 3a 37 44 3b 39
       -0.0010005275 -0.0056664776 0.0018725243 0.00017859122
000190 99 20 5f 39 6a 03 ea ba 6e f8 24 ba 57 ed 20 39
       0.00021279081 -0.0017853801 -0.00062931224 0.00015347205
0001a0 46 4a b0 ba 5f 16 e7 ba 1c f7 b9 3a 4e 8c 1b bb
       -0.001344987 -0.0017630568 0.0014188024 -0.002373475
0001b0 93 da 02 3a c5 3a cd b9 1f 09 a3 3a 6a 95 34 bb
       0.00049916765 -0.00039144434 0.0012438631 -0.0027554878
0001c0 d2 ab 90 b9 a1 59 56 bb dd ad a8 39 21 ec 29 bb
       -0.00027593836 -0.0032707232 0.00032172995 -0.0025928097
0001d0 58 e8 f6 ba 41 9c e5 bb 8a 8a c4 ba 8b 64 97 bb
       -0.0018837554 -0.0070071523 -0.0014994901 -0.00462014
0001e0 06 63 0c bb d3 77 e1 bb 93 7b 82 37 a5 71 27 39
       -0.0021421327 -0.0068807392 1.5554751e-05 0.00015968697
0001f0 08 9e c6 bb 64 88 91 bb 76 77 35 b9 d0 c8 ec ba
       -0.0060613193 -0.004441308 -0.00017306008 -0.0018065218
000200 9c 6b 5b bd da b9 a1 3b d0 e6 5e 3c 7a 2f 4f 3c
       -0.05356942 0.0049354853 0.013604835 0.012645597
000210 bd ac 1a 3d 2c e1 80 3c b3 25 b4 3c 2d fe 10 bc
       0.037762392 0.01573237 0.021990633 -0.008849663
000220 60 a1 91 3c bd 4f 84 bc 51 28 48 b9 a3 0c 6f 3d
       0.017777145 -0.016151303 -0.00019088505 0.05836166
000230 d7 72 45 3d fa 67 2b 3d 2d 48 8d 3d 4f 31 84 3c
       0.048205223 0.041847207 0.06898532 0.016136793
000240 5c 51 11 3d db 73 63 3c e3 cc 17 3a f3 e5 87 3d
       0.03547798 0.013882603 0.00057907234 0.06635656
000250 0a 17 06 3c 85 7e a8 3d d3 ca 45 3c ad 56 c6 3b
       0.008184204 0.08227257 0.012072283 0.006052813
000260 0f 1f 9f 3d e7 e0 f2 3c fb 19 17 3d 63 79 44 3d
       0.07769596 0.029648257 0.03689001 0.047967326
000270 aa 08 da 3b 53 af 0f 3d 80 c0 96 3d f4 c9 e5 3c
       0.006653865 0.03507931 0.07360935 0.0280504
000280 c3 96 c5 3b 8a 6f 03 3d 88 27 b8 3b e0 6d 9e 3d
       0.006029935 0.032088794 0.005619947 0.07735801
000290 c4 a4 9c bc 54 97 0c ba 70 d7 55 3d 6f f1 26 3b
       -0.019121535 -0.0005363126 0.05220741 0.0025473495
0002a0 ac 58 1f bc 98 6c 81 3c 66 14 af 3d 89 06 0c bc
       -0.009725731 0.015798852 0.085488126 -0.00854648
0002b0 d3 3f 24 3b 1b c2 92 3c 05 5d b8 bc 7d dd 95 3d
       0.0025062456 0.017914822 -0.022505293 0.07317636
0002c0 dc e6 ec 3c 92 3e 6d 3b 9e 1d 60 3c 30 ae 15 3d
       0.028918676 0.0036200625 0.013678936 0.03654307
0002d0 0c 7f 8e 3c 82 07 b5 3c 54 4a 72 3c 2a 65 93 37
       0.017394565 0.022098307 0.014788229 1.7570874e-05
0002e0 8a 44 12 39 02 09 d5 3a a9 61 a9 3c 38 f7 6e 3d
       0.00013949178 0.0016253295 0.02067645 0.058341235
0002f0 f5 fd 3f 3a a6 05 38 3c c5 fe a8 3b b7 4d 60 3c
       0.00073239143 0.011231815 0.005157324 0.013690404
000300 61 b5 18 bd 84 fe ed 3c 90 d3 8b 3d 81 af 21 bc
       -0.03728235 0.029052027 0.06827462 -0.009868504
000310 c1 b8 00 3c 21 27 86 3d 04 9d 8f 3d 48 de 64 3d
       0.007856549 0.06550432 0.0701237 0.055876046
000320 d4 82 b0 3c 2a e8 9a bc 77 8f 63 3c 86 75 65 3d
       0.021546759 -0.018909533 0.013889185 0.056020282
000330 f1 35 9e 3a eb 0b b0 3d 88 ec fd bb 11 00 b5 3b
       0.0012070519 0.08596023 -0.007749144 0.0055236896
000340 80 af 8e 3c 61 1f e4 bc 86 d4 9c bc ba 97 2f 3a
       0.01741767 -0.027846994 -0.019144308 0.0006698329
000350 09 3c c7 3c 09 52 8c 3c cf e6 6d 3d 84 11 59 3d
       0.02432062 0.017128961 0.058081444 0.05299522
000360 7d 4c 20 3c 5c b7 6d 3c 99 87 04 3d ca 75 ef 3c
       0.009783861 0.014509048 0.03235588 0.02923097
000370 d5 d3 06 bb 72 c2 89 b9 98 38 c1 3b 34 05 c6 bc
       -0.002057304 -0.0002627555 0.005896639 -0.024172403
000380 8e dc 2e 3d 4d 81 8e 3d 6e c6 b0 bc 2b 94 ea 39
       0.042690806 0.06958256 -0.021578994 0.00044742352
000390 4a ff 90 3b 5f 0d 01 3d 14 06 74 3d df ca 8e 3d
       0.004424964 0.031506892 0.05957611 0.06972288
0003a0 1a 43 52 bc b6 ff 7c 3d 52 9a 18 3d 9a 9f 47 3d
       -0.012833381 0.061767302 0.037256546 0.048736192
0003b0 ad 44 0b bd 0f 5f d4 3b aa d0 48 3c c3 4b 93 3b
       -0.03400104 0.0064810584 0.012256781 0.0044951155
0003c0 10 80 8d 3d 8d a2 27 3c 22 0c 02 3d b0 18 00 3d
       0.069091916 0.010231626 0.031749852 0.031273544
0003d0 5a 34 93 3b 43 f3 8c 3d ea d1 45 3c 55 a1 6e 3d
       0.004492325 0.06882336 0.012073973 0.058259327
0003e0 99 33 db ba b7 da 91 3d 06 79 05 3d 72 25 3f ba
       -0.0016723751 0.07121795 0.03258612 -0.00072916516
0003f0 d8 db 34 3d 59 a6 8b 3d 88 87 ee 3b 39 f2 a7 3d
       0.04415497 0.06818838 0.00727934 0.08200497

policy_model.0.bias f4 [128]
000000 c7 a6 95 ba 4c 32 8f 3d 73 61 c4 ba de 70 3d 39
       -0.0011417501 0.06992015 -0.0014982655 0.00018066491
000010 38 ad b5 37 c4 61 1c b9 9c 8c b6 bb f4 bb 27 bc
       2.1657543e-05 -0.0001491374 -0.005570961 -0.010237683
000020 1e 41 ca 3a 56 8b c4 ba c5 bc c4 ba b7 c7 6a bc
       0.0015430783 -0.0014995139 -0.0015009871 -0.014329842
000030 f2 c9 8a bc d7 30 66 3c ac 2f 88 39 a8 60 b4 39
       -0.016941998 0.01404973 0.0002597546 0.0003440429
000040 ae ea e2 3b f9 88 8d bc f3 20 c4 ba 3b 16 bf ba
       0.0069249487 -0.017277228 -0.0014963433 -0.0014578769
000050 36 35 3d bc 4f 4a 06 bc 29 23 f9 3b e2 d1 c7 b9
       -0.011548331 -0.0081964275 0.0076030684 -0.00038112613
000060 a8 d3 79 bc ee b8 c4 ba a4 bc 42 bc 26 1a 62 bc
       -0.015248217 -0.0015008727 -0.011885796 -0.01380018
000070 19 df 00 bc 15 67 c4 ba 58 a4 0e bc 09 38 d0 bb
       -0.007865691 -0.0014984334 -0.008706175 -0.006354336
000080 77 42 60 bc 5b 5f dd bb 15 b0 c4 ba fb 1c d5 bb
       -0.013687721 -0.006755752 -0.001500609 -0.006503699
000090 46 e1 5e ba e1 2d 9d ba 8d 73 90 bc 7a a4 63 bc
       -0.0008502196 -0.0011991822 -0.017633224 -0.013894195
0000a0 bf ca 88 3d 18 37 6f bc 88 0b cc 3b 9f 86 c4 ba
       0.06679296 -0.014600538 0.0062269606 -0.0014993733
0000b0 92 1f a8 ba 71 75 0b 3d 01 e3 84 bc 38 0b 25 bc
       -0.0012826791 0.034047548 -0.016221525 -0.010073476
0000c0 1e d6 18 bc a6 8c 1e 3b 89 01 2a bc eb c0 b3 ba
       -0.009328393 0.002419272 -0.010376343 -0.001371411
0000d0 1d 50 76 bb 51 ec 83 3b 13 c1 53 bc 00 00 00 00
       -0.0037584372 0.004025974 -0.01292445 0.0
0000e0 00 00 00 00 fc 61 09 bb 0a 50 8c bc 18 36 a7 ba
       0.0 -0.0020962944 -0.01712801 -0.001275721
0000f0 fe 56 87 bc d6 2d c3 ba 28 38 c4 ba 21 b0 78 3b
       -0.016520973 -0.001489098 -0.0014970349 0.0037946778
000100 64 b4 7e bb 69 b4 c4 ba bb f0 e5 ba 9d 3b 7e bc
       -0.0038864845 -0.001500738 -0.0017543057 -0.015517143
000110 4a fd 0a bc fd 31 8c bb df 95 00 bc af e2 fe bb
       -0.00848324 -0.00427842 -0.007848232 -0.0077784876
000120 fd 62 83 ba 76 ae a9 bb e9 5e 82 3a 52 75 76 bb
       -0.0010024008 -0.005178268 0.0009946498 -0.003760655
000130 0c 4a c4 ba 37 87 82 bc dc 5d 77 bc 1d 9e c4 ba
       -0.0014975681 -0.015933616 -0.015098061 -0.0015000735
000140 3b a6 d7 3c da ff 86 bc 44 ae 65 bc 14 b0 0b ba
       0.026324382 -0.016479421 -0.014018599 -0.0005328667
000150 a1 c9 ab 3b 12 74 98 ba 7c 9c 5b ba 26 86 d3 3d
       0.005242542 -0.0011631271 -0.0008377505 0.10328321
000160 29 81 26 bc 92 0e 92 bc 84 56 c4 ba e1 06 6b bb
       -0.01016263 -0.017829213 -0.0014979397 -0.0035862254
000170 72 ef a1 b9 64 d5 e9 bb 58 cf fb ba 96 8e 14 bc
       -0.00030886714 -0.007136034 -0.0019211574 -0.009067198
000180 06 25 8d bc 64 8c c4 ba b6 93 7f bc e5 fd 80 bc
       -0.017229568 -0.0014995453 -0.015599182 -0.015746066
000190 ee 0e 1e 3b 08 95 25 bc f6 6c 42 bb ab 4e a7 bb
       0.0024117786 -0.010106333 -0.0029666997 -0.0051058135
0001a0 e9 0f d1 bb 24 24 be 3b 7e 64 33 3c d1 29 30 bc
       -0.0063800705 0.005802648 0.010949252 -0.010752157
0001b0 b9 80 a7 ba cf 94 c4 ba 63 5c da bb 94 0b 2e bc
       -0.0012779451 -0.0014997962 -0.0066638454 -0.010622878
0001c0 da 86 2f bc 86 59 e7 b8 3d 57 34 ba 58 f6 d8 ba
       -0.010713303 -0.000110316134 -0.00068794546 -0.0016552908
0001d0 ab ae 05 bc 61 df 76 bc 66 81 a0 ba c1 98 c2 ba
       -0.00815932 -0.015067906 -0.0012245595 -0.001484655
0001e0 e8 a4 54 bc 16 52 2b 3d ce d0 a8 ba 8c 96 4b 3b
       -0.01297877 0.04182633 -0.0012879611 0.0031065075
0001f0 e2 ef 6a bb 43 68 6b bb 70 9c c8 3b e6 bc 48 bb
       -0.0035848548 -0.00359203 0.0061221644 -0.003063017

policy_model.2.weight f4 [8, 128]
000000 da f4 ec ba df 7a 2b bd 12 18 e2 3a ba f7 51 3a
       -0.0018078343 -0.041865226 0.0017249605 0.00080096314
000010 b3 fd 00 bb f7 a8 4e 3a b3 85 7c bc 5a 8c d0 bb
       -0.0019682467 0.0007883454 -0.015412736 -0.0063643875
000020 72 08 b6 3b d1 76 2a b9 e8 0b ee ba ce e0 b8 bb
       0.005555206 -0.00016256726 -0.0018161507 -0.005642033
000030 c7 d1 af bb 68 05 71 3b 48 9c 20 3b bd 5b 9f 3a
       -0.0053655836 0.0036776904 0.0024507213 0.0012158077
000040 e5 0b 72 3b 4e 92 e2 bb d2 30 83 3a 73 d5 29 bb
       0.003693336 -0.0069144135 0.0010009056 -0.002591458
000050 77 33 b9 bb b5 bb ef bb ea 06 7f 3c 1b 31 39 3a
       -0.005651887 -0.0073160776 0.015565613 0.0007064507
000060 b6 14 f8 bb 34 44 d7 3a d2 e5 2a bb d0 5e db bb
       -0.0075708283 0.0016423524 -0.0026076925 -0.006694652
000070 75 8e 81 bc 0a 85 5a ba 5b 2a 05 bc 3a eb ee 39
       -0.015815 -0.00083358644 -0.008127774 0.00045570155
000080 a6 80 11 bc 1d bc 1e bc 0e 06 e6 3a de 67 f7 bb
       -0.00888077 -0.009688404 0.0017549412 -0.0075502237
000090 05 f3 97 ba 6e 14 8f 3a 2f 64 e5 bb 70 05 09 bc
       -0.0011592811 0.0010916123 -0.007000468 -0.008363113
0000a0 46 f3 76 bd ed 7a db bb 71 57 63 3b 04 f9 c9 ba
       -0.060290597 -0.0066980035 0.003468957 -0.0015409295
0000b0 8b d7 a7 3a 07 6d 99 bd 79 f6 f9 bb d9 b3 3b bb
       0.0012805326 -0.074914984 -0.007628259 -0.0028641133
0000c0 18 3d f1 bb 0f 6e 99 3b a8 9b f3 bb f2 35 b5 bb
       -0.0073620193 0.0046823095 -0.007434327 -0.0055301124
0000d0 3c 32 91 3b 57 cd 94 3b 0e c2 ac bb 47 79 6c b9
       0.004431037 0.00454108 -0.0052721566 -0.00022551893
0000e0 b8 7e e2 3a 8e 05 a6 3a a7 f5 da bb 02 a1 cd b7
       0.0017280197 0.001266645 -0.006682116 -2.451288e-05
0000f0 75 b3 d5 bb ff 1e f3 b9 af 07 2c ba 6f 25 88 3b
       -0.006521637 -0.00046371666 -0.0006562424 0.004154853
000100 12 15 ff bb a1 c0 86 3a 3b c9 7f 3a 71 3a bd bb
       -0.007784494 0.0010280797 0.00097574637 -0.005774789
000110 5a b8 d4 bb e3 c4 99 bb 8d 9e f2 bb 0b bb 07 bc
       -0.006491703 -0.00469266 -0.0074041546 -0.008284341
000120 68 9d 83 b8 73 7f 49 3b 99 66 f3 3a c5 d4 47 ba
       -6.275886e-05 0.0030746132 0.0018570005 -0.00076229527
000130 64 fa 16 3b 6f 1d 07 bc 7a e5 a4 bb 7b da 5e 38
       0.0023037428 -0.008246764 -0.0050322386 5.31324e-05
000140 43 3f d1 3c 33 19 b7 bb e1 69 e0 ba 31 b6 a0 3a
       0.02554286 -0.005587721 -0.0017121398 0.0012261329
000150 6c 64 8a 3b 99 65 92 3a 03 0f e4 b8 f6 5e a9 bd
       0.004223397 0.0011169194 -0.00010874683 -0.082700655
000160 0a f3 b7 bb 27 83 d2 bb 89 de cd 3a 40 b5 f5 bb
       -0.0056136893 -0.006424326 0.001570658 -0.0074984133
000170 53 c4 1f 3b df 86 d7 bb 0b 95 9b 3a a1 1f 75 bc
       0.0024378493 -0.006577357 0.001186998 -0.014961154
000180 41 3a c5 bb 51 cb 61 3b 30 3b 95 bb a1 8f e8 bb
       -0.0060189073 0.0034453461 -0.004554175 -0.0070972
000190 d8 c6 74 3b 13 7c db bb c5 39 37 3b fa 35 90 39
       0.0037349965 -0.0066981404 0.0027958017 0.00027506036
0001a0 04 f5 82 38 2f ad 6a 3b de 7d ec bc df 73 ec bb
       6.244521e-05 0.0035808792 -0.028868612 -0.0072159613
0001b0 6d f7 c1 b8 4e ff 13 3b c1 e1 d3 bb e0 58 85 bb
       -9.249044e-05 0.0022582593 -0.006466121 -0.0040694326
0001c0 6f 3b 26 bb be 2c cd b8 38 82 7e 3b 50 bf 46 3a
       -0.0025365015 -9.7834956e-05 0.003883494 0.00075816084
0001d0 20 13 cb ba 07 14 cc bb c1 19 7c 3a c2 32 a6 b9
       -0.0015493371 -0.0062279734 0.0009616875 -0.00031699805
0001e0 b3 b1 ee bb d1 76 97 bd 00 42 c6 b9 a8 7d 37 bb
       -0.007284367 -0.07395709 -0.00037814677 -0.002799848
0001f0 4a c7 fd b8 88 ce 0b bb 1a 41 96 3b 9f c1 5e 3a
       -0.000121011006 -0.002133282 0.0045853974 0.000849748
000200 8a eb 8a 3a 9c a8 11 3d 10 45 2b ba b2 22 39 ba
       0.001059876 0.03556119 -0.00065334234 -0.000706236
000210 fa 44 d8 39 1d 47 71 ba e9 61 e1 3c 38 dd 30 bc
       0.00041250122 -0.0009204017 0.027512508 -0.01079493
000220 3b 91 08 bc 64 9f 38 b9 46 b7 55 3b 71 ed 15 bc
       -0.008335407 -0.00017606985 0.003261046 -0.009150849
000230 1b 21 0e bc 28 13 e2 bb 0a da 28 bb a2 6b aa bb
       -0.008674885 -0.0068992563 -0.0025764727 -0.005200819
000240 ef 76 1f bb 60 d0 09 bc d7 f9 f2 3a d0 04 64 ba
       -0.0024332365 -0.008411497 0.0018537593 -0.0008698227
000250 f0 36 44 bc 71 99 28 bc c1 14 11 bc 67 a5 02 ba
       -0.011975989 -0.0102904895 -0.008855046 -0.00049837533
000260 0c fe 0c bc 1a 7c 54 3a 6b 00 60 bb 9a 15 fe bb
       -0.008605491 0.0008105651 -0.0034179937 -0.00775404
000270 99 03 44 3b 18 b8 c6 ba 2a 0b 29 bc 1a 58 36 3b
       0.002990937 -0.0015161065 -0.010317603 0.0027823509
000280 dc 60 fa bb 5b 9f 8d bb d1 cb 0f 3a 93 24 14 bc
       -0.007640941 -0.004321975 0.0005485388 -0.009041923
000290 14 80 86 3a 0d 9e af ba 7e 64 09 bc 2c 72 3d bc
       0.0010261559 -0.0013398543 -0.008385776 -0.011562865
0002a0 75 41 74 3d cf 91 27 bc f8 b1 b5 bb f5 fc 2b 3b
       0.059632737 -0.010227635 -0.005544897 0.0026243303
0002b0 42 1a 2e 39 8d cd 83 bc 46 5e 0c bc 43 94 10 bb
       0.00016603715 -0.016089225 -0.008567398 -0.0022061027
0002c0 e6 7d 11 bc b2 fd ed bb fe 10 53 bc df 88 8f ba
       -0.008880114 -0.007262909 -0.012882469 -0.0010950825
0002d0 49 63 8a bb 06 2e e7 bb 30 b0 23 bc bc 9b c6 3a
       -0.0042232615 -0.007055047 -0.009990737 0.0015152614
0002e0 a1 2c fc 3a 96 64 c6 3a fb f2 ec bb c9 18 27 ba
       0.0019239375 0.0015136178 -0.007231114 -0.0006374238
0002f0 5e 4a 13 bc 63 48 7c 39 2a f0 b1 ba d3 59 0a bc
       -0.0089898985 0.00024059559 -0.0013575603 -0.008444267
000300 b9 17 cb bb cf 88 3c ba 92 62 e6 b9 cd fc 07 bc
       -0.0061978963 -0.0007192017 -0.0004394246 -0.0083000185
000310 1c 4e 0a bc 09 3f a2 bb 00 55 e9 bb 06 49 17 bc
       -0.008441474 -0.004951362 -0.0071207285 -0.009233719
000320 63 5d f4 ba 0c bd d8 3a 07 d8 89 bb 48 ab 7f ba
       -0.0018643554 0.0016535833 -0.0042066607 -0.0009753001
000330 64 e8 6b 3b f1 79 0d bc 3e e4 28 bc a8 34 b4 ba
       0.003599667 -0.00863503 -0.010308323 -0.0013748603
000340 3a f7 f2 ba 61 1e 0a bc 68 6e 3b bb 34 a4 a0 ba
       -0.0018536814 -0.008430094 -0.0028599743 -0.0012255968
000350 ea a5 e3 bb 5f 15 8e ba 77 ca bb 3a e9 56 d0 3c
       -0.0069472687 -0.0010840109 0.0014327307 0.025432067
000360 f7 99 22 bc 9f 77 21 bc 9d 1d d2 3a 39 86 2e bb
       -0.009924403 -0.00985518 0.0016030554 -0.0026630296
000370 b4 0e f1 b8 9b 64 30 bc 5c a3 b4 b9 f2 b9 0b 3b
       -0.00011494514 -0.010766174 -0.00034453988 0.002132055
000380 2b 13 01 bc fd 37 e1 39 3b cf 05 bc 6a 3e 11 bc
       -0.007878105 0.0004295706 -0.008167083 -0.008864978
000390 d2 bf d9 bb 27 c6 2b bc f8 a8 81 3b 00 7c aa b8
       -0.006645181 -0.010484255 0.00395691 -8.1293285e-05
0003a0 26 c3 e4 3b cf ee ce bb 35 4b 28 bc 90 4f ff bb
       0.0069812713 -0.0063150893 -0.010271837 -0.007791467
0003b0 db 59 3c ba e7 67 5b ba 70 13 fd bb 6d c5 81 bb
       -0.00071850204 -0.00083696697 -0.0077232644 -0.0039603026
0003c0 1b 6c 15 bb a9 82 27 39 96 0f 08 3b b5 57 78 bb
       -0.0022800032 0.00015975036 0.0020761243 -0.0037894074
0003d0 10 a1 d9 b8 99 e8 12 bc 4e c3 79 ba 9b 93 ee b8
       -0.000103773666 -0.008966588 -0.0009527699 -0.00011376218
0003e0 bd 17 07 bc 49 84 1c bc 02 ab 20 39 c1 3c 18 3b
       -0.008245406 -0.009553024 0.00015322494 0.0023229572
0003f0 0b 33 a4 ba 73 3b 44 bb f9 7c 02 bc b8 5f e5 ba
       -0.0012527419 -0.002994266 -0.007964366 -0.001749984

policy_model.2.bias f4 [8]
000000 33 ac b3 bc df d5 12 3c 0e e2 19 3d d3 3a 33 3c
       -0.021932697 0.008962124 0.0375691 0.010939318
000010 b1 6b 49 bc 9c d8 2f bb fe 2b d7 3c fa cb 60 bd
       -0.012293742 -0.002683199 0.026266094 -0.054882027
