results/short_race/second_iteration_training/model798.pt (torch, 276107 bytes, 13 tensors)

features_model.0.weight f4 [128, 4]
00000000: c8d9 e43b b099 0f3e 4477 9d3d 5aa2 9ebe
00000010: dee2 013d 8b48 91bd 118b 71b7 01e4 fd3c
00000020: 698b 253e 54fd 903c 2db7 09bd c462 953e
00000030: 1b7b 3a3e 4657 c3bd 72e8 67bd a344 d2bd
00000040: 54f3 493d 13af b2ba 4459 493d 3656 08bd
00000050: 25bd 4b3d 7565 683d c486 753e e9a2 4abe
00000060: 546a 1fbb 21f0 0ebd 9213 da3d b26e a53e
00000070: 291e 8c3c 1d42 9ebc d965 953d ccbc a13e
00000080: 150c 3ebe 07fb 843d 709c fd3d 2e9e 9c3b
00000090: 68c9 d13a 9e85 1e3e db27 653d 1a61 b7be
000000a0: 44ea 613d 9260 4e3e fa27 3e3e 11d5 0a3e
000000b0: d9e7 1a3e da6f e6bd 21a7 303e e9b7 673d
000000c0: aa55 113e 7698 973e 46fc 0e3d d70c cdbd
000000d0: 3b96 25be e4c1 0dbd 0c4c 18be a564 8d3c
000000e0: 92dc e3bd e81d 7a3e d22a 0cbd 2b4c 0d3e
000000f0: 5f22 54be a871 e1bc 2523 98be 2d97 793d
00000100: 6187 f93d 388a a0bc 457d d33c d8c0 00be
00000110: 87c1 62bd 040f 77be bf4d fdbd 97c7 5dbd
00000120: 5440 07be 50f5 683d a142 a7bd 7a4f e5bd
00000130: 233d 97bd b1c2 0abe 8f32 84be ab4b 4dbe
00000140: 8859 b13d f217 a6bd b7ea fbbd 771d 463d
00000150: 2541 73be 1272 2bbe eb70 403e c4f7 86bd
00000160: 1b6c 573d 6b13 323e 1a56 a3bd 850b 0cbd
00000170: 346c 67be c816 b9bd 9237 dcbd adb1 903d
00000180: 8d8b 2a3d a428 093e c7f1 103e caab a2be
00000190: debe c0be 5fb6 56be 8127 9b3d 2a80 b5bd
000001a0: 19d9 773e caf4 af3e 0e3c cbbc ae42 373e
000001b0: c62d b0bd ed03 a4bd 4c62 d7bd 0e14 c8bc
000001c0: c635 643c b703 d1bc cead 92bd a87a d03e
000001d0: f156 cf3d df39 b03d 65f8 e9bd 0844 89bd
000001e0: 328f 323e 62ee f23d 0953 323e e2df db3d
000001f0: ac1f e83d 7a56 7f3d bc4f ea3d a18a 593e
00000200: a7fe 493e 6b08 91be 63ba 743d 32a1 db3d
00000210: 864a 3d3e 06b6 88bc 5f6d 073e c346 85bc
00000220: 76b6 a53c 4599 dc3c 4a23 743e d70b 973e
00000230: ac62 b23d a328 0dbe 5b6c 4f3b 6cf8 3ebe
00000240: c434 9fbd aad9 ebbd 54bf cd3d 094c 85bc
00000250: 4a27 91bd f132 c3bd a38e 0abb 2990 b33d
00000260: d64f 33be fdae c13c c5df 973d 3662 643e
00000270: ce2e 323d 6195 b23b 677d 0b3e 642c c73e
00000280: 9ffe c6bb c140 b6bc b1a9 92bd 3586 b03e
00000290: 5d81 32bd 04a9 8dbd 4fa6 ce3c de9a 73be
000002a0: 824c 9c3d ed6f 6ebd 2c75 dcbc cc7c f7bd
000002b0: 467c fabd a3fa ca3d 51da 083e c377 683c
000002c0: 4efd 9e3c 93cf 513e 4e8d 423d 4849 42bd
000002d0: 33f2 1fbd 808e a6bd 858a 91bd d2a8 133e
000002e0: 2d0d cc3d ff31 063c 1885 c93e a419 cebd
000002f0: 4577 b63b 4b0b 273c 5362 fd3d 0f16 d93c
00000300: c80c 55be 9b24 98b9 e766 16be a2a6 3a3c
00000310: f655 6f3e ee36 04be 4d5b 5e3d f85e 063e
00000320: c6dd 51be fe27 a5bd 4706 d23c eba4 b33d
00000330: f310 99be 8dcb f83d 529f 3f3e da8c b73c
00000340: 2dce 4e3e e8d4 a73e 1ad2 7bbd 82dd 48bd
00000350: 2f51 613e 0c0c 84bd fff9 0bbd f808 08bd
00000360: bfa7 683d cce0 15b9 1111 e13d 4178 423d
00000370: 0646 033e edf7 4abc 414f 4e3e d259 d63e
00000380: 633d 123e 17bf 253d d4b3 f93b b1ad c6bd
00000390: 2c3a 20bd 0b27 ea3d a928 093e b845 013c
000003a0: ab51 94bd 623f a43c 8e79 6fbd 115a f73c
000003b0: f7a9 083e b757 843d a203 163e 71cb 8f3e
000003c0: 645b 40bd 54d0 e03c 7226 9d3c 2b88 773e
000003d0: 4241 313c 4dfa babc bfe3 0ebe 8810 983e
000003e0: 00f8 393a a465 bc3d 1a7d 813d 2ed8 abbe
000003f0: cf28 50be 1ffc 213e 7aa4 febc d564 07be
0.0069839694 0.14023471 0.07688764 -0.3098324 0.031710498 -0.070939146 -1.4397098e-05 0.03099251
0.16166462 0.017698921 -0.033621956 0.29176915 0.18211024 -0.095381305 -0.05661816 -0.10266998
0.04930432 -0.0013632498 0.049157396 -0.033285342 0.04974093 0.056737382 0.2397719 -0.19788708
-0.002432485 -0.034896974 0.10648264 0.32311016 0.017104225 -0.019318635 0.072948165 0.31589353
-0.18559296 0.06493192 0.12383354 0.0047795987 0.0016005458 0.15480658 0.055946212 -0.3581627
0.055155054 0.20154026 0.18569937 0.13557841 0.15127505 -0.11251803 0.17251255 0.056571875
0.14192834 0.29608506 0.034908555 -0.10012215 -0.1617059 -0.034608737 -0.1487276 0.017259905
-0.11126055 0.24425471 -0.034220524 0.13798587 -0.20716237 -0.027520016 -0.29714313 0.060935188
0.121840246 -0.019597158 0.02581657 -0.12573564 -0.055360343 -0.24126822 -0.123683445 -0.05414542
-0.13208133 0.056874573 -0.08167005 -0.111967996 -0.07384708 -0.13550831 -0.25819823 -0.20048396
0.08659655 -0.08110036 -0.12300628 0.048367944 -0.2375532 -0.16742733 0.18793075 -0.06590226
0.05259333 0.1739022 -0.07975407 -0.034190673 -0.2259987 -0.09037548 -0.10752787 0.07065139
0.041636992 0.1339441 0.1415473 -0.3177169 -0.3764562 -0.20968007 0.07575894 -0.08862336
0.2420391 0.34366447 -0.02480891 0.1789653 -0.086024806 -0.08008561 -0.105167955 -0.024423625
0.013928836 -0.025514467 -0.07162057 0.4071858 0.10124005 0.08604788 -0.114243306 -0.06702429
0.17437437 0.11861874 0.17414488 0.10736062 0.11334166 0.06233833 0.114409894 0.21244289
0.19726048 -0.28326735 0.059748065 0.10724105 0.1848546 -0.016688358 0.13225316 -0.016269093
0.020228606 0.026928553 0.23841587 0.2950122 0.087102264 -0.13785033 0.0031650278 -0.18649453
-0.07773736 -0.115161255 0.100462586 -0.016271608 -0.07087572 -0.09531201 -0.0021142147 0.08767731
-0.17510924 0.023643011 0.074157275 0.2230309 0.043501668 0.0054499363 0.13622056 0.38901055
-0.0060728337 -0.022247674 -0.07161272 0.34477392 -0.0435804 -0.06917003 0.025225786 -0.23789546
0.0763178 -0.05821221 -0.02691134 -0.1208435 -0.122307345 0.099110864 0.13364531 0.01418871
0.019407894 0.2048934 0.04749804 -0.047433168 -0.03904934 -0.081326485 -0.07106499 0.14419869
0.099634506 0.008190631 0.39359355 -0.10063484 0.0055684173 0.010195564 0.123722695 0.026499776
-0.20805657 -0.00029018972 -0.14687692 0.011392267 0.23372635 -0.12911579 0.05428629 0.13122165
-0.20494756 -0.080642685 0.025637759 0.0877169 -0.29895744 0.12148199 0.1871312 0.02240603
0.20195837 0.32779622 -0.061479665 -0.04903937 0.22003625 -0.0644761 -0.03417396 -0.03321168
0.0568006 -0.0001429349 0.10989583 0.047477964 0.1281968 -0.012388212 0.2014742 0.41865402
0.1428123 0.04046544 0.007620314 -0.09701098 -0.039117977 0.11433228 0.13394417 0.007890157
-0.072421394 0.020049755 -0.058465533 0.030194314 0.13346086 0.06462043 0.14649823 0.280849
-0.046962157 0.027443089 0.019183371 0.24173038 0.010818781 -0.02282443 -0.13954066 0.29700112
0.0007094145 0.09199074 0.06322689 -0.3356337 -0.20328067 0.15818833 -0.031084288 -0.13222058

features_model.0.bias f4 [128]
00000000: 88d0 d73d 9495 f33b 5d29 ca3d 8117 14bd
00000010: 27d5 2f3e 67c7 b43d 0a0e 003e 942a 0f3e
00000020: 7fe2 0a3d ee6f e93d d854 203e ab11 babb
00000030: e3a0 b03d 1076 38bd 6c18 f53c d128 b83d
00000040: d8cb bd3d fe02 c6bc 2f0f 78bd ad22 bfbb
00000050: 13ef fd3c b6ed e7bd 4b0b d53d 3e69 80bc
00000060: 6231 1d3e 7842 29bd 5b24 323d a403 3b3c
00000070: 5ba7 263e e8b9 023e d4f8 ef3d 56f3 0f3e
00000080: 74dc 9d3b 3584 b33d de38 1d3e 671a 2e3d
00000090: 4039 6b3d 2026 efbc 645a ff3d 9d40 103e
000000a0: c1ce 393e 857a 073d 6c58 c83d 75bd 0e3d
000000b0: 53ac a53d 30dc c0bc 96ec 8c3d 8d48 c33d
000000c0: 502b f0bc a704 813d 7b02 6abd b31a 673d
000000d0: 116c b73d bb97 a93d ccd2 233e b73f 9d3d
000000e0: 4d95 d03d 0773 483d 6d8c 6fbc ffaf 153e
000000f0: 45c0 013e f15d 32bd 7a33 053e a8c0 9c3d
00000100: 30e6 8b3d 30de 1f3e 6143 c43d 9ce7 013e
00000110: 9b4d d03d a6d7 243d 43ac 90bd 89dc a0bd
00000120: 811b 85bc d941 07bb bd06 fd3d 325c 57bd
00000130: 6b9d 58bc 646c a93d 5555 f13d aee4 3c3d
00000140: 335f a63d 2df6 afbc fccc eb3d 4b4e 693d
00000150: 4a3a b7bc e0ad cd3c a974 4a3e b575 c93d
00000160: 9e02 cf3d c093 95bc 341a 7abc ac74 573d
00000170: de3a 50bc 28a9 173c 20b4 1e3d 9562 f63d
00000180: 47cb 38bd 558d 9ebc 1d7d 4f3d 782f ad3d
00000190: 4df9 eabc b9be 263e 0c8b 4c3e 231b 8d3d
000001a0: 9bda bd3d 79da 2b3e 0c59 1e3e f845 cd3d
000001b0: cb24 69bc b11e debc 2472 c23d 44eb 093e
000001c0: b0c4 34bd 582c b33d 7fcc d93d d4c5 143e
000001d0: 5b26 323e bc49 6dbb b8c3 9d3d c9d8 f1bc
000001e0: e0a0 75bd aad7 493e 968d bf3d 477d 603d
000001f0: 3003 fe3d a0a3 eb3d ec70 003e 0411 663a
0.10537821 0.0074336026 0.09871171 -0.036155228 0.17171155 0.088270955 0.12505355 0.13981086
0.03390741 0.11398302 0.15657365 -0.0056783757 0.08624437 -0.04503447 0.029918872 0.0899216
0.09267396 -0.024171349 -0.060561355 -0.005832991 0.030997789 -0.11324637 0.104025446 -0.015675183
0.1535087 -0.041323155 0.043491703 0.011414442 0.16274779 0.1276623 0.11717382 0.14057669
0.00481754 0.08765451 0.15353724 0.042505648 0.057427645 -0.029192984 0.124684125 0.14087148
0.18145277 0.033075828 0.0978249 0.03484865 0.08089509 -0.023542494 0.06881063 0.09535322
-0.029317528 0.062997155 -0.05713127 0.056421947 0.08956159 0.082808934 0.15998381 0.07678168
0.10184727 0.048937824 -0.014620882 0.14617918 0.12671001 -0.04354662 0.13007918 0.07653934
0.06831014 0.15612102 0.09583164 0.12686008 0.10171052 0.04024472 -0.07064106 -0.07854564
-0.016248466 -0.0020638613 0.12354801 -0.05257816 -0.013221125 0.08272627 0.11783854 0.046116523
0.081236266 -0.02147969 0.11513707 0.05695943 -0.022366662 0.025107324 0.19771065 0.09836904
0.10107921 -0.01825893 -0.015265036 0.0526015 -0.0127093475 0.009256639 0.038746 0.12030522
-0.045115735 -0.019354502 0.050656427 0.084563196 -0.028683329 0.16283692 0.19974917 0.068899415
0.09270211 0.1678256 0.15463656 0.10023111 -0.0142299635 -0.027114244 0.09494427 0.13468653
-0.04413289 0.08748692 0.10634708 0.1452859 0.17397444 -0.003620728 0.07703346 -0.029522317
-0.059967875 0.19711176 0.09353177 0.054806974 0.12402952 0.11505818 0.12543076 0.0008776339

features_model.2.weight f4 [128, 128]
00000000: 957c 993e b13f 7fbd 1b8d 98bc 3380 c53d
00000010: a163 4f3e 28af cf3d 09ae c73d e4b7 443d
00000020: c02a 933d c0f0 083e cbbd da3d c589 01bc
00000030: ac40 7a3c d5f8 063d 1836 eebc db26 053e
00000040: 7cb9 0ebe d961 993d 3717 60bd ffc5 f7bd
00000050: 418b cc3d b76e 1f3d 73f1 b03d cb91 4bbd
00000060: 0be9 243e 7f80 09be 3bfb 9fbc 81af 873e
00000070: 3203 3b3e b305 5fbd 7e6b 313d f934 fa3d
00000080: 4819 453e 1135 59bc 7824 f93d 5862 1bbc
00000090: 0c2a d1bd b830 5cbe d863 79bb 4195 123e
000000a0: 1255 b13e 22d9 09bd 8bef 363e f205 333e
000000b0: b8c4 483e 97f6 263e 9089 2cbd e2c9 1d3d
000000c0: 82e5 2b3e b6e1 983e a398 283e 3c2f 933e
000000d0: 2a6c 9ebd 9f6f 26bd 1bc7 a2bc 0e8b 29be
000000e0: 4dc5 3dbd 5dbb b5bc 0eb2 70bd bb81 1e3e
000000f0: 63df 8b3e 3488 ab3e fd0c 3c3e 54ee e9bd
00000100: e099 9f3e b540 473e 5c0a 8c3d 003b a63d
00000110: fc31 1439 3a12 2d3e e8ad d43d e15e 6bbe
00000120: 5d9a 5cbe b14c 40bd 9223 f53a afec 42bd
00000130: 1235 febc 6134 4a3d 483d 313d cce6 9fbe
00000140: 3cc6 d53d 5f67 723d 1ee9 85bd 187e d33d
00000150: 3c87 773e f010 493e 08a3 2cbd 3624 8cbd
00000160: 8c53 4e3d 29ac 713d ac3d 70be dad6 bbbd
00000170: bf96 333e c826 52bd 8fbc 1bbd 1347 a0bd
00000180: 73c5 babc c8d6 de3d 1864 5f3e 3a83 91bd
00000190: ff6b cf3d a287 1f3e d5ce 1e3e f05d c13e
000001a0: 52af 903e 28e0 e03d 2762 39bc 53f7 98bc
000001b0: 1029 f9bd ef79 283e 17b8 803d f6b1 983e
000001c0: cd7d c8bd 5e07 32be 2df4 38bd 4ee7 193e
000001d0: fab9 333e a0af 09be a754 693d 23fa 1ebe
000001e0: 75f8 8ebd cb7d 4a3e 9670 9fbd 5477 6d3d
000001f0: 19d8 983d d078 5a3e 089b 4f3e 6052 aabd
00000200: 2538 43bd 214a ac3d 6e52 a23d 0855 ed3b
00000210: 97ce 69bd c214 943d 9a42 2f3e 4a9f b5bd
00000220: 7fad ea3d ba56 80be 67f3 26be 5dd9 dd3d
00000230: 16c6 3fbc 5376 113d 84a1 3a3e e729 92bc
00000240: dc18 f9bc 053d 3c3d e512 633d 5f80 a9bd
00000250: cde8 acbc 889f 15be a199 18be 27f1 d93d
00000260: 039d a0bd 240d b2bd 4f82 33be 18ef 84bc
00000270: 66c7 b03e 338b 39be 3251 b7be 9d98 b7bd
00000280: 9805 813d 25fe 363c 76f6 aabd 8e7e 60bd
00000290: 3880 a43d 9961 8a3c b123 6c3e e0d4 053d
000002a0: 8801 453e d230 42be 0a83 863c 25b8 073e
000002b0: 6615 743d 0c4a 08bd 8ba7 1b3d f6ab 8d3e
000002c0: 5142 0ebe b45b 1b3d 5664 543d ba13 1dbd
000002d0: 8334 553c b282 b13d f727 d23c 959d c73d
000002e0: d652 553c d6ff ee3d 826f bbbd 6306 493d
000002f0: 878a 9a3e 6dd2 7cbc 5ed6 72be 355f b73e
00000300: 24ac df3d d7cf c03d b6ce 893d b0e4 12bd
00000310: d25b c83a c2f9 913e 839f 84be 1a00 e0bc
00000320: 9c6f b03d 8951 f43d bab2 1bbe eef0 103e
00000330: 46db f93a 8495 babc 4f7b 56bd 793f ed3d
00000340: 7a8a 1e3d efcd 113e a2b2 2c3d 3d67 913e
00000350: 8a7d 9c3d 3078 1c3c fad9 16be 7494 403d
00000360: 363b 6e3e 9066 8e3b df44 c9bc 9a57 173c
00000370: 8f9b 343d f890 0c3d e762 163e 6bc5 0ebe
00000380: 1d3f a53c 6a4a b5bd 36f9 383e b43a d1bd
00000390: a804 593d 3cb1 04bd cd86 afbe 7886 5f3d
000003a0: e1eb 4abd b253 a33c 94c0 02be 8ac6 7f3e
000003b0: fa77 d2bd 9fba 7dbc cbb7 323c d344 523e
000003c0: 94a1 57bd fc8b 54be 19fd 833d af3c debc
000003d0: 5bd1 633e 126e e93d 9bc0 413e 7396 b4bd
000003e0: a287 0fbc c952 393e f1ea 4f3e 492d 213c
000003f0: 354c e1bd 223d 24be ffdc e5bc 2a22 b53d
0.2997786 -0.0623166 -0.018621972 0.09643593 0.20252849 0.1014083 0.097499914 0.048026934
0.07185888 0.13373089 0.106807314 -0.007906382 0.015274208 0.03295215 -0.029078528 0.13003103
-0.13937944 0.07489366 -0.05470964 -0.12098312 0.09987498 0.038923945 0.08639803 -0.049699586
0.16104524 -0.13427924 -0.019528976 0.26501086 0.18262938 -0.054448795 0.043315403 0.12217135
0.19247925 -0.013257281 0.12165159 -0.009483896 -0.10213098 -0.2150296 -0.0038053896 0.14314748
0.34635216 -0.03365434 0.17864816 0.17482737 0.19606292 0.16305004 -0.042123377 0.03852261
0.16786769 0.29859704 0.16464476 0.28746974 -0.077354744 -0.040633794 -0.019870332 -0.16556951
-0.04633074 -0.022184068 -0.058763556 0.15479176 0.27318868 0.33502352 0.1836433 -0.114224106
0.31172085 0.19458278 0.068379134 0.08116722 0.00014133 0.16901484 0.103847325 -0.22985412
-0.2154326 -0.04694814 0.0018702617 -0.047589 -0.031031165 0.04936636 0.043271333 -0.31230772
0.10438201 0.059180614 -0.06538604 0.10326785 0.24172682 0.19635367 -0.042147666 -0.06842844
0.050372645 0.059002075 -0.23461026 -0.09171839 0.17537974 -0.051306516 -0.03802162 -0.07826056
-0.02279923 0.1088081 0.21815526 -0.071051076 0.101280205 0.15579084 0.15508588 0.3776698
0.2825876 0.109802544 -0.011314905 -0.01867262 -0.12166035 0.16452764 0.06285112 0.29823273
-0.097896196 -0.17385623 -0.04515474 0.15029642 0.17551413 -0.13445902 0.056965496 -0.15525107
-0.06980983 0.19774549 -0.07785146 0.05797513 0.07463092 0.21335149 0.20273983 -0.08316493
-0.047660965 0.084125765 0.079258785 0.0072428025 -0.057081785 0.07230522 0.1711525 -0.088682726
0.11458873 -0.25066167 -0.16303788 0.108324744 -0.011704942 0.035513233 0.18225676 -0.017842246
-0.030407362 0.04595663 0.05543794 -0.08276438 -0.021107102 -0.14611638 -0.14902355 0.10641699
-0.078424476 -0.086939126 -0.17530178 -0.01622729 0.3452713 -0.18119507 -0.35804135 -0.089646555
0.06299895 0.011168991 -0.0834779 -0.054808192 0.08032268 0.016892241 0.2306049 0.032673717
0.19238865 -0.18963936 0.016419906 0.1325384 0.05959072 -0.03327374 0.03800158 0.27670258
-0.13892485 0.03792925 0.0518535 -0.03834889 0.013013008 0.08667506 0.025653822 0.09746853
0.013020238 0.116698906 -0.09152128 0.049078356 0.30183813 -0.015431029 -0.23714587 0.35814825
0.10921505 0.09414642 0.0672888 -0.035862625 0.0015286154 0.28510863 -0.25902948 -0.027343798
0.08615038 0.11929614 -0.15204898 0.14154407 0.0019062541 -0.022776373 -0.05236369 0.11584372
0.03870628 0.14238714 0.042162545 0.28399077 0.07641132 0.009550139 -0.14731589 0.047016576
0.23264775 0.0043457225 -0.024568973 0.009237194 0.044093665 0.03431794 0.14686166 -0.13942496
0.020171696 -0.08852084 0.18063816 -0.10216275 0.052982956 -0.032395586 -0.34282532 0.0545716
-0.049541358 0.01993737 -0.12768775 0.2497808 -0.1027679 -0.0154863885 0.0109080775 0.20534067
-0.052644327 -0.20756525 0.06444759 -0.027128546 0.22247832 0.11397947 0.1892113 -0.088177584
-0.008760365 0.18097986 0.20304467 0.009837457 -0.110008635 -0.16038945 -0.02805948 0.08844407

features_model.2.bias f4 [128]
00000000: 40d1 df3d f1ed 7d3d 5c59 a03b eea9 78bd
00000010: 3cdc 883d b2bf 053e 4dd9 9fbc 0000 0000
00000020: 7587 de3d 11ea 093e 22c8 03bd 6309 f13d
00000030: 3b3f 8cbc 69f6 babc 214a d7bb b8f8 383e
00000040: 0654 a4bb 2749 6c3d 4fd7 dcbc 2d5e 0b3e
00000050: 5dac febb 52c2 0b3e 756e 97bc 476e 44bd
00000060: 700c 203e 6d9d f13d 0092 93bb 068e 39bc
00000070: 511b e9bb af9f 5abb 71f7 efbc 9830 f53d
00000080: 168c ba3d 5f7a 053e b854 263e c56e d63d
00000090: 4811 05bd d416 1b3d ba93 e33d ff0b 40bc
000000a0: 6dfa 193e 2ea7 163d 0ed7 12bd 062e ddbb
000000b0: abf7 ab3d 781a d1bc c6bd 773c 2950 4dbc
000000c0: 3c82 f7bc 43be be3d e518 81bc a8ca 59bc
000000d0: 4aef 9dbc 45e5 c03d 296a 3abc b657 f63d
000000e0: 4399 cc3d 49ee b4bc 1093 a03d 4cdd dfbc
000000f0: 5aa7 d5bc f1b3 043d 1c99 55bb 4716 d838
00000100: 0576 26bc d543 15bd a61c b3bb 6908 1e3e
00000110: fa6b 0b3e a59c dc3d ff78 983c c39b 9cbb
00000120: 994b f3bc 8373 debc e8b7 d03d 6959 b03d
00000130: 1760 f03d f49b 9d39 65af 043e 4c22 9dbc
00000140: 0000 0000 af7f 8d3b 4ac0 d8bc 9b95 cf3d
00000150: 3c9b 6cbc 8f43 a53d df74 56bc ef2a 3d3e
00000160: de9b cb3d 82ed 3abb fc10 efbc 9ac6 dd3c
00000170: 8a2b 013e a3d8 0ebd 62c3 adbc ff73 c03d
00000180: 33b8 2ebc a93a 9bbc 24e4 9f3c e63c 2a3e
00000190: 3a41 3abd 09fa 21bd 0000 0000 05aa 0fbd
000001a0: cd2e d33d a75a febb f59e 0b3e 2390 63bd
000001b0: 7975 11ba 48f9 fbbc 802b e83d 7a08 41bd
000001c0: 50bc dcbc 2272 80bc 88ad 863d b4f6 433e
000001d0: f0b8 e03d 7bb2 043e f083 58bc 7f72 45bd
000001e0: f6b5 f33b 1812 9fbc 8ba1 76bc 8ac5 673d
000001f0: 4668 4dbc 8f28 4e3d 0000 0000 8137 42bc
0.10928583 0.061994497 0.004893465 -0.060708933 0.066826314 0.13061407 -0.019512797 0.0
0.1086568 0.13468195 -0.032173283 0.117693685 -0.017119994 -0.022822576 -0.006570116 0.18063629
-0.005014899 0.05768695 -0.026958136 0.13610144 -0.007772012 0.13648346 -0.018485287 -0.04795673
0.15629745 0.11797605 -0.0045034885 -0.011325365 -0.007113852 -0.003335934 -0.029292794 0.11972159
0.091087505 0.13034962 0.16243255 0.10470346 -0.032487184 0.037863567 0.11112161 -0.01172161
0.15036936 0.03678053 -0.035849623 -0.006749871 0.08396848 -0.025525317 0.015120929 -0.012531319
-0.030213468 0.09313633 -0.015758941 -0.013292946 -0.019279141 0.0941873 -0.01137785 0.12028448
0.0999017 -0.02208628 0.0784055 -0.027327202 -0.026080776 0.032398168 -0.003259248 0.00010303832
-0.010159974 -0.036441643 -0.0054660616 0.15432896 0.13615409 0.10772065 0.018612383 -0.0047793104
-0.029699134 -0.02715469 0.10191327 0.08610804 0.11737078 0.00030061568 0.12957533 -0.019181393
0.0 0.0043181996 -0.026458878 0.10135957 -0.014441308 0.080695264 -0.013089388 0.18473409
0.09941839 -0.0028522913 -0.029182903 0.02707224 0.12614265 -0.03487457 -0.02121133 0.093971245
-0.010664034 -0.01894887 0.019517966 0.16624793 -0.04547236 -0.039545093 0.0 -0.035074253
0.10311661 -0.0077622714 0.13634856 -0.05555738 -0.0005548816 -0.030758515 0.11336422 -0.047127225
-0.026945263 -0.015679423 0.06576067 0.19137079 0.10972774 0.1295871 -0.01321505 -0.048204895
0.007437463 -0.019417807 -0.015053163 0.056584872 -0.012537068 0.05033165 0.0 -0.0118540535

features_model.4.weight f4 [128, 128]
00000000: defa 023e 3b03 44b9 a490 6f3d 7bad 72bd
00000010: a7a1 98bc cb99 62be c963 83be 63d7 923b
00000020: 41ff 9bbd 15f1 713c 5a68 76bd da07 2dbe
00000030: 9f26 54bd 05c9 4fbd 9233 2abc 140f 28bd
00000040: 7a0d 0f3e 8571 c53d 17f0 64be 5e44 7f3d
00000050: 21cd 653d a014 93be b4a5 19be bc9b b33d
00000060: 6c3a cfbd e8fb 963d 3158 bd3e 4efa 95bc
00000070: 5d75 e43d f46c e83d 7ce5 efbc ab06 21bd
00000080: df02 003d 00ff 5abe 8d43 383e ce76 493e
00000090: bbd6 3fbe cdba 7abd dab3 f7bc 652d 113d
000000a0: be23 10bd 6e23 ac3c ea6f ab3e a26a 09be
000000b0: 68d3 8e3d 6c8f 343e f31c 07bd a7cf 253e
000000c0: dd89 60be 6b8a ad3c d177 553d b03e 5a3d
000000d0: 3707 0dbd 5f6d 19be 6be5 94bd 0b45 dd3d
000000e0: dfea 7ebd 6681 a1be 6d91 323e 3471 4c3d
000000f0: f1c5 18be d9ef 5cbd f36f 1b3d 0fd9 13bd
00000100: 66fc 14be a64a b6bd 164f 1b3d f3aa 8bbd
00000110: 141b 983d 9984 393d c21d c53d 2d25 213e
00000120: 792c 08be 6e95 afbd 8ac3 09bd 2ae2 763d
00000130: da4f a4be 9312 ec3c 901d bdbd 14bb 0fbe
00000140: ffde 593e eabc 403e 8407 22bc 7a62 41bc
00000150: 0334 b53c 8e62 fcbd 64e3 993c 8170 763d
00000160: f283 2e3a c8ab 05be 8a1f 5e3d 1df7 133d
00000170: 48fd 18be ceb3 dabd c242 4cbd 3836 ce3d
00000180: de3d 143d 0ac2 ad3d df0c 13bc 4167 e23b
00000190: c8a9 33bd 03e4 4abd 278c e3bd 38a6 a63d
000001a0: afe7 06bd e02d 47be cdb2 51be af8a 05bd
000001b0: 1a55 04be d09f 05be bec6 693e f341 173e
000001c0: e47c 993b 523e 983d ea73 12bd 2741 383d
000001d0: bed9 02be 0930 d23d 2ef5 153e 3abf b9bd
000001e0: c6c9 dc3d 6de3 f4bd 98d2 113e 1b6c 66be
000001f0: 02ec 24be db93 0ebe 246a 0fbe 8b82 24bd
00000200: 3c27 23bd d004 debd 84ca ee3d 3c5b bdbd
00000210: cfef 02be 12d3 25bd f513 2a3e 4a11 18be
00000220: 4e36 5cbe c843 c4bd 55f8 063d a54c 35be
00000230: cc0c 47bd 88ad 0c3e 7ec7 093d e360 883c
00000240: ca27 1ebe 51c3 58bd b75d 923e cdf1 a1bd
00000250: ee71 f93d 585c ab3d 848d 96bd 7f29 5a3e
00000260: 4904 bf3d fc70 273d 57f2 f8bd e0bb 0abd
00000270: f7a4 40be 1609 293e cb60 403d c118 a6bd
00000280: 9132 30bd e947 06be 6688 6d3d c02c aabc
00000290: f66d 843e a726 18bd dc21 3b3d e026 91be
000002a0: 7998 39bc 088c 80bc c77a a53d 94ed 423e
000002b0: 132b d53e 01fc 243d e751 fdbc 6e2d 95bd
000002c0: 7c0b f23d cfc7 60be 5911 1dbe 80c1 b8be
000002d0: 2c85 853d db03 2abe 59b9 033d 32f6 5e3e
000002e0: 7a22 213e e823 fabb a77b 80bd 3ad5 c3bd
000002f0: 323e 6b3e 34ba 853e 11d8 a03d 8594 cfbd
00000300: 78c5 8b3d 5e17 d2bc 9b39 2cbb 1e64 be3d
00000310: 5d91 473e aec9 2fbe 980e 113e 7950 953d
00000320: ad0c 22bd 4c6e ac3d 15f3 4bbd 2da2 bc3d
00000330: 2aa0 cebd 0562 bdbd 1aa8 b83d 85bb 08be
00000340: 9431 bf3d fe8f 31ba d2d6 2abc 4d46 17bd
00000350: e694 7f3c 5c5c 12be 90b8 7bbc d609 76be
00000360: 7ed0 0e3e f276 573e b263 193d 511a 203e
00000370: 0596 b03d 57a7 283c dd26 8abd 1890 98bb
00000380: c103 0abc 41e9 0d3e 1704 7cbc 9154 3bbd
00000390: b696 5d3e 5aae 073d ff87 4cbe 34f6 62bc
000003a0: c593 fe3d 7d5e 12bd 98aa 4dbd d175 26be
000003b0: 2c9b e5bd 989f 2d3d c11f 00bd fc6e e53c
000003c0: 9493 ba3d f3ad 03be c348 c23d 5786 d03d
000003d0: 6df9 33bc 9e38 4dbd e725 233e e882 e9bd
000003e0: c677 3d3e 0aaf 3b3d 59d6 7fbc 9934 8cbd
000003f0: fdde 01be f423 d8bd 20e7 0cbd d09a 563e
0.1279101 -0.0001869322 0.05848755 -0.059247475 -0.01863177 -0.2212898 -0.25662068 0.0044812425
-0.07617045 0.014766951 -0.06015811 -0.16897526 -0.051794644 -0.050728817 -0.010388272 -0.041030005
0.13969985 0.09640793 -0.22357212 0.06232106 0.05610383 -0.28726673 -0.15004617 0.08769938
-0.10118565 0.07372266 0.36981347 -0.018307831 0.11155198 0.11348906 -0.029284231 -0.039313
0.031252738 -0.21386337 0.17994519 0.19674227 -0.18734257 -0.061213303 -0.030237127 0.035443682
-0.035190336 0.021012988 0.3348382 -0.13419583 0.06973916 0.17632836 -0.032986593 0.16192494
-0.2192759 0.021184167 0.05211622 0.05328244 -0.03443071 -0.14983128 -0.072703205 0.108041845
-0.06223571 -0.31544036 0.17438288 0.049912646 -0.14919259 -0.053939674 0.03794856 -0.036095675
-0.14549407 -0.08900957 0.03791722 -0.06819715 0.0742704 0.04529247 0.096248165 0.15736838
-0.13298215 -0.08573423 -0.033633746 0.06027428 -0.32092172 0.02881745 -0.09234154 -0.14036208
0.21276473 0.18822065 -0.009889487 -0.011803264 0.022119528 -0.12323485 0.018785186 0.060165886
0.00066572346 -0.1305381 0.054229297 0.036124337 -0.14940369 -0.10678826 -0.049868353 0.10068935
0.036191814 0.08484276 -0.008975237 0.0069092815 -0.043863088 -0.049533855 -0.11110716 0.081371725
-0.032935794 -0.19451094 -0.20478363 -0.032602962 -0.12923089 -0.13049245 0.2282972 0.14771251
0.0046840776 0.07433762 -0.035755076 0.04498401 -0.12778375 0.10263068 0.1464431 -0.09069677
0.10780673 -0.119574405 0.14240491 -0.22502176 -0.16105655 -0.1392359 -0.14005333 -0.040163558
-0.03983234 -0.10840762 0.116597205 -0.09245917 -0.12786792 -0.040484495 0.16609176 -0.14850345
-0.2150509 -0.09583241 0.03295167 -0.17705019 -0.04859619 0.13738072 0.033637516 0.016647762
-0.15444866 -0.052920643 0.28587124 -0.07907448 0.121799335 0.083672225 -0.07351211 0.21304892
0.09326989 0.040879235 -0.12155598 -0.033870578 -0.18812929 0.16507372 0.04696731 -0.0811019
-0.043016974 -0.13113369 0.057991408 -0.020773292 0.25865144 -0.037146237 0.045686588 -0.28349972
-0.011327856 -0.015691772 0.080800585 0.19035941 0.41634426 0.040279392 -0.030922843 -0.07284056
0.11818597 -0.21951221 -0.15338649 -0.3608513 0.06519541 -0.16603033 0.032159183 0.21773604
0.15735808 -0.007633675 -0.06273585 -0.09562154 0.22972944 0.26118624 0.078537114 -0.1013575
0.068247736 -0.025645908 -0.0026279453 0.092964396 0.19489045 -0.17166778 0.14165723 0.072907396
-0.03956287 0.08419475 -0.049792368 0.0921062 -0.100891426 -0.09247211 0.09016438 -0.13352783
0.09335628 -0.00067734707 -0.010427194 -0.03693228 0.015599465 -0.14293045 -0.015363827 -0.2402719
0.13946721 0.21041468 0.037448592 0.15635039 0.08622364 0.010293803 -0.06745694 -0.004655849
-0.008423747 0.1385851 -0.0153818345 -0.045734946 0.21639523 0.03312526 -0.19973753 -0.013852645
0.124305286 -0.035734642 -0.05021152 -0.16255881 -0.11211237 0.04238853 -0.031280283 0.028007023
0.091101795 -0.12859325 0.094865344 0.10181873 -0.010984761 -0.050102822 0.15932427 -0.114019215
0.18502721 0.045821227 -0.015615069 -0.0684597 -0.1268272 -0.105537325 -0.034400105 0.20957494

features_model.4.bias f4 [128]
00000000: 632c f8bc 2f02 9abc 0c32 c4bc 8aea f3bc
00000010: f27d 103e 585b c6bc 309e f6bc 8f35 99bc
00000020: fa75 a2bc e46b 71bc 7e5f 62bc 43b7 c23d
00000030: d1ce 61bc 9158 963d ccb2 963c c787 febc
00000040: 34b7 6bbc fd49 49ba 4e99 f6bb 66d2 ed3d
00000050: 65d5 d0bb aa9e 993d 2d57 87bc ea88 0dbc
00000060: 50ca a43d 4446 ae3c 0446 cebc 0714 f53c
00000070: 948d a3bc 0183 fe3d db84 873d 79bd 11bb
00000080: 0378 4fbc 8dc7 993d cff6 21bc 5e3f b53d
00000090: cc52 3f3b 0000 0000 a962 e33d 8772 abbc
000000a0: 5520 95bc 4c7b 31bc b946 323c b826 43ba
000000b0: 2407 8ebc 4f04 38bc 67a0 46bc 1475 ad3d
000000c0: 90ed cc3d edb4 4e3e 7e31 6d3c 2555 07bd
000000d0: 13ee babc 93cc cb3b 9586 c0bc 4bbb 60bc
000000e0: 0000 0000 530a 30bb 2ccc adbc 3909 143d
000000f0: 6eca 6aba 4081 32b9 354a 0a3e 9223 d3bc
00000100: c660 2a3e d205 533c 4c35 db3d b2c2 363c
00000110: 5fb6 35bb aa9c 6b3d 00ed 8d3d 8c0f a2bc
00000120: 9270 96bc 2a62 abbc ca1b a6bc 2f7f 733d
00000130: b6bb 9f3a 9524 203d 68bd 833d c778 afbc
00000140: 202c 493c f454 a9b9 1400 fc3d d912 cbbc
00000150: 31db 0ebd fe31 8cbc e64a ec3d 280b 053e
00000160: 7139 2ebd 1a7b e4bc 32b4 9abc 1382 e03b
00000170: 5704 233e 910f debc b093 0d3e b832 09bd
00000180: 1e14 123e da6c bd3d 3832 143e 0d4a 303e
00000190: bb9e 29bd 13b3 dbbc 35b4 9ebb 67e5 123d
000001a0: 105d 163e 598a 013e 8fd5 38bb 33e8 b5bc
000001b0: a0e2 2c3e 5db8 b1bc d10f cebc 918d 333d
000001c0: 5846 023c f588 4bbc 4e1b 0b3e 1813 fc3c
000001d0: 5c39 e6bc 8672 c53d e446 aabc efd7 143e
000001e0: 2b85 2bbb 45ff 913d 36f8 a6bc 0000 0000
000001f0: f009 2e3e e8b9 f43d 5b77 b13b 70dc 983d
-0.030294603 -0.01879987 -0.023949645 -0.029774923 0.14110544 -0.024213478 -0.030104727 -0.018702297
-0.019831646 -0.014735196 -0.013816712 0.09507611 -0.013782219 0.073411115 0.018395804 -0.031070603
-0.014386941 -0.00076785666 -0.0075255996 0.11612396 -0.006373095 0.07500966 -0.01652106 -0.0086386
0.080464005 0.02127374 -0.02517987 0.029916776 -0.01996497 0.12427331 0.06617137 -0.0022238179
-0.01266289 0.075087644 -0.009885504 0.08849977 0.0029193638 0.0 0.11102802 -0.020928634
-0.018203894 -0.010832619 0.010881119 -0.0007444429 -0.01733739 -0.011231496 -0.012123204 0.084695965
0.10006249 0.20186205 0.014477132 -0.033040185 -0.0228186 0.0062194555 -0.023501674 -0.013716529
0.0 -0.0026861622 -0.02121552 0.036141608 -0.0008956556 -0.00017023552 0.1350487 -0.025773797
0.16638479 0.012879806 0.10703525 0.011154817 -0.002772711 0.057522453 0.0692997 -0.019782804
-0.018364225 -0.020920832 -0.020276923 0.059447464 0.001218668 0.039097387 0.06432611 -0.021419896
0.012278587 -0.00032297487 0.123047024 -0.02478926 -0.034877006 -0.017113682 0.11537723 0.12992537
-0.04253525 -0.02789073 -0.018884752 0.0068514436 0.15919624 -0.027107032 0.1382587 -0.033495635
0.14265487 0.092492774 0.14472282 0.17215748 -0.041411143 -0.026818788 -0.0048432597 0.035863306
0.14683938 0.12650432 -0.0028203463 -0.022205448 0.16883326 -0.021694357 -0.025154026 0.04383618
0.007951342 -0.01242279 0.13584635 0.030770823 -0.028103523 0.09640984 -0.020785756 0.14535497
-0.0026171904 0.07128767 -0.020382028 0.0 0.16995978 0.11949521 0.0054158396 0.0746392

policy_model.0.weight f4 [128, 128]
00000000: 5095 f93a 4691 223b de44 e9ba d9a7 c2ba
00000010: 2c66 0fba 290a 0cbb 964e 29bb 7190 a8ba
00000020: ec6a e7ba f07b d83a 02c1 97ba b450 f2ba
00000030: 1859 0fbb 8802 8b39 7091 28bb e239 d6ba
00000040: 7570 3fbb b963 e039 764f 9cba 4a5e 65bb
00000050: 6f8f 413b 4401 96bb 953f 19bb aef4 e338
00000060: b8a6 1e38 b1dc a7ba 95f6 9eba 8ba7 bcba
00000070: ece0 f1ba 2520 af3a a658 aebb 8961 dbb8
00000080: 70e4 d2b8 b300 71bb d5f3 de39 4f02 8dbb
00000090: 38be b9b8 9c86 70ba cfb9 a6bb 59f2 3ebb
000000a0: d340 56b9 c343 82ba d400 40ba d2b9 1d3b
000000b0: fd5b 3d39 144c 9c39 a937 d63a ec06 68ba
000000c0: c9f1 30ba 0546 96ba f137 f8ba 24ee 08bb
000000d0: 32d7 9fba 6641 963a ce8f f5ba 7e2f 373a
000000e0: c4f8 30ba fb8e 60bb 11bf faba 307a 1cbb
000000f0: 4811 eaba f206 d8ba 670c 40ba 3af1 4aba
00000100: 95c9 8c3a 4a68 ef3a 7079 3a3b 8515 1ebb
00000110: f0e7 8738 5982 eabb 5821 b6bb 5bf5 bdba
00000120: 7b71 f93a 47da 763a 2f40 28bb 54a9 a33a
00000130: 4143 a7b8 d37c fab9 e7e8 be3a aa29 e6ba
00000140: 2408 703a eaf4 5d39 92df eeb9 7f56 85ba
00000150: 43a4 0ebb e789 0c3b 78fe 08bc de37 d0bb
00000160: da49 e4ba 5682 433b 9288 ddba 4371 39bb
00000170: 9cfc c73a ae1f 38bb e1e0 80ba ceb4 5a3a
00000180: 2224 83ba dcad b9bb 7d6f f53a 3744 3b39
00000190: 9920 5f39 6a03 eaba 6ef8 24ba 57ed 2039
000001a0: 464a b0ba 5f16 e7ba 1cf7 b93a 4e8c 1bbb
000001b0: 93da 023a c53a cdb9 1f09 a33a 6a95 34bb
000001c0: d2ab 90b9 a159 56bb ddad a839 21ec 29bb
000001d0: 58e8 f6ba 419c e5bb 8a8a c4ba 8b64 97bb
000001e0: 0663 0cbb d377 e1bb 937b 8237 a571 2739
000001f0: 089e c6bb 6488 91bb 7677 35b9 d0c8 ecba
00000200: 9c6b 5bbd 9714 913b 427e 573c 134b 4a3c
00000210: 93b4 163d 354f 7a3c 7493 b03c 1e1b 12bc
00000220: 411e 8b3c 5b1b 86bc b03b cbba b4e5 6c3d
00000230: 799b 433d d858 283d 8a89 8c3d 1aeb 813c
00000240: 00a1 0d3d db73 633c e3cc 173a dc5e 863d
00000250: 3d07 ec3b d9fd a73d 1784 403c ad56 c63b
00000260: 2c08 9e3d 25ea e83c 10a5 153d 4942 413d
00000270: f441 d03b 8808 093d e083 953d 7f78 e53c
00000280: 7864 b93b 8861 013d 2ab1 a83b 9f42 9d3d
00000290: c4a4 9cbc 5497 0cba 0f2d 523d f04b 0d3b
000002a0: d0ee 1fbc 986c 813c 43de 143d 8906 0cbc
000002b0: b13e 243b 1bc2 923c 055d b8bc 24e4 943d
000002c0: 8962 c73c 7afd 283a 77ba 153c 4ffa 133d
000002d0: 0604 8b3c 8207 b53c fd7f 6d3c fafc dbb9
000002e0: 8a44 1239 eb00 4339 02e6 a33c 9b9c 6c3d
000002f0: f5fd 3f3a 4d46 033c 1a21 c5b9 16c1 583c
00000300: 0a65 1ebd 84fe ed3c 28bc 8a3d 81af 21bc
00000310: c1b8 003c 6317 853d bca8 8e3d 9dca 623d
00000320: cae3 ad3c 2ae8 9abc 95fc 5d3c fcf3 413d
00000330: f135 9e3a 6457 af3d 7136 a0bc 1a1a af3b
00000340: 1612 8b3c 3e3c 11bd 16e6 c1bc 2521 eb39
00000350: 0871 c33c 86c8 873c cc73 6a3d 6740 563d
00000360: 472b 1a3c d545 653c b087 043d ef13 ec3c
00000370: 2e99 bcbb f527 19ba ae6b 913b 3405 c6bc
00000380: 62d1 1d3d 9e41 8d3d 6a0c cabc 8892 44ba
00000390: 423d 873b dc37 fe3c 6b2c 723d 6454 8d3d
000003a0: 2fea 89bc 43ac 683d 529a 183d 14c8 453d
000003b0: 6683 19bd 343c c53b 8bf7 423c f5fc e33a
000003c0: 34db 8c3d 8da2 273c 7edb d33c 3a0e fa3c
000003d0: e588 853b 5dcb 8b3d 6ed1 453c 6efe 6b3d
000003e0: 9933 dbba d0fa 903d 7621 033d 7225 3fba
000003f0: 46bd 313d deb5 8a3d 7b10 d53b 2ad9 a63d
0.0019041691 0.0024805828 -0.0017797013 -0.0014851048 -0.0005470242 -0.002136836 -0.0025834194 -0.001286043
-0.0017655767 0.0016516428 -0.0011577907 -0.0018487186 -0.0021873172 0.00026514032 -0.0025721453 -0.0016344155
-0.0029211317 0.00042798909 -0.0011925537 -0.0034998828 0.0029534956 -0.0045777876 -0.0023383845 0.000108697786
3.7825404e-05 -0.001280686 -0.001212793 -0.0014393193 -0.0018453873 0.001336102 -0.0053206263 -0.00010460901
-0.0001005613 -0.0036774098 0.0004252481 -0.0043032537 -8.8569184e-05 -0.0009175332 -0.005088068 -0.002913615
-0.0002043278 -0.0009938407 -0.0007324342 0.0024067056 0.00018058713 0.0002981132 0.0016343492 -0.0008851129
-0.0006749896 -0.0011464959 -0.001893757 -0.0020893896 -0.001219487 0.0011463582 -0.0018734874 0.0006987973
-0.0006750936 -0.003426491 -0.0019130429 -0.002387654 -0.0017857933 -0.0016481562 -0.0007326067 -0.0007741634
0.0010741228 0.0018265333 0.002845373 -0.0024121713 6.480503e-05 -0.007156652 -0.005558174 -0.0014492677
0.0019031012 0.0009416681 -0.0025673022 0.0012486377 -7.9757076e-05 -0.00047776717 0.001456526 -0.0017560024
0.00091564865 0.0002116744 -0.0004556147 -0.0010172873 -0.0021765388 0.00214445 -0.008361451 -0.006354316
-0.0017417029 0.0029832325 -0.0016901663 -0.002829627 0.0015257779 -0.0028095054 -0.0009832644 0.0008342982
-0.0010005275 -0.0056664776 0.0018725243 0.00017859122 0.00021279081 -0.0017853801 -0.00062931224 0.00015347205
-0.001344987 -0.0017630568 0.0014188024 -0.002373475 0.00049916765 -0.00039144434 0.0012438631 -0.0027554878
-0.00027593836 -0.0032707232 0.00032172995 -0.0025928097 -0.0018837554 -0.0070071523 -0.0014994901 -0.00462014
-0.0021421327 -0.0068807392 1.5554751e-05 0.00015968697 -0.0060613193 -0.004441308 -0.00017306008 -0.0018065218
-0.05356942 0.0044275033 0.013152661 0.012347001 0.036793303 0.0152776735 0.021554686 -0.008917598
0.0169822 -0.016370466 -0.0015505459 0.05783625 0.047755692 0.041100353 0.06862171 0.015859175
0.03457737 0.013882603 0.00057907234 0.06561062 0.0072030113 0.082027145 0.011750243 0.006052813
0.077164024 0.028431961 0.03653437 0.047182355 0.0063555185 0.0334554 0.07300544 0.028011559
0.0056577288 0.031587154 0.0051480727 0.076787226 -0.019121535 -0.0005363126 0.051312502 0.0021560155
-0.009761527 0.015798852 0.036344778 -0.00854648 0.002506178 0.017914822 -0.022505293 0.07270077
0.024338977 0.00064464624 0.009138695 0.036127385 0.016969692 0.022098307 0.014495847 -0.00041959417
0.00013949178 0.00018596991 0.020007137 0.057766538 0.00073239143 0.0080123665 -0.0003759943 0.013229629
-0.038670577 0.029052027 0.06774169 -0.009868504 0.007856549 0.06498601 0.06965777 0.05536901
0.021226782 -0.018909533 0.01354899 0.047351822 0.0012070519 0.0856159 -0.01955721 0.0053436877
0.016976397 -0.035457842 -0.023669284 0.00044847387 0.023857608 0.01657511 0.05723934 0.052307513
0.009409732 0.0139937 0.032355964 0.028818099 -0.005755565 -0.0005842441 0.0044378852 -0.024172403
0.03852976 0.06897281 -0.024664123 -0.00074986415 0.0041271755 0.031032495 0.05912439 0.06900862
-0.0168353 0.056804907 0.037256546 0.048286512 -0.037478827 0.0060191397 0.011899839 0.0017394113
0.06877747 0.010231626 0.025861498 0.030524362 0.004075157 0.06825898 0.012073858 0.05761569
-0.0016723751 0.07079089 0.032014333 -0.00072916516 0.043393396 0.0677297 0.0065022088 0.081468895

policy_model.0.bias f4 [128]
00000000: c7a6 95ba 5864 8e3d 7361 c4ba de70 3d39
00000010: 38ad b537 c461 1cb9 9c8c b6bb f4bb 27bc
00000020: 74db d23a 568b c4ba c5bc c4ba b7c7 6abc
00000030: f2c9 8abc d730 663c ac2f 8839 a860 b439
00000040: aeea e23b f988 8dbc f320 c4ba 3b16 bfba
00000050: 3635 3dbc 4f4a 06bc 2923 f93b e2d1 c7b9
00000060: a8d3 79bc eeb8 c4ba a4bc 42bc 261a 62bc
00000070: 19df 00bc 1567 c4ba 58a4 0ebc 0938 d0bb
00000080: 7742 60bc 5b5f ddbb 15b0 c4ba fb1c d5bb
00000090: 46e1 5eba e12d 9dba 8d73 90bc 7aa4 63bc
000000a0: 5cbb 873d 1837 6fbc 880b cc3b 9f86 c4ba
000000b0: 921f a8ba fde6 0b3d 01e3 84bc 380b 25bc
000000c0: 1ed6 18bc a14f 253b 8901 2abc ebc0 b3ba
000000d0: 1d50 76bb 51ec 833b 13c1 53bc 0000 0000
000000e0: 0000 0000 fc61 09bb 0a50 8cbc 1836 a7ba
000000f0: fe56 87bc d62d c3ba 2838 c4ba 21b0 783b
00000100: 64b4 7ebb 69b4 c4ba bbf0 e5ba 9d3b 7ebc
00000110: 4afd 0abc fd31 8cbb df95 00bc afe2 febb
00000120: fd62 83ba 76ae a9bb e95e 823a 5275 76bb
00000130: 0c4a c4ba 3787 82bc dc5d 77bc 1d9e c4ba
00000140: 4a7f ef3c daff 86bc 44ae 65bc 14b0 0bba
00000150: a1c9 ab3b 1274 98ba 7c9c 5bba fe29 d23d
00000160: 2981 26bc 920e 92bc 8456 c4ba e106 6bbb
00000170: 72ef a1b9 64d5 e9bb 58cf fbba 968e 14bc
00000180: 0625 8dbc 648c c4ba b693 7fbc e5fd 80bc
00000190: ee0e 1e3b 0895 25bc f66c 42bb ab4e a7bb
000001a0: e90f d1bb 2424 be3b 1413 3c3c d129 30bc
000001b0: b980 a7ba cf94 c4ba 635c dabb 940b 2ebc
000001c0: da86 2fbc 8659 e7b8 3d57 34ba 58f6 d8ba
000001d0: abae 05bc 61df 76bc 6681 a0ba c198 c2ba
000001e0: e8a4 54bc 2389 2b3d ced0 a8ba 8c96 4b3b
000001f0: e2ef 6abb 4368 6bbb 709c c83b e6bc 48bb
-0.0011417501 0.06952733 -0.0014982655 0.00018066491 2.1657543e-05 -0.0001491374 -0.005570961 -0.010237683
0.0016087131 -0.0014995139 -0.0015009871 -0.014329842 -0.016941998 0.01404973 0.0002597546 0.0003440429
0.0069249487 -0.017277228 -0.0014963433 -0.0014578769 -0.011548331 -0.0081964275 0.0076030684 -0.00038112613
-0.015248217 -0.0015008727 -0.011885796 -0.01380018 -0.007865691 -0.0014984334 -0.008706175 -0.006354336
-0.013687721 -0.006755752 -0.001500609 -0.006503699 -0.0008502196 -0.0011991822 -0.017633224 -0.013894195
0.06627533 -0.014600538 0.0062269606 -0.0014993733 -0.0012826791 0.034155834 -0.016221525 -0.010073476
-0.009328393 0.0025224464 -0.010376343 -0.001371411 -0.0037584372 0.004025974 -0.01292445 0.0
0.0 -0.0020962944 -0.01712801 -0.001275721 -0.016520973 -0.001489098 -0.0014970349 0.0037946778
-0.0038864845 -0.001500738 -0.0017543057 -0.015517143 -0.00848324 -0.00427842 -0.007848232 -0.0077784876
-0.0010024008 -0.005178268 0.0009946498 -0.003760655 -0.0014975681 -0.015933616 -0.015098061 -0.0015000735
0.0292355 -0.016479421 -0.014018599 -0.0005328667 0.005242542 -0.0011631271 -0.0008377505 0.102619156
-0.01016263 -0.017829213 -0.0014979397 -0.0035862254 -0.00030886714 -0.007136034 -0.0019211574 -0.009067198
-0.017229568 -0.0014995453 -0.015599182 -0.015746066 0.0024117786 -0.010106333 -0.0029666997 -0.0051058135
-0.0063800705 0.005802648 0.011479158 -0.010752157 -0.0012779451 -0.0014997962 -0.0066638454 -0.010622878
-0.010713303 -0.000110316134 -0.00068794546 -0.0016552908 -0.00815932 -0.015067906 -0.0012245595 -0.001484655
-0.01297877 0.04187883 -0.0012879611 0.0031065075 -0.0035848548 -0.00359203 0.0061221644 -0.003063017

policy_model.2.weight f4 [8, 128]
00000000: daf4 ecba 8656 2bbd 1218 e23a baf7 513a
00000010: b3fd 00bb f7a8 4e3a b385 7cbc 5a8c d0bb
00000020: 7a05 b63b d176 2ab9 e80b eeba cee0 b8bb
00000030: c7d1 afbb 6805 713b 489c 203b bd5b 9f3a
00000040: e50b 723b 4e92 e2bb d230 833a 73d5 29bb
00000050: 7733 b9bb b5bb efbb ea06 7f3c 1b31 393a
00000060: b614 f8bb 3444 d73a d2e5 2abb d05e dbbb
00000070: 758e 81bc 0a85 5aba 5b2a 05bc 3aeb ee39
00000080: a680 11bc 1dbc 1ebc 0e06 e63a de67 f7bb
00000090: 05f3 97ba 6e14 8f3a 2f64 e5bb 7005 09bc
000000a0: 84ce 76bd ed7a dbbb 7157 633b 04f9 c9ba
000000b0: 8bd7 a73a 0155 99bd 79f6 f9bb d9b3 3bbb
000000c0: 183d f1bb 555a 993b a89b f3bb f235 b5bb
000000d0: 3c32 913b 57cd 943b 0ec2 acbb 4779 6cb9
000000e0: b87e e23a 8e05 a63a a7f5 dabb 02a1 cdb7
000000f0: 75b3 d5bb ff1e f3b9 af07 2cba 6f25 883b
00000100: 1215 ffbb a1c0 863a 3bc9 7f3a 713a bdbb
00000110: 5ab8 d4bb e3c4 99bb 8d9e f2bb 0bbb 07bc
00000120: 689d 83b8 737f 493b 9966 f33a c5d4 47ba
00000130: 64fa 163b 6f1d 07bc 7ae5 a4bb 7bda 5e38
00000140: 843f d33c 3319 b7bb e169 e0ba 31b6 a03a
00000150: 6c64 8a3b 9965 923a 030f e4b8 9e4c a9bd
00000160: 0af3 b7bb 2783 d2bb 89de cd3a 40b5 f5bb
00000170: 53c4 1f3b df86 d7bb 0b95 9b3a a11f 75bc
00000180: 413a c5bb 51cb 613b 303b 95bb a18f e8bb
00000190: d8c6 743b 137c dbbb c539 373b fa35 9039
000001a0: 04f5 8238 2fad 6a3b 6f05 ecbc df73 ecbb
000001b0: 6df7 c1b8 4eff 133b c1e1 d3bb e058 85bb
000001c0: 6f3b 26bb be2c cdb8 3882 7e3b 50bf 463a
000001d0: 2013 cbba 0714 ccbb c119 7c3a c232 a6b9
000001e0: b3b1 eebb 615e 97bd 0042 c6b9 a87d 37bb
000001f0: 4ac7 fdb8 88ce 0bbb 1a41 963b 9fc1 5e3a
00000200: 8aeb 8a3a 3f7c 103d 1045 2bba b222 39ba
00000210: fa44 d839 1d47 71ba e961 e13c 38dd 30bc
00000220: b428 0abc 649f 38b9 46b7 553b 71ed 15bc
00000230: 1b21 0ebc 2813 e2bb 0ada 28bb a26b aabb
00000240: ef76 1fbb 60d0 09bc d7f9 f23a d004 64ba
00000250: f036 44bc 7199 28bc c114 11bc 67a5 02ba
00000260: 0cfe 0cbc 1a7c 543a 6b00 60bb 9a15 febb
00000270: 9903 443b 18b8 c6ba 2a0b 29bc 1a58 363b
00000280: dc60 fabb 5b9f 8dbb d1cb 0f3a 9324 14bc
00000290: 1480 863a 0d9e afba 7e64 09bc 2c72 3dbc
000002a0: f24b 733d cf91 27bc f8b1 b5bb f5fc 2b3b
000002b0: 421a 2e39 f79c 87bc 465e 0cbc 4394 10bb
000002c0: e67d 11bc d45e 00bc fe10 53bc df88 8fba
000002d0: 4963 8abb 062e e7bb 30b0 23bc bc9b c63a
000002e0: a12c fc3a 9664 c63a fbf2 ecbb c918 27ba
000002f0: 5e4a 13bc 6348 7c39 2af0 b1ba d359 0abc
00000300: b917 cbbb cf88 3cba 9262 e6b9 cdfc 07bc
00000310: 1c4e 0abc 093f a2bb 0055 e9bb 0649 17bc
00000320: 635d f4ba 0cbd d83a 07d8 89bb 48ab 7fba
00000330: 64e8 6b3b f179 0dbc 3ee4 28bc a834 b4ba
00000340: df4a 6fbb 611e 0abc 686e 3bbb 34a4 a0ba
00000350: eaa5 e3bb 5f15 8eba 77ca bb3a 4bbb cd3c
00000360: f799 22bc 9f77 21bc 9d1d d23a 3986 2ebb
00000370: b40e f1b8 9b64 30bc 5ca3 b4b9 f2b9 0b3b
00000380: 2b13 01bc fd37 e139 3bcf 05bc 6a3e 11bc
00000390: d2bf d9bb 27c6 2bbc f8a8 813b 007c aab8
000003a0: 26c3 e43b cfee cebb c16f 38bc 904f ffbb
000003b0: db59 3cba e767 5bba 7013 fdbb 6dc5 81bb
000003c0: 1b6c 15bb a982 2739 960f 083b b557 78bb
000003d0: 10a1 d9b8 99e8 12bc 4ec3 79ba 9b93 eeb8
000003e0: bd17 07bc fa0d 24bc 02ab 2039 c13c 183b
000003f0: 0b33 a4ba 733b 44bb f97c 02bc b85f e5ba
-0.0018078343 -0.041830562 0.0017249605 0.00080096314 -0.0019682467 0.0007883454 -0.015412736 -0.0063643875
0.005554852 -0.00016256726 -0.0018161507 -0.005642033 -0.0053655836 0.0036776904 0.0024507213 0.0012158077
0.003693336 -0.0069144135 0.0010009056 -0.002591458 -0.005651887 -0.0073160776 0.015565613 0.0007064507
-0.0075708283 0.0016423524 -0.0026076925 -0.006694652 -0.015815 -0.00083358644 -0.008127774 0.00045570155
-0.00888077 -0.009688404 0.0017549412 -0.0075502237 -0.0011592811 0.0010916123 -0.007000468 -0.008363113
-0.060255542 -0.0066980035 0.003468957 -0.0015409295 0.0012805326 -0.07486916 -0.007628259 -0.0028641133
-0.0073620193 0.004679958 -0.007434327 -0.0055301124 0.004431037 0.00454108 -0.0052721566 -0.00022551893
0.0017280197 0.001266645 -0.006682116 -2.451288e-05 -0.006521637 -0.00046371666 -0.0006562424 0.004154853
-0.007784494 0.0010280797 0.00097574637 -0.005774789 -0.006491703 -0.00469266 -0.0074041546 -0.008284341
-6.275886e-05 0.0030746132 0.0018570005 -0.00076229527 0.0023037428 -0.008246764 -0.0050322386 5.31324e-05
0.025787123 -0.005587721 -0.0017121398 0.0012261329 0.004223397 0.0011169194 -0.00010874683 -0.08266567
-0.0056136893 -0.006424326 0.001570658 -0.0074984133 0.0024378493 -0.006577357 0.001186998 -0.014961154
-0.0060189073 0.0034453461 -0.004554175 -0.0070972 0.0037349965 -0.0066981404 0.0027958017 0.00027506036
6.244521e-05 0.0035808792 -0.028811185 -0.0072159613 -9.249044e-05 0.0022582593 -0.006466121 -0.0040694326
-0.0025365015 -9.7834956e-05 0.003883494 0.00075816084 -0.0015493371 -0.0062279734 0.0009616875 -0.00031699805
-0.007284367 -0.07391048 -0.00037814677 -0.002799848 -0.000121011006 -0.002133282 0.0045853974 0.000849748
0.001059876 0.03527474 -0.00065334234 -0.000706236 0.00041250122 -0.0009204017 0.027512508 -0.01079493
-0.008432556 -0.00017606985 0.003261046 -0.009150849 -0.008674885 -0.0068992563 -0.0025764727 -0.005200819
-0.0024332365 -0.008411497 0.0018537593 -0.0008698227 -0.011975989 -0.0102904895 -0.008855046 -0.00049837533
-0.008605491 0.0008105651 -0.0034179937 -0.00775404 0.002990937 -0.0015161065 -0.010317603 0.0027823509
-0.007640941 -0.004321975 0.0005485388 -0.009041923 0.0010261559 -0.0013398543 -0.008385776 -0.011562865
0.0593986 -0.010227635 -0.005544897 0.0026243303 0.00016603715 -0.016554339 -0.008567398 -0.0022061027
-0.008880114 -0.007835109 -0.012882469 -0.0010950825 -0.0042232615 -0.007055047 -0.009990737 0.0015152614
0.0019239375 0.0015136178 -0.007231114 -0.0006374238 -0.0089898985 0.00024059559 -0.0013575603 -0.008444267
-0.0061978963 -0.0007192017 -0.0004394246 -0.0083000185 -0.008441474 -0.004951362 -0.0071207285 -0.009233719
-0.0018643554 0.0016535833 -0.0042066607 -0.0009753001 0.003599667 -0.00863503 -0.010308323 -0.0013748603
-0.0036513133 -0.008430094 -0.0028599743 -0.0012255968 -0.0069472687 -0.0010840109 0.0014327307 0.025113722
-0.009924403 -0.00985518 0.0016030554 -0.0026630296 -0.00011494514 -0.010766174 -0.00034453988 0.002132055
-0.007878105 0.0004295706 -0.008167083 -0.008864978 -0.006645181 -0.010484255 0.00395691 -8.1293285e-05
0.0069812713 -0.0063150893 -0.011257113 -0.007791467 -0.00071850204 -0.00083696697 -0.0077232644 -0.0039603026
-0.0022800032 0.00015975036 0.0020761243 -0.0037894074 -0.000103773666 -0.008966588 -0.0009527699 -0.00011376218
-0.008245406 -0.010013098 0.00015322494 0.0023229572 -0.0012527419 -0.002994266 -0.007964366 -0.001749984

policy_model.2.bias f4 [8]
00000000: af94 b3bc 92f3 103c 29cf 163d c727 3a3c
00000010: 3d63 48bc 30ff 2ebb a2e6 db3c 1e55 61bd
-0.021921484 0.008847134 0.036818657 0.011362023 -0.0122306915 -0.0026702397 0.026843373 -0.055012815
