results/short_race/second_iteration_training_batch_size_150/model52.pt (torch, 275579 bytes, 13 tensors)

features_model.0.weight f4 [128, 4]
00000000: 0df8 923d d219 e23c c0af e53c b723 0bbe
00000010: 4a4e 77bc 012d 24bd b4a0 193e fd1e 683e
00000020: f385 e83d c2a3 5ebe 51d0 943d 2593 5bbd
00000030: 668f 053e 1721 e1bd e356 433d 7dd8 7c3d
00000040: 8926 4ebd bfaa 63bd 22af 0ebe bf41 dc3d
00000050: f85e 1a3e 558e 613e 743e c53d 44e0 41bb
00000060: 0f73 7e3d 65fc ac3d 98f9 28be 3f58 e9bd
00000070: 2921 0a3e f367 433e cc0d f0ba 2363 64be
00000080: ad36 b93d 2091 1e3e 87e3 e33d bf4d 4abd
00000090: cf61 ca3d c49b 11be e1f7 56bd 1f5e eb3d
000000a0: c010 3fbe c149 89bc f105 143c eecb 2f3c
000000b0: 1056 d63d 100f a03d a2c7 2ebe 2f1d 223c
000000c0: 3bc9 d0bd e499 833d 94f4 f63d 797c 433c
000000d0: 45f6 cd3d 4644 433d 08c9 4ebd a578 d4bc
000000e0: ae92 aebd 146f f1bd 2091 933c 0bf0 563e
000000f0: 8d34 073e d66e 05be 965d a63c d714 0fbe
00000100: 1ac8 6bbe 61cb 8fbd f625 ee3d 8461 ee3b
00000110: 07f1 6c3d f8c2 94be d927 f03c 8ce7 f33c
00000120: a930 59bd 47ce b83d d6b9 133e f06b 643e
00000130: 394d c0bd b73e f13d 5b24 13be f2db afbb
00000140: ab36 473e 2ac1 80bd 12ac a9be eac8 383d
00000150: d5b5 873e 8a94 f1bd 3cec 1fbd ce11 b4bb
00000160: 7de3 28bc 9d7e 353e dfb3 83bd 3c9d 2fbd
00000170: a3a4 13be 1938 a53d a534 99bd 14d9 243b
00000180: 66c9 8fbc 944e 473c 9f78 92bd 1a6e 013d
00000190: 0b8f f03c 0414 263e dc3a 5ebc 0f03 a83d
000001a0: a53b 523d 7ba4 83be b5e1 013e 65d7 ff3d
000001b0: 64e4 c2bd fb80 4cbd 759f a4bd 1a80 27be
000001c0: cc50 6fbe a4eb 0b3e a60d cc3d b79d c1bd
000001d0: 7b23 56bd 5aa9 75bd 92ba 0abe 6904 aebb
000001e0: c782 80bd 8905 09be 38ef 2b3e e872 5bbe
000001f0: 5762 76bd ae9e 4f3c d90b b33d cfb2 7cbe
00000200: 9865 a3bd 0e90 3ebe cfa9 4cbd 066c b03d
00000210: b8ef 863d ca3e 383e bd67 113e 7acf 55be
00000220: 0bb8 5ebd 424b a33d 4702 913b 5ce5 c8bd
00000230: eb47 05be 06b1 c8bb dfc6 3ebe 1556 19be
00000240: 00a8 62bd 07ac 8bbd 822d 85bd b91a fb3d
00000250: 989f 43be 8bb5 713d 5ead 2dbe 2cdd ab3c
00000260: 93e3 35be 30f2 a33d 28f6 483d ec59 233d
00000270: 52e5 e2bd 6ae2 2e3e 3e99 a0be 9af3 fe3d
00000280: fd71 ca3c 7e01 5ebc d0d1 993d 02e4 7ebd
00000290: 361a 49be 36c2 153e 02f3 4fbd ca84 253c
000002a0: 3166 0dbe 619f 203d ca42 0fbe 1c0c 6cbd
000002b0: 7e3d 17bc c9e4 273e 1ae4 1dbc cf4d 443d
000002c0: d8f8 463d f3bd 7cbd f49f 3bbd d7df 2cbd
000002d0: abcb 213c 1da7 e7bc 8885 8d3d 85c4 51be
000002e0: 8851 4fbd 8e5c 94be 7b3f 303d 6d2f 2abc
000002f0: bc9b 0d3d 4501 cbbd 0db9 65bd 624f 163e
00000300: ad7f 04be 9b3f 5ebd 2af7 5d3e ba61 9d3d
00000310: 4d25 b3bc 7502 3c3d 5f6c 11be 7701 273e
00000320: 1204 7dbe 19a2 8d3b 8fd4 d3bd 5634 03be
00000330: cb7b 5d3e bae6 81bd adfb 95bd 6432 933d
00000340: 572a e1bd 3c01 893b bf71 be3d 2740 adbd
00000350: 0a1d adbd a332 45be 119e 06be 1297 75bd
00000360: 2f7c 0b3e 7691 d23d 6684 a9bd 9dff 3d3e
00000370: d6f1 273e 61eb d9ba f602 123d e97e 83bd
00000380: e3ec 5fbd 0693 853d 73f0 09bd a81b d03c
00000390: c14a 063e a5a3 033d 26f1 2abe c388 6a3d
000003a0: 4edc f63d a519 903e 6195 8ebc 8871 043e
000003b0: d3a4 c73d 9a4b 823e 7b97 2c3e 2ae9 673e
000003c0: ce9e a3bd 1cb5 0dbc d461 20bc 8b08 823d
000003d0: 0905 1a3e aaaa d23c f46c a7bd 9f64 f73d
000003e0: af2c 4e3d 249d b53c b7f7 973d 64f8 69bb
000003f0: 6296 a83c 6fee 9d3d ecb4 4f3e 17ea d93d
0.07176218 0.027600203 0.028037906 -0.13587843 -0.015094349 -0.04008198 0.1500271 0.22668071
0.11353674 -0.21742156 0.07266296 -0.053607125 0.13042983 -0.109926395 0.047690284 0.061729897
-0.05032972 -0.055582758 -0.13933995 0.107547276 0.1507529 0.22026952 0.096310526 -0.0029583136
0.062121447 0.08446578 -0.16501462 -0.11393785 0.13489212 0.19082622 -0.0018314659 -0.22303443
0.09043632 0.15485048 0.11127382 -0.04939055 0.09881937 -0.14219576 -0.05248249 0.114925615
-0.18658733 -0.016758801 0.00903462 0.010729773 0.10465634 0.07815373 -0.17068341 0.009894653
-0.10194632 0.06425837 0.12058368 0.011931532 0.10056738 0.047672532 -0.050484687 -0.025936434
-0.08524071 -0.117887646 0.018013537 0.20990007 0.1320364 -0.13030562 0.020308297 -0.13972794
-0.23025551 -0.07021213 0.11628334 0.0072748084 0.05784705 -0.29055 0.029315876 0.029773496
-0.05302492 0.09023719 0.1442636 0.223068 -0.09389729 0.1177954 -0.14369337 -0.0053667957
0.19454448 -0.06286843 -0.33139092 0.04511348 0.26505914 -0.1179591 -0.03904365 -0.0054952865
-0.010308144 0.1772408 -0.06430792 -0.04287456 -0.14418273 0.080673404 -0.07480744 0.0025153803
-0.017552089 0.012164731 -0.07151913 0.03159914 0.029365083 0.16218573 -0.013563838 0.082037084
0.051326413 -0.25711426 0.12683757 0.12492255 -0.09516218 -0.049927693 -0.080382265 -0.1635746
-0.23370665 0.13664109 0.09963541 -0.0945391 -0.05227993 -0.05997596 -0.13547733 -0.0053105843
-0.06274944 -0.13381018 0.16790473 -0.21430552 -0.060152378 0.0126721095 0.08742494 -0.24677585
-0.07978362 -0.1860964 -0.04996663 0.08614354 0.065886915 0.17992702 0.1419973 -0.20879927
-0.054374736 0.07973339 0.0044253203 -0.09809372 -0.13015716 -0.0061246185 -0.18630551 -0.14974244
-0.055336 -0.06819921 -0.065028206 0.12260956 -0.19103849 0.059011023 -0.16960666 0.020979486
-0.17762594 0.08005178 0.049062878 0.039880678 -0.11078896 0.17078558 -0.31366915 0.12448807
0.024712557 -0.01355016 0.07510722 -0.062229164 -0.19638905 0.14624867 -0.05076886 0.01010246
-0.13808514 0.039214496 -0.13990322 -0.057628736 -0.0092309695 0.16395868 -0.009636903 0.047925767
0.04857716 -0.061704587 -0.04580684 -0.042205658 0.009875218 -0.028277928 0.06910235 -0.20485123
-0.050614864 -0.28976864 0.04302929 -0.010387284 0.034572348 -0.099123515 -0.05608468 0.1467872
-0.1293933 -0.054259878 0.21676317 0.076846555 -0.021868372 0.04590078 -0.14201497 0.16309153
-0.24708584 0.004322302 -0.10343277 -0.12812933 0.21629255 -0.06342836 -0.07323394 0.071873456
-0.10994404 0.0041810554 0.09299039 -0.08459502 -0.084528044 -0.19257598 -0.13146235 -0.059958525
0.13621591 0.10281651 -0.08277206 0.1855454 0.16400847 -0.0016625935 0.035647355 -0.064206906
-0.054669272 0.06522183 -0.033676576 0.025403813 0.13114454 0.032138485 -0.16693553 0.057259332
0.120537385 0.28144565 -0.017405214 0.12933934 0.097482346 0.25448304 0.1685466 0.22647539
-0.07989274 -0.008649137 -0.009788949 0.06349286 0.15040983 0.025716145 -0.08175078 0.12079739
0.050335582 0.022169657 0.07420295 -0.003570103 0.02057952 0.07711493 0.2028386 0.10640352

features_model.0.bias f4 [128]
00000000: c857 89bb 9da9 72bb d4a4 9e3a 3ab7 5bbc
00000010: 7b74 04bc 81cd 3ebb fc9c d3ba 795d 7abc
00000020: d788 103b 1b34 88ba 683f 4ebc 1bfc aabb
00000030: 211e 8d3c 49ea 323b a11c 723b 00d3 54ba
00000040: 17da 71bc 56f6 21bb f487 56bc 2c02 b23b
00000050: f559 b4ba 6500 08ba f313 bdbb e7ab 42bc
00000060: f2f8 53bc 264b 1ebc 568a ccba 8e4b 633a
00000070: 70e0 bb3a bb7b 90bb b41b 75bb 9796 3bbc
00000080: a52d cd3b a430 0ebc 043c 8d3c 483d 07bc
00000090: a480 9eba 16fc b4bb 941a 973b 8466 853b
000000a0: 8a3d 4dbc a136 a43c 267e 1dbc 3d6e c63a
000000b0: 5b79 d8bb c2f9 0cbc 1f65 913b cd48 dbba
000000c0: 7f03 dbbb 8cdf 47ba 1040 83bc cc7c a0bb
000000d0: 8118 68bc 68a3 953b d2da 233b ad07 f3bb
000000e0: a6b7 c33b d76f cfbb a59c 2b3b 9c41 df3a
000000f0: a974 513b b7b0 a7bb 5738 cbbb 387e c33b
00000100: 1c66 933a b475 423b f65b 90bb 79a8 9e3b
00000110: fa73 f6bb cd4e 683b fd0b 5abb 0bd7 96bb
00000120: 4a94 4fbc 5dfb 07bc 5f27 1bbc 4029 f5ba
00000130: 7811 50bc 28b3 f0bb e781 b83b 3abb d93b
00000140: b6aa a1ba cf00 ed3a f3d6 c8bb 5eaf 08bb
00000150: 375c 6b3b c40a 573b 3b8f 6dbb fdff f3bb
00000160: 7df0 dbbb f8da 1cbc 67ba 8ebc 3113 a2bb
00000170: 724b 3d3b 959f 3c3c 3d2e 0a3b 34ea 2d3b
00000180: 2427 1fba 6f41 64bb aa7e 1f3b 8329 10bc
00000190: a57b 523b d866 f6ba 0e3b 3c3a 5ff1 85ba
000001a0: cb2b 9fbc cec3 0abb 04d4 23ba 9ed5 24bb
000001b0: 30f4 8fbb 232b 9dba 7bb8 c83a 3c3d 113c
000001c0: 30fd beb8 889e 9dbb 7ecc d0bb 9712 a5bb
000001d0: 273d 8fbc 59e9 243c d07f 92bb 423c 18ba
000001e0: 4dd5 54bc d0ff 14bc 6c32 c63a a666 5fba
000001f0: 6d59 33bc 0bbf 94bb 54f1 9e3b 7e2f 8cbb
-0.0041913725 -0.0037027367 0.0012103566 -0.013410384 -0.008084412 -0.002911419 -0.0016144807 -0.015281075
0.002205422 -0.0010391505 -0.012588359 -0.0052180416 0.01722628 0.002730029 0.0036943334 -0.00081185997
-0.014761469 -0.0024713478 -0.013093937 0.005432388 -0.001375972 -0.0005188047 -0.0057702004 -0.011881805
-0.012937771 -0.0096614715 -0.0015605192 0.00086706213 0.0014333855 -0.004409281 -0.0037400546 -0.011449478
0.006261545 -0.008678589 0.017240532 -0.008254357 -0.0012092781 -0.005523215 0.0046113227 0.0040710587
-0.012526879 0.02004558 -0.009612596 0.0015139055 -0.0066062636 -0.008604469 0.0044371034 -0.001673007
-0.0066837664 -0.00076245586 -0.016021758 -0.0048976894 -0.014165998 0.0045665987 0.0025002253 -0.0074166865
0.0059728203 -0.006330471 0.0026185897 0.0017033103 0.0031960404 -0.0051175016 -0.0062017846 0.005965974
0.0011245641 0.0029672207 -0.004405494 0.004841861 -0.0075211497 0.003544736 -0.0033271306 -0.004603272
-0.012669632 -0.008299676 -0.009469836 -0.001870431 -0.012699477 -0.007345576 0.00563072 0.0066446336
-0.0012334201 0.0018081906 -0.0061291396 -0.002085648 0.0035913119 0.0032812813 -0.0036248702 -0.0074462877
-0.006712018 -0.009573691 -0.017422868 -0.0049461355 0.002888408 0.011512657 0.002108469 0.00265373
-0.0006071201 -0.003482904 0.0024336972 -0.00879896 0.0032117155 -0.001879896 0.00071804307 -0.0010219029
-0.019430062 -0.0021173838 -0.00062495493 -0.002515174 -0.004393123 -0.0011991005 0.0015313769 0.008864697
-9.107066e-05 -0.004810158 -0.0063720336 -0.0050376165 -0.017485214 0.0100654 -0.004470803 -0.0005807319
-0.012990308 -0.009094194 0.0015121228 -0.0008522071 -0.010946614 -0.0045393757 0.004850546 -0.0042781224

features_model.2.weight f4 [128, 128]
00000000: 16a3 983e f16e 593e 3a10 7cbd 1443 d8bb
00000010: 8843 34be 24df 9bbd de47 3bbe 6d16 81bd
00000020: 4ff1 ca3d 0a3b 463e 82bd 543e 00e5 9bbd
00000030: 9b47 2fbd 77e9 46bd 8947 24be fa1e 373e
00000040: cdd9 963c c2b5 71be e919 d6bd 64b3 afbd
00000050: b9d5 af3a de4f 1e3c dcf7 bcbd 5b2e 893b
00000060: 219f 863d abcf 443d dd60 4fbe 8c9d 61be
00000070: 7719 683d df54 6bbe 399a c7bd 8137 9abd
00000080: 3e88 233e b987 1b3d a9cb 723e f49f 8a3d
00000090: ec46 3abe ccbc eabc 97d1 31bd 7dd2 633e
000000a0: 43ba 643c 64c8 9cbc e71e 863d 2b49 0e3e
000000b0: f3cf 5dbd 5bd8 953c ae08 743c a6e1 273e
000000c0: abad e73d 1d7e 05be 2611 8dbd a00f 793b
000000d0: d44a 063e 723f f7bb 4c5b 1f3e d6cf 9d3d
000000e0: 8e50 45bc 0bfe 893d 3ad0 19be 417d 9b3d
000000f0: ec39 9a3c 15c8 2ebe e77c 99bd 5839 993e
00000100: 4d6f 403d c55e 1abe a4cd d13d 0a24 3f3e
00000110: dcb0 b73d 9de6 23bd a0af ac3b cdc3 8c3d
00000120: 9e9f 0a3d 4755 603d 8ae2 e7bd 846b 0fbe
00000130: ecd7 f7bd 3d5d a3bc 7d96 993d d837 c13d
00000140: f36f 353e 67a7 e23d ef7f 0b3e f095 053e
00000150: 1988 3dbe 6419 0d3d 8ca4 293e 3070 d6bc
00000160: 67c7 04be db49 99bd 450b 62be 7e07 e53d
00000170: 8bd9 ea3d 3b7c 87be ea12 7dbe 744b 29ba
00000180: 7079 a33c dcfc 08be 4f04 773d 1f79 4d3d
00000190: 5433 733c 2ee9 f5bd d5fc 8dbd 1ee0 323e
000001a0: 930c 9fbd 6af0 d8bd 025b 32be a93b 163e
000001b0: 1ead 523d c836 14be ad7d 95bc b361 5e3e
000001c0: 81cd 7f3c e0ff 483e 5913 d9bd 8451 253d
000001d0: 7425 f7bd 46ae 0b3e 7ac9 63bd 8ea9 c9bd
000001e0: 1df6 b83d a268 db3d 4131 0e3e ae0c 6a3d
000001f0: a328 84bd b5f1 2b3e 5890 f43d 020d 81bc
00000200: 80cc 593d 07cb c3bd 0b9b 4d3d 3a29 3a3e
00000210: c07b 33be 0d95 313c a183 a1bd 0014 abbd
00000220: 09da 4a3e 38ad 2ebc df69 b1be deab 68bd
00000230: 2269 263d 8688 d7bd 695c ce3c 673e 1ebc
00000240: 4826 f83c b2f0 ffbd 2e6f 20be 6576 16be
00000250: 4b41 133d f3b4 2f3e 27b0 0cbe 6b19 d43b
00000260: 8e3f 023d cafd 163e 5886 79be 525a a5bd
00000270: d548 a03c 9c84 8a3d aaaa 823e a35a 133e
00000280: ee92 5a3e 3a5a 2e3e 8273 003e 9666 1abd
00000290: e4e0 11bd e539 ddbd ab10 c83d eb25 603d
000002a0: 014c ffbd 03c6 9abd df8a bb3d b2a6 363e
000002b0: 0212 39bd 1b0a 623c 4025 3ebc a768 3d3d
000002c0: 803b 18bd 597c 103d 635b 523d 7c3e 323e
000002d0: 6c40 553e 91f3 1d3d 88a9 a93d f0bc 9f3c
000002e0: e236 c23a 9175 0fbe 1d2a a6bd c34b 7dbe
000002f0: 49d2 73be f48f 45bd 18ff f13d ec20 01be
00000300: 2ef4 813e 4400 753d 365c 6d3d ab27 9cbd
00000310: 5151 0abe ce1e 8b3c c8ff 063b e993 8b3c
00000320: 3ebc 4dbe c92a 8abe 0fce 30be ea3f 123e
00000330: 1064 5fbc 3448 8fbe 7d5f 0f3d 1814 5bbe
00000340: 2a16 8a3d 8fab e03c bfb1 98bd 8017 5fbc
00000350: 84a4 fb3d d83b 573c 0adf 563e 7300 11be
00000360: 59aa 6b3e 2c9c e63d 4d56 8c3d 9f93 2fbd
00000370: fdd6 16bd 8bb3 d2bd 73bc 173e c9e2 fbbd
00000380: 6e90 20be 7210 86bd dc16 3d3d 13ab 3dbd
00000390: 1331 52be 09d2 2f3e 1590 473e 1c78 c03d
000003a0: 3f58 103e 5872 1bb9 e14a 8ebd f211 d6bd
000003b0: e274 643c 6138 0c3d b0ab 57bd 8a17 2fbe
000003c0: c662 14be 6f4c 14bd 537a f33d 047a c9bd
000003d0: 2a9b 96bd 19af b6bd 0d8b 6cbb b9db 093e
000003e0: 674c 8abd c18d ec3d d87a 7a3c dbe7 25bd
000003f0: adef 3d3b 3f3c 1b3d 655d 5b3e b9e9 223e
0.29811925 0.21233727 -0.061538912 -0.006599793 -0.17603886 -0.0761092 -0.18289134 -0.063031055
0.09909307 0.19358459 0.20775416 -0.07612038 -0.042792898 -0.048562493 -0.16042913 0.1788291
0.018414402 -0.23604491 -0.10454161 -0.08579138 0.0013415135 0.0096625965 -0.09226963 0.004186434
0.0657332 0.04804961 -0.20251794 -0.22032756 0.05666491 -0.22981595 -0.097462125 -0.07530118
0.15969941 0.037971232 0.23710503 0.0676879 -0.18191117 -0.028654478 -0.04341277 0.22248264
0.013960424 -0.019138522 0.06548863 0.13895099 -0.054153394 0.018291643 0.0148946475 0.16394672
0.113124214 -0.1303639 -0.068880364 0.0038003698 0.13114482 -0.007545405 0.1556217 0.07705657
-0.0120431315 0.06737908 -0.15020838 0.0759225 0.018826447 -0.17068513 -0.07494526 0.29926562
0.046981145 -0.15075214 0.10244301 0.18666092 0.0896928 -0.04001485 0.0052699596 0.068732835
0.03384363 0.054768827 -0.11322506 -0.14005858 -0.12101731 -0.01994192 0.074994065 0.094344795
0.17718486 0.11067086 0.13623022 0.13045478 -0.18508948 0.034448043 0.16566676 -0.026176542
-0.12966691 -0.0748479 -0.22074611 0.1118307 0.11467274 -0.26461968 -0.24714246 -0.0006458082
0.019955367 -0.13377708 0.060306843 0.05016434 0.014843781 -0.12007366 -0.069329895 0.17468306
-0.0776607 -0.1059273 -0.17417529 0.14671196 0.05143463 -0.14474022 -0.018248403 0.21716957
0.015612961 0.19628859 -0.105993934 0.040360942 -0.120676905 0.13640699 -0.055612065 -0.09846793
0.090313174 0.107133165 0.13885976 0.057141 -0.06453063 0.16791423 0.11941594 -0.015753273
0.053173542 -0.09560209 0.05019669 0.18179789 -0.17527676 0.010838759 -0.07886434 -0.08353424
0.19809736 -0.010661416 -0.34651086 -0.05680453 0.040627606 -0.10524087 0.025190549 -0.009658433
0.030291691 -0.12497081 -0.15667412 -0.14693601 0.03595094 0.1715887 -0.13739072 0.0064727566
0.03179889 0.1474525 -0.24367654 -0.08073868 0.019565979 0.067635745 0.2552083 0.14390044
0.21345112 0.17026606 0.12544063 -0.03769549 -0.035614863 -0.10802058 0.09768804 0.05472366
-0.124656685 -0.07557299 0.09157347 0.17837027 -0.04518319 0.013796355 -0.011605561 0.046242382
-0.03716612 0.035274837 0.051356684 0.17406648 0.20825356 0.03856236 0.08284289 0.019499272
0.0014817382 -0.14009692 -0.08113501 -0.24735932 -0.23810686 -0.048232988 0.118162334 -0.12610215
0.25381607 0.059814706 0.057949267 -0.076247536 -0.13507582 0.016982462 0.0020599235 0.017038302
-0.2009134 -0.26985767 -0.17266105 0.14282194 -0.013634697 -0.27984774 0.035003174 -0.21394384
0.06742509 0.027425556 -0.074557774 -0.013616443 0.12287238 0.013136826 0.2098352 -0.14160328
0.23014201 0.11260256 0.06852398 -0.04286539 -0.036826123 -0.10288151 0.14817981 -0.12299115
-0.15680096 -0.065461054 0.04616438 -0.046305727 -0.20526533 0.17169966 0.19488557 0.09397909
0.14096163 -0.00014824548 -0.06947876 -0.104526415 0.013943883 0.034233455 -0.05265397 -0.17098823
-0.14490804 -0.036205705 0.11888566 -0.09837726 -0.07353814 -0.08920116 -0.0036093623 0.13462724
-0.06752854 0.11550475 0.015288077 -0.040504318 0.002898197 0.037899252 0.21422346 0.1590947

features_model.2.bias f4 [128]
00000000: 291f e23a 59a5 16bc 363e 3ebc 64d5 653c
00000010: feb1 a73a d79b 4dbb 649e fabb 9e40 2dbc
00000020: 15ed 03bb 8373 4fbb 755b db3b 7c2f 92bb
00000030: b1a1 fdbb 6370 82bb 3c9d 51bb ddc4 11bc
00000040: 4b00 2d3c 6478 ff3a 5b17 ee3b 1db3 d539
00000050: d409 5abb 9cc3 02bc 7313 bfbb 9782 dabb
00000060: 70f4 4abb c990 bbbb 9e1a a13b 2a6e cbbb
00000070: fef4 88b9 9dbb c9bb 0df7 f73b 0000 0000
00000080: 86de d1bb e56f 5f3a f277 25bc 3119 a4bb
00000090: ff28 6fbb 1a3b 07bc df31 41bc 0000 0000
000000a0: e9c4 73bc 63f4 a1bb 12fc 87bc 64b7 f6bb
000000b0: 3731 033b 4523 393b 0506 22bc 730f 38bc
000000c0: c78e 613c 76b1 26bb 066f 243c cb9d 5f3c
000000d0: 2fdf 71bc 20f3 93bb 576c 2c3b 1b22 14ba
000000e0: 6385 b63b 7b6c 5c3b d1db cc3b 0000 0000
000000f0: 175a debb f58b f0ba 57ad 76bc fce8 38bc
00000100: 006d 893a 29c3 8a3c c7f6 82bb e005 963b
00000110: 0673 953b c31f d9ba f81a 19bb 7a51 f7ba
00000120: fddc 61bc 0062 68bb b2eb f2bb 3806 d2bb
00000130: f41a bbbb 328d b0ba 069f ddba f8ed a43b
00000140: e54e 26bb 8522 413c 516b 043b 1284 84b9
00000150: 4ffe 8fbb 8d85 2f3a b641 87bb ee1d 54bb
00000160: a562 b3ba 2767 69bb e3ed 74bc 1fdb 1eba
00000170: 7eeb 92bb 7b86 92bb b94d 4c3c c00d dd3b
00000180: 1f5f e03b 9d2c 06bc 878b 8dbb d200 e93b
00000190: f3b2 cabb b428 8cbc 69d0 95bc f66c 23bc
000001a0: 5eea 38bb f490 39bb 18ee 4eb9 add6 093b
000001b0: 8b2c 82bc 3f40 b3ba beaa 2bbb a418 033a
000001c0: faca 603b ec98 1f3b d9af 01bb 7e3f 183a
000001d0: 52bf 843b 60c8 2cbc 3dcb 943a 4c3f 93bb
000001e0: 39a8 8dbb b8f4 7fbb 2742 9d3b b7cb d3b9
000001f0: a4fb b3ba ff02 7e3b 5f01 3a3b fd3f cbbb
0.0017251718 -0.009194695 -0.011611512 0.014027927 0.0012794135 -0.0031373405 -0.007648276 -0.010574488
-0.0020130326 -0.0031654544 0.006694252 -0.004461227 -0.0077402224 -0.0039806827 -0.0031984588 -0.0088970335
0.010559152 0.0019490835 0.007265968 0.00040759976 -0.0033270018 -0.007981207 -0.005831176 -0.0066683996
-0.003096845 -0.005724047 0.004916503 -0.006208201 -0.00026122475 -0.0061563984 0.0075672925 0.0
-0.0064047007 0.00085234485 -0.010099398 -0.005007886 -0.0036492941 -0.008253837 -0.011791675 0.0
-0.01487849 -0.0049424632 -0.016599689 -0.007529186 0.0020018348 0.0028249782 -0.0098891305 -0.011234152
0.013766951 -0.0025435365 0.010036236 0.013648461 -0.014762684 -0.0045150667 0.0026309693 -0.0005650834
0.0055701 0.0033633995 0.00625179 0.0 -0.006785642 -0.0018352257 -0.015055976 -0.011286017
0.0010484755 0.016938763 -0.0039967033 0.004578337 0.004560831 -0.0016565252 -0.0023362022 -0.0018868886
-0.013785598 -0.0035458803 -0.007413351 -0.0064094327 -0.00571 -0.0013469814 -0.0016908355 0.005033251
-0.0025376615 0.011788015 0.0020205567 -0.00025275402 -0.0043943296 0.0006695621 -0.0041277064 -0.0032366472
-0.0013686015 -0.0035614462 -0.014949295 -0.0006059873 -0.0044836393 -0.0044715977 0.012469702 0.006746024
0.006847277 -0.008189348 -0.0043196115 0.0071106935 -0.006185883 -0.017109253 -0.018287854 -0.009974709
-0.0028215866 -0.0028315159 -0.00019734388 0.0021032498 -0.01589038 -0.0013675763 -0.00261943 0.0005000925
0.003430067 0.0024352623 -0.0019788651 0.0005807801 0.0040511275 -0.01054582 0.0011352074 -0.0044936296
-0.004323032 -0.0039055776 0.0047991457 -0.00040396836 -0.0013731611 0.003875911 0.0028382165 -0.0062026964

features_model.4.weight f4 [128, 128]
00000000: 42b6 cd3b 0796 123e 4fce 63bc ef56 3f3e
00000010: 2988 dcbd 0780 a9bd d3f6 6fbc af55 95bd
00000020: c867 0d3e dd7c 89be 131e a33d 65ad 7db9
00000030: 693b f0bd 38ba 4bbd b598 23be 3db1 16bd
00000040: ae4a 87bc 0422 1c3d afb0 50be a5f0 ec3d
00000050: 064d aabd 7921 c13d 790d 943d 11dc 56bd
00000060: 1dd8 0ebe b51d 9dbd 1b8e d2bd 8167 f4bc
00000070: 2982 6a3c f38b b0bd b356 a43c 299c 3d3d
00000080: 1e68 1cbe 024f cc3d 81b3 f33d 1b18 c23d
00000090: 3a2f aabc 11f1 06be d377 e33b fb28 41be
000000a0: 41bd 5fbe 359a 783d 5f59 42be 0d64 08be
000000b0: 9874 d13d aa27 db3a 6604 ac3d 340a 983d
000000c0: deb2 8abc ba49 da3c 3717 ccbc 3180 e3bd
000000d0: 417c a6be 569e a7bd 537a c2be a40f b13d
000000e0: 058a c03d fd22 3dbe 37e5 12bd d31c 223d
000000f0: be44 9d3d 54e8 d53d 7be0 b03c 4fb7 e8bd
00000100: d881 32bd e822 753e 3e46 b7bd df00 103e
00000110: 051d 943d c918 42bc cd90 5a3d 2592 b1bd
00000120: 3ab0 87bd 5b0c 21bd 422b 6f3d 026b 63be
00000130: e511 06bd a073 8d3e 935e b2bd 3735 37be
00000140: dca8 4bbd 9cf6 2dbe 396f 1fbe b2ba 0b3d
00000150: 4493 e73d a50f e0bd 908c 60bd 4a20 e0bc
00000160: 05f4 843d 2823 6a3d d985 1c3d 9114 77bd
00000170: 0238 b93d 4a05 0ebd b77f 6a3d e926 8d3c
00000180: 3366 9c3d 8525 043e fc52 eebd 47c9 3c3e
00000190: 8f34 edbd d410 0fbd d983 483d c66e ac3c
000001a0: ba44 58be f9c7 9ebd e027 063c 5c63 12bd
000001b0: c544 713e 695b dabe eb67 38ba b3a3 853c
000001c0: c927 813e 7fe5 61bd 1234 acbd fd26 b33d
000001d0: 5565 733d 9636 883e 42b0 73bc 2f3e 60bd
000001e0: 1796 b73d 7e94 40be d625 3a3e 4f91 0d3e
000001f0: 94a0 ad3d eb99 1d3c b397 403e 8d3b 34bc
00000200: 26ba 3f3d 8308 013c 3561 0d3e 3ece 9b3d
00000210: ba01 41bd 7bad d1be cd7f 92bd e9b4 763d
00000220: 61ad 743d bf23 b63d e5eb 19bd dbc5 563c
00000230: f4e0 c53c fbab 403e 6b3a a73c a411 c8bd
00000240: cd3e 3e3e c1db 49bd 73d2 72bd f7ba 103e
00000250: e393 483e 004f 19be cf8e e0bd f6c4 b1bc
00000260: 1692 d03c 79f3 493e 31bc 7a3c 925c ca3c
00000270: b898 0e3e 21b1 a5bd 887d ea3d 2dd2 8d3d
00000280: ff37 57be d8a8 9c3d 6d2e 2ebe b0cb 093e
00000290: c8ec 373e 85b8 633e 568a 3b3d f721 39bd
000002a0: dada 84bd dd5a 1abd d412 553c 0441 a43d
000002b0: e2d8 ba3b 8b38 aebc a70a 943e 37e7 533e
000002c0: a5c1 b63d eb56 aa3c cc2d eebd 2061 a53e
000002d0: 9dcc 233c 95a5 cfbc 7f06 95bd 9660 cb3c
000002e0: 8ac8 10be a9fa 02be f891 f1bd 3e85 653d
000002f0: 57d4 fcbd 7f7e 18be 0ca5 3cbd cddb efbc
00000300: c910 b23d b95b 3d3e 2b9c f03d 59de 98bd
00000310: 4dd7 46be 5476 563e 5726 d33d 6250 4a3d
00000320: 2af0 22be fd4e 62bd 7b8c 24bd 7898 4fbd
00000330: 28ac ba3d 76a6 2b3d 6de0 193e 9313 f3bc
00000340: 2131 4d3e 626c 90be 4c15 cc3d b241 f63d
00000350: 1f36 063e 3e9d 163d 721b 7dbd b784 4d3e
00000360: dc1b 803b 5f55 0dbe 7d96 81be ff5c dcbc
00000370: 5cb1 383d fc57 703d f338 b33d b829 8d3c
00000380: cc63 a13d 779b 13bc f983 d43d 2300 323d
00000390: e1d5 c53d 7b80 9abe 6a3f 93bd 1ff3 203e
000003a0: f08e e33d 8009 4cbd bb78 873c 7d5e 0cbe
000003b0: c844 bbbd bc00 9ebd 98bf 663d 37b1 3b3e
000003c0: f44a 063d 8d5f c8bd 5fcc d5bb 4127 43be
000003d0: 3c04 c6bd ef0b 0ebd 0b65 4b3e aae7 30be
000003e0: bf4a 6ebd 74b4 3b3d c5ae 4dbe dd4e 2dbd
000003f0: a362 bcbd b8d2 c43d 2476 00be 1dec 4fbd
0.0062778303 0.14315043 -0.013904168 0.18685506 -0.10768158 -0.082763724 -0.01464625 -0.072917335
0.1380912 -0.26853076 0.079647206 -0.00024192555 -0.117300816 -0.04973814 -0.15976222 -0.03679012
-0.016515102 0.038118377 -0.203799 0.11569337 -0.08315472 0.094302125 0.07229132 -0.052455965
-0.13949628 -0.07671682 -0.10281011 -0.02983451 0.014313259 -0.08620443 0.020060873 0.046291504
-0.15274093 0.09976007 0.11899472 0.09477254 -0.020774473 -0.13177897 0.0069417744 -0.18863289
-0.21849538 0.06069394 -0.18979405 -0.13319416 0.102273166 0.0016720195 0.083992764 0.07423821
-0.016930994 0.026646484 -0.024913413 -0.11108435 -0.32516673 -0.08184497 -0.3798395 0.08645561
0.09401325 -0.18470378 -0.035863128 0.03957827 0.07679127 0.10444704 0.021591416 -0.11363088
-0.04358086 0.23939097 -0.089489445 0.14062832 0.072320975 -0.01184673 0.05336075 -0.08670453
-0.066254094 -0.039318424 0.058390863 -0.22208789 -0.03273191 0.27627277 -0.08709445 -0.17891394
-0.049721584 -0.16988605 -0.15569772 0.034113593 0.113073856 -0.10940484 -0.05482155 -0.027359147
0.064918555 0.057162434 0.038213585 -0.060322348 0.09043886 -0.034673013 0.057250705 0.017230468
0.076366805 0.12904938 -0.11636922 0.18436156 -0.115822904 -0.034928158 0.048953865 0.021048915
-0.21119967 -0.077529855 0.008188218 -0.035739288 0.2356139 -0.42647865 -0.0007034528 0.01631341
0.25225666 -0.055150505 -0.08408369 0.08747671 0.05942281 0.26604146 -0.014873566 -0.054746803
0.08964174 -0.18806645 0.18178496 0.13824962 0.084778935 0.009619216 0.18807869 -0.011000526
0.046808384 0.0078755645 0.13806613 0.07607697 -0.047120787 -0.40952668 -0.07153282 0.060231123
0.05973566 0.08893537 -0.037578482 0.013108696 0.024155118 0.18815605 0.020413598 -0.0976899
0.18578644 -0.04928184 -0.05928273 0.14133821 0.19587664 -0.14971542 -0.109647386 -0.021700364
0.025460284 0.19721784 0.015303657 0.024702344 0.13925445 -0.08090425 0.114497244 0.069248535
-0.21017455 0.07649392 -0.17009898 0.13456607 0.17961419 0.22238357 0.045786224 -0.045198407
-0.06487055 -0.03768431 0.013004977 0.08020213 0.005702124 -0.021267196 0.28914377 0.2069367
0.089236535 0.020793399 -0.11629829 0.32300663 0.009997514 -0.02534751 -0.0727663 0.02482633
-0.14139 -0.12790932 -0.117954195 0.056035273 -0.12345188 -0.14892004 -0.04605584 -0.029279614
0.08694608 0.1849202 0.11748537 -0.074642844 -0.19418068 0.20943576 0.10310047 0.049393065
-0.15911928 -0.05525111 -0.040173035 -0.050682515 0.091148674 0.041906796 0.15027018 -0.02967242
0.20038272 -0.2820769 0.099649996 0.12024249 0.13106583 0.03677105 -0.061793752 0.20070158
0.003909571 -0.13802098 -0.25310126 -0.026899813 0.045091018 0.05867766 0.087510966 0.017231807
0.07880363 -0.009009234 0.10376734 0.04345716 0.09659935 -0.30176148 -0.0718983 0.15717743
0.111112475 -0.049813747 0.016537061 -0.1370792 -0.09143978 -0.07714984 0.05633506 0.18329321
0.032786325 -0.0978385 -0.006524607 -0.19057943 -0.096687764 -0.03467935 0.19862764 -0.17275873
-0.058176752 0.04582639 -0.200862 -0.042311538 -0.09198501 0.09610504 -0.12545067 -0.050762285

features_model.4.bias f4 [128]
00000000: 9d36 6e3c abfd 89bb 2d02 70bb 7022 db3c
00000010: 14ea d7bb 4ef3 ccba d92b 6bbb 7828 3d3a
00000020: a5b2 07bc 4dbb 503c 1a3e 4a3c 9664 74bb
00000030: 0000 0000 79ad 943c 88a1 aabb 21a0 7ebb
00000040: e063 8dbb 0000 0000 6106 af3b 66ed 5cba
00000050: 1bd4 4fbb 11e7 9dbb 7d56 5ebb b2d9 3c3c
00000060: 0d90 3bbb 50e6 f9b7 4179 5dbb 63e0 a13b
00000070: 3216 88bb 0000 0000 f1b1 a1bb 643a 40bb
00000080: bfa1 04bb c6e1 f33b 8967 87bb 5a2b 55bb
00000090: 0ccb 92bb f5bb aa3c 0c6a a6bb 2f35 65b8
000000a0: 3dfa 8c3b bc58 57bb b73f 7bbb 72c5 66bb
000000b0: ee41 323c f247 803c 3025 903b 8c97 d93a
000000c0: 6c2b 71bb 41bf a4ba e735 f93b 3f3d bcb9
000000d0: 1074 0dbb fbb5 72bb 54be 53bb 12ef fdba
000000e0: feef 89bb dfd0 2ebb 74db 78bb 51cf 12bc
000000f0: d29e 0fba b704 72b9 2144 81bb fc51 31bc
00000100: 26b4 1bbb f692 69bb 0000 0000 d01d 023c
00000110: 2069 aebb 7dcb 6abb 29ff 93bb 5339 b739
00000120: 07fb aeba b6c8 96bb 9543 ccbb 89e5 97bb
00000130: e0f7 a43b 674d 0dbb 64ec 96bb 1e8b ca3c
00000140: 85fe 35bb 27b4 fc3b c2a3 8c3b 9497 a43a
00000150: 3fc1 263c 3536 9aba 0d11 b93b 21b2 343c
00000160: 45f4 0d3c 0000 0000 0000 0000 5a5e c03b
00000170: 102f a0bb 9381 103b c5be 4d3b 474c aebb
00000180: 1db3 a3bb 5bda bcba e4a1 093b 0488 a9bb
00000190: cba1 62bb 6da8 f33a 3311 94bb 544b b03a
000001a0: 4336 9dbb 5e07 903b 70f8 ac38 dcd3 a2bb
000001b0: 6e7f 963a 8b90 2e3a 94cf 5abb 9f88 82bb
000001c0: c63f 043c d470 aebb 5c7c 21bc 4225 dfb9
000001d0: cc32 073b db9a a1bb 1a55 073a 4ea7 003d
000001e0: a865 9db9 5e1e f53b fc9e 9f38 7770 3e3b
000001f0: 04bc 26bb d474 703c d270 69bb 1b34 59bb
0.014539388 -0.004211148 -0.003662239 0.02674982 -0.0065891836 -0.0015636475 -0.003588429 0.0007215808
-0.008282338 0.0127399685 0.012343908 -0.00372914 0.0 0.018149124 -0.0052072443 -0.0038852768
-0.0043148845 0.0 0.0053413366 -0.0008427709 -0.0031712118 -0.004818805 -0.0033926063 0.011526512
-0.0028619797 -2.979036e-05 -0.0033794197 0.004940079 -0.0041530365 0.0 -0.0049345423 -0.0029331679
-0.002023801 0.007442686 -0.0041322154 -0.003252706 -0.0044797715 0.020841578 -0.0050785597 -5.4647386e-05
0.0043022917 -0.0032859286 -0.0038337538 -0.0035212901 0.010879977 0.015659306 0.0043989643 0.0016600951
-0.0036799563 -0.0012569205 0.0076053026 -0.00035903786 -0.0021584071 -0.0037034738 -0.003230949 -0.0019373617
-0.0042095175 -0.002667479 -0.00379726 -0.008960561 -0.0005478683 -0.00023080675 -0.003944889 -0.010822769
-0.00237585 -0.0035640574 0.0 0.007941678 -0.0053225905 -0.0035826855 -0.0045165014 0.0003494719
-0.0013349958 -0.0046015633 -0.0062336423 -0.004635517 0.005034432 -0.0021561028 -0.0046058167 0.02472454
-0.0027770114 0.0077119055 0.0042919824 0.0012557381 0.010177909 -0.0011765423 0.0056477846 0.011028797
0.008664195 0.0 0.0 0.0058706226 -0.004888423 0.0022049889 0.0031394225 -0.0053191516
-0.004995717 -0.0014408337 0.0021001035 -0.005173685 -0.00345813 0.0018589624 -0.004518652 0.0013450184
-0.0047977283 0.0043954095 8.247874e-05 -0.0049691033 0.0011482069 0.0006659112 -0.0033387886 -0.0039835717
0.008071845 -0.0053235088 -0.00985631 -0.00042561634 0.0020629643 -0.0049317903 0.00051625224 0.031409554
-0.00030021113 0.0074804267 7.611324e-05 0.0029058733 -0.0025441656 0.0146762915 -0.0035620225 -0.003314263

policy_model.0.weight f4 [128, 128]
00000000: 7829 debb 764b 223c 8545 0e3c 8777 8cbc
00000010: 2754 0e3b 85e0 e6b8 1978 103c faa7 503c
00000020: 1c07 003c c4ad 193c fc72 90bb b6c9 0f3c
00000030: f861 4bba 42f0 a7bc 7932 9e3b 4702 d63b
00000040: 7934 e43b ebd9 53b8 6d23 a9ba b889 053c
00000050: 12c6 cf3a 08ac e83b 6e03 0b3c baef d7bb
00000060: cadd 2d3c 42d4 2d3b 1a3a 773b b816 f4bb
00000070: b90c de3b 1b02 413a 581d 213c b239 323c
00000080: 6ed5 2a3c c675 aa3b 677e 123c 0062 223c
00000090: 57a3 3c3b 2c25 63bc 728e 173c 084b 7d3a
000000a0: 1257 ac3b 0818 a03b a71a 613a 99a7 aa3b
000000b0: 2b15 443c 5751 95ba 4d47 6a3a 202e 9aba
000000c0: b4aa b83b 1c2a 113c f860 9b3b 7e0f 3238
000000d0: a267 bd3a e02f 1e3c 1007 013c f022 033c
000000e0: f214 d03b c01b 0d3c ec68 653b 623a 1d3c
000000f0: 5c35 30bb ba3a 693c 4be0 f63b 8b56 b5bb
00000100: 1083 083b 0383 f33b 1bc8 6139 0f1f 233b
00000110: 78ac 083c fb34 9c3b 0dbf 023c 3c31 393b
00000120: d803 e43a 97c6 273c 348f 2c3c 37cb 1d3c
00000130: 91a5 d73b a866 943a 04ab 123c 2f08 cfbc
00000140: 52ca 0b3c 843f 9f3b fc6e 953b 1fca 173c
00000150: 527e ccbb ed70 9c3a 52ef 423b 91ce 26bc
00000160: 22c3 5f3b 249b 813a 29a1 6e3a 1ca9 0e3c
00000170: dd22 073c 87aa 3d3b bf10 753a 2c4f 033c
00000180: f2cb 183c b9c1 d2bb 9d51 5a3b 1e49 f03b
00000190: 3e8a 133c 6e39 373b 5b7d 1f3c e574 393b
000001a0: 9244 563b 7964 1e3c 6ea1 093c 6428 793b
000001b0: 12b2 e8b9 241d d43b 8a8d 313c ec0d 193c
000001c0: aaa8 1bbc 6051 333b 5630 c1ba 49f3 413c
000001d0: 4032 af3b 40f7 1a3c d906 053c 727f d8bc
000001e0: 5094 ae3b 16db 98ba 0108 573b d87a 62bb
000001f0: 1ffb 95ba 2d1e 6dbc 1c9d d83b 3a11 313a
00000200: 49bb 85bb cf61 e83b c608 1f3c 4385 b8bc
00000210: 69a5 59bb cb33 2e3b f3aa 403c 6d8c 3b3c
00000220: 3239 2c3c 6760 9b3c 054b 983b c31f 273c
00000230: fb74 54b8 761a 66bc 9ec8 c43b 4678 233c
00000240: fa0c 133c f541 7038 6d68 193b 6e6b 833b
00000250: 3010 a0b7 75ad c23b 3660 d83b ae6d 43bb
00000260: 564e db3b 3029 94ba 58b5 263c 3197 b9b9
00000270: d296 e63b 3c4b 87ba ae1c 1d3c 7d98 293c
00000280: 4e0d 0b3c 80f7 efba 6fe1 c73b 65cc 873b
00000290: 15d0 20bb eb41 55bb c26c 403c c038 483b
000002a0: f4b2 543c a4f4 943a 61f1 2d3a 5827 383c
000002b0: 1905 e13c 0941 083c 558d 373c 5be6 47bb
000002c0: 3e37 b93a c5fc ea3b 3991 b6b9 b6a6 bd3b
000002d0: 50f7 db3b 35fd 033c 8a5f a03b 2c3d d73b
000002e0: 6136 ff3b f74b 203c b3e6 5f3b 9c97 473c
000002f0: 3e2a 25bb 9b68 033c c58d 543c a92c abbb
00000300: 81eb 86ba 38fa 0a3c 1f4e 8b38 a642 2b3c
00000310: 1def 323c 3129 423c d2bf d73b 8ec7 5bba
00000320: c772 883b 2b99 063c 655e 303c 5c44 2e3c
00000330: 1d29 12ba f65a ff3a a5a5 333c e8e2 69bc
00000340: a595 1f3b fd61 113a cbf8 1d3a 0317 233b
00000350: 19cf c73b 2809 29bb 2d95 abba 4f7b 76bc
00000360: 4cd8 5eba 9a65 0eb9 0206 beb8 85a4 2b3b
00000370: 76e2 0f3c 6f48 bfba 757b 233c 7e66 233c
00000380: f080 e13b 84b2 203b f60e dcb9 c502 2a3c
00000390: fc0b 0d3c 4e9d 23ba e04d 0c3c f3b4 c9bb
000003a0: ca5a 933b 9ed0 953a 8bb9 c63b 785b 083c
000003b0: e3ab 053c 5801 f53b 632e 863b 1c17 0c3c
000003c0: 642e fc39 fbb2 9f3b 5808 5e39 fae9 923b
000003d0: ae83 283a 06a7 0e3c 6bdb 673b bada 8abc
000003e0: c4e9 463b af24 243c a6b6 deba 2ecb 133b
000003f0: fe0c afba 7dea 53ba 5921 d23b fd90 1f3b
-0.006779846 0.009905687 0.008683567 -0.017146839 0.002171764 -0.00011009075 0.008817696 0.012735361
0.007814195 0.009379808 -0.0044082385 0.008776119 -0.0007758434 -0.020500306 0.004827794 0.006531033
0.006964263 -5.0509272e-05 -0.0012904234 0.0081505105 0.0015851876 0.007100586 0.008484704 -0.006589857
0.010611961 0.002652422 0.003772384 -0.0074489973 0.006776419 0.00073626795 0.009833656 0.010878013
0.010426862 0.005202028 0.0089412695 0.00991106 0.0028783882 -0.013863843 0.00925027 0.00096623646
0.005259403 0.0048856772 0.00085870404 0.0052079675 0.011967937 -0.0011392039 0.0008937016 -0.0011763014
0.005635584 0.008860137 0.004741784 4.2452935e-05 0.0014450441 0.009654969 0.007875219 0.008003935
0.006350153 0.008612573 0.0035005165 0.009596439 -0.0026887273 0.014235193 0.007534062 -0.0055339984
0.0020830072 0.0074313893 0.00021532217 0.0024890339 0.008341901 0.004767058 0.00798012 0.0028258106
0.0017396165 0.010240219 0.010532189 0.00963097 0.0065810164 0.0011322098 0.008951906 -0.025272457
0.008532124 0.0048598666 0.0045603495 0.009264498 -0.0062406445 0.001193551 0.0029744697 -0.010181085
0.0034143408 0.0009888154 0.0009102994 0.008707311 0.008248058 0.0028940754 0.00093485037 0.0080144815
0.009325968 -0.006431785 0.0033312805 0.007332935 0.0090051275 0.0027957815 0.009734477 0.0028298434
0.003269468 0.009667509 0.008400304 0.003801846 -0.0004438316 0.0064732004 0.010836968 0.009341698
-0.009500662 0.0027361736 -0.0014739137 0.011837789 0.0053465664 0.009458363 0.008119308 -0.026427958
0.005327739 -0.0011661972 0.0032811167 -0.0034558084 -0.0011442638 -0.0144725265 0.006610526 0.0006754581
-0.004081164 0.007091738 0.009706682 -0.022524482 -0.0033210164 0.0026581164 0.0117595075 0.011447054
0.010511683 0.018966867 0.004647615 0.010200444 -5.0653685e-05 -0.014044395 0.0060053607 0.009977406
0.008975262 5.7281886e-05 0.002340819 0.0040106094 -1.9081024e-05 0.005941088 0.006603266 -0.0029820013
0.006692688 -0.0011303779 0.010175072 -0.00035398596 0.007037022 -0.0010322104 0.009589357 0.010351297
0.008487059 -0.0018308014 0.006099872 0.004144239 -0.002453809 -0.003254051 0.01174468 0.0030551404
0.012982119 0.0011364412 0.00066353945 0.011239849 0.027468251 0.008316287 0.01120313 -0.0030502293
0.0014130843 0.0071712458 -0.00034821944 0.0057876958 0.0067128316 0.008055975 0.0048942016 0.0065685716
0.007788465 0.009783736 0.0034164607 0.012182143 -0.002520218 0.008020545 0.012973254 -0.0052238298
-0.0010293574 0.008482508 6.642588e-05 0.010452902 0.010921267 0.011850641 0.006584146 -0.0008383923
0.004164073 0.008215229 0.010764693 0.010636415 -0.00055755844 0.0019482065 0.010964786 -0.01427529
0.002435067 0.00055459124 0.0006026148 0.0024885542 0.006097686 -0.002579281 -0.0013090722 -0.0150440475
-0.00085008587 -0.00013580025 -9.061025e-05 0.002619059 0.00878202 -0.001459373 0.009978165 0.0099731665
0.0068818256 0.0024520466 -0.00041972817 0.010376637 0.008608814 -0.0006241397 0.008563489 -0.006155604
0.004496907 0.0011429971 0.006064599 0.008322589 0.008158657 0.007476967 0.004094885 0.008550432
0.0004809975 0.004873631 0.00021174678 0.0044834586 0.0006428313 0.008706814 0.0035378586 -0.01695
0.0030351738 0.010018512 -0.0016991689 0.0022551524 -0.0013355312 -0.00080839527 0.0064126668 0.0024347894

policy_model.0.bias f4 [128]
00000000: 3eb8 2ebb 3fa6 75ba 0000 0000 8a28 a73a
00000010: 915f 39bb 5a31 89bb 8938 e939 1701 9bbb
00000020: e7a4 c4ba 462e 1dbb 59d4 0fbb 26fe f4bb
00000030: 0000 0000 65c2 f5bb ade4 1ebb 2819 5bbb
00000040: 3006 d2bb 0000 0000 feb9 a9bb a97b c4ba
00000050: 2325 3fbb b9b2 c4ba 73a8 c4ba e987 c4ba
00000060: cf68 36bc eeeb f6bb 4f8c dcbb 6613 6abb
00000070: 40ae 04bc 1c53 cabb 0000 0000 9aa8 4fbb
00000080: 8561 c4ba 978e 8a3b 555f 7abb 3b1c 1cbb
00000090: 7e80 95bb 0000 0000 af27 a1ba 8104 93ba
000000a0: 0000 0000 5235 41bb 76bd c3ba e7f1 35bc
000000b0: 783f c4ba b267 9cbb 62bd efbb 2ee2 89ba
000000c0: 0b92 c4ba fa3a 87bb ac7c c4ba caac c3ba
000000d0: 50ad c4ba eed1 7b39 db21 5dbb 9af9 bcbb
000000e0: 6c6c d73a c149 b538 47aa c4ba 8d16 d7bb
000000f0: 0ca3 a736 d0bc c4ba ed95 2bbc aa13 763a
00000100: 2947 5abb 9433 7cba 3c40 393b 1023 35b8
00000110: 152f dcba 220c 73bb 2fc0 c4ba e5f2 50bc
00000120: 5584 c4ba 0000 0000 fac9 9a3a 989c c4ba
00000130: 9b03 d8bb deae 6dbb 4d27 d8bb 5679 bdbb
00000140: ac7d ea3a b11c edbb bafd ceba 0cac c4ba
00000150: beb8 c3ba 0000 0000 2ec7 bebb 9d83 173b
00000160: acbc ddbb 068f 6bbb a7e9 36bb 4d9e 213c
00000170: cc40 1bbb 6f8e c4ba b9a5 adba 45c4 91b9
00000180: b8d1 cbba 7b31 163c 8a1e 93b9 f237 2bba
00000190: 6707 1fbc 42b5 c4ba f564 05bb a946 aabb
000001a0: a141 26ba 8969 d9bb e968 c4ba 11b4 08bb
000001b0: c039 bbba 8d62 0cbb 9c21 abbb 8747 cbbb
000001c0: a2f3 00bc d2c0 51bb cc72 9a3b 9852 57bb
000001d0: 2bab 46bb 8aec a8ba f232 f8bb ad36 d03b
000001e0: 8b12 47ba a143 d8bb da83 0bbc d98d 10bb
000001f0: 9393 c4ba 0000 0000 d60c 4fb7 677d 9cbb
-0.002666011 -0.0009370781 0.0 0.001275317 -0.0028285722 -0.0041867914 0.00044483345 -0.0047303545
-0.0015002758 -0.002398388 -0.0021946637 -0.007476586 0.0 -0.0074999803 -0.0024245188 -0.0033431742
-0.006409429 0.0 -0.0051796427 -0.0014990467 -0.0029166422 -0.0015006877 -0.0015003815 -0.0014994118
-0.011133387 -0.007535449 -0.0067305933 -0.0035717129 -0.008098185 -0.006174458 0.0 -0.0031686188
-0.0014982676 0.004228424 -0.0038203795 -0.0023820538 -0.0045624366 0.0 -0.0012295152 -0.0011216552
0.0 -0.0029481244 -0.0014933783 -0.011105037 -0.0014972528 -0.0047731036 -0.0073162774 -0.0010519677
-0.0014997137 -0.0041269036 -0.0014990768 -0.0014928814 -0.0015005264 0.0002401543 -0.0033742103 -0.0057670595
0.001643551 8.64449e-05 -0.001500436 -0.0065639676 4.995969e-06 -0.0015009884 -0.010472757 0.00093870854
-0.0033306575 -0.0009620723 0.0028267046 -4.3186417e-05 -0.00167987 -0.003708609 -0.0015010888 -0.012753223
-0.0014993051 0.0 0.0011809461 -0.0015000282 -0.0065922267 -0.003626756 -0.006596482 -0.0057822866
0.0017890236 -0.0072360863 -0.0015792169 -0.0015004887 -0.0014932377 0.0 -0.005822084 0.002311922
-0.006766876 -0.0035943403 -0.0027910264 0.009864402 -0.0023689745 -0.0014996062 -0.0013248242 -0.00027802787
-0.0015550172 0.0091670705 -0.00028060778 -0.0006531469 -0.009706355 -0.0015007632 -0.0020354365 -0.0051964116
-0.0006342177 -0.006634895 -0.0014984879 -0.002085928 -0.0014284179 -0.0021421046 -0.0052225124 -0.006203595
-0.007870587 -0.00320058 0.004713392 -0.0032855626 -0.0030314426 -0.0012887877 -0.0075744325 0.006354174
-0.00075940107 -0.006599859 -0.008515323 -0.0022057204 -0.0014997594 0.0 -1.234115e-05 -0.0047756913

policy_model.2.weight f4 [8, 128]
00000000: f22a 39bb e56b 94bb 158b 763a 5903 a63a
00000010: 2c79 b0bb 268e 12bb 4dc4 b2ba 9f4f 7abb
00000020: 6ae6 97b9 80d3 7fbb 9f42 aabb f334 2dbb
00000030: 6cbc d4b9 87bd 02bb 2af0 9dbb c7ed 86bb
00000040: 1965 83bb 85d2 b23a 1b7c 13bb 1f55 a83a
00000050: 146b 43bb 2cf8 20bb 5ddc 033a d485 49ba
00000060: 8222 413a e36d f2ba a5fe acba ccc7 57bb
00000070: 5084 6bba df4c 92bb 5b15 a43a 5502 41bb
00000080: 916f 98ba a753 6cbb 8271 4fbb 5fc0 bcbb
00000090: 4a1d 75bb ad96 47ba f98c a339 847d 8eba
000000a0: 2761 e5b6 50c9 c3bb bbe8 1aba 9714 8639
000000b0: 668d eaba 769e 74bb ab79 06bb c8a9 88ba
000000c0: c7af ffba f434 57bb eb74 caba 93e2 a4ba
000000d0: 72b1 9f39 9724 99bb 4903 acba 7645 03bb
000000e0: 5999 e5ba c803 8dba 3fb5 b83a 5fc6 7cbb
000000f0: c3ef 01bb 67b0 0bbb 6182 443a 3a50 8fbb
00000100: db36 a2bb 8d85 7dba e23e 92bb 5a9a b1ba
00000110: 8004 ce3a ee49 99bb 0424 f9ba f1c6 baba
00000120: 3530 d8ba 4086 c4b9 3060 6cbb 4cd8 d1ba
00000130: 4129 3cbb fcf8 37bb 3e64 3fbb 8e97 2abb
00000140: 2810 913b 870f 2cbb 32f2 88bb 754d cf3a
00000150: 16f1 cb3a 99b4 d33a 97e9 94bb 1bce e5bb
00000160: cd02 4dbb abe4 c0bb 6735 25ba 2f9b 39bb
00000170: 7d08 afbb bfe2 18bb f3a8 15ba a568 b2bb
00000180: 57ed a03a 2e14 44bb 61c1 b63a 93d8 6c39
00000190: 4d03 46bb 459f 553b 6604 413a 32a8 9fbb
000001a0: 8dcf 50ba 1208 7bbb 0974 7fba 85ff ef3a
000001b0: 2efd 8aba a4e1 c339 c257 07bb 1df5 0ebb
000001c0: f5fc 3bbb 9e9a 43bb 991f a6bb 1f08 89bb
000001d0: 6840 b1bb 076b ad3a a320 f0bb cf20 b93b
000001e0: 3b54 b0bb b25c e03a 7879 39bb ca43 39bb
000001f0: b5e9 84ba 5e7a deb9 95d4 973b f506 00bb
00000200: 7b2d 32bc 8031 35bc a49f 013a 1397 d13a
00000210: d047 21bc 70f9 31bc f619 e2b9 62ae 36bc
00000220: 8738 2e3b 739a 41bc 610e 27bc aee0 0abc
00000230: 628c e3b8 8df0 25bc d169 36bc b0ca 20bc
00000240: 55b8 10bc dc96 523a d867 21bc e7be 973a
00000250: 1714 4dbc ba79 9f3a 6609 ef3a 2e08 873a
00000260: ec68 2abc 217f 02bc d80e 43bc 5e1b 3dbc
00000270: e80f 2cbc e35c 07bc ee1a 81ba 7af9 36bc
00000280: 3368 a5ba 8140 28bc a8db 44bc 95fd 1dbc
00000290: 3c20 1cbc e302 863a 2357 77bc e842 9bb9
000002a0: 20f5 08ba e46a 03bc 29b9 9d3a 1d66 27bc
000002b0: f2ea 903a 7b26 11bc bff8 0bbc a650 393b
000002c0: 0931 a036 93f0 12bc 8a9e d13a b1d0 b8ba
000002d0: 39f4 88ba ec75 20bc 2087 d23a ddfb 17bc
000002e0: 69f2 4bbc 506e 323b 4e87 a2ba 307f 00bc
000002f0: 582e c0ba 3164 b63a 9cc5 34bc 57ad 48bc
00000300: 7493 18bc f10d d83a 68e6 4ebc 754a 64bc
00000310: e052 713b 13de 0cbc acb0 e43a f88d 11bc
00000320: bad7 b73a b37e ccb9 5562 31bc 2661 d73a
00000330: fd01 16bc 44d6 20bc bf91 1dbc 67a9 2ebc
00000340: 07c8 85bb cab7 08bc 6497 1ebc 64c6 213b
00000350: f8de 773a 0b93 1cb9 a914 00bc e74f 01bc
00000360: 91b5 1abc 50bd 26bc f078 a03a 4805 45bc
00000370: e199 08bc 0467 0eba f454 22bb f117 12bc
00000380: c227 ab3a edc2 6ebc 2299 b939 b16f ad39
00000390: 4a8f 11bc a107 f93a 1a7d 6f3a b68c 11bc
000003a0: 38a8 aa39 9a72 12bc ec08 e53a 9ab2 403b
000003b0: 776f 07ba b28a 3939 5e6a 46bc 2e47 1fbc
000003c0: f147 0dbc 3c49 2bbc 3576 5d3b 8ba6 30bc
000003d0: 5ca4 1ebc 87f1 d73a 2923 853b 00e0 29bb
000003e0: 8f41 36bc c4ae 77bb a9f7 05bc da25 2fbc
000003f0: e253 fd3a 3dda 50b8 ebe2 123b f23e 35bc
-0.0028254357 -0.0045294636 0.000940488 0.0012665793 -0.0053855386 -0.002236256 -0.0013638824 -0.003819443
-0.00028972636 -0.0039035976 -0.00519593 -0.0026429265 -0.00040576176 -0.0019949393 -0.0048198896 -0.0041177007
-0.0040098545 0.0013643062 -0.0022504393 0.0012842751 -0.0029818462 -0.0024561984 0.000503009 -0.00076874834
0.0007367508 -0.0018495884 -0.0013198449 -0.0032925485 -0.00089842547 -0.00446473 0.0012518571 -0.0029450853
-0.0011629929 -0.0036060603 -0.003165335 -0.005760237 -0.003740149 -0.00076137 0.00031194816 -0.0010871147
-6.836042e-06 -0.005974926 -0.00059093133 0.00025573812 -0.0017894923 -0.0037325895 -0.0020519297 -0.0010426575
-0.0019507342 -0.003283796 -0.0015446221 -0.0012579731 0.0003045905 -0.0046735513 -0.0013123538 -0.0020030416
-0.0017517015 -0.0010758573 0.0014092101 -0.0038570387 -0.0019826747 -0.002131486 0.00074962346 -0.0043735774
-0.004950387 -0.00096710847 -0.0044630626 -0.0013550029 0.0015717894 -0.0046780026 -0.0019007926 -0.0014249963
-0.0016493859 -0.00037484057 -0.0036068074 -0.0016009896 -0.0028711113 -0.002807199 -0.0029204036 -0.0026030275
0.004426975 -0.0026254372 -0.0041792626 0.0015815931 0.001555952 0.0016151845 -0.0045444476 -0.007013095
-0.0031282187 -0.0058866343 -0.0006302208 -0.0028321256 -0.005341588 -0.002332851 -0.00057090743 -0.0054446035
0.0012277764 -0.0029919255 0.001394313 0.00022587394 -0.003021437 0.0032596153 0.0007363021 -0.0048723454
-0.0007965498 -0.003830437 -0.00097447686 0.0018310404 -0.0010604018 0.00037361414 -0.0020651673 -0.002181358
-0.002868471 -0.0029846798 -0.0050696847 -0.0041818763 -0.005409289 0.0013230749 -0.0073281094 0.005649663
-0.005381135 0.0017117469 -0.002830116 -0.0028269165 -0.0010140451 -0.0004243431 0.004633496 -0.0019535397
-0.010875101 -0.011059165 0.0004944748 0.0015990458 -0.009843782 -0.010862693 -0.00043125422 -0.011149975
0.0026583986 -0.011816609 -0.010196299 -0.008476419 -0.00010850352 -0.010128153 -0.011133627 -0.0098139495
-0.008833011 0.0008033344 -0.009851418 0.0011577279 -0.012516997 0.0012167015 0.0018237054 0.001030212
-0.010400992 -0.00796488 -0.0119053945 -0.011542169 -0.010501839 -0.008261892 -0.0009849945 -0.011167878
-0.0012619555 -0.010269285 -0.012015261 -0.009642978 -0.00952917 0.0010224249 -0.015096459 -0.00029613753
-0.0005224515 -0.00802109 0.0012033331 -0.010217217 0.0011056347 -0.008859272 -0.008543192 0.002827683
4.77408e-06 -0.00896849 0.0015992683 -0.0014100281 -0.0010448761 -0.00979374 0.0016061999 -0.0092763575
-0.012447932 0.0027226396 -0.0012399943 -0.007842824 -0.0014662249 0.0013915357 -0.011033442 -0.012248359
-0.009312499 0.0016483647 -0.012628175 -0.013933768 0.003682308 -0.0085978685 0.0017447672 -0.008883946
0.0014026084 -0.0003900431 -0.010826667 0.0016432151 -0.0091557475 -0.00981671 -0.009617268 -0.010660506
-0.004082683 -0.0083446 -0.009679649 0.00246849 0.0009455527 -0.00014932097 -0.007817426 -0.007892585
-0.009442703 -0.010176972 0.0012243073 -0.012025185 -0.008337469 -0.00054322206 -0.0024769874 -0.008916841
0.0013058113 -0.014572841 0.00035400043 0.00033080348 -0.00888426 0.0018999466 0.0009135768 -0.008883646
0.0003255026 -0.008938456 0.0017473972 0.002940333 -0.0005166451 0.00017694643 -0.012110321 -0.00972156
-0.008623109 -0.010454472 0.003379238 -0.010781894 -0.009682741 0.0016475179 0.0040630293 -0.0025920868
-0.011124029 -0.0037793377 -0.008176723 -0.010690177 0.0019327367 -4.9794315e-05 0.0022413086 -0.011062371

policy_model.2.bias f4 [8]
00000000: 04c8 9fbb 0af5 91bb deee 2cbb b2e0 3139
00000010: 80ae f43b 38f2 9cbb 27c2 b33b b365 323b
-0.0048761386 -0.0044542598 -0.0026387493 0.00016963741 0.007467091 -0.004789617 0.0054857912 0.0027221262
