results/short_race/second_iteration_training_batch_size_150/model9.pt (torch, 275307 bytes, 13 tensors)

features_model.0.weight f4 [128, 4]
000000 ee 3e 49 3e fb 1b d0 bd 95 d2 31 bd 90 d6 d6 3b
       0.19652912 -0.10161587 -0.043413717 0.0065563396
000010 bb ba c1 3d f6 e5 80 3d e6 cd 7f be e5 45 c6 3c
       0.09459444 0.062938616 -0.24980888 0.02420325
000020 5e b7 47 bb 67 35 9a 3d 08 86 82 be fe 00 88 bd
       -0.0030474286 0.07529717 -0.25492883 -0.06640814
000030 0f 8a 23 3e 40 61 73 3e de d5 88 3d e1 c7 31 3e
       0.15970634 0.23767567 0.06681417 0.17361404
000040 5d aa 48 be 73 ad 12 be 6f 71 e8 bd 88 f8 a5 bd
       -0.19596238 -0.14323978 -0.11349761 -0.08104044
000050 ed ff 17 3d be 52 b8 3d f6 cc 62 3d 6d 1e 93 3d
       0.037109304 0.09000157 0.055371247 0.07183538
000060 6e 22 af bd fb e6 97 3d 21 77 d1 3c 99 ce 90 bd
       -0.08551489 0.07417103 0.0255695 -0.070706554
000070 f4 8f 03 bd 16 70 d5 bc cb c5 07 3e cf 0b e4 3d
       -0.032119706 -0.026054423 0.13259046 0.11135065
000080 9c cd f8 3c 29 16 2b be 66 6c 36 3e 2b e0 f6 bd
       0.03037148 -0.16707672 0.17814788 -0.120544754
000090 5b 69 95 3d 68 23 3d 3e f8 3c de bd 06 9b f9 bc
       0.072954856 0.18470538 -0.108514726 -0.030469429
0000a0 22 f0 b4 bd 4b 1d 32 be 2a cc a4 3d a9 7e d5 bc
       -0.08834864 -0.17393987 0.08046754 -0.026061373
0000b0 75 fa 36 3e bc 7f 46 be c0 ef a2 be 25 79 66 3d
       0.1786898 -0.19384664 -0.3182354 0.056267876
0000c0 cf 71 02 be 4f 5f 5e 3d f1 7d b3 3d 8b a4 1a be
       -0.12738727 0.054290112 0.08764256 -0.1510183
0000d0 7c 5d 42 be 93 b4 ef bd 20 b9 78 3e 77 55 51 3b
       -0.18980974 -0.11704364 0.2428937 0.003194181
0000e0 f1 a3 3d be ac f3 05 3e 3e bd 05 bd 2f d9 15 bd
       -0.1851957 0.13081235 -0.03265118 -0.036584076
0000f0 dd 04 c7 bd 75 7b df bd ce 77 2a be 9a 59 9d 3c
       -0.097177245 -0.109122194 -0.16647264 0.019207764
000100 6a 1f 6c bc 9b bd ff bd 3d 81 46 be a0 d1 37 be
       -0.014411787 -0.12487336 -0.19385238 -0.1795106
000110 2a 30 4b bd 4d 53 d6 bd 1e 9b 17 3e 59 72 e8 3c
       -0.04960648 -0.10465107 0.14805266 0.028374838
000120 70 92 4e bd 27 0f 7e be bb 13 76 bd c9 14 01 be
       -0.050432622 -0.24810468 -0.06007741 -0.12605585
000130 f0 51 0b bc dc 1e 30 be c8 e8 17 be 85 48 02 3e
       -0.008503422 -0.17199272 -0.14834893 0.12722977
000140 13 f0 b9 3d b1 2a 3f be e4 1d 8d 3d 60 9a 23 bd
       0.09078994 -0.18668629 0.06890467 -0.039942145
000150 0c ba c8 3d a6 31 0d be a6 52 b0 3b af 8a 16 3d
       0.098011106 -0.1378847 0.005380946 0.036753353
000160 7c 16 00 be 14 c7 bc 3c c8 36 19 bb e8 37 4a 3e
       -0.12508577 0.023044147 -0.00233786 0.19747889
000170 2e 40 a2 3d 19 d7 11 bd 7e ec 05 38 f8 07 dd 3c
       0.079223976 -0.035605524 3.192992e-05 0.026981339
000180 c7 90 ae bd df d2 13 be 3e 9b 42 3e 0a 0f ae be
       -0.08523708 -0.1443591 0.19004533 -0.3399585
000190 66 39 88 3d 7f 2f c2 bd 39 37 f9 3c 00 d3 81 3d
       0.06651573 -0.094817154 0.03042184 0.06339073
0001a0 3b 9b 30 bd 0f d4 df 3d 6c 11 cb ba 6f ff 05 be
       -0.04311679 0.10929119 -0.0015492863 -0.13085721
0001b0 3a c1 27 be a4 98 6f 3c 33 49 22 bc d5 80 02 3e
       -0.16382304 0.014623795 -0.009905147 0.12744458
0001c0 29 28 4a 3e dc cf c7 bc a1 9c 66 3e 20 b9 f5 3d
       0.19741882 -0.024391107 0.22520687 0.119982004
0001d0 03 51 90 bc 7c a7 46 3e 63 91 8e 3c c1 1c 4a 3d
       -0.017616754 0.19399828 0.01740331 0.049343828
0001e0 d3 10 94 be 46 63 8f 3c 22 c7 2e 3d 98 b8 a8 bd
       -0.28919086 0.017503392 0.042670377 -0.082383335
0001f0 1a f2 c5 bd ac c8 10 3c ad 80 18 3e 85 58 3a be
       -0.09665318 0.008836906 0.14892836 -0.1819783
000200 bd 44 46 be 6e a8 04 3e f1 6f 0b 3e 70 71 82 3b
       -0.19362159 0.12954876 0.13616921 0.003980808
000210 61 fd 14 3c cc e7 ac 3d 6b b9 84 bb 9e 27 6e 3d
       0.009093613 0.08442649 -0.004050424 0.05814325
000220 98 73 0a 3d 88 d8 80 bd 2e c4 69 3d 2e ed 1c 3e
       0.033801645 -0.062913 0.057071857 0.15324852
000230 6a 88 ca 3c 14 61 b5 3c 51 77 03 be c8 0c c3 bd
       0.02472325 0.022141017 -0.12838484 -0.09523922
000240 05 4c 9d bc 0f 8a 46 be f4 95 26 3e f7 30 3c 3e
       -0.019201288 -0.19388603 0.1626814 0.18378054
000250 c6 72 0d bc e1 b8 6c 3d 73 cf 87 3a 92 5e 97 be
       -0.008633321 0.0577935 0.0010361507 -0.2956434
000260 bf 4e b6 3c 7c af 8a 3d e6 32 97 3d 2a 5a 80 3d
       0.022254346 0.06771752 0.07382755 0.062671974
000270 9f 6c 39 bc 22 56 e6 3b a6 00 56 3e f0 85 fe 3d
       -0.011317401 0.007029311 0.20898685 0.1242789
000280 ca 57 92 3d 15 bd 8c 3d 23 3c 6a bd 05 33 66 be
       0.07145651 0.06872002 -0.057186257 -0.224804
000290 ff 7c 2f bc fb f3 8f 3c 06 96 c9 3d 10 7f 56 3e
       -0.010710954 0.017572394 0.09843068 0.20946908
0002a0 c6 16 85 3d ce f9 7f bd e6 2d 4e 3d 2f 94 f0 3c
       0.06498484 -0.06249409 0.05033674 0.029367534
0002b0 37 e0 a9 3d d3 64 ab bb 38 2b f5 bd 5d 82 10 be
       0.08294719 -0.005230525 -0.11971134 -0.1411223
0002c0 e4 65 df bb da 55 d5 bc d3 ea ac bc 30 7e 52 ba
       -0.006817566 -0.026041914 -0.021108067 -0.00080296677
0002d0 c9 91 a6 bd 78 ad 29 3e 83 59 26 3d f5 37 53 3e
       -0.08133275 0.1657008 0.04061271 0.20626815
0002e0 aa 22 65 bd 01 79 2f 3e 19 1e df 3c 22 74 04 be
       -0.05594126 0.17136003 0.027236031 -0.12934926
0002f0 56 93 0e bb 2f 7c 07 bd 79 f2 b0 bd a4 9c 55 3d
       -0.00217553 -0.033077415 -0.08639998 0.052151337
000300 e1 88 88 be e2 03 27 be 86 23 f3 3d e1 24 49 3e
       -0.2666693 -0.16310075 0.1187201 0.19642974
000310 6d 47 c3 3c eb 2c 4d 3e 10 ec 37 3d 1d 1c 81 3b
       0.02383777 0.20036666 0.04490286 0.003940119
000320 b8 04 f9 3d 18 1e bf bc d9 f7 94 3d 7e 0d d1 3d
       0.12159103 -0.02332978 0.07273836 0.102076516
000330 f0 a9 0c 3b 7e 54 5e 3e 86 54 bf bd 2d 7d 69 bb
       0.0021463595 0.21711919 -0.093422934 -0.003562759
000340 d6 bf 31 3b d9 fd 13 be b2 f4 39 3e 10 b2 08 be
       0.00271224 -0.14452304 0.1815975 -0.13349175
000350 28 96 92 3d ec 08 cd bc b5 1a 6f 3e a6 8e 65 3e
       0.07157546 -0.025028668 0.23350032 0.22417697
000360 ae a9 c7 3c ba 29 b3 be 77 8c 5b 3d a9 36 86 3b
       0.024372902 -0.34992772 0.053600755 0.0040958715
000370 e9 93 2a bd 40 c2 0c be 8f 9d 3a be 60 c5 8d bd
       -0.041644964 -0.13745975 -0.18224166 -0.06922412
000380 fe 47 65 3e 11 51 9c 3d df 24 6e 3d 77 6c c9 bd
       0.22390744 0.0763265 0.05814063 -0.09835141
000390 3b 10 00 bd bf f2 84 bd c4 53 09 3e 55 d1 e3 bd
       -0.03126548 -0.06491613 0.1341086 -0.11123911
0003a0 69 cc 14 3e 1b 64 23 3d 57 82 57 bd 01 e8 e6 3c
       0.14531101 0.03989039 -0.052614536 0.0281868
0003b0 2b ca d2 bd 80 ab 91 bd 74 70 ba 3d df cb 00 3e
       -0.10292467 -0.07112789 0.0910348 0.1257777
0003c0 a9 4c 62 bc dd 1c 6f bd cc d4 ea bd 7c 22 bc bd
       -0.0138122225 -0.058377136 -0.11466369 -0.09186265
0003d0 f9 59 66 bd 6a 58 3b be 10 02 8a bd 43 c0 9d 3d
       -0.05623815 -0.18295446 -0.06738675 0.07702687
0003e0 bc ab 85 3e 48 71 ad 3d c5 4c a0 bd 1e 42 b9 bc
       0.26107585 0.08468872 -0.078271426 -0.022614535
0003f0 6a bd 10 3e 02 a1 d2 bb 16 22 8b 3d 9d 73 e5 bd
       0.14134756 -0.006427885 0.06793611 -0.11203692

features_model.0.bias f4 [128]
000000 c5 01 28 ba fa e7 5b ba a5 8c a6 bb 01 fc d1 ba
       -0.0006408955 -0.0008388754 -0.005082684 -0.0016020538
000010 a7 c9 13 3a 1e 3a f0 b8 3d 56 4e 3b 8b d9 11 ba
       0.00056376535 -0.00011454917 0.0031484507 -0.00055637275
000020 6e 7c 52 39 a9 d6 da 3a 3f e5 a6 3b 00 ab 0f ba
       0.00020073514 0.0016696054 0.005093246 -0.0005480498
000030 c4 05 f9 ba f4 02 8e ba 62 6d 24 3b f2 33 2e ba
       -0.0018998911 -0.001083462 0.0025089611 -0.00066453137
000040 0f 67 0a bb fc fa a9 3a a1 5c 65 3b 6c e4 1a ba
       -0.0021118557 0.0012968476 0.0034997838 -0.00059086713
000050 8e a4 d9 ba ce 27 7a b9 32 39 d4 3a 87 89 2d ba
       -0.0016604827 -0.00023856686 0.0016191362 -0.00066199194
000060 db df 71 39 80 2e bf ba 0e 49 85 3b 5b 31 17 bb
       0.00023066944 -0.0014586002 0.0040675467 -0.002307019
000070 a8 90 cb b9 15 51 7f 3b 22 66 29 bb ac cd b8 ba
       -0.00038826955 0.003895824 -0.002584823 -0.0014099381
000080 da e9 ec ba 9c 0e 35 bb cb 9b a2 b8 fa 02 75 ba
       -0.0018075064 -0.0027627116 -7.753781e-05 -0.0009346452
000090 eb a0 35 bb 83 ae 9b bb c4 9b 3a bb b6 6a 19 39
       -0.0027714323 -0.004751028 -0.0028474191 0.0001463097
0000a0 6f 4d b5 ba 87 7c 83 3a 2f 46 3e ba 27 0a 95 ba
       -0.0013832281 0.0010031619 -0.0007258383 -0.0011370823
0000b0 bb a8 10 bb c1 ce 0d bb 6e 38 b2 ba b2 7e 1f ba
       -0.0022073227 -0.0021638128 -0.001359714 -0.0006084248
0000c0 ba a2 75 39 41 05 11 bb 29 4a a6 ba 00 c1 f0 ba
       0.00023425641 -0.0022128376 -0.0012686896 -0.0018368065
0000d0 3f 5a ab ba 58 49 f6 b9 5e 2f 16 b9 57 76 bb 39
       -0.001307316 -0.00046975422 -0.0001432276 0.0003575559
0000e0 2a e4 9d ba f4 47 b4 3a 7f bb 6f ba 9a a8 13 3a
       -0.0012046148 0.0013754354 -0.00091450656 0.00056327286
0000f0 1b 09 59 bb 4a 5a 2e 3a 26 b7 1f ba 3b ca d1 3a
       -0.0033117 0.00066510274 -0.000609266 0.0016005704
000100 90 76 a8 b9 17 f1 66 bb 61 dc b4 3a 92 1f ec ba
       -0.00032131793 -0.0035238916 0.0013798588 -0.001801478
000110 51 ac 1a ba 5e 86 3a bb f5 3b 41 bb de f4 6e ba
       -0.0005900311 -0.0028461437 -0.00294852 -0.00091154675
000120 94 2b 8d bb 88 42 96 ba 4e 15 63 39 ee 3b c4 3a
       -0.0043081734 -0.001146392 0.00021656344 0.0014971474
000130 03 db 20 39 a2 e6 b2 3a 9e d5 3b bb 55 22 8d 3a
       0.00015340377 0.0013649056 -0.0028661261 0.0010767678
000140 6e ba ca ba b9 f3 2a 3a 4c c9 6c ba b0 e3 ab ba
       -0.0015466937 0.0006521303 -0.0009032681 -0.0013114121
000150 30 98 6b ba f1 a3 ce bb 8a f4 9c ba 97 71 65 bb
       -0.0008987216 -0.0063061644 -0.0011974734 -0.0035010332
000160 50 bc 27 38 3f 6f a9 b9 ab 6d a4 ba 94 d2 af b9
       3.9991282e-05 -0.00032317077 -0.0012544891 -0.00033535494
000170 04 30 df ba d9 30 ba ba da 6d 2a bb 29 1f 34 bb
       -0.001702786 -0.0014205232 -0.0026005418 -0.0027484393
000180 ab 4e b1 ba 06 18 0a ba 04 ad 5d ba 4f 9a 65 b9
       -0.0013527473 -0.0005267862 -0.00084562623 -0.00021896626
000190 59 b4 a1 bb e7 c7 5f ba 3d 2b 99 ba d7 75 04 bb
       -0.004934829 -0.00085365627 -0.001168586 -0.002021184
0001a0 5d 24 b2 bb dd 37 6b ba 33 7d b3 ba 20 0f ff ba
       -0.0054364637 -0.0008972863 -0.0013693928 -0.0019459464
0001b0 94 b6 eb ba e3 19 10 3a 1c 65 02 bb 29 65 1a 3b
       -0.001798349 0.00054970215 -0.0019896692 0.0023558831
0001c0 52 99 a6 ba b5 0f 83 ba 1f 4c 93 bb 33 9e c5 ba
       -0.0012710488 -0.0009999188 -0.0044951583 -0.0015077054
0001d0 c7 d6 7c bb cf 0a e7 ba 14 ea 50 3a 78 65 8d ba
       -0.0038580166 -0.0017627123 0.00079694507 -0.0010787686
0001e0 bd b5 da ba 03 d4 4a ba 4b 03 7d bb 2d 5c 6d b9
       -0.0016686242 -0.00077372807 -0.00386067 -0.0002263642
0001f0 2b fa 82 3b f4 45 e7 39 9f 7f be 3a 19 16 89 ba
       0.0039971075 0.00044111873 0.0014533884 -0.0010458856

features_model.2.weight f4 [128, 128]
000000 39 a3 81 3d f7 eb 80 bd c4 a4 07 bc 41 0a 19 bd
       0.063299604 -0.06295007 -0.008279029 -0.037363295
000010 86 74 08 3d d3 95 68 3e 26 17 2b 3c 4f 8f c1 3d
       0.03331425 0.22713403 0.010442531 0.09451162
000020 f8 95 87 bd a8 27 36 be f3 4a 23 3d 68 6c d3 bd
       -0.06620401 -0.17788565 0.0398664 -0.10323411
000030 a2 de 2e 3e 1e 90 db bd fd 7c 45 bd b9 c4 7b 3d
       0.17077115 -0.107208475 -0.0482149 0.061466906
000040 19 dd a7 bd 7c c1 e7 3d 1d b7 0d be 70 12 2f 3e
       -0.08196468 0.11316201 -0.13839383 0.17096877
000050 33 f5 db 3d ef 29 b0 3d 30 3e 3e 3e c5 a7 39 bd
       0.107401274 0.08601748 0.1857841 -0.045326013
000060 20 54 80 3d d7 01 64 be b6 d1 32 bc bb 9f ee bc
       0.062660456 -0.22266327 -0.010914257 -0.0291289
000070 8d 72 91 3d 67 53 c0 3d c4 71 27 bc 5b 3e 93 3e
       0.07101927 0.09390908 -0.010219995 0.2875851
000080 c5 b5 47 3e ac a5 48 be 1f 05 03 3e 35 12 0e be
       0.19502933 -0.19594449 0.12794922 -0.13874133
000090 dd de 2a bd 9a c6 58 bc 3f 7e 63 3c 64 28 3c be
       -0.041716445 -0.013230944 0.01388508 -0.18374783
0000a0 5a 52 41 be 0d de 91 bd c7 c8 33 bd c0 b6 8e bc
       -0.18879071 -0.07122431 -0.043892648 -0.017421126
0000b0 88 e3 f1 3b 7e 6f d9 3d 83 fd 01 be 6f b9 94 be
       0.00738186 0.106169686 -0.12694363 -0.29047725
0000c0 71 c6 87 bd ba 8e 3a 3e 3f f1 27 be 1a 4d d7 bd
       -0.066296466 0.18218508 -0.16400622 -0.10512753
0000d0 55 2a 7a bd ac 7d 37 3e 8b 84 a2 bd be 9f 04 3e
       -0.061075527 0.17919034 -0.07935437 0.12951562
0000e0 dd 6b 0b bc 39 f5 ae bd a7 83 d3 3a fe 31 e1 3d
       -0.008509603 -0.08542866 0.0016137258 0.109958634
0000f0 94 6b 59 3e b3 50 b7 3d b3 1a 3e bd 23 ef 4d 3e
       0.21232444 0.08950939 -0.04641218 0.20110755
000100 cd e1 09 3e f5 f1 ff 3d bd b3 fd 3d ff 47 f9 bc
       0.13465042 0.124973215 0.12387798 -0.030429838
000110 44 1e 00 bd ab 63 8d 3a 1a ad a1 3c cc ce 3a bd
       -0.031278864 0.001078715 0.019735862 -0.045607373
000120 1c 55 1b be 5b b6 e3 3d cb 1c a8 3e 0b ec c3 3c
       -0.15169185 0.11118766 0.32834467 0.023916265
000130 36 cc 72 bd 4d 1e 4c be 6c f6 b4 bc 91 18 83 bd
       -0.059276782 -0.19933434 -0.02209016 -0.0640117
000140 30 ab 22 3d 64 f0 1d 3c 11 e7 25 be 84 04 50 3e
       0.03971404 0.009639833 -0.16201426 0.20314223
000150 48 fb 05 3e dd b6 86 3e 42 ed 02 bd 74 d5 8a 3d
       0.13084137 0.2631139 -0.031964548 0.06778994
000160 b7 26 3e be 22 6b f3 bd ef 53 e3 bd 76 93 de 3d
       -0.18569456 -0.11885668 -0.110999934 0.1086797
000170 cb 55 ac 3d 73 40 36 be d3 d4 46 3d e0 54 86 bc
       0.08414801 -0.17798023 0.04854281 -0.016397893
000180 be 42 81 be 85 ca 03 3e 5c e4 ce 3d d4 40 04 be
       -0.25246233 0.12870224 0.1010215 -0.12915355
000190 b7 18 f0 bd 2a b7 1c be 57 f0 17 be 72 76 0e bc
       -0.11723464 -0.15304247 -0.14837776 -0.008695232
0001a0 28 7b 51 be 9b b9 c3 3d 17 dd 4c be 80 e1 4c bd
       -0.20457137 0.09556886 -0.20006214 -0.05001974
0001b0 4d 1f 58 3d e6 10 53 3d 70 a3 0f 3e 49 65 39 3c
       0.052764226 0.051529787 0.1402719 0.011315652
0001c0 83 5b 0d 3e 36 d9 32 be d9 db 1a 3e 49 d7 49 3d
       0.1380444 -0.17465672 0.15122928 0.049277578
0001d0 48 11 89 bd 92 28 28 be a0 8c 00 bd 9c 1e e5 3c
       -0.06692749 -0.16421726 -0.03138411 0.027968697
0001e0 cb 2f 18 bd a8 dc 99 bb e0 db db bc 11 5b 48 be
       -0.037154954 -0.0046954937 -0.026838243 -0.19565989
0001f0 10 35 38 3c 7c b5 4f 3e fa dc 18 3d 2e 10 c0 bd
       0.01124312 0.20284075 0.037320115 -0.09378086
000200 46 4f 65 bd 94 5e f6 bd 16 23 4b bd 6b 75 d0 3d
       -0.055983804 -0.12029758 -0.049594007 0.10178646
000210 17 ee c5 bd b1 ae c8 bd 7e 85 41 3e 23 73 74 3c
       -0.09664553 -0.09798945 0.1889858 0.014920029
000220 05 b1 59 be 09 dd 1a 3d 37 cf cd 3d 00 93 ef 3c
       -0.21258934 0.03780845 0.10049289 0.0292449
000230 c6 fa 00 3e 85 3d 2e be 9e 71 b6 3b fb 3f 5a 3e
       0.12595662 -0.17015655 0.0055677434 0.21313469
000240 13 dd d8 bc 70 6e 48 be db 62 7b 3d 52 df 2c 3e
       -0.026472604 -0.19573379 0.061373573 0.16882065
000250 cb 67 e9 3c ec 6a 3f 3d 64 21 22 3e 27 bb 93 3c
       0.028491875 0.046732828 0.1583305 0.018033577
000260 19 89 12 3e 60 7a 08 3e d8 98 82 bc 39 37 a9 3d
       0.14310111 0.13327932 -0.015942022 0.08262486
000270 d4 c9 0b 3d d4 d4 eb 3d 08 de 4b be d6 06 f1 bd
       0.034128025 0.11515203 -0.19908917 -0.11768882
000280 17 61 c4 3d 20 b0 e0 bd 72 bf 83 bb a2 0e 02 3e
       0.09588831 -0.10971093 -0.004020625 0.12700894
000290 e5 2a f5 3c 13 3a 4b bd 46 ec 42 3e e2 54 f5 bd
       0.02992768 -0.04961593 0.19035444 -0.11979081
0002a0 c0 00 94 3d c0 b2 44 bd 27 0c 5d be cc 82 e8 bd
       0.072267056 -0.04802203 -0.21586667 -0.113530725
0002b0 5f 49 61 3d 23 4d 2d 3e a2 43 00 be 08 98 07 3e
       0.055001613 0.16923957 -0.125258 0.13241589
0002c0 00 38 db bd 68 18 0a be 4b f0 b6 3d 58 f1 61 be
       -0.107040405 -0.13485873 0.08932551 -0.22064722
0002d0 3f a1 19 be 70 af 33 3e a4 8a c0 bd a2 6a 2c 3e
       -0.15002917 0.17547393 -0.094014436 0.16837552
0002e0 ed 01 02 bd 5e 2e 26 be 75 99 2d 3e 8b 53 4b be
       -0.031740118 -0.16228625 0.1695307 -0.19856088
0002f0 06 f8 80 be 25 ad 84 bd 0f 9b 75 be a3 b9 f3 3d
       -0.25189227 -0.06478337 -0.23984931 0.11900642
000300 1c a2 0b 3e 7b cd a0 bd f5 08 f0 3d 30 2a 1b 3e
       0.13636059 -0.07851692 0.117204584 0.15152812
000310 55 71 5a 3a 4c db 1b 3e 6a 2d eb 3d 53 ae 4c be
       0.0008332928 0.15220374 0.114832714 -0.19988374
000320 c1 c5 13 3e de 6e f6 3c cd e9 f6 3a 4a 8d 12 be
       0.14430906 0.030082162 0.0018837989 -0.1431171
000330 8b 2d 05 3b b4 bf 66 3e e7 0a 42 3e d6 49 15 3e
       0.0020321335 0.22534066 0.18949471 0.14578947
000340 02 b6 4a bd 11 fe 51 bd 41 12 48 3e 54 2c b6 3b
       -0.049489982 -0.051267687 0.19538213 0.0055594835
000350 c1 9a be 3d 37 d4 80 bd 19 be dc 3c 22 15 8b 3d
       0.09306861 -0.06290477 0.026946114 0.0679114
000360 3e 50 eb 3d 31 29 2b 3d f7 a8 11 be 8a e2 18 be
       0.11489914 0.04178733 -0.14224611 -0.14930168
000370 a7 bf 90 be 63 b4 0b be b0 4d bd bd 89 aa 41 3d
       -0.2827122 -0.13643031 -0.09243333 0.047281776
000380 18 9c 4a 3c 4b 39 81 bc 63 11 05 be 50 e2 0a 3d
       0.012366317 -0.01577439 -0.12994914 0.033907235
000390 83 98 0c bd 28 65 39 be 55 16 7d 3e b1 44 f0 3b
       -0.034325134 -0.18104994 0.2471555 0.0073324074
0003a0 08 53 99 bc 55 d5 5b 3e 59 6a 20 3d ec a1 95 3d
       -0.01871635 0.21468098 0.03916392 0.07306275
0003b0 18 31 c2 3d df 54 90 bc 28 dc bb 3d 32 0b d6 3b
       0.0948202 -0.017618595 0.09172851 0.0065320963
0003c0 e6 de a7 3d a7 fa 97 bd d7 59 dc bc 17 8b 95 3c
       0.081968114 -0.07420855 -0.026898308 0.0182548
0003d0 77 fc 53 bd 70 4a d5 3d 74 22 a4 bd a2 c5 39 3e
       -0.05175444 0.104145885 -0.08014384 0.18141797
0003e0 5e 8a ce 3d 24 ca 9e bd 23 eb 30 3e 55 d6 1c be
       0.10084985 -0.07753399 0.17277198 -0.15316136
0003f0 b0 0e 74 be 29 59 b9 bd f9 70 b8 3d a1 5b e6 3d
       -0.23833728 -0.09050209 0.09005923 0.112479456

features_model.2.bias f4 [128]
000000 b2 88 e6 b9 fa 17 e6 ba 2c 5b a8 3b 83 71 a4 ba
       -0.00043970864 -0.0017554753 0.0051378217 -0.0012546036
000010 ca f1 99 38 e1 14 4a ba f8 4c 97 b9 45 33 78 ba
       7.340645e-05 -0.00077087997 -0.0002885831 -0.0009468089
000020 b8 4d 92 bb d4 4b 0f 3a bb cb 84 3b df 94 45 bb
       -0.004464831 0.00054663164 0.004052607 -0.0030148549
000030 f7 db d5 3a d7 73 6d ba 11 7b f9 39 e4 e7 86 ba
       0.0016316165 -0.0009058094 0.00047584673 -0.0010292497
000040 b4 ba 38 b9 bb fb e4 b9 46 ae e7 ba 3e 51 a4 ba
       -0.0001761716 -0.00043675103 -0.0017675839 -0.0012536419
000050 e4 cb b7 ba 5e d0 0f ba 00 00 00 00 70 31 02 ba
       -0.0014022556 -0.0005486066 0.0 -0.0004966473
000060 25 07 c7 ba 7f 9f 45 3b 5c e5 89 ba 00 00 00 00
       -0.0015184624 0.0030154882 -0.0010520625 0.0
000070 cb fb f5 b8 49 05 b5 ba ee e1 1c ba b6 c7 fa ba
       -0.000117294105 -0.0013810779 -0.0005984594 -0.0019133005
000080 74 da 73 ba 89 77 cd b9 a4 c0 db b9 86 44 93 39
       -0.00093022664 -0.00039189708 -0.00041914464 0.0002808908
000090 a0 86 35 3b 33 9f 8a 38 a4 34 d8 b8 35 bc f8 ba
       0.002769865 6.610006e-05 -0.00010309488 -0.0018976989
0000a0 e5 45 93 ba 65 df 30 39 2c d3 91 ba 43 ff 05 3a
       -0.001123604 0.00016867889 -0.0011125556 0.00051115843
0000b0 ac 5c 14 bb 6f 5f 56 3b 15 f7 8f ba 57 9b 8e ba
       -0.0022638245 0.0032710691 -0.001098367 -0.0010880035
0000c0 10 64 6b b6 0b 54 31 3a 83 da 15 ba a4 f0 9e 3a
       -3.5075973e-06 0.00067645375 -0.000571646 0.001212616
0000d0 94 bc 71 3b e0 6f 1b ba 00 00 00 00 eb c3 83 ba
       0.0036886083 -0.00059294514 0.0 -0.0010052895
0000e0 4c 9f c4 ba c7 0a a0 b9 76 ef e4 38 72 a9 25 3a
       -0.0015001087 -0.00030525608 0.0001091649 0.00063195
0000f0 a6 f0 87 ba 2d 86 98 ba 7c 6e 7f 3b 89 e1 c1 38
       -0.0010371401 -0.0011636667 0.0038975766 9.244966e-05
000100 4e 1d a8 ba 6d 90 31 3b de 08 73 bb 00 00 00 00
       -0.0012826116 0.002709414 -0.0037084143 0.0
000110 6c 21 cb b9 51 75 bb ba 1e cf e9 3a 5d c3 b4 ba
       -0.00038744078 -0.0014301931 0.0017838215 -0.0013791133
000120 36 b0 c7 ba 23 47 a2 ba 70 a2 bb ba b3 43 e0 3a
       -0.001523501 -0.001238082 -0.0014315378 0.001711002
000130 36 c8 9a b9 2b ed 53 ba ed 52 ba ba 58 3f a9 ba
       -0.00029522338 -0.0008084352 -0.0014215388 -0.0012912555
000140 64 c4 36 ba cf 11 4e 3b d8 40 06 ba 7c a9 02 ba
       -0.00069720135 0.003144372 -0.0005121357 -0.00049843616
000150 00 00 00 00 10 35 46 bb db 17 13 39 69 bd 3e ba
       0.0 -0.003024403 0.000140279 -0.0007276149
000160 15 6e a7 3a 1a 5c d2 ba 69 7c a6 ba 1f b1 ac ba
       0.0012773896 -0.0016049177 -0.0012701872 -0.0013175345
000170 5b ca 03 3b 00 d0 73 bb 29 6a 84 ba 51 10 94 ba
       0.0020109627 -0.0037202835 -0.0010102439 -0.0011296367
000180 1f 42 92 3b e9 ec c7 ba 07 6f 04 3b ea 84 4f bb
       0.0044634487 -0.00152531 0.002020778 -0.0031664916
000190 7d 19 00 ba 00 00 00 00 73 93 16 ba a0 d4 93 ba
       -0.00048866105 0.0 -0.00057440175 -0.0011278577
0001a0 ea d2 b1 ba e3 7c f9 ba f3 0d 92 bb 53 47 0c 3a
       -0.0013566886 -0.0019034412 -0.0044572293 0.00053512043
0001b0 cc 75 18 b9 a9 af 17 ba e0 cb d9 ba 82 8f 35 39
       -0.00014539732 -0.0005786368 -0.0016616546 0.00017314966
0001c0 d7 c3 f3 ba c8 6c b0 ba 04 b3 da b9 c1 13 b7 ba
       -0.0018597794 -0.0013460154 -0.00041713577 -0.0013967679
0001d0 bb 29 11 ba b5 92 c6 3a 7e 7d bb ba 62 27 78 b9
       -0.00055375294 0.0015149923 -0.0014304367 -0.00023665794
0001e0 a1 d3 6c bb b7 56 66 3b 11 de d3 b9 26 2b aa ba
       -0.0036136883 0.00351469 -0.00040410509 -0.001298283
0001f0 8f b8 c1 ba f6 0d 0b bb 79 f0 ed 3a b2 0c eb b8
       -0.0014779734 -0.0021218038 0.0018153331 -0.00011208038

features_model.4.weight f4 [128, 128]
000000 88 6b 6f be 78 c6 1e 3e c1 24 1e be 5b ec 06 3e
       -0.23380864 0.15505397 -0.15443708 0.131761
000010 c0 d0 da bd fe 83 1a 3e b9 b3 0e 3d 4b 6c 19 3e
       -0.10684347 0.15089414 0.034839366 0.14982717
000020 45 e1 35 be d0 5d 9c bd ad cf f4 3d c4 71 cc 3d
       -0.17761715 -0.07635081 0.119536735 0.099826366
000030 30 4f 02 be ac b2 03 be 60 77 2f 3e 1a ce 95 3e
       -0.1272552 -0.12861127 0.17135382 0.29258806
000040 00 21 89 3d 92 eb 90 be 0e e6 fb 3c 3a 2e 5a 3e
       0.066957474 -0.28304726 0.030749347 0.21306697
000050 15 da d9 3d 54 bc 90 be 6f 85 8a bd 01 0d 11 3b
       0.10637299 -0.28268683 -0.06763732 0.0022132995
000060 a3 2d 57 3e 6e e0 e5 bd aa ce 14 3e 98 da f2 3c
       0.21013503 -0.11224447 0.14531961 0.02964525
000070 71 81 89 3d e4 a5 49 bc f1 99 45 bd 03 0f 3d be
       0.06714142 -0.012307618 -0.048242513 -0.18462758
000080 2d 93 b8 bd 10 5e 59 be ca 59 b7 bc ac b4 8a 3d
       -0.090124466 -0.21227288 -0.022381682 0.06772742
000090 2c f0 2a 3e bd 80 c9 bd b1 ff ef bc e4 ac 25 be
       0.16693181 -0.09839008 -0.029296728 -0.16179234
0000a0 15 f6 18 bd 01 6f 1b bc e6 59 38 3d c3 09 c1 bd
       -0.037344057 -0.009486915 0.04500761 -0.0942569
0000b0 59 a9 d5 3c 4e 14 d4 3d 2f 7d 34 be 57 f4 40 be
       0.026081728 0.10355435 -0.17625879 -0.18843208
0000c0 af 59 8d bd a2 25 9b 3e c6 84 86 3d 87 63 34 be
       -0.069018714 0.3030215 0.06568293 -0.17616092
0000d0 96 9b 78 bd 61 63 75 3d 6b 7f 96 3d e7 38 42 be
       -0.060695253 0.05990923 0.07348522 -0.18967019
0000e0 c8 cc 83 bd f0 f6 da 3d 86 72 10 bd 6c d3 02 be
       -0.06435543 0.10691631 -0.035265468 -0.12775964
0000f0 e4 58 ef 3c d8 db 53 be c6 1b d6 bd 92 98 9c 3d
       0.029217191 -0.20689332 -0.10454516 0.07646288
000100 42 b2 19 be d2 98 2c be 4f df a9 bd e3 7c 1a 3e
       -0.15009406 -0.16855171 -0.08294546 0.15086703
000110 82 70 cb 3b ca e5 5c bd ed 6f 45 3c 5a d1 5b 3e
       0.0062084803 -0.05393008 0.012050611 0.2146658
000120 ee 89 65 be 34 89 c3 bd 03 64 1d be 6d cd cc 3d
       -0.22415897 -0.09547654 -0.15370183 0.10000119
000130 c4 75 e6 bd f7 22 0a 3e 67 a8 02 3e 95 47 b5 bd
       -0.11252931 0.134899 0.12759553 -0.08851544
000140 03 33 af 3c b5 0d da bd ac fb 95 bc ad 2d 22 3e
       0.021386629 -0.10647146 -0.018308483 0.15837736
000150 8e e9 5f 3d 3c 32 d4 3d d3 17 43 3d 8f 28 91 3d
       0.054666094 0.10361144 0.047630142 0.07087814
000160 81 74 be bd 89 29 62 bd 04 e9 c2 bb 09 ef fe 3d
       -0.09299565 -0.055215392 -0.005948188 0.12447936
000170 04 47 6e 3d a9 af 6f 3d 58 ae 84 bd d2 0b 18 be
       0.058173195 0.058517132 -0.06478566 -0.14848259
000180 00 8f b7 3c 67 15 e2 3d 57 d2 1f bd 9e dd 43 be
       0.022407055 0.110392384 -0.039018955 -0.19127509
000190 c0 cd d9 bd c7 ca 9b 3d f6 fa d3 bc 32 bb 4d 3e
       -0.10634947 0.07607036 -0.025876503 0.2009094
0001a0 60 ff 2b 3e 57 53 42 bc 41 91 91 3d aa f1 00 bc
       0.16796637 -0.01186069 0.07107783 -0.007870117
0001b0 48 cf 03 3d 22 2e 0e 3e 4b 62 ef bc c1 73 ba 3d
       0.0321801 0.13884786 -0.029221674 0.091041096
0001c0 7f 9c 39 3e 2c a7 cf 3d 36 03 8c bd 38 70 d8 3d
       0.18126105 0.101393074 -0.0683655 0.10568279
0001d0 8f 42 48 bd d8 ac 40 be 8d bb 9a 3c ac c2 16 be
       -0.0488916 -0.18815935 0.01888826 -0.14722699
0001e0 3e ef b0 3d 21 af 60 bd 2a 22 c8 3d 17 6c 65 3c
       0.08639382 -0.054854516 0.09772141 0.014002821
0001f0 8a ad 18 be 30 07 2d 3e 2f 6a d9 3d 85 51 cf 3d
       -0.1490995 0.16897273 0.10615956 0.101229705
000200 aa 10 1e 3e af 9a 02 3e 0c 60 45 3d 06 f9 14 3e
       0.15436044 0.1275432 0.0481873 0.1454812
000210 4b 4f d9 3d 3a a0 09 bd dc c3 6a 3d 26 0c f0 bc
       0.10610827 -0.03360007 0.057315692 -0.029302668
000220 84 2f 06 bc f4 2b f1 bc bd bc e3 bd 32 db 6b bd
       -0.00819004 -0.029439904 -0.11119983 -0.057582088
000230 f0 e4 5d 3e 85 d9 09 3c 9b 3a 52 bd 95 bb 5f be
       0.21669364 0.008413677 -0.05132542 -0.218489
000240 03 36 a5 bd ea 9f 21 3e 60 c3 e4 3d 23 4a f6 3d
       -0.080669425 0.15783659 0.11170077 0.12025859
000250 2a b0 4a 3c 19 28 de bb b0 81 33 3e 50 03 05 3e
       0.012371102 -0.0067796824 0.1752994 0.12989545
000260 b8 b2 85 3e bf 18 0f bc 8e 58 16 3e 31 4e d2 bd
       0.26112914 -0.008733927 0.14682218 -0.1026882
000270 44 a6 51 bc 89 53 2f 3e 70 99 a2 bd 0a f2 c4 bd
       -0.0127959885 0.1712171 -0.07939422 -0.09616478
000280 d0 09 ff bd e3 d4 0c 3e 6f bd f6 3b fb f4 a5 bc
       -0.124530435 0.13753085 0.0075299065 -0.020258417
000290 42 25 88 bd de c1 96 be ef 30 9c 3d 8f 56 8c 3d
       -0.06647731 -0.29444784 0.07626521 0.06852447
0002a0 7d 11 0d 3e 1a b7 75 bc ac d6 88 3d 8f 58 4a 3e
       0.13776202 -0.014997268 0.066815704 0.19760345
0002b0 1a 2f 8f 3d b7 8a f4 3d 64 18 26 bc e2 8f d1 bd
       0.06991406 0.1194052 -0.010137651 -0.102325216
0002c0 b5 d8 63 bd f7 38 81 3e 45 b6 50 3d 63 68 06 3d
       -0.05562659 0.25238773 0.050955076 0.032814395
0002d0 56 cc 9a 3d 0d 75 32 bd 36 21 5f bd e7 be d3 bb
       0.07558505 -0.04356866 -0.05447503 -0.0064619663
0002e0 7e ca 90 3d e8 21 a0 bd 6e d3 91 be da b9 0c be
       0.07069872 -0.07818967 -0.2848162 -0.13742772
0002f0 5e ce 01 be 0a f8 84 be b3 5e 81 be 60 9e df 3d
       -0.12676379 -0.2597049 -0.25267562 0.109188795
000300 9a d8 37 3e 91 14 1b be 2f 6d 88 3e 8b 5e e6 3c
       0.1795372 -0.15144564 0.266458 0.028121253
000310 4d ac 4c be fb 45 4b bd be 1a fc 3d 8a fc c8 3b
       -0.19987603 -0.049627285 0.12309788 0.0061336206
000320 48 e0 3e 3d 18 c6 55 3e 99 14 b3 3d 20 64 b5 bc
       0.04660061 0.20876348 0.08744163 -0.02214247
000330 7e 7a 3c 3e cf 57 16 3e e6 1b 21 bd 28 5a f9 3d
       0.18406102 0.14681934 -0.039333247 0.12175399
000340 77 af ce 3d b4 10 b2 3d f7 8f 02 bd d7 34 43 3e
       0.10092061 0.08694592 -0.031875577 0.19063126
000350 41 a6 a0 bd cb 86 99 bd 2a 3a d9 bd 33 87 68 bd
       -0.078442104 -0.07496413 -0.10606797 -0.05676956
000360 48 37 f7 bd c5 db bf 3d 2b 3f 98 bc c1 45 d8 3d
       -0.12071091 0.093680896 -0.018584808 0.105601795
000370 a6 d7 72 be 8b 91 66 bd 1b bb 70 3c e5 9b 26 3e
       -0.23715076 -0.056291144 0.014693047 0.16270407
000380 51 00 e5 bc 5f ea 09 3e 0c 3d 10 3e c9 1f 2c bd
       -0.027954252 0.13468312 0.14085788 -0.0420225
000390 14 84 16 3d 2d ec 61 3e 85 45 e7 bd 80 aa 38 be
       0.036747053 0.2206275 -0.11292557 -0.1803379
0003a0 e1 8c b6 3d 89 1f a1 3b 5e 7a 8f 3d 3f e3 ba be
       0.08913589 0.0049170894 0.070057616 -0.365015
0003b0 0d 53 e8 3c 2f c8 ba bc 86 25 a3 3d e0 64 93 3d
       0.028359914 -0.022800533 0.079661414 0.07196975
0003c0 fc b1 8f bd 63 eb 12 bd 86 47 fa bd 0e b2 39 3e
       -0.0701637 -0.035869014 -0.12220673 0.18134329
0003d0 04 89 f0 37 13 17 33 3d 13 71 ef 3c 3e dd 2f 3e
       2.8674032e-05 0.043723177 0.029228723 0.17174241
0003e0 c0 d6 87 3d 42 8d 3b 3e 84 d6 96 3d 22 78 85 3d
       0.06632757 0.18315604 0.07365134 0.06517054
0003f0 85 6f 50 bc d2 f4 36 3d a4 0a 19 be bc c4 91 3d
       -0.012721901 0.044667073 -0.14945465 0.07117602

features_model.4.bias f4 [128]
000000 e4 42 89 ba de 7c ba ba 50 e6 f8 ba 9b 3b 29 ba
       -0.0010472205 -0.0014227887 -0.0018989537 -0.000645572
000010 a3 ec a3 3a 07 e7 e4 3a 90 1b a5 ba f8 dc ea ba
       0.0012506436 0.0017463871 -0.0012596715 -0.0017918637
000020 d4 a4 9f ba ee 1f 61 ba 29 4b 3c ba d2 be e6 b8
       -0.001217986 -0.0008587827 -0.00071828306 -0.00011002798
000030 00 00 00 00 43 7f b8 3a b7 f2 e4 b9 ae 91 4a ba
       0.0 0.0014076013 -0.00043668385 -0.00077273964
000040 0b 38 14 ba 7a 34 fd b9 ea 92 27 ba d4 fd 54 ba
       -0.0005654103 -0.00048295018 -0.00063924363 -0.00081249815
000050 c6 4f ba ba bc 01 b8 ba b7 74 84 3b 3b 49 9c ba
       -0.0014214448 -0.0014038603 0.004042234 -0.001192368
000060 af 30 fc ba 1e 09 37 ba 19 28 64 ba 04 0b 22 ba
       -0.0019240583 -0.00069822546 -0.0008703485 -0.0006181451
000070 4e aa 11 ba fe 6b 4f 39 c8 74 a7 b9 bc 20 fb ba
       -0.00055566884 0.00019781289 -0.0003193973 -0.0019159536
000080 16 01 a7 ba 28 37 26 ba 00 00 00 00 67 47 db ba
       -0.0012741413 -0.00063406164 0.0 -0.0016729654
000090 6c a2 57 ba c2 5d bb ba 77 d9 ca 39 2a 62 ab ba
       -0.0008225802 -0.001429491 0.00038690466 -0.001307552
0000a0 70 76 ee 38 c1 ae bb b8 70 80 ee b9 42 78 28 39
       0.00011370785 -8.949405e-05 -0.0004549059 0.00016066528
0000b0 ce 51 2c b9 c2 ad 36 bb 5c 35 a0 39 59 4e d2 39
       -0.00016433673 -0.0027874564 0.00030557334 0.00040112695
0000c0 78 72 ee 39 06 79 1a 3b 45 8b f1 ba ca 47 37 ba
       0.00045480183 0.002357067 -0.0018428346 -0.00069915934
0000d0 51 bb 10 bb f6 73 96 ba 51 78 97 ba 44 44 42 ba
       -0.0022084306 -0.0011478651 -0.0011556243 -0.0007410685
0000e0 b6 32 30 3b 00 00 00 00 01 f0 33 ba f4 70 ce b9
       0.0026885695 0.0 -0.00068640715 -0.00039375538
0000f0 94 83 b4 b9 9d f5 c6 3a 81 74 13 3b b3 ff b6 39
       -0.0003443031 0.00151794 0.0022499862 0.00034904256
000100 50 0e 55 ba af 84 e5 ba 1b c7 97 ba 72 0e ba ba
       -0.0008127438 -0.0017510856 -0.0011579724 -0.0014194979
000110 b3 02 b2 ba 75 16 4b bb 8d df db b9 55 bd 67 ba
       -0.0013581127 -0.0030988727 -0.00041937493 -0.00088401634
000120 21 77 36 3a db e2 9e ba 70 d1 b6 b9 23 e0 11 ba
       0.00069605006 -0.0012122052 -0.00034869788 -0.000556471
000130 f8 02 11 ba 3b e8 25 ba f3 50 80 ba fa 52 d0 ba
       -0.00055317534 -0.00063288555 -0.000978975 -0.001589387
000140 77 f8 de ba eb 64 4e ba c9 d3 c5 ba ba db 32 bb
       -0.0017011304 -0.00078733143 -0.0015093024 -0.0027291612
000150 3a d3 a4 ba f3 1c aa ba e0 63 b1 ba bd ae a6 ba
       -0.0012575157 -0.0012978598 -0.0013533793 -0.0012716871
000160 9a b2 42 b9 7b a3 87 ba 28 3a fa 39 37 7d 42 3b
       -0.00018567816 -0.0010348404 0.00047727046 0.0029676685
000170 ca 0d 57 ba e4 6a 73 ba 4a 3a d5 b9 a1 66 d1 ba
       -0.0008203654 -0.00092856423 -0.00040669955 -0.001597602
000180 9a 8d 22 ba 85 3c c6 ba 16 88 63 ba 21 96 f6 b8
       -0.000620091 -0.0015124237 -0.0008679641 -0.00011758158
000190 ce 98 12 ba 00 00 00 00 da dc 23 ba cd 4b 0a 3b
       -0.00055922277 0.0 -0.0006250866 0.002110231
0001a0 52 d8 c7 ba 6b 15 b7 ba eb 75 da 38 74 7c 50 b9
       -0.0015246964 -0.0013968175 0.00010417014 -0.00019882788
0001b0 95 2f 50 3b 96 68 49 ba e0 22 c5 ba 00 00 00 00
       0.0031766642 -0.0007683126 -0.0015040301 0.0
0001c0 4f ce 72 ba f8 68 a4 3a 30 69 b3 36 b2 5c 17 ba
       -0.000926231 0.001254349 5.346861e-06 -0.00057740055
0001d0 00 00 00 00 be b7 f5 b9 b7 3a f5 ba fe 7c e3 ba
       0.0 -0.0004686694 -0.0018709515 -0.0017355976
0001e0 ec 09 b6 ba 9c e2 9e ba 46 e6 ba ba ba e1 8c ba
       -0.0013888455 -0.0012121978 -0.0014259301 -0.0010748424
0001f0 ad c0 0e 39 82 07 5f ba 01 36 70 ba 3a f8 ca 39
       0.00013613953 -0.00085078937 -0.00091633206 0.00038713386

policy_model.0.weight f4 [128, 128]
000000 b2 2c 06 3b e5 3e f6 ba ba 79 ff ba 34 ff 9c ba
       0.0020473418 -0.0018787055 -0.0019491233 -0.0011977912
000010 fe ad 54 ba 14 c1 22 39 d1 35 c0 ba 16 06 23 3a
       -0.0008113085 0.00015521451 -0.0014664476 0.00062188634
000020 a9 72 9d ba a6 23 4a 3a 9c 3b cd ba c5 19 52 bb
       -0.0012012321 0.00077110005 -0.0015658024 -0.0032058817
000030 ae a5 a4 3a e4 c5 17 bb 72 24 d4 ba 24 f0 8a ba
       0.0012561583 -0.0023158723 -0.0016185178 -0.0010600132
000040 d7 4e 17 bb 01 ee b0 ba 39 ca 52 ba 47 d5 09 38
       -0.0023087764 -0.0013498665 -0.0008040998 3.2861975e-05
000050 30 75 6a ba f7 e3 60 39 b8 48 32 ba 66 c9 a3 38
       -0.0008943854 0.00021447228 -0.0006800997 7.809959e-05
000060 73 57 8a ba 26 5a 19 37 eb 84 a2 ba 3d bb e2 ba
       -0.0010554626 9.1405e-06 -0.0012399232 -0.0017298233
000070 6e 89 08 bb 24 a6 ae ba f9 9d 58 ba 13 b0 17 bb
       -0.0020833868 -0.001332466 -0.0008263286 -0.002314572
000080 99 40 2f bb b1 7e 01 bb 95 48 1a ba 62 66 a6 b9
       -0.0026741384 -0.0019759352 -0.00058854494 -0.00031738268
000090 80 fa 1e ba e4 19 d3 ba de d0 c0 ba b9 30 f0 ba
       -0.0006064549 -0.0016105738 -0.0014710685 -0.0018325067
0000a0 65 96 9d 3a 3b 07 07 bb 71 38 5a ba e0 28 8c ba
       0.001202297 -0.0020603675 -0.00083244505 -0.0010693334
0000b0 43 7c 23 ba f3 b5 70 38 5b 92 fe b9 8a 05 d6 ba
       -0.0006236473 5.7389912e-05 -0.000485557 -0.0016328555
0000c0 31 0d e0 ba 6a 7e 7e 3a 05 ec 2a 3b 3c 00 c1 ba
       -0.0017093775 0.0009708168 0.002608062 -0.0014724801
0000d0 f6 6f 82 3a d3 31 54 b9 98 fa 76 ba 5a b0 99 b9
       0.000995158 -0.00020236456 -0.00094214967 -0.00029313826
0000e0 59 f3 14 3a 5b ab 42 39 a7 b9 3d bb ae 0d 96 ba
       0.00056820136 0.00018565117 -0.0028949769 -0.0011448169
0000f0 64 1a b0 3a bf b3 85 37 e0 18 ca b8 bd 4f 80 ba
       0.0013435599 1.5938536e-05 -9.636744e-05 -0.0009789389
000100 46 0e 07 bb 5a 46 48 39 1c d0 15 3a 89 23 60 b9
       -0.0020607873 0.00019099694 0.00057149096 -0.00021375543
000110 6f 28 5d b9 f5 a2 f9 3a 9e 7c cc ba 70 37 07 ba
       -0.00021091265 0.0019045757 -0.0015601104 -0.0005158102
000120 65 59 20 b9 da 0f 4d ba 7a 5b e3 39 99 de d0 b8
       -0.00015292091 -0.00078224915 0.0004336497 -9.959675e-05
000130 43 83 d9 ba ad f3 dc b9 c9 59 bf ba ea 39 3f 3a
       -0.0016594905 -0.00042143223 -0.0014598902 0.00072947016
000140 83 42 f6 ba 44 ea 09 bb a6 54 d2 ba f9 c3 30 3b
       -0.0018788133 -0.0021044174 -0.0016046956 0.0026972278
000150 f7 7c 63 39 66 ba df ba 51 f2 97 3a b8 28 e6 ba
       0.0002169496 -0.0017069101 0.0011592602 -0.0017559743
000160 a7 c7 b4 ba e5 cb 01 b9 bc e0 4a 3a ce e9 a8 36
       -0.0013792411 -0.00012378355 0.00077391765 5.0340086e-06
000170 60 1a 87 ba 26 54 e8 37 59 d2 c0 ba 34 5f 9a 39
       -0.0010307543 2.769574e-05 -0.0014711126 0.000294441
000180 64 fc c6 ba 24 55 37 bb 6c 00 db ba 78 ee a4 ba
       -0.001518142 -0.0027974332 -0.00167085 -0.0012583276
000190 99 a0 70 ba a7 42 9b ba e0 72 85 39 ca 24 8d b9
       -0.00091792044 -0.0011845425 0.00025453325 -0.00026921026
0001a0 4e 75 22 38 ca 3c a8 ba 93 14 ef ba 53 e1 c2 ba
       3.873306e-05 -0.0012835499 -0.0018240385 -0.0014868177
0001b0 e0 0d 27 39 c4 82 30 ba c8 b7 d7 3a 83 a7 96 ba
       0.0001593153 -0.0006733353 0.0016457969 -0.0011494014
0001c0 c3 57 65 b8 75 73 f0 b9 bf cc d6 ba f4 2a 0c ba
       -5.467959e-05 -0.0004586239 -0.0016387923 -0.00053469767
0001d0 94 d8 c0 b5 e0 2b f3 ba 7a 6f c0 3a e6 cb 32 ba
       -1.4368147e-06 -0.0018552504 0.001468166 -0.00068205444
0001e0 09 cb 18 bb b4 a5 06 bb 78 d3 9f b7 b4 41 2c ba
       -0.0023314378 -0.0020545544 -1.905275e-05 -0.000657107
0001f0 96 ab 1b ba 92 9a 0a bb 5a b4 fb ba 56 a3 20 bb
       -0.0005938349 -0.002114926 -0.0019203529 -0.0024511418
000200 70 70 a9 bb 97 82 d6 b9 be ba 64 ba a4 dd 47 3b
       -0.0051708743 -0.00040914558 -0.00087253365 0.0030497098
000210 ef 59 20 bb 5c f7 cc 3a cc 61 94 bb 29 c2 be ba
       -0.0024467667 0.0015637684 -0.00452826 -0.0014553714
000220 32 8a a3 b8 d4 e5 93 bb 34 3e 13 ba 52 0f 8f bb
       -7.7981866e-05 -0.0045134816 -0.0005616874 -0.00436584
000230 19 5a 10 ba af 7d 96 39 a6 c2 7c b9 a7 d7 d6 b9
       -0.00055065897 0.0002870387 -0.00024105105 -0.00040977934
000240 b7 4f 4c ba 45 5c 04 bb 99 d0 ab ba 15 ba 5c 3b
       -0.0007793861 -0.0020196598 -0.0013108432 0.003368025
000250 56 da 32 38 64 4d 87 bb 1b 5d 1a bb aa 81 5c b8
       4.264185e-05 -0.0041290987 -0.002355403 -5.2572846e-05
000260 04 f7 04 bb 1c 89 88 3a 28 69 ac ba f6 9b 46 bb
       -0.0020288834 0.0010416838 -0.0013153898 -0.0030305362
000270 ec 5a c5 ba dd 82 92 39 69 f8 39 ba dc 58 81 39
       -0.0015057004 0.0002794479 -0.0007094206 0.00024671003
000280 35 db c1 ba 42 e7 be ba 1c 28 0f ba ad 0d f0 ba
       -0.001479006 -0.001456477 -0.0005460994 -0.0018314623
000290 c9 f6 4b 38 24 8e 0a bb a1 81 13 bb 80 08 b7 ba
       4.8628808e-05 -0.0021141851 -0.0022507685 -0.0013964325
0002a0 60 76 22 ba 7b 65 33 bb 62 df 8a bb 65 2a c7 ba
       -0.0006197449 -0.002737372 -0.004238055 -0.001519513
0002b0 03 62 c7 ba f8 f3 19 ba 99 d2 f9 b8 bd 8b 8e bb
       -0.0015211705 -0.0005872841 -0.00011912472 -0.004350154
0002c0 83 1f 34 ba 47 55 22 ba 5b d1 c6 bb dd 30 26 bb
       -0.00068711507 -0.0006192517 -0.0060674376 -0.0025358715
0002d0 21 a4 48 bb 58 38 49 ba 7d 7a bb ba e5 bd bc ba
       -0.0030615407 -0.00076759374 -0.0014303472 -0.0014399855
0002e0 51 a6 a0 39 53 0d 9e ba 16 01 0a bb 85 e1 a5 ba
       0.00030641494 -0.0012058414 -0.0021057776 -0.0012655711
0002f0 b2 b3 41 bb 67 6c b2 bb ef f7 83 ba 5e 3c 75 bb
       -0.002955657 -0.0054450515 -0.0010068397 -0.0037420015
000300 d4 8f 89 ba 20 53 06 bb 94 69 30 ba 09 46 0f ba
       -0.0010495135 -0.0020496324 -0.00067295996 -0.0005465453
000310 16 89 ab 39 ad c7 14 3b 7c 59 5d bb 7d b2 a1 3a
       0.000327178 0.0022702024 -0.003377526 0.0012336519
000320 9f 34 10 bb 13 38 3d bb 7a 43 87 bb 1e 41 53 bb
       -0.002200402 -0.0028872534 -0.004127917 -0.0032234858
000330 d1 a1 c5 ba c2 36 15 bb ee 56 7a bb c8 43 5f ba
       -0.0015078132 -0.0022768234 -0.0038198787 -0.0008516875
000340 2a cf de ba f7 ad 67 bb 94 ee 05 bb 3a b8 29 3b
       -0.0016998996 -0.0035351494 -0.0020436393 0.002589716
000350 08 11 44 bb 0a a5 f3 ba 0b 3d e6 ba f8 4d 46 b9
       -0.0029917378 -0.0018588614 -0.00175658 -0.00018911797
000360 e2 33 08 bb f7 76 a8 ba b5 cc 27 bb 87 76 d6 ba
       -0.0020782878 -0.0012852837 -0.0025604193 -0.0016362228
000370 e8 37 79 ba 18 1c 6b bb 0f 6c 65 bb f6 15 f7 3a
       -0.0009506927 -0.00358749 -0.0035007035 0.0018851149
000380 01 2b c7 ba ff 6c 86 ba d0 6a d3 3a 7a f3 89 bb
       -0.0015195311 -0.0010255872 0.0016129855 -0.004209933
000390 de 38 75 bb 41 16 bd b8 e5 12 51 bb df 32 5a 3b
       -0.0037417929 -9.0163674e-05 -0.003190213 0.0033294482
0003a0 4b b0 ec ba ce d8 05 bb 21 a6 0b bb ef aa 53 bb
       -0.001805791 -0.0020423415 -0.0021308737 -0.003229793
0003b0 5f 2a 74 ba 95 5e d2 ba b4 92 ac bb 5f ec 13 b9
       -0.0009314175 -0.0016049916 -0.005266512 -0.00014107068
0003c0 24 4b 95 bb b6 83 ad ba 19 0a a0 ba 75 3e c7 ba
       -0.0045560766 -0.0013238105 -0.0012210041 -0.0015201109
0003d0 84 70 c1 39 30 a3 7c bb ab 52 36 bb 37 b5 c3 ba
       0.0003689566 -0.0038549416 -0.002782027 -0.0014931326
0003e0 7f 12 43 bb 78 86 36 bb 88 f9 66 bb 69 e2 8b 39
       -0.0029765663 -0.0027851146 -0.0035243947 0.00026680835
0003f0 25 42 ab ba b4 e0 42 ba d7 03 48 bb e5 fd 42 bb
       -0.0013065977 -0.0007433996 -0.0030519867 -0.0029753384

policy_model.0.bias f4 [128]
000000 6f e0 be ba 43 2c 55 ba 00 00 00 00 b1 0b 96 ba
       -0.0014562736 -0.00081319007 0.0 -0.0011447576
000010 a1 67 8c 3a b2 57 24 bb 4f c4 4f 3a 44 fd 81 3a
       0.0010712036 -0.0025076685 0.00079256756 0.0009917398
000020 a8 7a bf ba 00 00 00 00 5e 1d 42 ba b2 da be ba
       -0.0014608698 0.0 -0.0007404889 -0.0014561026
000030 c1 9e 6a ba 9a e4 1e b9 b0 48 2d ba 5b 57 94 ba
       -0.0008950048 -0.00015153215 -0.00066102576 -0.0011317538
000040 74 77 8d 39 b3 9c bf ba 3c 67 10 3a 3d 1d d6 3a
       0.00026982615 -0.0014618844 0.0005508547 0.0016335618
000050 f9 1a e4 ba 92 7d 73 3a 4c a8 ff 38 eb ad c9 39
       -0.0017403058 0.0009288426 0.00012190695 0.00038467287
000060 44 09 3e 3b ef 1a 46 ba 00 00 00 00 49 80 bf ba
       0.0028997222 -0.0007557114 0.0 -0.0014610376
000070 da fc b1 38 36 b7 39 3a b4 42 b0 ba b7 8d bf ba
       8.487115e-05 0.00070844905 -0.0013447613 -0.0014614378
000080 88 b8 a4 39 18 36 c1 3a 68 86 ba ba 05 5e b8 ba
       0.00031418004 0.0014740853 -0.001423073 -0.0014066106
000090 52 51 71 3b 0f 6f bf ba a4 92 bf ba 9e 8a bf ba
       0.0036822152 -0.0014605242 -0.0014615846 -0.0014613455
0000a0 52 0f 46 3a 38 72 c4 ba 4c 1d bf ba 5d 6e fe b7
       0.00075553835 -0.0014987653 -0.0014580875 -3.0330551e-05
0000b0 01 1f 93 39 79 d6 a9 3a 37 5f a5 b9 00 00 00 00
       0.00028061125 0.0012957595 -0.00031542193 0.0
0000c0 41 ad 0a 3b 5e 2e bc 3a bc 90 f5 b9 06 a3 2c 3b
       0.0021160396 0.001435708 -0.00046837877 0.0026342287
0000d0 00 00 00 00 00 00 00 00 55 a9 03 3a 01 2d bf ba
       0.0 0.0 0.0005022486 -0.0014585556
0000e0 bf c1 06 ba 97 1b 9f 3a 0b 1a bf ba 18 76 bf ba
       -0.0005140565 0.001213896 -0.0014579905 -0.0014607338
0000f0 9e 1d c1 38 d9 10 05 3b 00 00 00 00 a7 93 44 ba
       9.208474e-05 0.0020304231 0.0 -0.00074988086
000100 a2 78 bc b8 52 38 27 3b 67 77 4e 3a 9f 4a 87 3a
       -8.987008e-05 0.0025515747 0.00078760687 0.0010321921
000110 00 00 00 00 52 c0 00 3a 5c 3b 5d bb 28 7c bf ba
       0.0 0.00049114705 -0.0033757305 -0.0014609145
000120 c1 17 02 bb fe 5f 85 ba 67 7f bf ba 23 e4 be ba
       -0.0019850584 -0.0010175703 -0.0014610112 -0.001456384
000130 29 9d bf ba ac 61 77 39 00 0f 45 b7 87 8e bf ba
       -0.0014618981 0.00023592141 -1.17456075e-05 -0.001461462
000140 67 41 5e bb b4 7f bf ba cd 8a bf ba c3 18 59 3a
       -0.0033913495 -0.0014610202 -0.0014613509 0.0008281583
000150 f1 0a 02 3a 23 08 f5 3a 91 96 bf ba b2 1a 3c 3b
       0.0004960737 0.0018694442 -0.0014617016 0.0028702435
000160 9b c9 f5 ba de f0 79 39 5f 41 60 ba 8a 4f bf ba
       -0.00187521 0.0002383622 -0.0008554663 -0.0014595848
000170 d8 fe 0c b9 e4 aa be bb 3b 4c fd 3a 13 3b f4 3a
       -0.00013446377 -0.0058187116 0.0019325087 0.0018633328
000180 1c c2 a5 ba 9c b9 20 bb be 02 33 3a 8a ee bf 3b
       -0.001264635 -0.0024524694 0.0006828717 0.0058572935
000190 a9 d8 84 3b 1c 22 c8 ba f5 49 84 ba b8 b9 5f 3b
       0.004054148 -0.0015268954 -0.0010092842 0.0034137797
0001a0 7d 43 18 ba 16 ad 01 b9 61 d4 8e 3b 7c 4b bf ba
       -0.00058083964 -0.00012366878 0.0043588136 -0.001459464
0001b0 ea 3e bf ba 75 43 24 3b 0f 8c e3 3a 08 65 19 b9
       -0.0014590893 0.0025064622 0.0017360466 -0.00014628854
0001c0 7a cb c1 39 c4 7a d0 ba cb 8d b2 3a f1 39 8d ba
       0.0003696343 -0.0015905728 0.001362258 -0.0010774714
0001d0 6b eb a1 bb ca d6 c2 3a 00 00 00 00 14 fa 0d bb
       -0.004941394 0.0014865038 0.0 -0.002166395
0001e0 b1 99 bf ba 93 a0 2e 3a d1 35 97 ba 4f b0 ea ba
       -0.0014617947 0.00066615007 -0.0011536424 -0.0017905327
0001f0 55 b1 bd ba 71 0a 30 3b 5c 24 a6 3a d4 14 bf ba
       -0.0014472405 0.0026861692 0.0012675631 -0.0014578351
