results/short_race/second_iteration_training_batch_size_150/model56.pt (torch, 275579 bytes, 13 tensors)

features_model.0.weight f4 [128, 4]
00000000: 047e 8e3d 44fc f43c 171d cd3c fda0 0abe
00000010: 16b0 52bc d35d 21bd 0157 1a3e 0119 693e
00000020: c2b9 e33d 2e34 5fbe 72d5 8c3d 833f 5cbd
00000030: c525 033e d9a4 e2bd b577 3c3d a3ba 7a3d
00000040: c291 50bd 9e95 66bd cdec 0fbe 0f5b dc3d
00000050: 9155 183e 829c 633e a350 be3d c7d5 1bbb
00000060: e3eb 833d b006 a93d 77f9 25be e94f e8bd
00000070: cc4d 0c3e 022a 423e 4d82 b43a c5de 63be
00000080: 433f b53d 03e8 1f3e 3a6f e33d 784b 43bd
00000090: f67b c53d f438 12be c502 61bd 48d6 e93d
000000a0: dec0 3ebe 3a76 91bc bcf7 103c 9191 113c
000000b0: 75bd d23d 6928 a33d 4c34 30be 0428 493c
000000c0: 9612 d1bd 9092 843d 798c f73d 1b06 243c
000000d0: ad14 c93d 088b 4c3d e8db 59bd 40c1 d4bc
000000e0: d7e7 a9bd f567 f0bd 8652 803c 11e9 573e
000000f0: 4507 053e e547 06be 5f80 9e3c 21e8 0fbe
00000100: 7922 6abe e0f1 8ebd 8e79 ea3d 7873 1e3c
00000110: d962 713d b020 95be 5051 e93c dfcc f23c
00000120: 4e26 53bd 3010 b93d a686 173e 2ead 623e
00000130: 394d c0bd 19fb f33d 738c 11be f2db afbb
00000140: fccd 443e d305 82bd ac15 aabe c1b0 353d
00000150: 598d 863e 5c51 f2bd 0aaa 28bd a38a c9bb
00000160: 9a5d 1cbc d6da 363e 8007 80bd 3c9d 2fbd
00000170: a3a4 13be 8d83 a73d 5bc6 96bd 14d9 243b
00000180: 66c9 8fbc 7728 483c 9f78 92bd e601 013d
00000190: 84ee dd3c e384 263e a61d 80bc fa87 ac3d
000001a0: ae27 483d c5e7 83be 613d 003e 0efa fe3d
000001b0: ef96 bfbd 9fc1 50bd 2b56 a5bd c690 28be
000001c0: 4175 6fbe dece 083e f3b2 d03d a6bd c5bd
000001d0: 581a 5fbd 83e8 78bd d4ed 0abe a22a cebb
000001e0: d2f7 80bd 0faa 09be aa8e 2a3e efe5 5bbe
000001f0: c80e 7ebd a242 643c 68a0 b33d e716 7cbe
00000200: d67f 9ebd 550a 3ebe e8d3 4bbd a5c7 b23d
00000210: a831 8b3d cce3 353e 38f9 143e ebbf 56be
00000220: cb1e 5fbd 1495 a23d 4c60 9b3b 6f28 cebd
00000230: 79da 06be c541 a6bb 4816 3ebe a731 18be
00000240: 9e58 5cbd 8193 87bd d675 83bd 7681 ff3d
00000250: 989f 43be 32f3 6c3d 48ad 2dbe 2cdd ab3c
00000260: 93e3 35be d05f a03d 4264 4a3d 47d7 1b3d
00000270: 96d4 e2bd b0e4 2d3e 9c9d a0be 9af3 fe3d
00000280: e187 d63c a089 44bc 1c91 9e3d c706 81bd
00000290: 361a 49be d6b9 133e 5766 56bd ca84 253c
000002a0: 3166 0dbe 72f4 223d 45c6 0ebe 8ae0 6bbd
000002b0: cc7a debb 09cf 2a3e 0ee3 e4bb cf4d 443d
000002c0: 580d 3c3d 63f3 7ebd debd 43bd 2c0b 30bd
000002d0: 0790 f03b f754 ebbc 854b 853d 561e 51be
000002e0: 9801 4cbd fbc5 94be daaa 2a3d eff6 34bc
000002f0: ac82 043d 7cdb cbbd e4f6 6ebd 7fa3 153e
00000300: c766 03be 4879 60bd 8f96 5c3e c820 9e3d
00000310: 65b7 b0bc 3f5f 373d 9546 11be d774 273e
00000320: 1204 7dbe bff6 553b 269d d4bd fbf5 03be
00000330: d3a0 5d3e dc4d 80bd fe46 96bd 1ada 953d
00000340: 3dcd e2bd 0dba 403b 7c40 c53d 9df1 b0bd
00000350: 90be a7bd 9d1a 45be 0819 06be 262e 71bd
00000360: 7e36 093e a512 d73d 8fde adbd dab4 3f3e
00000370: 5482 253e d445 97ba 5a7f 133d 5cc0 84bd
00000380: e3ec 5fbd 53d3 843d 2b64 0fbd a81b d03c
00000390: 0e78 043e fb03 0b3d 1260 2cbe f417 733d
000003a0: 6da2 f93d 55be 8e3e d340 98bc 5394 063e
000003b0: 9546 cc3d 8832 813e 59d5 2e3e eb2b 693e
000003c0: fbc2 a2bd 73b3 1fbc 3ceb 3abc 803a 7c3d
000003d0: c9d4 173e 4c2e e43c 49e9 abbd 6c01 f83d
000003e0: 8417 443d 9c6c c73c 6f7a 973d de0f 6abb
000003f0: 9094 9f3c 0952 973d fd68 4f3e 8ac6 dd3d
0.06957629 0.029905446 0.025038285 -0.13537975 -0.012859365 -0.03939612 0.15072252 0.22763444
0.11119415 -0.21797249 0.06876649 -0.053771507 0.12807377 -0.110665984 0.0460126 0.061213147
-0.050920255 -0.05629503 -0.14055176 0.107595555 0.14876391 0.22227672 0.09292724 -0.0023778544
0.06441476 0.08253229 -0.16208445 -0.11343367 0.13701552 0.18961337 0.0013771743 -0.22252949
0.08849957 0.15615849 0.11105199 -0.047679394 0.09642784 -0.14279538 -0.05493428 0.11417824
-0.1862826 -0.01775657 0.008848127 0.008884803 0.10290042 0.07966692 -0.1720745 0.012277607
-0.10208623 0.06473267 0.1208734 0.010011221 0.09818397 0.049937278 -0.053188235 -0.025971055
-0.08296173 -0.11738578 0.01566435 0.21085002 0.12991054 -0.13113363 0.019348321 -0.14053394
-0.22864713 -0.06979728 0.11448966 0.009671085 0.05893216 -0.291265 0.028481156 0.029638706
-0.051550202 0.09036291 0.14797458 0.22136375 -0.09389729 0.119131275 -0.14213733 -0.0053667957
0.19219202 -0.06348767 -0.3321966 0.04435802 0.26279715 -0.11831924 -0.041177787 -0.00615056
-0.009543801 0.17856917 -0.062514305 -0.04287456 -0.14418273 0.08179388 -0.07362052 0.0025153803
-0.017552089 0.012216679 -0.07151913 0.03149595 0.027091272 0.1626163 -0.015639137 0.08424373
0.048865966 -0.25762764 0.12523414 0.12450038 -0.0935496 -0.0509659 -0.08073076 -0.16461477
-0.23384573 0.13360164 0.10190382 -0.09655313 -0.054468483 -0.060768615 -0.13567287 -0.0062917033
-0.06297268 -0.13443778 0.16655985 -0.21474431 -0.062025815 0.013931902 0.087708294 -0.24618112
-0.077392265 -0.18558629 -0.049762636 0.087294854 0.067965806 0.17762679 0.14548194 -0.20971648
-0.054472726 0.07938591 0.004741704 -0.10066306 -0.13169278 -0.0050737583 -0.18563187 -0.14862691
-0.05379545 -0.06619931 -0.0641896 0.124758646 -0.19103849 0.057849117 -0.16960633 0.020979486
-0.17762594 0.07830775 0.04941202 0.0380471 -0.11075704 0.16981769 -0.31370246 0.12448807
0.026187839 -0.011995703 0.07742521 -0.06300121 -0.19638905 0.1442636 -0.052343693 0.01010246
-0.13808514 0.039783902 -0.13942821 -0.057587184 -0.006789541 0.1668054 -0.006985075 0.047925767
0.045911163 -0.06224383 -0.047788493 -0.042979404 0.007341388 -0.028727038 0.06508545 -0.20421728
-0.049806207 -0.29057297 0.041666843 -0.011045202 0.03235118 -0.09953973 -0.058340922 0.1461315
-0.12832175 -0.054803163 0.21541809 0.07721096 -0.021571824 0.044768568 -0.14187081 0.16353165
-0.24708584 0.0032648293 -0.10381536 -0.12886803 0.21643381 -0.062648505 -0.073377594 0.0731699
-0.11074302 0.002940777 0.0963144 -0.08639834 -0.08190644 -0.19248433 -0.13095486 -0.0588819
0.13399693 0.10501603 -0.08489715 0.18721333 0.16162997 -0.0011541196 0.036010124 -0.06482002
-0.054669272 0.064856194 -0.035007637 0.025403813 0.12936422 0.033939343 -0.16833523 0.059349015
0.121891834 0.27879587 -0.018585598 0.13142519 0.099744 0.25233865 0.17073573 0.2277066
-0.07947346 -0.009747374 -0.011408623 0.061579227 0.14827265 0.027854107 -0.08394105 0.12109646
0.04787399 0.024343781 0.07396399 -0.0035715024 0.01948002 0.07388694 0.20254894 0.10828884

features_model.0.bias f4 [128]
00000000: cb0c e3bb bc4a 87bb bc07 9439 935e 5cbc
00000010: de2b edbb ddad bcbb d508 4d3a 274e 56bc
00000020: 8769 633a 1143 63ba 7b30 3fbc 6320 e4bb
00000030: a728 8c3c 846c 4b38 7b01 da3a da86 6ab9
00000040: ab15 8dbc e0bc 1fbb 98f9 1cbc eee6 643b
00000050: 2605 8eba a06c 2aba adbe 8ebb 8042 2fbc
00000060: c4a9 55bc 2ca4 47bc 7d8c dbba b6ff f33a
00000070: b237 223b e5ff 73bb a634 6dbb fe03 47bc
00000080: 790e b83b 95ee b8bb 9b65 8f3c 59c0 1abc
00000090: c63d 75bb ad6a d9bb 1c9c b63b 8eb1 b83b
000000a0: bb63 2fbc 0b2b ac3c a66e 1dbc df4a 8c3b
000000b0: d43a fdbb 789d 20bc 7eff 983b 652a 23bb
000000c0: 53b6 e7bb bcf4 86ba b066 7abc 8489 b0bb
000000d0: 1b7b 54bc 9304 9a3b 18a0 af38 1902 29bc
000000e0: b1d5 953b 8bfe 05bc deca ad3a 67d2 8a3b
000000f0: 873d 943b 4ea4 f4bb 34db 11bc 2ad8 af3b
00000100: 92e6 b2ba 2f48 c93a 28de dbbb e220 1e3b
00000110: 365e 00bc 4403 783b 47a6 8cbb f006 74bb
00000120: 70b1 4bbc 2edb 15bc beee 0ebc 01d3 78bb
00000130: c56b 20bc 4b71 26bc 87ac 753b ea8a ca3b
00000140: 5a58 3cbb 48e2 f13a f46a abbb 77ba 9bbb
00000150: cd4c 013b e557 e13b b1f5 64bb 3995 96bb
00000160: c7e3 b8bb a13d 12bc 9287 86bc b066 a5bb
00000170: 3a47 473b d4f0 693c ac87 053b 7005 713b
00000180: da94 70ba 9134 bfbb ba22 4b3b f7d0 09bc
00000190: e73d 903b aa50 2139 81cb c5ba c81d 36b8
000001a0: b1f5 9dbc 011c a839 5e8f a6b9 1d19 83bb
000001b0: 66d4 bdbb c3ec afba db2c 1a3b acb7 fb3b
000001c0: b50e a239 db9e 9dbb d939 d1bb 93f2 9fbb
000001d0: 4b16 9ebc 3896 113c 3b4d dabb b0c3 f1b8
000001e0: b514 4fbc b8d5 c7bb 0241 37ba 4b92 50ba
000001f0: 40b4 29bc 5028 95bb 46cd af3b 288e 72bb
-0.0069290153 -0.004128782 0.00028234522 -0.013450283 -0.0072378954 -0.005758031 0.00078214455 -0.013080156
0.00086750876 -0.00086693565 -0.0116692735 -0.0069618686 0.017109228 4.8500035e-05 0.0016632521 -0.00022366215
-0.017222246 -0.0024374053 -0.009580992 0.0034927684 -0.0010835275 -0.0006501172 -0.0043562264 -0.010697007
-0.013040964 -0.012185138 -0.0016750243 0.0018615637 0.0024752435 -0.0037231382 -0.003619471 -0.012146948
0.0056169597 -0.0056436756 0.017504504 -0.009445273 -0.0037420853 -0.006635031 0.005572809 0.0056364005
-0.01070493 0.021016618 -0.0096089 0.0042813863 -0.00772796 -0.0098031685 0.004669129 -0.0024897095
-0.0070712953 -0.0010296325 -0.015283272 -0.005387487 -0.012968804 0.0047002523 8.37447e-05 -0.0103154415
0.004572593 -0.008178364 0.0013259312 0.0042365077 0.004523936 -0.0074658757 -0.00890236 0.005366345
-0.0013649038 0.0015356595 -0.0067098327 0.0024128486 -0.007834962 0.0037843743 -0.0042922827 -0.003723558
-0.012432441 -0.009146495 -0.008723913 -0.0037967565 -0.009791319 -0.010158847 0.0037486868 0.0061811106
-0.0028739185 0.0018454278 -0.0052312557 -0.004752453 0.0019729615 0.006876933 -0.0034936483 -0.0045954254
-0.0056423876 -0.008925826 -0.016422067 -0.0050476417 0.0030407445 0.014278609 0.0020375056 0.0036776923
-0.0009177454 -0.005835124 0.003099604 -0.0084116375 0.0044019106 0.00015384206 -0.0015090556 -4.3419917e-05
-0.019282194 0.00032064322 -0.00031768804 -0.0040007965 -0.005793142 -0.0013422001 0.002352527 0.0076818075
0.00030910005 -0.004810197 -0.00638507 -0.004881212 -0.01929774 0.008885913 -0.0066620386 -0.00011528225
-0.012639214 -0.0060984753 -0.0006990583 -0.00079563697 -0.010357916 -0.0045519248 0.0053650467 -0.0037011001

features_model.2.weight f4 [128, 128]
00000000: 3dfd 973e 6875 5a3e 37c5 7fbd 6045 fbbb
00000010: dcc8 36be 0319 9fbd 0208 3dbe d87b 84bd
00000020: 6cfa c73d 5a20 453e 8c99 563e 5402 9fbd
00000030: bcb3 2fbd 46ac 4cbd ae03 25be 540a 363e
00000040: 32f9 a63c 9692 72be 6917 d8bd 0d22 adbd
00000050: 1164 9d38 0285 0a3c 2021 c1bd 9f62 9a3b
00000060: 219f 863d f3b0 3c3d 5614 50be 75d4 62be
00000070: d609 6e3d eb2b 6dbe 3990 c6bd b549 96bd
00000080: e05b 223e ffb3 153d d9a8 723e 8f96 893d
00000090: 89e7 3bbe f8b0 eabc 40e9 32bd 4fec 643e
000000a0: 08ba 573c 5e49 a0bc 141b 863d 9d52 0c3e
000000b0: 9eab 62bd b02c 913c 0576 693c b0e5 263e
000000c0: 1d63 e83d 5622 05be 2711 8dbd e3c6 283b
000000d0: 0047 093e 4ac9 0fbc 59e9 1d3e 324a 9b3d
000000e0: 50b8 38bc 0d34 873d 168f 1bbe 872c 983d
000000f0: 8444 983c 961c 30be 23d3 9bbd d5da 983e
00000100: 5e52 3a3d e9af 19be fa12 cf3d 5f9c 3d3e
00000110: 9a4d b53d 1066 27bd 9a9d 823b 4a74 8e3d
00000120: c0c8 0d3d 89d0 5a3d 1e2c eabd 3b7a 0fbe
00000130: 3f37 f2bd 3e0a a9bc ba14 963d 4d8d bd3d
00000140: e400 343e 28e1 df3d 6d27 0c3e d042 043e
00000150: 3c59 3fbe ed66 083d 7796 283e 72e7 c1bc
00000160: 0d0e 04be ced4 9bbd a5df 60be 0ea8 e23d
00000170: c569 ee3d 585f 87be 4c7c 7cbe d0ab 50ba
00000180: ca69 9c3c 3759 0abe 915a 723d 4179 4d3d
00000190: ba4d 813c d2d0 f7bd 1958 90bd ff86 323e
000001a0: f5a8 9dbd 8326 dcbd 8a68 33be 46a4 143e
000001b0: bba4 4c3d cd6f 14be 752d 9cbc 42d8 5e3e
000001c0: 4185 693c e0ff 483e 4c3c dabd 2ea2 203d
000001d0: c6db fabd 9e70 0c3e 169f 69bd 1e2a cbbd
000001e0: 09f6 b83d 6e69 e13d 197f 0c3e 093f 653d
000001f0: 0443 87bd 0ffe 2a3e f8e3 f43d 2c7f 8bbc
00000200: eb8d 603d 7d05 c2bd 712d 533d 9bc4 3b3e
00000210: 3536 32be 4554 2c3c db15 a3bd daac acbd
00000220: 8355 4a3e 4edf 14bc fdf6 b0be 72f6 60bd
00000230: debb 1e3d 72e9 d3bd a78b d73c 2cb3 06bc
00000240: 8626 fc3c 262f fdbd 4d5d 22be 6576 16be
00000250: 3ce1 1a3d 2a7a 313e 27b0 0cbe 6b19 d43b
00000260: 8e3f 023d cafd 163e 1930 78be d8b5 a3bd
00000270: 80cf 903c b5d0 8c3d c011 833e 0182 123e
00000280: 92d8 5b3e 8c1b 2d3e bd3c fc3d 5f1d 14bd
00000290: a523 0dbd e539 ddbd 2c62 c43d eb25 603d
000002a0: d733 fdbd 03c6 9abd ff86 ba3d b2a6 363e
000002b0: 03c1 32bd d458 6e3c 3d72 2abc f0bb 433d
000002c0: c894 17bd 597c 103d 39c2 563d 0d21 343e
000002d0: 09dc 533e 95ff 223d 6b81 ad3d 9cef ae3c
000002e0: e236 c23a 6870 0dbe af2a a6bd e24a 7dbe
000002f0: 4ce5 71be 9183 3dbd f9f2 f43d 773f 02be
00000300: 2ee6 823e 90aa 783d 4a53 753d 4c33 98bd
00000310: 32ab 08be ea31 953c 426c 813b 76e8 8b3c
00000320: 0610 4ebe 9b29 89be b02e 2fbe ea3f 123e
00000330: ba1a 83bc e5a5 8ebe 7d5f 0f3d bde1 59be
00000340: d3d4 883d c009 d73c 9998 97bd 0c05 45bc
00000350: 84a4 fb3d 0653 3a3c 2c73 583e 6ae7 12be
00000360: 1893 6c3e 0e24 ea3d 4d56 8c3d f2c8 27bd
00000370: 5b2d 13bd 7fa4 d6bd 2ca8 183e cdd3 f9bd
00000380: ee2e 1fbe 7210 86bd 8ea6 423d d192 3ebd
00000390: 4ae5 50be f069 313e 1590 473e f90d c43d
000003a0: e4a9 103e e2fa d33a 375d 8bbd 9b76 d6bd
000003b0: da02 7f3c 9cca 103d 3ddc 53bd 52d3 2ebe
000003c0: 8a78 12be 6f4c 14bd 1bc6 f23d 4209 c6bd
000003d0: 2a9b 96bd cb38 b5bd c586 ffba 5f22 0b3e
000003e0: 674c 8abd 429f e73d 9c49 763c 81fe 1ebd
000003f0: bd0f 093b beac 203d 862b 5c3e e15b 243e
0.29685393 0.2133385 -0.062443938 -0.0076681823 -0.1785006 -0.077684425 -0.18460086 -0.06468934
0.09764561 0.19250622 0.20957011 -0.07764116 -0.042896017 -0.04996898 -0.16114685 0.17777377
0.020382497 -0.2368873 -0.1055134 -0.0845376 7.504982e-05 0.008454563 -0.09430146 0.0047114636
0.0657332 0.04606719 -0.20320258 -0.22151358 0.05811485 -0.23161285 -0.09695477 -0.07338277
0.1585536 0.03654861 0.23697223 0.0671817 -0.18350042 -0.028648838 -0.043679476 0.2235577
0.013166912 -0.019566234 0.065481335 0.1370339 -0.05533945 0.017721504 0.014249329 0.16298556
0.11347029 -0.1300138 -0.06888037 0.0025753311 0.1340599 -0.008776018 0.15421046 0.07582511
-0.011274412 0.06601725 -0.15191302 0.07430368 0.018587358 -0.17198405 -0.076086305 0.29854456
0.045488708 -0.1500851 0.10111041 0.18516682 0.08852692 -0.04086882 0.0039860727 0.06955774
0.03461528 0.05342153 -0.11434196 -0.14011471 -0.118269436 -0.020634767 0.07328172 0.092554666
0.17578465 0.10931617 0.13686915 0.12916112 -0.18686384 0.033301283 0.16463648 -0.023669932
-0.12895985 -0.07608949 -0.21960314 0.1106721 0.11641268 -0.2643993 -0.2465679 -0.00079601724
0.019093413 -0.13510595 0.059168402 0.050164465 0.015784133 -0.12100376 -0.07048053 0.1743431
-0.076982416 -0.10749533 -0.17520347 0.1451579 0.049961787 -0.14495774 -0.019064644 0.21762183
0.014252962 0.19628859 -0.10656032 0.039217167 -0.1224895 0.13714835 -0.05703648 -0.099201426
0.090313025 0.11006437 0.13720359 0.055968318 -0.06604579 0.16698478 0.11957544 -0.017028414
0.054822844 -0.09473703 0.05155701 0.18336718 -0.17403491 0.010518138 -0.07963153 -0.08431406
0.19759183 -0.009086443 -0.34563437 -0.05492253 0.038753383 -0.103472605 0.026311709 -0.008221429
0.030780088 -0.123625085 -0.15855904 -0.14693601 0.037812456 0.17331758 -0.13739072 0.0064727566
0.03179889 0.1474525 -0.24237098 -0.07993668 0.017677069 0.06875745 0.2559948 0.14307405
0.21469334 0.1690504 0.123162724 -0.036160823 -0.03445782 -0.10802058 0.09589037 0.05472366
-0.12363403 -0.07557299 0.0910778 0.17837027 -0.0436411 0.014547545 -0.010403213 0.047786653
-0.037007123 0.035274837 0.05243132 0.17590733 0.20689406 0.039794523 0.0847195 0.021354489
0.0014817382 -0.13812411 -0.0811361 -0.24735597 -0.23622626 -0.04626805 0.11960406 -0.12719522
0.25566238 0.060709536 0.059893884 -0.07431659 -0.13346556 0.018212277 0.003949673 0.01707862
-0.201233 -0.26789555 -0.17107654 0.14282194 -0.016003955 -0.27860942 0.035003174 -0.21277519
0.06681218 0.026249766 -0.074021526 -0.012025129 0.12287238 0.011372333 0.21137685 -0.1434609
0.23102987 0.11432658 0.06852398 -0.04096312 -0.035931926 -0.10480594 0.14907902 -0.12198601
-0.15545246 -0.065461054 0.04752212 -0.046526734 -0.20399967 0.17325568 0.19488557 0.095729776
0.14127308 0.0016172791 -0.06804889 -0.10471841 0.015564645 0.035349473 -0.051723707 -0.170728
-0.14303795 -0.036205705 0.11854192 -0.096697345 -0.07353814 -0.08848723 -0.001949512 0.1358733
-0.06752854 0.11309673 0.015032198 -0.038816933 0.0020913922 0.03922724 0.21500978 0.16050674

features_model.2.bias f4 [128]
00000000: 9abb 903a 8a25 0fbc b1fd 24bc 925e 5c3c
00000010: e141 8b3a ce64 6fbb 66d5 00bc d8db 2bbc
00000020: deb5 7ebb ef21 afbb 752c 063c cea7 cdbb
00000030: 80c7 03bc ddbd 8fbb f04d b4bb 8d2a e6bb
00000040: d156 0e3c 6aba 283b e067 bc3b 941d 953a
00000050: 39ae 78bb 8fdc eebb ebab b8bb 7738 e8bb
00000060: 7b67 7cbb af61 8bbb 9770 933b cb57 c8bb
00000070: 7220 9cb9 ae0a 08bc dc03 ec3b 0000 0000
00000080: fb57 aabb e2e1 123a 3147 2bbc 888a 7abb
00000090: a63a 8dbb f643 eebb b0d1 31bc 0000 0000
000000a0: a2da 6bbc 63f4 a1bb 1cfc 87bc 95ec 25bc
000000b0: 271a 4939 6d93 6c3b 65e6 1bbc 954a 4abc
000000c0: 29d0 473c 76b1 26bb 5308 123c b3ea 563c
000000d0: 0905 7abc 5081 4fbb f147 c93a c660 3e39
000000e0: b334 dd3b 1454 dd3a f53e f43b 0000 0000
000000f0: 6186 c5bb 797a d3ba 238f 6abc aa0d 41bc
00000100: e7dc 173b 7adb 873c 3370 96bb 555a ae3b
00000110: 5aaa 2e3b f257 d1ba 0cbd c3ba 6059 f7ba
00000120: 289a 61bc 2d71 b8bb da0f febb 9655 dfbb
00000130: 6f0c d5bb 3a3b 82ba 586e 94ba 4069 c73b
00000140: 8805 1ebb a2a6 323c b5dc f63a 54b9 22bb
00000150: a5e2 96bb 82bb 2a3a e606 68bb dc3d 74bb
00000160: b4f1 feba 01f3 8ebb 8430 5ebc 5b99 24bb
00000170: e6a1 c3bb 418b 98bb a5a5 303c 25c9 f83b
00000180: 2fcd e53b ae63 07bc 1c6f 8dbb 17f2 d43b
00000190: a31a e2bb 6a1a 8dbc 1f8f 93bc 5e6b 1ebc
000001a0: 6eea 38bb 7ba3 acbb 7e1e fcb8 b0ca 4d38
000001b0: e68b 68bc 8143 b2ba 8b72 63bb 9d73 ceba
000001c0: d3f0 633a d1ed 313b b269 daba 98b1 b1ba
000001d0: 1c3f 813b 3825 38bc d02e dc3a 45cc c9bb
000001e0: 9e16 8fbb 4b60 84bb 3436 bf3b 183f 88ba
000001f0: b753 41ba 5506 963b 40fb 8b3a f225 08bc
0.0011042238 -0.008736977 -0.01007025 0.013450282 0.0010624492 -0.003652859 -0.007863378 -0.010489427
-0.0038865726 -0.0053446214 0.00818931 -0.0062761074 -0.00804317 -0.004386647 -0.005502455 -0.0070241154
0.008687691 0.0025745877 0.0057496876 0.0011376613 -0.0037945642 -0.007289476 -0.0056357286 -0.0070868093
-0.0038513828 -0.004253588 0.0044995057 -0.0061139814 -0.00029778812 -0.0083033275 0.0072026085 0.0
-0.0051984764 0.0005603117 -0.010453985 -0.0038229544 -0.00430997 -0.007271285 -0.010853216 0.0
-0.014395388 -0.0049424632 -0.016599707 -0.010127206 0.00019178596 0.0036098615 -0.00951538 -0.012346883
0.012195625 -0.0025435365 0.008913117 0.01311748 -0.01525999 -0.003166277 0.0015356523 0.00018155863
0.006750667 0.0016886019 0.007453794 0.0 -0.006027982 -0.0016134522 -0.014316353 -0.011783043
0.002317244 0.016584147 -0.004591012 0.005320827 0.002665183 -0.0015971644 -0.001493366 -0.001887124
-0.013769664 -0.005628726 -0.0077533545 -0.0068156226 -0.0065017263 -0.0009935864 -0.0011324389 0.006085545
-0.0024112184 0.010903986 0.0018834086 -0.0024829702 -0.004604655 0.0006512926 -0.0035404502 -0.0037268316
-0.0019450695 -0.0043624644 -0.013561372 -0.002511582 -0.0059702275 -0.0046552722 0.01078168 0.0075923377
0.007012985 -0.008263512 -0.004316224 0.006498586 -0.006900148 -0.01722451 -0.018012581 -0.009669153
-0.0028215903 -0.005268512 -0.00012021976 4.9064576e-05 -0.014193511 -0.001360044 -0.0034705724 -0.0015751008
0.00086952484 0.0027149806 -0.001666358 -0.0013556955 0.003944291 -0.011239342 0.0016798619 -0.006158384
-0.00436671 -0.0040397993 0.005835319 -0.001039478 -0.000737484 0.0045783916 0.0010679737 -0.008309828

features_model.4.weight f4 [128, 128]
00000000: 6dbb 6b3b 0796 123e 4fce 63bc 4f71 3e3e
00000010: 2a80 ddbd d631 adbd 6fe5 86bc af55 95bd
00000020: 2257 0d3e f464 8abe ba14 a23d d8cc a1b9
00000030: 96ec f2bd 9647 53bd 4814 24be 3db1 16bd
00000040: 3447 9abc 1f27 1a3d 036e 53be 6fbc e73d
00000050: 8a18 aebd 7921 c13d c15c 8f3d c2a9 58bd
00000060: 7f40 11be 3f31 9ebd 9b2b d4bd 8167 f4bc
00000070: d730 553c 1a35 b4bd 33dc 8f3c 299c 3d3d
00000080: f322 1dbe 87c4 ca3d 81b3 f33d d683 c13d
00000090: a1d8 b8bc 0caa 08be d377 e33b fb28 41be
000000a0: 41bd 5fbe 359a 783d 5f59 42be 3323 0abe
000000b0: 3dcd cd3d e21c 653a 6604 ac3d e8ef 933d
000000c0: 5b7b 9ebc ba49 da3c ed1d d3bc 7279 e6bd
000000d0: 417c a6be 4126 a9bd 3f97 c2be 82bf ae3d
000000e0: 7d0c bf3d f8dc 3ebe f7d6 1dbd d31c 223d
000000f0: be44 9d3d 73bb d13d c276 a23c 4358 ecbd
00000100: b2e3 33bd 4f3d 723e 6b09 bbbd 3e2c 0f3e
00000110: 071e 903d 8f9c 58bc cd90 5a3d 2592 b1bd
00000120: 3ab0 87bd 04e4 27bd 422b 6f3d a7f4 65be
00000130: b003 06bd fc87 8c3e 785f b3bd bdda 38be
00000140: 90b7 53bd 7c5e 30be 6a39 21be 6bd9 073d
00000150: 450a e33d 65c9 e3bd c40f 68bd 5029 efbc
00000160: 1ce4 833d 2823 6a3d d985 1c3d 2d98 7ebd
00000170: 326f b53d 6146 16bd b0b6 673d 86fb 823c
00000180: 11cb 9a3d 054b 023e ea1e f2bd 5ed4 3a3e
00000190: e3e6 f0bd d410 0fbd d63c 413d ff49 9d3c
000001a0: ba44 58be f9c7 9ebd 5027 d13b b6ce 12bd
000001b0: c544 713e 5953 dbbe eb67 38ba b3a3 853c
000001c0: 704b 803e eab7 5ebd a820 aebd 7d8d af3d
000001d0: df75 6d3d 7753 873e 103a 72bc 962a 60bd
000001e0: 41d5 b33d 0cb9 42be f8be 373e 98af 0b3e
000001f0: 2f91 ac3d 6161 153c b240 3e3e db88 51bc
00000200: c49d 353d 5194 0a3c 20e8 0e3e 03a2 9e3d
00000210: 5d01 3ebd 4ab3 d1be 4b9b 92bd 3093 763d
00000220: d9d1 683d 2e44 b13d b92b 23bd 401e 323c
00000230: 68c8 c93c eb04 403e 9786 9e3c d1f4 cbbd
00000240: 81c6 3b3e 8a25 48bd 321d 7cbd 6ee1 103e
00000250: 2106 483e 4e4e 19be 4abd e0bd 2233 afbc
00000260: 73c1 d23c 9b61 4b3e 2dc0 853c b0a6 ca3c
00000270: 9d7c 0e3e d067 aabd cbcb ec3d 2dd2 8d3d
00000280: 7559 56be def1 9d3d 0b3f 2ebe 608f 073e
00000290: aa6f 353e 1e05 623e a9c9 363d f721 39bd
000002a0: ba6f 86bd dd5a 1abd d012 553c be51 9f3d
000002b0: 28af 5b3b 1360 aabc 3500 943e 3a33 513e
000002c0: 17d2 b13d eb56 aa3c 6b1f f1bd 1e87 a43e
000002d0: 99c3 2e3c 109c c4bc 73bf 95bd 67b4 d23c
000002e0: 59ab 0fbe 2c58 02be b304 f1bd 3e85 653d
000002f0: 76bd fabd 1464 19be 35a4 45bd ecb7 eebc
00000300: c6a6 ad3d f68b 3d3e 511d f13d 37fa 96bd
00000310: 482b 49be de11 573e 3eda d13d 6250 4a3d
00000320: 53f3 24be e8c4 6abd ec7a 24bd fdec 4fbd
00000330: 3e98 b93d 6a8a 2c3d 52e4 1a3e ce84 eebc
00000340: c7b3 4a3e 139d 91be 8909 cc3d 8059 f73d
00000350: f9cb 053e 0c02 0d3d 7af9 79bd 9063 4c3e
00000360: 68a6 993b 6055 0dbe f328 81be 13e6 ecbc
00000370: 74fb 343d 3813 663d 0975 b13d dc11 5d3c
00000380: 81e9 a23d 5a72 3bbc a0de d33d 8847 313d
00000390: cddd c03d bd90 9abe 24ec 90bd 0916 203e
000003a0: f08e e33d 48b1 55bd ddb3 673c 0c02 0cbe
000003b0: 6079 b8bd 4ee0 9dbd a5d5 633d 9fa5 393e
000003c0: f243 fa3c de12 cabd 87b3 d6bb 1f74 45be
000003d0: 95ce c4bd 3f4b 12bd d33c 4b3e 815d 33be
000003e0: 9f39 6dbd b40c 393d 1f21 50be b450 37bd
000003f0: 492d bbbd 9fd7 c53d 58f0 02be e53d 59bd
0.0035969869 0.14315043 -0.013904168 0.18597911 -0.10815461 -0.08456771 -0.016466824 -0.072917335
0.1380277 -0.27030146 0.079141095 -0.00030860933 -0.118615314 -0.05158194 -0.16023362 -0.03679012
-0.01883278 0.037634965 -0.20647435 0.11315238 -0.08500774 0.094302125 0.07000113 -0.05289627
-0.1418476 -0.07724237 -0.103598796 -0.02983451 0.013012133 -0.08799191 0.017561054 0.046291504
-0.15345363 0.09900766 0.11899472 0.09448974 -0.022564234 -0.13346118 0.0069417744 -0.18863289
-0.21849538 0.06069394 -0.18979405 -0.1348999 0.10048912 0.00087399606 0.083992764 0.07223493
-0.01934593 0.026646484 -0.025771106 -0.112536326 -0.32516673 -0.082592495 -0.38006017 0.08532621
0.09328554 -0.1863898 -0.038535085 0.03957827 0.07679127 0.10240831 0.019832019 -0.11540272
-0.04391832 0.236562 -0.09132656 0.13981721 0.07036977 -0.01322092 0.05336075 -0.08670453
-0.066254094 -0.040988937 0.058390863 -0.22456609 -0.03271836 0.27447498 -0.087584436 -0.18052192
-0.05168873 -0.17223543 -0.15744558 0.03316633 0.11085943 -0.11122397 -0.05665566 -0.029194504
0.06439993 0.057162434 0.038213585 -0.062156845 0.088590994 -0.036688212 0.05657071 0.015989076
0.07558263 0.1272393 -0.11822303 0.18245074 -0.11762788 -0.034928158 0.04717716 0.019200323
-0.21119967 -0.077529855 0.0063828602 -0.035841666 0.2356139 -0.42837027 -0.0007034528 0.01631341
0.25057554 -0.054374613 -0.085023224 0.085719086 0.05797374 0.26430866 -0.014784351 -0.054728113
0.08780909 -0.19015902 0.17943943 0.13641202 0.08426129 0.009117455 0.18579367 -0.012788977
0.04433991 0.008458213 0.13955736 0.07745745 -0.04638802 -0.409571 -0.07158526 0.060198963
0.05684075 0.08655582 -0.03983662 0.01087147 0.024631694 0.18751876 0.019351287 -0.099588044
0.18337442 -0.048863925 -0.06155128 0.14148495 0.19533588 -0.14971277 -0.10973604 -0.021386687
0.02572701 0.19861452 0.016326988 0.024737686 0.13914724 -0.08320582 0.11562308 0.069248535
-0.20932563 0.07712148 -0.17016236 0.13238287 0.17718378 0.22072265 0.04462591 -0.045198407
-0.06564279 -0.03768431 0.0130049735 0.07779263 0.003352115 -0.020797765 0.28906408 0.20429698
0.086826496 0.020793399 -0.117735706 0.32134336 0.010666751 -0.024000198 -0.07311907 0.025720788
-0.14030208 -0.12728947 -0.117684744 0.056035273 -0.12243168 -0.14979583 -0.048252303 -0.029140435
0.08479075 0.18510422 0.1177317 -0.073719434 -0.19645417 0.2100291 0.102467045 0.049393065
-0.16108446 -0.05731669 -0.04015629 -0.05076312 0.09062241 0.04212419 0.1512616 -0.02911606
0.19795142 -0.2844015 0.09962756 0.12077618 0.1306609 0.03442578 -0.061028935 0.19959855
0.0046890266 -0.13802099 -0.25226554 -0.028918302 0.044185117 0.056170672 0.08664901 0.013493028
0.079546936 -0.011440838 0.10345197 0.04328111 0.09417305 -0.30188552 -0.0707629 0.15633406
0.111112475 -0.05217102 0.014142004 -0.13672656 -0.090075254 -0.07708798 0.05562367 0.18129586
0.030549977 -0.0986688 -0.006552163 -0.19282578 -0.09609715 -0.03571629 0.19847421 -0.17516138
-0.05791628 0.04517813 -0.20325135 -0.0447547 -0.09139497 0.09660267 -0.12786996 -0.053037543

features_model.4.bias f4 [128]
00000000: bd82 453c 94ce 91bb f45b 7ebb b63f d33c
00000010: 3746 d8bb abfb e5ba 3bf4 73bb 904f fdba
00000020: 3bc4 2cbc 9d2b 363c b9bf 4c3c c5d0 70bb
00000030: 0000 0000 b8ce a43c ae26 c4bb dfcc 87bb
00000040: 1940 93bb 0000 0000 2200 9b3b 34bf 85ba
00000050: f477 88bb be51 a8bb 0db2 71bb 5c18 623c
00000060: 6fa5 42bb be14 a33a c5e0 afbb 95e8 b03b
00000070: ba1c 92bb 0000 0000 793e a8bb 9af9 3cbb
00000080: c219 faba 755a fa3b 271b 8ebb 3328 5fbb
00000090: 51ed 36bb f4c7 be3c a063 adbb 2f35 65b8
000000a0: aad3 123b 0123 34bb 7093 80bb 2375 6ebb
000000b0: 0176 0d3c 95c9 683c 3b44 2c3b 2487 f23a
000000c0: 2878 56bb b7c7 d4ba 6452 0d3c baa4 e0b9
000000d0: 8368 f1b9 e04d 84bb b353 52bb 06f5 0dbb
000000e0: a653 90bb 080d 2ebb c99d 84bb 507f 14bc
000000f0: d29e 0fba 821e 8a38 54dc c5bb 01fa 09bc
00000100: 2627 6dbb 14e1 79bb b9d7 bf3a b429 d33b
00000110: 4650 b6bb fe1d bcbb b13b 9dbb 3826 c639
00000120: a55a aeba fb03 a0bb 71cf d5bb d059 9dbb
00000130: 3bc2 a53b 147d 6cbb f056 9ebb d2ef ca3c
00000140: 0b0b 3fbb f5e9 003c 1821 8b3b cde5 e53a
00000150: 8472 193c da60 9cba b2c7 bb3b fee6 573c
00000160: 9919 223c 0000 0000 0000 0000 3361 bb3b
00000170: 33fa a4bb 8c11 0e3b bf8a be3a a610 b3bb
00000180: 9a2f aebb d0c9 c539 cef5 1d3b b16d aabb
00000190: a5cb 74bb 5223 d93a fe13 9cbb cbe1 603b
000001a0: 38d3 a4bb 926f 8f3b 1c6a a539 feec cfbb
000001b0: c4d2 323a 00aa d036 cc76 43bb bc10 8abb
000001c0: 4603 ea3b fb46 e4bb 777c 21bc 53c8 3739
000001d0: 8fe6 103b 3780 a9bb 91e2 b639 f7de 043d
000001e0: 58f0 8537 c347 e43b 1b01 173a 2665 133b
000001f0: c49f c0ba f7d4 663c 2b78 7ebb 02df 62bb
0.012055096 -0.004449675 -0.0038812133 0.025787216 -0.006600167 -0.0017546316 -0.003722443 -0.001932608
-0.010544832 0.011118797 0.012496882 -0.003674553 0.0 0.020118102 -0.0059860563 -0.0041442956
-0.004493725 0.0 0.0047302404 -0.0010204078 -0.00416469 -0.0051366976 -0.0036879808 0.013799753
-0.0029700657 0.0012442095 -0.005367371 0.0053988197 -0.004458991 0.0 -0.0051344004 -0.0028835298
-0.0019081163 0.007640178 -0.004336733 -0.003405106 -0.0027912448 0.023288704 -0.0052914172 -5.4647386e-05
0.0022403994 -0.0027486684 -0.003923826 -0.0036385737 0.008634091 0.014208217 0.0026285786 0.001850341
-0.0032725427 -0.0016233836 0.0086256005 -0.0004284734 -0.0004604497 -0.0040376037 -0.0032093346 -0.0021660938
-0.004404503 -0.002655806 -0.00404713 -0.009063557 -0.0005478683 6.586035e-05 -0.006038228 -0.008421422
-0.0036186664 -0.0038128542 0.0014636434 0.0064441804 -0.0055637686 -0.00574088 -0.0047983755 0.00037793978
-0.0013302161 -0.004883287 -0.006524973 -0.0048019662 0.0050585545 -0.0036085295 -0.004832141 0.024772558
-0.002915087 0.00786828 0.0042458884 0.00175398 0.009365682 -0.001193072 0.0057305926 0.013177631
0.009893798 0.0 0.0 0.005718374 -0.005034709 0.002167794 0.0014537199 -0.005464631
-0.005315733 0.0003772513 0.002410281 -0.0052010645 -0.0037352827 0.0016566312 -0.0047631254 0.003431427
-0.005030062 0.004377314 0.0003155031 -0.0063453903 0.00068215677 6.2186737e-06 -0.0029825447 -0.0042134207
0.0071415035 -0.0069664693 -0.009856335 0.00017526867 0.002211008 -0.005172755 0.0003488255 0.0324392
1.5966754e-05 0.0069665625 0.00057603576 0.002249071 -0.0014696051 0.014088861 -0.003882895 -0.0034617786

policy_model.0.weight f4 [128, 128]
00000000: 0f33 a5bb 818c 1f3c a026 073c b0fc 85bc
00000010: 91c4 0d3b c2f7 e5b9 5949 063c c1a6 2a3c
00000020: e950 b23b 259d e13b 3236 d7bb 722c 0d3c
00000030: f861 4bba 1c22 b7bc 41e2 983b def9 d53b
00000040: 0fec 9c3b ebd9 53b8 f11a caba bfcb 0c3c
00000050: 0f36 0e3b 3d4d f13b 71a8 113c 0dd4 0dbc
00000060: 1119 333c 2807 2f3a af5b ca3a ccee f1bb
00000070: 82d3 e53b 1b02 413a ab49 1b3c edeb 2c3c
00000080: 6911 2d3c 90a8 c23b c1fa 133c 3a9f 293c
00000090: 8dda 7e3b eb14 81bc 1426 0d3c 084b 7d3a
000000a0: d9b9 433b 24c0 c63b 4ab0 593a 587c 353b
000000b0: 662b 1a3c 4f44 5dbb 6d85 aeba d5cf a9ba
000000c0: 7459 d63b ee1c 183c 0a4c b83b 7597 04b8
000000d0: 3ee0 4b3b 53a1 223c 02a5 063c c079 093c
000000e0: 153c ba3b 3ccf 0d3c 7072 653b cdf5 eb3b
000000f0: 5c35 30bb 14f9 663c a706 ab3b 5fdb cdbb
00000100: c931 9f3a 1618 ec3b 1bc8 6139 30ef ac39
00000110: 2611 c53b 9e3d 263b ae24 083c 3814 773b
00000120: 5b59 d83a b2c4 263c 1be3 1f3c 14ce 123c
00000130: 2e06 f73b 93e5 8c3a f005 103c 3d90 c1bc
00000140: 5828 153c 315b b83b 5033 b03b 3d72 203c
00000150: fb20 0dbc df1d 9c3a ef92 513b cefd 41bc
00000160: 55f4 8f3b 249b 813a 29a1 6e3a 9e04 173c
00000170: e1cd f83b 4074 763b e797 baba 9057 b93b
00000180: c635 1f3c 7c94 c8bb a731 8d3b b6c7 dd3b
00000190: 61a5 113c 251a 773b 0112 203c 022d 003b
000001a0: 2b44 773b 8d28 283c a4ad 133c 76fd cb3a
000001b0: d22f 37bb 821a c03b ce21 383c 8d95 153c
000001c0: 7bb5 05bc 5651 c139 7330 c1ba dfcc 463c
000001d0: d3af c83b 0bbd 1c3c c7ea 0d3c cade f2bc
000001e0: e930 ac3b acff 63bb b2b4 113b 0e4b 36bb
000001f0: 2ad5 c9ba 2af9 56bc dc5f e13b a680 333a
00000200: af14 2ebb 8f15 cd3b ca0b 003c 8283 afbc
00000210: bc52 5abb aae3 1c3b e7f1 1e3c c5cf 183c
00000220: d81e 093c d7d1 873c 3169 263b bacc 193c
00000230: fb74 54b8 109a 85bc 6e96 c23b b6a2 1c3c
00000240: c6ac dc3b f541 7038 2000 5b3b 43eb 8f3b
00000250: 3ce9 d5b9 121a c43b 76c0 de3b 501b a9bb
00000260: c997 dd3b 6315 4abb e61b 053c 4fdf 313a
00000270: b788 e63b 3c4b 87ba 3826 0f3c f059 1a3c
00000280: 6021 073c 78c3 9dba c4d4 be3b e5f4 913b
00000290: 861a c7ba af3b a4bb 7f20 1e3c c038 483b
000002a0: 42ac 333c 316a 093b 48b6 233a 83a4 133c
000002b0: f303 cf3c 43bb cc3b d940 163c 304d 5dbb
000002c0: 726d 0e3b b058 f23b 513b d139 fd77 bc3b
000002d0: 472f 0c3c 6164 033c ab41 a43b 7862 dd3b
000002e0: a2fc c83b d31b 1a3c cfee 5f3b 297e 233c
000002f0: 3e2a 25bb 526f ed3b f166 323c f9d2 c2bb
00000300: 251e aaba a017 fc3b 1f4e 8b38 ec25 0a3c
00000310: 2d45 0e3c c389 203c e066 d93b 00b8 cbb3
00000320: 1e17 863b 3c86 fc3b 90c1 0d3c a054 0b3c
00000330: 36e8 8939 26cf f83a c9ef 263c aa39 58bc
00000340: b757 3c3b 2a2b a03a 3dfc ad3a 8c52 3c3b
00000350: 956f 7b3b d525 29bb 8ca5 9cba 540d 8ebc
00000360: d78a 96b8 9a65 0eb9 0206 beb8 187a 443b
00000370: 8a36 da3b cb80 1aba 2ca3 003c 00a9 fc3b
00000380: f872 e73b 8694 513b 3190 d639 ab12 0c3c
00000390: 5801 053c 3664 9939 c96f 053c 2c36 92bb
000003a0: 16a5 9c3b 9c0a d03a cb58 d43b 963c cd3b
000003b0: 2913 c53b f4d1 e23b 668f 8d3b e80a 003c
000003c0: 8d8b b53a 90f2 2a3b 9007 5e39 8135 8b3b
000003d0: 5d3f ae3a 29e5 093c 19bf 823b 2df1 a7bc
000003e0: 45fc 173b a61d 013c df5c 3fbb e6f6 3f3b
000003f0: eff1 c0ba b2de 0739 d350 d23b 500c 213b
-0.005041487 0.009738089 0.008248955 -0.016355842 0.0021632055 -0.00043862878 0.008196198 0.010415734
0.005441774 0.006885188 -0.00656774 0.008616554 -0.0007758434 -0.022355132 0.0046656434 0.0065300306
0.0047888826 -5.0509272e-05 -0.0015419406 0.008593499 0.0021699702 0.007363944 0.008890257 -0.008656514
0.010931269 0.00066767866 0.0015438701 -0.007383203 0.007013739 0.00073626795 0.009478013 0.010554296
0.010563233 0.0059405044 0.009031952 0.010352904 0.003888759 -0.015757045 0.008615036 0.00096623646
0.0029865413 0.0060653854 0.0008304162 0.0027692523 0.009409761 -0.003376264 -0.001331491 -0.0012955616
0.0065414254 0.009284241 0.005624299 -3.1612308e-05 0.0031109 0.009926158 0.008218052 0.008390844
0.005683432 0.008655366 0.0035010837 0.0072009326 -0.0026887273 0.014097471 0.005219299 -0.0062822546
0.0012145574 0.0072050197 0.00021532217 0.00032984605 0.006014007 0.0025366317 0.008309526 0.003770126
0.0016506122 0.010178732 0.009758736 0.008960266 0.0075385785 0.0010749571 0.008790478 -0.023628348
0.009103857 0.0056261052 0.0053772107 0.0097928615 -0.00861382 0.0011910758 0.0031978448 -0.011840297
0.0043931403 0.0009888154 0.0009102994 0.009217409 0.007592902 0.0037605911 -0.0014235944 0.00565619
0.00971741 -0.0061212163 0.0043088975 0.006768192 0.008889527 0.0037704792 0.0097699175 0.0019558077
0.003772984 0.010263574 0.009013567 0.0015563208 -0.0027952087 0.005862535 0.011238528 0.009129894
-0.008160944 0.0003687243 -0.001473917 0.012133806 0.0061244755 0.009566556 0.008661932 -0.02964725
0.005254854 -0.0034789843 0.0022232947 -0.0027815732 -0.0015398611 -0.013120929 0.0068778824 0.0006847478
-0.0026562621 0.0062586735 0.007815311 -0.021425012 -0.0033313474 0.002393941 0.009701229 0.00932688
0.00836917 0.016579552 0.0025392289 0.0093871895 -5.0653685e-05 -0.016308814 0.005938343 0.009560278
0.0067344634 5.7281886e-05 0.0033416823 0.004392059 -0.000408003 0.005984553 0.0067978455 -0.0051607266
0.006762479 -0.0030835501 0.008124327 0.000678529 0.0070353406 -0.0010322104 0.008737139 0.009420857
0.008247703 -0.0012036404 0.0058237035 0.0044542425 -0.00151904 -0.0050119977 0.009651302 0.0030551404
0.010966362 0.0020967836 0.00062451186 0.009011391 0.025270438 0.0062479093 0.009170734 -0.003376793
0.0021732715 0.0073958263 0.0003990778 0.0057516084 0.008556194 0.008019538 0.005012711 0.006756123
0.006133632 0.009406048 0.003416944 0.009978809 -0.002520218 0.0072459364 0.010888801 -0.00594556
-0.0012978954 0.007693246 6.642588e-05 0.008431893 0.008683485 0.00979847 0.006634578 -9.4863935e-08
0.0040921113 0.0077064317 0.008652106 0.008504063 0.00026303687 0.0018982633 0.010189005 -0.013197342
0.0028738806 0.0012219895 0.0013274025 0.0028735725 0.0038366069 -0.0025809903 -0.0011951192 -0.01734034
-7.178418e-05 -0.00013580025 -9.061025e-05 0.002998 0.0066593336 -0.00058938254 0.007851403 0.007710576
0.007063266 0.0031979396 0.00040924692 0.008549373 0.008117996 0.00029257097 0.008144327 -0.004462024
0.004780422 0.0015872302 0.0064803115 0.006263326 0.006014247 0.006922001 0.004320073 0.0078151
0.0013850793 0.002608452 0.00021174387 0.0042483215 0.001329403 0.008416452 0.003990066 -0.020500744
0.0023191136 0.007880604 -0.0029199643 0.002929145 -0.0014720539 0.00012957564 0.0064183264 0.002457399

policy_model.0.bias f4 [128]
00000000: 6fdb 24bb a9e6 4cba 443e f23a b527 133b
00000010: b249 31bb 9de0 85bb dbde 8a3a ee46 98bb
00000020: e7a4 c4ba 6623 16bb 61f4 09bb 72c9 f4bb
00000030: 0000 0000 b434 f7bb ae69 1bbb 3af3 58bb
00000040: 4087 d0bb 0000 0000 5120 a6bb a97b c4ba
00000050: 435f 36bb b9b2 c4ba 73a8 c4ba e987 c4ba
00000060: 5de5 2fbc 9513 f7bb fd4e dcbb ea85 63bb
00000070: 9aa6 fcbb 37ab cabb 0000 0000 0ec5 48bb
00000080: 8561 c4ba a9f1 703b 740e 76bb bf25 16bb
00000090: 1104 92bb 0000 0000 5340 98ba 8104 93ba
000000a0: 09dd af3a b3e2 36bb 76bd c3ba 7a13 32bc
000000b0: 783f c4ba 14c1 99bb 38d1 e9bb 2ee2 89ba
000000c0: 0b92 c4ba 11d5 83bb ac7c c4ba caac c3ba
000000d0: 50ad c4ba d086 a937 dd3a 7ebb 54e6 b8bb
000000e0: f712 e73a 7964 61ba 47aa c4ba 927f d7bb
000000f0: 04a3 a736 d0bc c4ba 7b46 28bc f36b 8d3a
00000100: fa79 52bb 9433 7cba 0df7 a33a 20b5 6337
00000110: e961 57bb f0bb 70bb 2fc0 c4ba 8f79 4abc
00000120: 5584 c4ba 0000 0000 6565 863a 989c c4ba
00000130: cfbd d8bb a809 69bb 0c9e d5bb 4df6 b8bb
00000140: 93a0 c739 9d6e ecbb b226 c4ba 0cac c4ba
00000150: beb8 c3ba 0000 0000 7139 bdbb 20d3 353a
00000160: d92f ddbb 27ff 61bb edff 36bb f815 1a3c
00000170: c14e 1abb 6f8e c4ba b9a5 adba b639 98b9
00000180: b8d1 cbba 7c90 fa3b e597 a8b9 f337 2bba
00000190: ee55 1ebc 42b5 c4ba f564 05bb 83cb a4bb
000001a0: 49e7 3cba 8d58 d5bb e968 c4ba 11b4 08bb
000001b0: c039 bbba ec2b 47bb 931d a8bb 31ae c9bb
000001c0: 8f41 00bc 7430 4dbb 71a4 a23b a94f 4fbb
000001d0: b029 3cbb 8aec a8ba 6768 efbb 7562 f73b
000001e0: 1ced 20ba d3a7 e1bb e9e8 0abc 412b 0bbb
000001f0: 9393 c4ba 0000 0000 b30d 4fb7 b4b7 9cbb
-0.0025155207 -0.00078163535 0.0018481691 0.0022454087 -0.0027051982 -0.004085614 0.001059498 -0.0046471274
-0.0015002758 -0.0022909283 -0.0021050202 -0.007470303 0.0 -0.0075441245 -0.0023714113 -0.0033103959
-0.0063637793 0.0 -0.0050697704 -0.0014990467 -0.0027827777 -0.0015006877 -0.0015003815 -0.0014994118
-0.010735837 -0.007540176 -0.0067232833 -0.003471727 -0.00771029 -0.006184961 0.0 -0.0030635032
-0.0014982676 0.0036765134 -0.0037545236 -0.0022910682 -0.004456051 0.0 -0.001161585 -0.0011216552
0.0013417314 -0.002790612 -0.0014933783 -0.010868901 -0.0014972528 -0.004692206 -0.0071355365 -0.0010519677
-0.0014997137 -0.004023202 -0.0014990768 -0.0014928814 -0.0015005264 2.0209147e-05 -0.003879241 -0.0056426916
0.0017629553 -0.00085980404 -0.001500436 -0.006576487 4.9959654e-06 -0.0015009884 -0.01027071 0.0010789618
-0.003211616 -0.0009620723 0.001250954 1.3572426e-05 -0.0032864755 -0.0036733113 -0.0015010888 -0.012358083
-0.0014993051 0.0 0.0010253607 -0.0015000282 -0.006614424 -0.0035558734 -0.006519085 -0.0056445957
0.00038075875 -0.0072153346 -0.0014965145 -0.0015004887 -0.0014932377 0.0 -0.00577467 0.0006936062
-0.0067500887 -0.0034484358 -0.002792354 0.009404652 -0.0023545476 -0.0014996062 -0.0013248242 -0.00029034697
-0.0015550172 0.0076466184 -0.00032156627 -0.00065314694 -0.009664042 -0.0015007632 -0.0020354365 -0.0050291433
-0.0007206095 -0.0065108 -0.0014984879 -0.002085928 -0.0014284179 -0.003039117 -0.0051304786 -0.0061547984
-0.00782813 -0.0031309398 0.0049634506 -0.0031633175 -0.002871137 -0.0012887877 -0.007306147 0.007549579
-0.00061388477 -0.0068864613 -0.008478382 -0.0021235498 -0.0014997594 0.0 -1.2341351e-05 -0.0047826413

policy_model.2.weight f4 [8, 128]
00000000: d8d5 81ba a026 35bb b806 203b f625 ce3a
00000010: 1ee4 6abb 4740 ddb9 8575 c2ba 97a3 01bb
00000020: 6ae6 97b9 72b6 0abb 4d74 5ebb 227b 53ba
00000030: 6cbc d4b9 4227 31b9 bbae 45bb d597 17bb
00000040: 7c7c 10bb 85d2 b23a 8724 d5b9 1f55 a83a
00000050: 0841 97ba 2cf8 20bb 5ddc 033a d485 49ba
00000060: 8adb c53a 4033 3ab6 aab7 013a e20f c6ba
00000070: 07a1 7539 5812 2cbb 5b15 a43a 8846 94ba
00000080: 916f 98ba bd7f fdba fa7d afba 14f6 81bb
00000090: 23ba fdba ad96 47ba 4b74 0b3b 847d 8eba
000000a0: 5607 8cba 01f2 88bb bbe8 1aba 8823 0a3b
000000b0: 668d eaba 87a1 fcba 6426 4cb9 c8a9 88ba
000000c0: c7af ffba 7f95 beba eb74 caba 93e2 a4ba
000000d0: 72b1 9f39 051c 46bb a60d b5ba 6bea 24b9
000000e0: 60ca 0c37 ac94 7bb9 3fb5 b83a 47e8 04bb
000000f0: c3ef 01bb 67b0 0bbb c1d1 2a3b 6ac4 2cbb
00000100: ba83 4fbb 8d85 7dba 8831 37bb 4ef5 ed39
00000110: a434 bd3a 4fdf 3cbb 0424 f9ba b0ae b8b9
00000120: 3530 d8ba 4086 c4b9 dfc8 faba 4cd8 d1ba
00000130: 3540 88ba 9832 84ba da32 8fba 0b74 4dba
00000140: c002 323b b8cb 4eba d308 1ebb 754d cf3a
00000150: 16f1 cb3a 99b4 d33a 76ac 31bb 78f0 b0bb
00000160: 1364 aaba 973e 86bb 0630 25ba 9ce6 95ba
00000170: ce0e 6dbb bfe2 18bb f3a8 15ba 05cc 78bb
00000180: 57ed a03a 8655 b1ba 18d6 b63a 8fd8 6c39
00000190: 79ef 9aba 459f 553b 6604 413a 4259 48bb
000001a0: d1ce 50ba 09d6 03bb 0974 7fba 85ff ef3a
000001b0: 2efd 8aba b2cf b63a 5421 68b9 9ba9 ceb9
000001c0: f0da 85ba d556 9cba 4b48 a6bb 0c78 1bbb
000001d0: b461 6bbb 076b ad3a 3d4e b2bb 55e3 773b
000001e0: 1ddd 6abb cab3 ee3a d58b 80ba acae 8fba
000001f0: b5e9 84ba 5e7a deb9 95d4 973b 8897 2eb9
00000200: 7f1c 40bc 0274 3abc b636 d93a 7861 563b
00000210: 4f8a 29bc 49c8 3dbc 3d7d 393a 8265 46bc
00000220: 8738 2e3b 4a9c 48bc a0d3 30bc 6753 18bc
00000230: 628c e3b8 c7d2 32bc f4eb 40bc a93c 2bbc
00000240: 5f62 19bc dc96 523a 8acb 30bc e7be 973a
00000250: d1a8 5bbc ba79 9f3a 6609 ef3a 2e08 873a
00000260: b6d4 3ebc 98bd 12bc 03dd 4ebc c3e3 45bc
00000270: ef76 40bc 6b86 15bc ee1a 81ba 2c7c 41bc
00000280: 3368 a5ba 28fe 09bc 9ee6 53bc 1dbb 23bc
00000290: c4b0 24bc e302 863a 6fa1 83bc e842 9bb9
000002a0: fcb3 943a a06f 06bc 29b9 9d3a 0544 3abc
000002b0: f2ea 903a e2ec 18bc 3c99 1dbc a650 393b
000002c0: 0931 a036 2a0d 20bc 8a9e d13a b1d0 b8ba
000002d0: 39f4 88ba 43f3 00bc b978 d23a e9d0 27bc
000002e0: 5e14 4ebc c137 693b 4e87 a2ba 8fde 0cbc
000002f0: 582e c0ba 3164 b63a 495d 48bc f522 48bc
00000300: e63b 1bbc f10d d83a 843d 30bc d33c 72bc
00000310: f1f2 7a3b ae0d 14bc acb0 e43a 736e 25bc
00000320: bad7 b73a b37e ccb9 94eb 12bc 2661 d73a
00000330: 979c 23bc a970 28bc 338b 2bbc f6c2 3abc
00000340: 98ed 10bb 9ac8 15bc 4b6f 20bc 64c6 213b
00000350: f8de 773a 0b93 1cb9 d101 0cbc 253b c4bb
00000360: 6e2e 27bc a78b 2cbc 9c7b a03a b2bd 25bc
00000370: 06f4 d4bb 0467 0eba f454 22bb fa34 e5bb
00000380: c227 ab3a 152f 4fbc edeb b939 b16f ad39
00000390: 053e 23bc a107 f93a 1a7d 6f3a 417e 1abc
000003a0: afa9 aa39 736d 1dbc ec08 e53a 9ab2 403b
000003b0: 776f 07ba 5afc 01ba 0160 56bc b234 27bc
000003c0: 5949 1dbc f0df 32bc 9cdd 4f3b 63cd 3abc
000003d0: efaa 28bc 87f1 d73a f729 273b 6ecc 23ba
000003e0: 7af3 3ebc 98e7 81bb 7b30 16bc 6ab2 28bc
000003f0: e253 fd3a 3dda 50b8 ebe2 123b 4ffa 3dbc
-0.0009905649 -0.002764143 0.0024418067 0.0015727866 -0.0035841535 -0.00042200295 -0.0014836049 -0.0019781345
-0.00028972636 -0.0021165875 -0.0033943832 -0.00080673594 -0.00040576176 -0.0001689466 -0.0030163962 -0.002313127
-0.0022046855 0.0013643062 -0.0004065374 0.0012842751 -0.0011539767 -0.0024561984 0.000503009 -0.00076874834
0.0015095335 -2.7745991e-06 0.00049483276 -0.0015110935 0.00023425008 -0.002625605 0.0012518571 -0.0011312524
-0.0011629929 -0.0019340437 -0.0013388984 -0.0039661024 -0.0019357841 -0.00076137 0.0021279033 -0.0010871147
-0.0010683339 -0.0041792397 -0.00059093133 0.0021078307 -0.0017894923 -0.0019274213 -0.00019469258 -0.0010426575
-0.0019507342 -0.0014540403 -0.0015446221 -0.0012579731 0.0003045905 -0.0030229103 -0.0013813272 -0.00015727586
8.391769e-06 -0.0002399261 0.0014092101 -0.002028005 -0.0019826747 -0.002131486 0.0026064964 -0.002636219
-0.0031664209 -0.00096710847 -0.0027953107 0.0004538693 0.0014435244 -0.0028819626 -0.0019007926 -0.00035225367
-0.0016493859 -0.00037484057 -0.001913335 -0.0016009896 -0.0010395112 -0.0010085879 -0.0010925189 -0.0007837421
0.0027162284 -0.0007888633 -0.0024114146 0.0015815931 0.001555952 0.0016151845 -0.0027110851 -0.00539976
-0.0012999795 -0.0040968168 -0.00063014065 -0.0011436525 -0.0036172154 -0.002332851 -0.00057090743 -0.0037963402
0.0012277764 -0.0013529516 0.0013949303 0.00022587388 -0.0011820636 0.0032596153 0.0007363021 -0.003057078
-0.00079653884 -0.0020116589 -0.00097447686 0.0018310404 -0.0010604018 0.0013947396 -0.0002213766 -0.00039417748
-0.0010212343 -0.0011927733 -0.005074536 -0.0023722677 -0.003591639 0.0013230749 -0.0054414556 0.003782471
-0.003583736 0.001821154 -0.0009807298 -0.001096209 -0.0010140451 -0.0004243431 0.004633496 -0.00016650383
-0.011725544 -0.0113801975 0.0016572091 0.0032711904 -0.010347917 -0.011583396 0.0007075852 -0.012109162
0.0026583986 -0.0122442935 -0.010792643 -0.009297228 -0.00010850352 -0.010914511 -0.011775006 -0.010451474
-0.009361832 0.0008033344 -0.010790715 0.0011577279 -0.013406948 0.0012167015 0.0018237054 0.001030212
-0.011647394 -0.0089563355 -0.0126259355 -0.012078228 -0.011747106 -0.009126286 -0.0009849945 -0.01180939
-0.0012619555 -0.008422412 -0.012933401 -0.009993342 -0.01005191 0.0010224249 -0.016068188 -0.00029613753
0.0011345143 -0.008205324 0.0012033331 -0.011368756 0.0011056347 -0.009333821 -0.009619053 0.002827683
4.77408e-06 -0.009768764 0.0015992683 -0.0014100281 -0.0010448761 -0.007870498 0.0016057707 -0.010242679
-0.012578098 0.003558621 -0.0012399943 -0.008597984 -0.0014662249 0.0013915357 -0.012229272 -0.012215366
-0.00947473 0.0016483647 -0.010756854 -0.014785009 0.0038291777 -0.009036465 0.0017447672 -0.010097134
0.0014026084 -0.0003900431 -0.008967299 0.0016432151 -0.009986064 -0.0102807665 -0.010470199 -0.011399021
-0.0022114273 -0.009142065 -0.009792159 0.00246849 0.0009455527 -0.00014932097 -0.008545355 -0.005988496
-0.010203941 -0.010531343 0.001224387 -0.010116028 -0.0064988164 -0.00054322206 -0.0024769874 -0.0069948407
0.0013058113 -0.012645503 0.00035461728 0.00033080348 -0.009963517 0.0018999466 0.0009135768 -0.009429515
0.0003255135 -0.009608614 0.0017473972 0.002940333 -0.0005166451 -0.0004958563 -0.013084413 -0.010205435
-0.009600007 -0.010917649 0.0031717783 -0.011401507 -0.01029466 0.0016475179 0.002550719 -0.0006248419
-0.011654729 -0.0039643757 -0.009166832 -0.0102964435 0.0019327367 -4.9794315e-05 0.0022413086 -0.011595323

policy_model.2.bias f4 [8]
00000000: aa79 5ebb 05d4 a6bb 027d 3abb b81f f0b8
00000010: 3242 c73b 173e 52bb f3d9 cb3b c034 5f3b
-0.003394703 -0.0050911927 -0.0028455858 -0.0001145 0.006080889 -0.0032080465 0.00622105 0.003405854
