results/short_race/second_iteration_training_batch_size_150/model2.pt (torch, 275307 bytes, 13 tensors)

features_model.0.weight f4 [128, 4]
000000 b0 15 4c 3e 3c 55 d0 bd 72 46 28 bd 54 31 58 3b
       0.19930148 -0.10172507 -0.041082807 0.0032988386
000010 26 f6 c6 3d c2 dc 7a 3d c1 58 7d be 97 14 c7 3c
       0.09714918 0.061245687 -0.24740888 0.02430181
000020 fb e0 85 ba 35 c4 a4 3d 97 5b 82 be fe 00 88 bd
       -0.0010214144 0.08045236 -0.25460503 -0.06640814
000030 09 34 26 3e 46 2a 71 3e 8a ae 8d 3d bd ca 31 3e
       0.16230787 0.23551282 0.06918056 0.17362495
000040 c5 30 48 be 0c 3c 11 be 45 3a e8 bd 0d d6 a6 bd
       -0.19549854 -0.14183062 -0.11339239 -0.08146296
000050 d6 82 1d 3d 9a 2a b8 3d 2a 2d 6b 3d aa b3 98 3d
       0.038454853 0.089925006 0.05741612 0.07456143
000060 6e 22 af bd 75 fa 97 3d 39 d6 af 3c fe 5b 88 bd
       -0.08551489 0.07420818 0.021464454 -0.06658171
000070 ad 26 00 bd d7 e2 d0 bc 22 9f 08 3e 54 50 e9 3d
       -0.031286884 -0.02549879 0.13341954 0.113922745
000080 5a 64 e3 3c 98 e7 2a be 94 1b 34 3e c6 f1 f3 bd
       0.027757812 -0.16689909 0.17588645 -0.11911349
000090 8d de 8f 3d 55 22 3f 3e c4 7f e3 bd ed 08 ea bc
       0.0702487 0.1866544 -0.11108354 -0.02856871
0000a0 aa 00 c1 bd 2d ae 2f be ea c3 9d 3d 7f b1 eb bc
       -0.09423955 -0.17156287 0.07703383 -0.02877116
0000b0 0d 9d 39 3e 9e 78 46 be 34 1d a2 be 88 28 5d 3d
       0.18126316 -0.1938195 -0.31662905 0.05399373
0000c0 0e 78 00 be 06 a0 5a 3d 7a 46 b8 3d 03 ed 1e be
       -0.12545797 0.053375266 0.08997817 -0.155201
0000d0 84 6c 42 be 00 e8 ed bd 6c 2b 7a 3e 4d c9 50 3b
       -0.18986708 -0.11616516 0.24430627 0.0031858266
0000e0 f1 a3 3d be 3e e5 02 3e 84 e1 11 bd 2f d9 15 bd
       -0.1851957 0.12782761 -0.03561546 -0.036584076
0000f0 05 30 c5 bd 09 f4 dd bd 9c 68 2a be f7 df 94 3c
       -0.096282996 -0.10837562 -0.16641468 0.018173201
000100 60 07 86 bc dc d2 fd bd 12 af 46 be 6b 1d 3a be
       -0.016360939 -0.12393734 -0.19402722 -0.18175285
000110 d4 6f 48 bd 5a 3f d2 bd ae 97 17 3e 54 31 00 3d
       -0.048934773 -0.102659896 0.14803955 0.031297043
000120 fa eb 4c bd 88 f3 7b be c7 8f 7c bd 2a dd fb bd
       -0.050029732 -0.24604619 -0.061660554 -0.12298043
000130 39 ef 1c bc d1 37 31 be 10 70 18 be 2f 1c 04 3e
       -0.0095785195 -0.17306449 -0.14886498 0.12901376
000140 9e 13 c0 3d 3c de 3f be 4b 10 91 3d de ea 28 bd
       0.09378742 -0.1873712 0.07083186 -0.04123961
000150 94 30 ca 3d fd 8d 0e be b4 cc 5e 3b 4a 25 23 3d
       0.09872547 -0.13921352 0.0033996524 0.039830483
000160 d3 6f 01 be 0c 4c c9 3c 13 b0 84 bb 0b 07 48 3e
       -0.12640314 0.024572395 -0.00404931 0.19533937
000170 a0 3d aa 3d ef 7f 11 bd 29 de 8e 3a 76 f2 eb 3c
       0.08312535 -0.035522398 0.0010899949 0.028802138
000180 94 df ad bd 14 66 13 be 13 6b 43 3e cf 41 af be
       -0.0848991 -0.14394408 0.19083814 -0.34229895
000190 5c 0e 8e 3d df be c2 bd 0c 69 04 3d d6 b0 79 3d
       0.069363326 -0.09509062 0.032326743 0.06095966
0001a0 ac c3 38 bd 0b ba ec 3d 48 4e 95 bb e3 47 00 be
       -0.045108482 0.115589224 -0.004556451 -0.12527423
0001b0 3a c1 27 be 8b 3e 56 3c 76 57 e5 bb 9a 9c 04 3e
       -0.16382304 0.013076435 -0.0069989515 0.12950364
0001c0 e4 a9 4c 3e d1 c9 c4 bc 86 3f 68 3e 51 41 f3 3d
       0.19986683 -0.024022015 0.22680482 0.118776925
0001d0 ca a4 a7 bc 3f 8d 43 3e de 34 79 3c c1 1c 4a 3d
       -0.02046432 0.1909685 0.015210358 0.049343828
0001e0 d3 10 94 be 83 ab 5e 3c e2 65 39 3d 8f 7b b2 bd
       -0.28919086 0.013590696 0.04526318 -0.08714973
0001f0 0d c0 c1 bd 3f 3a 19 3c e9 62 1a 3e 2f fc 3c be
       -0.09460459 0.009352266 0.15076794 -0.18455575
000200 28 56 44 be 55 be 06 3e e1 d9 0d 3e 05 fb 02 3c
       -0.19173491 0.13158543 0.13852645 0.007994418
000210 ec 4e 4a 3c 96 88 af 3d b2 63 b0 ba 9c 67 66 3d
       0.012347918 0.085709736 -0.0013457446 0.056251153
000220 55 8a 00 3d 1e 4d 81 bd 1d d9 63 3d 62 81 1f 3e
       0.031381924 -0.06313537 0.055626977 0.155767
000230 2c a1 df 3c e1 3c a6 3c 13 3b 01 be 03 4c c8 bd
       0.027298532 0.020292701 -0.12620191 -0.09780123
000240 ec 70 ab bc 25 6f 4a be 6a b2 25 3e d4 ef 3a 3e
       -0.020927869 -0.19768961 0.16181341 0.1825555
000250 25 4a 2c bc 69 e9 5c 3d 17 f3 b7 3b db bd 99 be
       -0.010515724 0.053933535 0.0056136954 -0.3002766
000260 52 e6 d0 3c 0d d2 7f 3d 0a af a0 3d f6 ac 81 3d
       0.02550045 0.06245618 0.07845886 0.06331818
000270 da 8f 5b bc 10 65 03 3c 55 62 55 3e 55 84 f8 3d
       -0.013400996 0.008019701 0.20838292 0.12134615
000280 2e f2 97 3d 6d 92 88 3d be c2 5f bd ac 73 69 be
       0.07419239 0.066685535 -0.05462908 -0.22798032
000290 b2 e1 5b bc 9c 75 a5 3c c5 95 c5 3d a6 5f 53 3e
       -0.013420509 0.020197682 0.09647707 0.20641956
0002a0 17 91 8a 3d f4 f5 81 bd 6d ca 54 3d ff de d8 3c
       0.06765955 -0.0634574 0.05195086 0.02647352
0002b0 f9 f0 ae 3d 50 c8 f9 bb be b8 f0 bd 44 fc 12 be
       0.08542056 -0.007622756 -0.11753987 -0.14354044
0002c0 7e 2f 45 bb d6 24 ee bc d5 be 91 bc 99 08 05 bb
       -0.0030088122 -0.0290703 -0.017791191 -0.0020299314
0002d0 73 63 9c bd 5c ff 2c 3e a7 cd 31 3d f2 a6 55 3e
       -0.07636156 0.16894287 0.043409016 0.20864466
0002e0 be 9e 6a bd d3 ae 33 3e 9f 28 f2 3c 22 74 04 be
       -0.057280295 0.17547159 0.029560385 -0.12934926
0002f0 1a 12 38 bb 4f 23 0c bd df 85 b0 bd f5 7c 49 3d
       -0.0028086961 -0.03421336 -0.08619284 0.049191434
000300 1a 73 88 be 67 74 25 be 37 10 f5 3d 30 80 4b 3e
       -0.26650316 -0.16157685 0.11965983 0.19873118
000310 05 32 dc 3c 46 8c 4a 3e f7 97 41 3d bc ae 8d 3a
       0.02687932 0.19780073 0.047264066 0.0010809521
000320 9e a1 fe 3d 54 06 c2 bc 3b 9a 98 3d b9 62 cd 3d
       0.1243317 -0.023684658 0.07451292 0.100285955
000330 3c f9 c7 3b e9 ec 61 3e 1d 81 b8 bd 19 2c b3 bb
       0.006102709 0.2206303 -0.090090014 -0.0054679033
000340 2c ee b1 3b ff 3f 14 be 69 d6 3b 3e a2 f0 0a be
       0.0054300036 -0.14477538 0.1834351 -0.13568357
000350 a8 e2 97 3d fc 79 cf bc 6f de 70 3e da 13 64 3e
       0.07416278 -0.025326721 0.23522352 0.22273198
000360 f5 05 dc 3c c1 ea b2 be 48 d8 60 3d fa 1b 2b 3b
       0.02685831 -0.34944728 0.054893762 0.0026109205
000370 19 e3 29 bd 05 ad 0b be ec 9b 3a be 23 84 91 bd
       -0.041476343 -0.1364022 -0.18223542 -0.07105281
000380 fc 1d 67 3e 23 0b 96 3d 08 be 79 3d fa 39 cb bd
       0.22570032 0.07326343 0.060972244 -0.099231675
000390 d4 00 f8 bc 04 1f 81 bd f5 b8 07 3e bb 9b e3 bd
       -0.030273832 -0.06304744 0.1325415 -0.111136876
0003a0 00 3b 17 3e f2 80 22 3d 1f 95 4e bd c0 1a e3 3c
       0.147686 0.039673753 -0.05043518 0.027722716
0003b0 83 a4 d6 bd 9a 30 8f bd e6 3b bb 3d 98 84 fc 3d
       -0.10480597 -0.06991692 0.09142284 0.12329978
0003c0 64 d8 59 bc 02 dc 6a bd 39 53 e8 bd f3 5e c5 bd
       -0.01329622 -0.057338722 -0.113439985 -0.09637251
0003d0 9a 63 63 bd dd 75 3a be 71 36 89 bd 16 84 9b 3d
       -0.05551491 -0.18209024 -0.06699837 0.07593553
0003e0 db e8 86 3e 15 72 aa 3d e7 1c 9c bd 4b 8e ce bc
       0.2634953 0.08322541 -0.076227 -0.025214335
0003f0 b7 9e 0d 3e 10 c8 9f bb 4a 25 86 3d c7 7d ea bd
       0.13830076 -0.004876144 0.06550081 -0.114497714

features_model.0.bias f4 [128]
000000 b0 f5 f0 3a 10 0f f3 3a 00 00 00 00 d2 b8 b0 3a
       0.0018383767 0.0018543918 0.0 0.0013482815
000010 de eb f2 3a 21 bc dc 3a e4 2b 9d ba bd cd a3 3a
       0.0018533429 0.0016840735 -0.001199123 0.0012497228
000020 ee b4 ed ba ac 4d 9a ba dc ac 95 b9 b8 bd e2 3a
       -0.0018135586 -0.0011772416 -0.00028548285 0.0017298972
000030 28 a0 9f 3a 77 12 95 3a 5c 3a 57 ba 37 3b 75 3a
       0.0012178468 0.0011373301 -0.00082102953 0.0009354832
000040 b2 8c 96 39 a6 2e a0 3a b5 6c ea 3a 7a 42 36 ba
       0.00028715056 0.0012220934 0.001788518 -0.0006952655
000050 d7 c7 a2 3a 33 6a f1 ba aa 14 25 ba 00 87 69 3a
       0.0012419176 -0.0018418491 -0.00062973297 0.0008908361
000060 44 21 e9 3a d4 93 a9 3a 9b 72 00 ba 57 36 03 39
       0.0017786403 0.0012937733 -0.000489989 0.00012513377
000070 f2 65 e0 3a a7 62 9c 39 43 35 85 3a 8f 93 93 3a
       0.0017120226 0.0002982814 0.0010162968 0.0011259186
000080 38 dc e9 3a e4 99 33 3a 24 4e ea ba e9 a0 f0 3a
       0.001784212 0.00068512396 -0.0017876071 0.0018358502
000090 47 54 c2 ba 80 ff d5 ba 4f f8 e0 3a 8c bf 8d ba
       -0.0014826142 -0.0016326755 0.0017163845 -0.0010814532
0000a0 28 36 e4 3a 58 d6 da ba 1b 8b de 3a db 16 e9 3a
       0.0017411159 -0.001669596 0.0016978713 0.0017783301
0000b0 ca ed 89 39 f3 26 e0 3a 90 63 dd 3a cb a5 97 ba
       0.00026307843 0.0017101452 0.0016890634 -0.0011569796
0000c0 d3 a2 ac 3a 77 59 7d 3a 6f e4 95 3a 1e d7 dc 3a
       0.0013171084 0.00096645154 0.0011435876 0.0016848778
0000d0 a1 06 99 3a 29 5f da 3a ef 71 e9 3a 8f 81 ac 3a
       0.0011674949 0.001666044 0.0017810444 0.001316117
0000e0 bf 5e ea 3a f9 9d e8 3a fe 5e e7 3a 06 1d ec 3a
       0.001788102 0.0017747275 0.0017652211 0.0018014021
0000f0 a9 28 a8 ba 3c 7a ed 3a 09 50 ee 3a 69 93 9a ba
       -0.00128295 0.0018118094 0.0018181811 -0.0011793199
000100 92 39 e9 3a 12 3c 27 3a dc 08 57 3a ae 33 e8 ba
       0.0017793647 0.00063794956 0.0008202919 -0.0017715597
000110 36 6d e1 3a 07 fd 25 3a 6d e6 da 3a df e3 98 3a
       0.0017198685 0.00063319545 0.0016700752 0.001166459
000120 00 00 00 00 50 51 9d 3a 6d 19 f7 3a 50 02 93 b9
       0.0 0.0012002382 0.0018852182 -0.00028039748
000130 a7 f8 e8 3a 80 d1 2e b8 15 0a a3 3a 4f d1 ec 3a
       0.00177743 -4.1679945e-05 0.0012438918 0.001806775
000140 8d 1b e2 3a 38 f3 f9 3a f0 8b d4 3a 34 25 98 3a
       0.0017250642 0.0019069677 0.0016216021 0.0011607767
000150 9c 8d e4 3a 27 d4 f1 ba 2f e7 9f 3a 00 00 00 00
       0.0017437222 -0.0018450067 0.0012199635 0.0
000160 72 59 91 3a 69 5d 99 3a 40 7f b9 ba 72 0c e4 3a
       0.0011089279 0.0011700812 -0.0014152303 0.0017398729
000170 96 ab 8e 3a b8 79 6b 3a 00 00 00 00 79 4d da ba
       0.0010884877 0.0008982676 0.0 -0.0016655169
000180 2b 30 9d 3a 86 e4 ae 38 00 4e f4 ba 00 71 2c 3a
       0.0011992505 8.339532e-05 -0.0018638968 0.00065781176
000190 58 25 ee ba 5e 6e e1 3a db 61 81 3a f0 b9 3e 3a
       -0.0018169088 0.001719903 0.0009871082 0.00072756317
0001a0 66 27 9f b9 c8 b2 db b7 e9 1c 93 ba 65 29 85 3a
       -0.00030356197 -2.6190086e-05 -0.0011223826 0.0010159431
0001b0 43 3f 1c 3a 8e 52 b3 3a 67 07 da 3a 3f b9 81 ba
       0.00059603545 0.001368122 0.0016634286 -0.0009897127
0001c0 f7 93 76 3a 1e f7 cb ba 00 00 00 00 e4 c4 96 ba
       0.0009406204 -0.0015561318 0.0 -0.001150277
0001d0 8c 4b ef ba 8e 1d 5f 3a 19 7d e5 3a d9 18 f2 3a
       -0.0018256768 0.0008511179 0.0017508595 0.001847054
0001e0 b7 e6 cf 3a 78 cb 99 3a 00 00 00 00 ce 91 df ba
       0.0015861605 0.0011733612 0.0 -0.0017057003
0001f0 00 00 00 00 81 da a3 b9 d3 f8 e6 3a c8 83 9f 3a
       0.0 -0.0003125258 0.0017621763 0.0012170011

features_model.2.weight f4 [128, 128]
000000 78 03 73 3d 34 28 7f bd ec 50 f8 bb 92 4a 11 bd
       0.05932948 -0.0622942 -0.007578006 -0.035471506
000010 5c 39 ed 3c 17 90 6a 3e 89 d3 4b 3c ff 7c c5 3d
       0.028958015 0.22906528 0.012440571 0.09642982
000020 76 d2 85 bd 43 ae 33 be b4 81 24 3d 17 32 da bd
       -0.06534283 -0.17546944 0.040162757 -0.10654085
000030 00 83 30 3e 47 79 d8 bd 16 73 3a bd 61 03 6f 3d
       0.17237473 -0.10570007 -0.04551991 0.05835283
000040 dd 78 b0 bd 64 b8 ea 3d ae 24 12 be f8 6d 2c 3e
       -0.08616803 0.11460951 -0.14271805 0.16838825
000050 4d 28 dc 3d f2 7d ab 3d 77 a2 3f 3e 4f 4f 3a bd
       0.10749874 0.083736315 0.18714319 -0.04548579
000060 7b 84 81 3d 68 25 63 be 7f 75 14 bc be c3 ed bc
       0.06324097 -0.22182238 -0.009061216 -0.029024001
000070 87 4c 95 3d 74 28 c4 3d 77 c5 10 bc 41 f8 93 3e
       0.07289987 0.09578028 -0.008836142 0.2890034
000080 fc b5 49 3e 09 db 46 be 80 fc 04 3e 30 c7 0f be
       0.19698328 -0.19419493 0.12986946 -0.14040828
000090 59 0b 25 bd b5 a2 84 bc 6d 91 81 3c b5 28 3a be
       -0.040294025 -0.016190866 0.015816415 -0.18179591
0000a0 fd 55 44 be 35 e0 8d bd ec cb 2e bd df 91 aa bc
       -0.19173427 -0.0692753 -0.042674944 -0.02082151
0000b0 ea b8 95 3b 0c 3b dd 3d f5 1b 00 be 7f b9 94 be
       0.0045691626 0.10802278 -0.12510665 -0.29047772
0000c0 39 a2 84 bd 58 7a 3c 3e 9a f8 25 be 96 dc d1 bd
       -0.06476254 0.18406045 -0.16208115 -0.102471516
0000d0 bd 2f 76 bd bd 79 39 3e fe d5 a3 bd f8 65 00 3e
       -0.06010412 0.18112846 -0.079998 0.12538898
0000e0 33 5e d8 bb e9 7c ac bd 99 f7 0c 3b 4b e3 e4 3d
       -0.0066030263 -0.08422262 0.0021509884 0.11176165
0000f0 63 be 55 3e 12 35 af 3d 48 3a 3a bd 90 16 4f 3e
       0.20873408 0.08555044 -0.045465738 0.2022345
000100 5c 17 0a 3e 3f e2 01 3e 1a 39 f7 3d 48 0e 01 bd
       0.13485473 0.12683962 0.12071438 -0.03150776
000110 80 59 f1 bc 94 00 b2 ba 8d 6a 8a 3c d1 e1 36 bd
       -0.029461622 -0.0013580495 0.01689651 -0.04464895
000120 d9 99 1a be 55 b9 e7 3d 56 1e a9 3e 74 d4 d1 3c
       -0.1509775 0.11314646 0.33030957 0.025614
000130 9b 7a 6b bd 6b b9 4d be f9 ef a4 bc bf 3d 7e bd
       -0.057489973 -0.20090263 -0.02013396 -0.062070604
000140 b1 51 2a 3d 33 49 b2 3b 34 1d 24 be 6c 16 4c 3e
       0.041581813 0.005440855 -0.16026765 0.19930428
000150 34 ca 06 3e 91 20 87 3e b0 eb f5 bc 79 73 8c 3d
       0.13163072 0.26392034 -0.030019611 0.06857962
000160 79 ad 41 be fe 19 f1 bd 8f ca df bd 5e 46 d7 3d
       -0.18913831 -0.11772536 -0.10927307 0.10511468
000170 51 aa b0 3d e5 80 36 be 5e dd 47 3d 79 69 64 bc
       0.08626235 -0.17822607 0.048795097 -0.013941162
000180 e3 62 80 be 15 75 00 3e 5b 7e c6 3d da 66 06 be
       -0.25075445 0.12544663 0.09692069 -0.13125172
000190 38 7e f7 bd 57 0a 1e be 4f 81 16 be 61 67 c6 bb
       -0.12084621 -0.15433632 -0.14697765 -0.006054804
0001a0 33 a5 55 be 10 b6 c3 3d 58 e8 50 be 2e 65 45 bd
       -0.208638 0.0955621 -0.20401132 -0.048192196
0001b0 9c bb 5f 3d 36 9c 4f 3d 75 b8 11 3e 52 4e 49 3c
       0.054622278 0.050686084 0.14230521 0.012286739
0001c0 d7 6f 0d 3e a7 ff 36 be 48 f8 19 3e bb 3b 49 3d
       0.13812195 -0.17870961 0.15036118 0.04912923
0001d0 db eb 85 bd 42 5b 26 be d3 a9 12 bd 00 bf f3 3c
       -0.065391265 -0.1624575 -0.03580649 0.029754162
0001e0 a0 31 10 bd 40 73 00 bc 88 81 d8 bc 75 64 46 be
       -0.035203576 -0.007839978 -0.026428953 -0.19374259
0001f0 2f 18 44 3c a0 db 4d 3e 83 c2 0e 3d 5d 25 c9 bd
       0.011968656 0.20103312 0.03485347 -0.098215796
000200 c3 ed 55 bd 74 42 ef bd e1 5b 42 bd b1 b6 d8 3d
       -0.0522287 -0.11682597 -0.047450904 0.105817206
000210 57 3e c8 bd 7d 21 c0 bd 2f f2 44 3e 13 c3 8b 3c
       -0.097775154 -0.093813874 0.1923301 0.017060792
000220 13 03 56 be f4 34 2c 3d 4c 00 d2 3d 34 bd 06 3d
       -0.2089961 0.042042688 0.10253963 0.032895282
000230 29 4e 04 3e 2e 74 2b be ed 55 0c 3c 77 ad 58 3e
       0.1292044 -0.16743538 0.008565408 0.21159922
000240 24 0b ee bc 1b 66 46 be 2e c0 76 3d bd 4f 2d 3e
       -0.029058047 -0.19374888 0.06024187 0.16924949
000250 db c9 03 3d 61 8e 4e 3d e7 7b 22 3e f7 96 b2 3c
       0.032174926 0.05042875 0.15867577 0.021800501
000260 df ce 14 3e e7 48 0c 3e 83 f5 4b bc a8 01 a8 3d
       0.1453204 0.13699685 -0.012448671 0.08203441
000270 7d b1 1b 3d 18 01 f3 3d 90 c6 48 be 8b d7 ea bd
       0.038011063 0.11865443 -0.19606996 -0.11466893
000280 fb 5d cb 3d 92 a5 d7 bd 40 ea e8 b9 71 0e 05 3e
       0.09930035 -0.10529627 -0.00044425018 0.1299379
000290 39 9f ff 3c e1 91 40 bd 32 24 47 3e 98 c3 f1 bd
       0.031203853 -0.04701412 0.19447401 -0.11804885
0002a0 bc 8c 9a 3d 91 ec 3d bd 82 2e 59 be ab 5c e1 bd
       0.07546374 -0.046368185 -0.21209148 -0.11004003
0002b0 ab 62 5f 3d 0c 0e 31 3e b6 0b f9 bd 90 9e 06 3e
       0.054537456 0.17290515 -0.12160437 0.13146424
0002c0 fd 1f d8 bd d8 7c 05 be 94 d2 be 3d b4 a7 5e be
       -0.10552976 -0.13035905 0.09317508 -0.21743661
0002d0 32 26 16 be ab 95 37 3e d7 e6 b9 bd 34 a9 2b 3e
       -0.14663008 0.17928188 -0.09077232 0.16763765
0002e0 0d 78 e4 bc 75 c7 23 be 97 7f 31 3e 7e 22 49 be
       -0.027889276 -0.15994056 0.17333828 -0.19642064
0002f0 d9 2a 82 be 20 61 84 bd 67 b6 71 be e2 89 fb 3d
       -0.25423315 -0.064638376 -0.23604737 0.122821584
000300 1e 75 0f 3e 67 86 99 bd e2 07 f0 3d 58 a6 1a 3e
       0.1400952 -0.07496338 0.117202535 0.15102518
000310 79 b4 8b 3b f7 5d 1f 3e 5c e4 f2 3d 65 9c 49 be
       0.0042634574 0.15563188 0.11859962 -0.19688566
000320 5c d7 15 3e 0f 6e 0b 3d c7 82 a4 3b bd a9 0e be
       0.14632934 0.034040507 0.0050204727 -0.13931938
000330 b0 72 8b 3b 59 80 67 3e 02 45 45 3e db fb 17 3e
       0.004255615 0.22607554 0.19264606 0.14842169
000340 e4 50 38 bd cf 66 53 bd c5 0b 4b 3e 75 54 18 3c
       -0.04499902 -0.051611718 0.19828708 0.00929748
000350 30 62 c6 3d 07 19 77 bd 17 78 fc 3c 0d 11 8f 3d
       0.096866965 -0.060326602 0.030818982 0.06985674
000360 af 83 e8 3d 08 2a 30 3d 04 d0 0e be c0 4d 15 be
       0.11353242 0.043008834 -0.13946539 -0.1458044
000370 1f a0 8e be a5 db 07 be 57 91 b9 bd 6b 9b 4b 3d
       -0.27856538 -0.13267381 -0.090609245 0.049708765
000380 a8 b9 84 3c 00 6d 87 bc 63 11 05 be e1 09 1a 3d
       0.016201809 -0.016531467 -0.12994914 0.037607078
000390 83 98 0c bd 0e 88 35 be e2 75 80 3e 32 30 36 3c
       -0.034325134 -0.17727682 0.25089937 0.011119889
0003a0 a6 b3 9d bc fc 71 5a 3e 2b 68 20 3d 9a b4 9d 3d
       -0.019250702 0.21332544 0.039161842 0.07700463
0003b0 1d 0c c8 3d 45 24 8c bc c0 26 c3 3d 1c 6c 28 3c
       0.097679354 -0.017107138 0.09528875 0.0102796815
0003c0 e1 db a4 3d cb af 91 bd 0e 5d d5 bc 44 c4 87 3c
       0.08049751 -0.07113608 -0.026045348 0.016573079
0003d0 55 61 44 bd 2f 50 dd 3d 40 96 a1 bd d6 44 3d 3e
       -0.047944386 0.108063094 -0.07889986 0.1848329
0003e0 93 46 d5 3d 89 ff 98 bd 82 b6 31 3e e7 e0 18 be
       0.104138516 -0.074706145 0.17354777 -0.14929543
0003f0 b3 01 72 be ca 24 bc bd 77 11 b9 3d db f9 ed 3d
       -0.2363346 -0.091867045 0.09036534 0.11619922

features_model.2.bias f4 [128]
000000 0e 39 ec 3a 64 3d ce 3a f3 6d fe 3a e1 3b e4 3a
       0.0018022375 0.0015734849 0.001941143 0.0017412865
000010 69 fe ed 3a 97 e9 bc 3a 88 95 e6 3a fd 09 e7 3a
       0.0018157485 0.0014412877 0.0017592171 0.0017626878
000020 53 54 fa b9 c8 35 f0 ba 42 d3 2f 3a f0 34 8c 39
       -0.00047746542 -0.0018326575 0.00067072 0.00026742322
000030 bc 36 89 3a f4 ae e6 3a d6 fb 9f ba c9 cf b2 3a
       0.0010468583 0.0017599748 -0.001220579 0.0013642247
000040 b5 6c 90 3a 04 a4 de 39 a9 63 5c 3a 21 4c 90 3a
       0.0011018725 0.0004246534 0.00084071845 0.0011009016
000050 44 a4 b5 3a 2c c3 7b 3a 00 00 00 00 9a 4e cc 39
       0.0013858159 0.0009603973 0.0 0.00038968475
000060 af a1 a2 3a b9 c7 6a ba ae b0 ee 3a 00 00 00 00
       0.0012407805 -0.00089561526 0.0018210614 0.0
000070 e0 03 ea ba e7 66 9a 3a 07 1d ee 3a fd 94 f9 ba
       -0.0017853938 0.0011779935 0.001816661 -0.0019041594
000080 5f 6b ee 3a 33 99 a1 3a 91 dd e2 3a ad 7b 83 ba
       0.0018189958 0.0012328982 0.0017308464 -0.0010031365
000090 d4 98 35 ba 8f e8 dc 3a b9 87 ed 3a ef 29 a9 3a
       -0.0006927375 0.0016853976 0.0018122114 0.0012906174
0000a0 3c 9e 9d 3a bf f5 61 b9 34 85 62 ba 8b 17 eb 3a
       0.0012025307 -0.0002154922 -0.00086410646 0.0017936093
0000b0 33 d6 e1 3a b1 21 8d 3a 1a f2 db 3a 97 c5 ae 3a
       0.0017229974 0.0010767487 0.0016780526 0.0013334033
0000c0 87 62 93 ba 00 d7 e3 3a 0d 90 e5 3a a7 0f ef ba
       -0.0011244573 0.00173828 0.0017514244 -0.0018238918
0000d0 00 00 00 00 5e db a2 3a 00 00 00 00 42 33 a5 3a
       0.0 0.0012424996 0.0 0.0012603777
0000e0 af 99 e9 3a a2 62 e4 3a 1b 55 ec 3a db a2 e6 ba
       0.001782229 0.0017424414 0.0018030734 -0.0017596142
0000f0 88 51 df ba fb 33 a8 3a 00 00 00 00 36 f8 f2 ba
       -0.0017037848 0.0012832874 0.0 -0.0018537107
000100 9f 86 f6 ba 34 c3 c2 39 29 69 80 ba 00 00 00 00
       -0.0018808431 0.00037148 -0.0009796965 0.0
000110 41 a5 43 ba c6 89 9f 3a 3b 55 9d ba 4a 28 3a 3a
       -0.00074632844 0.0012171797 -0.001200355 0.00071013405
000120 40 7c 79 3a fc 72 9d 3a 51 a0 fe 39 55 7d e9 ba
       0.0009517111 0.0012012417 0.000485661 -0.0017813841
000130 5b 87 dd 3a 05 9a a6 3a 24 86 9d 3a bd 94 a0 3a
       0.0016901301 0.0012710696 0.0012018126 0.0012251359
000140 fe 84 eb 3a 3e 07 ef b9 a5 b4 e8 3a ff d4 e0 3a
       0.0017968712 -0.00045591028 0.0017754032 0.0017153322
000150 00 00 00 00 4d ff 4c 39 37 f3 f1 3a 00 00 00 00
       0.0 0.00019550063 0.0018459324 0.0
000160 16 b6 2f ba f4 ab 83 3a 81 43 8b ba 32 f3 85 3a
       -0.0006702853 0.0010045753 -0.0010624976 0.0010219573
000170 00 00 00 00 bd fa a2 ba 71 32 9e 3a 2f 42 ca ba
       0.0 -0.0012434345 0.0012069476 -0.0015431101
000180 ed 84 76 b9 00 00 00 00 00 00 00 00 e8 d2 3e b9
       -0.00023509907 0.0 0.0 -0.0001819838
000190 61 a6 df 3a 00 00 00 00 08 4c ed 3a 54 85 a0 3a
       0.0017063135 0.0 0.0018104324 0.0012246766
0001a0 00 00 00 00 57 fd c9 3a 32 43 97 38 5d f6 87 3a
       0.0 0.0015410584 7.212757e-05 0.0010373105
0001b0 26 59 ed 3a 60 ca ed 3a 53 41 95 3a 3d 78 dd ba
       0.0018108233 0.0018141977 0.0011387266 -0.0016896796
0001c0 41 7b 64 3a f2 cc b8 3a b5 fa 87 b9 73 2c 8a 3a
       0.0008715876 0.0014099164 -0.00025935998 0.0010541811
0001d0 f2 ad e1 3a d1 61 e1 ba d1 bb 9e 3a d8 28 a0 3a
       0.0017217977 -0.0017195289 0.0012110417 0.0012219204
0001e0 6b 0b d5 b9 ae d0 ca 3a c3 a4 e6 3a 38 8c 7f 3a
       -0.00040635033 0.0015473568 0.001759671 0.0009748372
0001f0 fc 18 e6 3a 12 35 d7 3a d8 21 9b ba 0c 41 d9 ba
       0.0017555053 0.0016419014 -0.0011835648 -0.0016575172

features_model.4.weight f4 [128, 128]
000000 ed 6c 6e be b3 85 20 3e 06 85 1b be 52 20 09 3e
       -0.2328374 0.15676002 -0.15187463 0.13391235
000010 49 e3 d5 bd de e7 1c 3e f7 a7 18 3d 79 cd 1b 3e
       -0.10443742 0.15322825 0.03726956 0.152151
000020 45 e1 35 be 0b 00 99 bd d8 f3 f8 3d c9 71 cc 3d
       -0.17761715 -0.07470711 0.121558845 0.0998264
000030 cb f9 ff bd 1b 43 01 be fb 16 32 3e 9d 25 97 3e
       -0.12498816 -0.12623255 0.17391579 0.29520884
000040 98 0b 8e 3d af e7 90 be 3a 5d 08 3d 80 bd 5b 3e
       0.06935805 -0.2830176 0.033292033 0.21459007
000050 e5 b5 d9 3d b0 a0 8f be 6f 85 8a bd 01 0d 11 3b
       0.10630397 -0.28052282 -0.06763732 0.0022132995
000060 39 8b 59 3e 20 bd e2 bd e8 4d 17 3e 98 da f2 3c
       0.21244515 -0.11071229 0.14775813 0.02964525
000070 9d 1f 8e 3d ea 2b 25 bc 02 b7 3b bd 0a cc 3b be
       0.069396235 -0.010081271 -0.045828827 -0.18339553
000080 d2 d1 b3 bd 43 b1 57 be 09 90 a5 bc 87 21 8a 3d
       -0.087802544 -0.21063714 -0.020210283 0.06744676
000090 dc d4 2d 3e a7 1d c5 bd 3e 79 f1 bc cc 15 24 be
       0.1697573 -0.09624796 -0.029476758 -0.1602394
0000a0 0a 88 10 bd 01 6f 1b bc e6 59 38 3d 9e 5f bc bd
       -0.035285987 -0.009486915 0.04500761 -0.09197925
0000b0 1b 26 dc 3c 81 12 d4 3d d7 0f 32 be 0c b1 3e be
       0.026873639 0.10355092 -0.17388855 -0.18622226
0000c0 c3 ee 87 bd f2 79 9c 3e 61 44 8b 3d 0b 7a 31 be
       -0.06637337 0.30561787 0.068001516 -0.17331712
0000d0 a6 f1 70 bd 39 8f 7e 3d 6b 7f 96 3d 69 08 40 be
       -0.058824204 0.062148307 0.07348522 -0.18753208
0000e0 f2 15 7e bd e4 8b df 3d cd 7e 07 bd 98 31 00 be
       -0.062032647 0.10915354 -0.03307991 -0.12518919
0000f0 e4 58 ef 3c 27 9b 51 be 19 f8 d3 bd f0 60 a1 3d
       0.029217191 -0.20469342 -0.10350055 0.078798175
000100 8f 57 1a be ee d0 29 be eb 11 a8 bd e3 7c 1a 3e
       -0.15072463 -0.16583607 -0.082065426 0.15086703
000110 82 70 cb 3b ac 16 53 bd f3 ad 6d 3c 00 be 5d 3e
       0.0062084803 -0.051535293 0.014506805 0.2165451
000120 e1 1b 63 be 8f b5 be bd 10 00 1c be b8 49 d3 3d
       -0.22178604 -0.09311973 -0.15234399 0.10316795
000130 26 e0 e1 bd 46 e6 0c 3e 6a 0e 05 3e dd 73 b0 bd
       -0.11029081 0.13759717 0.1299378 -0.08615849
000140 32 02 c2 3c aa 99 d4 bd 04 9b 82 bc 9e 72 24 3e
       0.023682687 -0.103808716 -0.015943058 0.16059348
000150 8e e9 5f 3d 03 5c d7 3d 69 cc 49 3d 8f 28 91 3d
       0.054666094 0.10515597 0.049267206 0.07087814
000160 7d d0 bd bd e6 96 5c bd 04 e9 c2 bb b4 c4 01 3e
       -0.092682816 -0.053854845 -0.005948188 0.12672693
000170 c4 40 6e 3d 1a 21 79 3d 58 c1 80 bd d2 0b 18 be
       0.058167234 0.060822584 -0.062868774 -0.14848259
000180 72 80 bd 3c 1b 32 e4 3d 57 d2 1f bd c0 fa 43 be
       0.023132537 0.11142369 -0.039018955 -0.19138622
000190 39 3e d5 bd c7 ca 9b 3d 11 a9 c7 bc 04 0b 50 3e
       -0.10412259 0.07607036 -0.02437261 0.20316702
0001a0 60 ff 2b 3e 1b a8 21 bc 41 91 91 3d 00 59 b7 bb
       0.16796637 -0.00986674 0.07107783 -0.0055953264
0001b0 c0 46 0b 3d c1 ff 0f 3e 65 0e dc bc b9 c7 be 3d
       0.03400302 0.14062406 -0.026862333 0.09315438
0001c0 18 e4 3b 3e d8 99 d4 3d 61 c4 87 bd 2f 20 dd 3d
       0.1834873 0.10380906 -0.06629253 0.10797154
0001d0 77 0f 3f bd 21 c8 3d be f8 15 ae 3c 44 71 14 be
       -0.046645608 -0.18533374 0.02125071 -0.14496332
0001e0 55 ea b5 3d 73 3f 57 bd d6 c7 cc 3d d4 21 87 3c
       0.08882586 -0.052550744 0.09999053 0.016495623
0001f0 d7 33 16 be b1 6c 2f 3e 3d 62 de 3d e0 12 d4 3d
       -0.14668213 0.17131306 0.10858581 0.103551626
000200 9a c2 20 3e 4b 0f 05 3e e2 3f 52 3d e1 a3 16 3e
       0.15699235 0.12994115 0.051330455 0.14710952
000210 11 13 dd 3d 5f 75 f6 bc c4 09 77 3d fa a0 d9 bc
       0.10794652 -0.030085264 0.060312048 -0.026566017
000220 37 d2 aa bb 8e 46 e1 bc 9c 24 e0 bd 64 f2 5f bd
       -0.005213048 -0.027499463 -0.10944483 -0.05467452
000230 4e a3 5f 3e b3 0e 3a 3c 95 52 53 bd 37 6c 5c be
       0.2183964 0.011356044 -0.05159243 -0.21525656
000240 8a f6 9e bd 8e 68 20 3e cc 38 eb 3d 8e 2b f7 3d
       -0.07761867 0.15664884 0.114854425 0.12068854
000250 83 ef 80 3c 9e 11 00 bc b0 81 33 3e 53 58 05 3e
       0.015739208 -0.0078167 0.1752994 0.13021974
000260 d7 3d 87 3e 06 68 8d bb 01 64 19 3e 31 4e d2 bd
       0.26414368 -0.004315379 0.14979555 -0.1026882
000270 31 e6 2c bc 95 d8 30 3e 24 6d 9c bd 98 26 c5 bd
       -0.010552929 0.1727012 -0.076380044 -0.09626502
000280 63 ed f8 bd c1 ac 0c 3e bc 8a 0f 3c 5c 45 a9 bc
       -0.12154653 0.13737775 0.008761104 -0.020662956
000290 ba 97 80 bd 26 79 95 be 6e 76 9a 3d 24 97 91 3d
       -0.062789395 -0.2919399 0.0754212 0.07108906
0002a0 b0 fc 0d 3e e8 09 85 bc 5c a0 84 3d be 31 4b 3e
       0.13865924 -0.016240075 0.064758986 0.19843194
0002b0 c2 32 94 3d 99 ae fb 3d b1 6c e8 bb 8e 2d d0 bd
       0.07236244 0.12289161 -0.007093035 -0.10164939
0002c0 56 c9 59 bd 8b 93 81 3e 42 00 5c 3d d9 5e 12 3d
       -0.053170525 0.2530788 0.053711183 0.035734985
0002d0 eb e6 9c 3d e1 5b 29 bd 36 21 5f bd 08 f9 b3 bb
       0.076612316 -0.04134739 -0.05447503 -0.0054923333
0002e0 bb 83 94 3d cf e0 9d bd 60 0a 91 be 6c 69 09 be
       0.07251688 -0.077088945 -0.28328228 -0.13419122
0002f0 00 e4 02 be d6 24 84 be 8c 10 80 be c1 6f e5 3d
       -0.12782288 -0.25809354 -0.25012624 0.11202956
000300 fd 09 35 3e ce 79 16 be 06 86 89 3e 8b 5e e6 3c
       0.17679591 -0.14694902 0.26860064 0.028121253
000310 35 a9 4a be fd 8e 3e bd de 43 01 3e c9 09 cd 3b
       -0.1979111 -0.046523083 0.12623546 0.00625727
000320 6e 3e 4b 3d e8 dd 58 3e ea b9 b2 3d 16 11 9a bc
       0.049620084 0.211784 0.087268665 -0.018806975
000330 b8 0f 3c 3e af 81 18 3e 60 2b 17 bd 6a 2e fe 3d
       0.18365371 0.1489322 -0.0369066 0.124111965
000340 99 a0 d1 3d f0 cc b8 3d ef 9f f3 bc 77 1b 44 3e
       0.1023571 0.09023464 -0.029739348 0.19151102
000350 41 a6 a0 bd 03 5d 94 bd 49 e3 d9 bd a9 92 62 bd
       -0.078442104 -0.07244303 -0.10639054 -0.055315647
000360 e9 e4 f5 bd 3c 4e c4 3d 04 f6 a1 bc de 80 e0 3d
       -0.12006552 0.095852345 -0.01977063 0.109620795
000370 6d c7 72 be 91 7b 5a bd 61 5b 78 3c 23 43 2b 3e
       -0.23708887 -0.0533405 0.015158505 0.1672483
000380 8b a2 b8 bc 6f 71 0c 3e b8 99 11 3e ce da 22 bd
       -0.022538444 0.13715146 0.14218795 -0.03975945
000390 62 b0 1c 3d 2d ec 61 3e 22 de e6 bd 69 f4 36 be
       0.03825415 0.2206275 -0.11272837 -0.17866673
0003a0 3f 8a b6 3d d0 fa f5 3b 81 57 96 3d 9f d6 b9 be
       0.08913087 0.007506706 0.07340909 -0.36296555
0003b0 12 f6 e0 3c 9c 21 a9 bc fe 4c a8 3d b6 7d 95 3d
       0.027461085 -0.020645909 0.0821781 0.07299368
0003c0 3a f6 8c bd 42 66 06 bd 40 23 fe bd 5f 32 3c 3e
       -0.068829015 -0.032812364 -0.12409067 0.1837859
0003d0 3f a8 13 3b 2f d8 3f 3d d6 e9 03 3d b7 3d 31 3e
       0.0022530702 0.046837028 0.032205425 0.17308699
0003e0 f4 20 8e 3d 60 b7 3c 3e 53 d9 99 3d 81 f7 8b 3d
       0.06939879 0.18429327 0.075121544 0.06834317
0003f0 b9 b9 20 bc 27 e4 48 3d bb e4 15 be bb 6d 93 3d
       -0.009809905 0.049045708 -0.14638035 0.07198664

features_model.4.bias f4 [128]
000000 98 e4 a6 3a 66 f4 95 3a d2 99 59 3a be a8 e0 b9
       0.0012732921 0.0011440634 0.0008300814 -0.00042850332
000010 dc 90 ed 3a 00 00 00 00 d1 f5 96 3a cb 16 f9 39
       0.0018124836 0.0 0.0011517351 0.00047509963
000020 4b 42 9c 3a 86 23 9e 3a 87 d7 e9 3a 96 0f e3 3a
       0.0011921612 0.001206503 0.0017840721 0.001732337
000030 00 00 00 00 cf c9 95 3a 9c 9b eb 3a 39 94 9b 3a
       0.0 0.0011427941 0.0017975452 0.0011869735
000040 c8 26 e9 3a eb 99 ef 3a 0d 5c e4 3a 46 3f 26 ba
       0.0017788047 0.0018280124 0.0017422453 -0.0006341826
000050 96 66 9b 3a 57 70 a2 3a 00 00 00 00 74 1d 8f 3a
       0.0011856135 0.0012393099 0.0 0.0010918812
000060 66 c0 56 3a 25 73 d8 3a 67 2e af 3a 6a 59 ed 3a
       0.0008192122 0.0016513808 0.0013365269 0.0018108313
000070 dc 0a ea 3a 00 00 00 00 db c7 ed 3a 79 4c d6 3a
       0.001785602 0.0 0.0018141227 0.0016349695
000080 6b 01 a8 3a bf e4 ef 3a 00 00 00 00 a0 a3 8e 3a
       0.0012817805 0.0018302425 0.0 0.0010882504
000090 de db c6 3a de d2 99 3a 21 a7 e6 3a 46 37 3c 3a
       0.0015171727 0.0011735817 0.0017597416 0.0007179867
0000a0 48 20 fb 39 50 72 e8 3a 17 c6 e1 3a 5a 16 e8 3a
       0.00047898502 0.0017734263 0.0017225173 0.0017706857
0000b0 4e 8c f0 3a 0e c4 c1 3a 00 00 00 00 01 95 eb 3a
       0.0018352361 0.001478316 0.0 0.0017973484
0000c0 71 64 e9 3a 00 00 00 00 b6 8b 1a 3a 9e 7a b4 3a
       0.0017806423 0.0 0.00058954523 0.0013769453
0000d0 cf 63 4f 3a bb 6f 96 3a fa 36 94 3a 2c 71 eb 3a
       0.0007911296 0.001147739 0.0011307888 0.0017962805
0000e0 61 49 02 3a 00 00 00 00 53 a8 e3 3a ab 68 ee 3a
       0.0004970041 0.0 0.001736889 0.0018189152
0000f0 ef 48 70 3a 34 43 e8 3a 00 00 00 00 1e e9 ed 3a
       0.00091661414 0.0017720223 0.0 0.0018151139
000100 98 5a e4 3a e0 d7 ac 3a f3 c1 92 3a c8 f1 be 3a
       0.0017422019 0.0013186894 0.0011196717 0.0014567906
000110 44 be a8 3a 6a 06 0e 3a 3d 20 dd 3a d6 6b c8 3a
       0.0012874086 0.0005417826 0.001687057 0.0015290927
000120 07 3a e9 3a 4e fb a7 39 1d 48 82 3a cb bd eb 3a
       0.0017793783 0.0003203996 0.0009939704 0.001798564
000130 7f d6 e9 3a bd 61 e0 3a bc d8 9e 3a 00 00 00 00
       0.0017840414 0.0017118972 0.0012119035 0.0
000140 a2 d1 67 3a 33 85 f1 3a 20 94 83 3a 83 9d 9a 39
       0.00088431884 0.0018426537 0.0010038652 0.00029490524
000150 6c c5 9b 3a df 21 6d 3a 00 00 00 00 ab 64 9a 3a
       0.0011884398 0.00090458797 0.0 0.0011779269
000160 86 1d ef 3a fc 24 93 3a c7 0a e5 3a b3 00 4d 3a
       0.0018243052 0.0011226232 0.0017474525 0.00078202336
000170 19 f3 ec 3a a8 2d 99 3a cd d9 d2 3a 00 00 00 00
       0.001807782 0.001168658 0.0016086638 0.0
000180 92 25 e7 3a 76 69 9a 3a 37 18 8b 3a b4 ed 74 3a
       0.0017635098 0.0011780697 0.0010612075 0.0009343282
000190 1f e2 e6 3a 00 00 00 00 ff 14 99 3a 00 00 00 00
       0.0017614997 0.0 0.0011679231 0.0
0001a0 b6 57 6c 3a 66 ae a2 3a 49 0a eb 3a 34 43 f2 3a
       0.00090157555 0.0012411594 0.0017932142 0.0018483163
0001b0 00 00 00 00 00 00 00 00 50 f1 8e 3a 00 00 00 00
       0.0 0.0 0.0010905657 0.0
0001c0 08 b4 9c 3a 94 2e e0 3a e6 de ed 3a b9 09 ee 3a
       0.0011955509 0.0017103725 0.0018148094 0.0018160857
0001d0 00 00 00 00 d8 58 4f 3a 1a c1 46 3a 97 4b 60 3a
       0.0 0.0007909662 0.0007581875 0.00085561856
0001e0 e3 2a 90 3a 52 ed 83 3a f8 72 91 3a e4 f6 e1 3a
       0.0010999109 0.0010065234 0.0011096885 0.0017239717
0001f0 e2 6d 85 39 3d fe e3 3a 8a 5d 9e 3a 19 64 ee 3a
       0.00025449606 0.0017394494 0.001208232 0.001818779

policy_model.0.weight f4 [128, 128]
000000 84 83 ca 3a bf af b2 ba a2 ea bb ba 34 ff 9c ba
       0.0015450572 -0.0013632699 -0.0014336894 -0.0011977912
000010 cd 9c 9d b9 14 c1 22 39 2a 4f 79 ba 75 10 3c 39
       -0.000300622 0.00015521451 -0.00095103926 0.00017935208
000020 d0 df 33 ba 7b 54 88 39 cc b7 89 ba d5 59 30 bb
       -0.0006861659 0.00026002884 -0.0010507046 -0.0026909013
000030 ae a5 a4 3a e4 c5 17 bb 8d 9b 90 ba 05 f9 11 ba
       0.0012561583 -0.0023158723 -0.0011032686 -0.0005568418
000040 b0 40 eb ba 31 c3 5a ba 55 69 97 b9 47 d5 09 38
       -0.0017948356 -0.0008345126 -0.00028879443 3.2861975e-05
000050 02 e5 c6 b9 52 33 9a b9 b8 48 32 ba 01 53 1b 3a
       -0.00037936127 -0.00029411406 -0.0006800997 0.00059251493
000060 4e 9e 88 ba 14 72 09 3a fd 43 3e ba 11 34 9f ba
       -0.0010423155 0.0005243134 -0.0007258056 -0.0012146254
000070 53 86 cd ba 24 a6 ae ba 11 06 a3 b9 88 e7 02 bb
       -0.001568029 -0.001332466 -0.00031094303 -0.001997443
000080 fa 78 0d bb 4b 70 bf ba 95 48 1a ba f2 a8 4f 39
       -0.0021587 -0.001460561 -0.00058854494 0.00019803995
000090 04 27 a8 b9 05 8c 8f ba 22 b8 7a ba 1b b2 ac ba
       -0.00032072526 -0.0010951763 -0.0009564181 -0.0013175638
0000a0 65 96 9d 3a 02 ae ca ba a7 fe a6 b9 e1 9b 11 ba
       0.001202297 -0.0015463235 -0.00031851718 -0.0005554539
0000b0 1c 79 e3 b8 2e 64 c7 39 5b 92 fe b9 d5 85 92 ba
       -0.00010846762 0.00038030877 -0.000485557 -0.0011178801
0000c0 f6 cd 9c ba 6a 7e 7e 3a 78 8b 0d 3b 1c 74 7c ba
       -0.0011963237 0.0009708168 0.0021598022 -0.0009630339
0000d0 3d b0 8a 3a eb 1b a4 39 86 c6 df b9 72 0f 69 39
       0.0010581088 0.00031301318 -0.00042681786 0.00022226365
0000e0 59 f3 14 3a 5b ab 42 39 39 fe 1b bb 4c 11 25 ba
       0.00056820136 0.00018565117 -0.0023802652 -0.0006296828
0000f0 56 b0 af 3a 20 b1 cd b9 e0 18 ca b8 6f de f4 b9
       0.0013403993 -0.00039232615 -9.636744e-05 -0.00046705033
000100 e8 8c ca ba da 90 4f 39 64 6f 8e 3a dc 78 38 b9
       -0.001545337 0.0001979502 0.0010866937 -0.00017592631
000110 1a 93 9f 39 a1 21 ba 3a c4 e0 89 ba 3f 44 7c b9
       0.00030436442 0.0014200696 -0.0010519256 -0.00024058016
000120 68 41 bd 39 b4 ce b1 b9 b8 83 9d b8 bf fb d9 39
       0.0003609762 -0.00033914077 -7.510878e-05 0.0004157703
000130 38 f8 95 ba 1c 49 c4 38 bb 2c 7c ba ea 39 3f 3a
       -0.0011441773 9.359626e-05 -0.00096197025 0.00072947016
000140 b4 b4 b2 ba dc 44 d0 ba ce c9 8e ba 76 24 12 3b
       -0.0013634176 -0.0015889662 -0.0010893883 0.0022299564
000150 50 f2 3f 3a 10 31 9c ba 51 f2 97 3a 88 a7 a2 ba
       0.0007322179 -0.0011916477 0.0011592602 -0.0012409547
000160 24 02 6d ba 06 4d cd 39 d8 e3 a8 3a ce e9 a8 36
       -0.00090411515 0.00039158034 0.0012885286 5.0340086e-06
000170 c8 1e 07 ba b5 ca 0d 3a e6 ce 7b ba 34 5f 9a 39
       -0.0005154428 0.0005408929 -0.00096057204 0.000294441
000180 f7 6e 83 ba 2d 8d 15 bb 13 6e c9 ba 55 2c 48 ba
       -0.0010027577 -0.0022819743 -0.0015367888 -0.00076360005
000190 65 31 d3 b9 a7 42 9b ba af bf 34 3a ca 24 8d b9
       -0.00040281858 -0.0011845425 0.0006895018 -0.00026921026
0001a0 86 32 11 3a fe 5e 49 ba 71 d3 ab ba c0 05 7f ba
       0.00055388396 -0.00076816964 -0.0013109279 -0.0009728335
0001b0 e0 0d 27 39 c4 82 30 ba fe 37 95 3a 83 a7 96 ba
       0.0001593153 -0.0006733353 0.0011384485 -0.0011494014
0001c0 fa 31 f1 39 cd c2 6a 38 ee 49 93 ba f2 cc a1 b7
       0.00046004337 5.597137e-05 -0.0011237243 -1.928813e-05
0001d0 94 d8 c0 b5 c4 b7 af ba 11 7c 83 3a 60 bd 2e b9
       -1.4368147e-06 -0.0013406207 0.0010031482 -0.00016664481
0001e0 1a 0a ee ba 11 c3 c9 ba 86 1a 02 3a ae f4 15 b9
       -0.001816097 -0.0015393217 0.0004963059 -0.00014300898
0001f0 96 ab 1b ba c9 a7 d1 ba 17 46 b8 ba 65 5b fe ba
       -0.0005938349 -0.0015995438 -0.0014058974 -0.00194059
000200 e6 be 1c bb 32 1a 53 3b 14 66 35 3b b4 49 e9 39
       -0.0023917495 0.0032211659 0.0027679252 0.00044496136
000210 e0 ff 0b ba 5c f7 cc 3a 43 cd 6c ba 0a f0 89 3a
       -0.00053405575 0.0015637684 -0.0009033272 0.0010523808
000220 f6 27 5d 3b c6 b9 31 ba 29 99 ee 3a 83 36 9c ba
       0.0033745742 -0.00067796966 0.0018203604 -0.0011918101
000230 19 5a 10 ba 1b ce ab 3a 4b ff 1a 3b 41 b7 5d 3b
       -0.00055065897 0.0013107689 0.0023650702 0.0033831152
000240 87 2b 58 3a c8 b8 e8 3a ea 16 05 3b 98 45 71 39
       0.0008246232 0.0017755264 0.0020307847 0.00023009477
000250 9c f1 17 3b 7b 97 59 ba 85 42 a4 ba c8 c2 4a 3b
       0.0023184782 -0.00083004654 -0.0012532031 0.0030938853
000260 8b 53 b1 3a 41 6d 7d 3b 82 ec a9 3a 7c 72 69 39
       0.0013528926 0.0038669857 0.0012964162 0.0002226326
000270 86 97 12 3b dd 82 92 39 1c 5d 07 3b f4 f6 26 3b
       0.0022368147 0.0002794479 0.0020654863 0.0025476785
000280 b7 83 f7 3a 18 40 e1 3a 1c 28 0f ba f6 22 be 3a
       0.0018883859 0.0017185239 -0.0005460994 0.0014506269
000290 56 bb 2c 3b bf b3 c1 3a 32 3f 7b 3a ab 6c ed 3a
       0.0026356778 0.00147783 0.0009584307 0.0018114051
0002a0 35 67 e8 38 22 77 d6 b8 7c 09 72 b9 52 e6 bf 3a
       0.00011081846 -0.000102265054 -0.00023082452 0.0014640784
0002b0 f6 b9 be 3a 9e 9c ce 3a 99 d2 f9 b8 52 27 b2 ba
       0.001455127 0.0015763228 -0.00011912472 -0.0013592041
0002c0 85 8e f1 3a 47 55 22 ba 53 8e 26 bb 15 f8 bc 3a
       0.0018429315 -0.0006192517 -0.0025414422 0.0014417196
0002d0 22 59 fe b9 57 88 eb 3a 6f 27 0a 3b bc 82 f2 3a
       -0.00048513064 0.001796971 0.0021080633 0.0018502097
0002e0 86 f9 b3 3a 53 0d 9e ba 41 d0 87 3a 2b 84 10 3b
       0.001373098 -0.0012058414 0.0010361747 0.0022051434
0002f0 08 97 10 ba 85 c3 19 bb 15 ac 8d b8 83 8b 3c ba
       -0.00055156695 -0.0023462486 -6.755457e-05 -0.000719242
000300 96 c6 32 3b 13 97 d8 39 4c b4 e8 3a 9b 59 07 3b
       0.002727901 0.0004131129 0.0017753928 0.0020652774
000310 b1 b8 22 3b f9 7c 18 3b 5c d9 44 3a a4 a4 48 3b
       0.0024829323 0.002326785 0.0007509196 0.0030615712
000320 24 45 c7 39 b8 48 6d 38 56 6b b2 ba 86 30 16 3a
       0.00038007752 5.6572928e-05 -0.0013612311 0.00057292765
000330 59 7d f8 3a 98 1c 6b 3a b8 3c cc 39 5d 14 07 3b
       0.0018958255 0.00089687994 0.0003895515 0.0020611503
000340 39 c7 cc 3a b8 4a 5e 39 75 79 eb 3a 8b 29 2a 3a
       0.0015623338 0.00021199405 0.0017965274 0.0006491176
000350 b1 f8 8e 3a 84 7b 78 3a 41 b8 33 3a e4 87 18 3b
       0.0010907856 0.00094788545 0.0006855764 0.0023274356
000360 6b a7 68 3a 46 b4 c4 3a 3d 47 66 39 13 28 87 39
       0.0008875045 0.0015007339 0.00021961048 0.00025779064
000370 ff 2b 1e 3b d4 c1 a4 b9 9e 9e 34 ba 66 b4 73 b8
       0.002413511 -0.0003142493 -0.0006890091 -5.8103724e-05
000380 ff 32 d1 3a a6 97 1d 3b 16 1c ce 3a 77 7e 75 ba
       0.0015960633 0.0024046688 0.0015724923 -0.0009364853
000390 ac 10 8c b9 41 16 bd b8 68 25 d5 b9 eb 34 91 3a
       -0.00026715302 -9.0163674e-05 -0.00040654396 0.0011078393
0003a0 df 2e ac 3a fe b1 d8 3a b0 bd 8e 3a f4 cc 91 3a
       0.0013136527 0.0016532538 0.0010890272 0.0011123703
0003b0 9c c0 bc 37 95 5e d2 ba a2 7e a8 ba 5f ec 13 b9
       2.2501037e-05 -0.0016049916 -0.0012855122 -0.00014107068
0003c0 4f c3 a9 ba 51 03 82 3a 19 54 f7 3a 92 73 0c 3b
       -0.0012951883 0.0009919201 0.0018869668 0.002143119
0003d0 84 70 c1 39 94 af 9e ba dc 05 d0 39 60 aa 97 3a
       0.0003689566 -0.001210677 0.00039677217 0.0011571161
0003e0 b7 c5 0a 3a 9a 4d 02 3a ed 63 ab 39 8b 83 2a 3b
       0.0005293744 0.000497067 0.00032690112 0.0026018347
0003f0 b6 74 ad ba aa 64 35 3b 5e f8 39 3a 80 79 6b ba
       -0.0013233635 0.0027678409 0.00070941995 -0.00089826435

policy_model.0.bias f4 [128]
000000 53 83 77 ba 66 fe f6 3a 00 00 00 00 98 71 48 ba
       -0.0009441871 0.0018844127 0.0 -0.00076463213
000010 66 62 58 3a e6 59 88 ba 82 04 04 3b 32 44 e3 3a
       0.00082544086 -0.0010402768 0.0020144288 0.0017339049
000020 82 0c 78 ba 00 00 00 00 02 05 c4 39 32 7e 77 ba
       -0.0009462313 0.0 0.00037387764 -0.0009441107
000030 00 00 00 00 00 00 00 00 b0 7b f1 3a 81 66 f3 3a
       0.0 0.0 0.0018423703 0.0018569977
000040 d9 da 01 3b bf 2a 78 ba 12 70 dc 3a 66 96 e0 3a
       0.0019814281 -0.0009466819 0.0016818068 0.0017134666
000050 81 1b 78 ba 1e a8 e7 3a 3f f0 eb 3a 00 38 cf 39
       -0.00094645476 0.0017674004 0.0018000676 0.0003952384
000060 ab 94 43 3a 00 00 00 00 00 00 00 00 83 11 78 ba
       0.0007460813 0.0 0.0 -0.00094630587
000070 16 d3 02 3b 1e 80 a3 39 53 b6 4a ba 6f 1d 78 ba
       0.0019962243 0.00031185237 -0.0007732857 -0.0009464835
000080 32 64 e0 3a 60 a9 03 3b a4 c3 b4 39 9f b7 05 3a
       0.0017119704 0.002008997 0.0003447804 0.0005100909
000090 ae 23 04 3b 37 02 78 ba d0 21 78 ba ae 1a 78 ba
       0.0020162868 -0.0009460779 -0.00094654877 -0.0009464425
0000a0 7f f4 f0 3a d0 b8 92 ba 81 b9 77 ba 82 b5 f7 3a
       0.0018383412 -0.0011193994 -0.00094499445 0.0018898698
0000b0 12 a2 f6 3a 03 34 d9 3a 5c ca 01 3b 00 00 00 00
       0.0018816611 0.0016571287 0.0019804453 0.0
0000c0 00 00 00 00 64 10 06 3a 65 9b 01 3b 39 b2 f4 3a
       0.0 0.0005114137 0.001977646 0.0018668837
0000d0 00 00 00 00 00 00 00 00 ce 11 fe 3a 7e c7 77 ba
       0.0 0.0 0.0019383968 -0.0009452029
0000e0 0a b6 61 38 12 7c 83 3a 9c b6 77 ba 77 08 78 ba
       5.3813717e-05 0.0010031483 -0.0009449513 -0.00094617106
0000f0 95 ca f3 3a 02 48 e0 3a 00 00 00 00 1e db 85 ba
       0.0018599803 0.0017111304 0.0 -0.0010212397
000100 13 2a 2f 3a 4f 87 f2 3a 98 98 00 3b 32 39 8b 3a
       0.000668199 0.001850346 0.0019622203 0.0010621904
000110 00 00 00 00 b2 b2 f7 3a e0 32 71 ba d7 0d 78 ba
       0.0 0.001889786 -0.00092010014 -0.00094625115
000120 6c 1e a1 ba c6 d5 80 39 b9 10 78 ba 9a 86 77 ba
       -0.0012292392 0.00024573336 -0.0009462941 -0.00094423594
000130 27 2b 78 ba 30 2c 04 3b 59 57 38 39 2a 1e 78 ba
       -0.00094668794 0.002016794 0.00017580147 -0.0009464944
000140 7b 7f 86 b9 fe 10 78 ba da 1a 78 ba 74 4b f9 3a
       -0.00025653452 -0.0009462981 -0.00094644504 0.0019019679
000150 d1 8c fe 3a 0f 8b d8 3a 4a 25 78 ba 98 b0 3f 3a
       0.0019420629 0.0016520935 -0.0009466006 0.00073123863
000160 fe 55 66 3a 71 3b f4 3a 83 d5 bd 3a 32 e6 77 ba
       0.00087866175 0.0018633438 0.0014483187 -0.0009456604
000170 38 29 50 b8 b7 d9 ac ba 00 00 00 00 76 cb f2 3a
       -4.9629452e-05 -0.0013187443 0.0 0.0018523771
000180 fb b4 5f ba 4f 5f 0f b9 80 1d f6 3a 89 a4 d8 3a
       -0.0008533743 -0.00013673048 0.0018777102 0.0016528527
000190 b7 ba 57 3a 35 1d 3f ba 00 00 00 00 21 b4 ff 3a
       0.0008229422 -0.0007290424 0.0 0.0019508639
0001a0 68 57 3f 3a 6d b6 96 3a 60 db ad 3a 97 e2 77 ba
       0.00072990963 0.0011498459 0.0013264231 -0.0009456067
0001b0 6b d7 77 ba 53 f7 a0 b9 07 5c fb 3a 80 d7 95 3a
       -0.0009454402 -0.0003070185 0.0019177207 0.0011432022
0001c0 b5 ee 19 3a a8 07 db 3a d5 55 b5 3a 86 3e 3e ba
       0.0005872057 0.0016710656 0.0013834784 -0.00072572415
0001d0 aa 1a f5 ba ae c1 cc 3a 00 00 00 00 72 ca a3 39
       -0.0018699963 0.0015621686 0.0 0.00031240616
0001e0 13 28 78 ba e3 75 f7 3a ae 61 3c 3a c9 da 94 ba
       -0.0009466421 0.0018879737 0.0007186186 -0.0011356707
0001f0 73 74 76 ba 9e 1f f0 3a c7 32 5f 3a fa b1 77 ba
       -0.00094015076 0.001831997 0.00085143413 -0.0009448823
